…
I1203 08:37:03.074139 17664 net.cpp:294] The NetState phase (0) differed from the phase (1) specified by a rule in layer accuracy
I1203 08:37:03.074139 17664 net.cpp:51] Initializing net from parameters: 
name: "CIFAR10_resnet_32_"
state {
  phase: TRAIN
  level: 0
  stage: ""
}
layer {
  name: "cifar"
  type: "Data"
  top: "data"
  top: "label"
  include {
    phase: TRAIN
  }
  transform_param {
    mirror: true
    crop_size: 32
  }
  data_param {
    source: "examples/cifar10/cifar10_train_leveldb_padding"
    batch_size: 100
    backend: LEVELDB
  }
}
layer {
  name: "first_conv"
  type: "Convolution"
  bottom: "data"
  top: "first_conv"
  param {
    lr_mult: 1
    decay_mult: 1
  }
  convolution_param {
    num_output: 16
    pad: 1
    kernel_size: 3
    stride: 1
    weight_filler {
      type: "msra"
    }
  }
}
layer {
  name: "first_conv_bn"
  type: "BatchNorm"
  bottom: "first_conv"
  top: "first_conv"
  param {
    lr_mult: 0
    decay_mult: 0
  }
  param {
    lr_mult: 0
    decay_mult: 0
  }
  param {
    lr_mult: 0
    decay_mult: 0
  }
}
layer {
  name: "first_conv_scale"
  type: "Scale"
  bottom: "first_conv"
  top: "first_conv"
  scale_param {
    bias_term: true
  }
}
layer {
  name: "first_conv_relu"
  type: "ReLU"
  bottom: "first_conv"
  top: "first_conv"
}
layer {
  name: "group0_block0_conv0"
  type: "Convolution"
  bottom: "first_conv"
  top: "group0_block0_conv0"
  param {
    lr_mult: 1
    decay_mult: 1
  }
  convolution_param {
    num_output: 16
    pad: 1
    kernel_size: 3
    stride: 1
    weight_filler {
      type: "msra"
    }
  }
}
layer {
  name: "group0_block0_conv0_bn"
  type: "BatchNorm"
  bottom: "group0_block0_conv0"
  top: "group0_block0_conv0"
  param {
    lr_mult: 0
    decay_mult: 0
  }
  param {
    lr_mult: 0
    decay_mult: 0
  }
  param {
    lr_mult: 0
    decay_mult: 0
  }
}
layer {
  name: "group0_block0_conv0_scale"
  type: "Scale"
  bottom: "group0_block0_conv0"
  top: "group0_block0_conv0"
  scale_param {
    bias_term: true
  }
}
layer {
  name: "group0_block0_conv0_relu"
  type: "ReLU"
  bottom: "group0_block0_conv0"
  top: "group0_block0_conv0"
}
layer {
  name: "group0_block0_conv1"
  type: "Convolution"
  bottom: "group0_block0_conv0"
  top: "group0_block0_conv1"
  param {
    lr_mult: 1
    decay_mult: 1
  }
  convolution_param {
    num_output: 16
    pad: 1
    kernel_size: 3
    stride: 1
    weight_filler {
      type: "msra"
    }
  }
}
layer {
  name: "group0_block0_conv1_bn"
  type: "BatchNorm"
  bottom: "group0_block0_conv1"
  top: "group0_block0_conv1"
  param {
    lr_mult: 0
    decay_mult: 0
  }
  param {
    lr_mult: 0
    decay_mult: 0
  }
  param {
    lr_mult: 0
    decay_mult: 0
  }
}
layer {
  name: "group0_block0_conv1_scale"
  type: "Scale"
  bottom: "group0_block0_conv1"
  top: "group0_block0_conv1"
  scale_param {
    bias_term: true
  }
}
layer {
  name: "group0_block0_sum"
  type: "Eltwise"
  bottom: "group0_block0_conv1"
  bottom: "first_conv"
  top: "group0_block0_sum"
  eltwise_param {
    operation: SUM
  }
}
layer {
  name: "group0_block1_conv0"
  type: "Convolution"
  bottom: "group0_block0_sum"
  top: "group0_block1_conv0"
  param {
    lr_mult: 1
    decay_mult: 1
  }
  convolution_param {
    num_output: 16
    pad: 1
    kernel_size: 3
    stride: 1
    weight_filler {
      type: "msra"
    }
  }
}
layer {
  name: "group0_block1_conv0_bn"
  type: "BatchNorm"
  bottom: "group0_block1_conv0"
  top: "group0_block1_conv0"
  param {
    lr_mult: 0
    decay_mult: 0
  }
  param {
    lr_mult: 0
    decay_mult: 0
  }
  param {
    lr_mult: 0
    decay_mult: 0
  }
}
layer {
  name: "group0_block1_conv0_scale"
  type: "Scale"
  bottom: "group0_block1_conv0"
  top: "group0_block1_conv0"
  scale_param {
    bias_term: true
  }
}
layer {
  name: "group0_block1_conv0_relu"
  type: "ReLU"
  bottom: "group0_block1_conv0"
  top: "group0_block1_conv0"
}
layer {
  name: "group0_block1_conv1"
  type: "Convolution"
  bottom: "group0_block1_conv0"
  top: "group0_block1_conv1"
  param {
    lr_mult: 1
    decay_mult: 1
  }
  convolution_param {
    num_output: 16
    pad: 1
    kernel_size: 3
    stride: 1
    weight_filler {
      type: "msra"
    }
  }
}
layer {
  name: "group0_block1_conv1_bn"
  type: "BatchNorm"
  bottom: "group0_block1_conv1"
  top: "group0_block1_conv1"
  param {
    lr_mult: 0
    decay_mult: 0
  }
  param {
    lr_mult: 0
    decay_mult: 0
  }
  param {
    lr_mult: 0
    decay_mult: 0
  }
}
layer {
  name: "group0_block1_conv1_scale"
  type: "Scale"
  bottom: "group0_block1_conv1"
  top: "group0_block1_conv1"
  scale_param {
    bias_term: true
  }
}
layer {
  name: "group0_block1_sum"
  type: "Eltwise"
  bottom: "group0_block1_conv1"
  bottom: "group0_block0_sum"
  top: "group0_block1_sum"
  eltwise_param {
    operation: SUM
  }
}
layer {
  name: "group0_block2_conv0"
  type: "Convolution"
  bottom: "group0_block1_sum"
  top: "group0_block2_conv0"
  param {
    lr_mult: 1
    decay_mult: 1
  }
  convolution_param {
    num_output: 16
    pad: 1
    kernel_size: 3
    stride: 1
    weight_filler {
      type: "msra"
    }
  }
}
layer {
  name: "group0_block2_conv0_bn"
  type: "BatchNorm"
  bottom: "group0_block2_conv0"
  top: "group0_block2_conv0"
  param {
    lr_mult: 0
    decay_mult: 0
  }
  param {
    lr_mult: 0
    decay_mult: 0
  }
  param {
    lr_mult: 0
    decay_mult: 0
  }
}
layer {
  name: "group0_block2_conv0_scale"
  type: "Scale"
  bottom: "group0_block2_conv0"
  top: "group0_block2_conv0"
  scale_param {
    bias_term: true
  }
}
layer {
  name: "group0_block2_conv0_relu"
  type: "ReLU"
  bottom: "group0_block2_conv0"
  top: "group0_block2_conv0"
}
layer {
  name: "group0_block2_conv1"
  type: "Convolution"
  bottom: "group0_block2_conv0"
  top: "group0_block2_conv1"
  param {
    lr_mult: 1
    decay_mult: 1
  }
  convolution_param {
    num_output: 16
    pad: 1
    kernel_size: 3
    stride: 1
    weight_filler {
      type: "msra"
    }
  }
}
layer {
  name: "group0_block2_conv1_bn"
  type: "BatchNorm"
  bottom: "group0_block2_conv1"
  top: "group0_block2_conv1"
  param {
    lr_mult: 0
    decay_mult: 0
  }
  param {
    lr_mult: 0
    decay_mult: 0
  }
  param {
    lr_mult: 0
    decay_mult: 0
  }
}
layer {
  name: "group0_block2_conv1_scale"
  type: "Scale"
  bottom: "group0_block2_conv1"
  top: "group0_block2_conv1"
  scale_param {
    bias_term: true
  }
}
layer {
  name: "group0_block2_sum"
  type: "Eltwise"
  bottom: "group0_block2_conv1"
  bottom: "group0_block1_sum"
  top: "group0_block2_sum"
  eltwise_param {
    operation: SUM
  }
}
layer {
  name: "group0_block3_conv0"
  type: "Convolution"
  bottom: "group0_block2_sum"
  top: "group0_block3_conv0"
  param {
    lr_mult: 1
    decay_mult: 1
  }
  convolution_param {
    num_output: 16
    pad: 1
    kernel_size: 3
    stride: 1
    weight_filler {
      type: "msra"
    }
  }
}
layer {
  name: "group0_block3_conv0_bn"
  type: "BatchNorm"
  bottom: "group0_block3_conv0"
  top: "group0_block3_conv0"
  param {
    lr_mult: 0
    decay_mult: 0
  }
  param {
    lr_mult: 0
    decay_mult: 0
  }
  param {
    lr_mult: 0
    decay_mult: 0
  }
}
layer {
  name: "group0_block3_conv0_scale"
  type: "Scale"
  bottom: "group0_block3_conv0"
  top: "group0_block3_conv0"
  scale_param {
    bias_term: true
  }
}
layer {
  name: "group0_block3_conv0_relu"
  type: "ReLU"
  bottom: "group0_block3_conv0"
  top: "group0_block3_conv0"
}
layer {
  name: "group0_block3_conv1"
  type: "Convolution"
  bottom: "group0_block3_conv0"
  top: "group0_block3_conv1"
  param {
    lr_mult: 1
    decay_mult: 1
  }
  convolution_param {
    num_output: 16
    pad: 1
    kernel_size: 3
    stride: 1
    weight_filler {
      type: "msra"
    }
  }
}
layer {
  name: "group0_block3_conv1_bn"
  type: "BatchNorm"
  bottom: "group0_block3_conv1"
  top: "group0_block3_conv1"
  param {
    lr_mult: 0
    decay_mult: 0
  }
  param {
    lr_mult: 0
    decay_mult: 0
  }
  param {
    lr_mult: 0
    decay_mult: 0
  }
}
layer {
  name: "group0_block3_conv1_scale"
  type: "Scale"
  bottom: "group0_block3_conv1"
  top: "group0_block3_conv1"
  scale_param {
    bias_term: true
  }
}
layer {
  name: "group0_block3_sum"
  type: "Eltwise"
  bottom: "group0_block3_conv1"
  bottom: "group0_block2_sum"
  top: "group0_block3_sum"
  eltwise_param {
    operation: SUM
  }
}
layer {
  name: "group0_block4_conv0"
  type: "Convolution"
  bottom: "group0_block3_sum"
  top: "group0_block4_conv0"
  param {
    lr_mult: 1
    decay_mult: 1
  }
  convolution_param {
    num_output: 16
    pad: 1
    kernel_size: 3
    stride: 1
    weight_filler {
      type: "msra"
    }
  }
}
layer {
  name: "group0_block4_conv0_bn"
  type: "BatchNorm"
  bottom: "group0_block4_conv0"
  top: "group0_block4_conv0"
  param {
    lr_mult: 0
    decay_mult: 0
  }
  param {
    lr_mult: 0
    decay_mult: 0
  }
  param {
    lr_mult: 0
    decay_mult: 0
  }
}
layer {
  name: "group0_block4_conv0_scale"
  type: "Scale"
  bottom: "group0_block4_conv0"
  top: "group0_block4_conv0"
  scale_param {
    bias_term: true
  }
}
layer {
  name: "group0_block4_conv0_relu"
  type: "ReLU"
  bottom: "group0_block4_conv0"
  top: "group0_block4_conv0"
}
layer {
  name: "group0_block4_conv1"
  type: "Convolution"
  bottom: "group0_block4_conv0"
  top: "group0_block4_conv1"
  param {
    lr_mult: 1
    decay_mult: 1
  }
  convolution_param {
    num_output: 16
    pad: 1
    kernel_size: 3
    stride: 1
    weight_filler {
      type: "msra"
    }
  }
}
layer {
  name: "group0_block4_conv1_bn"
  type: "BatchNorm"
  bottom: "group0_block4_conv1"
  top: "group0_block4_conv1"
  param {
    lr_mult: 0
    decay_mult: 0
  }
  param {
    lr_mult: 0
    decay_mult: 0
  }
  param {
    lr_mult: 0
    decay_mult: 0
  }
}
layer {
  name: "group0_block4_conv1_scale"
  type: "Scale"
  bottom: "group0_block4_conv1"
  top: "group0_block4_conv1"
  scale_param {
    bias_term: true
  }
}
layer {
  name: "group0_block4_sum"
  type: "Eltwise"
  bottom: "group0_block4_conv1"
  bottom: "group0_block3_sum"
  top: "group0_block4_sum"
  eltwise_param {
    operation: SUM
  }
}
layer {
  name: "group1_block0_conv0"
  type: "Convolution"
  bottom: "group0_block4_sum"
  top: "group1_block0_conv0"
  param {
    lr_mult: 1
    decay_mult: 1
  }
  convolution_param {
    num_output: 32
    pad: 1
    kernel_size: 3
    stride: 2
    weight_filler {
      type: "msra"
    }
  }
}
layer {
  name: "group1_block0_conv0_bn"
  type: "BatchNorm"
  bottom: "group1_block0_conv0"
  top: "group1_block0_conv0"
  param {
    lr_mult: 0
    decay_mult: 0
  }
  param {
    lr_mult: 0
    decay_mult: 0
  }
  param {
    lr_mult: 0
    decay_mult: 0
  }
}
layer {
  name: "group1_block0_conv0_scale"
  type: "Scale"
  bottom: "group1_block0_conv0"
  top: "group1_block0_conv0"
  scale_param {
    bias_term: true
  }
}
layer {
  name: "group1_block0_conv0_relu"
  type: "ReLU"
  bottom: "group1_block0_conv0"
  top: "group1_block0_conv0"
}
layer {
  name: "group1_block0_conv1"
  type: "Convolution"
  bottom: "group1_block0_conv0"
  top: "group1_block0_conv1"
  param {
    lr_mult: 1
    decay_mult: 1
  }
  convolution_param {
    num_output: 32
    pad: 1
    kernel_size: 3
    stride: 1
    weight_filler {
      type: "msra"
    }
  }
}
layer {
  name: "group1_block0_conv1_bn"
  type: "BatchNorm"
  bottom: "group1_block0_conv1"
  top: "group1_block0_conv1"
  param {
    lr_mult: 0
    decay_mult: 0
  }
  param {
    lr_mult: 0
    decay_mult: 0
  }
  param {
    lr_mult: 0
    decay_mult: 0
  }
}
layer {
  name: "group1_block0_conv1_scale"
  type: "Scale"
  bottom: "group1_block0_conv1"
  top: "group1_block0_conv1"
  scale_param {
    bias_term: true
  }
}
layer {
  name: "group1_block0_proj"
  type: "Convolution"
  bottom: "group0_block4_sum"
  top: "group1_block0_proj"
  param {
    lr_mult: 1
    decay_mult: 1
  }
  convolution_param {
    num_output: 32
    pad: 0
    kernel_size: 2
    stride: 2
    weight_filler {
      type: "msra"
    }
  }
}
layer {
  name: "group1_block0_proj_bn"
  type: "BatchNorm"
  bottom: "group1_block0_proj"
  top: "group1_block0_proj"
  param {
    lr_mult: 0
    decay_mult: 0
  }
  param {
    lr_mult: 0
    decay_mult: 0
  }
  param {
    lr_mult: 0
    decay_mult: 0
  }
}
layer {
  name: "group1_block0_proj_scale"
  type: "Scale"
  bottom: "group1_block0_proj"
  top: "group1_block0_proj"
  scale_param {
    bias_term: true
  }
}
layer {
  name: "group1_block0_sum"
  type: "Eltwise"
  bottom: "group1_block0_proj"
  bottom: "group1_block0_conv1"
  top: "group1_block0_sum"
  eltwise_param {
    operation: SUM
  }
}
layer {
  name: "group1_block1_conv0"
  type: "Convolution"
  bottom: "group1_block0_sum"
  top: "group1_block1_conv0"
  param {
    lr_mult: 1
    decay_mult: 1
  }
  convolution_param {
    num_output: 32
    pad: 1
    kernel_size: 3
    stride: 1
    weight_filler {
      type: "msra"
    }
  }
}
layer {
  name: "group1_block1_conv0_bn"
  type: "BatchNorm"
  bottom: "group1_block1_conv0"
  top: "group1_block1_conv0"
  param {
    lr_mult: 0
    decay_mult: 0
  }
  param {
    lr_mult: 0
    decay_mult: 0
  }
  param {
    lr_mult: 0
    decay_mult: 0
  }
}
layer {
  name: "group1_block1_conv0_scale"
  type: "Scale"
  bottom: "group1_block1_conv0"
  top: "group1_block1_conv0"
  scale_param {
    bias_term: true
  }
}
layer {
  name: "group1_block1_conv0_relu"
  type: "ReLU"
  bottom: "group1_block1_conv0"
  top: "group1_block1_conv0"
}
layer {
  name: "group1_block1_conv1"
  type: "Convolution"
  bottom: "group1_block1_conv0"
  top: "group1_block1_conv1"
  param {
    lr_mult: 1
    decay_mult: 1
  }
  convolution_param {
    num_output: 32
    pad: 1
    kernel_size: 3
    stride: 1
    weight_filler {
      type: "msra"
    }
  }
}
layer {
  name: "group1_block1_conv1_bn"
  type: "BatchNorm"
  bottom: "group1_block1_conv1"
  top: "group1_block1_conv1"
  param {
    lr_mult: 0
    decay_mult: 0
  }
  param {
    lr_mult: 0
    decay_mult: 0
  }
  param {
    lr_mult: 0
    decay_mult: 0
  }
}
layer {
  name: "group1_block1_conv1_scale"
  type: "Scale"
  bottom: "group1_block1_conv1"
  top: "group1_block1_conv1"
  scale_param {
    bias_term: true
  }
}
layer {
  name: "group1_block1_sum"
  type: "Eltwise"
  bottom: "group1_block1_conv1"
  bottom: "group1_block0_sum"
  top: "group1_block1_sum"
  eltwise_param {
    operation: SUM
  }
}
layer {
  name: "group1_block2_conv0"
  type: "Convolution"
  bottom: "group1_block1_sum"
  top: "group1_block2_conv0"
  param {
    lr_mult: 1
    decay_mult: 1
  }
  convolution_param {
    num_output: 32
    pad: 1
    kernel_size: 3
    stride: 1
    weight_filler {
      type: "msra"
    }
  }
}
layer {
  name: "group1_block2_conv0_bn"
  type: "BatchNorm"
  bottom: "group1_block2_conv0"
  top: "group1_block2_conv0"
  param {
    lr_mult: 0
    decay_mult: 0
  }
  param {
    lr_mult: 0
    decay_mult: 0
  }
  param {
    lr_mult: 0
    decay_mult: 0
  }
}
layer {
  name: "group1_block2_conv0_scale"
  type: "Scale"
  bottom: "group1_block2_conv0"
  top: "group1_block2_conv0"
  scale_param {
    bias_term: true
  }
}
layer {
  name: "group1_block2_conv0_relu"
  type: "ReLU"
  bottom: "group1_block2_conv0"
  top: "group1_block2_conv0"
}
layer {
  name: "group1_block2_conv1"
  type: "Convolution"
  bottom: "group1_block2_conv0"
  top: "group1_block2_conv1"
  param {
    lr_mult: 1
    decay_mult: 1
  }
  convolution_param {
    num_output: 32
    pad: 1
    kernel_size: 3
    stride: 1
    weight_filler {
      type: "msra"
    }
  }
}
layer {
  name: "group1_block2_conv1_bn"
  type: "BatchNorm"
  bottom: "group1_block2_conv1"
  top: "group1_block2_conv1"
  param {
    lr_mult: 0
    decay_mult: 0
  }
  param {
    lr_mult: 0
    decay_mult: 0
  }
  param {
    lr_mult: 0
    decay_mult: 0
  }
}
layer {
  name: "group1_block2_conv1_scale"
  type: "Scale"
  bottom: "group1_block2_conv1"
  top: "group1_block2_conv1"
  scale_param {
    bias_term: true
  }
}
layer {
  name: "group1_block2_sum"
  type: "Eltwise"
  bottom: "group1_block2_conv1"
  bottom: "group1_block1_sum"
  top: "group1_block2_sum"
  eltwise_param {
    operation: SUM
  }
}
layer {
  name: "group1_block3_conv0"
  type: "Convolution"
  bottom: "group1_block2_sum"
  top: "group1_block3_conv0"
  param {
    lr_mult: 1
    decay_mult: 1
  }
  convolution_param {
    num_output: 32
    pad: 1
    kernel_size: 3
    stride: 1
    weight_filler {
      type: "msra"
    }
  }
}
layer {
  name: "group1_block3_conv0_bn"
  type: "BatchNorm"
  bottom: "group1_block3_conv0"
  top: "group1_block3_conv0"
  param {
    lr_mult: 0
    decay_mult: 0
  }
  param {
    lr_mult: 0
    decay_mult: 0
  }
  param {
    lr_mult: 0
    decay_mult: 0
  }
}
layer {
  name: "group1_block3_conv0_scale"
  type: "Scale"
  bottom: "group1_block3_conv0"
  top: "group1_block3_conv0"
  scale_param {
    bias_term: true
  }
}
layer {
  name: "group1_block3_conv0_relu"
  type: "ReLU"
  bottom: "group1_block3_conv0"
  top: "group1_block3_conv0"
}
layer {
  name: "group1_block3_conv1"
  type: "Convolution"
  bottom: "group1_block3_conv0"
  top: "group1_block3_conv1"
  param {
    lr_mult: 1
    decay_mult: 1
  }
  convolution_param {
    num_output: 32
    pad: 1
    kernel_size: 3
    stride: 1
    weight_filler {
      type: "msra"
    }
  }
}
layer {
  name: "group1_block3_conv1_bn"
  type: "BatchNorm"
  bottom: "group1_block3_conv1"
  top: "group1_block3_conv1"
  param {
    lr_mult: 0
    decay_mult: 0
  }
  param {
    lr_mult: 0
    decay_mult: 0
  }
  param {
    lr_mult: 0
    decay_mult: 0
  }
}
layer {
  name: "group1_block3_conv1_scale"
  type: "Scale"
  bottom: "group1_block3_conv1"
  top: "group1_block3_conv1"
  scale_param {
    bias_term: true
  }
}
layer {
  name: "group1_block3_sum"
  type: "Eltwise"
  bottom: "group1_block3_conv1"
  bottom: "group1_block2_sum"
  top: "group1_block3_sum"
  eltwise_param {
    operation: SUM
  }
}
layer {
  name: "group1_block4_conv0"
  type: "Convolution"
  bottom: "group1_block3_sum"
  top: "group1_block4_conv0"
  param {
    lr_mult: 1
    decay_mult: 1
  }
  convolution_param {
    num_output: 32
    pad: 1
    kernel_size: 3
    stride: 1
    weight_filler {
      type: "msra"
    }
  }
}
layer {
  name: "group1_block4_conv0_bn"
  type: "BatchNorm"
  bottom: "group1_block4_conv0"
  top: "group1_block4_conv0"
  param {
    lr_mult: 0
    decay_mult: 0
  }
  param {
    lr_mult: 0
    decay_mult: 0
  }
  param {
    lr_mult: 0
    decay_mult: 0
  }
}
layer {
  name: "group1_block4_conv0_scale"
  type: "Scale"
  bottom: "group1_block4_conv0"
  top: "group1_block4_conv0"
  scale_param {
    bias_term: true
  }
}
layer {
  name: "group1_block4_conv0_relu"
  type: "ReLU"
  bottom: "group1_block4_conv0"
  top: "group1_block4_conv0"
}
layer {
  name: "group1_block4_conv1"
  type: "Convolution"
  bottom: "group1_block4_conv0"
  top: "group1_block4_conv1"
  param {
    lr_mult: 1
    decay_mult: 1
  }
  convolution_param {
    num_output: 32
    pad: 1
    kernel_size: 3
    stride: 1
    weight_filler {
      type: "msra"
    }
  }
}
layer {
  name: "group1_block4_conv1_bn"
  type: "BatchNorm"
  bottom: "group1_block4_conv1"
  top: "group1_block4_conv1"
  param {
    lr_mult: 0
    decay_mult: 0
  }
  param {
    lr_mult: 0
    decay_mult: 0
  }
  param {
    lr_mult: 0
    decay_mult: 0
  }
}
layer {
  name: "group1_block4_conv1_scale"
  type: "Scale"
  bottom: "group1_block4_conv1"
  top: "group1_block4_conv1"
  scale_param {
    bias_term: true
  }
}
layer {
  name: "group1_block4_sum"
  type: "Eltwise"
  bottom: "group1_block4_conv1"
  bottom: "group1_block3_sum"
  top: "group1_block4_sum"
  eltwise_param {
    operation: SUM
  }
}
layer {
  name: "group2_block0_conv0"
  type: "Convolution"
  bottom: "group1_block4_sum"
  top: "group2_block0_conv0"
  param {
    lr_mult: 1
    decay_mult: 1
  }
  convolution_param {
    num_output: 64
    pad: 1
    kernel_size: 3
    stride: 2
    weight_filler {
      type: "msra"
    }
  }
}
layer {
  name: "group2_block0_conv0_bn"
  type: "BatchNorm"
  bottom: "group2_block0_conv0"
  top: "group2_block0_conv0"
  param {
    lr_mult: 0
    decay_mult: 0
  }
  param {
    lr_mult: 0
    decay_mult: 0
  }
  param {
    lr_mult: 0
    decay_mult: 0
  }
}
layer {
  name: "group2_block0_conv0_scale"
  type: "Scale"
  bottom: "group2_block0_conv0"
  top: "group2_block0_conv0"
  scale_param {
    bias_term: true
  }
}
layer {
  name: "group2_block0_conv0_relu"
  type: "ReLU"
  bottom: "group2_block0_conv0"
  top: "group2_block0_conv0"
}
layer {
  name: "group2_block0_conv1"
  type: "Convolution"
  bottom: "group2_block0_conv0"
  top: "group2_block0_conv1"
  param {
    lr_mult: 1
    decay_mult: 1
  }
  convolution_param {
    num_output: 64
    pad: 1
    kernel_size: 3
    stride: 1
    weight_filler {
      type: "msra"
    }
  }
}
layer {
  name: "group2_block0_conv1_bn"
  type: "BatchNorm"
  bottom: "group2_block0_conv1"
  top: "group2_block0_conv1"
  param {
    lr_mult: 0
    decay_mult: 0
  }
  param {
    lr_mult: 0
    decay_mult: 0
  }
  param {
    lr_mult: 0
    decay_mult: 0
  }
}
layer {
  name: "group2_block0_conv1_scale"
  type: "Scale"
  bottom: "group2_block0_conv1"
  top: "group2_block0_conv1"
  scale_param {
    bias_term: true
  }
}
layer {
  name: "group2_block0_proj"
  type: "Convolution"
  bottom: "group1_block4_sum"
  top: "group2_block0_proj"
  param {
    lr_mult: 1
    decay_mult: 1
  }
  convolution_param {
    num_output: 64
    pad: 0
    kernel_size: 2
    stride: 2
    weight_filler {
      type: "msra"
    }
  }
}
layer {
  name: "group2_block0_proj_bn"
  type: "BatchNorm"
  bottom: "group2_block0_proj"
  top: "group2_block0_proj"
  param {
    lr_mult: 0
    decay_mult: 0
  }
  param {
    lr_mult: 0
    decay_mult: 0
  }
  param {
    lr_mult: 0
    decay_mult: 0
  }
}
layer {
  name: "group2_block0_proj_scale"
  type: "Scale"
  bottom: "group2_block0_proj"
  top: "group2_block0_proj"
  scale_param {
    bias_term: true
  }
}
layer {
  name: "group2_block0_sum"
  type: "Eltwise"
  bottom: "group2_block0_proj"
  bottom: "group2_block0_conv1"
  top: "group2_block0_sum"
  eltwise_param {
    operation: SUM
  }
}
layer {
  name: "group2_block1_conv0"
  type: "Convolution"
  bottom: "group2_block0_sum"
  top: "group2_block1_conv0"
  param {
    lr_mult: 1
    decay_mult: 1
  }
  convolution_param {
    num_output: 64
    pad: 1
    kernel_size: 3
    stride: 1
    weight_filler {
      type: "msra"
    }
  }
}
layer {
  name: "group2_block1_conv0_bn"
  type: "BatchNorm"
  bottom: "group2_block1_conv0"
  top: "group2_block1_conv0"
  param {
    lr_mult: 0
    decay_mult: 0
  }
  param {
    lr_mult: 0
    decay_mult: 0
  }
  param {
    lr_mult: 0
    decay_mult: 0
  }
}
layer {
  name: "group2_block1_conv0_scale"
  type: "Scale"
  bottom: "group2_block1_conv0"
  top: "group2_block1_conv0"
  scale_param {
    bias_term: true
  }
}
layer {
  name: "group2_block1_conv0_relu"
  type: "ReLU"
  bottom: "group2_block1_conv0"
  top: "group2_block1_conv0"
}
layer {
  name: "group2_block1_conv1"
  type: "Convolution"
  bottom: "group2_block1_conv0"
  top: "group2_block1_conv1"
  param {
    lr_mult: 1
    decay_mult: 1
  }
  convolution_param {
    num_output: 64
    pad: 1
    kernel_size: 3
    stride: 1
    weight_filler {
      type: "msra"
    }
  }
}
layer {
  name: "group2_block1_conv1_bn"
  type: "BatchNorm"
  bottom: "group2_block1_conv1"
  top: "group2_block1_conv1"
  param {
    lr_mult: 0
    decay_mult: 0
  }
  param {
    lr_mult: 0
    decay_mult: 0
  }
  param {
    lr_mult: 0
    decay_mult: 0
  }
}
layer {
  name: "group2_block1_conv1_scale"
  type: "Scale"
  bottom: "group2_block1_conv1"
  top: "group2_block1_conv1"
  scale_param {
    bias_term: true
  }
}
layer {
  name: "group2_block1_sum"
  type: "Eltwise"
  bottom: "group2_block1_conv1"
  bottom: "group2_block0_sum"
  top: "group2_block1_sum"
  eltwise_param {
    operation: SUM
  }
}
layer {
  name: "group2_block2_conv0"
  type: "Convolution"
  bottom: "group2_block1_sum"
  top: "group2_block2_conv0"
  param {
    lr_mult: 1
    decay_mult: 1
  }
  convolution_param {
    num_output: 64
    pad: 1
    kernel_size: 3
    stride: 1
    weight_filler {
      type: "msra"
    }
  }
}
layer {
  name: "group2_block2_conv0_bn"
  type: "BatchNorm"
  bottom: "group2_block2_conv0"
  top: "group2_block2_conv0"
  param {
    lr_mult: 0
    decay_mult: 0
  }
  param {
    lr_mult: 0
    decay_mult: 0
  }
  param {
    lr_mult: 0
    decay_mult: 0
  }
}
layer {
  name: "group2_block2_conv0_scale"
  type: "Scale"
  bottom: "group2_block2_conv0"
  top: "group2_block2_conv0"
  scale_param {
    bias_term: true
  }
}
layer {
  name: "group2_block2_conv0_relu"
  type: "ReLU"
  bottom: "group2_block2_conv0"
  top: "group2_block2_conv0"
}
layer {
  name: "group2_block2_conv1"
  type: "Convolution"
  bottom: "group2_block2_conv0"
  top: "group2_block2_conv1"
  param {
    lr_mult: 1
    decay_mult: 1
  }
  convolution_param {
    num_output: 64
    pad: 1
    kernel_size: 3
    stride: 1
    weight_filler {
      type: "msra"
    }
  }
}
layer {
  name: "group2_block2_conv1_bn"
  type: "BatchNorm"
  bottom: "group2_block2_conv1"
  top: "group2_block2_conv1"
  param {
    lr_mult: 0
    decay_mult: 0
  }
  param {
    lr_mult: 0
    decay_mult: 0
  }
  param {
    lr_mult: 0
    decay_mult: 0
  }
}
layer {
  name: "group2_block2_conv1_scale"
  type: "Scale"
  bottom: "group2_block2_conv1"
  top: "group2_block2_conv1"
  scale_param {
    bias_term: true
  }
}
layer {
  name: "group2_block2_sum"
  type: "Eltwise"
  bottom: "group2_block2_conv1"
  bottom: "group2_block1_sum"
  top: "group2_block2_sum"
  eltwise_param {
    operation: SUM
  }
}
layer {
  name: "group2_block3_conv0"
  type: "Convolution"
  bottom: "group2_block2_sum"
  top: "group2_block3_conv0"
  param {
    lr_mult: 1
    decay_mult: 1
  }
  convolution_param {
    num_output: 64
    pad: 1
    kernel_size: 3
    stride: 1
    weight_filler {
      type: "msra"
    }
  }
}
layer {
  name: "group2_block3_conv0_bn"
  type: "BatchNorm"
  bottom: "group2_block3_conv0"
  top: "group2_block3_conv0"
  param {
    lr_mult: 0
    decay_mult: 0
  }
  param {
    lr_mult: 0
    decay_mult: 0
  }
  param {
    lr_mult: 0
    decay_mult: 0
  }
}
layer {
  name: "group2_block3_conv0_scale"
  type: "Scale"
  bottom: "group2_block3_conv0"
  top: "group2_block3_conv0"
  scale_param {
    bias_term: true
  }
}
layer {
  name: "group2_block3_conv0_relu"
  type: "ReLU"
  bottom: "group2_block3_conv0"
  top: "group2_block3_conv0"
}
layer {
  name: "group2_block3_conv1"
  type: "Convolution"
  bottom: "group2_block3_conv0"
  top: "group2_block3_conv1"
  param {
    lr_mult: 1
    decay_mult: 1
  }
  convolution_param {
    num_output: 64
    pad: 1
    kernel_size: 3
    stride: 1
    weight_filler {
      type: "msra"
    }
  }
}
layer {
  name: "group2_block3_conv1_bn"
  type: "BatchNorm"
  bottom: "group2_block3_conv1"
  top: "group2_block3_conv1"
  param {
    lr_mult: 0
    decay_mult: 0
  }
  param {
    lr_mult: 0
    decay_mult: 0
  }
  param {
    lr_mult: 0
    decay_mult: 0
  }
}
layer {
  name: "group2_block3_conv1_scale"
  type: "Scale"
  bottom: "group2_block3_conv1"
  top: "group2_block3_conv1"
  scale_param {
    bias_term: true
  }
}
layer {
  name: "group2_block3_sum"
  type: "Eltwise"
  bottom: "group2_block3_conv1"
  bottom: "group2_block2_sum"
  top: "group2_block3_sum"
  eltwise_param {
    operation: SUM
  }
}
layer {
  name: "group2_block4_conv0"
  type: "Convolution"
  bottom: "group2_block3_sum"
  top: "group2_block4_conv0"
  param {
    lr_mult: 1
    decay_mult: 1
  }
  convolution_param {
    num_output: 64
    pad: 1
    kernel_size: 3
    stride: 1
    weight_filler {
      type: "msra"
    }
  }
}
layer {
  name: "group2_block4_conv0_bn"
  type: "BatchNorm"
  bottom: "group2_block4_conv0"
  top: "group2_block4_conv0"
  param {
    lr_mult: 0
    decay_mult: 0
  }
  param {
    lr_mult: 0
    decay_mult: 0
  }
  param {
    lr_mult: 0
    decay_mult: 0
  }
}
layer {
  name: "group2_block4_conv0_scale"
  type: "Scale"
  bottom: "group2_block4_conv0"
  top: "group2_block4_conv0"
  scale_param {
    bias_term: true
  }
}
layer {
  name: "group2_block4_conv0_relu"
  type: "ReLU"
  bottom: "group2_block4_conv0"
  top: "group2_block4_conv0"
}
layer {
  name: "group2_block4_conv1"
  type: "Convolution"
  bottom: "group2_block4_conv0"
  top: "group2_block4_conv1"
  param {
    lr_mult: 1
    decay_mult: 1
  }
  convolution_param {
    num_output: 64
    pad: 1
    kernel_size: 3
    stride: 1
    weight_filler {
      type: "msra"
    }
  }
}
layer {
  name: "group2_block4_conv1_bn"
  type: "BatchNorm"
  bottom: "group2_block4_conv1"
  top: "group2_block4_conv1"
  param {
    lr_mult: 0
    decay_mult: 0
  }
  param {
    lr_mult: 0
    decay_mult: 0
  }
  param {
    lr_mult: 0
    decay_mult: 0
  }
}
layer {
  name: "group2_block4_conv1_scale"
  type: "Scale"
  bottom: "group2_block4_conv1"
  top: "group2_block4_conv1"
  scale_param {
    bias_term: true
  }
}
layer {
  name: "group2_block4_sum"
  type: "Eltwise"
  bottom: "group2_block4_conv1"
  bottom: "group2_block3_sum"
  top: "group2_block4_sum"
  eltwise_param {
    operation: SUM
  }
}
layer {
  name: "global_avg_pool"
  type: "Pooling"
  bottom: "group2_block4_sum"
  top: "global_avg_pool"
  pooling_param {
    pool: AVE
    global_pooling: true
  }
}
layer {
  name: "fc"
  type: "InnerProduct"
  bottom: "global_avg_pool"
  top: "fc"
  param {
    lr_mult: 1
    decay_mult: 1
  }
  param {
    lr_mult: 2
    decay_mult: 0
  }
  inner_product_param {
    num_output: 10
    weight_filler {
      type: "msra"
    }
    bias_filler {
      type: "constant"
      value: 0
    }
  }
}
layer {
  name: "accuracy_training"
  type: "Accuracy"
  bottom: "fc"
  bottom: "label"
  top: "accuracy_training"
  include {
    phase: TRAIN
  }
}
layer {
  name: "loss"
  type: "SoftmaxWithLoss"
  bottom: "fc"
  bottom: "label"
  top: "loss"
}
I1203 08:37:03.120733 17664 layer_factory.cpp:58] Creating layer cifar
I1203 08:37:03.123724 17664 db_leveldb.cpp:18] Opened leveldb examples/cifar10/cifar10_train_leveldb_padding
I1203 08:37:03.123724 17664 net.cpp:84] Creating Layer cifar
I1203 08:37:03.124733 17664 net.cpp:380] cifar -> data
I1203 08:37:03.124733 17664 net.cpp:380] cifar -> label
I1203 08:37:03.124733 17664 data_layer.cpp:45] output data size: 100,3,32,32
I1203 08:37:03.130723 17664 net.cpp:122] Setting up cifar
I1203 08:37:03.130723 17664 net.cpp:129] Top shape: 100 3 32 32 (307200)
I1203 08:37:03.130723 17664 net.cpp:129] Top shape: 100 (100)
I1203 08:37:03.130723 17664 net.cpp:137] Memory required for data: 1229200
I1203 08:37:03.130723 17664 layer_factory.cpp:58] Creating layer label_cifar_1_split
I1203 08:37:03.130723 17664 net.cpp:84] Creating Layer label_cifar_1_split
I1203 08:37:03.131722 17664 net.cpp:406] label_cifar_1_split <- label
I1203 08:37:03.131722 17664 net.cpp:380] label_cifar_1_split -> label_cifar_1_split_0
I1203 08:37:03.131722 17664 net.cpp:380] label_cifar_1_split -> label_cifar_1_split_1
I1203 08:37:03.131722 17664 net.cpp:122] Setting up label_cifar_1_split
I1203 08:37:03.131722 17664 net.cpp:129] Top shape: 100 (100)
I1203 08:37:03.131722 17664 net.cpp:129] Top shape: 100 (100)
I1203 08:37:03.131722 17664 net.cpp:137] Memory required for data: 1230000
I1203 08:37:03.131722 17664 layer_factory.cpp:58] Creating layer first_conv
I1203 08:37:03.131722 17664 net.cpp:84] Creating Layer first_conv
I1203 08:37:03.131722 17664 net.cpp:406] first_conv <- data
I1203 08:37:03.131722 17664 net.cpp:380] first_conv -> first_conv
I1203 08:37:03.131722  9440 common.cpp:36] System entropy source not available, using fallback algorithm to generate seed instead.
I1203 08:37:03.375633 17664 net.cpp:122] Setting up first_conv
I1203 08:37:03.375633 17664 net.cpp:129] Top shape: 100 16 32 32 (1638400)
I1203 08:37:03.375633 17664 net.cpp:137] Memory required for data: 7783600
I1203 08:37:03.375633 17664 layer_factory.cpp:58] Creating layer first_conv_bn
I1203 08:37:03.375633 17664 net.cpp:84] Creating Layer first_conv_bn
I1203 08:37:03.375633 17664 net.cpp:406] first_conv_bn <- first_conv
I1203 08:37:03.375633 17664 net.cpp:367] first_conv_bn -> first_conv (in-place)
I1203 08:37:03.375633 17664 net.cpp:122] Setting up first_conv_bn
I1203 08:37:03.375633 17664 net.cpp:129] Top shape: 100 16 32 32 (1638400)
I1203 08:37:03.375633 17664 net.cpp:137] Memory required for data: 14337200
I1203 08:37:03.375633 17664 layer_factory.cpp:58] Creating layer first_conv_scale
I1203 08:37:03.375633 17664 net.cpp:84] Creating Layer first_conv_scale
I1203 08:37:03.375633 17664 net.cpp:406] first_conv_scale <- first_conv
I1203 08:37:03.375633 17664 net.cpp:367] first_conv_scale -> first_conv (in-place)
I1203 08:37:03.375633 17664 layer_factory.cpp:58] Creating layer first_conv_scale
I1203 08:37:03.375633 17664 net.cpp:122] Setting up first_conv_scale
I1203 08:37:03.375633 17664 net.cpp:129] Top shape: 100 16 32 32 (1638400)
I1203 08:37:03.375633 17664 net.cpp:137] Memory required for data: 20890800
I1203 08:37:03.375633 17664 layer_factory.cpp:58] Creating layer first_conv_relu
I1203 08:37:03.375633 17664 net.cpp:84] Creating Layer first_conv_relu
I1203 08:37:03.375633 17664 net.cpp:406] first_conv_relu <- first_conv
I1203 08:37:03.375633 17664 net.cpp:367] first_conv_relu -> first_conv (in-place)
I1203 08:37:03.375633 17664 net.cpp:122] Setting up first_conv_relu
I1203 08:37:03.375633 17664 net.cpp:129] Top shape: 100 16 32 32 (1638400)
I1203 08:37:03.375633 17664 net.cpp:137] Memory required for data: 27444400
I1203 08:37:03.375633 17664 layer_factory.cpp:58] Creating layer first_conv_first_conv_relu_0_split
I1203 08:37:03.375633 17664 net.cpp:84] Creating Layer first_conv_first_conv_relu_0_split
I1203 08:37:03.375633 17664 net.cpp:406] first_conv_first_conv_relu_0_split <- first_conv
I1203 08:37:03.375633 17664 net.cpp:380] first_conv_first_conv_relu_0_split -> first_conv_first_conv_relu_0_split_0
I1203 08:37:03.375633 17664 net.cpp:380] first_conv_first_conv_relu_0_split -> first_conv_first_conv_relu_0_split_1
I1203 08:37:03.375633 17664 net.cpp:122] Setting up first_conv_first_conv_relu_0_split
I1203 08:37:03.375633 17664 net.cpp:129] Top shape: 100 16 32 32 (1638400)
I1203 08:37:03.375633 17664 net.cpp:129] Top shape: 100 16 32 32 (1638400)
I1203 08:37:03.375633 17664 net.cpp:137] Memory required for data: 40551600
I1203 08:37:03.375633 17664 layer_factory.cpp:58] Creating layer group0_block0_conv0
I1203 08:37:03.375633 17664 net.cpp:84] Creating Layer group0_block0_conv0
I1203 08:37:03.375633 17664 net.cpp:406] group0_block0_conv0 <- first_conv_first_conv_relu_0_split_0
I1203 08:37:03.376632 17664 net.cpp:380] group0_block0_conv0 -> group0_block0_conv0
I1203 08:37:03.377631 17664 net.cpp:122] Setting up group0_block0_conv0
I1203 08:37:03.377631 17664 net.cpp:129] Top shape: 100 16 32 32 (1638400)
I1203 08:37:03.377631 17664 net.cpp:137] Memory required for data: 47105200
I1203 08:37:03.377631 17664 layer_factory.cpp:58] Creating layer group0_block0_conv0_bn
I1203 08:37:03.377631 17664 net.cpp:84] Creating Layer group0_block0_conv0_bn
I1203 08:37:03.377631 17664 net.cpp:406] group0_block0_conv0_bn <- group0_block0_conv0
I1203 08:37:03.377631 17664 net.cpp:367] group0_block0_conv0_bn -> group0_block0_conv0 (in-place)
I1203 08:37:03.377631 17664 net.cpp:122] Setting up group0_block0_conv0_bn
I1203 08:37:03.378633 17664 net.cpp:129] Top shape: 100 16 32 32 (1638400)
I1203 08:37:03.378633 17664 net.cpp:137] Memory required for data: 53658800
I1203 08:37:03.378633 17664 layer_factory.cpp:58] Creating layer group0_block0_conv0_scale
I1203 08:37:03.378633 17664 net.cpp:84] Creating Layer group0_block0_conv0_scale
I1203 08:37:03.378633 17664 net.cpp:406] group0_block0_conv0_scale <- group0_block0_conv0
I1203 08:37:03.378633 17664 net.cpp:367] group0_block0_conv0_scale -> group0_block0_conv0 (in-place)
I1203 08:37:03.378633 17664 layer_factory.cpp:58] Creating layer group0_block0_conv0_scale
I1203 08:37:03.378633 17664 net.cpp:122] Setting up group0_block0_conv0_scale
I1203 08:37:03.378633 17664 net.cpp:129] Top shape: 100 16 32 32 (1638400)
I1203 08:37:03.378633 17664 net.cpp:137] Memory required for data: 60212400
I1203 08:37:03.378633 17664 layer_factory.cpp:58] Creating layer group0_block0_conv0_relu
I1203 08:37:03.378633 17664 net.cpp:84] Creating Layer group0_block0_conv0_relu
I1203 08:37:03.378633 17664 net.cpp:406] group0_block0_conv0_relu <- group0_block0_conv0
I1203 08:37:03.378633 17664 net.cpp:367] group0_block0_conv0_relu -> group0_block0_conv0 (in-place)
I1203 08:37:03.378633 17664 net.cpp:122] Setting up group0_block0_conv0_relu
I1203 08:37:03.378633 17664 net.cpp:129] Top shape: 100 16 32 32 (1638400)
I1203 08:37:03.378633 17664 net.cpp:137] Memory required for data: 66766000
I1203 08:37:03.378633 17664 layer_factory.cpp:58] Creating layer group0_block0_conv1
I1203 08:37:03.378633 17664 net.cpp:84] Creating Layer group0_block0_conv1
I1203 08:37:03.378633 17664 net.cpp:406] group0_block0_conv1 <- group0_block0_conv0
I1203 08:37:03.378633 17664 net.cpp:380] group0_block0_conv1 -> group0_block0_conv1
I1203 08:37:03.379632 17664 net.cpp:122] Setting up group0_block0_conv1
I1203 08:37:03.379632 17664 net.cpp:129] Top shape: 100 16 32 32 (1638400)
I1203 08:37:03.379632 17664 net.cpp:137] Memory required for data: 73319600
I1203 08:37:03.379632 17664 layer_factory.cpp:58] Creating layer group0_block0_conv1_bn
I1203 08:37:03.379632 17664 net.cpp:84] Creating Layer group0_block0_conv1_bn
I1203 08:37:03.379632 17664 net.cpp:406] group0_block0_conv1_bn <- group0_block0_conv1
I1203 08:37:03.379632 17664 net.cpp:367] group0_block0_conv1_bn -> group0_block0_conv1 (in-place)
I1203 08:37:03.379632 17664 net.cpp:122] Setting up group0_block0_conv1_bn
I1203 08:37:03.379632 17664 net.cpp:129] Top shape: 100 16 32 32 (1638400)
I1203 08:37:03.379632 17664 net.cpp:137] Memory required for data: 79873200
I1203 08:37:03.379632 17664 layer_factory.cpp:58] Creating layer group0_block0_conv1_scale
I1203 08:37:03.379632 17664 net.cpp:84] Creating Layer group0_block0_conv1_scale
I1203 08:37:03.379632 17664 net.cpp:406] group0_block0_conv1_scale <- group0_block0_conv1
I1203 08:37:03.379632 17664 net.cpp:367] group0_block0_conv1_scale -> group0_block0_conv1 (in-place)
I1203 08:37:03.379632 17664 layer_factory.cpp:58] Creating layer group0_block0_conv1_scale
I1203 08:37:03.380632 17664 net.cpp:122] Setting up group0_block0_conv1_scale
I1203 08:37:03.380632 17664 net.cpp:129] Top shape: 100 16 32 32 (1638400)
I1203 08:37:03.380632 17664 net.cpp:137] Memory required for data: 86426800
I1203 08:37:03.380632 17664 layer_factory.cpp:58] Creating layer group0_block0_sum
I1203 08:37:03.380632 17664 net.cpp:84] Creating Layer group0_block0_sum
I1203 08:37:03.380632 17664 net.cpp:406] group0_block0_sum <- group0_block0_conv1
I1203 08:37:03.380632 17664 net.cpp:406] group0_block0_sum <- first_conv_first_conv_relu_0_split_1
I1203 08:37:03.380632 17664 net.cpp:380] group0_block0_sum -> group0_block0_sum
I1203 08:37:03.380632 17664 net.cpp:122] Setting up group0_block0_sum
I1203 08:37:03.380632 17664 net.cpp:129] Top shape: 100 16 32 32 (1638400)
I1203 08:37:03.380632 17664 net.cpp:137] Memory required for data: 92980400
I1203 08:37:03.380632 17664 layer_factory.cpp:58] Creating layer group0_block0_sum_group0_block0_sum_0_split
I1203 08:37:03.380632 17664 net.cpp:84] Creating Layer group0_block0_sum_group0_block0_sum_0_split
I1203 08:37:03.380632 17664 net.cpp:406] group0_block0_sum_group0_block0_sum_0_split <- group0_block0_sum
I1203 08:37:03.380632 17664 net.cpp:380] group0_block0_sum_group0_block0_sum_0_split -> group0_block0_sum_group0_block0_sum_0_split_0
I1203 08:37:03.380632 17664 net.cpp:380] group0_block0_sum_group0_block0_sum_0_split -> group0_block0_sum_group0_block0_sum_0_split_1
I1203 08:37:03.380632 17664 net.cpp:122] Setting up group0_block0_sum_group0_block0_sum_0_split
I1203 08:37:03.380632 17664 net.cpp:129] Top shape: 100 16 32 32 (1638400)
I1203 08:37:03.380632 17664 net.cpp:129] Top shape: 100 16 32 32 (1638400)
I1203 08:37:03.380632 17664 net.cpp:137] Memory required for data: 106087600
I1203 08:37:03.380632 17664 layer_factory.cpp:58] Creating layer group0_block1_conv0
I1203 08:37:03.380632 17664 net.cpp:84] Creating Layer group0_block1_conv0
I1203 08:37:03.380632 17664 net.cpp:406] group0_block1_conv0 <- group0_block0_sum_group0_block0_sum_0_split_0
I1203 08:37:03.380632 17664 net.cpp:380] group0_block1_conv0 -> group0_block1_conv0
I1203 08:37:03.381631 17664 net.cpp:122] Setting up group0_block1_conv0
I1203 08:37:03.381631 17664 net.cpp:129] Top shape: 100 16 32 32 (1638400)
I1203 08:37:03.381631 17664 net.cpp:137] Memory required for data: 112641200
I1203 08:37:03.381631 17664 layer_factory.cpp:58] Creating layer group0_block1_conv0_bn
I1203 08:37:03.381631 17664 net.cpp:84] Creating Layer group0_block1_conv0_bn
I1203 08:37:03.381631 17664 net.cpp:406] group0_block1_conv0_bn <- group0_block1_conv0
I1203 08:37:03.381631 17664 net.cpp:367] group0_block1_conv0_bn -> group0_block1_conv0 (in-place)
I1203 08:37:03.381631 17664 net.cpp:122] Setting up group0_block1_conv0_bn
I1203 08:37:03.381631 17664 net.cpp:129] Top shape: 100 16 32 32 (1638400)
I1203 08:37:03.381631 17664 net.cpp:137] Memory required for data: 119194800
I1203 08:37:03.381631 17664 layer_factory.cpp:58] Creating layer group0_block1_conv0_scale
I1203 08:37:03.381631 17664 net.cpp:84] Creating Layer group0_block1_conv0_scale
I1203 08:37:03.381631 17664 net.cpp:406] group0_block1_conv0_scale <- group0_block1_conv0
I1203 08:37:03.381631 17664 net.cpp:367] group0_block1_conv0_scale -> group0_block1_conv0 (in-place)
I1203 08:37:03.381631 17664 layer_factory.cpp:58] Creating layer group0_block1_conv0_scale
I1203 08:37:03.381631 17664 net.cpp:122] Setting up group0_block1_conv0_scale
I1203 08:37:03.381631 17664 net.cpp:129] Top shape: 100 16 32 32 (1638400)
I1203 08:37:03.381631 17664 net.cpp:137] Memory required for data: 125748400
I1203 08:37:03.381631 17664 layer_factory.cpp:58] Creating layer group0_block1_conv0_relu
I1203 08:37:03.381631 17664 net.cpp:84] Creating Layer group0_block1_conv0_relu
I1203 08:37:03.381631 17664 net.cpp:406] group0_block1_conv0_relu <- group0_block1_conv0
I1203 08:37:03.381631 17664 net.cpp:367] group0_block1_conv0_relu -> group0_block1_conv0 (in-place)
I1203 08:37:03.381631 17664 net.cpp:122] Setting up group0_block1_conv0_relu
I1203 08:37:03.381631 17664 net.cpp:129] Top shape: 100 16 32 32 (1638400)
I1203 08:37:03.381631 17664 net.cpp:137] Memory required for data: 132302000
I1203 08:37:03.381631 17664 layer_factory.cpp:58] Creating layer group0_block1_conv1
I1203 08:37:03.382632 17664 net.cpp:84] Creating Layer group0_block1_conv1
I1203 08:37:03.382632 17664 net.cpp:406] group0_block1_conv1 <- group0_block1_conv0
I1203 08:37:03.382632 17664 net.cpp:380] group0_block1_conv1 -> group0_block1_conv1
I1203 08:37:03.383632 17664 net.cpp:122] Setting up group0_block1_conv1
I1203 08:37:03.383632 17664 net.cpp:129] Top shape: 100 16 32 32 (1638400)
I1203 08:37:03.383632 17664 net.cpp:137] Memory required for data: 138855600
I1203 08:37:03.383632 17664 layer_factory.cpp:58] Creating layer group0_block1_conv1_bn
I1203 08:37:03.383632 17664 net.cpp:84] Creating Layer group0_block1_conv1_bn
I1203 08:37:03.383632 17664 net.cpp:406] group0_block1_conv1_bn <- group0_block1_conv1
I1203 08:37:03.383632 17664 net.cpp:367] group0_block1_conv1_bn -> group0_block1_conv1 (in-place)
I1203 08:37:03.383632 17664 net.cpp:122] Setting up group0_block1_conv1_bn
I1203 08:37:03.383632 17664 net.cpp:129] Top shape: 100 16 32 32 (1638400)
I1203 08:37:03.383632 17664 net.cpp:137] Memory required for data: 145409200
I1203 08:37:03.383632 17664 layer_factory.cpp:58] Creating layer group0_block1_conv1_scale
I1203 08:37:03.383632 17664 net.cpp:84] Creating Layer group0_block1_conv1_scale
I1203 08:37:03.383632 17664 net.cpp:406] group0_block1_conv1_scale <- group0_block1_conv1
I1203 08:37:03.383632 17664 net.cpp:367] group0_block1_conv1_scale -> group0_block1_conv1 (in-place)
I1203 08:37:03.383632 17664 layer_factory.cpp:58] Creating layer group0_block1_conv1_scale
I1203 08:37:03.383632 17664 net.cpp:122] Setting up group0_block1_conv1_scale
I1203 08:37:03.383632 17664 net.cpp:129] Top shape: 100 16 32 32 (1638400)
I1203 08:37:03.383632 17664 net.cpp:137] Memory required for data: 151962800
I1203 08:37:03.383632 17664 layer_factory.cpp:58] Creating layer group0_block1_sum
I1203 08:37:03.383632 17664 net.cpp:84] Creating Layer group0_block1_sum
I1203 08:37:03.383632 17664 net.cpp:406] group0_block1_sum <- group0_block1_conv1
I1203 08:37:03.383632 17664 net.cpp:406] group0_block1_sum <- group0_block0_sum_group0_block0_sum_0_split_1
I1203 08:37:03.383632 17664 net.cpp:380] group0_block1_sum -> group0_block1_sum
I1203 08:37:03.383632 17664 net.cpp:122] Setting up group0_block1_sum
I1203 08:37:03.383632 17664 net.cpp:129] Top shape: 100 16 32 32 (1638400)
I1203 08:37:03.383632 17664 net.cpp:137] Memory required for data: 158516400
I1203 08:37:03.383632 17664 layer_factory.cpp:58] Creating layer group0_block1_sum_group0_block1_sum_0_split
I1203 08:37:03.383632 17664 net.cpp:84] Creating Layer group0_block1_sum_group0_block1_sum_0_split
I1203 08:37:03.383632 17664 net.cpp:406] group0_block1_sum_group0_block1_sum_0_split <- group0_block1_sum
I1203 08:37:03.383632 17664 net.cpp:380] group0_block1_sum_group0_block1_sum_0_split -> group0_block1_sum_group0_block1_sum_0_split_0
I1203 08:37:03.383632 17664 net.cpp:380] group0_block1_sum_group0_block1_sum_0_split -> group0_block1_sum_group0_block1_sum_0_split_1
I1203 08:37:03.383632 17664 net.cpp:122] Setting up group0_block1_sum_group0_block1_sum_0_split
I1203 08:37:03.383632 17664 net.cpp:129] Top shape: 100 16 32 32 (1638400)
I1203 08:37:03.383632 17664 net.cpp:129] Top shape: 100 16 32 32 (1638400)
I1203 08:37:03.383632 17664 net.cpp:137] Memory required for data: 171623600
I1203 08:37:03.383632 17664 layer_factory.cpp:58] Creating layer group0_block2_conv0
I1203 08:37:03.383632 17664 net.cpp:84] Creating Layer group0_block2_conv0
I1203 08:37:03.383632 17664 net.cpp:406] group0_block2_conv0 <- group0_block1_sum_group0_block1_sum_0_split_0
I1203 08:37:03.383632 17664 net.cpp:380] group0_block2_conv0 -> group0_block2_conv0
I1203 08:37:03.384630 17664 net.cpp:122] Setting up group0_block2_conv0
I1203 08:37:03.384630 17664 net.cpp:129] Top shape: 100 16 32 32 (1638400)
I1203 08:37:03.384630 17664 net.cpp:137] Memory required for data: 178177200
I1203 08:37:03.384630 17664 layer_factory.cpp:58] Creating layer group0_block2_conv0_bn
I1203 08:37:03.384630 17664 net.cpp:84] Creating Layer group0_block2_conv0_bn
I1203 08:37:03.384630 17664 net.cpp:406] group0_block2_conv0_bn <- group0_block2_conv0
I1203 08:37:03.384630 17664 net.cpp:367] group0_block2_conv0_bn -> group0_block2_conv0 (in-place)
I1203 08:37:03.385632 17664 net.cpp:122] Setting up group0_block2_conv0_bn
I1203 08:37:03.385632 17664 net.cpp:129] Top shape: 100 16 32 32 (1638400)
I1203 08:37:03.385632 17664 net.cpp:137] Memory required for data: 184730800
I1203 08:37:03.385632 17664 layer_factory.cpp:58] Creating layer group0_block2_conv0_scale
I1203 08:37:03.385632 17664 net.cpp:84] Creating Layer group0_block2_conv0_scale
I1203 08:37:03.385632 17664 net.cpp:406] group0_block2_conv0_scale <- group0_block2_conv0
I1203 08:37:03.385632 17664 net.cpp:367] group0_block2_conv0_scale -> group0_block2_conv0 (in-place)
I1203 08:37:03.385632 17664 layer_factory.cpp:58] Creating layer group0_block2_conv0_scale
I1203 08:37:03.385632 17664 net.cpp:122] Setting up group0_block2_conv0_scale
I1203 08:37:03.385632 17664 net.cpp:129] Top shape: 100 16 32 32 (1638400)
I1203 08:37:03.385632 17664 net.cpp:137] Memory required for data: 191284400
I1203 08:37:03.385632 17664 layer_factory.cpp:58] Creating layer group0_block2_conv0_relu
I1203 08:37:03.385632 17664 net.cpp:84] Creating Layer group0_block2_conv0_relu
I1203 08:37:03.385632 17664 net.cpp:406] group0_block2_conv0_relu <- group0_block2_conv0
I1203 08:37:03.385632 17664 net.cpp:367] group0_block2_conv0_relu -> group0_block2_conv0 (in-place)
I1203 08:37:03.385632 17664 net.cpp:122] Setting up group0_block2_conv0_relu
I1203 08:37:03.385632 17664 net.cpp:129] Top shape: 100 16 32 32 (1638400)
I1203 08:37:03.385632 17664 net.cpp:137] Memory required for data: 197838000
I1203 08:37:03.385632 17664 layer_factory.cpp:58] Creating layer group0_block2_conv1
I1203 08:37:03.385632 17664 net.cpp:84] Creating Layer group0_block2_conv1
I1203 08:37:03.385632 17664 net.cpp:406] group0_block2_conv1 <- group0_block2_conv0
I1203 08:37:03.385632 17664 net.cpp:380] group0_block2_conv1 -> group0_block2_conv1
I1203 08:37:03.386632 17664 net.cpp:122] Setting up group0_block2_conv1
I1203 08:37:03.386632 17664 net.cpp:129] Top shape: 100 16 32 32 (1638400)
I1203 08:37:03.386632 17664 net.cpp:137] Memory required for data: 204391600
I1203 08:37:03.386632 17664 layer_factory.cpp:58] Creating layer group0_block2_conv1_bn
I1203 08:37:03.386632 17664 net.cpp:84] Creating Layer group0_block2_conv1_bn
I1203 08:37:03.386632 17664 net.cpp:406] group0_block2_conv1_bn <- group0_block2_conv1
I1203 08:37:03.386632 17664 net.cpp:367] group0_block2_conv1_bn -> group0_block2_conv1 (in-place)
I1203 08:37:03.386632 17664 net.cpp:122] Setting up group0_block2_conv1_bn
I1203 08:37:03.386632 17664 net.cpp:129] Top shape: 100 16 32 32 (1638400)
I1203 08:37:03.386632 17664 net.cpp:137] Memory required for data: 210945200
I1203 08:37:03.386632 17664 layer_factory.cpp:58] Creating layer group0_block2_conv1_scale
I1203 08:37:03.386632 17664 net.cpp:84] Creating Layer group0_block2_conv1_scale
I1203 08:37:03.386632 17664 net.cpp:406] group0_block2_conv1_scale <- group0_block2_conv1
I1203 08:37:03.386632 17664 net.cpp:367] group0_block2_conv1_scale -> group0_block2_conv1 (in-place)
I1203 08:37:03.386632 17664 layer_factory.cpp:58] Creating layer group0_block2_conv1_scale
I1203 08:37:03.386632 17664 net.cpp:122] Setting up group0_block2_conv1_scale
I1203 08:37:03.386632 17664 net.cpp:129] Top shape: 100 16 32 32 (1638400)
I1203 08:37:03.386632 17664 net.cpp:137] Memory required for data: 217498800
I1203 08:37:03.387631 17664 layer_factory.cpp:58] Creating layer group0_block2_sum
I1203 08:37:03.387631 17664 net.cpp:84] Creating Layer group0_block2_sum
I1203 08:37:03.387631 17664 net.cpp:406] group0_block2_sum <- group0_block2_conv1
I1203 08:37:03.387631 17664 net.cpp:406] group0_block2_sum <- group0_block1_sum_group0_block1_sum_0_split_1
I1203 08:37:03.387631 17664 net.cpp:380] group0_block2_sum -> group0_block2_sum
I1203 08:37:03.387631 17664 net.cpp:122] Setting up group0_block2_sum
I1203 08:37:03.387631 17664 net.cpp:129] Top shape: 100 16 32 32 (1638400)
I1203 08:37:03.387631 17664 net.cpp:137] Memory required for data: 224052400
I1203 08:37:03.387631 17664 layer_factory.cpp:58] Creating layer group0_block2_sum_group0_block2_sum_0_split
I1203 08:37:03.387631 17664 net.cpp:84] Creating Layer group0_block2_sum_group0_block2_sum_0_split
I1203 08:37:03.387631 17664 net.cpp:406] group0_block2_sum_group0_block2_sum_0_split <- group0_block2_sum
I1203 08:37:03.387631 17664 net.cpp:380] group0_block2_sum_group0_block2_sum_0_split -> group0_block2_sum_group0_block2_sum_0_split_0
I1203 08:37:03.387631 17664 net.cpp:380] group0_block2_sum_group0_block2_sum_0_split -> group0_block2_sum_group0_block2_sum_0_split_1
I1203 08:37:03.387631 17664 net.cpp:122] Setting up group0_block2_sum_group0_block2_sum_0_split
I1203 08:37:03.387631 17664 net.cpp:129] Top shape: 100 16 32 32 (1638400)
I1203 08:37:03.387631 17664 net.cpp:129] Top shape: 100 16 32 32 (1638400)
I1203 08:37:03.387631 17664 net.cpp:137] Memory required for data: 237159600
I1203 08:37:03.387631 17664 layer_factory.cpp:58] Creating layer group0_block3_conv0
I1203 08:37:03.387631 17664 net.cpp:84] Creating Layer group0_block3_conv0
I1203 08:37:03.387631 17664 net.cpp:406] group0_block3_conv0 <- group0_block2_sum_group0_block2_sum_0_split_0
I1203 08:37:03.387631 17664 net.cpp:380] group0_block3_conv0 -> group0_block3_conv0
I1203 08:37:03.388631 17664 net.cpp:122] Setting up group0_block3_conv0
I1203 08:37:03.388631 17664 net.cpp:129] Top shape: 100 16 32 32 (1638400)
I1203 08:37:03.388631 17664 net.cpp:137] Memory required for data: 243713200
I1203 08:37:03.388631 17664 layer_factory.cpp:58] Creating layer group0_block3_conv0_bn
I1203 08:37:03.388631 17664 net.cpp:84] Creating Layer group0_block3_conv0_bn
I1203 08:37:03.388631 17664 net.cpp:406] group0_block3_conv0_bn <- group0_block3_conv0
I1203 08:37:03.388631 17664 net.cpp:367] group0_block3_conv0_bn -> group0_block3_conv0 (in-place)
I1203 08:37:03.388631 17664 net.cpp:122] Setting up group0_block3_conv0_bn
I1203 08:37:03.388631 17664 net.cpp:129] Top shape: 100 16 32 32 (1638400)
I1203 08:37:03.388631 17664 net.cpp:137] Memory required for data: 250266800
I1203 08:37:03.388631 17664 layer_factory.cpp:58] Creating layer group0_block3_conv0_scale
I1203 08:37:03.388631 17664 net.cpp:84] Creating Layer group0_block3_conv0_scale
I1203 08:37:03.388631 17664 net.cpp:406] group0_block3_conv0_scale <- group0_block3_conv0
I1203 08:37:03.388631 17664 net.cpp:367] group0_block3_conv0_scale -> group0_block3_conv0 (in-place)
I1203 08:37:03.388631 17664 layer_factory.cpp:58] Creating layer group0_block3_conv0_scale
I1203 08:37:03.388631 17664 net.cpp:122] Setting up group0_block3_conv0_scale
I1203 08:37:03.388631 17664 net.cpp:129] Top shape: 100 16 32 32 (1638400)
I1203 08:37:03.388631 17664 net.cpp:137] Memory required for data: 256820400
I1203 08:37:03.388631 17664 layer_factory.cpp:58] Creating layer group0_block3_conv0_relu
I1203 08:37:03.388631 17664 net.cpp:84] Creating Layer group0_block3_conv0_relu
I1203 08:37:03.388631 17664 net.cpp:406] group0_block3_conv0_relu <- group0_block3_conv0
I1203 08:37:03.388631 17664 net.cpp:367] group0_block3_conv0_relu -> group0_block3_conv0 (in-place)
I1203 08:37:03.388631 17664 net.cpp:122] Setting up group0_block3_conv0_relu
I1203 08:37:03.388631 17664 net.cpp:129] Top shape: 100 16 32 32 (1638400)
I1203 08:37:03.388631 17664 net.cpp:137] Memory required for data: 263374000
I1203 08:37:03.388631 17664 layer_factory.cpp:58] Creating layer group0_block3_conv1
I1203 08:37:03.388631 17664 net.cpp:84] Creating Layer group0_block3_conv1
I1203 08:37:03.388631 17664 net.cpp:406] group0_block3_conv1 <- group0_block3_conv0
I1203 08:37:03.388631 17664 net.cpp:380] group0_block3_conv1 -> group0_block3_conv1
I1203 08:37:03.390632 17664 net.cpp:122] Setting up group0_block3_conv1
I1203 08:37:03.390632 17664 net.cpp:129] Top shape: 100 16 32 32 (1638400)
I1203 08:37:03.390632 17664 net.cpp:137] Memory required for data: 269927600
I1203 08:37:03.390632 17664 layer_factory.cpp:58] Creating layer group0_block3_conv1_bn
I1203 08:37:03.390632 17664 net.cpp:84] Creating Layer group0_block3_conv1_bn
I1203 08:37:03.390632 17664 net.cpp:406] group0_block3_conv1_bn <- group0_block3_conv1
I1203 08:37:03.390632 17664 net.cpp:367] group0_block3_conv1_bn -> group0_block3_conv1 (in-place)
I1203 08:37:03.390632 17664 net.cpp:122] Setting up group0_block3_conv1_bn
I1203 08:37:03.390632 17664 net.cpp:129] Top shape: 100 16 32 32 (1638400)
I1203 08:37:03.390632 17664 net.cpp:137] Memory required for data: 276481200
I1203 08:37:03.390632 17664 layer_factory.cpp:58] Creating layer group0_block3_conv1_scale
I1203 08:37:03.390632 17664 net.cpp:84] Creating Layer group0_block3_conv1_scale
I1203 08:37:03.390632 17664 net.cpp:406] group0_block3_conv1_scale <- group0_block3_conv1
I1203 08:37:03.390632 17664 net.cpp:367] group0_block3_conv1_scale -> group0_block3_conv1 (in-place)
I1203 08:37:03.390632 17664 layer_factory.cpp:58] Creating layer group0_block3_conv1_scale
I1203 08:37:03.390632 17664 net.cpp:122] Setting up group0_block3_conv1_scale
I1203 08:37:03.390632 17664 net.cpp:129] Top shape: 100 16 32 32 (1638400)
I1203 08:37:03.390632 17664 net.cpp:137] Memory required for data: 283034800
I1203 08:37:03.390632 17664 layer_factory.cpp:58] Creating layer group0_block3_sum
I1203 08:37:03.390632 17664 net.cpp:84] Creating Layer group0_block3_sum
I1203 08:37:03.390632 17664 net.cpp:406] group0_block3_sum <- group0_block3_conv1
I1203 08:37:03.390632 17664 net.cpp:406] group0_block3_sum <- group0_block2_sum_group0_block2_sum_0_split_1
I1203 08:37:03.390632 17664 net.cpp:380] group0_block3_sum -> group0_block3_sum
I1203 08:37:03.390632 17664 net.cpp:122] Setting up group0_block3_sum
I1203 08:37:03.390632 17664 net.cpp:129] Top shape: 100 16 32 32 (1638400)
I1203 08:37:03.390632 17664 net.cpp:137] Memory required for data: 289588400
I1203 08:37:03.390632 17664 layer_factory.cpp:58] Creating layer group0_block3_sum_group0_block3_sum_0_split
I1203 08:37:03.390632 17664 net.cpp:84] Creating Layer group0_block3_sum_group0_block3_sum_0_split
I1203 08:37:03.390632 17664 net.cpp:406] group0_block3_sum_group0_block3_sum_0_split <- group0_block3_sum
I1203 08:37:03.390632 17664 net.cpp:380] group0_block3_sum_group0_block3_sum_0_split -> group0_block3_sum_group0_block3_sum_0_split_0
I1203 08:37:03.390632 17664 net.cpp:380] group0_block3_sum_group0_block3_sum_0_split -> group0_block3_sum_group0_block3_sum_0_split_1
I1203 08:37:03.390632 17664 net.cpp:122] Setting up group0_block3_sum_group0_block3_sum_0_split
I1203 08:37:03.390632 17664 net.cpp:129] Top shape: 100 16 32 32 (1638400)
I1203 08:37:03.390632 17664 net.cpp:129] Top shape: 100 16 32 32 (1638400)
I1203 08:37:03.390632 17664 net.cpp:137] Memory required for data: 302695600
I1203 08:37:03.390632 17664 layer_factory.cpp:58] Creating layer group0_block4_conv0
I1203 08:37:03.390632 17664 net.cpp:84] Creating Layer group0_block4_conv0
I1203 08:37:03.390632 17664 net.cpp:406] group0_block4_conv0 <- group0_block3_sum_group0_block3_sum_0_split_0
I1203 08:37:03.390632 17664 net.cpp:380] group0_block4_conv0 -> group0_block4_conv0
I1203 08:37:03.391630 17664 net.cpp:122] Setting up group0_block4_conv0
I1203 08:37:03.391630 17664 net.cpp:129] Top shape: 100 16 32 32 (1638400)
I1203 08:37:03.391630 17664 net.cpp:137] Memory required for data: 309249200
I1203 08:37:03.391630 17664 layer_factory.cpp:58] Creating layer group0_block4_conv0_bn
I1203 08:37:03.391630 17664 net.cpp:84] Creating Layer group0_block4_conv0_bn
I1203 08:37:03.391630 17664 net.cpp:406] group0_block4_conv0_bn <- group0_block4_conv0
I1203 08:37:03.391630 17664 net.cpp:367] group0_block4_conv0_bn -> group0_block4_conv0 (in-place)
I1203 08:37:03.391630 17664 net.cpp:122] Setting up group0_block4_conv0_bn
I1203 08:37:03.391630 17664 net.cpp:129] Top shape: 100 16 32 32 (1638400)
I1203 08:37:03.391630 17664 net.cpp:137] Memory required for data: 315802800
I1203 08:37:03.391630 17664 layer_factory.cpp:58] Creating layer group0_block4_conv0_scale
I1203 08:37:03.391630 17664 net.cpp:84] Creating Layer group0_block4_conv0_scale
I1203 08:37:03.392632 17664 net.cpp:406] group0_block4_conv0_scale <- group0_block4_conv0
I1203 08:37:03.392632 17664 net.cpp:367] group0_block4_conv0_scale -> group0_block4_conv0 (in-place)
I1203 08:37:03.392632 17664 layer_factory.cpp:58] Creating layer group0_block4_conv0_scale
I1203 08:37:03.392632 17664 net.cpp:122] Setting up group0_block4_conv0_scale
I1203 08:37:03.392632 17664 net.cpp:129] Top shape: 100 16 32 32 (1638400)
I1203 08:37:03.392632 17664 net.cpp:137] Memory required for data: 322356400
I1203 08:37:03.392632 17664 layer_factory.cpp:58] Creating layer group0_block4_conv0_relu
I1203 08:37:03.392632 17664 net.cpp:84] Creating Layer group0_block4_conv0_relu
I1203 08:37:03.392632 17664 net.cpp:406] group0_block4_conv0_relu <- group0_block4_conv0
I1203 08:37:03.392632 17664 net.cpp:367] group0_block4_conv0_relu -> group0_block4_conv0 (in-place)
I1203 08:37:03.392632 17664 net.cpp:122] Setting up group0_block4_conv0_relu
I1203 08:37:03.392632 17664 net.cpp:129] Top shape: 100 16 32 32 (1638400)
I1203 08:37:03.392632 17664 net.cpp:137] Memory required for data: 328910000
I1203 08:37:03.392632 17664 layer_factory.cpp:58] Creating layer group0_block4_conv1
I1203 08:37:03.392632 17664 net.cpp:84] Creating Layer group0_block4_conv1
I1203 08:37:03.392632 17664 net.cpp:406] group0_block4_conv1 <- group0_block4_conv0
I1203 08:37:03.392632 17664 net.cpp:380] group0_block4_conv1 -> group0_block4_conv1
I1203 08:37:03.393632 17664 net.cpp:122] Setting up group0_block4_conv1
I1203 08:37:03.393632 17664 net.cpp:129] Top shape: 100 16 32 32 (1638400)
I1203 08:37:03.393632 17664 net.cpp:137] Memory required for data: 335463600
I1203 08:37:03.393632 17664 layer_factory.cpp:58] Creating layer group0_block4_conv1_bn
I1203 08:37:03.393632 17664 net.cpp:84] Creating Layer group0_block4_conv1_bn
I1203 08:37:03.393632 17664 net.cpp:406] group0_block4_conv1_bn <- group0_block4_conv1
I1203 08:37:03.393632 17664 net.cpp:367] group0_block4_conv1_bn -> group0_block4_conv1 (in-place)
I1203 08:37:03.393632 17664 net.cpp:122] Setting up group0_block4_conv1_bn
I1203 08:37:03.393632 17664 net.cpp:129] Top shape: 100 16 32 32 (1638400)
I1203 08:37:03.393632 17664 net.cpp:137] Memory required for data: 342017200
I1203 08:37:03.393632 17664 layer_factory.cpp:58] Creating layer group0_block4_conv1_scale
I1203 08:37:03.393632 17664 net.cpp:84] Creating Layer group0_block4_conv1_scale
I1203 08:37:03.393632 17664 net.cpp:406] group0_block4_conv1_scale <- group0_block4_conv1
I1203 08:37:03.393632 17664 net.cpp:367] group0_block4_conv1_scale -> group0_block4_conv1 (in-place)
I1203 08:37:03.393632 17664 layer_factory.cpp:58] Creating layer group0_block4_conv1_scale
I1203 08:37:03.393632 17664 net.cpp:122] Setting up group0_block4_conv1_scale
I1203 08:37:03.393632 17664 net.cpp:129] Top shape: 100 16 32 32 (1638400)
I1203 08:37:03.393632 17664 net.cpp:137] Memory required for data: 348570800
I1203 08:37:03.394630 17664 layer_factory.cpp:58] Creating layer group0_block4_sum
I1203 08:37:03.394630 17664 net.cpp:84] Creating Layer group0_block4_sum
I1203 08:37:03.394630 17664 net.cpp:406] group0_block4_sum <- group0_block4_conv1
I1203 08:37:03.394630 17664 net.cpp:406] group0_block4_sum <- group0_block3_sum_group0_block3_sum_0_split_1
I1203 08:37:03.394630 17664 net.cpp:380] group0_block4_sum -> group0_block4_sum
I1203 08:37:03.394630 17664 net.cpp:122] Setting up group0_block4_sum
I1203 08:37:03.394630 17664 net.cpp:129] Top shape: 100 16 32 32 (1638400)
I1203 08:37:03.394630 17664 net.cpp:137] Memory required for data: 355124400
I1203 08:37:03.394630 17664 layer_factory.cpp:58] Creating layer group0_block4_sum_group0_block4_sum_0_split
I1203 08:37:03.394630 17664 net.cpp:84] Creating Layer group0_block4_sum_group0_block4_sum_0_split
I1203 08:37:03.394630 17664 net.cpp:406] group0_block4_sum_group0_block4_sum_0_split <- group0_block4_sum
I1203 08:37:03.394630 17664 net.cpp:380] group0_block4_sum_group0_block4_sum_0_split -> group0_block4_sum_group0_block4_sum_0_split_0
I1203 08:37:03.394630 17664 net.cpp:380] group0_block4_sum_group0_block4_sum_0_split -> group0_block4_sum_group0_block4_sum_0_split_1
I1203 08:37:03.394630 17664 net.cpp:122] Setting up group0_block4_sum_group0_block4_sum_0_split
I1203 08:37:03.394630 17664 net.cpp:129] Top shape: 100 16 32 32 (1638400)
I1203 08:37:03.394630 17664 net.cpp:129] Top shape: 100 16 32 32 (1638400)
I1203 08:37:03.394630 17664 net.cpp:137] Memory required for data: 368231600
I1203 08:37:03.394630 17664 layer_factory.cpp:58] Creating layer group1_block0_conv0
I1203 08:37:03.394630 17664 net.cpp:84] Creating Layer group1_block0_conv0
I1203 08:37:03.394630 17664 net.cpp:406] group1_block0_conv0 <- group0_block4_sum_group0_block4_sum_0_split_0
I1203 08:37:03.394630 17664 net.cpp:380] group1_block0_conv0 -> group1_block0_conv0
I1203 08:37:03.396632 17664 net.cpp:122] Setting up group1_block0_conv0
I1203 08:37:03.396632 17664 net.cpp:129] Top shape: 100 32 16 16 (819200)
I1203 08:37:03.396632 17664 net.cpp:137] Memory required for data: 371508400
I1203 08:37:03.396632 17664 layer_factory.cpp:58] Creating layer group1_block0_conv0_bn
I1203 08:37:03.396632 17664 net.cpp:84] Creating Layer group1_block0_conv0_bn
I1203 08:37:03.396632 17664 net.cpp:406] group1_block0_conv0_bn <- group1_block0_conv0
I1203 08:37:03.396632 17664 net.cpp:367] group1_block0_conv0_bn -> group1_block0_conv0 (in-place)
I1203 08:37:03.396632 17664 net.cpp:122] Setting up group1_block0_conv0_bn
I1203 08:37:03.396632 17664 net.cpp:129] Top shape: 100 32 16 16 (819200)
I1203 08:37:03.396632 17664 net.cpp:137] Memory required for data: 374785200
I1203 08:37:03.396632 17664 layer_factory.cpp:58] Creating layer group1_block0_conv0_scale
I1203 08:37:03.396632 17664 net.cpp:84] Creating Layer group1_block0_conv0_scale
I1203 08:37:03.396632 17664 net.cpp:406] group1_block0_conv0_scale <- group1_block0_conv0
I1203 08:37:03.396632 17664 net.cpp:367] group1_block0_conv0_scale -> group1_block0_conv0 (in-place)
I1203 08:37:03.396632 17664 layer_factory.cpp:58] Creating layer group1_block0_conv0_scale
I1203 08:37:03.396632 17664 net.cpp:122] Setting up group1_block0_conv0_scale
I1203 08:37:03.396632 17664 net.cpp:129] Top shape: 100 32 16 16 (819200)
I1203 08:37:03.396632 17664 net.cpp:137] Memory required for data: 378062000
I1203 08:37:03.396632 17664 layer_factory.cpp:58] Creating layer group1_block0_conv0_relu
I1203 08:37:03.396632 17664 net.cpp:84] Creating Layer group1_block0_conv0_relu
I1203 08:37:03.396632 17664 net.cpp:406] group1_block0_conv0_relu <- group1_block0_conv0
I1203 08:37:03.396632 17664 net.cpp:367] group1_block0_conv0_relu -> group1_block0_conv0 (in-place)
I1203 08:37:03.396632 17664 net.cpp:122] Setting up group1_block0_conv0_relu
I1203 08:37:03.396632 17664 net.cpp:129] Top shape: 100 32 16 16 (819200)
I1203 08:37:03.396632 17664 net.cpp:137] Memory required for data: 381338800
I1203 08:37:03.396632 17664 layer_factory.cpp:58] Creating layer group1_block0_conv1
I1203 08:37:03.396632 17664 net.cpp:84] Creating Layer group1_block0_conv1
I1203 08:37:03.396632 17664 net.cpp:406] group1_block0_conv1 <- group1_block0_conv0
I1203 08:37:03.396632 17664 net.cpp:380] group1_block0_conv1 -> group1_block0_conv1
I1203 08:37:03.398632 17664 net.cpp:122] Setting up group1_block0_conv1
I1203 08:37:03.398632 17664 net.cpp:129] Top shape: 100 32 16 16 (819200)
I1203 08:37:03.398632 17664 net.cpp:137] Memory required for data: 384615600
I1203 08:37:03.398632 17664 layer_factory.cpp:58] Creating layer group1_block0_conv1_bn
I1203 08:37:03.398632 17664 net.cpp:84] Creating Layer group1_block0_conv1_bn
I1203 08:37:03.398632 17664 net.cpp:406] group1_block0_conv1_bn <- group1_block0_conv1
I1203 08:37:03.398632 17664 net.cpp:367] group1_block0_conv1_bn -> group1_block0_conv1 (in-place)
I1203 08:37:03.398632 17664 net.cpp:122] Setting up group1_block0_conv1_bn
I1203 08:37:03.398632 17664 net.cpp:129] Top shape: 100 32 16 16 (819200)
I1203 08:37:03.398632 17664 net.cpp:137] Memory required for data: 387892400
I1203 08:37:03.398632 17664 layer_factory.cpp:58] Creating layer group1_block0_conv1_scale
I1203 08:37:03.398632 17664 net.cpp:84] Creating Layer group1_block0_conv1_scale
I1203 08:37:03.398632 17664 net.cpp:406] group1_block0_conv1_scale <- group1_block0_conv1
I1203 08:37:03.398632 17664 net.cpp:367] group1_block0_conv1_scale -> group1_block0_conv1 (in-place)
I1203 08:37:03.398632 17664 layer_factory.cpp:58] Creating layer group1_block0_conv1_scale
I1203 08:37:03.398632 17664 net.cpp:122] Setting up group1_block0_conv1_scale
I1203 08:37:03.398632 17664 net.cpp:129] Top shape: 100 32 16 16 (819200)
I1203 08:37:03.398632 17664 net.cpp:137] Memory required for data: 391169200
I1203 08:37:03.398632 17664 layer_factory.cpp:58] Creating layer group1_block0_proj
I1203 08:37:03.398632 17664 net.cpp:84] Creating Layer group1_block0_proj
I1203 08:37:03.398632 17664 net.cpp:406] group1_block0_proj <- group0_block4_sum_group0_block4_sum_0_split_1
I1203 08:37:03.398632 17664 net.cpp:380] group1_block0_proj -> group1_block0_proj
I1203 08:37:03.399632 17664 net.cpp:122] Setting up group1_block0_proj
I1203 08:37:03.399632 17664 net.cpp:129] Top shape: 100 32 16 16 (819200)
I1203 08:37:03.399632 17664 net.cpp:137] Memory required for data: 394446000
I1203 08:37:03.399632 17664 layer_factory.cpp:58] Creating layer group1_block0_proj_bn
I1203 08:37:03.399632 17664 net.cpp:84] Creating Layer group1_block0_proj_bn
I1203 08:37:03.399632 17664 net.cpp:406] group1_block0_proj_bn <- group1_block0_proj
I1203 08:37:03.399632 17664 net.cpp:367] group1_block0_proj_bn -> group1_block0_proj (in-place)
I1203 08:37:03.399632 17664 net.cpp:122] Setting up group1_block0_proj_bn
I1203 08:37:03.399632 17664 net.cpp:129] Top shape: 100 32 16 16 (819200)
I1203 08:37:03.399632 17664 net.cpp:137] Memory required for data: 397722800
I1203 08:37:03.399632 17664 layer_factory.cpp:58] Creating layer group1_block0_proj_scale
I1203 08:37:03.399632 17664 net.cpp:84] Creating Layer group1_block0_proj_scale
I1203 08:37:03.399632 17664 net.cpp:406] group1_block0_proj_scale <- group1_block0_proj
I1203 08:37:03.399632 17664 net.cpp:367] group1_block0_proj_scale -> group1_block0_proj (in-place)
I1203 08:37:03.399632 17664 layer_factory.cpp:58] Creating layer group1_block0_proj_scale
I1203 08:37:03.400632 17664 net.cpp:122] Setting up group1_block0_proj_scale
I1203 08:37:03.400632 17664 net.cpp:129] Top shape: 100 32 16 16 (819200)
I1203 08:37:03.400632 17664 net.cpp:137] Memory required for data: 400999600
I1203 08:37:03.400632 17664 layer_factory.cpp:58] Creating layer group1_block0_sum
I1203 08:37:03.400632 17664 net.cpp:84] Creating Layer group1_block0_sum
I1203 08:37:03.400632 17664 net.cpp:406] group1_block0_sum <- group1_block0_proj
I1203 08:37:03.400632 17664 net.cpp:406] group1_block0_sum <- group1_block0_conv1
I1203 08:37:03.400632 17664 net.cpp:380] group1_block0_sum -> group1_block0_sum
I1203 08:37:03.400632 17664 net.cpp:122] Setting up group1_block0_sum
I1203 08:37:03.400632 17664 net.cpp:129] Top shape: 100 32 16 16 (819200)
I1203 08:37:03.400632 17664 net.cpp:137] Memory required for data: 404276400
I1203 08:37:03.400632 17664 layer_factory.cpp:58] Creating layer group1_block0_sum_group1_block0_sum_0_split
I1203 08:37:03.400632 17664 net.cpp:84] Creating Layer group1_block0_sum_group1_block0_sum_0_split
I1203 08:37:03.400632 17664 net.cpp:406] group1_block0_sum_group1_block0_sum_0_split <- group1_block0_sum
I1203 08:37:03.400632 17664 net.cpp:380] group1_block0_sum_group1_block0_sum_0_split -> group1_block0_sum_group1_block0_sum_0_split_0
I1203 08:37:03.400632 17664 net.cpp:380] group1_block0_sum_group1_block0_sum_0_split -> group1_block0_sum_group1_block0_sum_0_split_1
I1203 08:37:03.400632 17664 net.cpp:122] Setting up group1_block0_sum_group1_block0_sum_0_split
I1203 08:37:03.400632 17664 net.cpp:129] Top shape: 100 32 16 16 (819200)
I1203 08:37:03.400632 17664 net.cpp:129] Top shape: 100 32 16 16 (819200)
I1203 08:37:03.400632 17664 net.cpp:137] Memory required for data: 410830000
I1203 08:37:03.400632 17664 layer_factory.cpp:58] Creating layer group1_block1_conv0
I1203 08:37:03.400632 17664 net.cpp:84] Creating Layer group1_block1_conv0
I1203 08:37:03.400632 17664 net.cpp:406] group1_block1_conv0 <- group1_block0_sum_group1_block0_sum_0_split_0
I1203 08:37:03.400632 17664 net.cpp:380] group1_block1_conv0 -> group1_block1_conv0
I1203 08:37:03.401631 17664 net.cpp:122] Setting up group1_block1_conv0
I1203 08:37:03.401631 17664 net.cpp:129] Top shape: 100 32 16 16 (819200)
I1203 08:37:03.401631 17664 net.cpp:137] Memory required for data: 414106800
I1203 08:37:03.401631 17664 layer_factory.cpp:58] Creating layer group1_block1_conv0_bn
I1203 08:37:03.401631 17664 net.cpp:84] Creating Layer group1_block1_conv0_bn
I1203 08:37:03.401631 17664 net.cpp:406] group1_block1_conv0_bn <- group1_block1_conv0
I1203 08:37:03.401631 17664 net.cpp:367] group1_block1_conv0_bn -> group1_block1_conv0 (in-place)
I1203 08:37:03.401631 17664 net.cpp:122] Setting up group1_block1_conv0_bn
I1203 08:37:03.401631 17664 net.cpp:129] Top shape: 100 32 16 16 (819200)
I1203 08:37:03.401631 17664 net.cpp:137] Memory required for data: 417383600
I1203 08:37:03.401631 17664 layer_factory.cpp:58] Creating layer group1_block1_conv0_scale
I1203 08:37:03.401631 17664 net.cpp:84] Creating Layer group1_block1_conv0_scale
I1203 08:37:03.401631 17664 net.cpp:406] group1_block1_conv0_scale <- group1_block1_conv0
I1203 08:37:03.401631 17664 net.cpp:367] group1_block1_conv0_scale -> group1_block1_conv0 (in-place)
I1203 08:37:03.401631 17664 layer_factory.cpp:58] Creating layer group1_block1_conv0_scale
I1203 08:37:03.401631 17664 net.cpp:122] Setting up group1_block1_conv0_scale
I1203 08:37:03.401631 17664 net.cpp:129] Top shape: 100 32 16 16 (819200)
I1203 08:37:03.401631 17664 net.cpp:137] Memory required for data: 420660400
I1203 08:37:03.401631 17664 layer_factory.cpp:58] Creating layer group1_block1_conv0_relu
I1203 08:37:03.401631 17664 net.cpp:84] Creating Layer group1_block1_conv0_relu
I1203 08:37:03.401631 17664 net.cpp:406] group1_block1_conv0_relu <- group1_block1_conv0
I1203 08:37:03.401631 17664 net.cpp:367] group1_block1_conv0_relu -> group1_block1_conv0 (in-place)
I1203 08:37:03.401631 17664 net.cpp:122] Setting up group1_block1_conv0_relu
I1203 08:37:03.401631 17664 net.cpp:129] Top shape: 100 32 16 16 (819200)
I1203 08:37:03.401631 17664 net.cpp:137] Memory required for data: 423937200
I1203 08:37:03.401631 17664 layer_factory.cpp:58] Creating layer group1_block1_conv1
I1203 08:37:03.401631 17664 net.cpp:84] Creating Layer group1_block1_conv1
I1203 08:37:03.402631 17664 net.cpp:406] group1_block1_conv1 <- group1_block1_conv0
I1203 08:37:03.402631 17664 net.cpp:380] group1_block1_conv1 -> group1_block1_conv1
I1203 08:37:03.403631 17664 net.cpp:122] Setting up group1_block1_conv1
I1203 08:37:03.403631 17664 net.cpp:129] Top shape: 100 32 16 16 (819200)
I1203 08:37:03.403631 17664 net.cpp:137] Memory required for data: 427214000
I1203 08:37:03.403631 17664 layer_factory.cpp:58] Creating layer group1_block1_conv1_bn
I1203 08:37:03.403631 17664 net.cpp:84] Creating Layer group1_block1_conv1_bn
I1203 08:37:03.403631 17664 net.cpp:406] group1_block1_conv1_bn <- group1_block1_conv1
I1203 08:37:03.403631 17664 net.cpp:367] group1_block1_conv1_bn -> group1_block1_conv1 (in-place)
I1203 08:37:03.403631 17664 net.cpp:122] Setting up group1_block1_conv1_bn
I1203 08:37:03.403631 17664 net.cpp:129] Top shape: 100 32 16 16 (819200)
I1203 08:37:03.403631 17664 net.cpp:137] Memory required for data: 430490800
I1203 08:37:03.403631 17664 layer_factory.cpp:58] Creating layer group1_block1_conv1_scale
I1203 08:37:03.403631 17664 net.cpp:84] Creating Layer group1_block1_conv1_scale
I1203 08:37:03.403631 17664 net.cpp:406] group1_block1_conv1_scale <- group1_block1_conv1
I1203 08:37:03.403631 17664 net.cpp:367] group1_block1_conv1_scale -> group1_block1_conv1 (in-place)
I1203 08:37:03.403631 17664 layer_factory.cpp:58] Creating layer group1_block1_conv1_scale
I1203 08:37:03.403631 17664 net.cpp:122] Setting up group1_block1_conv1_scale
I1203 08:37:03.403631 17664 net.cpp:129] Top shape: 100 32 16 16 (819200)
I1203 08:37:03.403631 17664 net.cpp:137] Memory required for data: 433767600
I1203 08:37:03.403631 17664 layer_factory.cpp:58] Creating layer group1_block1_sum
I1203 08:37:03.403631 17664 net.cpp:84] Creating Layer group1_block1_sum
I1203 08:37:03.403631 17664 net.cpp:406] group1_block1_sum <- group1_block1_conv1
I1203 08:37:03.403631 17664 net.cpp:406] group1_block1_sum <- group1_block0_sum_group1_block0_sum_0_split_1
I1203 08:37:03.403631 17664 net.cpp:380] group1_block1_sum -> group1_block1_sum
I1203 08:37:03.404135 17664 net.cpp:122] Setting up group1_block1_sum
I1203 08:37:03.404135 17664 net.cpp:129] Top shape: 100 32 16 16 (819200)
I1203 08:37:03.404135 17664 net.cpp:137] Memory required for data: 437044400
I1203 08:37:03.404135 17664 layer_factory.cpp:58] Creating layer group1_block1_sum_group1_block1_sum_0_split
I1203 08:37:03.404135 17664 net.cpp:84] Creating Layer group1_block1_sum_group1_block1_sum_0_split
I1203 08:37:03.404135 17664 net.cpp:406] group1_block1_sum_group1_block1_sum_0_split <- group1_block1_sum
I1203 08:37:03.404135 17664 net.cpp:380] group1_block1_sum_group1_block1_sum_0_split -> group1_block1_sum_group1_block1_sum_0_split_0
I1203 08:37:03.404135 17664 net.cpp:380] group1_block1_sum_group1_block1_sum_0_split -> group1_block1_sum_group1_block1_sum_0_split_1
I1203 08:37:03.404135 17664 net.cpp:122] Setting up group1_block1_sum_group1_block1_sum_0_split
I1203 08:37:03.404135 17664 net.cpp:129] Top shape: 100 32 16 16 (819200)
I1203 08:37:03.404135 17664 net.cpp:129] Top shape: 100 32 16 16 (819200)
I1203 08:37:03.404135 17664 net.cpp:137] Memory required for data: 443598000
I1203 08:37:03.404135 17664 layer_factory.cpp:58] Creating layer group1_block2_conv0
I1203 08:37:03.404135 17664 net.cpp:84] Creating Layer group1_block2_conv0
I1203 08:37:03.404135 17664 net.cpp:406] group1_block2_conv0 <- group1_block1_sum_group1_block1_sum_0_split_0
I1203 08:37:03.404135 17664 net.cpp:380] group1_block2_conv0 -> group1_block2_conv0
I1203 08:37:03.405135 17664 net.cpp:122] Setting up group1_block2_conv0
I1203 08:37:03.405135 17664 net.cpp:129] Top shape: 100 32 16 16 (819200)
I1203 08:37:03.405135 17664 net.cpp:137] Memory required for data: 446874800
I1203 08:37:03.405135 17664 layer_factory.cpp:58] Creating layer group1_block2_conv0_bn
I1203 08:37:03.405135 17664 net.cpp:84] Creating Layer group1_block2_conv0_bn
I1203 08:37:03.405135 17664 net.cpp:406] group1_block2_conv0_bn <- group1_block2_conv0
I1203 08:37:03.405135 17664 net.cpp:367] group1_block2_conv0_bn -> group1_block2_conv0 (in-place)
I1203 08:37:03.405135 17664 net.cpp:122] Setting up group1_block2_conv0_bn
I1203 08:37:03.405135 17664 net.cpp:129] Top shape: 100 32 16 16 (819200)
I1203 08:37:03.405135 17664 net.cpp:137] Memory required for data: 450151600
I1203 08:37:03.405635 17664 layer_factory.cpp:58] Creating layer group1_block2_conv0_scale
I1203 08:37:03.405635 17664 net.cpp:84] Creating Layer group1_block2_conv0_scale
I1203 08:37:03.405635 17664 net.cpp:406] group1_block2_conv0_scale <- group1_block2_conv0
I1203 08:37:03.405635 17664 net.cpp:367] group1_block2_conv0_scale -> group1_block2_conv0 (in-place)
I1203 08:37:03.405635 17664 layer_factory.cpp:58] Creating layer group1_block2_conv0_scale
I1203 08:37:03.405635 17664 net.cpp:122] Setting up group1_block2_conv0_scale
I1203 08:37:03.405635 17664 net.cpp:129] Top shape: 100 32 16 16 (819200)
I1203 08:37:03.405635 17664 net.cpp:137] Memory required for data: 453428400
I1203 08:37:03.405635 17664 layer_factory.cpp:58] Creating layer group1_block2_conv0_relu
I1203 08:37:03.405635 17664 net.cpp:84] Creating Layer group1_block2_conv0_relu
I1203 08:37:03.405635 17664 net.cpp:406] group1_block2_conv0_relu <- group1_block2_conv0
I1203 08:37:03.405635 17664 net.cpp:367] group1_block2_conv0_relu -> group1_block2_conv0 (in-place)
I1203 08:37:03.405635 17664 net.cpp:122] Setting up group1_block2_conv0_relu
I1203 08:37:03.405635 17664 net.cpp:129] Top shape: 100 32 16 16 (819200)
I1203 08:37:03.405635 17664 net.cpp:137] Memory required for data: 456705200
I1203 08:37:03.405635 17664 layer_factory.cpp:58] Creating layer group1_block2_conv1
I1203 08:37:03.405635 17664 net.cpp:84] Creating Layer group1_block2_conv1
I1203 08:37:03.405635 17664 net.cpp:406] group1_block2_conv1 <- group1_block2_conv0
I1203 08:37:03.405635 17664 net.cpp:380] group1_block2_conv1 -> group1_block2_conv1
I1203 08:37:03.407135 17664 net.cpp:122] Setting up group1_block2_conv1
I1203 08:37:03.407135 17664 net.cpp:129] Top shape: 100 32 16 16 (819200)
I1203 08:37:03.407135 17664 net.cpp:137] Memory required for data: 459982000
I1203 08:37:03.407135 17664 layer_factory.cpp:58] Creating layer group1_block2_conv1_bn
I1203 08:37:03.407135 17664 net.cpp:84] Creating Layer group1_block2_conv1_bn
I1203 08:37:03.407135 17664 net.cpp:406] group1_block2_conv1_bn <- group1_block2_conv1
I1203 08:37:03.407135 17664 net.cpp:367] group1_block2_conv1_bn -> group1_block2_conv1 (in-place)
I1203 08:37:03.407636 17664 net.cpp:122] Setting up group1_block2_conv1_bn
I1203 08:37:03.407636 17664 net.cpp:129] Top shape: 100 32 16 16 (819200)
I1203 08:37:03.407636 17664 net.cpp:137] Memory required for data: 463258800
I1203 08:37:03.407636 17664 layer_factory.cpp:58] Creating layer group1_block2_conv1_scale
I1203 08:37:03.407636 17664 net.cpp:84] Creating Layer group1_block2_conv1_scale
I1203 08:37:03.407636 17664 net.cpp:406] group1_block2_conv1_scale <- group1_block2_conv1
I1203 08:37:03.407636 17664 net.cpp:367] group1_block2_conv1_scale -> group1_block2_conv1 (in-place)
I1203 08:37:03.407636 17664 layer_factory.cpp:58] Creating layer group1_block2_conv1_scale
I1203 08:37:03.407636 17664 net.cpp:122] Setting up group1_block2_conv1_scale
I1203 08:37:03.407636 17664 net.cpp:129] Top shape: 100 32 16 16 (819200)
I1203 08:37:03.407636 17664 net.cpp:137] Memory required for data: 466535600
I1203 08:37:03.407636 17664 layer_factory.cpp:58] Creating layer group1_block2_sum
I1203 08:37:03.407636 17664 net.cpp:84] Creating Layer group1_block2_sum
I1203 08:37:03.407636 17664 net.cpp:406] group1_block2_sum <- group1_block2_conv1
I1203 08:37:03.407636 17664 net.cpp:406] group1_block2_sum <- group1_block1_sum_group1_block1_sum_0_split_1
I1203 08:37:03.407636 17664 net.cpp:380] group1_block2_sum -> group1_block2_sum
I1203 08:37:03.407636 17664 net.cpp:122] Setting up group1_block2_sum
I1203 08:37:03.407636 17664 net.cpp:129] Top shape: 100 32 16 16 (819200)
I1203 08:37:03.407636 17664 net.cpp:137] Memory required for data: 469812400
I1203 08:37:03.407636 17664 layer_factory.cpp:58] Creating layer group1_block2_sum_group1_block2_sum_0_split
I1203 08:37:03.407636 17664 net.cpp:84] Creating Layer group1_block2_sum_group1_block2_sum_0_split
I1203 08:37:03.407636 17664 net.cpp:406] group1_block2_sum_group1_block2_sum_0_split <- group1_block2_sum
I1203 08:37:03.407636 17664 net.cpp:380] group1_block2_sum_group1_block2_sum_0_split -> group1_block2_sum_group1_block2_sum_0_split_0
I1203 08:37:03.407636 17664 net.cpp:380] group1_block2_sum_group1_block2_sum_0_split -> group1_block2_sum_group1_block2_sum_0_split_1
I1203 08:37:03.407636 17664 net.cpp:122] Setting up group1_block2_sum_group1_block2_sum_0_split
I1203 08:37:03.407636 17664 net.cpp:129] Top shape: 100 32 16 16 (819200)
I1203 08:37:03.407636 17664 net.cpp:129] Top shape: 100 32 16 16 (819200)
I1203 08:37:03.407636 17664 net.cpp:137] Memory required for data: 476366000
I1203 08:37:03.407636 17664 layer_factory.cpp:58] Creating layer group1_block3_conv0
I1203 08:37:03.407636 17664 net.cpp:84] Creating Layer group1_block3_conv0
I1203 08:37:03.408135 17664 net.cpp:406] group1_block3_conv0 <- group1_block2_sum_group1_block2_sum_0_split_0
I1203 08:37:03.408135 17664 net.cpp:380] group1_block3_conv0 -> group1_block3_conv0
I1203 08:37:03.409135 17664 net.cpp:122] Setting up group1_block3_conv0
I1203 08:37:03.409135 17664 net.cpp:129] Top shape: 100 32 16 16 (819200)
I1203 08:37:03.409135 17664 net.cpp:137] Memory required for data: 479642800
I1203 08:37:03.409135 17664 layer_factory.cpp:58] Creating layer group1_block3_conv0_bn
I1203 08:37:03.409135 17664 net.cpp:84] Creating Layer group1_block3_conv0_bn
I1203 08:37:03.409135 17664 net.cpp:406] group1_block3_conv0_bn <- group1_block3_conv0
I1203 08:37:03.409135 17664 net.cpp:367] group1_block3_conv0_bn -> group1_block3_conv0 (in-place)
I1203 08:37:03.409636 17664 net.cpp:122] Setting up group1_block3_conv0_bn
I1203 08:37:03.409636 17664 net.cpp:129] Top shape: 100 32 16 16 (819200)
I1203 08:37:03.409636 17664 net.cpp:137] Memory required for data: 482919600
I1203 08:37:03.409636 17664 layer_factory.cpp:58] Creating layer group1_block3_conv0_scale
I1203 08:37:03.409636 17664 net.cpp:84] Creating Layer group1_block3_conv0_scale
I1203 08:37:03.409636 17664 net.cpp:406] group1_block3_conv0_scale <- group1_block3_conv0
I1203 08:37:03.409636 17664 net.cpp:367] group1_block3_conv0_scale -> group1_block3_conv0 (in-place)
I1203 08:37:03.409636 17664 layer_factory.cpp:58] Creating layer group1_block3_conv0_scale
I1203 08:37:03.409636 17664 net.cpp:122] Setting up group1_block3_conv0_scale
I1203 08:37:03.409636 17664 net.cpp:129] Top shape: 100 32 16 16 (819200)
I1203 08:37:03.409636 17664 net.cpp:137] Memory required for data: 486196400
I1203 08:37:03.409636 17664 layer_factory.cpp:58] Creating layer group1_block3_conv0_relu
I1203 08:37:03.409636 17664 net.cpp:84] Creating Layer group1_block3_conv0_relu
I1203 08:37:03.409636 17664 net.cpp:406] group1_block3_conv0_relu <- group1_block3_conv0
I1203 08:37:03.409636 17664 net.cpp:367] group1_block3_conv0_relu -> group1_block3_conv0 (in-place)
I1203 08:37:03.410135 17664 net.cpp:122] Setting up group1_block3_conv0_relu
I1203 08:37:03.410135 17664 net.cpp:129] Top shape: 100 32 16 16 (819200)
I1203 08:37:03.410135 17664 net.cpp:137] Memory required for data: 489473200
I1203 08:37:03.410135 17664 layer_factory.cpp:58] Creating layer group1_block3_conv1
I1203 08:37:03.410135 17664 net.cpp:84] Creating Layer group1_block3_conv1
I1203 08:37:03.410135 17664 net.cpp:406] group1_block3_conv1 <- group1_block3_conv0
I1203 08:37:03.410135 17664 net.cpp:380] group1_block3_conv1 -> group1_block3_conv1
I1203 08:37:03.411135 17664 net.cpp:122] Setting up group1_block3_conv1
I1203 08:37:03.411135 17664 net.cpp:129] Top shape: 100 32 16 16 (819200)
I1203 08:37:03.411135 17664 net.cpp:137] Memory required for data: 492750000
I1203 08:37:03.411135 17664 layer_factory.cpp:58] Creating layer group1_block3_conv1_bn
I1203 08:37:03.411135 17664 net.cpp:84] Creating Layer group1_block3_conv1_bn
I1203 08:37:03.411135 17664 net.cpp:406] group1_block3_conv1_bn <- group1_block3_conv1
I1203 08:37:03.411135 17664 net.cpp:367] group1_block3_conv1_bn -> group1_block3_conv1 (in-place)
I1203 08:37:03.411636 17664 net.cpp:122] Setting up group1_block3_conv1_bn
I1203 08:37:03.411636 17664 net.cpp:129] Top shape: 100 32 16 16 (819200)
I1203 08:37:03.411636 17664 net.cpp:137] Memory required for data: 496026800
I1203 08:37:03.411636 17664 layer_factory.cpp:58] Creating layer group1_block3_conv1_scale
I1203 08:37:03.411636 17664 net.cpp:84] Creating Layer group1_block3_conv1_scale
I1203 08:37:03.411636 17664 net.cpp:406] group1_block3_conv1_scale <- group1_block3_conv1
I1203 08:37:03.411636 17664 net.cpp:367] group1_block3_conv1_scale -> group1_block3_conv1 (in-place)
I1203 08:37:03.411636 17664 layer_factory.cpp:58] Creating layer group1_block3_conv1_scale
I1203 08:37:03.411636 17664 net.cpp:122] Setting up group1_block3_conv1_scale
I1203 08:37:03.411636 17664 net.cpp:129] Top shape: 100 32 16 16 (819200)
I1203 08:37:03.411636 17664 net.cpp:137] Memory required for data: 499303600
I1203 08:37:03.411636 17664 layer_factory.cpp:58] Creating layer group1_block3_sum
I1203 08:37:03.411636 17664 net.cpp:84] Creating Layer group1_block3_sum
I1203 08:37:03.411636 17664 net.cpp:406] group1_block3_sum <- group1_block3_conv1
I1203 08:37:03.411636 17664 net.cpp:406] group1_block3_sum <- group1_block2_sum_group1_block2_sum_0_split_1
I1203 08:37:03.411636 17664 net.cpp:380] group1_block3_sum -> group1_block3_sum
I1203 08:37:03.411636 17664 net.cpp:122] Setting up group1_block3_sum
I1203 08:37:03.411636 17664 net.cpp:129] Top shape: 100 32 16 16 (819200)
I1203 08:37:03.411636 17664 net.cpp:137] Memory required for data: 502580400
I1203 08:37:03.411636 17664 layer_factory.cpp:58] Creating layer group1_block3_sum_group1_block3_sum_0_split
I1203 08:37:03.411636 17664 net.cpp:84] Creating Layer group1_block3_sum_group1_block3_sum_0_split
I1203 08:37:03.411636 17664 net.cpp:406] group1_block3_sum_group1_block3_sum_0_split <- group1_block3_sum
I1203 08:37:03.411636 17664 net.cpp:380] group1_block3_sum_group1_block3_sum_0_split -> group1_block3_sum_group1_block3_sum_0_split_0
I1203 08:37:03.411636 17664 net.cpp:380] group1_block3_sum_group1_block3_sum_0_split -> group1_block3_sum_group1_block3_sum_0_split_1
I1203 08:37:03.411636 17664 net.cpp:122] Setting up group1_block3_sum_group1_block3_sum_0_split
I1203 08:37:03.411636 17664 net.cpp:129] Top shape: 100 32 16 16 (819200)
I1203 08:37:03.411636 17664 net.cpp:129] Top shape: 100 32 16 16 (819200)
I1203 08:37:03.411636 17664 net.cpp:137] Memory required for data: 509134000
I1203 08:37:03.411636 17664 layer_factory.cpp:58] Creating layer group1_block4_conv0
I1203 08:37:03.411636 17664 net.cpp:84] Creating Layer group1_block4_conv0
I1203 08:37:03.411636 17664 net.cpp:406] group1_block4_conv0 <- group1_block3_sum_group1_block3_sum_0_split_0
I1203 08:37:03.412135 17664 net.cpp:380] group1_block4_conv0 -> group1_block4_conv0
I1203 08:37:03.413136 17664 net.cpp:122] Setting up group1_block4_conv0
I1203 08:37:03.413136 17664 net.cpp:129] Top shape: 100 32 16 16 (819200)
I1203 08:37:03.413136 17664 net.cpp:137] Memory required for data: 512410800
I1203 08:37:03.413136 17664 layer_factory.cpp:58] Creating layer group1_block4_conv0_bn
I1203 08:37:03.413136 17664 net.cpp:84] Creating Layer group1_block4_conv0_bn
I1203 08:37:03.413136 17664 net.cpp:406] group1_block4_conv0_bn <- group1_block4_conv0
I1203 08:37:03.413136 17664 net.cpp:367] group1_block4_conv0_bn -> group1_block4_conv0 (in-place)
I1203 08:37:03.413136 17664 net.cpp:122] Setting up group1_block4_conv0_bn
I1203 08:37:03.413136 17664 net.cpp:129] Top shape: 100 32 16 16 (819200)
I1203 08:37:03.413136 17664 net.cpp:137] Memory required for data: 515687600
I1203 08:37:03.413136 17664 layer_factory.cpp:58] Creating layer group1_block4_conv0_scale
I1203 08:37:03.413136 17664 net.cpp:84] Creating Layer group1_block4_conv0_scale
I1203 08:37:03.413136 17664 net.cpp:406] group1_block4_conv0_scale <- group1_block4_conv0
I1203 08:37:03.413136 17664 net.cpp:367] group1_block4_conv0_scale -> group1_block4_conv0 (in-place)
I1203 08:37:03.413136 17664 layer_factory.cpp:58] Creating layer group1_block4_conv0_scale
I1203 08:37:03.413636 17664 net.cpp:122] Setting up group1_block4_conv0_scale
I1203 08:37:03.413636 17664 net.cpp:129] Top shape: 100 32 16 16 (819200)
I1203 08:37:03.413636 17664 net.cpp:137] Memory required for data: 518964400
I1203 08:37:03.413636 17664 layer_factory.cpp:58] Creating layer group1_block4_conv0_relu
I1203 08:37:03.413636 17664 net.cpp:84] Creating Layer group1_block4_conv0_relu
I1203 08:37:03.413636 17664 net.cpp:406] group1_block4_conv0_relu <- group1_block4_conv0
I1203 08:37:03.413636 17664 net.cpp:367] group1_block4_conv0_relu -> group1_block4_conv0 (in-place)
I1203 08:37:03.414137 17664 net.cpp:122] Setting up group1_block4_conv0_relu
I1203 08:37:03.414137 17664 net.cpp:129] Top shape: 100 32 16 16 (819200)
I1203 08:37:03.414137 17664 net.cpp:137] Memory required for data: 522241200
I1203 08:37:03.414137 17664 layer_factory.cpp:58] Creating layer group1_block4_conv1
I1203 08:37:03.414137 17664 net.cpp:84] Creating Layer group1_block4_conv1
I1203 08:37:03.414137 17664 net.cpp:406] group1_block4_conv1 <- group1_block4_conv0
I1203 08:37:03.414137 17664 net.cpp:380] group1_block4_conv1 -> group1_block4_conv1
I1203 08:37:03.414636 17664 net.cpp:122] Setting up group1_block4_conv1
I1203 08:37:03.414636 17664 net.cpp:129] Top shape: 100 32 16 16 (819200)
I1203 08:37:03.414636 17664 net.cpp:137] Memory required for data: 525518000
I1203 08:37:03.415136 17664 layer_factory.cpp:58] Creating layer group1_block4_conv1_bn
I1203 08:37:03.415136 17664 net.cpp:84] Creating Layer group1_block4_conv1_bn
I1203 08:37:03.415136 17664 net.cpp:406] group1_block4_conv1_bn <- group1_block4_conv1
I1203 08:37:03.415136 17664 net.cpp:367] group1_block4_conv1_bn -> group1_block4_conv1 (in-place)
I1203 08:37:03.415136 17664 net.cpp:122] Setting up group1_block4_conv1_bn
I1203 08:37:03.415136 17664 net.cpp:129] Top shape: 100 32 16 16 (819200)
I1203 08:37:03.415136 17664 net.cpp:137] Memory required for data: 528794800
I1203 08:37:03.415136 17664 layer_factory.cpp:58] Creating layer group1_block4_conv1_scale
I1203 08:37:03.415136 17664 net.cpp:84] Creating Layer group1_block4_conv1_scale
I1203 08:37:03.415136 17664 net.cpp:406] group1_block4_conv1_scale <- group1_block4_conv1
I1203 08:37:03.415136 17664 net.cpp:367] group1_block4_conv1_scale -> group1_block4_conv1 (in-place)
I1203 08:37:03.415136 17664 layer_factory.cpp:58] Creating layer group1_block4_conv1_scale
I1203 08:37:03.415136 17664 net.cpp:122] Setting up group1_block4_conv1_scale
I1203 08:37:03.415136 17664 net.cpp:129] Top shape: 100 32 16 16 (819200)
I1203 08:37:03.415136 17664 net.cpp:137] Memory required for data: 532071600
I1203 08:37:03.415136 17664 layer_factory.cpp:58] Creating layer group1_block4_sum
I1203 08:37:03.415136 17664 net.cpp:84] Creating Layer group1_block4_sum
I1203 08:37:03.415136 17664 net.cpp:406] group1_block4_sum <- group1_block4_conv1
I1203 08:37:03.415136 17664 net.cpp:406] group1_block4_sum <- group1_block3_sum_group1_block3_sum_0_split_1
I1203 08:37:03.415136 17664 net.cpp:380] group1_block4_sum -> group1_block4_sum
I1203 08:37:03.415136 17664 net.cpp:122] Setting up group1_block4_sum
I1203 08:37:03.415136 17664 net.cpp:129] Top shape: 100 32 16 16 (819200)
I1203 08:37:03.415136 17664 net.cpp:137] Memory required for data: 535348400
I1203 08:37:03.415637 17664 layer_factory.cpp:58] Creating layer group1_block4_sum_group1_block4_sum_0_split
I1203 08:37:03.415637 17664 net.cpp:84] Creating Layer group1_block4_sum_group1_block4_sum_0_split
I1203 08:37:03.415637 17664 net.cpp:406] group1_block4_sum_group1_block4_sum_0_split <- group1_block4_sum
I1203 08:37:03.415637 17664 net.cpp:380] group1_block4_sum_group1_block4_sum_0_split -> group1_block4_sum_group1_block4_sum_0_split_0
I1203 08:37:03.415637 17664 net.cpp:380] group1_block4_sum_group1_block4_sum_0_split -> group1_block4_sum_group1_block4_sum_0_split_1
I1203 08:37:03.415637 17664 net.cpp:122] Setting up group1_block4_sum_group1_block4_sum_0_split
I1203 08:37:03.415637 17664 net.cpp:129] Top shape: 100 32 16 16 (819200)
I1203 08:37:03.415637 17664 net.cpp:129] Top shape: 100 32 16 16 (819200)
I1203 08:37:03.415637 17664 net.cpp:137] Memory required for data: 541902000
I1203 08:37:03.415637 17664 layer_factory.cpp:58] Creating layer group2_block0_conv0
I1203 08:37:03.415637 17664 net.cpp:84] Creating Layer group2_block0_conv0
I1203 08:37:03.415637 17664 net.cpp:406] group2_block0_conv0 <- group1_block4_sum_group1_block4_sum_0_split_0
I1203 08:37:03.415637 17664 net.cpp:380] group2_block0_conv0 -> group2_block0_conv0
I1203 08:37:03.417635 17664 net.cpp:122] Setting up group2_block0_conv0
I1203 08:37:03.417635 17664 net.cpp:129] Top shape: 100 64 8 8 (409600)
I1203 08:37:03.417635 17664 net.cpp:137] Memory required for data: 543540400
I1203 08:37:03.417635 17664 layer_factory.cpp:58] Creating layer group2_block0_conv0_bn
I1203 08:37:03.417635 17664 net.cpp:84] Creating Layer group2_block0_conv0_bn
I1203 08:37:03.417635 17664 net.cpp:406] group2_block0_conv0_bn <- group2_block0_conv0
I1203 08:37:03.417635 17664 net.cpp:367] group2_block0_conv0_bn -> group2_block0_conv0 (in-place)
I1203 08:37:03.417635 17664 net.cpp:122] Setting up group2_block0_conv0_bn
I1203 08:37:03.417635 17664 net.cpp:129] Top shape: 100 64 8 8 (409600)
I1203 08:37:03.417635 17664 net.cpp:137] Memory required for data: 545178800
I1203 08:37:03.417635 17664 layer_factory.cpp:58] Creating layer group2_block0_conv0_scale
I1203 08:37:03.417635 17664 net.cpp:84] Creating Layer group2_block0_conv0_scale
I1203 08:37:03.417635 17664 net.cpp:406] group2_block0_conv0_scale <- group2_block0_conv0
I1203 08:37:03.417635 17664 net.cpp:367] group2_block0_conv0_scale -> group2_block0_conv0 (in-place)
I1203 08:37:03.417635 17664 layer_factory.cpp:58] Creating layer group2_block0_conv0_scale
I1203 08:37:03.418136 17664 net.cpp:122] Setting up group2_block0_conv0_scale
I1203 08:37:03.418136 17664 net.cpp:129] Top shape: 100 64 8 8 (409600)
I1203 08:37:03.418136 17664 net.cpp:137] Memory required for data: 546817200
I1203 08:37:03.418136 17664 layer_factory.cpp:58] Creating layer group2_block0_conv0_relu
I1203 08:37:03.418136 17664 net.cpp:84] Creating Layer group2_block0_conv0_relu
I1203 08:37:03.418136 17664 net.cpp:406] group2_block0_conv0_relu <- group2_block0_conv0
I1203 08:37:03.418136 17664 net.cpp:367] group2_block0_conv0_relu -> group2_block0_conv0 (in-place)
I1203 08:37:03.418637 17664 net.cpp:122] Setting up group2_block0_conv0_relu
I1203 08:37:03.418637 17664 net.cpp:129] Top shape: 100 64 8 8 (409600)
I1203 08:37:03.418637 17664 net.cpp:137] Memory required for data: 548455600
I1203 08:37:03.418637 17664 layer_factory.cpp:58] Creating layer group2_block0_conv1
I1203 08:37:03.418637 17664 net.cpp:84] Creating Layer group2_block0_conv1
I1203 08:37:03.418637 17664 net.cpp:406] group2_block0_conv1 <- group2_block0_conv0
I1203 08:37:03.418637 17664 net.cpp:380] group2_block0_conv1 -> group2_block0_conv1
I1203 08:37:03.419636 17664 net.cpp:122] Setting up group2_block0_conv1
I1203 08:37:03.419636 17664 net.cpp:129] Top shape: 100 64 8 8 (409600)
I1203 08:37:03.419636 17664 net.cpp:137] Memory required for data: 550094000
I1203 08:37:03.419636 17664 layer_factory.cpp:58] Creating layer group2_block0_conv1_bn
I1203 08:37:03.419636 17664 net.cpp:84] Creating Layer group2_block0_conv1_bn
I1203 08:37:03.419636 17664 net.cpp:406] group2_block0_conv1_bn <- group2_block0_conv1
I1203 08:37:03.419636 17664 net.cpp:367] group2_block0_conv1_bn -> group2_block0_conv1 (in-place)
I1203 08:37:03.419636 17664 net.cpp:122] Setting up group2_block0_conv1_bn
I1203 08:37:03.419636 17664 net.cpp:129] Top shape: 100 64 8 8 (409600)
I1203 08:37:03.419636 17664 net.cpp:137] Memory required for data: 551732400
I1203 08:37:03.419636 17664 layer_factory.cpp:58] Creating layer group2_block0_conv1_scale
I1203 08:37:03.419636 17664 net.cpp:84] Creating Layer group2_block0_conv1_scale
I1203 08:37:03.419636 17664 net.cpp:406] group2_block0_conv1_scale <- group2_block0_conv1
I1203 08:37:03.419636 17664 net.cpp:367] group2_block0_conv1_scale -> group2_block0_conv1 (in-place)
I1203 08:37:03.419636 17664 layer_factory.cpp:58] Creating layer group2_block0_conv1_scale
I1203 08:37:03.419636 17664 net.cpp:122] Setting up group2_block0_conv1_scale
I1203 08:37:03.419636 17664 net.cpp:129] Top shape: 100 64 8 8 (409600)
I1203 08:37:03.419636 17664 net.cpp:137] Memory required for data: 553370800
I1203 08:37:03.419636 17664 layer_factory.cpp:58] Creating layer group2_block0_proj
I1203 08:37:03.419636 17664 net.cpp:84] Creating Layer group2_block0_proj
I1203 08:37:03.419636 17664 net.cpp:406] group2_block0_proj <- group1_block4_sum_group1_block4_sum_0_split_1
I1203 08:37:03.419636 17664 net.cpp:380] group2_block0_proj -> group2_block0_proj
I1203 08:37:03.420640 17664 net.cpp:122] Setting up group2_block0_proj
I1203 08:37:03.420640 17664 net.cpp:129] Top shape: 100 64 8 8 (409600)
I1203 08:37:03.420640 17664 net.cpp:137] Memory required for data: 555009200
I1203 08:37:03.420640 17664 layer_factory.cpp:58] Creating layer group2_block0_proj_bn
I1203 08:37:03.420640 17664 net.cpp:84] Creating Layer group2_block0_proj_bn
I1203 08:37:03.420640 17664 net.cpp:406] group2_block0_proj_bn <- group2_block0_proj
I1203 08:37:03.420640 17664 net.cpp:367] group2_block0_proj_bn -> group2_block0_proj (in-place)
I1203 08:37:03.420640 17664 net.cpp:122] Setting up group2_block0_proj_bn
I1203 08:37:03.420640 17664 net.cpp:129] Top shape: 100 64 8 8 (409600)
I1203 08:37:03.421640 17664 net.cpp:137] Memory required for data: 556647600
I1203 08:37:03.421640 17664 layer_factory.cpp:58] Creating layer group2_block0_proj_scale
I1203 08:37:03.421640 17664 net.cpp:84] Creating Layer group2_block0_proj_scale
I1203 08:37:03.421640 17664 net.cpp:406] group2_block0_proj_scale <- group2_block0_proj
I1203 08:37:03.421640 17664 net.cpp:367] group2_block0_proj_scale -> group2_block0_proj (in-place)
I1203 08:37:03.421640 17664 layer_factory.cpp:58] Creating layer group2_block0_proj_scale
I1203 08:37:03.421640 17664 net.cpp:122] Setting up group2_block0_proj_scale
I1203 08:37:03.421640 17664 net.cpp:129] Top shape: 100 64 8 8 (409600)
I1203 08:37:03.421640 17664 net.cpp:137] Memory required for data: 558286000
I1203 08:37:03.421640 17664 layer_factory.cpp:58] Creating layer group2_block0_sum
I1203 08:37:03.421640 17664 net.cpp:84] Creating Layer group2_block0_sum
I1203 08:37:03.421640 17664 net.cpp:406] group2_block0_sum <- group2_block0_proj
I1203 08:37:03.421640 17664 net.cpp:406] group2_block0_sum <- group2_block0_conv1
I1203 08:37:03.421640 17664 net.cpp:380] group2_block0_sum -> group2_block0_sum
I1203 08:37:03.421640 17664 net.cpp:122] Setting up group2_block0_sum
I1203 08:37:03.421640 17664 net.cpp:129] Top shape: 100 64 8 8 (409600)
I1203 08:37:03.421640 17664 net.cpp:137] Memory required for data: 559924400
I1203 08:37:03.421640 17664 layer_factory.cpp:58] Creating layer group2_block0_sum_group2_block0_sum_0_split
I1203 08:37:03.421640 17664 net.cpp:84] Creating Layer group2_block0_sum_group2_block0_sum_0_split
I1203 08:37:03.421640 17664 net.cpp:406] group2_block0_sum_group2_block0_sum_0_split <- group2_block0_sum
I1203 08:37:03.421640 17664 net.cpp:380] group2_block0_sum_group2_block0_sum_0_split -> group2_block0_sum_group2_block0_sum_0_split_0
I1203 08:37:03.421640 17664 net.cpp:380] group2_block0_sum_group2_block0_sum_0_split -> group2_block0_sum_group2_block0_sum_0_split_1
I1203 08:37:03.421640 17664 net.cpp:122] Setting up group2_block0_sum_group2_block0_sum_0_split
I1203 08:37:03.421640 17664 net.cpp:129] Top shape: 100 64 8 8 (409600)
I1203 08:37:03.421640 17664 net.cpp:129] Top shape: 100 64 8 8 (409600)
I1203 08:37:03.421640 17664 net.cpp:137] Memory required for data: 563201200
I1203 08:37:03.421640 17664 layer_factory.cpp:58] Creating layer group2_block1_conv0
I1203 08:37:03.421640 17664 net.cpp:84] Creating Layer group2_block1_conv0
I1203 08:37:03.421640 17664 net.cpp:406] group2_block1_conv0 <- group2_block0_sum_group2_block0_sum_0_split_0
I1203 08:37:03.421640 17664 net.cpp:380] group2_block1_conv0 -> group2_block1_conv0
I1203 08:37:03.422639 17664 net.cpp:122] Setting up group2_block1_conv0
I1203 08:37:03.422639 17664 net.cpp:129] Top shape: 100 64 8 8 (409600)
I1203 08:37:03.422639 17664 net.cpp:137] Memory required for data: 564839600
I1203 08:37:03.422639 17664 layer_factory.cpp:58] Creating layer group2_block1_conv0_bn
I1203 08:37:03.422639 17664 net.cpp:84] Creating Layer group2_block1_conv0_bn
I1203 08:37:03.422639 17664 net.cpp:406] group2_block1_conv0_bn <- group2_block1_conv0
I1203 08:37:03.422639 17664 net.cpp:367] group2_block1_conv0_bn -> group2_block1_conv0 (in-place)
I1203 08:37:03.422639 17664 net.cpp:122] Setting up group2_block1_conv0_bn
I1203 08:37:03.422639 17664 net.cpp:129] Top shape: 100 64 8 8 (409600)
I1203 08:37:03.422639 17664 net.cpp:137] Memory required for data: 566478000
I1203 08:37:03.423640 17664 layer_factory.cpp:58] Creating layer group2_block1_conv0_scale
I1203 08:37:03.423640 17664 net.cpp:84] Creating Layer group2_block1_conv0_scale
I1203 08:37:03.423640 17664 net.cpp:406] group2_block1_conv0_scale <- group2_block1_conv0
I1203 08:37:03.423640 17664 net.cpp:367] group2_block1_conv0_scale -> group2_block1_conv0 (in-place)
I1203 08:37:03.423640 17664 layer_factory.cpp:58] Creating layer group2_block1_conv0_scale
I1203 08:37:03.423640 17664 net.cpp:122] Setting up group2_block1_conv0_scale
I1203 08:37:03.423640 17664 net.cpp:129] Top shape: 100 64 8 8 (409600)
I1203 08:37:03.423640 17664 net.cpp:137] Memory required for data: 568116400
I1203 08:37:03.423640 17664 layer_factory.cpp:58] Creating layer group2_block1_conv0_relu
I1203 08:37:03.423640 17664 net.cpp:84] Creating Layer group2_block1_conv0_relu
I1203 08:37:03.423640 17664 net.cpp:406] group2_block1_conv0_relu <- group2_block1_conv0
I1203 08:37:03.423640 17664 net.cpp:367] group2_block1_conv0_relu -> group2_block1_conv0 (in-place)
I1203 08:37:03.423640 17664 net.cpp:122] Setting up group2_block1_conv0_relu
I1203 08:37:03.423640 17664 net.cpp:129] Top shape: 100 64 8 8 (409600)
I1203 08:37:03.423640 17664 net.cpp:137] Memory required for data: 569754800
I1203 08:37:03.423640 17664 layer_factory.cpp:58] Creating layer group2_block1_conv1
I1203 08:37:03.423640 17664 net.cpp:84] Creating Layer group2_block1_conv1
I1203 08:37:03.423640 17664 net.cpp:406] group2_block1_conv1 <- group2_block1_conv0
I1203 08:37:03.423640 17664 net.cpp:380] group2_block1_conv1 -> group2_block1_conv1
I1203 08:37:03.425640 17664 net.cpp:122] Setting up group2_block1_conv1
I1203 08:37:03.425640 17664 net.cpp:129] Top shape: 100 64 8 8 (409600)
I1203 08:37:03.425640 17664 net.cpp:137] Memory required for data: 571393200
I1203 08:37:03.425640 17664 layer_factory.cpp:58] Creating layer group2_block1_conv1_bn
I1203 08:37:03.425640 17664 net.cpp:84] Creating Layer group2_block1_conv1_bn
I1203 08:37:03.425640 17664 net.cpp:406] group2_block1_conv1_bn <- group2_block1_conv1
I1203 08:37:03.425640 17664 net.cpp:367] group2_block1_conv1_bn -> group2_block1_conv1 (in-place)
I1203 08:37:03.425640 17664 net.cpp:122] Setting up group2_block1_conv1_bn
I1203 08:37:03.425640 17664 net.cpp:129] Top shape: 100 64 8 8 (409600)
I1203 08:37:03.425640 17664 net.cpp:137] Memory required for data: 573031600
I1203 08:37:03.425640 17664 layer_factory.cpp:58] Creating layer group2_block1_conv1_scale
I1203 08:37:03.425640 17664 net.cpp:84] Creating Layer group2_block1_conv1_scale
I1203 08:37:03.425640 17664 net.cpp:406] group2_block1_conv1_scale <- group2_block1_conv1
I1203 08:37:03.425640 17664 net.cpp:367] group2_block1_conv1_scale -> group2_block1_conv1 (in-place)
I1203 08:37:03.425640 17664 layer_factory.cpp:58] Creating layer group2_block1_conv1_scale
I1203 08:37:03.425640 17664 net.cpp:122] Setting up group2_block1_conv1_scale
I1203 08:37:03.425640 17664 net.cpp:129] Top shape: 100 64 8 8 (409600)
I1203 08:37:03.425640 17664 net.cpp:137] Memory required for data: 574670000
I1203 08:37:03.425640 17664 layer_factory.cpp:58] Creating layer group2_block1_sum
I1203 08:37:03.425640 17664 net.cpp:84] Creating Layer group2_block1_sum
I1203 08:37:03.425640 17664 net.cpp:406] group2_block1_sum <- group2_block1_conv1
I1203 08:37:03.425640 17664 net.cpp:406] group2_block1_sum <- group2_block0_sum_group2_block0_sum_0_split_1
I1203 08:37:03.425640 17664 net.cpp:380] group2_block1_sum -> group2_block1_sum
I1203 08:37:03.425640 17664 net.cpp:122] Setting up group2_block1_sum
I1203 08:37:03.425640 17664 net.cpp:129] Top shape: 100 64 8 8 (409600)
I1203 08:37:03.425640 17664 net.cpp:137] Memory required for data: 576308400
I1203 08:37:03.425640 17664 layer_factory.cpp:58] Creating layer group2_block1_sum_group2_block1_sum_0_split
I1203 08:37:03.425640 17664 net.cpp:84] Creating Layer group2_block1_sum_group2_block1_sum_0_split
I1203 08:37:03.425640 17664 net.cpp:406] group2_block1_sum_group2_block1_sum_0_split <- group2_block1_sum
I1203 08:37:03.425640 17664 net.cpp:380] group2_block1_sum_group2_block1_sum_0_split -> group2_block1_sum_group2_block1_sum_0_split_0
I1203 08:37:03.425640 17664 net.cpp:380] group2_block1_sum_group2_block1_sum_0_split -> group2_block1_sum_group2_block1_sum_0_split_1
I1203 08:37:03.425640 17664 net.cpp:122] Setting up group2_block1_sum_group2_block1_sum_0_split
I1203 08:37:03.425640 17664 net.cpp:129] Top shape: 100 64 8 8 (409600)
I1203 08:37:03.425640 17664 net.cpp:129] Top shape: 100 64 8 8 (409600)
I1203 08:37:03.425640 17664 net.cpp:137] Memory required for data: 579585200
I1203 08:37:03.425640 17664 layer_factory.cpp:58] Creating layer group2_block2_conv0
I1203 08:37:03.425640 17664 net.cpp:84] Creating Layer group2_block2_conv0
I1203 08:37:03.425640 17664 net.cpp:406] group2_block2_conv0 <- group2_block1_sum_group2_block1_sum_0_split_0
I1203 08:37:03.425640 17664 net.cpp:380] group2_block2_conv0 -> group2_block2_conv0
I1203 08:37:03.427639 17664 net.cpp:122] Setting up group2_block2_conv0
I1203 08:37:03.427639 17664 net.cpp:129] Top shape: 100 64 8 8 (409600)
I1203 08:37:03.427639 17664 net.cpp:137] Memory required for data: 581223600
I1203 08:37:03.427639 17664 layer_factory.cpp:58] Creating layer group2_block2_conv0_bn
I1203 08:37:03.427639 17664 net.cpp:84] Creating Layer group2_block2_conv0_bn
I1203 08:37:03.427639 17664 net.cpp:406] group2_block2_conv0_bn <- group2_block2_conv0
I1203 08:37:03.427639 17664 net.cpp:367] group2_block2_conv0_bn -> group2_block2_conv0 (in-place)
I1203 08:37:03.427639 17664 net.cpp:122] Setting up group2_block2_conv0_bn
I1203 08:37:03.427639 17664 net.cpp:129] Top shape: 100 64 8 8 (409600)
I1203 08:37:03.427639 17664 net.cpp:137] Memory required for data: 582862000
I1203 08:37:03.427639 17664 layer_factory.cpp:58] Creating layer group2_block2_conv0_scale
I1203 08:37:03.427639 17664 net.cpp:84] Creating Layer group2_block2_conv0_scale
I1203 08:37:03.427639 17664 net.cpp:406] group2_block2_conv0_scale <- group2_block2_conv0
I1203 08:37:03.427639 17664 net.cpp:367] group2_block2_conv0_scale -> group2_block2_conv0 (in-place)
I1203 08:37:03.427639 17664 layer_factory.cpp:58] Creating layer group2_block2_conv0_scale
I1203 08:37:03.427639 17664 net.cpp:122] Setting up group2_block2_conv0_scale
I1203 08:37:03.427639 17664 net.cpp:129] Top shape: 100 64 8 8 (409600)
I1203 08:37:03.427639 17664 net.cpp:137] Memory required for data: 584500400
I1203 08:37:03.427639 17664 layer_factory.cpp:58] Creating layer group2_block2_conv0_relu
I1203 08:37:03.427639 17664 net.cpp:84] Creating Layer group2_block2_conv0_relu
I1203 08:37:03.427639 17664 net.cpp:406] group2_block2_conv0_relu <- group2_block2_conv0
I1203 08:37:03.427639 17664 net.cpp:367] group2_block2_conv0_relu -> group2_block2_conv0 (in-place)
I1203 08:37:03.427639 17664 net.cpp:122] Setting up group2_block2_conv0_relu
I1203 08:37:03.427639 17664 net.cpp:129] Top shape: 100 64 8 8 (409600)
I1203 08:37:03.427639 17664 net.cpp:137] Memory required for data: 586138800
I1203 08:37:03.427639 17664 layer_factory.cpp:58] Creating layer group2_block2_conv1
I1203 08:37:03.428639 17664 net.cpp:84] Creating Layer group2_block2_conv1
I1203 08:37:03.428639 17664 net.cpp:406] group2_block2_conv1 <- group2_block2_conv0
I1203 08:37:03.428639 17664 net.cpp:380] group2_block2_conv1 -> group2_block2_conv1
I1203 08:37:03.429641 17664 net.cpp:122] Setting up group2_block2_conv1
I1203 08:37:03.429641 17664 net.cpp:129] Top shape: 100 64 8 8 (409600)
I1203 08:37:03.429641 17664 net.cpp:137] Memory required for data: 587777200
I1203 08:37:03.429641 17664 layer_factory.cpp:58] Creating layer group2_block2_conv1_bn
I1203 08:37:03.429641 17664 net.cpp:84] Creating Layer group2_block2_conv1_bn
I1203 08:37:03.429641 17664 net.cpp:406] group2_block2_conv1_bn <- group2_block2_conv1
I1203 08:37:03.429641 17664 net.cpp:367] group2_block2_conv1_bn -> group2_block2_conv1 (in-place)
I1203 08:37:03.429641 17664 net.cpp:122] Setting up group2_block2_conv1_bn
I1203 08:37:03.429641 17664 net.cpp:129] Top shape: 100 64 8 8 (409600)
I1203 08:37:03.429641 17664 net.cpp:137] Memory required for data: 589415600
I1203 08:37:03.429641 17664 layer_factory.cpp:58] Creating layer group2_block2_conv1_scale
I1203 08:37:03.429641 17664 net.cpp:84] Creating Layer group2_block2_conv1_scale
I1203 08:37:03.429641 17664 net.cpp:406] group2_block2_conv1_scale <- group2_block2_conv1
I1203 08:37:03.429641 17664 net.cpp:367] group2_block2_conv1_scale -> group2_block2_conv1 (in-place)
I1203 08:37:03.429641 17664 layer_factory.cpp:58] Creating layer group2_block2_conv1_scale
I1203 08:37:03.430639 17664 net.cpp:122] Setting up group2_block2_conv1_scale
I1203 08:37:03.430639 17664 net.cpp:129] Top shape: 100 64 8 8 (409600)
I1203 08:37:03.430639 17664 net.cpp:137] Memory required for data: 591054000
I1203 08:37:03.430639 17664 layer_factory.cpp:58] Creating layer group2_block2_sum
I1203 08:37:03.430639 17664 net.cpp:84] Creating Layer group2_block2_sum
I1203 08:37:03.430639 17664 net.cpp:406] group2_block2_sum <- group2_block2_conv1
I1203 08:37:03.430639 17664 net.cpp:406] group2_block2_sum <- group2_block1_sum_group2_block1_sum_0_split_1
I1203 08:37:03.430639 17664 net.cpp:380] group2_block2_sum -> group2_block2_sum
I1203 08:37:03.430639 17664 net.cpp:122] Setting up group2_block2_sum
I1203 08:37:03.430639 17664 net.cpp:129] Top shape: 100 64 8 8 (409600)
I1203 08:37:03.430639 17664 net.cpp:137] Memory required for data: 592692400
I1203 08:37:03.430639 17664 layer_factory.cpp:58] Creating layer group2_block2_sum_group2_block2_sum_0_split
I1203 08:37:03.430639 17664 net.cpp:84] Creating Layer group2_block2_sum_group2_block2_sum_0_split
I1203 08:37:03.430639 17664 net.cpp:406] group2_block2_sum_group2_block2_sum_0_split <- group2_block2_sum
I1203 08:37:03.430639 17664 net.cpp:380] group2_block2_sum_group2_block2_sum_0_split -> group2_block2_sum_group2_block2_sum_0_split_0
I1203 08:37:03.430639 17664 net.cpp:380] group2_block2_sum_group2_block2_sum_0_split -> group2_block2_sum_group2_block2_sum_0_split_1
I1203 08:37:03.430639 17664 net.cpp:122] Setting up group2_block2_sum_group2_block2_sum_0_split
I1203 08:37:03.430639 17664 net.cpp:129] Top shape: 100 64 8 8 (409600)
I1203 08:37:03.430639 17664 net.cpp:129] Top shape: 100 64 8 8 (409600)
I1203 08:37:03.430639 17664 net.cpp:137] Memory required for data: 595969200
I1203 08:37:03.430639 17664 layer_factory.cpp:58] Creating layer group2_block3_conv0
I1203 08:37:03.430639 17664 net.cpp:84] Creating Layer group2_block3_conv0
I1203 08:37:03.430639 17664 net.cpp:406] group2_block3_conv0 <- group2_block2_sum_group2_block2_sum_0_split_0
I1203 08:37:03.430639 17664 net.cpp:380] group2_block3_conv0 -> group2_block3_conv0
I1203 08:37:03.431639 17664 net.cpp:122] Setting up group2_block3_conv0
I1203 08:37:03.431639 17664 net.cpp:129] Top shape: 100 64 8 8 (409600)
I1203 08:37:03.431639 17664 net.cpp:137] Memory required for data: 597607600
I1203 08:37:03.431639 17664 layer_factory.cpp:58] Creating layer group2_block3_conv0_bn
I1203 08:37:03.431639 17664 net.cpp:84] Creating Layer group2_block3_conv0_bn
I1203 08:37:03.431639 17664 net.cpp:406] group2_block3_conv0_bn <- group2_block3_conv0
I1203 08:37:03.431639 17664 net.cpp:367] group2_block3_conv0_bn -> group2_block3_conv0 (in-place)
I1203 08:37:03.431639 17664 net.cpp:122] Setting up group2_block3_conv0_bn
I1203 08:37:03.431639 17664 net.cpp:129] Top shape: 100 64 8 8 (409600)
I1203 08:37:03.431639 17664 net.cpp:137] Memory required for data: 599246000
I1203 08:37:03.431639 17664 layer_factory.cpp:58] Creating layer group2_block3_conv0_scale
I1203 08:37:03.431639 17664 net.cpp:84] Creating Layer group2_block3_conv0_scale
I1203 08:37:03.431639 17664 net.cpp:406] group2_block3_conv0_scale <- group2_block3_conv0
I1203 08:37:03.431639 17664 net.cpp:367] group2_block3_conv0_scale -> group2_block3_conv0 (in-place)
I1203 08:37:03.431639 17664 layer_factory.cpp:58] Creating layer group2_block3_conv0_scale
I1203 08:37:03.431639 17664 net.cpp:122] Setting up group2_block3_conv0_scale
I1203 08:37:03.431639 17664 net.cpp:129] Top shape: 100 64 8 8 (409600)
I1203 08:37:03.431639 17664 net.cpp:137] Memory required for data: 600884400
I1203 08:37:03.431639 17664 layer_factory.cpp:58] Creating layer group2_block3_conv0_relu
I1203 08:37:03.431639 17664 net.cpp:84] Creating Layer group2_block3_conv0_relu
I1203 08:37:03.431639 17664 net.cpp:406] group2_block3_conv0_relu <- group2_block3_conv0
I1203 08:37:03.431639 17664 net.cpp:367] group2_block3_conv0_relu -> group2_block3_conv0 (in-place)
I1203 08:37:03.432641 17664 net.cpp:122] Setting up group2_block3_conv0_relu
I1203 08:37:03.432641 17664 net.cpp:129] Top shape: 100 64 8 8 (409600)
I1203 08:37:03.432641 17664 net.cpp:137] Memory required for data: 602522800
I1203 08:37:03.432641 17664 layer_factory.cpp:58] Creating layer group2_block3_conv1
I1203 08:37:03.432641 17664 net.cpp:84] Creating Layer group2_block3_conv1
I1203 08:37:03.432641 17664 net.cpp:406] group2_block3_conv1 <- group2_block3_conv0
I1203 08:37:03.432641 17664 net.cpp:380] group2_block3_conv1 -> group2_block3_conv1
I1203 08:37:03.434639 17664 net.cpp:122] Setting up group2_block3_conv1
I1203 08:37:03.434639 17664 net.cpp:129] Top shape: 100 64 8 8 (409600)
I1203 08:37:03.434639 17664 net.cpp:137] Memory required for data: 604161200
I1203 08:37:03.434639 17664 layer_factory.cpp:58] Creating layer group2_block3_conv1_bn
I1203 08:37:03.434639 17664 net.cpp:84] Creating Layer group2_block3_conv1_bn
I1203 08:37:03.434639 17664 net.cpp:406] group2_block3_conv1_bn <- group2_block3_conv1
I1203 08:37:03.434639 17664 net.cpp:367] group2_block3_conv1_bn -> group2_block3_conv1 (in-place)
I1203 08:37:03.434639 17664 net.cpp:122] Setting up group2_block3_conv1_bn
I1203 08:37:03.434639 17664 net.cpp:129] Top shape: 100 64 8 8 (409600)
I1203 08:37:03.434639 17664 net.cpp:137] Memory required for data: 605799600
I1203 08:37:03.434639 17664 layer_factory.cpp:58] Creating layer group2_block3_conv1_scale
I1203 08:37:03.434639 17664 net.cpp:84] Creating Layer group2_block3_conv1_scale
I1203 08:37:03.434639 17664 net.cpp:406] group2_block3_conv1_scale <- group2_block3_conv1
I1203 08:37:03.434639 17664 net.cpp:367] group2_block3_conv1_scale -> group2_block3_conv1 (in-place)
I1203 08:37:03.434639 17664 layer_factory.cpp:58] Creating layer group2_block3_conv1_scale
I1203 08:37:03.434639 17664 net.cpp:122] Setting up group2_block3_conv1_scale
I1203 08:37:03.434639 17664 net.cpp:129] Top shape: 100 64 8 8 (409600)
I1203 08:37:03.434639 17664 net.cpp:137] Memory required for data: 607438000
I1203 08:37:03.434639 17664 layer_factory.cpp:58] Creating layer group2_block3_sum
I1203 08:37:03.434639 17664 net.cpp:84] Creating Layer group2_block3_sum
I1203 08:37:03.434639 17664 net.cpp:406] group2_block3_sum <- group2_block3_conv1
I1203 08:37:03.434639 17664 net.cpp:406] group2_block3_sum <- group2_block2_sum_group2_block2_sum_0_split_1
I1203 08:37:03.434639 17664 net.cpp:380] group2_block3_sum -> group2_block3_sum
I1203 08:37:03.434639 17664 net.cpp:122] Setting up group2_block3_sum
I1203 08:37:03.434639 17664 net.cpp:129] Top shape: 100 64 8 8 (409600)
I1203 08:37:03.434639 17664 net.cpp:137] Memory required for data: 609076400
I1203 08:37:03.434639 17664 layer_factory.cpp:58] Creating layer group2_block3_sum_group2_block3_sum_0_split
I1203 08:37:03.434639 17664 net.cpp:84] Creating Layer group2_block3_sum_group2_block3_sum_0_split
I1203 08:37:03.434639 17664 net.cpp:406] group2_block3_sum_group2_block3_sum_0_split <- group2_block3_sum
I1203 08:37:03.434639 17664 net.cpp:380] group2_block3_sum_group2_block3_sum_0_split -> group2_block3_sum_group2_block3_sum_0_split_0
I1203 08:37:03.434639 17664 net.cpp:380] group2_block3_sum_group2_block3_sum_0_split -> group2_block3_sum_group2_block3_sum_0_split_1
I1203 08:37:03.434639 17664 net.cpp:122] Setting up group2_block3_sum_group2_block3_sum_0_split
I1203 08:37:03.434639 17664 net.cpp:129] Top shape: 100 64 8 8 (409600)
I1203 08:37:03.434639 17664 net.cpp:129] Top shape: 100 64 8 8 (409600)
I1203 08:37:03.435639 17664 net.cpp:137] Memory required for data: 612353200
I1203 08:37:03.435639 17664 layer_factory.cpp:58] Creating layer group2_block4_conv0
I1203 08:37:03.435639 17664 net.cpp:84] Creating Layer group2_block4_conv0
I1203 08:37:03.435639 17664 net.cpp:406] group2_block4_conv0 <- group2_block3_sum_group2_block3_sum_0_split_0
I1203 08:37:03.435639 17664 net.cpp:380] group2_block4_conv0 -> group2_block4_conv0
I1203 08:37:03.436640 17664 net.cpp:122] Setting up group2_block4_conv0
I1203 08:37:03.436640 17664 net.cpp:129] Top shape: 100 64 8 8 (409600)
I1203 08:37:03.436640 17664 net.cpp:137] Memory required for data: 613991600
I1203 08:37:03.436640 17664 layer_factory.cpp:58] Creating layer group2_block4_conv0_bn
I1203 08:37:03.436640 17664 net.cpp:84] Creating Layer group2_block4_conv0_bn
I1203 08:37:03.436640 17664 net.cpp:406] group2_block4_conv0_bn <- group2_block4_conv0
I1203 08:37:03.436640 17664 net.cpp:367] group2_block4_conv0_bn -> group2_block4_conv0 (in-place)
I1203 08:37:03.436640 17664 net.cpp:122] Setting up group2_block4_conv0_bn
I1203 08:37:03.436640 17664 net.cpp:129] Top shape: 100 64 8 8 (409600)
I1203 08:37:03.436640 17664 net.cpp:137] Memory required for data: 615630000
I1203 08:37:03.436640 17664 layer_factory.cpp:58] Creating layer group2_block4_conv0_scale
I1203 08:37:03.436640 17664 net.cpp:84] Creating Layer group2_block4_conv0_scale
I1203 08:37:03.436640 17664 net.cpp:406] group2_block4_conv0_scale <- group2_block4_conv0
I1203 08:37:03.436640 17664 net.cpp:367] group2_block4_conv0_scale -> group2_block4_conv0 (in-place)
I1203 08:37:03.436640 17664 layer_factory.cpp:58] Creating layer group2_block4_conv0_scale
I1203 08:37:03.436640 17664 net.cpp:122] Setting up group2_block4_conv0_scale
I1203 08:37:03.436640 17664 net.cpp:129] Top shape: 100 64 8 8 (409600)
I1203 08:37:03.436640 17664 net.cpp:137] Memory required for data: 617268400
I1203 08:37:03.436640 17664 layer_factory.cpp:58] Creating layer group2_block4_conv0_relu
I1203 08:37:03.436640 17664 net.cpp:84] Creating Layer group2_block4_conv0_relu
I1203 08:37:03.436640 17664 net.cpp:406] group2_block4_conv0_relu <- group2_block4_conv0
I1203 08:37:03.436640 17664 net.cpp:367] group2_block4_conv0_relu -> group2_block4_conv0 (in-place)
I1203 08:37:03.437640 17664 net.cpp:122] Setting up group2_block4_conv0_relu
I1203 08:37:03.437640 17664 net.cpp:129] Top shape: 100 64 8 8 (409600)
I1203 08:37:03.437640 17664 net.cpp:137] Memory required for data: 618906800
I1203 08:37:03.437640 17664 layer_factory.cpp:58] Creating layer group2_block4_conv1
I1203 08:37:03.437640 17664 net.cpp:84] Creating Layer group2_block4_conv1
I1203 08:37:03.437640 17664 net.cpp:406] group2_block4_conv1 <- group2_block4_conv0
I1203 08:37:03.437640 17664 net.cpp:380] group2_block4_conv1 -> group2_block4_conv1
I1203 08:37:03.438639 17664 net.cpp:122] Setting up group2_block4_conv1
I1203 08:37:03.438639 17664 net.cpp:129] Top shape: 100 64 8 8 (409600)
I1203 08:37:03.438639 17664 net.cpp:137] Memory required for data: 620545200
I1203 08:37:03.438639 17664 layer_factory.cpp:58] Creating layer group2_block4_conv1_bn
I1203 08:37:03.438639 17664 net.cpp:84] Creating Layer group2_block4_conv1_bn
I1203 08:37:03.438639 17664 net.cpp:406] group2_block4_conv1_bn <- group2_block4_conv1
I1203 08:37:03.438639 17664 net.cpp:367] group2_block4_conv1_bn -> group2_block4_conv1 (in-place)
I1203 08:37:03.439640 17664 net.cpp:122] Setting up group2_block4_conv1_bn
I1203 08:37:03.439640 17664 net.cpp:129] Top shape: 100 64 8 8 (409600)
I1203 08:37:03.439640 17664 net.cpp:137] Memory required for data: 622183600
I1203 08:37:03.439640 17664 layer_factory.cpp:58] Creating layer group2_block4_conv1_scale
I1203 08:37:03.439640 17664 net.cpp:84] Creating Layer group2_block4_conv1_scale
I1203 08:37:03.439640 17664 net.cpp:406] group2_block4_conv1_scale <- group2_block4_conv1
I1203 08:37:03.439640 17664 net.cpp:367] group2_block4_conv1_scale -> group2_block4_conv1 (in-place)
I1203 08:37:03.439640 17664 layer_factory.cpp:58] Creating layer group2_block4_conv1_scale
I1203 08:37:03.439640 17664 net.cpp:122] Setting up group2_block4_conv1_scale
I1203 08:37:03.439640 17664 net.cpp:129] Top shape: 100 64 8 8 (409600)
I1203 08:37:03.439640 17664 net.cpp:137] Memory required for data: 623822000
I1203 08:37:03.439640 17664 layer_factory.cpp:58] Creating layer group2_block4_sum
I1203 08:37:03.439640 17664 net.cpp:84] Creating Layer group2_block4_sum
I1203 08:37:03.439640 17664 net.cpp:406] group2_block4_sum <- group2_block4_conv1
I1203 08:37:03.439640 17664 net.cpp:406] group2_block4_sum <- group2_block3_sum_group2_block3_sum_0_split_1
I1203 08:37:03.439640 17664 net.cpp:380] group2_block4_sum -> group2_block4_sum
I1203 08:37:03.439640 17664 net.cpp:122] Setting up group2_block4_sum
I1203 08:37:03.439640 17664 net.cpp:129] Top shape: 100 64 8 8 (409600)
I1203 08:37:03.439640 17664 net.cpp:137] Memory required for data: 625460400
I1203 08:37:03.439640 17664 layer_factory.cpp:58] Creating layer global_avg_pool
I1203 08:37:03.439640 17664 net.cpp:84] Creating Layer global_avg_pool
I1203 08:37:03.439640 17664 net.cpp:406] global_avg_pool <- group2_block4_sum
I1203 08:37:03.439640 17664 net.cpp:380] global_avg_pool -> global_avg_pool
I1203 08:37:03.439640 17664 net.cpp:122] Setting up global_avg_pool
I1203 08:37:03.439640 17664 net.cpp:129] Top shape: 100 64 1 1 (6400)
I1203 08:37:03.439640 17664 net.cpp:137] Memory required for data: 625486000
I1203 08:37:03.439640 17664 layer_factory.cpp:58] Creating layer fc
I1203 08:37:03.439640 17664 net.cpp:84] Creating Layer fc
I1203 08:37:03.439640 17664 net.cpp:406] fc <- global_avg_pool
I1203 08:37:03.439640 17664 net.cpp:380] fc -> fc
I1203 08:37:03.439640 17664 net.cpp:122] Setting up fc
I1203 08:37:03.439640 17664 net.cpp:129] Top shape: 100 10 (1000)
I1203 08:37:03.439640 17664 net.cpp:137] Memory required for data: 625490000
I1203 08:37:03.439640 17664 layer_factory.cpp:58] Creating layer fc_fc_0_split
I1203 08:37:03.439640 17664 net.cpp:84] Creating Layer fc_fc_0_split
I1203 08:37:03.439640 17664 net.cpp:406] fc_fc_0_split <- fc
I1203 08:37:03.439640 17664 net.cpp:380] fc_fc_0_split -> fc_fc_0_split_0
I1203 08:37:03.439640 17664 net.cpp:380] fc_fc_0_split -> fc_fc_0_split_1
I1203 08:37:03.439640 17664 net.cpp:122] Setting up fc_fc_0_split
I1203 08:37:03.439640 17664 net.cpp:129] Top shape: 100 10 (1000)
I1203 08:37:03.439640 17664 net.cpp:129] Top shape: 100 10 (1000)
I1203 08:37:03.439640 17664 net.cpp:137] Memory required for data: 625498000
I1203 08:37:03.439640 17664 layer_factory.cpp:58] Creating layer accuracy_training
I1203 08:37:03.439640 17664 net.cpp:84] Creating Layer accuracy_training
I1203 08:37:03.439640 17664 net.cpp:406] accuracy_training <- fc_fc_0_split_0
I1203 08:37:03.439640 17664 net.cpp:406] accuracy_training <- label_cifar_1_split_0
…
