…
I1016 21:14:27.052640   636 net.cpp:294] The NetState phase (0) differed from the phase (1) specified by a rule in layer accuracy
I1016 21:14:27.052640   636 net.cpp:51] Initializing net from parameters: 
name: "CIFAR10_SimpleNet_GP_13L_Simple_NoGrpCon_NoDrp_1M"
state {
  phase: TRAIN
  level: 0
  stage: ""
}
layer {
  name: "cifar"
  type: "Data"
  top: "data"
  top: "label"
  include {
    phase: TRAIN
  }
  transform_param {
    mirror: true
    crop_size: 32
  }
  data_param {
    source: "examples/cifar10/cifar10_train_leveldb_padding"
    batch_size: 100
    backend: LEVELDB
  }
}
layer {
  name: "conv1"
  type: "Convolution"
  bottom: "data"
  top: "conv1"
  param {
    lr_mult: 1
  }
  convolution_param {
    num_output: 60
    bias_term: true
    pad: 1
    kernel_size: 3
    stride: 1
    weight_filler {
      type: "xavier"
    }
  }
}
layer {
  name: "bn1"
  type: "BatchNorm"
  bottom: "conv1"
  top: "conv1"
  param {
    lr_mult: 0
    decay_mult: 0
  }
  param {
    lr_mult: 0
    decay_mult: 0
  }
  param {
    lr_mult: 0
    decay_mult: 0
  }
  include {
    phase: TRAIN
  }
  batch_norm_param {
    use_global_stats: false
    moving_average_fraction: 0.99
  }
}
layer {
  name: "scale1"
  type: "Scale"
  bottom: "conv1"
  top: "conv1"
  scale_param {
    bias_term: true
  }
}
layer {
  name: "relu1"
  type: "ReLU"
  bottom: "conv1"
  top: "conv1"
}
layer {
  name: "conv1_0"
  type: "Convolution"
  bottom: "conv1"
  top: "conv1_0"
  param {
    lr_mult: 1
  }
  convolution_param {
    num_output: 80
    bias_term: true
    pad: 1
    kernel_size: 3
    stride: 1
    weight_filler {
      type: "xavier"
    }
  }
}
layer {
  name: "bn1_0"
  type: "BatchNorm"
  bottom: "conv1_0"
  top: "conv1_0"
  param {
    lr_mult: 0
    decay_mult: 0
  }
  param {
    lr_mult: 0
    decay_mult: 0
  }
  param {
    lr_mult: 0
    decay_mult: 0
  }
  include {
    phase: TRAIN
  }
  batch_norm_param {
    use_global_stats: false
    moving_average_fraction: 0.99
  }
}
layer {
  name: "scale1_0"
  type: "Scale"
  bottom: "conv1_0"
  top: "conv1_0"
  scale_param {
    bias_term: true
  }
}
layer {
  name: "relu1_0"
  type: "ReLU"
  bottom: "conv1_0"
  top: "conv1_0"
}
layer {
  name: "conv2"
  type: "Convolution"
  bottom: "conv1_0"
  top: "conv2"
  param {
    lr_mult: 1
  }
  convolution_param {
    num_output: 80
    bias_term: true
    pad: 1
    kernel_size: 3
    stride: 1
    weight_filler {
      type: "xavier"
    }
  }
}
layer {
  name: "bn2"
  type: "BatchNorm"
  bottom: "conv2"
  top: "conv2"
  param {
    lr_mult: 0
    decay_mult: 0
  }
  param {
    lr_mult: 0
    decay_mult: 0
  }
  param {
    lr_mult: 0
    decay_mult: 0
  }
  include {
    phase: TRAIN
  }
  batch_norm_param {
    use_global_stats: false
    moving_average_fraction: 0.99
  }
}
layer {
  name: "scale2"
  type: "Scale"
  bottom: "conv2"
  top: "conv2"
  scale_param {
    bias_term: true
  }
}
layer {
  name: "relu2"
  type: "ReLU"
  bottom: "conv2"
  top: "conv2"
}
layer {
  name: "conv2_1"
  type: "Convolution"
  bottom: "conv2"
  top: "conv2_1"
  param {
    lr_mult: 1
  }
  convolution_param {
    num_output: 80
    bias_term: true
    pad: 1
    kernel_size: 3
    stride: 1
    weight_filler {
      type: "xavier"
    }
  }
}
layer {
  name: "bn2_1"
  type: "BatchNorm"
  bottom: "conv2_1"
  top: "conv2_1"
  param {
    lr_mult: 0
    decay_mult: 0
  }
  param {
    lr_mult: 0
    decay_mult: 0
  }
  param {
    lr_mult: 0
    decay_mult: 0
  }
  include {
    phase: TRAIN
  }
  batch_norm_param {
    use_global_stats: false
    moving_average_fraction: 0.99
  }
}
layer {
  name: "scale2_1"
  type: "Scale"
  bottom: "conv2_1"
  top: "conv2_1"
  scale_param {
    bias_term: true
  }
}
layer {
  name: "relu2_1"
  type: "ReLU"
  bottom: "conv2_1"
  top: "conv2_1"
}
layer {
  name: "conv2_2"
  type: "Convolution"
  bottom: "conv2_1"
  top: "conv2_2"
  param {
    lr_mult: 1
  }
  convolution_param {
    num_output: 85
    bias_term: true
    pad: 1
    kernel_size: 3
    stride: 1
    weight_filler {
      type: "xavier"
    }
  }
}
layer {
  name: "bn2_2"
  type: "BatchNorm"
  bottom: "conv2_2"
  top: "conv2_2"
  param {
    lr_mult: 0
    decay_mult: 0
  }
  param {
    lr_mult: 0
    decay_mult: 0
  }
  param {
    lr_mult: 0
    decay_mult: 0
  }
  include {
    phase: TRAIN
  }
  batch_norm_param {
    use_global_stats: false
    moving_average_fraction: 0.99
  }
}
layer {
  name: "scale2_2"
  type: "Scale"
  bottom: "conv2_2"
  top: "conv2_2"
  scale_param {
    bias_term: true
  }
}
layer {
  name: "relu2_2"
  type: "ReLU"
  bottom: "conv2_2"
  top: "conv2_2"
}
layer {
  name: "pool2_1"
  type: "Pooling"
  bottom: "conv2_2"
  top: "pool2_1"
  pooling_param {
    pool: MAX
    kernel_size: 2
    stride: 2
  }
}
layer {
  name: "conv3"
  type: "Convolution"
  bottom: "pool2_1"
  top: "conv3"
  param {
    lr_mult: 1
  }
  convolution_param {
    num_output: 85
    bias_term: true
    pad: 1
    kernel_size: 3
    stride: 1
    weight_filler {
      type: "xavier"
    }
  }
}
layer {
  name: "bn3"
  type: "BatchNorm"
  bottom: "conv3"
  top: "conv3"
  param {
    lr_mult: 0
    decay_mult: 0
  }
  param {
    lr_mult: 0
    decay_mult: 0
  }
  param {
    lr_mult: 0
    decay_mult: 0
  }
  include {
    phase: TRAIN
  }
  batch_norm_param {
    use_global_stats: false
    moving_average_fraction: 0.99
  }
}
layer {
  name: "scale3"
  type: "Scale"
  bottom: "conv3"
  top: "conv3"
  scale_param {
    bias_term: true
  }
}
layer {
  name: "relu3"
  type: "ReLU"
  bottom: "conv3"
  top: "conv3"
}
layer {
  name: "conv3_1"
  type: "Convolution"
  bottom: "conv3"
  top: "conv3_1"
  param {
    lr_mult: 1
  }
  convolution_param {
    num_output: 90
    bias_term: true
    pad: 1
    kernel_size: 3
    stride: 1
    weight_filler {
      type: "xavier"
    }
  }
}
layer {
  name: "bn3_1"
  type: "BatchNorm"
  bottom: "conv3_1"
  top: "conv3_1"
  param {
    lr_mult: 0
    decay_mult: 0
  }
  param {
    lr_mult: 0
    decay_mult: 0
  }
  param {
    lr_mult: 0
    decay_mult: 0
  }
  include {
    phase: TRAIN
  }
  batch_norm_param {
    use_global_stats: false
    moving_average_fraction: 0.99
  }
}
layer {
  name: "scale3_1"
  type: "Scale"
  bottom: "conv3_1"
  top: "conv3_1"
  scale_param {
    bias_term: true
  }
}
layer {
  name: "relu3_1"
  type: "ReLU"
  bottom: "conv3_1"
  top: "conv3_1"
}
layer {
  name: "conv4"
  type: "Convolution"
  bottom: "conv3_1"
  top: "conv4"
  param {
    lr_mult: 1
  }
  convolution_param {
    num_output: 90
    bias_term: true
    pad: 1
    kernel_size: 3
    stride: 1
    weight_filler {
      type: "xavier"
    }
  }
}
layer {
  name: "bn4"
  type: "BatchNorm"
  bottom: "conv4"
  top: "conv4"
  param {
    lr_mult: 0
    decay_mult: 0
  }
  param {
    lr_mult: 0
    decay_mult: 0
  }
  param {
    lr_mult: 0
    decay_mult: 0
  }
  include {
    phase: TRAIN
  }
  batch_norm_param {
    use_global_stats: false
    moving_average_fraction: 0.99
  }
}
layer {
  name: "scale4"
  type: "Scale"
  bottom: "conv4"
  top: "conv4"
  scale_param {
    bias_term: true
  }
}
layer {
  name: "relu4"
  type: "ReLU"
  bottom: "conv4"
  top: "conv4"
}
layer {
  name: "conv4_1"
  type: "Convolution"
  bottom: "conv4"
  top: "conv4_1"
  param {
    lr_mult: 1
  }
  convolution_param {
    num_output: 90
    bias_term: true
    pad: 1
    kernel_size: 3
    stride: 1
    weight_filler {
      type: "xavier"
    }
  }
}
layer {
  name: "bn4_1"
  type: "BatchNorm"
  bottom: "conv4_1"
  top: "conv4_1"
  param {
    lr_mult: 0
    decay_mult: 0
  }
  param {
    lr_mult: 0
    decay_mult: 0
  }
  param {
    lr_mult: 0
    decay_mult: 0
  }
  include {
    phase: TRAIN
  }
  batch_norm_param {
    use_global_stats: false
    moving_average_fraction: 0.99
  }
}
layer {
  name: "scale4_1"
  type: "Scale"
  bottom: "conv4_1"
  top: "conv4_1"
  scale_param {
    bias_term: true
  }
}
layer {
  name: "relu4_1"
  type: "ReLU"
  bottom: "conv4_1"
  top: "conv4_1"
}
layer {
  name: "conv4_2"
  type: "Convolution"
  bottom: "conv4_1"
  top: "conv4_2"
  param {
    lr_mult: 1
  }
  convolution_param {
    num_output: 110
    bias_term: true
    pad: 1
    kernel_size: 3
    stride: 1
    weight_filler {
      type: "xavier"
    }
  }
}
layer {
  name: "bn4_2"
  type: "BatchNorm"
  bottom: "conv4_2"
  top: "conv4_2"
  param {
    lr_mult: 0
    decay_mult: 0
  }
  param {
    lr_mult: 0
    decay_mult: 0
  }
  param {
    lr_mult: 0
    decay_mult: 0
  }
  include {
    phase: TRAIN
  }
  batch_norm_param {
    use_global_stats: false
    moving_average_fraction: 0.99
  }
}
layer {
  name: "scale4_2"
  type: "Scale"
  bottom: "conv4_2"
  top: "conv4_2"
  scale_param {
    bias_term: true
  }
}
layer {
  name: "relu4_2"
  type: "ReLU"
  bottom: "conv4_2"
  top: "conv4_2"
}
layer {
  name: "pool4_2"
  type: "Pooling"
  bottom: "conv4_2"
  top: "pool4_2"
  pooling_param {
    pool: MAX
    kernel_size: 2
    stride: 2
  }
}
layer {
  name: "conv4_0"
  type: "Convolution"
  bottom: "pool4_2"
  top: "conv4_0"
  param {
    lr_mult: 1
  }
  convolution_param {
    num_output: 110
    bias_term: true
    pad: 1
    kernel_size: 3
    stride: 1
    weight_filler {
      type: "xavier"
    }
  }
}
layer {
  name: "bn4_0"
  type: "BatchNorm"
  bottom: "conv4_0"
  top: "conv4_0"
  param {
    lr_mult: 0
    decay_mult: 0
  }
  param {
    lr_mult: 0
    decay_mult: 0
  }
  param {
    lr_mult: 0
    decay_mult: 0
  }
  include {
    phase: TRAIN
  }
  batch_norm_param {
    use_global_stats: false
    moving_average_fraction: 0.99
  }
}
layer {
  name: "scale4_0"
  type: "Scale"
  bottom: "conv4_0"
  top: "conv4_0"
  scale_param {
    bias_term: true
  }
}
layer {
  name: "relu4_0"
  type: "ReLU"
  bottom: "conv4_0"
  top: "conv4_0"
}
layer {
  name: "conv11"
  type: "Convolution"
  bottom: "conv4_0"
  top: "conv11"
  param {
    lr_mult: 1
    decay_mult: 1
  }
  param {
    lr_mult: 2
    decay_mult: 0
  }
  convolution_param {
    num_output: 127
    pad: 1
    kernel_size: 3
    weight_filler {
      type: "xavier"
    }
    bias_filler {
      type: "constant"
      value: 0
    }
  }
}
layer {
  name: "bn_conv11"
  type: "BatchNorm"
  bottom: "conv11"
  top: "conv11"
  param {
    lr_mult: 0
    decay_mult: 0
  }
  param {
    lr_mult: 0
    decay_mult: 0
  }
  param {
    lr_mult: 0
    decay_mult: 0
  }
  include {
    phase: TRAIN
  }
  batch_norm_param {
    use_global_stats: false
    moving_average_fraction: 0.99
  }
}
layer {
  name: "scale_conv11"
  type: "Scale"
  bottom: "conv11"
  top: "conv11"
  scale_param {
    bias_term: true
  }
}
layer {
  name: "relu_conv11"
  type: "ReLU"
  bottom: "conv11"
  top: "conv11"
}
layer {
  name: "conv12"
  type: "Convolution"
  bottom: "conv11"
  top: "conv12"
  param {
    lr_mult: 1
    decay_mult: 1
  }
  param {
    lr_mult: 2
    decay_mult: 0
  }
  convolution_param {
    num_output: 150
    pad: 1
    kernel_size: 3
    weight_filler {
      type: "xavier"
    }
    bias_filler {
      type: "constant"
      value: 0
    }
  }
}
layer {
  name: "bn_conv12"
  type: "BatchNorm"
  bottom: "conv12"
  top: "conv12"
  param {
    lr_mult: 0
    decay_mult: 0
  }
  param {
    lr_mult: 0
    decay_mult: 0
  }
  param {
    lr_mult: 0
    decay_mult: 0
  }
  include {
    phase: TRAIN
  }
  batch_norm_param {
    use_global_stats: false
    moving_average_fraction: 0.99
  }
}
layer {
  name: "scale_conv12"
  type: "Scale"
  bottom: "conv12"
  top: "conv12"
  scale_param {
    bias_term: true
  }
}
layer {
  name: "relu_conv12"
  type: "ReLU"
  bottom: "conv12"
  top: "conv12"
}
layer {
  name: "poolcp6"
  type: "Pooling"
  bottom: "conv12"
  top: "poolcp6"
  pooling_param {
    pool: MAX
    global_pooling: true
  }
}
layer {
  name: "ip1"
  type: "InnerProduct"
  bottom: "poolcp6"
  top: "ip1"
  param {
    lr_mult: 1
    decay_mult: 0
  }
  param {
    lr_mult: 2
    decay_mult: 0
  }
  inner_product_param {
    num_output: 10
    weight_filler {
      type: "xavier"
    }
    bias_filler {
      type: "constant"
    }
  }
}
layer {
  name: "accuracy_training"
  type: "Accuracy"
  bottom: "ip1"
  bottom: "label"
  top: "accuracy_training"
  include {
    phase: TRAIN
  }
}
layer {
  name: "loss"
  type: "SoftmaxWithLoss"
  bottom: "ip1"
  bottom: "label"
  top: "loss"
}
I1016 21:14:27.052640   636 layer_factory.cpp:58] Creating layer cifar
I1016 21:14:27.068282   636 db_leveldb.cpp:18] Opened leveldb examples/cifar10/cifar10_train_leveldb_padding
I1016 21:14:27.068282   636 net.cpp:84] Creating Layer cifar
I1016 21:14:27.068282   636 net.cpp:380] cifar -> data
I1016 21:14:27.068282   636 net.cpp:380] cifar -> label
I1016 21:14:27.068282   636 data_layer.cpp:45] output data size: 100,3,32,32
I1016 21:14:27.068282   636 net.cpp:122] Setting up cifar
I1016 21:14:27.068282   636 net.cpp:129] Top shape: 100 3 32 32 (307200)
I1016 21:14:27.068282   636 net.cpp:129] Top shape: 100 (100)
I1016 21:14:27.068282   636 net.cpp:137] Memory required for data: 1229200
I1016 21:14:27.068282   636 layer_factory.cpp:58] Creating layer label_cifar_1_split
I1016 21:14:27.068282   636 net.cpp:84] Creating Layer label_cifar_1_split
I1016 21:14:27.068282   636 net.cpp:406] label_cifar_1_split <- label
I1016 21:14:27.068282   636 net.cpp:380] label_cifar_1_split -> label_cifar_1_split_0
I1016 21:14:27.068282   636 net.cpp:380] label_cifar_1_split -> label_cifar_1_split_1
I1016 21:14:27.068282   636 net.cpp:122] Setting up label_cifar_1_split
I1016 21:14:27.068282   636 net.cpp:129] Top shape: 100 (100)
I1016 21:14:27.068282   636 net.cpp:129] Top shape: 100 (100)
I1016 21:14:27.068282   636 net.cpp:137] Memory required for data: 1230000
I1016 21:14:27.068282   636 layer_factory.cpp:58] Creating layer conv1
I1016 21:14:27.068282   636 net.cpp:84] Creating Layer conv1
I1016 21:14:27.068282   636 net.cpp:406] conv1 <- data
I1016 21:14:27.068282   636 net.cpp:380] conv1 -> conv1
I1016 21:14:27.068282  4172 common.cpp:36] System entropy source not available, using fallback algorithm to generate seed instead.
I1016 21:14:27.776211   636 net.cpp:122] Setting up conv1
I1016 21:14:27.776211   636 net.cpp:129] Top shape: 100 60 32 32 (6144000)
I1016 21:14:27.776211   636 net.cpp:137] Memory required for data: 25806000
I1016 21:14:27.776211   636 layer_factory.cpp:58] Creating layer bn1
I1016 21:14:27.776211   636 net.cpp:84] Creating Layer bn1
I1016 21:14:27.776211   636 net.cpp:406] bn1 <- conv1
I1016 21:14:27.776211   636 net.cpp:367] bn1 -> conv1 (in-place)
I1016 21:14:27.776211   636 net.cpp:122] Setting up bn1
I1016 21:14:27.776211   636 net.cpp:129] Top shape: 100 60 32 32 (6144000)
I1016 21:14:27.776211   636 net.cpp:137] Memory required for data: 50382000
I1016 21:14:27.776211   636 layer_factory.cpp:58] Creating layer scale1
I1016 21:14:27.776211   636 net.cpp:84] Creating Layer scale1
I1016 21:14:27.776211   636 net.cpp:406] scale1 <- conv1
I1016 21:14:27.776211   636 net.cpp:367] scale1 -> conv1 (in-place)
I1016 21:14:27.776211   636 layer_factory.cpp:58] Creating layer scale1
I1016 21:14:27.776729   636 net.cpp:122] Setting up scale1
I1016 21:14:27.776729   636 net.cpp:129] Top shape: 100 60 32 32 (6144000)
I1016 21:14:27.776729   636 net.cpp:137] Memory required for data: 74958000
I1016 21:14:27.776729   636 layer_factory.cpp:58] Creating layer relu1
I1016 21:14:27.776729   636 net.cpp:84] Creating Layer relu1
I1016 21:14:27.776729   636 net.cpp:406] relu1 <- conv1
I1016 21:14:27.776729   636 net.cpp:367] relu1 -> conv1 (in-place)
I1016 21:14:27.776729   636 net.cpp:122] Setting up relu1
I1016 21:14:27.776729   636 net.cpp:129] Top shape: 100 60 32 32 (6144000)
I1016 21:14:27.776729   636 net.cpp:137] Memory required for data: 99534000
I1016 21:14:27.776729   636 layer_factory.cpp:58] Creating layer conv1_0
I1016 21:14:27.776729   636 net.cpp:84] Creating Layer conv1_0
I1016 21:14:27.776729   636 net.cpp:406] conv1_0 <- conv1
I1016 21:14:27.776729   636 net.cpp:380] conv1_0 -> conv1_0
I1016 21:14:27.778964   636 net.cpp:122] Setting up conv1_0
I1016 21:14:27.778964   636 net.cpp:129] Top shape: 100 80 32 32 (8192000)
I1016 21:14:27.778964   636 net.cpp:137] Memory required for data: 132302000
I1016 21:14:27.778964   636 layer_factory.cpp:58] Creating layer bn1_0
I1016 21:14:27.778964   636 net.cpp:84] Creating Layer bn1_0
I1016 21:14:27.779477   636 net.cpp:406] bn1_0 <- conv1_0
I1016 21:14:27.779477   636 net.cpp:367] bn1_0 -> conv1_0 (in-place)
I1016 21:14:27.779477   636 net.cpp:122] Setting up bn1_0
I1016 21:14:27.779477   636 net.cpp:129] Top shape: 100 80 32 32 (8192000)
I1016 21:14:27.779477   636 net.cpp:137] Memory required for data: 165070000
I1016 21:14:27.779477   636 layer_factory.cpp:58] Creating layer scale1_0
I1016 21:14:27.779477   636 net.cpp:84] Creating Layer scale1_0
I1016 21:14:27.779477   636 net.cpp:406] scale1_0 <- conv1_0
I1016 21:14:27.779477   636 net.cpp:367] scale1_0 -> conv1_0 (in-place)
I1016 21:14:27.779477   636 layer_factory.cpp:58] Creating layer scale1_0
I1016 21:14:27.779477   636 net.cpp:122] Setting up scale1_0
I1016 21:14:27.779477   636 net.cpp:129] Top shape: 100 80 32 32 (8192000)
I1016 21:14:27.779477   636 net.cpp:137] Memory required for data: 197838000
I1016 21:14:27.779477   636 layer_factory.cpp:58] Creating layer relu1_0
I1016 21:14:27.779477   636 net.cpp:84] Creating Layer relu1_0
I1016 21:14:27.779477   636 net.cpp:406] relu1_0 <- conv1_0
I1016 21:14:27.779477   636 net.cpp:367] relu1_0 -> conv1_0 (in-place)
I1016 21:14:27.779961   636 net.cpp:122] Setting up relu1_0
I1016 21:14:27.780450   636 net.cpp:129] Top shape: 100 80 32 32 (8192000)
I1016 21:14:27.780450   636 net.cpp:137] Memory required for data: 230606000
I1016 21:14:27.780450   636 layer_factory.cpp:58] Creating layer conv2
I1016 21:14:27.780450   636 net.cpp:84] Creating Layer conv2
I1016 21:14:27.780450   636 net.cpp:406] conv2 <- conv1_0
I1016 21:14:27.780450   636 net.cpp:380] conv2 -> conv2
I1016 21:14:27.781713   636 net.cpp:122] Setting up conv2
I1016 21:14:27.781713   636 net.cpp:129] Top shape: 100 80 32 32 (8192000)
I1016 21:14:27.781713   636 net.cpp:137] Memory required for data: 263374000
I1016 21:14:27.781713   636 layer_factory.cpp:58] Creating layer bn2
I1016 21:14:27.781713   636 net.cpp:84] Creating Layer bn2
I1016 21:14:27.781713   636 net.cpp:406] bn2 <- conv2
I1016 21:14:27.781713   636 net.cpp:367] bn2 -> conv2 (in-place)
I1016 21:14:27.781713   636 net.cpp:122] Setting up bn2
I1016 21:14:27.781713   636 net.cpp:129] Top shape: 100 80 32 32 (8192000)
I1016 21:14:27.781713   636 net.cpp:137] Memory required for data: 296142000
I1016 21:14:27.781713   636 layer_factory.cpp:58] Creating layer scale2
I1016 21:14:27.781713   636 net.cpp:84] Creating Layer scale2
I1016 21:14:27.781713   636 net.cpp:406] scale2 <- conv2
I1016 21:14:27.781713   636 net.cpp:367] scale2 -> conv2 (in-place)
I1016 21:14:27.781713   636 layer_factory.cpp:58] Creating layer scale2
I1016 21:14:27.781713   636 net.cpp:122] Setting up scale2
I1016 21:14:27.781713   636 net.cpp:129] Top shape: 100 80 32 32 (8192000)
I1016 21:14:27.781713   636 net.cpp:137] Memory required for data: 328910000
I1016 21:14:27.781713   636 layer_factory.cpp:58] Creating layer relu2
I1016 21:14:27.781713   636 net.cpp:84] Creating Layer relu2
I1016 21:14:27.781713   636 net.cpp:406] relu2 <- conv2
I1016 21:14:27.781713   636 net.cpp:367] relu2 -> conv2 (in-place)
I1016 21:14:27.782234   636 net.cpp:122] Setting up relu2
I1016 21:14:27.782234   636 net.cpp:129] Top shape: 100 80 32 32 (8192000)
I1016 21:14:27.782234   636 net.cpp:137] Memory required for data: 361678000
I1016 21:14:27.782234   636 layer_factory.cpp:58] Creating layer conv2_1
I1016 21:14:27.782234   636 net.cpp:84] Creating Layer conv2_1
I1016 21:14:27.782234   636 net.cpp:406] conv2_1 <- conv2
I1016 21:14:27.782234   636 net.cpp:380] conv2_1 -> conv2_1
I1016 21:14:27.783721   636 net.cpp:122] Setting up conv2_1
I1016 21:14:27.783721   636 net.cpp:129] Top shape: 100 80 32 32 (8192000)
I1016 21:14:27.783721   636 net.cpp:137] Memory required for data: 394446000
I1016 21:14:27.783721   636 layer_factory.cpp:58] Creating layer bn2_1
I1016 21:14:27.783721   636 net.cpp:84] Creating Layer bn2_1
I1016 21:14:27.783721   636 net.cpp:406] bn2_1 <- conv2_1
I1016 21:14:27.783721   636 net.cpp:367] bn2_1 -> conv2_1 (in-place)
I1016 21:14:27.784234   636 net.cpp:122] Setting up bn2_1
I1016 21:14:27.784234   636 net.cpp:129] Top shape: 100 80 32 32 (8192000)
I1016 21:14:27.784234   636 net.cpp:137] Memory required for data: 427214000
I1016 21:14:27.784234   636 layer_factory.cpp:58] Creating layer scale2_1
I1016 21:14:27.784234   636 net.cpp:84] Creating Layer scale2_1
I1016 21:14:27.784234   636 net.cpp:406] scale2_1 <- conv2_1
I1016 21:14:27.784234   636 net.cpp:367] scale2_1 -> conv2_1 (in-place)
I1016 21:14:27.784234   636 layer_factory.cpp:58] Creating layer scale2_1
I1016 21:14:27.784234   636 net.cpp:122] Setting up scale2_1
I1016 21:14:27.784234   636 net.cpp:129] Top shape: 100 80 32 32 (8192000)
I1016 21:14:27.784234   636 net.cpp:137] Memory required for data: 459982000
I1016 21:14:27.784234   636 layer_factory.cpp:58] Creating layer relu2_1
I1016 21:14:27.784234   636 net.cpp:84] Creating Layer relu2_1
I1016 21:14:27.784234   636 net.cpp:406] relu2_1 <- conv2_1
I1016 21:14:27.784234   636 net.cpp:367] relu2_1 -> conv2_1 (in-place)
I1016 21:14:27.784734   636 net.cpp:122] Setting up relu2_1
I1016 21:14:27.784734   636 net.cpp:129] Top shape: 100 80 32 32 (8192000)
I1016 21:14:27.784734   636 net.cpp:137] Memory required for data: 492750000
I1016 21:14:27.784734   636 layer_factory.cpp:58] Creating layer conv2_2
I1016 21:14:27.784734   636 net.cpp:84] Creating Layer conv2_2
I1016 21:14:27.784734   636 net.cpp:406] conv2_2 <- conv2_1
I1016 21:14:27.784734   636 net.cpp:380] conv2_2 -> conv2_2
I1016 21:14:27.786236   636 net.cpp:122] Setting up conv2_2
I1016 21:14:27.786236   636 net.cpp:129] Top shape: 100 85 32 32 (8704000)
I1016 21:14:27.786236   636 net.cpp:137] Memory required for data: 527566000
I1016 21:14:27.786236   636 layer_factory.cpp:58] Creating layer bn2_2
I1016 21:14:27.786236   636 net.cpp:84] Creating Layer bn2_2
I1016 21:14:27.786236   636 net.cpp:406] bn2_2 <- conv2_2
I1016 21:14:27.786236   636 net.cpp:367] bn2_2 -> conv2_2 (in-place)
I1016 21:14:27.786236   636 net.cpp:122] Setting up bn2_2
I1016 21:14:27.786236   636 net.cpp:129] Top shape: 100 85 32 32 (8704000)
I1016 21:14:27.786236   636 net.cpp:137] Memory required for data: 562382000
I1016 21:14:27.786236   636 layer_factory.cpp:58] Creating layer scale2_2
I1016 21:14:27.786236   636 net.cpp:84] Creating Layer scale2_2
I1016 21:14:27.786236   636 net.cpp:406] scale2_2 <- conv2_2
I1016 21:14:27.786236   636 net.cpp:367] scale2_2 -> conv2_2 (in-place)
I1016 21:14:27.786736   636 layer_factory.cpp:58] Creating layer scale2_2
I1016 21:14:27.786736   636 net.cpp:122] Setting up scale2_2
I1016 21:14:27.786736   636 net.cpp:129] Top shape: 100 85 32 32 (8704000)
I1016 21:14:27.786736   636 net.cpp:137] Memory required for data: 597198000
I1016 21:14:27.786736   636 layer_factory.cpp:58] Creating layer relu2_2
I1016 21:14:27.786736   636 net.cpp:84] Creating Layer relu2_2
I1016 21:14:27.786736   636 net.cpp:406] relu2_2 <- conv2_2
I1016 21:14:27.786736   636 net.cpp:367] relu2_2 -> conv2_2 (in-place)
I1016 21:14:27.786736   636 net.cpp:122] Setting up relu2_2
I1016 21:14:27.787220   636 net.cpp:129] Top shape: 100 85 32 32 (8704000)
I1016 21:14:27.787220   636 net.cpp:137] Memory required for data: 632014000
I1016 21:14:27.787220   636 layer_factory.cpp:58] Creating layer pool2_1
I1016 21:14:27.787220   636 net.cpp:84] Creating Layer pool2_1
I1016 21:14:27.787220   636 net.cpp:406] pool2_1 <- conv2_2
I1016 21:14:27.787220   636 net.cpp:380] pool2_1 -> pool2_1
I1016 21:14:27.787220   636 net.cpp:122] Setting up pool2_1
I1016 21:14:27.787220   636 net.cpp:129] Top shape: 100 85 16 16 (2176000)
I1016 21:14:27.787220   636 net.cpp:137] Memory required for data: 640718000
I1016 21:14:27.787220   636 layer_factory.cpp:58] Creating layer conv3
I1016 21:14:27.787220   636 net.cpp:84] Creating Layer conv3
I1016 21:14:27.787220   636 net.cpp:406] conv3 <- pool2_1
I1016 21:14:27.787220   636 net.cpp:380] conv3 -> conv3
I1016 21:14:27.790222   636 net.cpp:122] Setting up conv3
I1016 21:14:27.790222   636 net.cpp:129] Top shape: 100 85 16 16 (2176000)
I1016 21:14:27.790222   636 net.cpp:137] Memory required for data: 649422000
I1016 21:14:27.790222   636 layer_factory.cpp:58] Creating layer bn3
I1016 21:14:27.790222   636 net.cpp:84] Creating Layer bn3
I1016 21:14:27.790222   636 net.cpp:406] bn3 <- conv3
I1016 21:14:27.790222   636 net.cpp:367] bn3 -> conv3 (in-place)
I1016 21:14:27.790222   636 net.cpp:122] Setting up bn3
I1016 21:14:27.790222   636 net.cpp:129] Top shape: 100 85 16 16 (2176000)
I1016 21:14:27.790222   636 net.cpp:137] Memory required for data: 658126000
I1016 21:14:27.790222   636 layer_factory.cpp:58] Creating layer scale3
I1016 21:14:27.790222   636 net.cpp:84] Creating Layer scale3
I1016 21:14:27.790222   636 net.cpp:406] scale3 <- conv3
I1016 21:14:27.790222   636 net.cpp:367] scale3 -> conv3 (in-place)
I1016 21:14:27.790222   636 layer_factory.cpp:58] Creating layer scale3
I1016 21:14:27.790222   636 net.cpp:122] Setting up scale3
I1016 21:14:27.790222   636 net.cpp:129] Top shape: 100 85 16 16 (2176000)
I1016 21:14:27.790222   636 net.cpp:137] Memory required for data: 666830000
I1016 21:14:27.790222   636 layer_factory.cpp:58] Creating layer relu3
I1016 21:14:27.790222   636 net.cpp:84] Creating Layer relu3
I1016 21:14:27.790735   636 net.cpp:406] relu3 <- conv3
I1016 21:14:27.790735   636 net.cpp:367] relu3 -> conv3 (in-place)
I1016 21:14:27.790735   636 net.cpp:122] Setting up relu3
I1016 21:14:27.790735   636 net.cpp:129] Top shape: 100 85 16 16 (2176000)
I1016 21:14:27.790735   636 net.cpp:137] Memory required for data: 675534000
I1016 21:14:27.790735   636 layer_factory.cpp:58] Creating layer conv3_1
I1016 21:14:27.790735   636 net.cpp:84] Creating Layer conv3_1
I1016 21:14:27.790735   636 net.cpp:406] conv3_1 <- conv3
I1016 21:14:27.790735   636 net.cpp:380] conv3_1 -> conv3_1
I1016 21:14:27.792745   636 net.cpp:122] Setting up conv3_1
I1016 21:14:27.792745   636 net.cpp:129] Top shape: 100 90 16 16 (2304000)
I1016 21:14:27.792745   636 net.cpp:137] Memory required for data: 684750000
I1016 21:14:27.792745   636 layer_factory.cpp:58] Creating layer bn3_1
I1016 21:14:27.792745   636 net.cpp:84] Creating Layer bn3_1
I1016 21:14:27.792745   636 net.cpp:406] bn3_1 <- conv3_1
I1016 21:14:27.792745   636 net.cpp:367] bn3_1 -> conv3_1 (in-place)
I1016 21:14:27.792745   636 net.cpp:122] Setting up bn3_1
I1016 21:14:27.792745   636 net.cpp:129] Top shape: 100 90 16 16 (2304000)
I1016 21:14:27.792745   636 net.cpp:137] Memory required for data: 693966000
I1016 21:14:27.792745   636 layer_factory.cpp:58] Creating layer scale3_1
I1016 21:14:27.792745   636 net.cpp:84] Creating Layer scale3_1
I1016 21:14:27.792745   636 net.cpp:406] scale3_1 <- conv3_1
I1016 21:14:27.792745   636 net.cpp:367] scale3_1 -> conv3_1 (in-place)
I1016 21:14:27.792745   636 layer_factory.cpp:58] Creating layer scale3_1
I1016 21:14:27.792745   636 net.cpp:122] Setting up scale3_1
I1016 21:14:27.792745   636 net.cpp:129] Top shape: 100 90 16 16 (2304000)
I1016 21:14:27.792745   636 net.cpp:137] Memory required for data: 703182000
I1016 21:14:27.792745   636 layer_factory.cpp:58] Creating layer relu3_1
I1016 21:14:27.792745   636 net.cpp:84] Creating Layer relu3_1
I1016 21:14:27.792745   636 net.cpp:406] relu3_1 <- conv3_1
I1016 21:14:27.792745   636 net.cpp:367] relu3_1 -> conv3_1 (in-place)
I1016 21:14:27.793748   636 net.cpp:122] Setting up relu3_1
I1016 21:14:27.793748   636 net.cpp:129] Top shape: 100 90 16 16 (2304000)
I1016 21:14:27.793748   636 net.cpp:137] Memory required for data: 712398000
I1016 21:14:27.793748   636 layer_factory.cpp:58] Creating layer conv4
I1016 21:14:27.793748   636 net.cpp:84] Creating Layer conv4
I1016 21:14:27.793748   636 net.cpp:406] conv4 <- conv3_1
I1016 21:14:27.793748   636 net.cpp:380] conv4 -> conv4
I1016 21:14:27.795733   636 net.cpp:122] Setting up conv4
I1016 21:14:27.795733   636 net.cpp:129] Top shape: 100 90 16 16 (2304000)
I1016 21:14:27.795733   636 net.cpp:137] Memory required for data: 721614000
I1016 21:14:27.795733   636 layer_factory.cpp:58] Creating layer bn4
I1016 21:14:27.795733   636 net.cpp:84] Creating Layer bn4
I1016 21:14:27.795733   636 net.cpp:406] bn4 <- conv4
I1016 21:14:27.795733   636 net.cpp:367] bn4 -> conv4 (in-place)
I1016 21:14:27.795733   636 net.cpp:122] Setting up bn4
I1016 21:14:27.795733   636 net.cpp:129] Top shape: 100 90 16 16 (2304000)
I1016 21:14:27.795733   636 net.cpp:137] Memory required for data: 730830000
I1016 21:14:27.795733   636 layer_factory.cpp:58] Creating layer scale4
I1016 21:14:27.795733   636 net.cpp:84] Creating Layer scale4
I1016 21:14:27.795733   636 net.cpp:406] scale4 <- conv4
I1016 21:14:27.795733   636 net.cpp:367] scale4 -> conv4 (in-place)
I1016 21:14:27.795733   636 layer_factory.cpp:58] Creating layer scale4
I1016 21:14:27.795733   636 net.cpp:122] Setting up scale4
I1016 21:14:27.795733   636 net.cpp:129] Top shape: 100 90 16 16 (2304000)
I1016 21:14:27.795733   636 net.cpp:137] Memory required for data: 740046000
I1016 21:14:27.795733   636 layer_factory.cpp:58] Creating layer relu4
I1016 21:14:27.795733   636 net.cpp:84] Creating Layer relu4
I1016 21:14:27.795733   636 net.cpp:406] relu4 <- conv4
I1016 21:14:27.795733   636 net.cpp:367] relu4 -> conv4 (in-place)
I1016 21:14:27.796735   636 net.cpp:122] Setting up relu4
I1016 21:14:27.796735   636 net.cpp:129] Top shape: 100 90 16 16 (2304000)
I1016 21:14:27.796735   636 net.cpp:137] Memory required for data: 749262000
I1016 21:14:27.796735   636 layer_factory.cpp:58] Creating layer conv4_1
I1016 21:14:27.796735   636 net.cpp:84] Creating Layer conv4_1
I1016 21:14:27.796735   636 net.cpp:406] conv4_1 <- conv4
I1016 21:14:27.796735   636 net.cpp:380] conv4_1 -> conv4_1
I1016 21:14:27.798421   636 net.cpp:122] Setting up conv4_1
I1016 21:14:27.798421   636 net.cpp:129] Top shape: 100 90 16 16 (2304000)
I1016 21:14:27.798421   636 net.cpp:137] Memory required for data: 758478000
I1016 21:14:27.798421   636 layer_factory.cpp:58] Creating layer bn4_1
I1016 21:14:27.798421   636 net.cpp:84] Creating Layer bn4_1
I1016 21:14:27.798421   636 net.cpp:406] bn4_1 <- conv4_1
I1016 21:14:27.798421   636 net.cpp:367] bn4_1 -> conv4_1 (in-place)
I1016 21:14:27.798421   636 net.cpp:122] Setting up bn4_1
I1016 21:14:27.798421   636 net.cpp:129] Top shape: 100 90 16 16 (2304000)
I1016 21:14:27.798421   636 net.cpp:137] Memory required for data: 767694000
I1016 21:14:27.798421   636 layer_factory.cpp:58] Creating layer scale4_1
I1016 21:14:27.798421   636 net.cpp:84] Creating Layer scale4_1
I1016 21:14:27.798421   636 net.cpp:406] scale4_1 <- conv4_1
I1016 21:14:27.798421   636 net.cpp:367] scale4_1 -> conv4_1 (in-place)
I1016 21:14:27.798421   636 layer_factory.cpp:58] Creating layer scale4_1
I1016 21:14:27.798421   636 net.cpp:122] Setting up scale4_1
I1016 21:14:27.798421   636 net.cpp:129] Top shape: 100 90 16 16 (2304000)
I1016 21:14:27.798421   636 net.cpp:137] Memory required for data: 776910000
I1016 21:14:27.798421   636 layer_factory.cpp:58] Creating layer relu4_1
I1016 21:14:27.798421   636 net.cpp:84] Creating Layer relu4_1
I1016 21:14:27.798421   636 net.cpp:406] relu4_1 <- conv4_1
I1016 21:14:27.798421   636 net.cpp:367] relu4_1 -> conv4_1 (in-place)
I1016 21:14:27.799177   636 net.cpp:122] Setting up relu4_1
I1016 21:14:27.799177   636 net.cpp:129] Top shape: 100 90 16 16 (2304000)
I1016 21:14:27.799177   636 net.cpp:137] Memory required for data: 786126000
I1016 21:14:27.799177   636 layer_factory.cpp:58] Creating layer conv4_2
I1016 21:14:27.799177   636 net.cpp:84] Creating Layer conv4_2
I1016 21:14:27.799177   636 net.cpp:406] conv4_2 <- conv4_1
I1016 21:14:27.799177   636 net.cpp:380] conv4_2 -> conv4_2
I1016 21:14:27.801184   636 net.cpp:122] Setting up conv4_2
I1016 21:14:27.801184   636 net.cpp:129] Top shape: 100 110 16 16 (2816000)
I1016 21:14:27.801184   636 net.cpp:137] Memory required for data: 797390000
I1016 21:14:27.801184   636 layer_factory.cpp:58] Creating layer bn4_2
I1016 21:14:27.801184   636 net.cpp:84] Creating Layer bn4_2
I1016 21:14:27.801184   636 net.cpp:406] bn4_2 <- conv4_2
I1016 21:14:27.801184   636 net.cpp:367] bn4_2 -> conv4_2 (in-place)
I1016 21:14:27.801184   636 net.cpp:122] Setting up bn4_2
I1016 21:14:27.801184   636 net.cpp:129] Top shape: 100 110 16 16 (2816000)
I1016 21:14:27.801184   636 net.cpp:137] Memory required for data: 808654000
I1016 21:14:27.801184   636 layer_factory.cpp:58] Creating layer scale4_2
I1016 21:14:27.801184   636 net.cpp:84] Creating Layer scale4_2
I1016 21:14:27.801184   636 net.cpp:406] scale4_2 <- conv4_2
I1016 21:14:27.801184   636 net.cpp:367] scale4_2 -> conv4_2 (in-place)
I1016 21:14:27.801184   636 layer_factory.cpp:58] Creating layer scale4_2
I1016 21:14:27.801184   636 net.cpp:122] Setting up scale4_2
I1016 21:14:27.801184   636 net.cpp:129] Top shape: 100 110 16 16 (2816000)
I1016 21:14:27.801184   636 net.cpp:137] Memory required for data: 819918000
I1016 21:14:27.801184   636 layer_factory.cpp:58] Creating layer relu4_2
I1016 21:14:27.801184   636 net.cpp:84] Creating Layer relu4_2
I1016 21:14:27.801184   636 net.cpp:406] relu4_2 <- conv4_2
I1016 21:14:27.801184   636 net.cpp:367] relu4_2 -> conv4_2 (in-place)
I1016 21:14:27.801184   636 net.cpp:122] Setting up relu4_2
I1016 21:14:27.801184   636 net.cpp:129] Top shape: 100 110 16 16 (2816000)
I1016 21:14:27.801184   636 net.cpp:137] Memory required for data: 831182000
I1016 21:14:27.801184   636 layer_factory.cpp:58] Creating layer pool4_2
I1016 21:14:27.801184   636 net.cpp:84] Creating Layer pool4_2
I1016 21:14:27.801184   636 net.cpp:406] pool4_2 <- conv4_2
I1016 21:14:27.801184   636 net.cpp:380] pool4_2 -> pool4_2
I1016 21:14:27.801184   636 net.cpp:122] Setting up pool4_2
I1016 21:14:27.801184   636 net.cpp:129] Top shape: 100 110 8 8 (704000)
I1016 21:14:27.801184   636 net.cpp:137] Memory required for data: 833998000
I1016 21:14:27.801184   636 layer_factory.cpp:58] Creating layer conv4_0
I1016 21:14:27.801184   636 net.cpp:84] Creating Layer conv4_0
I1016 21:14:27.801184   636 net.cpp:406] conv4_0 <- pool4_2
I1016 21:14:27.801184   636 net.cpp:380] conv4_0 -> conv4_0
I1016 21:14:27.804184   636 net.cpp:122] Setting up conv4_0
I1016 21:14:27.804184   636 net.cpp:129] Top shape: 100 110 8 8 (704000)
I1016 21:14:27.804184   636 net.cpp:137] Memory required for data: 836814000
I1016 21:14:27.804184   636 layer_factory.cpp:58] Creating layer bn4_0
I1016 21:14:27.804184   636 net.cpp:84] Creating Layer bn4_0
I1016 21:14:27.804184   636 net.cpp:406] bn4_0 <- conv4_0
I1016 21:14:27.804184   636 net.cpp:367] bn4_0 -> conv4_0 (in-place)
I1016 21:14:27.804184   636 net.cpp:122] Setting up bn4_0
I1016 21:14:27.804184   636 net.cpp:129] Top shape: 100 110 8 8 (704000)
I1016 21:14:27.804184   636 net.cpp:137] Memory required for data: 839630000
I1016 21:14:27.804184   636 layer_factory.cpp:58] Creating layer scale4_0
I1016 21:14:27.804184   636 net.cpp:84] Creating Layer scale4_0
I1016 21:14:27.804184   636 net.cpp:406] scale4_0 <- conv4_0
I1016 21:14:27.804184   636 net.cpp:367] scale4_0 -> conv4_0 (in-place)
I1016 21:14:27.804184   636 layer_factory.cpp:58] Creating layer scale4_0
I1016 21:14:27.805184   636 net.cpp:122] Setting up scale4_0
I1016 21:14:27.805184   636 net.cpp:129] Top shape: 100 110 8 8 (704000)
I1016 21:14:27.805184   636 net.cpp:137] Memory required for data: 842446000
I1016 21:14:27.805184   636 layer_factory.cpp:58] Creating layer relu4_0
I1016 21:14:27.805184   636 net.cpp:84] Creating Layer relu4_0
I1016 21:14:27.805184   636 net.cpp:406] relu4_0 <- conv4_0
I1016 21:14:27.805184   636 net.cpp:367] relu4_0 -> conv4_0 (in-place)
I1016 21:14:27.805184   636 net.cpp:122] Setting up relu4_0
I1016 21:14:27.805184   636 net.cpp:129] Top shape: 100 110 8 8 (704000)
I1016 21:14:27.805184   636 net.cpp:137] Memory required for data: 845262000
I1016 21:14:27.805184   636 layer_factory.cpp:58] Creating layer conv11
I1016 21:14:27.805184   636 net.cpp:84] Creating Layer conv11
I1016 21:14:27.805184   636 net.cpp:406] conv11 <- conv4_0
I1016 21:14:27.805184   636 net.cpp:380] conv11 -> conv11
I1016 21:14:27.809185   636 net.cpp:122] Setting up conv11
I1016 21:14:27.809185   636 net.cpp:129] Top shape: 100 127 8 8 (812800)
I1016 21:14:27.809185   636 net.cpp:137] Memory required for data: 848513200
I1016 21:14:27.809185   636 layer_factory.cpp:58] Creating layer bn_conv11
I1016 21:14:27.809185   636 net.cpp:84] Creating Layer bn_conv11
I1016 21:14:27.809185   636 net.cpp:406] bn_conv11 <- conv11
I1016 21:14:27.809185   636 net.cpp:367] bn_conv11 -> conv11 (in-place)
I1016 21:14:27.810184   636 net.cpp:122] Setting up bn_conv11
I1016 21:14:27.810184   636 net.cpp:129] Top shape: 100 127 8 8 (812800)
I1016 21:14:27.810184   636 net.cpp:137] Memory required for data: 851764400
I1016 21:14:27.810184   636 layer_factory.cpp:58] Creating layer scale_conv11
I1016 21:14:27.810184   636 net.cpp:84] Creating Layer scale_conv11
I1016 21:14:27.810184   636 net.cpp:406] scale_conv11 <- conv11
I1016 21:14:27.810184   636 net.cpp:367] scale_conv11 -> conv11 (in-place)
I1016 21:14:27.810184   636 layer_factory.cpp:58] Creating layer scale_conv11
I1016 21:14:27.810184   636 net.cpp:122] Setting up scale_conv11
I1016 21:14:27.810184   636 net.cpp:129] Top shape: 100 127 8 8 (812800)
I1016 21:14:27.810184   636 net.cpp:137] Memory required for data: 855015600
I1016 21:14:27.810184   636 layer_factory.cpp:58] Creating layer relu_conv11
I1016 21:14:27.810184   636 net.cpp:84] Creating Layer relu_conv11
I1016 21:14:27.810184   636 net.cpp:406] relu_conv11 <- conv11
I1016 21:14:27.810184   636 net.cpp:367] relu_conv11 -> conv11 (in-place)
I1016 21:14:27.810184   636 net.cpp:122] Setting up relu_conv11
I1016 21:14:27.810184   636 net.cpp:129] Top shape: 100 127 8 8 (812800)
I1016 21:14:27.810184   636 net.cpp:137] Memory required for data: 858266800
I1016 21:14:27.810184   636 layer_factory.cpp:58] Creating layer conv12
I1016 21:14:27.810184   636 net.cpp:84] Creating Layer conv12
I1016 21:14:27.810184   636 net.cpp:406] conv12 <- conv11
I1016 21:14:27.810184   636 net.cpp:380] conv12 -> conv12
I1016 21:14:27.814193   636 net.cpp:122] Setting up conv12
I1016 21:14:27.814193   636 net.cpp:129] Top shape: 100 150 8 8 (960000)
I1016 21:14:27.814193   636 net.cpp:137] Memory required for data: 862106800
I1016 21:14:27.814193   636 layer_factory.cpp:58] Creating layer bn_conv12
I1016 21:14:27.814193   636 net.cpp:84] Creating Layer bn_conv12
I1016 21:14:27.814193   636 net.cpp:406] bn_conv12 <- conv12
I1016 21:14:27.814193   636 net.cpp:367] bn_conv12 -> conv12 (in-place)
I1016 21:14:27.814193   636 net.cpp:122] Setting up bn_conv12
I1016 21:14:27.814193   636 net.cpp:129] Top shape: 100 150 8 8 (960000)
I1016 21:14:27.814193   636 net.cpp:137] Memory required for data: 865946800
I1016 21:14:27.814193   636 layer_factory.cpp:58] Creating layer scale_conv12
I1016 21:14:27.814193   636 net.cpp:84] Creating Layer scale_conv12
I1016 21:14:27.814193   636 net.cpp:406] scale_conv12 <- conv12
I1016 21:14:27.814193   636 net.cpp:367] scale_conv12 -> conv12 (in-place)
I1016 21:14:27.814193   636 layer_factory.cpp:58] Creating layer scale_conv12
I1016 21:14:27.814193   636 net.cpp:122] Setting up scale_conv12
I1016 21:14:27.814193   636 net.cpp:129] Top shape: 100 150 8 8 (960000)
I1016 21:14:27.814193   636 net.cpp:137] Memory required for data: 869786800
I1016 21:14:27.814193   636 layer_factory.cpp:58] Creating layer relu_conv12
I1016 21:14:27.814193   636 net.cpp:84] Creating Layer relu_conv12
I1016 21:14:27.814193   636 net.cpp:406] relu_conv12 <- conv12
I1016 21:14:27.814193   636 net.cpp:367] relu_conv12 -> conv12 (in-place)
I1016 21:14:27.814193   636 net.cpp:122] Setting up relu_conv12
I1016 21:14:27.814193   636 net.cpp:129] Top shape: 100 150 8 8 (960000)
I1016 21:14:27.814193   636 net.cpp:137] Memory required for data: 873626800
I1016 21:14:27.814193   636 layer_factory.cpp:58] Creating layer poolcp6
I1016 21:14:27.814193   636 net.cpp:84] Creating Layer poolcp6
I1016 21:14:27.814193   636 net.cpp:406] poolcp6 <- conv12
I1016 21:14:27.814193   636 net.cpp:380] poolcp6 -> poolcp6
I1016 21:14:27.814193   636 net.cpp:122] Setting up poolcp6
I1016 21:14:27.814193   636 net.cpp:129] Top shape: 100 150 1 1 (15000)
I1016 21:14:27.815182   636 net.cpp:137] Memory required for data: 873686800
I1016 21:14:27.815182   636 layer_factory.cpp:58] Creating layer ip1
I1016 21:14:27.815182   636 net.cpp:84] Creating Layer ip1
I1016 21:14:27.815182   636 net.cpp:406] ip1 <- poolcp6
I1016 21:14:27.815182   636 net.cpp:380] ip1 -> ip1
I1016 21:14:27.815182   636 net.cpp:122] Setting up ip1
I1016 21:14:27.815182   636 net.cpp:129] Top shape: 100 10 (1000)
I1016 21:14:27.815182   636 net.cpp:137] Memory required for data: 873690800
I1016 21:14:27.815182   636 layer_factory.cpp:58] Creating layer ip1_ip1_0_split
I1016 21:14:27.815182   636 net.cpp:84] Creating Layer ip1_ip1_0_split
I1016 21:14:27.815182   636 net.cpp:406] ip1_ip1_0_split <- ip1
I1016 21:14:27.815182   636 net.cpp:380] ip1_ip1_0_split -> ip1_ip1_0_split_0
I1016 21:14:27.815182   636 net.cpp:380] ip1_ip1_0_split -> ip1_ip1_0_split_1
I1016 21:14:27.815182   636 net.cpp:122] Setting up ip1_ip1_0_split
I1016 21:14:27.815182   636 net.cpp:129] Top shape: 100 10 (1000)
I1016 21:14:27.815182   636 net.cpp:129] Top shape: 100 10 (1000)
I1016 21:14:27.815182   636 net.cpp:137] Memory required for data: 873698800
I1016 21:14:27.815182   636 layer_factory.cpp:58] Creating layer accuracy_training
I1016 21:14:27.815182   636 net.cpp:84] Creating Layer accuracy_training
I1016 21:14:27.815182   636 net.cpp:406] accuracy_training <- ip1_ip1_0_split_0
I1016 21:14:27.815182   636 net.cpp:406] accuracy_training <- label_cifar_1_split_0
…
