…
I1129 22:25:57.219522 35244 net.cpp:294] The NetState phase (0) differed from the phase (1) specified by a rule in layer accuracy
I1129 22:25:57.219522 35244 net.cpp:51] Initializing net from parameters: 
name: "CIFAR10_Squeezenet_1.1"
state {
  phase: TRAIN
  level: 0
  stage: ""
}
layer {
  name: "cifar"
  type: "Data"
  top: "data"
  top: "label"
  include {
    phase: TRAIN
  }
  transform_param {
    mirror: true
    crop_size: 32
  }
  data_param {
    source: "examples/cifar10/cifar10_train_leveldb_padding"
    batch_size: 100
    backend: LEVELDB
  }
}
layer {
  name: "conv1"
  type: "Convolution"
  bottom: "data"
  top: "conv1"
  convolution_param {
    num_output: 64
    kernel_size: 3
    stride: 1
    weight_filler {
      type: "xavier"
    }
  }
}
layer {
  name: "relu_conv1"
  type: "ReLU"
  bottom: "conv1"
  top: "conv1"
}
layer {
  name: "pool1"
  type: "Pooling"
  bottom: "conv1"
  top: "pool1"
  pooling_param {
    pool: MAX
    kernel_size: 3
    stride: 1
  }
}
layer {
  name: "fire2/squeeze1x1"
  type: "Convolution"
  bottom: "pool1"
  top: "fire2/squeeze1x1"
  convolution_param {
    num_output: 16
    kernel_size: 1
    weight_filler {
      type: "xavier"
    }
  }
}
layer {
  name: "fire2/relu_squeeze1x1"
  type: "ReLU"
  bottom: "fire2/squeeze1x1"
  top: "fire2/squeeze1x1"
}
layer {
  name: "fire2/expand1x1"
  type: "Convolution"
  bottom: "fire2/squeeze1x1"
  top: "fire2/expand1x1"
  convolution_param {
    num_output: 64
    kernel_size: 1
    weight_filler {
      type: "xavier"
    }
  }
}
layer {
  name: "fire2/relu_expand1x1"
  type: "ReLU"
  bottom: "fire2/expand1x1"
  top: "fire2/expand1x1"
}
layer {
  name: "fire2/expand3x3"
  type: "Convolution"
  bottom: "fire2/squeeze1x1"
  top: "fire2/expand3x3"
  convolution_param {
    num_output: 64
    pad: 1
    kernel_size: 3
    weight_filler {
      type: "xavier"
    }
  }
}
layer {
  name: "fire2/relu_expand3x3"
  type: "ReLU"
  bottom: "fire2/expand3x3"
  top: "fire2/expand3x3"
}
layer {
  name: "fire2/concat"
  type: "Concat"
  bottom: "fire2/expand1x1"
  bottom: "fire2/expand3x3"
  top: "fire2/concat"
}
layer {
  name: "fire3/squeeze1x1"
  type: "Convolution"
  bottom: "fire2/concat"
  top: "fire3/squeeze1x1"
  convolution_param {
    num_output: 16
    kernel_size: 1
    weight_filler {
      type: "xavier"
    }
  }
}
layer {
  name: "fire3/relu_squeeze1x1"
  type: "ReLU"
  bottom: "fire3/squeeze1x1"
  top: "fire3/squeeze1x1"
}
layer {
  name: "fire3/expand1x1"
  type: "Convolution"
  bottom: "fire3/squeeze1x1"
  top: "fire3/expand1x1"
  convolution_param {
    num_output: 64
    kernel_size: 1
    weight_filler {
      type: "xavier"
    }
  }
}
layer {
  name: "fire3/relu_expand1x1"
  type: "ReLU"
  bottom: "fire3/expand1x1"
  top: "fire3/expand1x1"
}
layer {
  name: "fire3/expand3x3"
  type: "Convolution"
  bottom: "fire3/squeeze1x1"
  top: "fire3/expand3x3"
  convolution_param {
    num_output: 64
    pad: 1
    kernel_size: 3
    weight_filler {
      type: "xavier"
    }
  }
}
layer {
  name: "fire3/relu_expand3x3"
  type: "ReLU"
  bottom: "fire3/expand3x3"
  top: "fire3/expand3x3"
}
layer {
  name: "fire3/concat"
  type: "Concat"
  bottom: "fire3/expand1x1"
  bottom: "fire3/expand3x3"
  top: "fire3/concat"
}
layer {
  name: "pool3"
  type: "Pooling"
  bottom: "fire3/concat"
  top: "pool3"
  pooling_param {
    pool: MAX
    kernel_size: 3
    stride: 2
  }
}
layer {
  name: "fire4/squeeze1x1"
  type: "Convolution"
  bottom: "pool3"
  top: "fire4/squeeze1x1"
  convolution_param {
    num_output: 32
    kernel_size: 1
    weight_filler {
      type: "xavier"
    }
  }
}
layer {
  name: "fire4/relu_squeeze1x1"
  type: "ReLU"
  bottom: "fire4/squeeze1x1"
  top: "fire4/squeeze1x1"
}
layer {
  name: "fire4/expand1x1"
  type: "Convolution"
  bottom: "fire4/squeeze1x1"
  top: "fire4/expand1x1"
  convolution_param {
    num_output: 128
    kernel_size: 1
    weight_filler {
      type: "xavier"
    }
  }
}
layer {
  name: "fire4/relu_expand1x1"
  type: "ReLU"
  bottom: "fire4/expand1x1"
  top: "fire4/expand1x1"
}
layer {
  name: "fire4/expand3x3"
  type: "Convolution"
  bottom: "fire4/squeeze1x1"
  top: "fire4/expand3x3"
  convolution_param {
    num_output: 128
    pad: 1
    kernel_size: 3
    weight_filler {
      type: "xavier"
    }
  }
}
layer {
  name: "fire4/relu_expand3x3"
  type: "ReLU"
  bottom: "fire4/expand3x3"
  top: "fire4/expand3x3"
}
layer {
  name: "fire4/concat"
  type: "Concat"
  bottom: "fire4/expand1x1"
  bottom: "fire4/expand3x3"
  top: "fire4/concat"
}
layer {
  name: "fire5/squeeze1x1"
  type: "Convolution"
  bottom: "fire4/concat"
  top: "fire5/squeeze1x1"
  convolution_param {
    num_output: 32
    kernel_size: 1
    weight_filler {
      type: "xavier"
    }
  }
}
layer {
  name: "fire5/relu_squeeze1x1"
  type: "ReLU"
  bottom: "fire5/squeeze1x1"
  top: "fire5/squeeze1x1"
}
layer {
  name: "fire5/expand1x1"
  type: "Convolution"
  bottom: "fire5/squeeze1x1"
  top: "fire5/expand1x1"
  convolution_param {
    num_output: 128
    kernel_size: 1
    weight_filler {
      type: "xavier"
    }
  }
}
layer {
  name: "fire5/relu_expand1x1"
  type: "ReLU"
  bottom: "fire5/expand1x1"
  top: "fire5/expand1x1"
}
layer {
  name: "fire5/expand3x3"
  type: "Convolution"
  bottom: "fire5/squeeze1x1"
  top: "fire5/expand3x3"
  convolution_param {
    num_output: 128
    pad: 1
    kernel_size: 3
    weight_filler {
      type: "xavier"
    }
  }
}
layer {
  name: "fire5/relu_expand3x3"
  type: "ReLU"
  bottom: "fire5/expand3x3"
  top: "fire5/expand3x3"
}
layer {
  name: "fire5/concat"
  type: "Concat"
  bottom: "fire5/expand1x1"
  bottom: "fire5/expand3x3"
  top: "fire5/concat"
}
layer {
  name: "pool5"
  type: "Pooling"
  bottom: "fire5/concat"
  top: "pool5"
  pooling_param {
    pool: MAX
    kernel_size: 3
    stride: 2
  }
}
layer {
  name: "fire6/squeeze1x1"
  type: "Convolution"
  bottom: "pool5"
  top: "fire6/squeeze1x1"
  convolution_param {
    num_output: 48
    kernel_size: 1
    weight_filler {
      type: "xavier"
    }
  }
}
layer {
  name: "fire6/relu_squeeze1x1"
  type: "ReLU"
  bottom: "fire6/squeeze1x1"
  top: "fire6/squeeze1x1"
}
layer {
  name: "fire6/expand1x1"
  type: "Convolution"
  bottom: "fire6/squeeze1x1"
  top: "fire6/expand1x1"
  convolution_param {
    num_output: 192
    kernel_size: 1
    weight_filler {
      type: "xavier"
    }
  }
}
layer {
  name: "fire6/relu_expand1x1"
  type: "ReLU"
  bottom: "fire6/expand1x1"
  top: "fire6/expand1x1"
}
layer {
  name: "fire6/expand3x3"
  type: "Convolution"
  bottom: "fire6/squeeze1x1"
  top: "fire6/expand3x3"
  convolution_param {
    num_output: 192
    pad: 1
    kernel_size: 3
    weight_filler {
      type: "xavier"
    }
  }
}
layer {
  name: "fire6/relu_expand3x3"
  type: "ReLU"
  bottom: "fire6/expand3x3"
  top: "fire6/expand3x3"
}
layer {
  name: "fire6/concat"
  type: "Concat"
  bottom: "fire6/expand1x1"
  bottom: "fire6/expand3x3"
  top: "fire6/concat"
}
layer {
  name: "fire7/squeeze1x1"
  type: "Convolution"
  bottom: "fire6/concat"
  top: "fire7/squeeze1x1"
  convolution_param {
    num_output: 48
    kernel_size: 1
    weight_filler {
      type: "xavier"
    }
  }
}
layer {
  name: "fire7/relu_squeeze1x1"
  type: "ReLU"
  bottom: "fire7/squeeze1x1"
  top: "fire7/squeeze1x1"
}
layer {
  name: "fire7/expand1x1"
  type: "Convolution"
  bottom: "fire7/squeeze1x1"
  top: "fire7/expand1x1"
  convolution_param {
    num_output: 192
    kernel_size: 1
    weight_filler {
      type: "xavier"
    }
  }
}
layer {
  name: "fire7/relu_expand1x1"
  type: "ReLU"
  bottom: "fire7/expand1x1"
  top: "fire7/expand1x1"
}
layer {
  name: "fire7/expand3x3"
  type: "Convolution"
  bottom: "fire7/squeeze1x1"
  top: "fire7/expand3x3"
  convolution_param {
    num_output: 192
    pad: 1
    kernel_size: 3
    weight_filler {
      type: "xavier"
    }
  }
}
layer {
  name: "fire7/relu_expand3x3"
  type: "ReLU"
  bottom: "fire7/expand3x3"
  top: "fire7/expand3x3"
}
layer {
  name: "fire7/concat"
  type: "Concat"
  bottom: "fire7/expand1x1"
  bottom: "fire7/expand3x3"
  top: "fire7/concat"
}
layer {
  name: "fire8/squeeze1x1"
  type: "Convolution"
  bottom: "fire7/concat"
  top: "fire8/squeeze1x1"
  convolution_param {
    num_output: 64
    kernel_size: 1
    weight_filler {
      type: "xavier"
    }
  }
}
layer {
  name: "fire8/relu_squeeze1x1"
  type: "ReLU"
  bottom: "fire8/squeeze1x1"
  top: "fire8/squeeze1x1"
}
layer {
  name: "fire8/expand1x1"
  type: "Convolution"
  bottom: "fire8/squeeze1x1"
  top: "fire8/expand1x1"
  convolution_param {
    num_output: 256
    kernel_size: 1
    weight_filler {
      type: "xavier"
    }
  }
}
layer {
  name: "fire8/relu_expand1x1"
  type: "ReLU"
  bottom: "fire8/expand1x1"
  top: "fire8/expand1x1"
}
layer {
  name: "fire8/expand3x3"
  type: "Convolution"
  bottom: "fire8/squeeze1x1"
  top: "fire8/expand3x3"
  convolution_param {
    num_output: 256
    pad: 1
    kernel_size: 3
    weight_filler {
      type: "xavier"
    }
  }
}
layer {
  name: "fire8/relu_expand3x3"
  type: "ReLU"
  bottom: "fire8/expand3x3"
  top: "fire8/expand3x3"
}
layer {
  name: "fire8/concat"
  type: "Concat"
  bottom: "fire8/expand1x1"
  bottom: "fire8/expand3x3"
  top: "fire8/concat"
}
layer {
  name: "fire9/squeeze1x1"
  type: "Convolution"
  bottom: "fire8/concat"
  top: "fire9/squeeze1x1"
  convolution_param {
    num_output: 64
    kernel_size: 1
    weight_filler {
      type: "xavier"
    }
  }
}
layer {
  name: "fire9/relu_squeeze1x1"
  type: "ReLU"
  bottom: "fire9/squeeze1x1"
  top: "fire9/squeeze1x1"
}
layer {
  name: "fire9/expand1x1"
  type: "Convolution"
  bottom: "fire9/squeeze1x1"
  top: "fire9/expand1x1"
  convolution_param {
    num_output: 256
    kernel_size: 1
    weight_filler {
      type: "xavier"
    }
  }
}
layer {
  name: "fire9/relu_expand1x1"
  type: "ReLU"
  bottom: "fire9/expand1x1"
  top: "fire9/expand1x1"
}
layer {
  name: "fire9/expand3x3"
  type: "Convolution"
  bottom: "fire9/squeeze1x1"
  top: "fire9/expand3x3"
  convolution_param {
    num_output: 256
    pad: 1
    kernel_size: 3
    weight_filler {
      type: "xavier"
    }
  }
}
layer {
  name: "fire9/relu_expand3x3"
  type: "ReLU"
  bottom: "fire9/expand3x3"
  top: "fire9/expand3x3"
}
layer {
  name: "fire9/concat"
  type: "Concat"
  bottom: "fire9/expand1x1"
  bottom: "fire9/expand3x3"
  top: "fire9/concat"
}
layer {
  name: "drop9"
  type: "Dropout"
  bottom: "fire9/concat"
  top: "fire9/concat"
  dropout_param {
    dropout_ratio: 0.5
  }
}
layer {
  name: "conv10"
  type: "Convolution"
  bottom: "fire9/concat"
  top: "conv10"
  convolution_param {
    num_output: 10
    kernel_size: 1
    weight_filler {
      type: "gaussian"
      mean: 0
      std: 0.01
    }
  }
}
layer {
  name: "relu_conv10"
  type: "ReLU"
  bottom: "conv10"
  top: "conv10"
}
layer {
  name: "pool10"
  type: "Pooling"
  bottom: "conv10"
  top: "pool10"
  pooling_param {
    pool: AVE
    global_pooling: true
  }
}
layer {
  name: "accuracy_training"
  type: "Accuracy"
  bottom: "pool10"
  bottom: "label"
  top: "accuracy_training"
  include {
    phase: TRAIN
  }
}
layer {
  name: "loss"
  type: "SoftmaxWithLoss"
  bottom: "pool10"
  bottom: "label"
  top: "loss"
}
I1129 22:25:57.272545 35244 layer_factory.cpp:58] Creating layer cifar
I1129 22:25:57.278532 35244 db_leveldb.cpp:18] Opened leveldb examples/cifar10/cifar10_train_leveldb_padding
I1129 22:25:57.278532 35244 net.cpp:84] Creating Layer cifar
I1129 22:25:57.278532 35244 net.cpp:380] cifar -> data
I1129 22:25:57.278532 35244 net.cpp:380] cifar -> label
I1129 22:25:57.278532 35244 common.cpp:36] System entropy source not available, using fallback algorithm to generate seed instead.
I1129 22:25:57.279531 35244 data_layer.cpp:45] output data size: 100,3,32,32
I1129 22:25:57.289543 35244 net.cpp:122] Setting up cifar
I1129 22:25:57.289543 35244 net.cpp:129] Top shape: 100 3 32 32 (307200)
I1129 22:25:57.289543 35244 net.cpp:129] Top shape: 100 (100)
I1129 22:25:57.289543 35244 net.cpp:137] Memory required for data: 1229200
I1129 22:25:57.289543 35244 layer_factory.cpp:58] Creating layer label_cifar_1_split
I1129 22:25:57.289543 35244 net.cpp:84] Creating Layer label_cifar_1_split
I1129 22:25:57.289543 35244 net.cpp:406] label_cifar_1_split <- label
I1129 22:25:57.289543 35244 net.cpp:380] label_cifar_1_split -> label_cifar_1_split_0
I1129 22:25:57.289543 35244 net.cpp:380] label_cifar_1_split -> label_cifar_1_split_1
I1129 22:25:57.289543 35244 net.cpp:122] Setting up label_cifar_1_split
I1129 22:25:57.289543 35244 net.cpp:129] Top shape: 100 (100)
I1129 22:25:57.289543 35244 net.cpp:129] Top shape: 100 (100)
I1129 22:25:57.289543 35244 net.cpp:137] Memory required for data: 1230000
I1129 22:25:57.289543 35244 layer_factory.cpp:58] Creating layer conv1
I1129 22:25:57.289543 35244 net.cpp:84] Creating Layer conv1
I1129 22:25:57.289543 35244 net.cpp:406] conv1 <- data
I1129 22:25:57.289543 35244 net.cpp:380] conv1 -> conv1
I1129 22:25:57.290530 25276 common.cpp:36] System entropy source not available, using fallback algorithm to generate seed instead.
I1129 22:25:57.546176 35244 net.cpp:122] Setting up conv1
I1129 22:25:57.546176 35244 net.cpp:129] Top shape: 100 64 30 30 (5760000)
I1129 22:25:57.546176 35244 net.cpp:137] Memory required for data: 24270000
I1129 22:25:57.546176 35244 layer_factory.cpp:58] Creating layer relu_conv1
I1129 22:25:57.546176 35244 net.cpp:84] Creating Layer relu_conv1
I1129 22:25:57.546176 35244 net.cpp:406] relu_conv1 <- conv1
I1129 22:25:57.546176 35244 net.cpp:367] relu_conv1 -> conv1 (in-place)
I1129 22:25:57.546676 35244 net.cpp:122] Setting up relu_conv1
I1129 22:25:57.546676 35244 net.cpp:129] Top shape: 100 64 30 30 (5760000)
I1129 22:25:57.546676 35244 net.cpp:137] Memory required for data: 47310000
I1129 22:25:57.546676 35244 layer_factory.cpp:58] Creating layer pool1
I1129 22:25:57.546676 35244 net.cpp:84] Creating Layer pool1
I1129 22:25:57.546676 35244 net.cpp:406] pool1 <- conv1
I1129 22:25:57.546676 35244 net.cpp:380] pool1 -> pool1
I1129 22:25:57.546676 35244 net.cpp:122] Setting up pool1
I1129 22:25:57.546676 35244 net.cpp:129] Top shape: 100 64 28 28 (5017600)
I1129 22:25:57.546676 35244 net.cpp:137] Memory required for data: 67380400
I1129 22:25:57.546676 35244 layer_factory.cpp:58] Creating layer fire2/squeeze1x1
I1129 22:25:57.546676 35244 net.cpp:84] Creating Layer fire2/squeeze1x1
I1129 22:25:57.546676 35244 net.cpp:406] fire2/squeeze1x1 <- pool1
I1129 22:25:57.546676 35244 net.cpp:380] fire2/squeeze1x1 -> fire2/squeeze1x1
I1129 22:25:57.547675 35244 net.cpp:122] Setting up fire2/squeeze1x1
I1129 22:25:57.547675 35244 net.cpp:129] Top shape: 100 16 28 28 (1254400)
I1129 22:25:57.547675 35244 net.cpp:137] Memory required for data: 72398000
I1129 22:25:57.547675 35244 layer_factory.cpp:58] Creating layer fire2/relu_squeeze1x1
I1129 22:25:57.547675 35244 net.cpp:84] Creating Layer fire2/relu_squeeze1x1
I1129 22:25:57.547675 35244 net.cpp:406] fire2/relu_squeeze1x1 <- fire2/squeeze1x1
I1129 22:25:57.548177 35244 net.cpp:367] fire2/relu_squeeze1x1 -> fire2/squeeze1x1 (in-place)
I1129 22:25:57.548177 35244 net.cpp:122] Setting up fire2/relu_squeeze1x1
I1129 22:25:57.548177 35244 net.cpp:129] Top shape: 100 16 28 28 (1254400)
I1129 22:25:57.548177 35244 net.cpp:137] Memory required for data: 77415600
I1129 22:25:57.548177 35244 layer_factory.cpp:58] Creating layer fire2/squeeze1x1_fire2/relu_squeeze1x1_0_split
I1129 22:25:57.548177 35244 net.cpp:84] Creating Layer fire2/squeeze1x1_fire2/relu_squeeze1x1_0_split
I1129 22:25:57.548177 35244 net.cpp:406] fire2/squeeze1x1_fire2/relu_squeeze1x1_0_split <- fire2/squeeze1x1
I1129 22:25:57.548177 35244 net.cpp:380] fire2/squeeze1x1_fire2/relu_squeeze1x1_0_split -> fire2/squeeze1x1_fire2/relu_squeeze1x1_0_split_0
I1129 22:25:57.548177 35244 net.cpp:380] fire2/squeeze1x1_fire2/relu_squeeze1x1_0_split -> fire2/squeeze1x1_fire2/relu_squeeze1x1_0_split_1
I1129 22:25:57.548177 35244 net.cpp:122] Setting up fire2/squeeze1x1_fire2/relu_squeeze1x1_0_split
I1129 22:25:57.548676 35244 net.cpp:129] Top shape: 100 16 28 28 (1254400)
I1129 22:25:57.548676 35244 net.cpp:129] Top shape: 100 16 28 28 (1254400)
I1129 22:25:57.548676 35244 net.cpp:137] Memory required for data: 87450800
I1129 22:25:57.548676 35244 layer_factory.cpp:58] Creating layer fire2/expand1x1
I1129 22:25:57.548676 35244 net.cpp:84] Creating Layer fire2/expand1x1
I1129 22:25:57.548676 35244 net.cpp:406] fire2/expand1x1 <- fire2/squeeze1x1_fire2/relu_squeeze1x1_0_split_0
I1129 22:25:57.548676 35244 net.cpp:380] fire2/expand1x1 -> fire2/expand1x1
I1129 22:25:57.549676 35244 net.cpp:122] Setting up fire2/expand1x1
I1129 22:25:57.549676 35244 net.cpp:129] Top shape: 100 64 28 28 (5017600)
I1129 22:25:57.549676 35244 net.cpp:137] Memory required for data: 107521200
I1129 22:25:57.549676 35244 layer_factory.cpp:58] Creating layer fire2/relu_expand1x1
I1129 22:25:57.549676 35244 net.cpp:84] Creating Layer fire2/relu_expand1x1
I1129 22:25:57.549676 35244 net.cpp:406] fire2/relu_expand1x1 <- fire2/expand1x1
I1129 22:25:57.549676 35244 net.cpp:367] fire2/relu_expand1x1 -> fire2/expand1x1 (in-place)
I1129 22:25:57.549676 35244 net.cpp:122] Setting up fire2/relu_expand1x1
I1129 22:25:57.549676 35244 net.cpp:129] Top shape: 100 64 28 28 (5017600)
I1129 22:25:57.549676 35244 net.cpp:137] Memory required for data: 127591600
I1129 22:25:57.549676 35244 layer_factory.cpp:58] Creating layer fire2/expand3x3
I1129 22:25:57.549676 35244 net.cpp:84] Creating Layer fire2/expand3x3
I1129 22:25:57.549676 35244 net.cpp:406] fire2/expand3x3 <- fire2/squeeze1x1_fire2/relu_squeeze1x1_0_split_1
I1129 22:25:57.549676 35244 net.cpp:380] fire2/expand3x3 -> fire2/expand3x3
I1129 22:25:57.551676 35244 net.cpp:122] Setting up fire2/expand3x3
I1129 22:25:57.551676 35244 net.cpp:129] Top shape: 100 64 28 28 (5017600)
I1129 22:25:57.551676 35244 net.cpp:137] Memory required for data: 147662000
I1129 22:25:57.551676 35244 layer_factory.cpp:58] Creating layer fire2/relu_expand3x3
I1129 22:25:57.551676 35244 net.cpp:84] Creating Layer fire2/relu_expand3x3
I1129 22:25:57.551676 35244 net.cpp:406] fire2/relu_expand3x3 <- fire2/expand3x3
I1129 22:25:57.551676 35244 net.cpp:367] fire2/relu_expand3x3 -> fire2/expand3x3 (in-place)
I1129 22:25:57.551676 35244 net.cpp:122] Setting up fire2/relu_expand3x3
I1129 22:25:57.551676 35244 net.cpp:129] Top shape: 100 64 28 28 (5017600)
I1129 22:25:57.551676 35244 net.cpp:137] Memory required for data: 167732400
I1129 22:25:57.551676 35244 layer_factory.cpp:58] Creating layer fire2/concat
I1129 22:25:57.551676 35244 net.cpp:84] Creating Layer fire2/concat
I1129 22:25:57.552176 35244 net.cpp:406] fire2/concat <- fire2/expand1x1
I1129 22:25:57.552176 35244 net.cpp:406] fire2/concat <- fire2/expand3x3
I1129 22:25:57.552176 35244 net.cpp:380] fire2/concat -> fire2/concat
I1129 22:25:57.552176 35244 net.cpp:122] Setting up fire2/concat
I1129 22:25:57.552176 35244 net.cpp:129] Top shape: 100 128 28 28 (10035200)
I1129 22:25:57.552176 35244 net.cpp:137] Memory required for data: 207873200
I1129 22:25:57.552176 35244 layer_factory.cpp:58] Creating layer fire3/squeeze1x1
I1129 22:25:57.552176 35244 net.cpp:84] Creating Layer fire3/squeeze1x1
I1129 22:25:57.552176 35244 net.cpp:406] fire3/squeeze1x1 <- fire2/concat
I1129 22:25:57.552176 35244 net.cpp:380] fire3/squeeze1x1 -> fire3/squeeze1x1
I1129 22:25:57.552675 35244 net.cpp:122] Setting up fire3/squeeze1x1
I1129 22:25:57.552675 35244 net.cpp:129] Top shape: 100 16 28 28 (1254400)
I1129 22:25:57.552675 35244 net.cpp:137] Memory required for data: 212890800
I1129 22:25:57.552675 35244 layer_factory.cpp:58] Creating layer fire3/relu_squeeze1x1
I1129 22:25:57.552675 35244 net.cpp:84] Creating Layer fire3/relu_squeeze1x1
I1129 22:25:57.552675 35244 net.cpp:406] fire3/relu_squeeze1x1 <- fire3/squeeze1x1
I1129 22:25:57.552675 35244 net.cpp:367] fire3/relu_squeeze1x1 -> fire3/squeeze1x1 (in-place)
I1129 22:25:57.553680 35244 net.cpp:122] Setting up fire3/relu_squeeze1x1
I1129 22:25:57.553680 35244 net.cpp:129] Top shape: 100 16 28 28 (1254400)
I1129 22:25:57.553680 35244 net.cpp:137] Memory required for data: 217908400
I1129 22:25:57.553680 35244 layer_factory.cpp:58] Creating layer fire3/squeeze1x1_fire3/relu_squeeze1x1_0_split
I1129 22:25:57.553680 35244 net.cpp:84] Creating Layer fire3/squeeze1x1_fire3/relu_squeeze1x1_0_split
I1129 22:25:57.553680 35244 net.cpp:406] fire3/squeeze1x1_fire3/relu_squeeze1x1_0_split <- fire3/squeeze1x1
I1129 22:25:57.553680 35244 net.cpp:380] fire3/squeeze1x1_fire3/relu_squeeze1x1_0_split -> fire3/squeeze1x1_fire3/relu_squeeze1x1_0_split_0
I1129 22:25:57.553680 35244 net.cpp:380] fire3/squeeze1x1_fire3/relu_squeeze1x1_0_split -> fire3/squeeze1x1_fire3/relu_squeeze1x1_0_split_1
I1129 22:25:57.553680 35244 net.cpp:122] Setting up fire3/squeeze1x1_fire3/relu_squeeze1x1_0_split
I1129 22:25:57.553680 35244 net.cpp:129] Top shape: 100 16 28 28 (1254400)
I1129 22:25:57.553680 35244 net.cpp:129] Top shape: 100 16 28 28 (1254400)
I1129 22:25:57.553680 35244 net.cpp:137] Memory required for data: 227943600
I1129 22:25:57.553680 35244 layer_factory.cpp:58] Creating layer fire3/expand1x1
I1129 22:25:57.553680 35244 net.cpp:84] Creating Layer fire3/expand1x1
I1129 22:25:57.553680 35244 net.cpp:406] fire3/expand1x1 <- fire3/squeeze1x1_fire3/relu_squeeze1x1_0_split_0
I1129 22:25:57.553680 35244 net.cpp:380] fire3/expand1x1 -> fire3/expand1x1
I1129 22:25:57.554679 35244 net.cpp:122] Setting up fire3/expand1x1
I1129 22:25:57.554679 35244 net.cpp:129] Top shape: 100 64 28 28 (5017600)
I1129 22:25:57.554679 35244 net.cpp:137] Memory required for data: 248014000
I1129 22:25:57.554679 35244 layer_factory.cpp:58] Creating layer fire3/relu_expand1x1
I1129 22:25:57.554679 35244 net.cpp:84] Creating Layer fire3/relu_expand1x1
I1129 22:25:57.554679 35244 net.cpp:406] fire3/relu_expand1x1 <- fire3/expand1x1
I1129 22:25:57.554679 35244 net.cpp:367] fire3/relu_expand1x1 -> fire3/expand1x1 (in-place)
I1129 22:25:57.554679 35244 net.cpp:122] Setting up fire3/relu_expand1x1
I1129 22:25:57.554679 35244 net.cpp:129] Top shape: 100 64 28 28 (5017600)
I1129 22:25:57.554679 35244 net.cpp:137] Memory required for data: 268084400
I1129 22:25:57.554679 35244 layer_factory.cpp:58] Creating layer fire3/expand3x3
I1129 22:25:57.554679 35244 net.cpp:84] Creating Layer fire3/expand3x3
I1129 22:25:57.554679 35244 net.cpp:406] fire3/expand3x3 <- fire3/squeeze1x1_fire3/relu_squeeze1x1_0_split_1
I1129 22:25:57.554679 35244 net.cpp:380] fire3/expand3x3 -> fire3/expand3x3
I1129 22:25:57.555680 35244 net.cpp:122] Setting up fire3/expand3x3
I1129 22:25:57.555680 35244 net.cpp:129] Top shape: 100 64 28 28 (5017600)
I1129 22:25:57.555680 35244 net.cpp:137] Memory required for data: 288154800
I1129 22:25:57.555680 35244 layer_factory.cpp:58] Creating layer fire3/relu_expand3x3
I1129 22:25:57.555680 35244 net.cpp:84] Creating Layer fire3/relu_expand3x3
I1129 22:25:57.555680 35244 net.cpp:406] fire3/relu_expand3x3 <- fire3/expand3x3
I1129 22:25:57.555680 35244 net.cpp:367] fire3/relu_expand3x3 -> fire3/expand3x3 (in-place)
I1129 22:25:57.556679 35244 net.cpp:122] Setting up fire3/relu_expand3x3
I1129 22:25:57.556679 35244 net.cpp:129] Top shape: 100 64 28 28 (5017600)
I1129 22:25:57.556679 35244 net.cpp:137] Memory required for data: 308225200
I1129 22:25:57.556679 35244 layer_factory.cpp:58] Creating layer fire3/concat
I1129 22:25:57.556679 35244 net.cpp:84] Creating Layer fire3/concat
I1129 22:25:57.556679 35244 net.cpp:406] fire3/concat <- fire3/expand1x1
I1129 22:25:57.556679 35244 net.cpp:406] fire3/concat <- fire3/expand3x3
I1129 22:25:57.556679 35244 net.cpp:380] fire3/concat -> fire3/concat
I1129 22:25:57.556679 35244 net.cpp:122] Setting up fire3/concat
I1129 22:25:57.556679 35244 net.cpp:129] Top shape: 100 128 28 28 (10035200)
I1129 22:25:57.556679 35244 net.cpp:137] Memory required for data: 348366000
I1129 22:25:57.556679 35244 layer_factory.cpp:58] Creating layer pool3
I1129 22:25:57.556679 35244 net.cpp:84] Creating Layer pool3
I1129 22:25:57.556679 35244 net.cpp:406] pool3 <- fire3/concat
I1129 22:25:57.556679 35244 net.cpp:380] pool3 -> pool3
I1129 22:25:57.556679 35244 net.cpp:122] Setting up pool3
I1129 22:25:57.556679 35244 net.cpp:129] Top shape: 100 128 14 14 (2508800)
I1129 22:25:57.556679 35244 net.cpp:137] Memory required for data: 358401200
I1129 22:25:57.556679 35244 layer_factory.cpp:58] Creating layer fire4/squeeze1x1
I1129 22:25:57.556679 35244 net.cpp:84] Creating Layer fire4/squeeze1x1
I1129 22:25:57.556679 35244 net.cpp:406] fire4/squeeze1x1 <- pool3
I1129 22:25:57.556679 35244 net.cpp:380] fire4/squeeze1x1 -> fire4/squeeze1x1
I1129 22:25:57.557687 35244 net.cpp:122] Setting up fire4/squeeze1x1
I1129 22:25:57.557687 35244 net.cpp:129] Top shape: 100 32 14 14 (627200)
I1129 22:25:57.557687 35244 net.cpp:137] Memory required for data: 360910000
I1129 22:25:57.557687 35244 layer_factory.cpp:58] Creating layer fire4/relu_squeeze1x1
I1129 22:25:57.558679 35244 net.cpp:84] Creating Layer fire4/relu_squeeze1x1
I1129 22:25:57.558679 35244 net.cpp:406] fire4/relu_squeeze1x1 <- fire4/squeeze1x1
I1129 22:25:57.558679 35244 net.cpp:367] fire4/relu_squeeze1x1 -> fire4/squeeze1x1 (in-place)
I1129 22:25:57.558679 35244 net.cpp:122] Setting up fire4/relu_squeeze1x1
I1129 22:25:57.558679 35244 net.cpp:129] Top shape: 100 32 14 14 (627200)
I1129 22:25:57.558679 35244 net.cpp:137] Memory required for data: 363418800
I1129 22:25:57.558679 35244 layer_factory.cpp:58] Creating layer fire4/squeeze1x1_fire4/relu_squeeze1x1_0_split
I1129 22:25:57.558679 35244 net.cpp:84] Creating Layer fire4/squeeze1x1_fire4/relu_squeeze1x1_0_split
I1129 22:25:57.558679 35244 net.cpp:406] fire4/squeeze1x1_fire4/relu_squeeze1x1_0_split <- fire4/squeeze1x1
I1129 22:25:57.558679 35244 net.cpp:380] fire4/squeeze1x1_fire4/relu_squeeze1x1_0_split -> fire4/squeeze1x1_fire4/relu_squeeze1x1_0_split_0
I1129 22:25:57.558679 35244 net.cpp:380] fire4/squeeze1x1_fire4/relu_squeeze1x1_0_split -> fire4/squeeze1x1_fire4/relu_squeeze1x1_0_split_1
I1129 22:25:57.558679 35244 net.cpp:122] Setting up fire4/squeeze1x1_fire4/relu_squeeze1x1_0_split
I1129 22:25:57.558679 35244 net.cpp:129] Top shape: 100 32 14 14 (627200)
I1129 22:25:57.558679 35244 net.cpp:129] Top shape: 100 32 14 14 (627200)
I1129 22:25:57.558679 35244 net.cpp:137] Memory required for data: 368436400
I1129 22:25:57.558679 35244 layer_factory.cpp:58] Creating layer fire4/expand1x1
I1129 22:25:57.558679 35244 net.cpp:84] Creating Layer fire4/expand1x1
I1129 22:25:57.558679 35244 net.cpp:406] fire4/expand1x1 <- fire4/squeeze1x1_fire4/relu_squeeze1x1_0_split_0
I1129 22:25:57.558679 35244 net.cpp:380] fire4/expand1x1 -> fire4/expand1x1
I1129 22:25:57.559679 35244 net.cpp:122] Setting up fire4/expand1x1
I1129 22:25:57.559679 35244 net.cpp:129] Top shape: 100 128 14 14 (2508800)
I1129 22:25:57.559679 35244 net.cpp:137] Memory required for data: 378471600
I1129 22:25:57.559679 35244 layer_factory.cpp:58] Creating layer fire4/relu_expand1x1
I1129 22:25:57.559679 35244 net.cpp:84] Creating Layer fire4/relu_expand1x1
I1129 22:25:57.559679 35244 net.cpp:406] fire4/relu_expand1x1 <- fire4/expand1x1
I1129 22:25:57.559679 35244 net.cpp:367] fire4/relu_expand1x1 -> fire4/expand1x1 (in-place)
I1129 22:25:57.559679 35244 net.cpp:122] Setting up fire4/relu_expand1x1
I1129 22:25:57.559679 35244 net.cpp:129] Top shape: 100 128 14 14 (2508800)
I1129 22:25:57.559679 35244 net.cpp:137] Memory required for data: 388506800
I1129 22:25:57.559679 35244 layer_factory.cpp:58] Creating layer fire4/expand3x3
I1129 22:25:57.559679 35244 net.cpp:84] Creating Layer fire4/expand3x3
I1129 22:25:57.559679 35244 net.cpp:406] fire4/expand3x3 <- fire4/squeeze1x1_fire4/relu_squeeze1x1_0_split_1
I1129 22:25:57.559679 35244 net.cpp:380] fire4/expand3x3 -> fire4/expand3x3
I1129 22:25:57.561679 35244 net.cpp:122] Setting up fire4/expand3x3
I1129 22:25:57.561679 35244 net.cpp:129] Top shape: 100 128 14 14 (2508800)
I1129 22:25:57.561679 35244 net.cpp:137] Memory required for data: 398542000
I1129 22:25:57.561679 35244 layer_factory.cpp:58] Creating layer fire4/relu_expand3x3
I1129 22:25:57.561679 35244 net.cpp:84] Creating Layer fire4/relu_expand3x3
I1129 22:25:57.561679 35244 net.cpp:406] fire4/relu_expand3x3 <- fire4/expand3x3
I1129 22:25:57.561679 35244 net.cpp:367] fire4/relu_expand3x3 -> fire4/expand3x3 (in-place)
I1129 22:25:57.562680 35244 net.cpp:122] Setting up fire4/relu_expand3x3
I1129 22:25:57.562680 35244 net.cpp:129] Top shape: 100 128 14 14 (2508800)
I1129 22:25:57.562680 35244 net.cpp:137] Memory required for data: 408577200
I1129 22:25:57.562680 35244 layer_factory.cpp:58] Creating layer fire4/concat
I1129 22:25:57.562680 35244 net.cpp:84] Creating Layer fire4/concat
I1129 22:25:57.562680 35244 net.cpp:406] fire4/concat <- fire4/expand1x1
I1129 22:25:57.562680 35244 net.cpp:406] fire4/concat <- fire4/expand3x3
I1129 22:25:57.562680 35244 net.cpp:380] fire4/concat -> fire4/concat
I1129 22:25:57.562680 35244 net.cpp:122] Setting up fire4/concat
I1129 22:25:57.562680 35244 net.cpp:129] Top shape: 100 256 14 14 (5017600)
I1129 22:25:57.562680 35244 net.cpp:137] Memory required for data: 428647600
I1129 22:25:57.562680 35244 layer_factory.cpp:58] Creating layer fire5/squeeze1x1
I1129 22:25:57.562680 35244 net.cpp:84] Creating Layer fire5/squeeze1x1
I1129 22:25:57.562680 35244 net.cpp:406] fire5/squeeze1x1 <- fire4/concat
I1129 22:25:57.562680 35244 net.cpp:380] fire5/squeeze1x1 -> fire5/squeeze1x1
I1129 22:25:57.563680 35244 net.cpp:122] Setting up fire5/squeeze1x1
I1129 22:25:57.563680 35244 net.cpp:129] Top shape: 100 32 14 14 (627200)
I1129 22:25:57.563680 35244 net.cpp:137] Memory required for data: 431156400
I1129 22:25:57.563680 35244 layer_factory.cpp:58] Creating layer fire5/relu_squeeze1x1
I1129 22:25:57.563680 35244 net.cpp:84] Creating Layer fire5/relu_squeeze1x1
I1129 22:25:57.563680 35244 net.cpp:406] fire5/relu_squeeze1x1 <- fire5/squeeze1x1
I1129 22:25:57.563680 35244 net.cpp:367] fire5/relu_squeeze1x1 -> fire5/squeeze1x1 (in-place)
I1129 22:25:57.563680 35244 net.cpp:122] Setting up fire5/relu_squeeze1x1
I1129 22:25:57.563680 35244 net.cpp:129] Top shape: 100 32 14 14 (627200)
I1129 22:25:57.563680 35244 net.cpp:137] Memory required for data: 433665200
I1129 22:25:57.563680 35244 layer_factory.cpp:58] Creating layer fire5/squeeze1x1_fire5/relu_squeeze1x1_0_split
I1129 22:25:57.563680 35244 net.cpp:84] Creating Layer fire5/squeeze1x1_fire5/relu_squeeze1x1_0_split
I1129 22:25:57.563680 35244 net.cpp:406] fire5/squeeze1x1_fire5/relu_squeeze1x1_0_split <- fire5/squeeze1x1
I1129 22:25:57.563680 35244 net.cpp:380] fire5/squeeze1x1_fire5/relu_squeeze1x1_0_split -> fire5/squeeze1x1_fire5/relu_squeeze1x1_0_split_0
I1129 22:25:57.563680 35244 net.cpp:380] fire5/squeeze1x1_fire5/relu_squeeze1x1_0_split -> fire5/squeeze1x1_fire5/relu_squeeze1x1_0_split_1
I1129 22:25:57.564680 35244 net.cpp:122] Setting up fire5/squeeze1x1_fire5/relu_squeeze1x1_0_split
I1129 22:25:57.564680 35244 net.cpp:129] Top shape: 100 32 14 14 (627200)
I1129 22:25:57.564680 35244 net.cpp:129] Top shape: 100 32 14 14 (627200)
I1129 22:25:57.564680 35244 net.cpp:137] Memory required for data: 438682800
I1129 22:25:57.564680 35244 layer_factory.cpp:58] Creating layer fire5/expand1x1
I1129 22:25:57.564680 35244 net.cpp:84] Creating Layer fire5/expand1x1
I1129 22:25:57.564680 35244 net.cpp:406] fire5/expand1x1 <- fire5/squeeze1x1_fire5/relu_squeeze1x1_0_split_0
I1129 22:25:57.564680 35244 net.cpp:380] fire5/expand1x1 -> fire5/expand1x1
I1129 22:25:57.564680 35244 net.cpp:122] Setting up fire5/expand1x1
I1129 22:25:57.564680 35244 net.cpp:129] Top shape: 100 128 14 14 (2508800)
I1129 22:25:57.564680 35244 net.cpp:137] Memory required for data: 448718000
I1129 22:25:57.564680 35244 layer_factory.cpp:58] Creating layer fire5/relu_expand1x1
I1129 22:25:57.564680 35244 net.cpp:84] Creating Layer fire5/relu_expand1x1
I1129 22:25:57.564680 35244 net.cpp:406] fire5/relu_expand1x1 <- fire5/expand1x1
I1129 22:25:57.564680 35244 net.cpp:367] fire5/relu_expand1x1 -> fire5/expand1x1 (in-place)
I1129 22:25:57.565680 35244 net.cpp:122] Setting up fire5/relu_expand1x1
I1129 22:25:57.565680 35244 net.cpp:129] Top shape: 100 128 14 14 (2508800)
I1129 22:25:57.565680 35244 net.cpp:137] Memory required for data: 458753200
I1129 22:25:57.565680 35244 layer_factory.cpp:58] Creating layer fire5/expand3x3
I1129 22:25:57.565680 35244 net.cpp:84] Creating Layer fire5/expand3x3
I1129 22:25:57.565680 35244 net.cpp:406] fire5/expand3x3 <- fire5/squeeze1x1_fire5/relu_squeeze1x1_0_split_1
I1129 22:25:57.565680 35244 net.cpp:380] fire5/expand3x3 -> fire5/expand3x3
I1129 22:25:57.566680 35244 net.cpp:122] Setting up fire5/expand3x3
I1129 22:25:57.566680 35244 net.cpp:129] Top shape: 100 128 14 14 (2508800)
I1129 22:25:57.566680 35244 net.cpp:137] Memory required for data: 468788400
I1129 22:25:57.566680 35244 layer_factory.cpp:58] Creating layer fire5/relu_expand3x3
I1129 22:25:57.566680 35244 net.cpp:84] Creating Layer fire5/relu_expand3x3
I1129 22:25:57.566680 35244 net.cpp:406] fire5/relu_expand3x3 <- fire5/expand3x3
I1129 22:25:57.566680 35244 net.cpp:367] fire5/relu_expand3x3 -> fire5/expand3x3 (in-place)
I1129 22:25:57.566680 35244 net.cpp:122] Setting up fire5/relu_expand3x3
I1129 22:25:57.566680 35244 net.cpp:129] Top shape: 100 128 14 14 (2508800)
I1129 22:25:57.566680 35244 net.cpp:137] Memory required for data: 478823600
I1129 22:25:57.566680 35244 layer_factory.cpp:58] Creating layer fire5/concat
I1129 22:25:57.566680 35244 net.cpp:84] Creating Layer fire5/concat
I1129 22:25:57.566680 35244 net.cpp:406] fire5/concat <- fire5/expand1x1
I1129 22:25:57.566680 35244 net.cpp:406] fire5/concat <- fire5/expand3x3
I1129 22:25:57.566680 35244 net.cpp:380] fire5/concat -> fire5/concat
I1129 22:25:57.566680 35244 net.cpp:122] Setting up fire5/concat
I1129 22:25:57.567680 35244 net.cpp:129] Top shape: 100 256 14 14 (5017600)
I1129 22:25:57.567680 35244 net.cpp:137] Memory required for data: 498894000
I1129 22:25:57.567680 35244 layer_factory.cpp:58] Creating layer pool5
I1129 22:25:57.567680 35244 net.cpp:84] Creating Layer pool5
I1129 22:25:57.567680 35244 net.cpp:406] pool5 <- fire5/concat
I1129 22:25:57.567680 35244 net.cpp:380] pool5 -> pool5
I1129 22:25:57.567680 35244 net.cpp:122] Setting up pool5
I1129 22:25:57.567680 35244 net.cpp:129] Top shape: 100 256 7 7 (1254400)
I1129 22:25:57.567680 35244 net.cpp:137] Memory required for data: 503911600
I1129 22:25:57.567680 35244 layer_factory.cpp:58] Creating layer fire6/squeeze1x1
I1129 22:25:57.567680 35244 net.cpp:84] Creating Layer fire6/squeeze1x1
I1129 22:25:57.567680 35244 net.cpp:406] fire6/squeeze1x1 <- pool5
I1129 22:25:57.567680 35244 net.cpp:380] fire6/squeeze1x1 -> fire6/squeeze1x1
I1129 22:25:57.568680 35244 net.cpp:122] Setting up fire6/squeeze1x1
I1129 22:25:57.568680 35244 net.cpp:129] Top shape: 100 48 7 7 (235200)
I1129 22:25:57.568680 35244 net.cpp:137] Memory required for data: 504852400
I1129 22:25:57.568680 35244 layer_factory.cpp:58] Creating layer fire6/relu_squeeze1x1
I1129 22:25:57.568680 35244 net.cpp:84] Creating Layer fire6/relu_squeeze1x1
I1129 22:25:57.568680 35244 net.cpp:406] fire6/relu_squeeze1x1 <- fire6/squeeze1x1
I1129 22:25:57.568680 35244 net.cpp:367] fire6/relu_squeeze1x1 -> fire6/squeeze1x1 (in-place)
I1129 22:25:57.568680 35244 net.cpp:122] Setting up fire6/relu_squeeze1x1
I1129 22:25:57.568680 35244 net.cpp:129] Top shape: 100 48 7 7 (235200)
I1129 22:25:57.568680 35244 net.cpp:137] Memory required for data: 505793200
I1129 22:25:57.568680 35244 layer_factory.cpp:58] Creating layer fire6/squeeze1x1_fire6/relu_squeeze1x1_0_split
I1129 22:25:57.568680 35244 net.cpp:84] Creating Layer fire6/squeeze1x1_fire6/relu_squeeze1x1_0_split
I1129 22:25:57.568680 35244 net.cpp:406] fire6/squeeze1x1_fire6/relu_squeeze1x1_0_split <- fire6/squeeze1x1
I1129 22:25:57.568680 35244 net.cpp:380] fire6/squeeze1x1_fire6/relu_squeeze1x1_0_split -> fire6/squeeze1x1_fire6/relu_squeeze1x1_0_split_0
I1129 22:25:57.568680 35244 net.cpp:380] fire6/squeeze1x1_fire6/relu_squeeze1x1_0_split -> fire6/squeeze1x1_fire6/relu_squeeze1x1_0_split_1
I1129 22:25:57.568680 35244 net.cpp:122] Setting up fire6/squeeze1x1_fire6/relu_squeeze1x1_0_split
I1129 22:25:57.568680 35244 net.cpp:129] Top shape: 100 48 7 7 (235200)
I1129 22:25:57.568680 35244 net.cpp:129] Top shape: 100 48 7 7 (235200)
I1129 22:25:57.568680 35244 net.cpp:137] Memory required for data: 507674800
I1129 22:25:57.568680 35244 layer_factory.cpp:58] Creating layer fire6/expand1x1
I1129 22:25:57.568680 35244 net.cpp:84] Creating Layer fire6/expand1x1
I1129 22:25:57.568680 35244 net.cpp:406] fire6/expand1x1 <- fire6/squeeze1x1_fire6/relu_squeeze1x1_0_split_0
I1129 22:25:57.568680 35244 net.cpp:380] fire6/expand1x1 -> fire6/expand1x1
I1129 22:25:57.570680 35244 net.cpp:122] Setting up fire6/expand1x1
I1129 22:25:57.570680 35244 net.cpp:129] Top shape: 100 192 7 7 (940800)
I1129 22:25:57.570680 35244 net.cpp:137] Memory required for data: 511438000
I1129 22:25:57.570680 35244 layer_factory.cpp:58] Creating layer fire6/relu_expand1x1
I1129 22:25:57.570680 35244 net.cpp:84] Creating Layer fire6/relu_expand1x1
I1129 22:25:57.570680 35244 net.cpp:406] fire6/relu_expand1x1 <- fire6/expand1x1
I1129 22:25:57.570680 35244 net.cpp:367] fire6/relu_expand1x1 -> fire6/expand1x1 (in-place)
I1129 22:25:57.570680 35244 net.cpp:122] Setting up fire6/relu_expand1x1
I1129 22:25:57.570680 35244 net.cpp:129] Top shape: 100 192 7 7 (940800)
I1129 22:25:57.570680 35244 net.cpp:137] Memory required for data: 515201200
I1129 22:25:57.570680 35244 layer_factory.cpp:58] Creating layer fire6/expand3x3
I1129 22:25:57.570680 35244 net.cpp:84] Creating Layer fire6/expand3x3
I1129 22:25:57.570680 35244 net.cpp:406] fire6/expand3x3 <- fire6/squeeze1x1_fire6/relu_squeeze1x1_0_split_1
I1129 22:25:57.570680 35244 net.cpp:380] fire6/expand3x3 -> fire6/expand3x3
I1129 22:25:57.572679 35244 net.cpp:122] Setting up fire6/expand3x3
I1129 22:25:57.572679 35244 net.cpp:129] Top shape: 100 192 7 7 (940800)
I1129 22:25:57.572679 35244 net.cpp:137] Memory required for data: 518964400
I1129 22:25:57.572679 35244 layer_factory.cpp:58] Creating layer fire6/relu_expand3x3
I1129 22:25:57.572679 35244 net.cpp:84] Creating Layer fire6/relu_expand3x3
I1129 22:25:57.572679 35244 net.cpp:406] fire6/relu_expand3x3 <- fire6/expand3x3
I1129 22:25:57.572679 35244 net.cpp:367] fire6/relu_expand3x3 -> fire6/expand3x3 (in-place)
I1129 22:25:57.572679 35244 net.cpp:122] Setting up fire6/relu_expand3x3
I1129 22:25:57.572679 35244 net.cpp:129] Top shape: 100 192 7 7 (940800)
I1129 22:25:57.572679 35244 net.cpp:137] Memory required for data: 522727600
I1129 22:25:57.572679 35244 layer_factory.cpp:58] Creating layer fire6/concat
I1129 22:25:57.572679 35244 net.cpp:84] Creating Layer fire6/concat
I1129 22:25:57.572679 35244 net.cpp:406] fire6/concat <- fire6/expand1x1
I1129 22:25:57.572679 35244 net.cpp:406] fire6/concat <- fire6/expand3x3
I1129 22:25:57.572679 35244 net.cpp:380] fire6/concat -> fire6/concat
I1129 22:25:57.572679 35244 net.cpp:122] Setting up fire6/concat
I1129 22:25:57.572679 35244 net.cpp:129] Top shape: 100 384 7 7 (1881600)
I1129 22:25:57.572679 35244 net.cpp:137] Memory required for data: 530254000
I1129 22:25:57.572679 35244 layer_factory.cpp:58] Creating layer fire7/squeeze1x1
I1129 22:25:57.572679 35244 net.cpp:84] Creating Layer fire7/squeeze1x1
I1129 22:25:57.572679 35244 net.cpp:406] fire7/squeeze1x1 <- fire6/concat
I1129 22:25:57.572679 35244 net.cpp:380] fire7/squeeze1x1 -> fire7/squeeze1x1
I1129 22:25:57.574681 35244 net.cpp:122] Setting up fire7/squeeze1x1
I1129 22:25:57.574681 35244 net.cpp:129] Top shape: 100 48 7 7 (235200)
I1129 22:25:57.574681 35244 net.cpp:137] Memory required for data: 531194800
I1129 22:25:57.574681 35244 layer_factory.cpp:58] Creating layer fire7/relu_squeeze1x1
I1129 22:25:57.574681 35244 net.cpp:84] Creating Layer fire7/relu_squeeze1x1
I1129 22:25:57.574681 35244 net.cpp:406] fire7/relu_squeeze1x1 <- fire7/squeeze1x1
I1129 22:25:57.574681 35244 net.cpp:367] fire7/relu_squeeze1x1 -> fire7/squeeze1x1 (in-place)
I1129 22:25:57.575680 35244 net.cpp:122] Setting up fire7/relu_squeeze1x1
I1129 22:25:57.575680 35244 net.cpp:129] Top shape: 100 48 7 7 (235200)
I1129 22:25:57.575680 35244 net.cpp:137] Memory required for data: 532135600
I1129 22:25:57.575680 35244 layer_factory.cpp:58] Creating layer fire7/squeeze1x1_fire7/relu_squeeze1x1_0_split
I1129 22:25:57.575680 35244 net.cpp:84] Creating Layer fire7/squeeze1x1_fire7/relu_squeeze1x1_0_split
I1129 22:25:57.575680 35244 net.cpp:406] fire7/squeeze1x1_fire7/relu_squeeze1x1_0_split <- fire7/squeeze1x1
I1129 22:25:57.575680 35244 net.cpp:380] fire7/squeeze1x1_fire7/relu_squeeze1x1_0_split -> fire7/squeeze1x1_fire7/relu_squeeze1x1_0_split_0
I1129 22:25:57.575680 35244 net.cpp:380] fire7/squeeze1x1_fire7/relu_squeeze1x1_0_split -> fire7/squeeze1x1_fire7/relu_squeeze1x1_0_split_1
I1129 22:25:57.575680 35244 net.cpp:122] Setting up fire7/squeeze1x1_fire7/relu_squeeze1x1_0_split
I1129 22:25:57.575680 35244 net.cpp:129] Top shape: 100 48 7 7 (235200)
I1129 22:25:57.575680 35244 net.cpp:129] Top shape: 100 48 7 7 (235200)
I1129 22:25:57.575680 35244 net.cpp:137] Memory required for data: 534017200
I1129 22:25:57.575680 35244 layer_factory.cpp:58] Creating layer fire7/expand1x1
I1129 22:25:57.575680 35244 net.cpp:84] Creating Layer fire7/expand1x1
I1129 22:25:57.575680 35244 net.cpp:406] fire7/expand1x1 <- fire7/squeeze1x1_fire7/relu_squeeze1x1_0_split_0
I1129 22:25:57.575680 35244 net.cpp:380] fire7/expand1x1 -> fire7/expand1x1
I1129 22:25:57.576679 35244 net.cpp:122] Setting up fire7/expand1x1
I1129 22:25:57.576679 35244 net.cpp:129] Top shape: 100 192 7 7 (940800)
I1129 22:25:57.576679 35244 net.cpp:137] Memory required for data: 537780400
I1129 22:25:57.576679 35244 layer_factory.cpp:58] Creating layer fire7/relu_expand1x1
I1129 22:25:57.576679 35244 net.cpp:84] Creating Layer fire7/relu_expand1x1
I1129 22:25:57.576679 35244 net.cpp:406] fire7/relu_expand1x1 <- fire7/expand1x1
I1129 22:25:57.576679 35244 net.cpp:367] fire7/relu_expand1x1 -> fire7/expand1x1 (in-place)
I1129 22:25:57.576679 35244 net.cpp:122] Setting up fire7/relu_expand1x1
I1129 22:25:57.576679 35244 net.cpp:129] Top shape: 100 192 7 7 (940800)
I1129 22:25:57.576679 35244 net.cpp:137] Memory required for data: 541543600
I1129 22:25:57.576679 35244 layer_factory.cpp:58] Creating layer fire7/expand3x3
I1129 22:25:57.576679 35244 net.cpp:84] Creating Layer fire7/expand3x3
I1129 22:25:57.576679 35244 net.cpp:406] fire7/expand3x3 <- fire7/squeeze1x1_fire7/relu_squeeze1x1_0_split_1
I1129 22:25:57.576679 35244 net.cpp:380] fire7/expand3x3 -> fire7/expand3x3
I1129 22:25:57.578680 35244 net.cpp:122] Setting up fire7/expand3x3
I1129 22:25:57.578680 35244 net.cpp:129] Top shape: 100 192 7 7 (940800)
I1129 22:25:57.578680 35244 net.cpp:137] Memory required for data: 545306800
I1129 22:25:57.578680 35244 layer_factory.cpp:58] Creating layer fire7/relu_expand3x3
I1129 22:25:57.578680 35244 net.cpp:84] Creating Layer fire7/relu_expand3x3
I1129 22:25:57.578680 35244 net.cpp:406] fire7/relu_expand3x3 <- fire7/expand3x3
I1129 22:25:57.578680 35244 net.cpp:367] fire7/relu_expand3x3 -> fire7/expand3x3 (in-place)
I1129 22:25:57.578680 35244 net.cpp:122] Setting up fire7/relu_expand3x3
I1129 22:25:57.578680 35244 net.cpp:129] Top shape: 100 192 7 7 (940800)
I1129 22:25:57.578680 35244 net.cpp:137] Memory required for data: 549070000
I1129 22:25:57.578680 35244 layer_factory.cpp:58] Creating layer fire7/concat
I1129 22:25:57.578680 35244 net.cpp:84] Creating Layer fire7/concat
I1129 22:25:57.578680 35244 net.cpp:406] fire7/concat <- fire7/expand1x1
I1129 22:25:57.578680 35244 net.cpp:406] fire7/concat <- fire7/expand3x3
I1129 22:25:57.578680 35244 net.cpp:380] fire7/concat -> fire7/concat
I1129 22:25:57.578680 35244 net.cpp:122] Setting up fire7/concat
I1129 22:25:57.578680 35244 net.cpp:129] Top shape: 100 384 7 7 (1881600)
I1129 22:25:57.578680 35244 net.cpp:137] Memory required for data: 556596400
I1129 22:25:57.578680 35244 layer_factory.cpp:58] Creating layer fire8/squeeze1x1
I1129 22:25:57.578680 35244 net.cpp:84] Creating Layer fire8/squeeze1x1
I1129 22:25:57.578680 35244 net.cpp:406] fire8/squeeze1x1 <- fire7/concat
I1129 22:25:57.578680 35244 net.cpp:380] fire8/squeeze1x1 -> fire8/squeeze1x1
I1129 22:25:57.580679 35244 net.cpp:122] Setting up fire8/squeeze1x1
I1129 22:25:57.580679 35244 net.cpp:129] Top shape: 100 64 7 7 (313600)
I1129 22:25:57.580679 35244 net.cpp:137] Memory required for data: 557850800
I1129 22:25:57.580679 35244 layer_factory.cpp:58] Creating layer fire8/relu_squeeze1x1
I1129 22:25:57.580679 35244 net.cpp:84] Creating Layer fire8/relu_squeeze1x1
I1129 22:25:57.580679 35244 net.cpp:406] fire8/relu_squeeze1x1 <- fire8/squeeze1x1
I1129 22:25:57.580679 35244 net.cpp:367] fire8/relu_squeeze1x1 -> fire8/squeeze1x1 (in-place)
I1129 22:25:57.580679 35244 net.cpp:122] Setting up fire8/relu_squeeze1x1
I1129 22:25:57.580679 35244 net.cpp:129] Top shape: 100 64 7 7 (313600)
I1129 22:25:57.580679 35244 net.cpp:137] Memory required for data: 559105200
I1129 22:25:57.580679 35244 layer_factory.cpp:58] Creating layer fire8/squeeze1x1_fire8/relu_squeeze1x1_0_split
I1129 22:25:57.580679 35244 net.cpp:84] Creating Layer fire8/squeeze1x1_fire8/relu_squeeze1x1_0_split
I1129 22:25:57.580679 35244 net.cpp:406] fire8/squeeze1x1_fire8/relu_squeeze1x1_0_split <- fire8/squeeze1x1
I1129 22:25:57.580679 35244 net.cpp:380] fire8/squeeze1x1_fire8/relu_squeeze1x1_0_split -> fire8/squeeze1x1_fire8/relu_squeeze1x1_0_split_0
I1129 22:25:57.580679 35244 net.cpp:380] fire8/squeeze1x1_fire8/relu_squeeze1x1_0_split -> fire8/squeeze1x1_fire8/relu_squeeze1x1_0_split_1
I1129 22:25:57.580679 35244 net.cpp:122] Setting up fire8/squeeze1x1_fire8/relu_squeeze1x1_0_split
I1129 22:25:57.580679 35244 net.cpp:129] Top shape: 100 64 7 7 (313600)
I1129 22:25:57.580679 35244 net.cpp:129] Top shape: 100 64 7 7 (313600)
I1129 22:25:57.580679 35244 net.cpp:137] Memory required for data: 561614000
I1129 22:25:57.580679 35244 layer_factory.cpp:58] Creating layer fire8/expand1x1
I1129 22:25:57.580679 35244 net.cpp:84] Creating Layer fire8/expand1x1
I1129 22:25:57.580679 35244 net.cpp:406] fire8/expand1x1 <- fire8/squeeze1x1_fire8/relu_squeeze1x1_0_split_0
I1129 22:25:57.580679 35244 net.cpp:380] fire8/expand1x1 -> fire8/expand1x1
I1129 22:25:57.581681 35244 net.cpp:122] Setting up fire8/expand1x1
I1129 22:25:57.581681 35244 net.cpp:129] Top shape: 100 256 7 7 (1254400)
I1129 22:25:57.581681 35244 net.cpp:137] Memory required for data: 566631600
I1129 22:25:57.581681 35244 layer_factory.cpp:58] Creating layer fire8/relu_expand1x1
I1129 22:25:57.581681 35244 net.cpp:84] Creating Layer fire8/relu_expand1x1
I1129 22:25:57.581681 35244 net.cpp:406] fire8/relu_expand1x1 <- fire8/expand1x1
I1129 22:25:57.581681 35244 net.cpp:367] fire8/relu_expand1x1 -> fire8/expand1x1 (in-place)
I1129 22:25:57.581681 35244 net.cpp:122] Setting up fire8/relu_expand1x1
I1129 22:25:57.581681 35244 net.cpp:129] Top shape: 100 256 7 7 (1254400)
I1129 22:25:57.581681 35244 net.cpp:137] Memory required for data: 571649200
I1129 22:25:57.581681 35244 layer_factory.cpp:58] Creating layer fire8/expand3x3
I1129 22:25:57.581681 35244 net.cpp:84] Creating Layer fire8/expand3x3
I1129 22:25:57.581681 35244 net.cpp:406] fire8/expand3x3 <- fire8/squeeze1x1_fire8/relu_squeeze1x1_0_split_1
I1129 22:25:57.581681 35244 net.cpp:380] fire8/expand3x3 -> fire8/expand3x3
I1129 22:25:57.583680 35244 net.cpp:122] Setting up fire8/expand3x3
I1129 22:25:57.583680 35244 net.cpp:129] Top shape: 100 256 7 7 (1254400)
I1129 22:25:57.583680 35244 net.cpp:137] Memory required for data: 576666800
I1129 22:25:57.584679 35244 layer_factory.cpp:58] Creating layer fire8/relu_expand3x3
I1129 22:25:57.584679 35244 net.cpp:84] Creating Layer fire8/relu_expand3x3
I1129 22:25:57.584679 35244 net.cpp:406] fire8/relu_expand3x3 <- fire8/expand3x3
I1129 22:25:57.584679 35244 net.cpp:367] fire8/relu_expand3x3 -> fire8/expand3x3 (in-place)
I1129 22:25:57.584679 35244 net.cpp:122] Setting up fire8/relu_expand3x3
I1129 22:25:57.584679 35244 net.cpp:129] Top shape: 100 256 7 7 (1254400)
I1129 22:25:57.584679 35244 net.cpp:137] Memory required for data: 581684400
I1129 22:25:57.584679 35244 layer_factory.cpp:58] Creating layer fire8/concat
I1129 22:25:57.584679 35244 net.cpp:84] Creating Layer fire8/concat
I1129 22:25:57.584679 35244 net.cpp:406] fire8/concat <- fire8/expand1x1
I1129 22:25:57.584679 35244 net.cpp:406] fire8/concat <- fire8/expand3x3
I1129 22:25:57.584679 35244 net.cpp:380] fire8/concat -> fire8/concat
I1129 22:25:57.584679 35244 net.cpp:122] Setting up fire8/concat
I1129 22:25:57.584679 35244 net.cpp:129] Top shape: 100 512 7 7 (2508800)
I1129 22:25:57.584679 35244 net.cpp:137] Memory required for data: 591719600
I1129 22:25:57.584679 35244 layer_factory.cpp:58] Creating layer fire9/squeeze1x1
I1129 22:25:57.584679 35244 net.cpp:84] Creating Layer fire9/squeeze1x1
I1129 22:25:57.584679 35244 net.cpp:406] fire9/squeeze1x1 <- fire8/concat
I1129 22:25:57.584679 35244 net.cpp:380] fire9/squeeze1x1 -> fire9/squeeze1x1
I1129 22:25:57.585680 35244 net.cpp:122] Setting up fire9/squeeze1x1
I1129 22:25:57.585680 35244 net.cpp:129] Top shape: 100 64 7 7 (313600)
I1129 22:25:57.585680 35244 net.cpp:137] Memory required for data: 592974000
I1129 22:25:57.585680 35244 layer_factory.cpp:58] Creating layer fire9/relu_squeeze1x1
I1129 22:25:57.585680 35244 net.cpp:84] Creating Layer fire9/relu_squeeze1x1
I1129 22:25:57.585680 35244 net.cpp:406] fire9/relu_squeeze1x1 <- fire9/squeeze1x1
I1129 22:25:57.585680 35244 net.cpp:367] fire9/relu_squeeze1x1 -> fire9/squeeze1x1 (in-place)
I1129 22:25:57.586679 35244 net.cpp:122] Setting up fire9/relu_squeeze1x1
I1129 22:25:57.586679 35244 net.cpp:129] Top shape: 100 64 7 7 (313600)
I1129 22:25:57.586679 35244 net.cpp:137] Memory required for data: 594228400
I1129 22:25:57.586679 35244 layer_factory.cpp:58] Creating layer fire9/squeeze1x1_fire9/relu_squeeze1x1_0_split
I1129 22:25:57.586679 35244 net.cpp:84] Creating Layer fire9/squeeze1x1_fire9/relu_squeeze1x1_0_split
I1129 22:25:57.586679 35244 net.cpp:406] fire9/squeeze1x1_fire9/relu_squeeze1x1_0_split <- fire9/squeeze1x1
I1129 22:25:57.586679 35244 net.cpp:380] fire9/squeeze1x1_fire9/relu_squeeze1x1_0_split -> fire9/squeeze1x1_fire9/relu_squeeze1x1_0_split_0
I1129 22:25:57.586679 35244 net.cpp:380] fire9/squeeze1x1_fire9/relu_squeeze1x1_0_split -> fire9/squeeze1x1_fire9/relu_squeeze1x1_0_split_1
I1129 22:25:57.586679 35244 net.cpp:122] Setting up fire9/squeeze1x1_fire9/relu_squeeze1x1_0_split
I1129 22:25:57.586679 35244 net.cpp:129] Top shape: 100 64 7 7 (313600)
I1129 22:25:57.586679 35244 net.cpp:129] Top shape: 100 64 7 7 (313600)
I1129 22:25:57.586679 35244 net.cpp:137] Memory required for data: 596737200
I1129 22:25:57.586679 35244 layer_factory.cpp:58] Creating layer fire9/expand1x1
I1129 22:25:57.586679 35244 net.cpp:84] Creating Layer fire9/expand1x1
I1129 22:25:57.586679 35244 net.cpp:406] fire9/expand1x1 <- fire9/squeeze1x1_fire9/relu_squeeze1x1_0_split_0
I1129 22:25:57.586679 35244 net.cpp:380] fire9/expand1x1 -> fire9/expand1x1
I1129 22:25:57.587680 35244 net.cpp:122] Setting up fire9/expand1x1
I1129 22:25:57.587680 35244 net.cpp:129] Top shape: 100 256 7 7 (1254400)
I1129 22:25:57.587680 35244 net.cpp:137] Memory required for data: 601754800
I1129 22:25:57.587680 35244 layer_factory.cpp:58] Creating layer fire9/relu_expand1x1
I1129 22:25:57.587680 35244 net.cpp:84] Creating Layer fire9/relu_expand1x1
I1129 22:25:57.587680 35244 net.cpp:406] fire9/relu_expand1x1 <- fire9/expand1x1
I1129 22:25:57.587680 35244 net.cpp:367] fire9/relu_expand1x1 -> fire9/expand1x1 (in-place)
I1129 22:25:57.587680 35244 net.cpp:122] Setting up fire9/relu_expand1x1
I1129 22:25:57.587680 35244 net.cpp:129] Top shape: 100 256 7 7 (1254400)
I1129 22:25:57.587680 35244 net.cpp:137] Memory required for data: 606772400
I1129 22:25:57.587680 35244 layer_factory.cpp:58] Creating layer fire9/expand3x3
I1129 22:25:57.587680 35244 net.cpp:84] Creating Layer fire9/expand3x3
I1129 22:25:57.587680 35244 net.cpp:406] fire9/expand3x3 <- fire9/squeeze1x1_fire9/relu_squeeze1x1_0_split_1
I1129 22:25:57.587680 35244 net.cpp:380] fire9/expand3x3 -> fire9/expand3x3
I1129 22:25:57.589679 35244 net.cpp:122] Setting up fire9/expand3x3
I1129 22:25:57.589679 35244 net.cpp:129] Top shape: 100 256 7 7 (1254400)
I1129 22:25:57.589679 35244 net.cpp:137] Memory required for data: 611790000
I1129 22:25:57.589679 35244 layer_factory.cpp:58] Creating layer fire9/relu_expand3x3
I1129 22:25:57.589679 35244 net.cpp:84] Creating Layer fire9/relu_expand3x3
I1129 22:25:57.589679 35244 net.cpp:406] fire9/relu_expand3x3 <- fire9/expand3x3
I1129 22:25:57.589679 35244 net.cpp:367] fire9/relu_expand3x3 -> fire9/expand3x3 (in-place)
I1129 22:25:57.590679 35244 net.cpp:122] Setting up fire9/relu_expand3x3
I1129 22:25:57.590679 35244 net.cpp:129] Top shape: 100 256 7 7 (1254400)
I1129 22:25:57.590679 35244 net.cpp:137] Memory required for data: 616807600
I1129 22:25:57.590679 35244 layer_factory.cpp:58] Creating layer fire9/concat
I1129 22:25:57.590679 35244 net.cpp:84] Creating Layer fire9/concat
I1129 22:25:57.590679 35244 net.cpp:406] fire9/concat <- fire9/expand1x1
I1129 22:25:57.590679 35244 net.cpp:406] fire9/concat <- fire9/expand3x3
I1129 22:25:57.590679 35244 net.cpp:380] fire9/concat -> fire9/concat
I1129 22:25:57.590679 35244 net.cpp:122] Setting up fire9/concat
I1129 22:25:57.590679 35244 net.cpp:129] Top shape: 100 512 7 7 (2508800)
I1129 22:25:57.590679 35244 net.cpp:137] Memory required for data: 626842800
I1129 22:25:57.590679 35244 layer_factory.cpp:58] Creating layer drop9
I1129 22:25:57.590679 35244 net.cpp:84] Creating Layer drop9
I1129 22:25:57.590679 35244 net.cpp:406] drop9 <- fire9/concat
I1129 22:25:57.590679 35244 net.cpp:367] drop9 -> fire9/concat (in-place)
I1129 22:25:57.590679 35244 net.cpp:122] Setting up drop9
I1129 22:25:57.590679 35244 net.cpp:129] Top shape: 100 512 7 7 (2508800)
I1129 22:25:57.590679 35244 net.cpp:137] Memory required for data: 636878000
I1129 22:25:57.590679 35244 layer_factory.cpp:58] Creating layer conv10
I1129 22:25:57.590679 35244 net.cpp:84] Creating Layer conv10
I1129 22:25:57.590679 35244 net.cpp:406] conv10 <- fire9/concat
I1129 22:25:57.590679 35244 net.cpp:380] conv10 -> conv10
I1129 22:25:57.591681 35244 net.cpp:122] Setting up conv10
I1129 22:25:57.591681 35244 net.cpp:129] Top shape: 100 10 7 7 (49000)
I1129 22:25:57.591681 35244 net.cpp:137] Memory required for data: 637074000
I1129 22:25:57.591681 35244 layer_factory.cpp:58] Creating layer relu_conv10
I1129 22:25:57.591681 35244 net.cpp:84] Creating Layer relu_conv10
I1129 22:25:57.592680 35244 net.cpp:406] relu_conv10 <- conv10
I1129 22:25:57.592680 35244 net.cpp:367] relu_conv10 -> conv10 (in-place)
I1129 22:25:57.592680 35244 net.cpp:122] Setting up relu_conv10
I1129 22:25:57.592680 35244 net.cpp:129] Top shape: 100 10 7 7 (49000)
I1129 22:25:57.592680 35244 net.cpp:137] Memory required for data: 637270000
I1129 22:25:57.592680 35244 layer_factory.cpp:58] Creating layer pool10
I1129 22:25:57.592680 35244 net.cpp:84] Creating Layer pool10
I1129 22:25:57.592680 35244 net.cpp:406] pool10 <- conv10
I1129 22:25:57.592680 35244 net.cpp:380] pool10 -> pool10
I1129 22:25:57.592680 35244 net.cpp:122] Setting up pool10
I1129 22:25:57.592680 35244 net.cpp:129] Top shape: 100 10 1 1 (1000)
I1129 22:25:57.592680 35244 net.cpp:137] Memory required for data: 637274000
I1129 22:25:57.592680 35244 layer_factory.cpp:58] Creating layer pool10_pool10_0_split
I1129 22:25:57.592680 35244 net.cpp:84] Creating Layer pool10_pool10_0_split
I1129 22:25:57.592680 35244 net.cpp:406] pool10_pool10_0_split <- pool10
I1129 22:25:57.592680 35244 net.cpp:380] pool10_pool10_0_split -> pool10_pool10_0_split_0
I1129 22:25:57.592680 35244 net.cpp:380] pool10_pool10_0_split -> pool10_pool10_0_split_1
I1129 22:25:57.592680 35244 net.cpp:122] Setting up pool10_pool10_0_split
I1129 22:25:57.592680 35244 net.cpp:129] Top shape: 100 10 1 1 (1000)
I1129 22:25:57.592680 35244 net.cpp:129] Top shape: 100 10 1 1 (1000)
I1129 22:25:57.592680 35244 net.cpp:137] Memory required for data: 637282000
I1129 22:25:57.592680 35244 layer_factory.cpp:58] Creating layer accuracy_training
I1129 22:25:57.592680 35244 net.cpp:84] Creating Layer accuracy_training
I1129 22:25:57.592680 35244 net.cpp:406] accuracy_training <- pool10_pool10_0_split_0
I1129 22:25:57.592680 35244 net.cpp:406] accuracy_training <- label_cifar_1_split_0
…
