…
I1024 16:23:20.390666  1960 net.cpp:294] The NetState phase (0) differed from the phase (1) specified by a rule in layer bn_conv12
I1024 16:23:20.390666  1960 net.cpp:294] The NetState phase (0) differed from the phase (1) specified by a rule in layer accuracy
I1024 16:23:20.390666  1960 net.cpp:51] Initializing net from parameters: 
name: "MNIST_SimpleNet_GP_13L_drpall_5Mil_66_maxdrp"
state {
  phase: TRAIN
  level: 0
  stage: ""
}
layer {
  name: "mnist"
  type: "Data"
  top: "data"
  top: "label"
  include {
    phase: TRAIN
  }
  data_param {
    source: "examples/mnist/mnist_train_lmdb_norm2"
    batch_size: 100
    backend: LMDB
  }
}
layer {
  name: "conv1"
  type: "Convolution"
  bottom: "data"
  top: "conv1"
  param {
    lr_mult: 1
  }
  convolution_param {
    num_output: 66
    bias_term: true
    pad: 1
    kernel_size: 3
    stride: 1
    weight_filler {
      type: "xavier"
    }
  }
}
layer {
  name: "bn1"
  type: "BatchNorm"
  bottom: "conv1"
  top: "conv1"
  param {
    lr_mult: 0
    decay_mult: 0
  }
  param {
    lr_mult: 0
    decay_mult: 0
  }
  param {
    lr_mult: 0
    decay_mult: 0
  }
  include {
    phase: TRAIN
  }
  batch_norm_param {
    use_global_stats: false
    moving_average_fraction: 0.95
  }
}
layer {
  name: "scale1"
  type: "Scale"
  bottom: "conv1"
  top: "conv1"
  scale_param {
    bias_term: true
  }
}
layer {
  name: "relu1"
  type: "ReLU"
  bottom: "conv1"
  top: "conv1"
}
layer {
  name: "drop1"
  type: "Dropout"
  bottom: "conv1"
  top: "conv1"
  dropout_param {
    dropout_ratio: 0.2
  }
}
layer {
  name: "conv1_0"
  type: "Convolution"
  bottom: "conv1"
  top: "conv1_0"
  param {
    lr_mult: 1
  }
  convolution_param {
    num_output: 64
    bias_term: true
    pad: 1
    kernel_size: 3
    stride: 1
    weight_filler {
      type: "xavier"
    }
  }
}
layer {
  name: "bn1_0"
  type: "BatchNorm"
  bottom: "conv1_0"
  top: "conv1_0"
  param {
    lr_mult: 0
    decay_mult: 0
  }
  param {
    lr_mult: 0
    decay_mult: 0
  }
  param {
    lr_mult: 0
    decay_mult: 0
  }
  include {
    phase: TRAIN
  }
  batch_norm_param {
    use_global_stats: false
    moving_average_fraction: 0.95
  }
}
layer {
  name: "scale1_0"
  type: "Scale"
  bottom: "conv1_0"
  top: "conv1_0"
  scale_param {
    bias_term: true
  }
}
layer {
  name: "relu1_0"
  type: "ReLU"
  bottom: "conv1_0"
  top: "conv1_0"
}
layer {
  name: "drop2"
  type: "Dropout"
  bottom: "conv1_0"
  top: "conv1_0"
  dropout_param {
    dropout_ratio: 0.2
  }
}
layer {
  name: "conv2"
  type: "Convolution"
  bottom: "conv1_0"
  top: "conv2"
  param {
    lr_mult: 1
  }
  convolution_param {
    num_output: 64
    bias_term: true
    pad: 1
    kernel_size: 3
    stride: 1
    weight_filler {
      type: "gaussian"
      std: 0.01
    }
  }
}
layer {
  name: "bn2"
  type: "BatchNorm"
  bottom: "conv2"
  top: "conv2"
  param {
    lr_mult: 0
    decay_mult: 0
  }
  param {
    lr_mult: 0
    decay_mult: 0
  }
  param {
    lr_mult: 0
    decay_mult: 0
  }
  include {
    phase: TRAIN
  }
  batch_norm_param {
    use_global_stats: false
    moving_average_fraction: 0.95
  }
}
layer {
  name: "scale2"
  type: "Scale"
  bottom: "conv2"
  top: "conv2"
  scale_param {
    bias_term: true
  }
}
layer {
  name: "relu2"
  type: "ReLU"
  bottom: "conv2"
  top: "conv2"
}
layer {
  name: "drop3"
  type: "Dropout"
  bottom: "conv2"
  top: "conv2"
  dropout_param {
    dropout_ratio: 0.2
  }
}
layer {
  name: "conv2_1"
  type: "Convolution"
  bottom: "conv2"
  top: "conv2_1"
  param {
    lr_mult: 1
  }
  convolution_param {
    num_output: 64
    bias_term: true
    pad: 1
    kernel_size: 3
    stride: 1
    weight_filler {
      type: "gaussian"
      std: 0.01
    }
  }
}
layer {
  name: "bn2_1"
  type: "BatchNorm"
  bottom: "conv2_1"
  top: "conv2_1"
  param {
    lr_mult: 0
    decay_mult: 0
  }
  param {
    lr_mult: 0
    decay_mult: 0
  }
  param {
    lr_mult: 0
    decay_mult: 0
  }
  include {
    phase: TRAIN
  }
  batch_norm_param {
    use_global_stats: false
    moving_average_fraction: 0.95
  }
}
layer {
  name: "scale2_1"
  type: "Scale"
  bottom: "conv2_1"
  top: "conv2_1"
  scale_param {
    bias_term: true
  }
}
layer {
  name: "relu2_1"
  type: "ReLU"
  bottom: "conv2_1"
  top: "conv2_1"
}
layer {
  name: "drop4"
  type: "Dropout"
  bottom: "conv2_1"
  top: "conv2_1"
  dropout_param {
    dropout_ratio: 0.2
  }
}
layer {
  name: "conv2_2"
  type: "Convolution"
  bottom: "conv2_1"
  top: "conv2_2"
  param {
    lr_mult: 1
  }
  convolution_param {
    num_output: 96
    bias_term: true
    pad: 1
    kernel_size: 3
    stride: 1
    weight_filler {
      type: "gaussian"
      std: 0.01
    }
  }
}
layer {
  name: "bn2_2"
  type: "BatchNorm"
  bottom: "conv2_2"
  top: "conv2_2"
  param {
    lr_mult: 0
    decay_mult: 0
  }
  param {
    lr_mult: 0
    decay_mult: 0
  }
  param {
    lr_mult: 0
    decay_mult: 0
  }
  include {
    phase: TRAIN
  }
  batch_norm_param {
    use_global_stats: false
    moving_average_fraction: 0.95
  }
}
layer {
  name: "scale2_2"
  type: "Scale"
  bottom: "conv2_2"
  top: "conv2_2"
  scale_param {
    bias_term: true
  }
}
layer {
  name: "relu2_2"
  type: "ReLU"
  bottom: "conv2_2"
  top: "conv2_2"
}
layer {
  name: "pool2_1"
  type: "Pooling"
  bottom: "conv2_2"
  top: "pool2_1"
  pooling_param {
    pool: MAX
    kernel_size: 2
    stride: 2
  }
}
layer {
  name: "drop5"
  type: "Dropout"
  bottom: "pool2_1"
  top: "pool2_1"
  dropout_param {
    dropout_ratio: 0.2
  }
}
layer {
  name: "conv3"
  type: "Convolution"
  bottom: "pool2_1"
  top: "conv3"
  param {
    lr_mult: 1
  }
  convolution_param {
    num_output: 96
    bias_term: true
    pad: 1
    kernel_size: 3
    stride: 1
    weight_filler {
      type: "xavier"
    }
  }
}
layer {
  name: "bn3"
  type: "BatchNorm"
  bottom: "conv3"
  top: "conv3"
  param {
    lr_mult: 0
    decay_mult: 0
  }
  param {
    lr_mult: 0
    decay_mult: 0
  }
  param {
    lr_mult: 0
    decay_mult: 0
  }
  include {
    phase: TRAIN
  }
  batch_norm_param {
    use_global_stats: false
    moving_average_fraction: 0.95
  }
}
layer {
  name: "scale3"
  type: "Scale"
  bottom: "conv3"
  top: "conv3"
  scale_param {
    bias_term: true
  }
}
layer {
  name: "relu3"
  type: "ReLU"
  bottom: "conv3"
  top: "conv3"
}
layer {
  name: "drop6"
  type: "Dropout"
  bottom: "conv3"
  top: "conv3"
  dropout_param {
    dropout_ratio: 0.2
  }
}
layer {
  name: "conv3_1"
  type: "Convolution"
  bottom: "conv3"
  top: "conv3_1"
  param {
    lr_mult: 1
  }
  convolution_param {
    num_output: 96
    bias_term: true
    pad: 1
    kernel_size: 3
    stride: 1
    weight_filler {
      type: "xavier"
    }
  }
}
layer {
  name: "bn3_1"
  type: "BatchNorm"
  bottom: "conv3_1"
  top: "conv3_1"
  param {
    lr_mult: 0
    decay_mult: 0
  }
  param {
    lr_mult: 0
    decay_mult: 0
  }
  param {
    lr_mult: 0
    decay_mult: 0
  }
  include {
    phase: TRAIN
  }
  batch_norm_param {
    use_global_stats: false
    moving_average_fraction: 0.95
  }
}
layer {
  name: "scale3_1"
  type: "Scale"
  bottom: "conv3_1"
  top: "conv3_1"
  scale_param {
    bias_term: true
  }
}
layer {
  name: "relu3_1"
  type: "ReLU"
  bottom: "conv3_1"
  top: "conv3_1"
}
layer {
  name: "drop6_1"
  type: "Dropout"
  bottom: "conv3_1"
  top: "conv3_1"
  dropout_param {
    dropout_ratio: 0.2
  }
}
layer {
  name: "conv4"
  type: "Convolution"
  bottom: "conv3_1"
  top: "conv4"
  param {
    lr_mult: 1
  }
  convolution_param {
    num_output: 96
    bias_term: true
    pad: 1
    kernel_size: 3
    stride: 1
    weight_filler {
      type: "xavier"
    }
  }
}
layer {
  name: "bn4"
  type: "BatchNorm"
  bottom: "conv4"
  top: "conv4"
  param {
    lr_mult: 0
    decay_mult: 0
  }
  param {
    lr_mult: 0
    decay_mult: 0
  }
  param {
    lr_mult: 0
    decay_mult: 0
  }
  include {
    phase: TRAIN
  }
  batch_norm_param {
    use_global_stats: false
    moving_average_fraction: 0.95
  }
}
layer {
  name: "scale4"
  type: "Scale"
  bottom: "conv4"
  top: "conv4"
  scale_param {
    bias_term: true
  }
}
layer {
  name: "relu4"
  type: "ReLU"
  bottom: "conv4"
  top: "conv4"
}
layer {
  name: "drop7"
  type: "Dropout"
  bottom: "conv4"
  top: "conv4"
  dropout_param {
    dropout_ratio: 0.2
  }
}
layer {
  name: "conv4_1"
  type: "Convolution"
  bottom: "conv4"
  top: "conv4_1"
  param {
    lr_mult: 1
  }
  convolution_param {
    num_output: 96
    bias_term: true
    pad: 1
    kernel_size: 3
    stride: 1
    weight_filler {
      type: "xavier"
    }
  }
}
layer {
  name: "bn4_1"
  type: "BatchNorm"
  bottom: "conv4_1"
  top: "conv4_1"
  param {
    lr_mult: 0
    decay_mult: 0
  }
  param {
    lr_mult: 0
    decay_mult: 0
  }
  param {
    lr_mult: 0
    decay_mult: 0
  }
  include {
    phase: TRAIN
  }
  batch_norm_param {
    use_global_stats: false
    moving_average_fraction: 0.95
  }
}
layer {
  name: "scale4_1"
  type: "Scale"
  bottom: "conv4_1"
  top: "conv4_1"
  scale_param {
    bias_term: true
  }
}
layer {
  name: "relu4_1"
  type: "ReLU"
  bottom: "conv4_1"
  top: "conv4_1"
}
layer {
  name: "drop8"
  type: "Dropout"
  bottom: "conv4_1"
  top: "conv4_1"
  dropout_param {
    dropout_ratio: 0.2
  }
}
layer {
  name: "conv4_2"
  type: "Convolution"
  bottom: "conv4_1"
  top: "conv4_2"
  param {
    lr_mult: 1
  }
  convolution_param {
    num_output: 144
    bias_term: true
    pad: 1
    kernel_size: 3
    stride: 1
    weight_filler {
      type: "xavier"
    }
  }
}
layer {
  name: "bn4_2"
  type: "BatchNorm"
  bottom: "conv4_2"
  top: "conv4_2"
  param {
    lr_mult: 0
    decay_mult: 0
  }
  param {
    lr_mult: 0
    decay_mult: 0
  }
  param {
    lr_mult: 0
    decay_mult: 0
  }
  include {
    phase: TRAIN
  }
  batch_norm_param {
    use_global_stats: false
    moving_average_fraction: 0.95
  }
}
layer {
  name: "scale4_2"
  type: "Scale"
  bottom: "conv4_2"
  top: "conv4_2"
  scale_param {
    bias_term: true
  }
}
layer {
  name: "relu4_2"
  type: "ReLU"
  bottom: "conv4_2"
  top: "conv4_2"
}
layer {
  name: "pool4_2"
  type: "Pooling"
  bottom: "conv4_2"
  top: "pool4_2"
  pooling_param {
    pool: MAX
    kernel_size: 2
    stride: 2
  }
}
layer {
  name: "drop9"
  type: "Dropout"
  bottom: "pool4_2"
  top: "pool4_2"
  dropout_param {
    dropout_ratio: 0.2
  }
}
layer {
  name: "conv4_0"
  type: "Convolution"
  bottom: "pool4_2"
  top: "conv4_0"
  param {
    lr_mult: 1
  }
  convolution_param {
    num_output: 144
    bias_term: true
    pad: 1
    kernel_size: 3
    stride: 1
    weight_filler {
      type: "xavier"
    }
  }
}
layer {
  name: "bn4_0"
  type: "BatchNorm"
  bottom: "conv4_0"
  top: "conv4_0"
  param {
    lr_mult: 0
    decay_mult: 0
  }
  param {
    lr_mult: 0
    decay_mult: 0
  }
  param {
    lr_mult: 0
    decay_mult: 0
  }
  include {
    phase: TRAIN
  }
  batch_norm_param {
    use_global_stats: false
    moving_average_fraction: 0.95
  }
}
layer {
  name: "scale4_0"
  type: "Scale"
  bottom: "conv4_0"
  top: "conv4_0"
  scale_param {
    bias_term: true
  }
}
layer {
  name: "relu4_0"
  type: "ReLU"
  bottom: "conv4_0"
  top: "conv4_0"
}
layer {
  name: "drop10"
  type: "Dropout"
  bottom: "conv4_0"
  top: "conv4_0"
  dropout_param {
    dropout_ratio: 0.2
  }
}
layer {
  name: "conv11"
  type: "Convolution"
  bottom: "conv4_0"
  top: "conv11"
  param {
    lr_mult: 1
    decay_mult: 1
  }
  param {
    lr_mult: 2
    decay_mult: 0
  }
  convolution_param {
    num_output: 178
    pad: 1
    kernel_size: 3
    weight_filler {
      type: "xavier"
    }
    bias_filler {
      type: "constant"
      value: 0
    }
  }
}
layer {
  name: "bn_conv11"
  type: "BatchNorm"
  bottom: "conv11"
  top: "conv11"
  param {
    lr_mult: 0
    decay_mult: 0
  }
  param {
    lr_mult: 0
    decay_mult: 0
  }
  param {
    lr_mult: 0
    decay_mult: 0
  }
  include {
    phase: TRAIN
  }
  batch_norm_param {
    use_global_stats: false
    moving_average_fraction: 0.95
  }
}
layer {
  name: "scale_conv11"
  type: "Scale"
  bottom: "conv11"
  top: "conv11"
  scale_param {
    bias_term: true
  }
}
layer {
  name: "relu_conv11"
  type: "ReLU"
  bottom: "conv11"
  top: "conv11"
}
layer {
  name: "drop11"
  type: "Dropout"
  bottom: "conv11"
  top: "conv11"
  dropout_param {
    dropout_ratio: 0.2
  }
}
layer {
  name: "conv12"
  type: "Convolution"
  bottom: "conv11"
  top: "conv12"
  param {
    lr_mult: 1
    decay_mult: 1
  }
  param {
    lr_mult: 2
    decay_mult: 0
  }
  convolution_param {
    num_output: 216
    pad: 1
    kernel_size: 3
    weight_filler {
      type: "xavier"
    }
    bias_filler {
      type: "constant"
      value: 0
    }
  }
}
layer {
  name: "bn_conv12"
  type: "BatchNorm"
  bottom: "conv12"
  top: "conv12"
  param {
    lr_mult: 0
    decay_mult: 0
  }
  param {
    lr_mult: 0
    decay_mult: 0
  }
  param {
    lr_mult: 0
    decay_mult: 0
  }
  include {
    phase: TRAIN
  }
  batch_norm_param {
    use_global_stats: false
    moving_average_fraction: 0.95
  }
}
layer {
  name: "scale_conv12"
  type: "Scale"
  bottom: "conv12"
  top: "conv12"
  scale_param {
    bias_term: true
  }
}
layer {
  name: "relu_conv12"
  type: "ReLU"
  bottom: "conv12"
  top: "conv12"
}
layer {
  name: "poolcp6"
  type: "Pooling"
  bottom: "conv12"
  top: "poolcp6"
  pooling_param {
    pool: MAX
    global_pooling: true
  }
}
layer {
  name: "drop12"
  type: "Dropout"
  bottom: "poolcp6"
  top: "poolcp6"
  dropout_param {
    dropout_ratio: 0.2
  }
}
layer {
  name: "ip1"
  type: "InnerProduct"
  bottom: "poolcp6"
  top: "ip1"
  param {
    lr_mult: 1
    decay_mult: 0
  }
  param {
    lr_mult: 2
    decay_mult: 0
  }
  inner_product_param {
    num_output: 10
    weight_filler {
      type: "xavier"
    }
    bias_filler {
      type: "constant"
    }
  }
}
layer {
  name: "accuracy_training"
  type: "Accuracy"
  bottom: "ip1"
  bottom: "label"
  top: "accuracy_training"
  include {
    phase: TRAIN
  }
}
layer {
  name: "loss"
  type: "SoftmaxWithLoss"
  bottom: "ip1"
  bottom: "label"
  top: "loss"
}
I1024 16:23:20.390666  1960 layer_factory.cpp:58] Creating layer mnist
I1024 16:23:20.396677  1960 db_lmdb.cpp:40] Opened lmdb examples/mnist/mnist_train_lmdb_norm2
I1024 16:23:20.396677  1960 net.cpp:84] Creating Layer mnist
I1024 16:23:20.396677  1960 net.cpp:380] mnist -> data
I1024 16:23:20.396677  1960 net.cpp:380] mnist -> label
I1024 16:23:20.397666  1960 data_layer.cpp:45] output data size: 100,1,28,28
I1024 16:23:20.399675  1960 net.cpp:122] Setting up mnist
I1024 16:23:20.399675  1960 net.cpp:129] Top shape: 100 1 28 28 (78400)
I1024 16:23:20.399675  1960 net.cpp:129] Top shape: 100 (100)
I1024 16:23:20.399675  1960 net.cpp:137] Memory required for data: 314000
I1024 16:23:20.399675  1960 layer_factory.cpp:58] Creating layer label_mnist_1_split
I1024 16:23:20.399675  1960 net.cpp:84] Creating Layer label_mnist_1_split
I1024 16:23:20.399675  1960 net.cpp:406] label_mnist_1_split <- label
I1024 16:23:20.399675  1960 net.cpp:380] label_mnist_1_split -> label_mnist_1_split_0
I1024 16:23:20.399675  1960 net.cpp:380] label_mnist_1_split -> label_mnist_1_split_1
I1024 16:23:20.399675  1960 net.cpp:122] Setting up label_mnist_1_split
I1024 16:23:20.399675  1960 net.cpp:129] Top shape: 100 (100)
I1024 16:23:20.399675  1960 net.cpp:129] Top shape: 100 (100)
I1024 16:23:20.399675  1960 net.cpp:137] Memory required for data: 314800
I1024 16:23:20.399675  1960 layer_factory.cpp:58] Creating layer conv1
I1024 16:23:20.399675  1960 net.cpp:84] Creating Layer conv1
I1024 16:23:20.399675  1960 net.cpp:406] conv1 <- data
I1024 16:23:20.399675  1960 net.cpp:380] conv1 -> conv1
I1024 16:23:20.401674 11712 common.cpp:36] System entropy source not available, using fallback algorithm to generate seed instead.
I1024 16:23:20.654667  1960 net.cpp:122] Setting up conv1
I1024 16:23:20.654667  1960 net.cpp:129] Top shape: 100 66 28 28 (5174400)
I1024 16:23:20.654667  1960 net.cpp:137] Memory required for data: 21012400
I1024 16:23:20.654667  1960 layer_factory.cpp:58] Creating layer bn1
I1024 16:23:20.654667  1960 net.cpp:84] Creating Layer bn1
I1024 16:23:20.654667  1960 net.cpp:406] bn1 <- conv1
I1024 16:23:20.654667  1960 net.cpp:367] bn1 -> conv1 (in-place)
I1024 16:23:20.655666  1960 net.cpp:122] Setting up bn1
I1024 16:23:20.655666  1960 net.cpp:129] Top shape: 100 66 28 28 (5174400)
I1024 16:23:20.655666  1960 net.cpp:137] Memory required for data: 41710000
I1024 16:23:20.655666  1960 layer_factory.cpp:58] Creating layer scale1
I1024 16:23:20.655666  1960 net.cpp:84] Creating Layer scale1
I1024 16:23:20.655666  1960 net.cpp:406] scale1 <- conv1
I1024 16:23:20.655666  1960 net.cpp:367] scale1 -> conv1 (in-place)
I1024 16:23:20.655666  1960 layer_factory.cpp:58] Creating layer scale1
I1024 16:23:20.655666  1960 net.cpp:122] Setting up scale1
I1024 16:23:20.655666  1960 net.cpp:129] Top shape: 100 66 28 28 (5174400)
I1024 16:23:20.655666  1960 net.cpp:137] Memory required for data: 62407600
I1024 16:23:20.655666  1960 layer_factory.cpp:58] Creating layer relu1
I1024 16:23:20.655666  1960 net.cpp:84] Creating Layer relu1
I1024 16:23:20.655666  1960 net.cpp:406] relu1 <- conv1
I1024 16:23:20.655666  1960 net.cpp:367] relu1 -> conv1 (in-place)
I1024 16:23:20.655666  1960 net.cpp:122] Setting up relu1
I1024 16:23:20.655666  1960 net.cpp:129] Top shape: 100 66 28 28 (5174400)
I1024 16:23:20.655666  1960 net.cpp:137] Memory required for data: 83105200
I1024 16:23:20.655666  1960 layer_factory.cpp:58] Creating layer drop1
I1024 16:23:20.655666  1960 net.cpp:84] Creating Layer drop1
I1024 16:23:20.655666  1960 net.cpp:406] drop1 <- conv1
I1024 16:23:20.655666  1960 net.cpp:367] drop1 -> conv1 (in-place)
I1024 16:23:20.655666  1960 net.cpp:122] Setting up drop1
I1024 16:23:20.655666  1960 net.cpp:129] Top shape: 100 66 28 28 (5174400)
I1024 16:23:20.655666  1960 net.cpp:137] Memory required for data: 103802800
I1024 16:23:20.655666  1960 layer_factory.cpp:58] Creating layer conv1_0
I1024 16:23:20.655666  1960 net.cpp:84] Creating Layer conv1_0
I1024 16:23:20.655666  1960 net.cpp:406] conv1_0 <- conv1
I1024 16:23:20.655666  1960 net.cpp:380] conv1_0 -> conv1_0
I1024 16:23:20.657666  1960 net.cpp:122] Setting up conv1_0
I1024 16:23:20.657666  1960 net.cpp:129] Top shape: 100 64 28 28 (5017600)
I1024 16:23:20.657666  1960 net.cpp:137] Memory required for data: 123873200
I1024 16:23:20.657666  1960 layer_factory.cpp:58] Creating layer bn1_0
I1024 16:23:20.657666  1960 net.cpp:84] Creating Layer bn1_0
I1024 16:23:20.657666  1960 net.cpp:406] bn1_0 <- conv1_0
I1024 16:23:20.657666  1960 net.cpp:367] bn1_0 -> conv1_0 (in-place)
I1024 16:23:20.657666  1960 net.cpp:122] Setting up bn1_0
I1024 16:23:20.657666  1960 net.cpp:129] Top shape: 100 64 28 28 (5017600)
I1024 16:23:20.657666  1960 net.cpp:137] Memory required for data: 143943600
I1024 16:23:20.657666  1960 layer_factory.cpp:58] Creating layer scale1_0
I1024 16:23:20.657666  1960 net.cpp:84] Creating Layer scale1_0
I1024 16:23:20.657666  1960 net.cpp:406] scale1_0 <- conv1_0
I1024 16:23:20.657666  1960 net.cpp:367] scale1_0 -> conv1_0 (in-place)
I1024 16:23:20.657666  1960 layer_factory.cpp:58] Creating layer scale1_0
I1024 16:23:20.658666  1960 net.cpp:122] Setting up scale1_0
I1024 16:23:20.658666  1960 net.cpp:129] Top shape: 100 64 28 28 (5017600)
I1024 16:23:20.658666  1960 net.cpp:137] Memory required for data: 164014000
I1024 16:23:20.658666  1960 layer_factory.cpp:58] Creating layer relu1_0
I1024 16:23:20.658666  1960 net.cpp:84] Creating Layer relu1_0
I1024 16:23:20.658666  1960 net.cpp:406] relu1_0 <- conv1_0
I1024 16:23:20.658666  1960 net.cpp:367] relu1_0 -> conv1_0 (in-place)
I1024 16:23:20.658666  1960 net.cpp:122] Setting up relu1_0
I1024 16:23:20.658666  1960 net.cpp:129] Top shape: 100 64 28 28 (5017600)
I1024 16:23:20.658666  1960 net.cpp:137] Memory required for data: 184084400
I1024 16:23:20.658666  1960 layer_factory.cpp:58] Creating layer drop2
I1024 16:23:20.658666  1960 net.cpp:84] Creating Layer drop2
I1024 16:23:20.658666  1960 net.cpp:406] drop2 <- conv1_0
I1024 16:23:20.658666  1960 net.cpp:367] drop2 -> conv1_0 (in-place)
I1024 16:23:20.658666  1960 net.cpp:122] Setting up drop2
I1024 16:23:20.658666  1960 net.cpp:129] Top shape: 100 64 28 28 (5017600)
I1024 16:23:20.658666  1960 net.cpp:137] Memory required for data: 204154800
I1024 16:23:20.658666  1960 layer_factory.cpp:58] Creating layer conv2
I1024 16:23:20.658666  1960 net.cpp:84] Creating Layer conv2
I1024 16:23:20.658666  1960 net.cpp:406] conv2 <- conv1_0
I1024 16:23:20.658666  1960 net.cpp:380] conv2 -> conv2
I1024 16:23:20.659667  1960 net.cpp:122] Setting up conv2
I1024 16:23:20.659667  1960 net.cpp:129] Top shape: 100 64 28 28 (5017600)
I1024 16:23:20.659667  1960 net.cpp:137] Memory required for data: 224225200
I1024 16:23:20.659667  1960 layer_factory.cpp:58] Creating layer bn2
I1024 16:23:20.659667  1960 net.cpp:84] Creating Layer bn2
I1024 16:23:20.659667  1960 net.cpp:406] bn2 <- conv2
I1024 16:23:20.659667  1960 net.cpp:367] bn2 -> conv2 (in-place)
I1024 16:23:20.659667  1960 net.cpp:122] Setting up bn2
I1024 16:23:20.659667  1960 net.cpp:129] Top shape: 100 64 28 28 (5017600)
I1024 16:23:20.659667  1960 net.cpp:137] Memory required for data: 244295600
I1024 16:23:20.659667  1960 layer_factory.cpp:58] Creating layer scale2
I1024 16:23:20.659667  1960 net.cpp:84] Creating Layer scale2
I1024 16:23:20.659667  1960 net.cpp:406] scale2 <- conv2
I1024 16:23:20.660667  1960 net.cpp:367] scale2 -> conv2 (in-place)
I1024 16:23:20.660667  1960 layer_factory.cpp:58] Creating layer scale2
I1024 16:23:20.660667  1960 net.cpp:122] Setting up scale2
I1024 16:23:20.660667  1960 net.cpp:129] Top shape: 100 64 28 28 (5017600)
I1024 16:23:20.660667  1960 net.cpp:137] Memory required for data: 264366000
I1024 16:23:20.660667  1960 layer_factory.cpp:58] Creating layer relu2
I1024 16:23:20.660667  1960 net.cpp:84] Creating Layer relu2
I1024 16:23:20.660667  1960 net.cpp:406] relu2 <- conv2
I1024 16:23:20.660667  1960 net.cpp:367] relu2 -> conv2 (in-place)
I1024 16:23:20.660667  1960 net.cpp:122] Setting up relu2
I1024 16:23:20.660667  1960 net.cpp:129] Top shape: 100 64 28 28 (5017600)
I1024 16:23:20.660667  1960 net.cpp:137] Memory required for data: 284436400
I1024 16:23:20.660667  1960 layer_factory.cpp:58] Creating layer drop3
I1024 16:23:20.660667  1960 net.cpp:84] Creating Layer drop3
I1024 16:23:20.660667  1960 net.cpp:406] drop3 <- conv2
I1024 16:23:20.660667  1960 net.cpp:367] drop3 -> conv2 (in-place)
I1024 16:23:20.660667  1960 net.cpp:122] Setting up drop3
I1024 16:23:20.660667  1960 net.cpp:129] Top shape: 100 64 28 28 (5017600)
I1024 16:23:20.660667  1960 net.cpp:137] Memory required for data: 304506800
I1024 16:23:20.660667  1960 layer_factory.cpp:58] Creating layer conv2_1
I1024 16:23:20.660667  1960 net.cpp:84] Creating Layer conv2_1
I1024 16:23:20.660667  1960 net.cpp:406] conv2_1 <- conv2
I1024 16:23:20.660667  1960 net.cpp:380] conv2_1 -> conv2_1
I1024 16:23:20.662667  1960 net.cpp:122] Setting up conv2_1
I1024 16:23:20.662667  1960 net.cpp:129] Top shape: 100 64 28 28 (5017600)
I1024 16:23:20.662667  1960 net.cpp:137] Memory required for data: 324577200
I1024 16:23:20.662667  1960 layer_factory.cpp:58] Creating layer bn2_1
I1024 16:23:20.662667  1960 net.cpp:84] Creating Layer bn2_1
I1024 16:23:20.662667  1960 net.cpp:406] bn2_1 <- conv2_1
I1024 16:23:20.662667  1960 net.cpp:367] bn2_1 -> conv2_1 (in-place)
I1024 16:23:20.662667  1960 net.cpp:122] Setting up bn2_1
I1024 16:23:20.662667  1960 net.cpp:129] Top shape: 100 64 28 28 (5017600)
I1024 16:23:20.662667  1960 net.cpp:137] Memory required for data: 344647600
I1024 16:23:20.662667  1960 layer_factory.cpp:58] Creating layer scale2_1
I1024 16:23:20.662667  1960 net.cpp:84] Creating Layer scale2_1
I1024 16:23:20.662667  1960 net.cpp:406] scale2_1 <- conv2_1
I1024 16:23:20.662667  1960 net.cpp:367] scale2_1 -> conv2_1 (in-place)
I1024 16:23:20.662667  1960 layer_factory.cpp:58] Creating layer scale2_1
I1024 16:23:20.662667  1960 net.cpp:122] Setting up scale2_1
I1024 16:23:20.662667  1960 net.cpp:129] Top shape: 100 64 28 28 (5017600)
I1024 16:23:20.662667  1960 net.cpp:137] Memory required for data: 364718000
I1024 16:23:20.662667  1960 layer_factory.cpp:58] Creating layer relu2_1
I1024 16:23:20.662667  1960 net.cpp:84] Creating Layer relu2_1
I1024 16:23:20.662667  1960 net.cpp:406] relu2_1 <- conv2_1
I1024 16:23:20.662667  1960 net.cpp:367] relu2_1 -> conv2_1 (in-place)
I1024 16:23:20.662667  1960 net.cpp:122] Setting up relu2_1
I1024 16:23:20.662667  1960 net.cpp:129] Top shape: 100 64 28 28 (5017600)
I1024 16:23:20.662667  1960 net.cpp:137] Memory required for data: 384788400
I1024 16:23:20.663666  1960 layer_factory.cpp:58] Creating layer drop4
I1024 16:23:20.663666  1960 net.cpp:84] Creating Layer drop4
I1024 16:23:20.663666  1960 net.cpp:406] drop4 <- conv2_1
I1024 16:23:20.663666  1960 net.cpp:367] drop4 -> conv2_1 (in-place)
I1024 16:23:20.663666  1960 net.cpp:122] Setting up drop4
I1024 16:23:20.663666  1960 net.cpp:129] Top shape: 100 64 28 28 (5017600)
I1024 16:23:20.663666  1960 net.cpp:137] Memory required for data: 404858800
I1024 16:23:20.663666  1960 layer_factory.cpp:58] Creating layer conv2_2
I1024 16:23:20.663666  1960 net.cpp:84] Creating Layer conv2_2
I1024 16:23:20.663666  1960 net.cpp:406] conv2_2 <- conv2_1
I1024 16:23:20.663666  1960 net.cpp:380] conv2_2 -> conv2_2
I1024 16:23:20.664666  1960 net.cpp:122] Setting up conv2_2
I1024 16:23:20.664666  1960 net.cpp:129] Top shape: 100 96 28 28 (7526400)
I1024 16:23:20.664666  1960 net.cpp:137] Memory required for data: 434964400
I1024 16:23:20.664666  1960 layer_factory.cpp:58] Creating layer bn2_2
I1024 16:23:20.664666  1960 net.cpp:84] Creating Layer bn2_2
I1024 16:23:20.664666  1960 net.cpp:406] bn2_2 <- conv2_2
I1024 16:23:20.664666  1960 net.cpp:367] bn2_2 -> conv2_2 (in-place)
I1024 16:23:20.664666  1960 net.cpp:122] Setting up bn2_2
I1024 16:23:20.664666  1960 net.cpp:129] Top shape: 100 96 28 28 (7526400)
I1024 16:23:20.664666  1960 net.cpp:137] Memory required for data: 465070000
I1024 16:23:20.664666  1960 layer_factory.cpp:58] Creating layer scale2_2
I1024 16:23:20.664666  1960 net.cpp:84] Creating Layer scale2_2
I1024 16:23:20.664666  1960 net.cpp:406] scale2_2 <- conv2_2
I1024 16:23:20.664666  1960 net.cpp:367] scale2_2 -> conv2_2 (in-place)
I1024 16:23:20.664666  1960 layer_factory.cpp:58] Creating layer scale2_2
I1024 16:23:20.665666  1960 net.cpp:122] Setting up scale2_2
I1024 16:23:20.665666  1960 net.cpp:129] Top shape: 100 96 28 28 (7526400)
I1024 16:23:20.665666  1960 net.cpp:137] Memory required for data: 495175600
I1024 16:23:20.665666  1960 layer_factory.cpp:58] Creating layer relu2_2
I1024 16:23:20.665666  1960 net.cpp:84] Creating Layer relu2_2
I1024 16:23:20.665666  1960 net.cpp:406] relu2_2 <- conv2_2
I1024 16:23:20.665666  1960 net.cpp:367] relu2_2 -> conv2_2 (in-place)
I1024 16:23:20.665666  1960 net.cpp:122] Setting up relu2_2
I1024 16:23:20.665666  1960 net.cpp:129] Top shape: 100 96 28 28 (7526400)
I1024 16:23:20.665666  1960 net.cpp:137] Memory required for data: 525281200
I1024 16:23:20.665666  1960 layer_factory.cpp:58] Creating layer pool2_1
I1024 16:23:20.665666  1960 net.cpp:84] Creating Layer pool2_1
I1024 16:23:20.665666  1960 net.cpp:406] pool2_1 <- conv2_2
I1024 16:23:20.665666  1960 net.cpp:380] pool2_1 -> pool2_1
I1024 16:23:20.665666  1960 net.cpp:122] Setting up pool2_1
I1024 16:23:20.665666  1960 net.cpp:129] Top shape: 100 96 14 14 (1881600)
I1024 16:23:20.665666  1960 net.cpp:137] Memory required for data: 532807600
I1024 16:23:20.665666  1960 layer_factory.cpp:58] Creating layer drop5
I1024 16:23:20.665666  1960 net.cpp:84] Creating Layer drop5
I1024 16:23:20.665666  1960 net.cpp:406] drop5 <- pool2_1
I1024 16:23:20.665666  1960 net.cpp:367] drop5 -> pool2_1 (in-place)
I1024 16:23:20.665666  1960 net.cpp:122] Setting up drop5
I1024 16:23:20.665666  1960 net.cpp:129] Top shape: 100 96 14 14 (1881600)
I1024 16:23:20.665666  1960 net.cpp:137] Memory required for data: 540334000
I1024 16:23:20.665666  1960 layer_factory.cpp:58] Creating layer conv3
I1024 16:23:20.665666  1960 net.cpp:84] Creating Layer conv3
I1024 16:23:20.665666  1960 net.cpp:406] conv3 <- pool2_1
I1024 16:23:20.665666  1960 net.cpp:380] conv3 -> conv3
I1024 16:23:20.667667  1960 net.cpp:122] Setting up conv3
I1024 16:23:20.667667  1960 net.cpp:129] Top shape: 100 96 14 14 (1881600)
I1024 16:23:20.667667  1960 net.cpp:137] Memory required for data: 547860400
I1024 16:23:20.667667  1960 layer_factory.cpp:58] Creating layer bn3
I1024 16:23:20.667667  1960 net.cpp:84] Creating Layer bn3
I1024 16:23:20.667667  1960 net.cpp:406] bn3 <- conv3
I1024 16:23:20.667667  1960 net.cpp:367] bn3 -> conv3 (in-place)
I1024 16:23:20.667667  1960 net.cpp:122] Setting up bn3
I1024 16:23:20.667667  1960 net.cpp:129] Top shape: 100 96 14 14 (1881600)
I1024 16:23:20.667667  1960 net.cpp:137] Memory required for data: 555386800
I1024 16:23:20.667667  1960 layer_factory.cpp:58] Creating layer scale3
I1024 16:23:20.667667  1960 net.cpp:84] Creating Layer scale3
I1024 16:23:20.667667  1960 net.cpp:406] scale3 <- conv3
I1024 16:23:20.667667  1960 net.cpp:367] scale3 -> conv3 (in-place)
I1024 16:23:20.667667  1960 layer_factory.cpp:58] Creating layer scale3
I1024 16:23:20.667667  1960 net.cpp:122] Setting up scale3
I1024 16:23:20.667667  1960 net.cpp:129] Top shape: 100 96 14 14 (1881600)
I1024 16:23:20.667667  1960 net.cpp:137] Memory required for data: 562913200
I1024 16:23:20.667667  1960 layer_factory.cpp:58] Creating layer relu3
I1024 16:23:20.667667  1960 net.cpp:84] Creating Layer relu3
I1024 16:23:20.667667  1960 net.cpp:406] relu3 <- conv3
I1024 16:23:20.667667  1960 net.cpp:367] relu3 -> conv3 (in-place)
I1024 16:23:20.667667  1960 net.cpp:122] Setting up relu3
I1024 16:23:20.667667  1960 net.cpp:129] Top shape: 100 96 14 14 (1881600)
I1024 16:23:20.667667  1960 net.cpp:137] Memory required for data: 570439600
I1024 16:23:20.667667  1960 layer_factory.cpp:58] Creating layer drop6
I1024 16:23:20.667667  1960 net.cpp:84] Creating Layer drop6
I1024 16:23:20.668666  1960 net.cpp:406] drop6 <- conv3
I1024 16:23:20.668666  1960 net.cpp:367] drop6 -> conv3 (in-place)
I1024 16:23:20.668666  1960 net.cpp:122] Setting up drop6
I1024 16:23:20.668666  1960 net.cpp:129] Top shape: 100 96 14 14 (1881600)
I1024 16:23:20.668666  1960 net.cpp:137] Memory required for data: 577966000
I1024 16:23:20.668666  1960 layer_factory.cpp:58] Creating layer conv3_1
I1024 16:23:20.668666  1960 net.cpp:84] Creating Layer conv3_1
I1024 16:23:20.668666  1960 net.cpp:406] conv3_1 <- conv3
I1024 16:23:20.668666  1960 net.cpp:380] conv3_1 -> conv3_1
I1024 16:23:20.669667  1960 net.cpp:122] Setting up conv3_1
I1024 16:23:20.669667  1960 net.cpp:129] Top shape: 100 96 14 14 (1881600)
I1024 16:23:20.669667  1960 net.cpp:137] Memory required for data: 585492400
I1024 16:23:20.669667  1960 layer_factory.cpp:58] Creating layer bn3_1
I1024 16:23:20.669667  1960 net.cpp:84] Creating Layer bn3_1
I1024 16:23:20.669667  1960 net.cpp:406] bn3_1 <- conv3_1
I1024 16:23:20.669667  1960 net.cpp:367] bn3_1 -> conv3_1 (in-place)
I1024 16:23:20.669667  1960 net.cpp:122] Setting up bn3_1
I1024 16:23:20.669667  1960 net.cpp:129] Top shape: 100 96 14 14 (1881600)
I1024 16:23:20.669667  1960 net.cpp:137] Memory required for data: 593018800
I1024 16:23:20.669667  1960 layer_factory.cpp:58] Creating layer scale3_1
I1024 16:23:20.669667  1960 net.cpp:84] Creating Layer scale3_1
I1024 16:23:20.670666  1960 net.cpp:406] scale3_1 <- conv3_1
I1024 16:23:20.670666  1960 net.cpp:367] scale3_1 -> conv3_1 (in-place)
I1024 16:23:20.670666  1960 layer_factory.cpp:58] Creating layer scale3_1
I1024 16:23:20.670666  1960 net.cpp:122] Setting up scale3_1
I1024 16:23:20.670666  1960 net.cpp:129] Top shape: 100 96 14 14 (1881600)
I1024 16:23:20.670666  1960 net.cpp:137] Memory required for data: 600545200
I1024 16:23:20.670666  1960 layer_factory.cpp:58] Creating layer relu3_1
I1024 16:23:20.670666  1960 net.cpp:84] Creating Layer relu3_1
I1024 16:23:20.670666  1960 net.cpp:406] relu3_1 <- conv3_1
I1024 16:23:20.670666  1960 net.cpp:367] relu3_1 -> conv3_1 (in-place)
I1024 16:23:20.670666  1960 net.cpp:122] Setting up relu3_1
I1024 16:23:20.670666  1960 net.cpp:129] Top shape: 100 96 14 14 (1881600)
I1024 16:23:20.670666  1960 net.cpp:137] Memory required for data: 608071600
I1024 16:23:20.670666  1960 layer_factory.cpp:58] Creating layer drop6_1
I1024 16:23:20.670666  1960 net.cpp:84] Creating Layer drop6_1
I1024 16:23:20.670666  1960 net.cpp:406] drop6_1 <- conv3_1
I1024 16:23:20.670666  1960 net.cpp:367] drop6_1 -> conv3_1 (in-place)
I1024 16:23:20.670666  1960 net.cpp:122] Setting up drop6_1
I1024 16:23:20.670666  1960 net.cpp:129] Top shape: 100 96 14 14 (1881600)
I1024 16:23:20.670666  1960 net.cpp:137] Memory required for data: 615598000
I1024 16:23:20.670666  1960 layer_factory.cpp:58] Creating layer conv4
I1024 16:23:20.670666  1960 net.cpp:84] Creating Layer conv4
I1024 16:23:20.670666  1960 net.cpp:406] conv4 <- conv3_1
I1024 16:23:20.670666  1960 net.cpp:380] conv4 -> conv4
I1024 16:23:20.672667  1960 net.cpp:122] Setting up conv4
I1024 16:23:20.672667  1960 net.cpp:129] Top shape: 100 96 14 14 (1881600)
I1024 16:23:20.672667  1960 net.cpp:137] Memory required for data: 623124400
I1024 16:23:20.672667  1960 layer_factory.cpp:58] Creating layer bn4
I1024 16:23:20.672667  1960 net.cpp:84] Creating Layer bn4
I1024 16:23:20.672667  1960 net.cpp:406] bn4 <- conv4
I1024 16:23:20.672667  1960 net.cpp:367] bn4 -> conv4 (in-place)
I1024 16:23:20.673666  1960 net.cpp:122] Setting up bn4
I1024 16:23:20.673666  1960 net.cpp:129] Top shape: 100 96 14 14 (1881600)
I1024 16:23:20.673666  1960 net.cpp:137] Memory required for data: 630650800
I1024 16:23:20.673666  1960 layer_factory.cpp:58] Creating layer scale4
I1024 16:23:20.673666  1960 net.cpp:84] Creating Layer scale4
I1024 16:23:20.673666  1960 net.cpp:406] scale4 <- conv4
I1024 16:23:20.673666  1960 net.cpp:367] scale4 -> conv4 (in-place)
I1024 16:23:20.673666  1960 layer_factory.cpp:58] Creating layer scale4
I1024 16:23:20.673666  1960 net.cpp:122] Setting up scale4
I1024 16:23:20.673666  1960 net.cpp:129] Top shape: 100 96 14 14 (1881600)
I1024 16:23:20.673666  1960 net.cpp:137] Memory required for data: 638177200
I1024 16:23:20.673666  1960 layer_factory.cpp:58] Creating layer relu4
I1024 16:23:20.673666  1960 net.cpp:84] Creating Layer relu4
I1024 16:23:20.673666  1960 net.cpp:406] relu4 <- conv4
I1024 16:23:20.673666  1960 net.cpp:367] relu4 -> conv4 (in-place)
I1024 16:23:20.673666  1960 net.cpp:122] Setting up relu4
I1024 16:23:20.673666  1960 net.cpp:129] Top shape: 100 96 14 14 (1881600)
I1024 16:23:20.673666  1960 net.cpp:137] Memory required for data: 645703600
I1024 16:23:20.673666  1960 layer_factory.cpp:58] Creating layer drop7
I1024 16:23:20.673666  1960 net.cpp:84] Creating Layer drop7
I1024 16:23:20.673666  1960 net.cpp:406] drop7 <- conv4
I1024 16:23:20.673666  1960 net.cpp:367] drop7 -> conv4 (in-place)
I1024 16:23:20.674666  1960 net.cpp:122] Setting up drop7
I1024 16:23:20.674666  1960 net.cpp:129] Top shape: 100 96 14 14 (1881600)
I1024 16:23:20.674666  1960 net.cpp:137] Memory required for data: 653230000
I1024 16:23:20.674666  1960 layer_factory.cpp:58] Creating layer conv4_1
I1024 16:23:20.674666  1960 net.cpp:84] Creating Layer conv4_1
I1024 16:23:20.674666  1960 net.cpp:406] conv4_1 <- conv4
I1024 16:23:20.674666  1960 net.cpp:380] conv4_1 -> conv4_1
I1024 16:23:20.675667  1960 net.cpp:122] Setting up conv4_1
I1024 16:23:20.675667  1960 net.cpp:129] Top shape: 100 96 14 14 (1881600)
I1024 16:23:20.675667  1960 net.cpp:137] Memory required for data: 660756400
I1024 16:23:20.675667  1960 layer_factory.cpp:58] Creating layer bn4_1
I1024 16:23:20.675667  1960 net.cpp:84] Creating Layer bn4_1
I1024 16:23:20.675667  1960 net.cpp:406] bn4_1 <- conv4_1
I1024 16:23:20.675667  1960 net.cpp:367] bn4_1 -> conv4_1 (in-place)
I1024 16:23:20.675667  1960 net.cpp:122] Setting up bn4_1
I1024 16:23:20.675667  1960 net.cpp:129] Top shape: 100 96 14 14 (1881600)
I1024 16:23:20.675667  1960 net.cpp:137] Memory required for data: 668282800
I1024 16:23:20.675667  1960 layer_factory.cpp:58] Creating layer scale4_1
I1024 16:23:20.675667  1960 net.cpp:84] Creating Layer scale4_1
I1024 16:23:20.675667  1960 net.cpp:406] scale4_1 <- conv4_1
I1024 16:23:20.675667  1960 net.cpp:367] scale4_1 -> conv4_1 (in-place)
I1024 16:23:20.675667  1960 layer_factory.cpp:58] Creating layer scale4_1
I1024 16:23:20.675667  1960 net.cpp:122] Setting up scale4_1
I1024 16:23:20.675667  1960 net.cpp:129] Top shape: 100 96 14 14 (1881600)
I1024 16:23:20.675667  1960 net.cpp:137] Memory required for data: 675809200
I1024 16:23:20.675667  1960 layer_factory.cpp:58] Creating layer relu4_1
I1024 16:23:20.675667  1960 net.cpp:84] Creating Layer relu4_1
I1024 16:23:20.675667  1960 net.cpp:406] relu4_1 <- conv4_1
I1024 16:23:20.675667  1960 net.cpp:367] relu4_1 -> conv4_1 (in-place)
I1024 16:23:20.676666  1960 net.cpp:122] Setting up relu4_1
I1024 16:23:20.676666  1960 net.cpp:129] Top shape: 100 96 14 14 (1881600)
I1024 16:23:20.676666  1960 net.cpp:137] Memory required for data: 683335600
I1024 16:23:20.676666  1960 layer_factory.cpp:58] Creating layer drop8
I1024 16:23:20.676666  1960 net.cpp:84] Creating Layer drop8
I1024 16:23:20.676666  1960 net.cpp:406] drop8 <- conv4_1
I1024 16:23:20.676666  1960 net.cpp:367] drop8 -> conv4_1 (in-place)
I1024 16:23:20.676666  1960 net.cpp:122] Setting up drop8
I1024 16:23:20.676666  1960 net.cpp:129] Top shape: 100 96 14 14 (1881600)
I1024 16:23:20.676666  1960 net.cpp:137] Memory required for data: 690862000
I1024 16:23:20.676666  1960 layer_factory.cpp:58] Creating layer conv4_2
I1024 16:23:20.676666  1960 net.cpp:84] Creating Layer conv4_2
I1024 16:23:20.676666  1960 net.cpp:406] conv4_2 <- conv4_1
I1024 16:23:20.676666  1960 net.cpp:380] conv4_2 -> conv4_2
I1024 16:23:20.678668  1960 net.cpp:122] Setting up conv4_2
I1024 16:23:20.678668  1960 net.cpp:129] Top shape: 100 144 14 14 (2822400)
I1024 16:23:20.678668  1960 net.cpp:137] Memory required for data: 702151600
I1024 16:23:20.678668  1960 layer_factory.cpp:58] Creating layer bn4_2
I1024 16:23:20.678668  1960 net.cpp:84] Creating Layer bn4_2
I1024 16:23:20.678668  1960 net.cpp:406] bn4_2 <- conv4_2
I1024 16:23:20.678668  1960 net.cpp:367] bn4_2 -> conv4_2 (in-place)
I1024 16:23:20.679667  1960 net.cpp:122] Setting up bn4_2
I1024 16:23:20.679667  1960 net.cpp:129] Top shape: 100 144 14 14 (2822400)
I1024 16:23:20.679667  1960 net.cpp:137] Memory required for data: 713441200
I1024 16:23:20.679667  1960 layer_factory.cpp:58] Creating layer scale4_2
I1024 16:23:20.679667  1960 net.cpp:84] Creating Layer scale4_2
I1024 16:23:20.679667  1960 net.cpp:406] scale4_2 <- conv4_2
I1024 16:23:20.679667  1960 net.cpp:367] scale4_2 -> conv4_2 (in-place)
I1024 16:23:20.679667  1960 layer_factory.cpp:58] Creating layer scale4_2
I1024 16:23:20.679667  1960 net.cpp:122] Setting up scale4_2
I1024 16:23:20.679667  1960 net.cpp:129] Top shape: 100 144 14 14 (2822400)
I1024 16:23:20.679667  1960 net.cpp:137] Memory required for data: 724730800
I1024 16:23:20.679667  1960 layer_factory.cpp:58] Creating layer relu4_2
I1024 16:23:20.679667  1960 net.cpp:84] Creating Layer relu4_2
I1024 16:23:20.679667  1960 net.cpp:406] relu4_2 <- conv4_2
I1024 16:23:20.679667  1960 net.cpp:367] relu4_2 -> conv4_2 (in-place)
I1024 16:23:20.679667  1960 net.cpp:122] Setting up relu4_2
I1024 16:23:20.679667  1960 net.cpp:129] Top shape: 100 144 14 14 (2822400)
I1024 16:23:20.679667  1960 net.cpp:137] Memory required for data: 736020400
I1024 16:23:20.679667  1960 layer_factory.cpp:58] Creating layer pool4_2
I1024 16:23:20.679667  1960 net.cpp:84] Creating Layer pool4_2
I1024 16:23:20.679667  1960 net.cpp:406] pool4_2 <- conv4_2
I1024 16:23:20.679667  1960 net.cpp:380] pool4_2 -> pool4_2
I1024 16:23:20.679667  1960 net.cpp:122] Setting up pool4_2
I1024 16:23:20.679667  1960 net.cpp:129] Top shape: 100 144 7 7 (705600)
I1024 16:23:20.679667  1960 net.cpp:137] Memory required for data: 738842800
I1024 16:23:20.679667  1960 layer_factory.cpp:58] Creating layer drop9
I1024 16:23:20.679667  1960 net.cpp:84] Creating Layer drop9
I1024 16:23:20.679667  1960 net.cpp:406] drop9 <- pool4_2
I1024 16:23:20.679667  1960 net.cpp:367] drop9 -> pool4_2 (in-place)
I1024 16:23:20.679667  1960 net.cpp:122] Setting up drop9
I1024 16:23:20.679667  1960 net.cpp:129] Top shape: 100 144 7 7 (705600)
I1024 16:23:20.679667  1960 net.cpp:137] Memory required for data: 741665200
I1024 16:23:20.679667  1960 layer_factory.cpp:58] Creating layer conv4_0
I1024 16:23:20.679667  1960 net.cpp:84] Creating Layer conv4_0
I1024 16:23:20.679667  1960 net.cpp:406] conv4_0 <- pool4_2
I1024 16:23:20.679667  1960 net.cpp:380] conv4_0 -> conv4_0
I1024 16:23:20.682667  1960 net.cpp:122] Setting up conv4_0
I1024 16:23:20.682667  1960 net.cpp:129] Top shape: 100 144 7 7 (705600)
I1024 16:23:20.682667  1960 net.cpp:137] Memory required for data: 744487600
I1024 16:23:20.682667  1960 layer_factory.cpp:58] Creating layer bn4_0
I1024 16:23:20.682667  1960 net.cpp:84] Creating Layer bn4_0
I1024 16:23:20.682667  1960 net.cpp:406] bn4_0 <- conv4_0
I1024 16:23:20.682667  1960 net.cpp:367] bn4_0 -> conv4_0 (in-place)
I1024 16:23:20.682667  1960 net.cpp:122] Setting up bn4_0
I1024 16:23:20.682667  1960 net.cpp:129] Top shape: 100 144 7 7 (705600)
I1024 16:23:20.682667  1960 net.cpp:137] Memory required for data: 747310000
I1024 16:23:20.682667  1960 layer_factory.cpp:58] Creating layer scale4_0
I1024 16:23:20.682667  1960 net.cpp:84] Creating Layer scale4_0
I1024 16:23:20.682667  1960 net.cpp:406] scale4_0 <- conv4_0
I1024 16:23:20.682667  1960 net.cpp:367] scale4_0 -> conv4_0 (in-place)
I1024 16:23:20.682667  1960 layer_factory.cpp:58] Creating layer scale4_0
I1024 16:23:20.682667  1960 net.cpp:122] Setting up scale4_0
I1024 16:23:20.682667  1960 net.cpp:129] Top shape: 100 144 7 7 (705600)
I1024 16:23:20.682667  1960 net.cpp:137] Memory required for data: 750132400
I1024 16:23:20.682667  1960 layer_factory.cpp:58] Creating layer relu4_0
I1024 16:23:20.682667  1960 net.cpp:84] Creating Layer relu4_0
I1024 16:23:20.682667  1960 net.cpp:406] relu4_0 <- conv4_0
I1024 16:23:20.682667  1960 net.cpp:367] relu4_0 -> conv4_0 (in-place)
I1024 16:23:20.682667  1960 net.cpp:122] Setting up relu4_0
I1024 16:23:20.682667  1960 net.cpp:129] Top shape: 100 144 7 7 (705600)
I1024 16:23:20.682667  1960 net.cpp:137] Memory required for data: 752954800
I1024 16:23:20.682667  1960 layer_factory.cpp:58] Creating layer drop10
I1024 16:23:20.682667  1960 net.cpp:84] Creating Layer drop10
I1024 16:23:20.682667  1960 net.cpp:406] drop10 <- conv4_0
I1024 16:23:20.682667  1960 net.cpp:367] drop10 -> conv4_0 (in-place)
I1024 16:23:20.682667  1960 net.cpp:122] Setting up drop10
I1024 16:23:20.683666  1960 net.cpp:129] Top shape: 100 144 7 7 (705600)
I1024 16:23:20.683666  1960 net.cpp:137] Memory required for data: 755777200
I1024 16:23:20.683666  1960 layer_factory.cpp:58] Creating layer conv11
I1024 16:23:20.683666  1960 net.cpp:84] Creating Layer conv11
I1024 16:23:20.683666  1960 net.cpp:406] conv11 <- conv4_0
I1024 16:23:20.683666  1960 net.cpp:380] conv11 -> conv11
I1024 16:23:20.686666  1960 net.cpp:122] Setting up conv11
I1024 16:23:20.686666  1960 net.cpp:129] Top shape: 100 178 7 7 (872200)
I1024 16:23:20.686666  1960 net.cpp:137] Memory required for data: 759266000
I1024 16:23:20.686666  1960 layer_factory.cpp:58] Creating layer bn_conv11
I1024 16:23:20.686666  1960 net.cpp:84] Creating Layer bn_conv11
I1024 16:23:20.686666  1960 net.cpp:406] bn_conv11 <- conv11
I1024 16:23:20.686666  1960 net.cpp:367] bn_conv11 -> conv11 (in-place)
I1024 16:23:20.686666  1960 net.cpp:122] Setting up bn_conv11
I1024 16:23:20.686666  1960 net.cpp:129] Top shape: 100 178 7 7 (872200)
I1024 16:23:20.686666  1960 net.cpp:137] Memory required for data: 762754800
I1024 16:23:20.686666  1960 layer_factory.cpp:58] Creating layer scale_conv11
I1024 16:23:20.686666  1960 net.cpp:84] Creating Layer scale_conv11
I1024 16:23:20.686666  1960 net.cpp:406] scale_conv11 <- conv11
I1024 16:23:20.686666  1960 net.cpp:367] scale_conv11 -> conv11 (in-place)
I1024 16:23:20.686666  1960 layer_factory.cpp:58] Creating layer scale_conv11
I1024 16:23:20.686666  1960 net.cpp:122] Setting up scale_conv11
I1024 16:23:20.686666  1960 net.cpp:129] Top shape: 100 178 7 7 (872200)
I1024 16:23:20.686666  1960 net.cpp:137] Memory required for data: 766243600
I1024 16:23:20.686666  1960 layer_factory.cpp:58] Creating layer relu_conv11
I1024 16:23:20.686666  1960 net.cpp:84] Creating Layer relu_conv11
I1024 16:23:20.686666  1960 net.cpp:406] relu_conv11 <- conv11
I1024 16:23:20.686666  1960 net.cpp:367] relu_conv11 -> conv11 (in-place)
I1024 16:23:20.687666  1960 net.cpp:122] Setting up relu_conv11
I1024 16:23:20.687666  1960 net.cpp:129] Top shape: 100 178 7 7 (872200)
I1024 16:23:20.687666  1960 net.cpp:137] Memory required for data: 769732400
I1024 16:23:20.687666  1960 layer_factory.cpp:58] Creating layer drop11
I1024 16:23:20.687666  1960 net.cpp:84] Creating Layer drop11
I1024 16:23:20.687666  1960 net.cpp:406] drop11 <- conv11
I1024 16:23:20.687666  1960 net.cpp:367] drop11 -> conv11 (in-place)
I1024 16:23:20.687666  1960 net.cpp:122] Setting up drop11
I1024 16:23:20.687666  1960 net.cpp:129] Top shape: 100 178 7 7 (872200)
I1024 16:23:20.687666  1960 net.cpp:137] Memory required for data: 773221200
I1024 16:23:20.687666  1960 layer_factory.cpp:58] Creating layer conv12
I1024 16:23:20.687666  1960 net.cpp:84] Creating Layer conv12
I1024 16:23:20.687666  1960 net.cpp:406] conv12 <- conv11
I1024 16:23:20.687666  1960 net.cpp:380] conv12 -> conv12
I1024 16:23:20.691666  1960 net.cpp:122] Setting up conv12
I1024 16:23:20.691666  1960 net.cpp:129] Top shape: 100 216 7 7 (1058400)
I1024 16:23:20.691666  1960 net.cpp:137] Memory required for data: 777454800
I1024 16:23:20.691666  1960 layer_factory.cpp:58] Creating layer bn_conv12
I1024 16:23:20.691666  1960 net.cpp:84] Creating Layer bn_conv12
I1024 16:23:20.691666  1960 net.cpp:406] bn_conv12 <- conv12
I1024 16:23:20.691666  1960 net.cpp:367] bn_conv12 -> conv12 (in-place)
I1024 16:23:20.691666  1960 net.cpp:122] Setting up bn_conv12
I1024 16:23:20.691666  1960 net.cpp:129] Top shape: 100 216 7 7 (1058400)
I1024 16:23:20.691666  1960 net.cpp:137] Memory required for data: 781688400
I1024 16:23:20.691666  1960 layer_factory.cpp:58] Creating layer scale_conv12
I1024 16:23:20.691666  1960 net.cpp:84] Creating Layer scale_conv12
I1024 16:23:20.691666  1960 net.cpp:406] scale_conv12 <- conv12
I1024 16:23:20.691666  1960 net.cpp:367] scale_conv12 -> conv12 (in-place)
I1024 16:23:20.691666  1960 layer_factory.cpp:58] Creating layer scale_conv12
I1024 16:23:20.692667  1960 net.cpp:122] Setting up scale_conv12
I1024 16:23:20.692667  1960 net.cpp:129] Top shape: 100 216 7 7 (1058400)
I1024 16:23:20.692667  1960 net.cpp:137] Memory required for data: 785922000
I1024 16:23:20.692667  1960 layer_factory.cpp:58] Creating layer relu_conv12
I1024 16:23:20.692667  1960 net.cpp:84] Creating Layer relu_conv12
I1024 16:23:20.692667  1960 net.cpp:406] relu_conv12 <- conv12
I1024 16:23:20.692667  1960 net.cpp:367] relu_conv12 -> conv12 (in-place)
I1024 16:23:20.692667  1960 net.cpp:122] Setting up relu_conv12
I1024 16:23:20.692667  1960 net.cpp:129] Top shape: 100 216 7 7 (1058400)
I1024 16:23:20.692667  1960 net.cpp:137] Memory required for data: 790155600
I1024 16:23:20.692667  1960 layer_factory.cpp:58] Creating layer poolcp6
I1024 16:23:20.692667  1960 net.cpp:84] Creating Layer poolcp6
I1024 16:23:20.692667  1960 net.cpp:406] poolcp6 <- conv12
I1024 16:23:20.692667  1960 net.cpp:380] poolcp6 -> poolcp6
I1024 16:23:20.692667  1960 net.cpp:122] Setting up poolcp6
I1024 16:23:20.692667  1960 net.cpp:129] Top shape: 100 216 1 1 (21600)
I1024 16:23:20.692667  1960 net.cpp:137] Memory required for data: 790242000
I1024 16:23:20.692667  1960 layer_factory.cpp:58] Creating layer drop12
I1024 16:23:20.692667  1960 net.cpp:84] Creating Layer drop12
I1024 16:23:20.692667  1960 net.cpp:406] drop12 <- poolcp6
I1024 16:23:20.692667  1960 net.cpp:367] drop12 -> poolcp6 (in-place)
I1024 16:23:20.692667  1960 net.cpp:122] Setting up drop12
I1024 16:23:20.692667  1960 net.cpp:129] Top shape: 100 216 1 1 (21600)
I1024 16:23:20.692667  1960 net.cpp:137] Memory required for data: 790328400
I1024 16:23:20.692667  1960 layer_factory.cpp:58] Creating layer ip1
I1024 16:23:20.692667  1960 net.cpp:84] Creating Layer ip1
I1024 16:23:20.692667  1960 net.cpp:406] ip1 <- poolcp6
I1024 16:23:20.692667  1960 net.cpp:380] ip1 -> ip1
I1024 16:23:20.693667  1960 net.cpp:122] Setting up ip1
I1024 16:23:20.693667  1960 net.cpp:129] Top shape: 100 10 (1000)
I1024 16:23:20.693667  1960 net.cpp:137] Memory required for data: 790332400
I1024 16:23:20.693667  1960 layer_factory.cpp:58] Creating layer ip1_ip1_0_split
I1024 16:23:20.693667  1960 net.cpp:84] Creating Layer ip1_ip1_0_split
I1024 16:23:20.693667  1960 net.cpp:406] ip1_ip1_0_split <- ip1
I1024 16:23:20.693667  1960 net.cpp:380] ip1_ip1_0_split -> ip1_ip1_0_split_0
I1024 16:23:20.693667  1960 net.cpp:380] ip1_ip1_0_split -> ip1_ip1_0_split_1
I1024 16:23:20.693667  1960 net.cpp:122] Setting up ip1_ip1_0_split
I1024 16:23:20.693667  1960 net.cpp:129] Top shape: 100 10 (1000)
I1024 16:23:20.693667  1960 net.cpp:129] Top shape: 100 10 (1000)
I1024 16:23:20.693667  1960 net.cpp:137] Memory required for data: 790340400
I1024 16:23:20.693667  1960 layer_factory.cpp:58] Creating layer accuracy_training
I1024 16:23:20.693667  1960 net.cpp:84] Creating Layer accuracy_training
I1024 16:23:20.693667  1960 net.cpp:406] accuracy_training <- ip1_ip1_0_split_0
I1024 16:23:20.693667  1960 net.cpp:406] accuracy_training <- label_mnist_1_split_0
…
