…
I0626 01:07:53.449080 17260 net.cpp:294] The NetState phase (0) differed from the phase (1) specified by a rule in layer accuracy
I0626 01:07:53.449080 17260 net.cpp:51] Initializing net from parameters: 
name: "CIFAR10_Shallow_wide_1M_NoDrp_6L"
state {
  phase: TRAIN
  level: 0
  stage: ""
}
layer {
  name: "cifar"
  type: "Data"
  top: "data"
  top: "label"
  include {
    phase: TRAIN
  }
  transform_param {
    mirror: true
    crop_size: 32
  }
  data_param {
    source: "examples/cifar10/cifar10_train_leveldb_padding"
    batch_size: 100
    backend: LEVELDB
  }
}
layer {
  name: "conv1"
  type: "Convolution"
  bottom: "data"
  top: "conv1"
  param {
    lr_mult: 1
  }
  convolution_param {
    num_output: 64
    bias_term: true
    pad: 1
    kernel_size: 3
    stride: 1
    weight_filler {
      type: "xavier"
    }
  }
}
layer {
  name: "bn1"
  type: "BatchNorm"
  bottom: "conv1"
  top: "bn1"
  param {
    lr_mult: 0
    decay_mult: 0
  }
  param {
    lr_mult: 0
    decay_mult: 0
  }
  param {
    lr_mult: 0
    decay_mult: 0
  }
  include {
    phase: TRAIN
  }
  batch_norm_param {
    use_global_stats: false
    moving_average_fraction: 0.95
  }
}
layer {
  name: "scale1"
  type: "Scale"
  bottom: "bn1"
  top: "scale1"
  scale_param {
    bias_term: true
  }
}
layer {
  name: "relu1"
  type: "ReLU"
  bottom: "scale1"
  top: "relu1"
}
layer {
  name: "conv1_0"
  type: "Convolution"
  bottom: "relu1"
  top: "conv1_0"
  param {
    lr_mult: 1
  }
  convolution_param {
    num_output: 64
    bias_term: true
    pad: 1
    kernel_size: 3
    stride: 1
    weight_filler {
      type: "xavier"
    }
  }
}
layer {
  name: "bn1_0"
  type: "BatchNorm"
  bottom: "conv1_0"
  top: "bn1_0"
  param {
    lr_mult: 0
    decay_mult: 0
  }
  param {
    lr_mult: 0
    decay_mult: 0
  }
  param {
    lr_mult: 0
    decay_mult: 0
  }
  include {
    phase: TRAIN
  }
  batch_norm_param {
    use_global_stats: false
    moving_average_fraction: 0.95
  }
}
layer {
  name: "scale1_0"
  type: "Scale"
  bottom: "bn1_0"
  top: "scale1_0"
  scale_param {
    bias_term: true
  }
}
layer {
  name: "relu1_0"
  type: "ReLU"
  bottom: "scale1_0"
  top: "relu1_0"
}
layer {
  name: "pool1"
  type: "Pooling"
  bottom: "relu1_0"
  top: "pool1"
  pooling_param {
    pool: MAX
    kernel_size: 2
    stride: 2
  }
}
layer {
  name: "conv2"
  type: "Convolution"
  bottom: "pool1"
  top: "conv2"
  param {
    lr_mult: 1
  }
  convolution_param {
    num_output: 128
    bias_term: true
    pad: 1
    kernel_size: 3
    stride: 1
    weight_filler {
      type: "gaussian"
      std: 0.01
    }
  }
}
layer {
  name: "bn2"
  type: "BatchNorm"
  bottom: "conv2"
  top: "bn2"
  param {
    lr_mult: 0
    decay_mult: 0
  }
  param {
    lr_mult: 0
    decay_mult: 0
  }
  param {
    lr_mult: 0
    decay_mult: 0
  }
  include {
    phase: TRAIN
  }
  batch_norm_param {
    use_global_stats: false
    moving_average_fraction: 0.95
  }
}
layer {
  name: "scale2"
  type: "Scale"
  bottom: "bn2"
  top: "scale2"
  scale_param {
    bias_term: true
  }
}
layer {
  name: "relu2"
  type: "ReLU"
  bottom: "scale2"
  top: "relu2"
}
layer {
  name: "conv2_1"
  type: "Convolution"
  bottom: "relu2"
  top: "conv2_1"
  param {
    lr_mult: 1
  }
  convolution_param {
    num_output: 128
    bias_term: true
    pad: 1
    kernel_size: 3
    stride: 1
    weight_filler {
      type: "gaussian"
      std: 0.01
    }
  }
}
layer {
  name: "bn2_1"
  type: "BatchNorm"
  bottom: "conv2_1"
  top: "bn2_1"
  param {
    lr_mult: 0
    decay_mult: 0
  }
  param {
    lr_mult: 0
    decay_mult: 0
  }
  param {
    lr_mult: 0
    decay_mult: 0
  }
  include {
    phase: TRAIN
  }
  batch_norm_param {
    use_global_stats: false
    moving_average_fraction: 0.95
  }
}
layer {
  name: "scale2_1"
  type: "Scale"
  bottom: "bn2_1"
  top: "scale2_1"
  scale_param {
    bias_term: true
  }
}
layer {
  name: "relu2_1"
  type: "ReLU"
  bottom: "scale2_1"
  top: "relu2_1"
}
layer {
  name: "pool2_1"
  type: "Pooling"
  bottom: "relu2_1"
  top: "pool2_1"
  pooling_param {
    pool: MAX
    kernel_size: 2
    stride: 2
  }
}
layer {
  name: "conv2_2"
  type: "Convolution"
  bottom: "pool2_1"
  top: "conv2_2"
  param {
    lr_mult: 1
  }
  convolution_param {
    num_output: 256
    bias_term: true
    pad: 1
    kernel_size: 3
    stride: 1
    weight_filler {
      type: "gaussian"
      std: 0.01
    }
  }
}
layer {
  name: "bn2_2"
  type: "BatchNorm"
  bottom: "conv2_2"
  top: "bn2_2"
  param {
    lr_mult: 0
    decay_mult: 0
  }
  param {
    lr_mult: 0
    decay_mult: 0
  }
  param {
    lr_mult: 0
    decay_mult: 0
  }
  include {
    phase: TRAIN
  }
  batch_norm_param {
    use_global_stats: false
    moving_average_fraction: 0.95
  }
}
layer {
  name: "scale2_2"
  type: "Scale"
  bottom: "bn2_2"
  top: "scale2_2"
  scale_param {
    bias_term: true
  }
}
layer {
  name: "relu2_2"
  type: "ReLU"
  bottom: "scale2_2"
  top: "relu2_2"
}
layer {
  name: "conv3"
  type: "Convolution"
  bottom: "relu2_2"
  top: "conv3"
  param {
    lr_mult: 1
  }
  convolution_param {
    num_output: 256
    bias_term: true
    pad: 1
    kernel_size: 3
    stride: 1
    weight_filler {
      type: "xavier"
    }
  }
}
layer {
  name: "bn3"
  type: "BatchNorm"
  bottom: "conv3"
  top: "bn3"
  param {
    lr_mult: 0
    decay_mult: 0
  }
  param {
    lr_mult: 0
    decay_mult: 0
  }
  param {
    lr_mult: 0
    decay_mult: 0
  }
  include {
    phase: TRAIN
  }
  batch_norm_param {
    use_global_stats: false
    moving_average_fraction: 0.95
  }
}
layer {
  name: "scale3"
  type: "Scale"
  bottom: "bn3"
  top: "scale3"
  scale_param {
    bias_term: true
  }
}
layer {
  name: "relu3"
  type: "ReLU"
  bottom: "scale3"
  top: "relu3"
}
layer {
  name: "pool_GP"
  type: "Pooling"
  bottom: "relu3"
  top: "pool_GP"
  pooling_param {
    pool: MAX
    global_pooling: true
  }
}
layer {
  name: "ip1"
  type: "InnerProduct"
  bottom: "pool_GP"
  top: "ip1"
  param {
    lr_mult: 1
    decay_mult: 0
  }
  param {
    lr_mult: 2
    decay_mult: 0
  }
  inner_product_param {
    num_output: 10
    weight_filler {
      type: "xavier"
    }
    bias_filler {
      type: "constant"
    }
  }
}
layer {
  name: "accuracy_training"
  type: "Accuracy"
  bottom: "ip1"
  bottom: "label"
  top: "accuracy_training"
  include {
    phase: TRAIN
  }
}
layer {
  name: "loss"
  type: "SoftmaxWithLoss"
  bottom: "ip1"
  bottom: "label"
  top: "loss"
}
I0626 01:07:53.469084 17260 layer_factory.cpp:58] Creating layer cifar
I0626 01:07:53.489084 17260 db_leveldb.cpp:18] Opened leveldb examples/cifar10/cifar10_train_leveldb_padding
I0626 01:07:53.489084 17260 net.cpp:84] Creating Layer cifar
I0626 01:07:53.489084 17260 net.cpp:380] cifar -> data
I0626 01:07:53.489084 17260 net.cpp:380] cifar -> label
I0626 01:07:53.489084 17260 common.cpp:36] System entropy source not available, using fallback algorithm to generate seed instead.
I0626 01:07:53.489084 17260 data_layer.cpp:45] output data size: 100,3,32,32
I0626 01:07:53.501098 17260 net.cpp:122] Setting up cifar
I0626 01:07:53.501098 17260 net.cpp:129] Top shape: 100 3 32 32 (307200)
I0626 01:07:53.501098 17260 net.cpp:129] Top shape: 100 (100)
I0626 01:07:53.501098 17260 net.cpp:137] Memory required for data: 1229200
I0626 01:07:53.501098 17260 layer_factory.cpp:58] Creating layer label_cifar_1_split
I0626 01:07:53.501098 17260 net.cpp:84] Creating Layer label_cifar_1_split
I0626 01:07:53.501098 17260 net.cpp:406] label_cifar_1_split <- label
I0626 01:07:53.501098 17260 net.cpp:380] label_cifar_1_split -> label_cifar_1_split_0
I0626 01:07:53.501098 17260 net.cpp:380] label_cifar_1_split -> label_cifar_1_split_1
I0626 01:07:53.501598 17260 net.cpp:122] Setting up label_cifar_1_split
I0626 01:07:53.501598 17260 net.cpp:129] Top shape: 100 (100)
I0626 01:07:53.501598 17260 net.cpp:129] Top shape: 100 (100)
I0626 01:07:53.501598 17260 net.cpp:137] Memory required for data: 1230000
I0626 01:07:53.501598 17260 layer_factory.cpp:58] Creating layer conv1
I0626 01:07:53.501598 17260 net.cpp:84] Creating Layer conv1
I0626 01:07:53.501598 17260 net.cpp:406] conv1 <- data
I0626 01:07:53.501598 17260 net.cpp:380] conv1 -> conv1
I0626 01:07:53.502099 14952 common.cpp:36] System entropy source not available, using fallback algorithm to generate seed instead.
I0626 01:07:53.759397 17260 net.cpp:122] Setting up conv1
I0626 01:07:53.759397 17260 net.cpp:129] Top shape: 100 64 32 32 (6553600)
I0626 01:07:53.759397 17260 net.cpp:137] Memory required for data: 27444400
I0626 01:07:53.759397 17260 layer_factory.cpp:58] Creating layer bn1
I0626 01:07:53.759397 17260 net.cpp:84] Creating Layer bn1
I0626 01:07:53.759397 17260 net.cpp:406] bn1 <- conv1
I0626 01:07:53.759397 17260 net.cpp:380] bn1 -> bn1
I0626 01:07:53.759397 17260 net.cpp:122] Setting up bn1
I0626 01:07:53.759397 17260 net.cpp:129] Top shape: 100 64 32 32 (6553600)
I0626 01:07:53.759397 17260 net.cpp:137] Memory required for data: 53658800
I0626 01:07:53.759397 17260 layer_factory.cpp:58] Creating layer scale1
I0626 01:07:53.759397 17260 net.cpp:84] Creating Layer scale1
I0626 01:07:53.759397 17260 net.cpp:406] scale1 <- bn1
I0626 01:07:53.759397 17260 net.cpp:380] scale1 -> scale1
I0626 01:07:53.759397 17260 layer_factory.cpp:58] Creating layer scale1
I0626 01:07:53.759397 17260 net.cpp:122] Setting up scale1
I0626 01:07:53.759397 17260 net.cpp:129] Top shape: 100 64 32 32 (6553600)
I0626 01:07:53.759397 17260 net.cpp:137] Memory required for data: 79873200
I0626 01:07:53.759397 17260 layer_factory.cpp:58] Creating layer relu1
I0626 01:07:53.759397 17260 net.cpp:84] Creating Layer relu1
I0626 01:07:53.759397 17260 net.cpp:406] relu1 <- scale1
I0626 01:07:53.759397 17260 net.cpp:380] relu1 -> relu1
I0626 01:07:53.759397 17260 net.cpp:122] Setting up relu1
I0626 01:07:53.759397 17260 net.cpp:129] Top shape: 100 64 32 32 (6553600)
I0626 01:07:53.759397 17260 net.cpp:137] Memory required for data: 106087600
I0626 01:07:53.759397 17260 layer_factory.cpp:58] Creating layer conv1_0
I0626 01:07:53.759397 17260 net.cpp:84] Creating Layer conv1_0
I0626 01:07:53.759397 17260 net.cpp:406] conv1_0 <- relu1
I0626 01:07:53.759397 17260 net.cpp:380] conv1_0 -> conv1_0
I0626 01:07:53.759397 17260 net.cpp:122] Setting up conv1_0
I0626 01:07:53.759397 17260 net.cpp:129] Top shape: 100 64 32 32 (6553600)
I0626 01:07:53.759397 17260 net.cpp:137] Memory required for data: 132302000
I0626 01:07:53.759397 17260 layer_factory.cpp:58] Creating layer bn1_0
I0626 01:07:53.759397 17260 net.cpp:84] Creating Layer bn1_0
I0626 01:07:53.759397 17260 net.cpp:406] bn1_0 <- conv1_0
I0626 01:07:53.759397 17260 net.cpp:380] bn1_0 -> bn1_0
I0626 01:07:53.759397 17260 net.cpp:122] Setting up bn1_0
I0626 01:07:53.759397 17260 net.cpp:129] Top shape: 100 64 32 32 (6553600)
I0626 01:07:53.759397 17260 net.cpp:137] Memory required for data: 158516400
I0626 01:07:53.759397 17260 layer_factory.cpp:58] Creating layer scale1_0
I0626 01:07:53.759397 17260 net.cpp:84] Creating Layer scale1_0
I0626 01:07:53.759397 17260 net.cpp:406] scale1_0 <- bn1_0
I0626 01:07:53.759397 17260 net.cpp:380] scale1_0 -> scale1_0
I0626 01:07:53.759397 17260 layer_factory.cpp:58] Creating layer scale1_0
I0626 01:07:53.759397 17260 net.cpp:122] Setting up scale1_0
I0626 01:07:53.759397 17260 net.cpp:129] Top shape: 100 64 32 32 (6553600)
I0626 01:07:53.759397 17260 net.cpp:137] Memory required for data: 184730800
I0626 01:07:53.759397 17260 layer_factory.cpp:58] Creating layer relu1_0
I0626 01:07:53.759397 17260 net.cpp:84] Creating Layer relu1_0
I0626 01:07:53.759397 17260 net.cpp:406] relu1_0 <- scale1_0
I0626 01:07:53.759397 17260 net.cpp:380] relu1_0 -> relu1_0
I0626 01:07:53.759397 17260 net.cpp:122] Setting up relu1_0
I0626 01:07:53.759397 17260 net.cpp:129] Top shape: 100 64 32 32 (6553600)
I0626 01:07:53.759397 17260 net.cpp:137] Memory required for data: 210945200
I0626 01:07:53.759397 17260 layer_factory.cpp:58] Creating layer pool1
I0626 01:07:53.759397 17260 net.cpp:84] Creating Layer pool1
I0626 01:07:53.759397 17260 net.cpp:406] pool1 <- relu1_0
I0626 01:07:53.759397 17260 net.cpp:380] pool1 -> pool1
I0626 01:07:53.759397 17260 net.cpp:122] Setting up pool1
I0626 01:07:53.759397 17260 net.cpp:129] Top shape: 100 64 16 16 (1638400)
I0626 01:07:53.759397 17260 net.cpp:137] Memory required for data: 217498800
I0626 01:07:53.759397 17260 layer_factory.cpp:58] Creating layer conv2
I0626 01:07:53.759397 17260 net.cpp:84] Creating Layer conv2
I0626 01:07:53.759397 17260 net.cpp:406] conv2 <- pool1
I0626 01:07:53.759397 17260 net.cpp:380] conv2 -> conv2
I0626 01:07:53.759397 17260 net.cpp:122] Setting up conv2
I0626 01:07:53.759397 17260 net.cpp:129] Top shape: 100 128 16 16 (3276800)
I0626 01:07:53.759397 17260 net.cpp:137] Memory required for data: 230606000
I0626 01:07:53.759397 17260 layer_factory.cpp:58] Creating layer bn2
I0626 01:07:53.759397 17260 net.cpp:84] Creating Layer bn2
I0626 01:07:53.759397 17260 net.cpp:406] bn2 <- conv2
I0626 01:07:53.759397 17260 net.cpp:380] bn2 -> bn2
I0626 01:07:53.759397 17260 net.cpp:122] Setting up bn2
I0626 01:07:53.759397 17260 net.cpp:129] Top shape: 100 128 16 16 (3276800)
I0626 01:07:53.759397 17260 net.cpp:137] Memory required for data: 243713200
I0626 01:07:53.759397 17260 layer_factory.cpp:58] Creating layer scale2
I0626 01:07:53.759397 17260 net.cpp:84] Creating Layer scale2
I0626 01:07:53.759397 17260 net.cpp:406] scale2 <- bn2
I0626 01:07:53.759397 17260 net.cpp:380] scale2 -> scale2
I0626 01:07:53.759397 17260 layer_factory.cpp:58] Creating layer scale2
I0626 01:07:53.759397 17260 net.cpp:122] Setting up scale2
I0626 01:07:53.759397 17260 net.cpp:129] Top shape: 100 128 16 16 (3276800)
I0626 01:07:53.759397 17260 net.cpp:137] Memory required for data: 256820400
I0626 01:07:53.759397 17260 layer_factory.cpp:58] Creating layer relu2
I0626 01:07:53.759397 17260 net.cpp:84] Creating Layer relu2
I0626 01:07:53.759397 17260 net.cpp:406] relu2 <- scale2
I0626 01:07:53.759397 17260 net.cpp:380] relu2 -> relu2
I0626 01:07:53.759397 17260 net.cpp:122] Setting up relu2
I0626 01:07:53.759397 17260 net.cpp:129] Top shape: 100 128 16 16 (3276800)
I0626 01:07:53.759397 17260 net.cpp:137] Memory required for data: 269927600
I0626 01:07:53.759397 17260 layer_factory.cpp:58] Creating layer conv2_1
I0626 01:07:53.759397 17260 net.cpp:84] Creating Layer conv2_1
I0626 01:07:53.759397 17260 net.cpp:406] conv2_1 <- relu2
I0626 01:07:53.759397 17260 net.cpp:380] conv2_1 -> conv2_1
I0626 01:07:53.772485 17260 net.cpp:122] Setting up conv2_1
I0626 01:07:53.772485 17260 net.cpp:129] Top shape: 100 128 16 16 (3276800)
I0626 01:07:53.772485 17260 net.cpp:137] Memory required for data: 283034800
I0626 01:07:53.772485 17260 layer_factory.cpp:58] Creating layer bn2_1
I0626 01:07:53.772485 17260 net.cpp:84] Creating Layer bn2_1
I0626 01:07:53.772485 17260 net.cpp:406] bn2_1 <- conv2_1
I0626 01:07:53.772485 17260 net.cpp:380] bn2_1 -> bn2_1
I0626 01:07:53.772485 17260 net.cpp:122] Setting up bn2_1
I0626 01:07:53.772485 17260 net.cpp:129] Top shape: 100 128 16 16 (3276800)
I0626 01:07:53.772485 17260 net.cpp:137] Memory required for data: 296142000
I0626 01:07:53.772485 17260 layer_factory.cpp:58] Creating layer scale2_1
I0626 01:07:53.772485 17260 net.cpp:84] Creating Layer scale2_1
I0626 01:07:53.772485 17260 net.cpp:406] scale2_1 <- bn2_1
I0626 01:07:53.772485 17260 net.cpp:380] scale2_1 -> scale2_1
I0626 01:07:53.772485 17260 layer_factory.cpp:58] Creating layer scale2_1
I0626 01:07:53.772485 17260 net.cpp:122] Setting up scale2_1
I0626 01:07:53.772485 17260 net.cpp:129] Top shape: 100 128 16 16 (3276800)
I0626 01:07:53.772485 17260 net.cpp:137] Memory required for data: 309249200
I0626 01:07:53.772485 17260 layer_factory.cpp:58] Creating layer relu2_1
I0626 01:07:53.772485 17260 net.cpp:84] Creating Layer relu2_1
I0626 01:07:53.772485 17260 net.cpp:406] relu2_1 <- scale2_1
I0626 01:07:53.772485 17260 net.cpp:380] relu2_1 -> relu2_1
I0626 01:07:53.772485 17260 net.cpp:122] Setting up relu2_1
I0626 01:07:53.772485 17260 net.cpp:129] Top shape: 100 128 16 16 (3276800)
I0626 01:07:53.772485 17260 net.cpp:137] Memory required for data: 322356400
I0626 01:07:53.772485 17260 layer_factory.cpp:58] Creating layer pool2_1
I0626 01:07:53.772485 17260 net.cpp:84] Creating Layer pool2_1
I0626 01:07:53.772485 17260 net.cpp:406] pool2_1 <- relu2_1
I0626 01:07:53.772485 17260 net.cpp:380] pool2_1 -> pool2_1
I0626 01:07:53.772485 17260 net.cpp:122] Setting up pool2_1
I0626 01:07:53.772485 17260 net.cpp:129] Top shape: 100 128 8 8 (819200)
I0626 01:07:53.772485 17260 net.cpp:137] Memory required for data: 325633200
I0626 01:07:53.772485 17260 layer_factory.cpp:58] Creating layer conv2_2
I0626 01:07:53.772485 17260 net.cpp:84] Creating Layer conv2_2
I0626 01:07:53.772485 17260 net.cpp:406] conv2_2 <- pool2_1
I0626 01:07:53.772485 17260 net.cpp:380] conv2_2 -> conv2_2
I0626 01:07:53.777493 17260 net.cpp:122] Setting up conv2_2
I0626 01:07:53.777493 17260 net.cpp:129] Top shape: 100 256 8 8 (1638400)
I0626 01:07:53.777493 17260 net.cpp:137] Memory required for data: 332186800
I0626 01:07:53.778493 17260 layer_factory.cpp:58] Creating layer bn2_2
I0626 01:07:53.778493 17260 net.cpp:84] Creating Layer bn2_2
I0626 01:07:53.778493 17260 net.cpp:406] bn2_2 <- conv2_2
I0626 01:07:53.778493 17260 net.cpp:380] bn2_2 -> bn2_2
I0626 01:07:53.778493 17260 net.cpp:122] Setting up bn2_2
I0626 01:07:53.778493 17260 net.cpp:129] Top shape: 100 256 8 8 (1638400)
I0626 01:07:53.778493 17260 net.cpp:137] Memory required for data: 338740400
I0626 01:07:53.778493 17260 layer_factory.cpp:58] Creating layer scale2_2
I0626 01:07:53.778493 17260 net.cpp:84] Creating Layer scale2_2
I0626 01:07:53.778493 17260 net.cpp:406] scale2_2 <- bn2_2
I0626 01:07:53.778493 17260 net.cpp:380] scale2_2 -> scale2_2
I0626 01:07:53.778493 17260 layer_factory.cpp:58] Creating layer scale2_2
I0626 01:07:53.778493 17260 net.cpp:122] Setting up scale2_2
I0626 01:07:53.778493 17260 net.cpp:129] Top shape: 100 256 8 8 (1638400)
I0626 01:07:53.778493 17260 net.cpp:137] Memory required for data: 345294000
I0626 01:07:53.778493 17260 layer_factory.cpp:58] Creating layer relu2_2
I0626 01:07:53.778493 17260 net.cpp:84] Creating Layer relu2_2
I0626 01:07:53.778493 17260 net.cpp:406] relu2_2 <- scale2_2
I0626 01:07:53.778493 17260 net.cpp:380] relu2_2 -> relu2_2
I0626 01:07:53.779489 17260 net.cpp:122] Setting up relu2_2
I0626 01:07:53.779489 17260 net.cpp:129] Top shape: 100 256 8 8 (1638400)
I0626 01:07:53.779489 17260 net.cpp:137] Memory required for data: 351847600
I0626 01:07:53.779489 17260 layer_factory.cpp:58] Creating layer conv3
I0626 01:07:53.779489 17260 net.cpp:84] Creating Layer conv3
I0626 01:07:53.779489 17260 net.cpp:406] conv3 <- relu2_2
I0626 01:07:53.779489 17260 net.cpp:380] conv3 -> conv3
I0626 01:07:53.785492 17260 net.cpp:122] Setting up conv3
I0626 01:07:53.785492 17260 net.cpp:129] Top shape: 100 256 8 8 (1638400)
I0626 01:07:53.785492 17260 net.cpp:137] Memory required for data: 358401200
I0626 01:07:53.785492 17260 layer_factory.cpp:58] Creating layer bn3
I0626 01:07:53.785492 17260 net.cpp:84] Creating Layer bn3
I0626 01:07:53.785492 17260 net.cpp:406] bn3 <- conv3
I0626 01:07:53.785492 17260 net.cpp:380] bn3 -> bn3
I0626 01:07:53.785492 17260 net.cpp:122] Setting up bn3
I0626 01:07:53.785492 17260 net.cpp:129] Top shape: 100 256 8 8 (1638400)
I0626 01:07:53.785492 17260 net.cpp:137] Memory required for data: 364954800
I0626 01:07:53.785492 17260 layer_factory.cpp:58] Creating layer scale3
I0626 01:07:53.785492 17260 net.cpp:84] Creating Layer scale3
I0626 01:07:53.785492 17260 net.cpp:406] scale3 <- bn3
I0626 01:07:53.785492 17260 net.cpp:380] scale3 -> scale3
I0626 01:07:53.785492 17260 layer_factory.cpp:58] Creating layer scale3
I0626 01:07:53.785492 17260 net.cpp:122] Setting up scale3
I0626 01:07:53.785492 17260 net.cpp:129] Top shape: 100 256 8 8 (1638400)
I0626 01:07:53.785492 17260 net.cpp:137] Memory required for data: 371508400
I0626 01:07:53.785492 17260 layer_factory.cpp:58] Creating layer relu3
I0626 01:07:53.785492 17260 net.cpp:84] Creating Layer relu3
I0626 01:07:53.785492 17260 net.cpp:406] relu3 <- scale3
I0626 01:07:53.785492 17260 net.cpp:380] relu3 -> relu3
I0626 01:07:53.785492 17260 net.cpp:122] Setting up relu3
I0626 01:07:53.785492 17260 net.cpp:129] Top shape: 100 256 8 8 (1638400)
I0626 01:07:53.785492 17260 net.cpp:137] Memory required for data: 378062000
I0626 01:07:53.785492 17260 layer_factory.cpp:58] Creating layer pool_GP
I0626 01:07:53.785492 17260 net.cpp:84] Creating Layer pool_GP
I0626 01:07:53.785492 17260 net.cpp:406] pool_GP <- relu3
I0626 01:07:53.785492 17260 net.cpp:380] pool_GP -> pool_GP
I0626 01:07:53.785492 17260 net.cpp:122] Setting up pool_GP
I0626 01:07:53.786492 17260 net.cpp:129] Top shape: 100 256 1 1 (25600)
I0626 01:07:53.786492 17260 net.cpp:137] Memory required for data: 378164400
I0626 01:07:53.786492 17260 layer_factory.cpp:58] Creating layer ip1
I0626 01:07:53.786492 17260 net.cpp:84] Creating Layer ip1
I0626 01:07:53.786492 17260 net.cpp:406] ip1 <- pool_GP
I0626 01:07:53.786492 17260 net.cpp:380] ip1 -> ip1
I0626 01:07:53.786492 17260 net.cpp:122] Setting up ip1
I0626 01:07:53.786492 17260 net.cpp:129] Top shape: 100 10 (1000)
I0626 01:07:53.786492 17260 net.cpp:137] Memory required for data: 378168400
I0626 01:07:53.786492 17260 layer_factory.cpp:58] Creating layer ip1_ip1_0_split
I0626 01:07:53.786492 17260 net.cpp:84] Creating Layer ip1_ip1_0_split
I0626 01:07:53.786492 17260 net.cpp:406] ip1_ip1_0_split <- ip1
I0626 01:07:53.786492 17260 net.cpp:380] ip1_ip1_0_split -> ip1_ip1_0_split_0
I0626 01:07:53.786492 17260 net.cpp:380] ip1_ip1_0_split -> ip1_ip1_0_split_1
I0626 01:07:53.786492 17260 net.cpp:122] Setting up ip1_ip1_0_split
I0626 01:07:53.786492 17260 net.cpp:129] Top shape: 100 10 (1000)
I0626 01:07:53.786492 17260 net.cpp:129] Top shape: 100 10 (1000)
I0626 01:07:53.786492 17260 net.cpp:137] Memory required for data: 378176400
I0626 01:07:53.786492 17260 layer_factory.cpp:58] Creating layer accuracy_training
I0626 01:07:53.786492 17260 net.cpp:84] Creating Layer accuracy_training
I0626 01:07:53.786492 17260 net.cpp:406] accuracy_training <- ip1_ip1_0_split_0
I0626 01:07:53.786492 17260 net.cpp:406] accuracy_training <- label_cifar_1_split_0
…
