…
I1107 16:43:08.387635  5452 net.cpp:294] The NetState phase (0) differed from the phase (1) specified by a rule in layer accuracy
I1107 16:43:08.387635  5452 net.cpp:51] Initializing net from parameters: 
name: "CIFAR10_Squeezenet_1.1_Batchnorm"
state {
  phase: TRAIN
  level: 0
  stage: ""
}
layer {
  name: "cifar"
  type: "Data"
  top: "data"
  top: "label"
  include {
    phase: TRAIN
  }
  transform_param {
    mirror: true
    crop_size: 32
  }
  data_param {
    source: "examples/cifar10/cifar10_train_leveldb_padding"
    batch_size: 100
    backend: LEVELDB
  }
}
layer {
  name: "conv1"
  type: "Convolution"
  bottom: "data"
  top: "conv1"
  convolution_param {
    num_output: 64
    kernel_size: 3
    stride: 1
    weight_filler {
      type: "xavier"
    }
  }
}
layer {
  name: "bn1"
  type: "BatchNorm"
  bottom: "conv1"
  top: "conv1"
  param {
    lr_mult: 0
    decay_mult: 0
  }
  param {
    lr_mult: 0
    decay_mult: 0
  }
  param {
    lr_mult: 0
    decay_mult: 0
  }
  include {
    phase: TRAIN
  }
  batch_norm_param {
    use_global_stats: false
    moving_average_fraction: 0.99
  }
}
layer {
  name: "scale1"
  type: "Scale"
  bottom: "conv1"
  top: "conv1"
  scale_param {
    bias_term: true
  }
}
layer {
  name: "relu_conv1"
  type: "ReLU"
  bottom: "conv1"
  top: "conv1"
}
layer {
  name: "pool1"
  type: "Pooling"
  bottom: "conv1"
  top: "pool1"
  pooling_param {
    pool: MAX
    kernel_size: 3
    stride: 1
  }
}
layer {
  name: "fire2/squeeze1x1"
  type: "Convolution"
  bottom: "pool1"
  top: "fire2/squeeze1x1"
  convolution_param {
    num_output: 16
    kernel_size: 1
    weight_filler {
      type: "xavier"
    }
  }
}
layer {
  name: "fire2/relu_squeeze1x1"
  type: "ReLU"
  bottom: "fire2/squeeze1x1"
  top: "fire2/squeeze1x1"
}
layer {
  name: "fire2/expand1x1"
  type: "Convolution"
  bottom: "fire2/squeeze1x1"
  top: "conv2"
  convolution_param {
    num_output: 64
    kernel_size: 1
    weight_filler {
      type: "xavier"
    }
  }
}
layer {
  name: "bn2"
  type: "BatchNorm"
  bottom: "conv2"
  top: "conv2"
  param {
    lr_mult: 0
    decay_mult: 0
  }
  param {
    lr_mult: 0
    decay_mult: 0
  }
  param {
    lr_mult: 0
    decay_mult: 0
  }
  include {
    phase: TRAIN
  }
  batch_norm_param {
    use_global_stats: false
    moving_average_fraction: 0.99
  }
}
layer {
  name: "scale2"
  type: "Scale"
  bottom: "conv2"
  top: "fire2/expand1x1"
  scale_param {
    bias_term: true
  }
}
layer {
  name: "fire2/relu_expand1x1"
  type: "ReLU"
  bottom: "fire2/expand1x1"
  top: "fire2/expand1x1"
}
layer {
  name: "fire2/expand3x3"
  type: "Convolution"
  bottom: "fire2/squeeze1x1"
  top: "conv_3"
  convolution_param {
    num_output: 64
    pad: 1
    kernel_size: 3
    weight_filler {
      type: "xavier"
    }
  }
}
layer {
  name: "bn_3"
  type: "BatchNorm"
  bottom: "conv_3"
  top: "conv_3"
  param {
    lr_mult: 0
    decay_mult: 0
  }
  param {
    lr_mult: 0
    decay_mult: 0
  }
  param {
    lr_mult: 0
    decay_mult: 0
  }
  include {
    phase: TRAIN
  }
  batch_norm_param {
    use_global_stats: false
    moving_average_fraction: 0.99
  }
}
layer {
  name: "scale_3"
  type: "Scale"
  bottom: "conv_3"
  top: "fire2/expand3x3"
  scale_param {
    bias_term: true
  }
}
layer {
  name: "fire2/relu_expand3x3"
  type: "ReLU"
  bottom: "fire2/expand3x3"
  top: "fire2/expand3x3"
}
layer {
  name: "fire2/concat"
  type: "Concat"
  bottom: "fire2/expand1x1"
  bottom: "fire2/expand3x3"
  top: "fire2/concat"
}
layer {
  name: "fire3/squeeze1x1"
  type: "Convolution"
  bottom: "fire2/concat"
  top: "conv_4"
  convolution_param {
    num_output: 16
    kernel_size: 1
    weight_filler {
      type: "xavier"
    }
  }
}
layer {
  name: "bn_4"
  type: "BatchNorm"
  bottom: "conv_4"
  top: "conv_4"
  param {
    lr_mult: 0
    decay_mult: 0
  }
  param {
    lr_mult: 0
    decay_mult: 0
  }
  param {
    lr_mult: 0
    decay_mult: 0
  }
  include {
    phase: TRAIN
  }
  batch_norm_param {
    use_global_stats: false
    moving_average_fraction: 0.99
  }
}
layer {
  name: "scale_4"
  type: "Scale"
  bottom: "conv_4"
  top: "fire3/squeeze1x1"
  scale_param {
    bias_term: true
  }
}
layer {
  name: "fire3/relu_squeeze1x1"
  type: "ReLU"
  bottom: "fire3/squeeze1x1"
  top: "fire3/squeeze1x1"
}
layer {
  name: "fire3/expand1x1"
  type: "Convolution"
  bottom: "fire3/squeeze1x1"
  top: "conv_5"
  convolution_param {
    num_output: 64
    kernel_size: 1
    weight_filler {
      type: "xavier"
    }
  }
}
layer {
  name: "bn_5"
  type: "BatchNorm"
  bottom: "conv_5"
  top: "conv_5"
  param {
    lr_mult: 0
    decay_mult: 0
  }
  param {
    lr_mult: 0
    decay_mult: 0
  }
  param {
    lr_mult: 0
    decay_mult: 0
  }
  include {
    phase: TRAIN
  }
  batch_norm_param {
    use_global_stats: false
    moving_average_fraction: 0.99
  }
}
layer {
  name: "scale_5"
  type: "Scale"
  bottom: "conv_5"
  top: "fire3/expand1x1"
  scale_param {
    bias_term: true
  }
}
layer {
  name: "fire3/relu_expand1x1"
  type: "ReLU"
  bottom: "fire3/expand1x1"
  top: "fire3/expand1x1"
}
layer {
  name: "fire3/expand3x3"
  type: "Convolution"
  bottom: "fire3/squeeze1x1"
  top: "conv_6"
  convolution_param {
    num_output: 64
    pad: 1
    kernel_size: 3
    weight_filler {
      type: "xavier"
    }
  }
}
layer {
  name: "bn_6"
  type: "BatchNorm"
  bottom: "conv_6"
  top: "conv_6"
  param {
    lr_mult: 0
    decay_mult: 0
  }
  param {
    lr_mult: 0
    decay_mult: 0
  }
  param {
    lr_mult: 0
    decay_mult: 0
  }
  include {
    phase: TRAIN
  }
  batch_norm_param {
    use_global_stats: false
    moving_average_fraction: 0.99
  }
}
layer {
  name: "scale_6"
  type: "Scale"
  bottom: "conv_6"
  top: "fire3/expand3x3"
  scale_param {
    bias_term: true
  }
}
layer {
  name: "fire3/relu_expand3x3"
  type: "ReLU"
  bottom: "fire3/expand3x3"
  top: "fire3/expand3x3"
}
layer {
  name: "fire3/concat"
  type: "Concat"
  bottom: "fire3/expand1x1"
  bottom: "fire3/expand3x3"
  top: "fire3/concat"
}
layer {
  name: "pool3"
  type: "Pooling"
  bottom: "fire3/concat"
  top: "pool3"
  pooling_param {
    pool: MAX
    kernel_size: 3
    stride: 2
  }
}
layer {
  name: "fire4/squeeze1x1"
  type: "Convolution"
  bottom: "pool3"
  top: "conv_7"
  convolution_param {
    num_output: 32
    kernel_size: 1
    weight_filler {
      type: "xavier"
    }
  }
}
layer {
  name: "bn_7"
  type: "BatchNorm"
  bottom: "conv_7"
  top: "conv_7"
  param {
    lr_mult: 0
    decay_mult: 0
  }
  param {
    lr_mult: 0
    decay_mult: 0
  }
  param {
    lr_mult: 0
    decay_mult: 0
  }
  include {
    phase: TRAIN
  }
  batch_norm_param {
    use_global_stats: false
    moving_average_fraction: 0.99
  }
}
layer {
  name: "scale_7"
  type: "Scale"
  bottom: "conv_7"
  top: "fire4/squeeze1x1"
  scale_param {
    bias_term: true
  }
}
layer {
  name: "fire4/relu_squeeze1x1"
  type: "ReLU"
  bottom: "fire4/squeeze1x1"
  top: "fire4/squeeze1x1"
}
layer {
  name: "fire4/expand1x1"
  type: "Convolution"
  bottom: "fire4/squeeze1x1"
  top: "fire4/expand1x1"
  convolution_param {
    num_output: 128
    kernel_size: 1
    weight_filler {
      type: "xavier"
    }
  }
}
layer {
  name: "fire4/relu_expand1x1"
  type: "ReLU"
  bottom: "fire4/expand1x1"
  top: "fire4/expand1x1"
}
layer {
  name: "fire4/expand3x3"
  type: "Convolution"
  bottom: "fire4/squeeze1x1"
  top: "conv_8"
  convolution_param {
    num_output: 128
    pad: 1
    kernel_size: 3
    weight_filler {
      type: "xavier"
    }
  }
}
layer {
  name: "bn_8"
  type: "BatchNorm"
  bottom: "conv_8"
  top: "conv_8"
  param {
    lr_mult: 0
    decay_mult: 0
  }
  param {
    lr_mult: 0
    decay_mult: 0
  }
  param {
    lr_mult: 0
    decay_mult: 0
  }
  include {
    phase: TRAIN
  }
  batch_norm_param {
    use_global_stats: false
    moving_average_fraction: 0.99
  }
}
layer {
  name: "scale_8"
  type: "Scale"
  bottom: "conv_8"
  top: "fire4/expand3x3"
  scale_param {
    bias_term: true
  }
}
layer {
  name: "fire4/relu_expand3x3"
  type: "ReLU"
  bottom: "fire4/expand3x3"
  top: "fire4/expand3x3"
}
layer {
  name: "fire4/concat"
  type: "Concat"
  bottom: "fire4/expand1x1"
  bottom: "fire4/expand3x3"
  top: "fire4/concat"
}
layer {
  name: "fire5/squeeze1x1"
  type: "Convolution"
  bottom: "fire4/concat"
  top: "conv_9"
  convolution_param {
    num_output: 32
    kernel_size: 1
    weight_filler {
      type: "xavier"
    }
  }
}
layer {
  name: "bn_9"
  type: "BatchNorm"
  bottom: "conv_9"
  top: "conv_9"
  param {
    lr_mult: 0
    decay_mult: 0
  }
  param {
    lr_mult: 0
    decay_mult: 0
  }
  param {
    lr_mult: 0
    decay_mult: 0
  }
  include {
    phase: TRAIN
  }
  batch_norm_param {
    use_global_stats: false
    moving_average_fraction: 0.99
  }
}
layer {
  name: "scale_9"
  type: "Scale"
  bottom: "conv_9"
  top: "fire5/squeeze1x1"
  scale_param {
    bias_term: true
  }
}
layer {
  name: "fire5/relu_squeeze1x1"
  type: "ReLU"
  bottom: "fire5/squeeze1x1"
  top: "fire5/squeeze1x1"
}
layer {
  name: "fire5/expand1x1"
  type: "Convolution"
  bottom: "fire5/squeeze1x1"
  top: "conv_10"
  convolution_param {
    num_output: 128
    kernel_size: 1
    weight_filler {
      type: "xavier"
    }
  }
}
layer {
  name: "bn_10"
  type: "BatchNorm"
  bottom: "conv_10"
  top: "conv_10"
  param {
    lr_mult: 0
    decay_mult: 0
  }
  param {
    lr_mult: 0
    decay_mult: 0
  }
  param {
    lr_mult: 0
    decay_mult: 0
  }
  include {
    phase: TRAIN
  }
  batch_norm_param {
    use_global_stats: false
    moving_average_fraction: 0.99
  }
}
layer {
  name: "scale_10"
  type: "Scale"
  bottom: "conv_10"
  top: "fire5/expand1x1"
  scale_param {
    bias_term: true
  }
}
layer {
  name: "fire5/relu_expand1x1"
  type: "ReLU"
  bottom: "fire5/expand1x1"
  top: "fire5/expand1x1"
}
layer {
  name: "fire5/expand3x3"
  type: "Convolution"
  bottom: "fire5/squeeze1x1"
  top: "conv_11"
  convolution_param {
    num_output: 128
    pad: 1
    kernel_size: 3
    weight_filler {
      type: "xavier"
    }
  }
}
layer {
  name: "bn_11"
  type: "BatchNorm"
  bottom: "conv_11"
  top: "conv_11"
  param {
    lr_mult: 0
    decay_mult: 0
  }
  param {
    lr_mult: 0
    decay_mult: 0
  }
  param {
    lr_mult: 0
    decay_mult: 0
  }
  include {
    phase: TRAIN
  }
  batch_norm_param {
    use_global_stats: false
    moving_average_fraction: 0.99
  }
}
layer {
  name: "scale_11"
  type: "Scale"
  bottom: "conv_11"
  top: "fire5/expand3x3"
  scale_param {
    bias_term: true
  }
}
layer {
  name: "fire5/relu_expand3x3"
  type: "ReLU"
  bottom: "fire5/expand3x3"
  top: "fire5/expand3x3"
}
layer {
  name: "fire5/concat"
  type: "Concat"
  bottom: "fire5/expand1x1"
  bottom: "fire5/expand3x3"
  top: "fire5/concat"
}
layer {
  name: "pool5"
  type: "Pooling"
  bottom: "fire5/concat"
  top: "pool5"
  pooling_param {
    pool: MAX
    kernel_size: 3
    stride: 2
  }
}
layer {
  name: "fire6/squeeze1x1"
  type: "Convolution"
  bottom: "pool5"
  top: "conv_12"
  convolution_param {
    num_output: 48
    kernel_size: 1
    weight_filler {
      type: "xavier"
    }
  }
}
layer {
  name: "bn_12"
  type: "BatchNorm"
  bottom: "conv_12"
  top: "conv_12"
  param {
    lr_mult: 0
    decay_mult: 0
  }
  param {
    lr_mult: 0
    decay_mult: 0
  }
  param {
    lr_mult: 0
    decay_mult: 0
  }
  include {
    phase: TRAIN
  }
  batch_norm_param {
    use_global_stats: false
    moving_average_fraction: 0.99
  }
}
layer {
  name: "scale_12"
  type: "Scale"
  bottom: "conv_12"
  top: "fire6/squeeze1x1"
  scale_param {
    bias_term: true
  }
}
layer {
  name: "fire6/relu_squeeze1x1"
  type: "ReLU"
  bottom: "fire6/squeeze1x1"
  top: "fire6/squeeze1x1"
}
layer {
  name: "fire6/expand1x1"
  type: "Convolution"
  bottom: "fire6/squeeze1x1"
  top: "conv_13"
  convolution_param {
    num_output: 192
    kernel_size: 1
    weight_filler {
      type: "xavier"
    }
  }
}
layer {
  name: "bn_13"
  type: "BatchNorm"
  bottom: "conv_13"
  top: "conv_13"
  param {
    lr_mult: 0
    decay_mult: 0
  }
  param {
    lr_mult: 0
    decay_mult: 0
  }
  param {
    lr_mult: 0
    decay_mult: 0
  }
  include {
    phase: TRAIN
  }
  batch_norm_param {
    use_global_stats: false
    moving_average_fraction: 0.99
  }
}
layer {
  name: "scale_13"
  type: "Scale"
  bottom: "conv_13"
  top: "fire6/expand1x1"
  scale_param {
    bias_term: true
  }
}
layer {
  name: "fire6/relu_expand1x1"
  type: "ReLU"
  bottom: "fire6/expand1x1"
  top: "fire6/expand1x1"
}
layer {
  name: "fire6/expand3x3"
  type: "Convolution"
  bottom: "fire6/squeeze1x1"
  top: "conv_14"
  convolution_param {
    num_output: 192
    pad: 1
    kernel_size: 3
    weight_filler {
      type: "xavier"
    }
  }
}
layer {
  name: "bn_14"
  type: "BatchNorm"
  bottom: "conv_14"
  top: "conv_14"
  param {
    lr_mult: 0
    decay_mult: 0
  }
  param {
    lr_mult: 0
    decay_mult: 0
  }
  param {
    lr_mult: 0
    decay_mult: 0
  }
  include {
    phase: TRAIN
  }
  batch_norm_param {
    use_global_stats: false
    moving_average_fraction: 0.99
  }
}
layer {
  name: "scale_14"
  type: "Scale"
  bottom: "conv_14"
  top: "fire6/expand3x3"
  scale_param {
    bias_term: true
  }
}
layer {
  name: "fire6/relu_expand3x3"
  type: "ReLU"
  bottom: "fire6/expand3x3"
  top: "fire6/expand3x3"
}
layer {
  name: "fire6/concat"
  type: "Concat"
  bottom: "fire6/expand1x1"
  bottom: "fire6/expand3x3"
  top: "fire6/concat"
}
layer {
  name: "fire7/squeeze1x1"
  type: "Convolution"
  bottom: "fire6/concat"
  top: "conv_15"
  convolution_param {
    num_output: 48
    kernel_size: 1
    weight_filler {
      type: "xavier"
    }
  }
}
layer {
  name: "bn_15"
  type: "BatchNorm"
  bottom: "conv_15"
  top: "conv_15"
  param {
    lr_mult: 0
    decay_mult: 0
  }
  param {
    lr_mult: 0
    decay_mult: 0
  }
  param {
    lr_mult: 0
    decay_mult: 0
  }
  include {
    phase: TRAIN
  }
  batch_norm_param {
    use_global_stats: false
    moving_average_fraction: 0.99
  }
}
layer {
  name: "scale_15"
  type: "Scale"
  bottom: "conv_15"
  top: "fire7/squeeze1x1"
  scale_param {
    bias_term: true
  }
}
layer {
  name: "fire7/relu_squeeze1x1"
  type: "ReLU"
  bottom: "fire7/squeeze1x1"
  top: "fire7/squeeze1x1"
}
layer {
  name: "fire7/expand1x1"
  type: "Convolution"
  bottom: "fire7/squeeze1x1"
  top: "conv_16"
  convolution_param {
    num_output: 192
    kernel_size: 1
    weight_filler {
      type: "xavier"
    }
  }
}
layer {
  name: "bn_16"
  type: "BatchNorm"
  bottom: "conv_16"
  top: "conv_16"
  param {
    lr_mult: 0
    decay_mult: 0
  }
  param {
    lr_mult: 0
    decay_mult: 0
  }
  param {
    lr_mult: 0
    decay_mult: 0
  }
  include {
    phase: TRAIN
  }
  batch_norm_param {
    use_global_stats: false
    moving_average_fraction: 0.99
  }
}
layer {
  name: "scale_16"
  type: "Scale"
  bottom: "conv_16"
  top: "fire7/expand1x1"
  scale_param {
    bias_term: true
  }
}
layer {
  name: "fire7/relu_expand1x1"
  type: "ReLU"
  bottom: "fire7/expand1x1"
  top: "fire7/expand1x1"
}
layer {
  name: "fire7/expand3x3"
  type: "Convolution"
  bottom: "fire7/squeeze1x1"
  top: "conv_17"
  convolution_param {
    num_output: 192
    pad: 1
    kernel_size: 3
    weight_filler {
      type: "xavier"
    }
  }
}
layer {
  name: "bn_17"
  type: "BatchNorm"
  bottom: "conv_17"
  top: "conv_17"
  param {
    lr_mult: 0
    decay_mult: 0
  }
  param {
    lr_mult: 0
    decay_mult: 0
  }
  param {
    lr_mult: 0
    decay_mult: 0
  }
  include {
    phase: TRAIN
  }
  batch_norm_param {
    use_global_stats: false
    moving_average_fraction: 0.99
  }
}
layer {
  name: "scale_17"
  type: "Scale"
  bottom: "conv_17"
  top: "fire7/expand3x3"
  scale_param {
    bias_term: true
  }
}
layer {
  name: "fire7/relu_expand3x3"
  type: "ReLU"
  bottom: "fire7/expand3x3"
  top: "fire7/expand3x3"
}
layer {
  name: "fire7/concat"
  type: "Concat"
  bottom: "fire7/expand1x1"
  bottom: "fire7/expand3x3"
  top: "fire7/concat"
}
layer {
  name: "fire8/squeeze1x1"
  type: "Convolution"
  bottom: "fire7/concat"
  top: "conv_18"
  convolution_param {
    num_output: 64
    kernel_size: 1
    weight_filler {
      type: "xavier"
    }
  }
}
layer {
  name: "bn_18"
  type: "BatchNorm"
  bottom: "conv_18"
  top: "conv_18"
  param {
    lr_mult: 0
    decay_mult: 0
  }
  param {
    lr_mult: 0
    decay_mult: 0
  }
  param {
    lr_mult: 0
    decay_mult: 0
  }
  include {
    phase: TRAIN
  }
  batch_norm_param {
    use_global_stats: false
    moving_average_fraction: 0.99
  }
}
layer {
  name: "scale_18"
  type: "Scale"
  bottom: "conv_18"
  top: "fire8/squeeze1x1"
  scale_param {
    bias_term: true
  }
}
layer {
  name: "fire8/relu_squeeze1x1"
  type: "ReLU"
  bottom: "fire8/squeeze1x1"
  top: "fire8/squeeze1x1"
}
layer {
  name: "fire8/expand1x1"
  type: "Convolution"
  bottom: "fire8/squeeze1x1"
  top: "conv_19"
  convolution_param {
    num_output: 256
    kernel_size: 1
    weight_filler {
      type: "xavier"
    }
  }
}
layer {
  name: "bn_19"
  type: "BatchNorm"
  bottom: "conv_19"
  top: "conv_19"
  param {
    lr_mult: 0
    decay_mult: 0
  }
  param {
    lr_mult: 0
    decay_mult: 0
  }
  param {
    lr_mult: 0
    decay_mult: 0
  }
  include {
    phase: TRAIN
  }
  batch_norm_param {
    use_global_stats: false
    moving_average_fraction: 0.99
  }
}
layer {
  name: "scale_19"
  type: "Scale"
  bottom: "conv_19"
  top: "fire8/expand1x1"
  scale_param {
    bias_term: true
  }
}
layer {
  name: "fire8/relu_expand1x1"
  type: "ReLU"
  bottom: "fire8/expand1x1"
  top: "fire8/expand1x1"
}
layer {
  name: "fire8/expand3x3"
  type: "Convolution"
  bottom: "fire8/squeeze1x1"
  top: "conv_20"
  convolution_param {
    num_output: 256
    pad: 1
    kernel_size: 3
    weight_filler {
      type: "xavier"
    }
  }
}
layer {
  name: "bn_20"
  type: "BatchNorm"
  bottom: "conv_20"
  top: "conv_20"
  param {
    lr_mult: 0
    decay_mult: 0
  }
  param {
    lr_mult: 0
    decay_mult: 0
  }
  param {
    lr_mult: 0
    decay_mult: 0
  }
  include {
    phase: TRAIN
  }
  batch_norm_param {
    use_global_stats: false
    moving_average_fraction: 0.99
  }
}
layer {
  name: "scale_20"
  type: "Scale"
  bottom: "conv_20"
  top: "fire8/expand3x3"
  scale_param {
    bias_term: true
  }
}
layer {
  name: "fire8/relu_expand3x3"
  type: "ReLU"
  bottom: "fire8/expand3x3"
  top: "fire8/expand3x3"
}
layer {
  name: "fire8/concat"
  type: "Concat"
  bottom: "fire8/expand1x1"
  bottom: "fire8/expand3x3"
  top: "fire8/concat"
}
layer {
  name: "fire9/squeeze1x1"
  type: "Convolution"
  bottom: "fire8/concat"
  top: "conv_21"
  convolution_param {
    num_output: 64
    kernel_size: 1
    weight_filler {
      type: "xavier"
    }
  }
}
layer {
  name: "bn_21"
  type: "BatchNorm"
  bottom: "conv_21"
  top: "conv_21"
  param {
    lr_mult: 0
    decay_mult: 0
  }
  param {
    lr_mult: 0
    decay_mult: 0
  }
  param {
    lr_mult: 0
    decay_mult: 0
  }
  include {
    phase: TRAIN
  }
  batch_norm_param {
    use_global_stats: false
    moving_average_fraction: 0.99
  }
}
layer {
  name: "scale_21"
  type: "Scale"
  bottom: "conv_21"
  top: "fire9/squeeze1x1"
  scale_param {
    bias_term: true
  }
}
layer {
  name: "fire9/relu_squeeze1x1"
  type: "ReLU"
  bottom: "fire9/squeeze1x1"
  top: "fire9/squeeze1x1"
}
layer {
  name: "fire9/expand1x1"
  type: "Convolution"
  bottom: "fire9/squeeze1x1"
  top: "conv_22"
  convolution_param {
    num_output: 256
    kernel_size: 1
    weight_filler {
      type: "xavier"
    }
  }
}
layer {
  name: "bn_22"
  type: "BatchNorm"
  bottom: "conv_22"
  top: "conv_22"
  param {
    lr_mult: 0
    decay_mult: 0
  }
  param {
    lr_mult: 0
    decay_mult: 0
  }
  param {
    lr_mult: 0
    decay_mult: 0
  }
  include {
    phase: TRAIN
  }
  batch_norm_param {
    use_global_stats: false
    moving_average_fraction: 0.99
  }
}
layer {
  name: "scale_22"
  type: "Scale"
  bottom: "conv_22"
  top: "fire9/expand1x1"
  scale_param {
    bias_term: true
  }
}
layer {
  name: "fire9/relu_expand1x1"
  type: "ReLU"
  bottom: "fire9/expand1x1"
  top: "fire9/expand1x1"
}
layer {
  name: "fire9/expand3x3"
  type: "Convolution"
  bottom: "fire9/squeeze1x1"
  top: "conv_23"
  convolution_param {
    num_output: 256
    pad: 1
    kernel_size: 3
    weight_filler {
      type: "xavier"
    }
  }
}
layer {
  name: "bn_23"
  type: "BatchNorm"
  bottom: "conv_23"
  top: "conv_23"
  param {
    lr_mult: 0
    decay_mult: 0
  }
  param {
    lr_mult: 0
    decay_mult: 0
  }
  param {
    lr_mult: 0
    decay_mult: 0
  }
  include {
    phase: TRAIN
  }
  batch_norm_param {
    use_global_stats: false
    moving_average_fraction: 0.99
  }
}
layer {
  name: "scale_23"
  type: "Scale"
  bottom: "conv_23"
  top: "fire9/expand3x3"
  scale_param {
    bias_term: true
  }
}
layer {
  name: "fire9/relu_expand3x3"
  type: "ReLU"
  bottom: "fire9/expand3x3"
  top: "fire9/expand3x3"
}
layer {
  name: "fire9/concat"
  type: "Concat"
  bottom: "fire9/expand1x1"
  bottom: "fire9/expand3x3"
  top: "fire9/concat"
}
layer {
  name: "drop9"
  type: "Dropout"
  bottom: "fire9/concat"
  top: "fire9/concat"
  dropout_param {
    dropout_ratio: 0.5
  }
}
layer {
  name: "conv10"
  type: "Convolution"
  bottom: "fire9/concat"
  top: "conv10"
  convolution_param {
    num_output: 10
    kernel_size: 1
    weight_filler {
      type: "gaussian"
      mean: 0
      std: 0.01
    }
  }
}
layer {
  name: "relu_conv10"
  type: "ReLU"
  bottom: "conv10"
  top: "conv10"
}
layer {
  name: "pool10"
  type: "Pooling"
  bottom: "conv10"
  top: "pool10"
  pooling_param {
    pool: AVE
    global_pooling: true
  }
}
layer {
  name: "accuracy_training"
  type: "Accuracy"
  bottom: "pool10"
  bottom: "label"
  top: "accuracy_training"
  include {
    phase: TRAIN
  }
}
layer {
  name: "loss"
  type: "SoftmaxWithLoss"
  bottom: "pool10"
  bottom: "label"
  top: "loss"
}
I1107 16:43:08.388622  5452 layer_factory.cpp:58] Creating layer cifar
I1107 16:43:08.393621  5452 db_leveldb.cpp:18] Opened leveldb examples/cifar10/cifar10_train_leveldb_padding
I1107 16:43:08.394620  5452 net.cpp:84] Creating Layer cifar
I1107 16:43:08.394620  5452 net.cpp:380] cifar -> data
I1107 16:43:08.394620  5452 net.cpp:380] cifar -> label
I1107 16:43:08.395622  5452 data_layer.cpp:45] output data size: 100,3,32,32
I1107 16:43:08.401618  5452 net.cpp:122] Setting up cifar
I1107 16:43:08.401618  5452 net.cpp:129] Top shape: 100 3 32 32 (307200)
I1107 16:43:08.401618  5452 net.cpp:129] Top shape: 100 (100)
I1107 16:43:08.401618  5452 net.cpp:137] Memory required for data: 1229200
I1107 16:43:08.401618  5452 layer_factory.cpp:58] Creating layer label_cifar_1_split
I1107 16:43:08.401618  5452 net.cpp:84] Creating Layer label_cifar_1_split
I1107 16:43:08.401618  5452 net.cpp:406] label_cifar_1_split <- label
I1107 16:43:08.401618  5452 net.cpp:380] label_cifar_1_split -> label_cifar_1_split_0
I1107 16:43:08.401618  5452 net.cpp:380] label_cifar_1_split -> label_cifar_1_split_1
I1107 16:43:08.401618  5452 net.cpp:122] Setting up label_cifar_1_split
I1107 16:43:08.401618  5452 net.cpp:129] Top shape: 100 (100)
I1107 16:43:08.401618  5452 net.cpp:129] Top shape: 100 (100)
I1107 16:43:08.401618  5452 net.cpp:137] Memory required for data: 1230000
I1107 16:43:08.401618  5452 layer_factory.cpp:58] Creating layer conv1
I1107 16:43:08.401618  5452 net.cpp:84] Creating Layer conv1
I1107 16:43:08.401618  5452 net.cpp:406] conv1 <- data
I1107 16:43:08.401618  5452 net.cpp:380] conv1 -> conv1
I1107 16:43:08.401618 18344 common.cpp:36] System entropy source not available, using fallback algorithm to generate seed instead.
I1107 16:43:08.652663  5452 net.cpp:122] Setting up conv1
I1107 16:43:08.652663  5452 net.cpp:129] Top shape: 100 64 30 30 (5760000)
I1107 16:43:08.652663  5452 net.cpp:137] Memory required for data: 24270000
I1107 16:43:08.652663  5452 layer_factory.cpp:58] Creating layer bn1
I1107 16:43:08.652663  5452 net.cpp:84] Creating Layer bn1
I1107 16:43:08.652663  5452 net.cpp:406] bn1 <- conv1
I1107 16:43:08.652663  5452 net.cpp:367] bn1 -> conv1 (in-place)
I1107 16:43:08.652663  5452 net.cpp:122] Setting up bn1
I1107 16:43:08.652663  5452 net.cpp:129] Top shape: 100 64 30 30 (5760000)
I1107 16:43:08.652663  5452 net.cpp:137] Memory required for data: 47310000
I1107 16:43:08.652663  5452 layer_factory.cpp:58] Creating layer scale1
I1107 16:43:08.652663  5452 net.cpp:84] Creating Layer scale1
I1107 16:43:08.653663  5452 net.cpp:406] scale1 <- conv1
I1107 16:43:08.653663  5452 net.cpp:367] scale1 -> conv1 (in-place)
I1107 16:43:08.653663  5452 layer_factory.cpp:58] Creating layer scale1
I1107 16:43:08.653663  5452 net.cpp:122] Setting up scale1
I1107 16:43:08.653663  5452 net.cpp:129] Top shape: 100 64 30 30 (5760000)
I1107 16:43:08.653663  5452 net.cpp:137] Memory required for data: 70350000
I1107 16:43:08.653663  5452 layer_factory.cpp:58] Creating layer relu_conv1
I1107 16:43:08.653663  5452 net.cpp:84] Creating Layer relu_conv1
I1107 16:43:08.653663  5452 net.cpp:406] relu_conv1 <- conv1
I1107 16:43:08.653663  5452 net.cpp:367] relu_conv1 -> conv1 (in-place)
I1107 16:43:08.653663  5452 net.cpp:122] Setting up relu_conv1
I1107 16:43:08.653663  5452 net.cpp:129] Top shape: 100 64 30 30 (5760000)
I1107 16:43:08.653663  5452 net.cpp:137] Memory required for data: 93390000
I1107 16:43:08.653663  5452 layer_factory.cpp:58] Creating layer pool1
I1107 16:43:08.653663  5452 net.cpp:84] Creating Layer pool1
I1107 16:43:08.653663  5452 net.cpp:406] pool1 <- conv1
I1107 16:43:08.653663  5452 net.cpp:380] pool1 -> pool1
I1107 16:43:08.653663  5452 net.cpp:122] Setting up pool1
I1107 16:43:08.653663  5452 net.cpp:129] Top shape: 100 64 28 28 (5017600)
I1107 16:43:08.653663  5452 net.cpp:137] Memory required for data: 113460400
I1107 16:43:08.653663  5452 layer_factory.cpp:58] Creating layer fire2/squeeze1x1
I1107 16:43:08.653663  5452 net.cpp:84] Creating Layer fire2/squeeze1x1
I1107 16:43:08.653663  5452 net.cpp:406] fire2/squeeze1x1 <- pool1
I1107 16:43:08.653663  5452 net.cpp:380] fire2/squeeze1x1 -> fire2/squeeze1x1
I1107 16:43:08.654664  5452 net.cpp:122] Setting up fire2/squeeze1x1
I1107 16:43:08.654664  5452 net.cpp:129] Top shape: 100 16 28 28 (1254400)
I1107 16:43:08.654664  5452 net.cpp:137] Memory required for data: 118478000
I1107 16:43:08.654664  5452 layer_factory.cpp:58] Creating layer fire2/relu_squeeze1x1
I1107 16:43:08.654664  5452 net.cpp:84] Creating Layer fire2/relu_squeeze1x1
I1107 16:43:08.654664  5452 net.cpp:406] fire2/relu_squeeze1x1 <- fire2/squeeze1x1
I1107 16:43:08.654664  5452 net.cpp:367] fire2/relu_squeeze1x1 -> fire2/squeeze1x1 (in-place)
I1107 16:43:08.654664  5452 net.cpp:122] Setting up fire2/relu_squeeze1x1
I1107 16:43:08.654664  5452 net.cpp:129] Top shape: 100 16 28 28 (1254400)
I1107 16:43:08.655663  5452 net.cpp:137] Memory required for data: 123495600
I1107 16:43:08.655663  5452 layer_factory.cpp:58] Creating layer fire2/squeeze1x1_fire2/relu_squeeze1x1_0_split
I1107 16:43:08.655663  5452 net.cpp:84] Creating Layer fire2/squeeze1x1_fire2/relu_squeeze1x1_0_split
I1107 16:43:08.655663  5452 net.cpp:406] fire2/squeeze1x1_fire2/relu_squeeze1x1_0_split <- fire2/squeeze1x1
I1107 16:43:08.655663  5452 net.cpp:380] fire2/squeeze1x1_fire2/relu_squeeze1x1_0_split -> fire2/squeeze1x1_fire2/relu_squeeze1x1_0_split_0
I1107 16:43:08.655663  5452 net.cpp:380] fire2/squeeze1x1_fire2/relu_squeeze1x1_0_split -> fire2/squeeze1x1_fire2/relu_squeeze1x1_0_split_1
I1107 16:43:08.655663  5452 net.cpp:122] Setting up fire2/squeeze1x1_fire2/relu_squeeze1x1_0_split
I1107 16:43:08.655663  5452 net.cpp:129] Top shape: 100 16 28 28 (1254400)
I1107 16:43:08.655663  5452 net.cpp:129] Top shape: 100 16 28 28 (1254400)
I1107 16:43:08.655663  5452 net.cpp:137] Memory required for data: 133530800
I1107 16:43:08.655663  5452 layer_factory.cpp:58] Creating layer fire2/expand1x1
I1107 16:43:08.655663  5452 net.cpp:84] Creating Layer fire2/expand1x1
I1107 16:43:08.655663  5452 net.cpp:406] fire2/expand1x1 <- fire2/squeeze1x1_fire2/relu_squeeze1x1_0_split_0
I1107 16:43:08.655663  5452 net.cpp:380] fire2/expand1x1 -> conv2
I1107 16:43:08.655663  5452 net.cpp:122] Setting up fire2/expand1x1
I1107 16:43:08.655663  5452 net.cpp:129] Top shape: 100 64 28 28 (5017600)
I1107 16:43:08.655663  5452 net.cpp:137] Memory required for data: 153601200
I1107 16:43:08.655663  5452 layer_factory.cpp:58] Creating layer bn2
I1107 16:43:08.655663  5452 net.cpp:84] Creating Layer bn2
I1107 16:43:08.655663  5452 net.cpp:406] bn2 <- conv2
I1107 16:43:08.655663  5452 net.cpp:367] bn2 -> conv2 (in-place)
I1107 16:43:08.656664  5452 net.cpp:122] Setting up bn2
I1107 16:43:08.656664  5452 net.cpp:129] Top shape: 100 64 28 28 (5017600)
I1107 16:43:08.656664  5452 net.cpp:137] Memory required for data: 173671600
I1107 16:43:08.656664  5452 layer_factory.cpp:58] Creating layer scale2
I1107 16:43:08.656664  5452 net.cpp:84] Creating Layer scale2
I1107 16:43:08.656664  5452 net.cpp:406] scale2 <- conv2
I1107 16:43:08.656664  5452 net.cpp:380] scale2 -> fire2/expand1x1
I1107 16:43:08.656664  5452 layer_factory.cpp:58] Creating layer scale2
I1107 16:43:08.656664  5452 net.cpp:122] Setting up scale2
I1107 16:43:08.656664  5452 net.cpp:129] Top shape: 100 64 28 28 (5017600)
I1107 16:43:08.656664  5452 net.cpp:137] Memory required for data: 193742000
I1107 16:43:08.656664  5452 layer_factory.cpp:58] Creating layer fire2/relu_expand1x1
I1107 16:43:08.656664  5452 net.cpp:84] Creating Layer fire2/relu_expand1x1
I1107 16:43:08.656664  5452 net.cpp:406] fire2/relu_expand1x1 <- fire2/expand1x1
I1107 16:43:08.656664  5452 net.cpp:367] fire2/relu_expand1x1 -> fire2/expand1x1 (in-place)
I1107 16:43:08.656664  5452 net.cpp:122] Setting up fire2/relu_expand1x1
I1107 16:43:08.656664  5452 net.cpp:129] Top shape: 100 64 28 28 (5017600)
I1107 16:43:08.656664  5452 net.cpp:137] Memory required for data: 213812400
I1107 16:43:08.656664  5452 layer_factory.cpp:58] Creating layer fire2/expand3x3
I1107 16:43:08.656664  5452 net.cpp:84] Creating Layer fire2/expand3x3
I1107 16:43:08.656664  5452 net.cpp:406] fire2/expand3x3 <- fire2/squeeze1x1_fire2/relu_squeeze1x1_0_split_1
I1107 16:43:08.656664  5452 net.cpp:380] fire2/expand3x3 -> conv_3
I1107 16:43:08.658663  5452 net.cpp:122] Setting up fire2/expand3x3
I1107 16:43:08.658663  5452 net.cpp:129] Top shape: 100 64 28 28 (5017600)
I1107 16:43:08.658663  5452 net.cpp:137] Memory required for data: 233882800
I1107 16:43:08.658663  5452 layer_factory.cpp:58] Creating layer bn_3
I1107 16:43:08.658663  5452 net.cpp:84] Creating Layer bn_3
I1107 16:43:08.658663  5452 net.cpp:406] bn_3 <- conv_3
I1107 16:43:08.658663  5452 net.cpp:367] bn_3 -> conv_3 (in-place)
I1107 16:43:08.658663  5452 net.cpp:122] Setting up bn_3
I1107 16:43:08.658663  5452 net.cpp:129] Top shape: 100 64 28 28 (5017600)
I1107 16:43:08.658663  5452 net.cpp:137] Memory required for data: 253953200
I1107 16:43:08.658663  5452 layer_factory.cpp:58] Creating layer scale_3
I1107 16:43:08.658663  5452 net.cpp:84] Creating Layer scale_3
I1107 16:43:08.658663  5452 net.cpp:406] scale_3 <- conv_3
I1107 16:43:08.658663  5452 net.cpp:380] scale_3 -> fire2/expand3x3
I1107 16:43:08.658663  5452 layer_factory.cpp:58] Creating layer scale_3
I1107 16:43:08.658663  5452 net.cpp:122] Setting up scale_3
I1107 16:43:08.658663  5452 net.cpp:129] Top shape: 100 64 28 28 (5017600)
I1107 16:43:08.658663  5452 net.cpp:137] Memory required for data: 274023600
I1107 16:43:08.658663  5452 layer_factory.cpp:58] Creating layer fire2/relu_expand3x3
I1107 16:43:08.658663  5452 net.cpp:84] Creating Layer fire2/relu_expand3x3
I1107 16:43:08.658663  5452 net.cpp:406] fire2/relu_expand3x3 <- fire2/expand3x3
I1107 16:43:08.658663  5452 net.cpp:367] fire2/relu_expand3x3 -> fire2/expand3x3 (in-place)
I1107 16:43:08.659663  5452 net.cpp:122] Setting up fire2/relu_expand3x3
I1107 16:43:08.659663  5452 net.cpp:129] Top shape: 100 64 28 28 (5017600)
I1107 16:43:08.659663  5452 net.cpp:137] Memory required for data: 294094000
I1107 16:43:08.659663  5452 layer_factory.cpp:58] Creating layer fire2/concat
I1107 16:43:08.659663  5452 net.cpp:84] Creating Layer fire2/concat
I1107 16:43:08.659663  5452 net.cpp:406] fire2/concat <- fire2/expand1x1
I1107 16:43:08.659663  5452 net.cpp:406] fire2/concat <- fire2/expand3x3
I1107 16:43:08.659663  5452 net.cpp:380] fire2/concat -> fire2/concat
I1107 16:43:08.659663  5452 net.cpp:122] Setting up fire2/concat
I1107 16:43:08.659663  5452 net.cpp:129] Top shape: 100 128 28 28 (10035200)
I1107 16:43:08.659663  5452 net.cpp:137] Memory required for data: 334234800
I1107 16:43:08.659663  5452 layer_factory.cpp:58] Creating layer fire3/squeeze1x1
I1107 16:43:08.659663  5452 net.cpp:84] Creating Layer fire3/squeeze1x1
I1107 16:43:08.659663  5452 net.cpp:406] fire3/squeeze1x1 <- fire2/concat
I1107 16:43:08.659663  5452 net.cpp:380] fire3/squeeze1x1 -> conv_4
I1107 16:43:08.660665  5452 net.cpp:122] Setting up fire3/squeeze1x1
I1107 16:43:08.660665  5452 net.cpp:129] Top shape: 100 16 28 28 (1254400)
I1107 16:43:08.660665  5452 net.cpp:137] Memory required for data: 339252400
I1107 16:43:08.660665  5452 layer_factory.cpp:58] Creating layer bn_4
I1107 16:43:08.660665  5452 net.cpp:84] Creating Layer bn_4
I1107 16:43:08.660665  5452 net.cpp:406] bn_4 <- conv_4
I1107 16:43:08.660665  5452 net.cpp:367] bn_4 -> conv_4 (in-place)
I1107 16:43:08.660665  5452 net.cpp:122] Setting up bn_4
I1107 16:43:08.660665  5452 net.cpp:129] Top shape: 100 16 28 28 (1254400)
I1107 16:43:08.660665  5452 net.cpp:137] Memory required for data: 344270000
I1107 16:43:08.660665  5452 layer_factory.cpp:58] Creating layer scale_4
I1107 16:43:08.660665  5452 net.cpp:84] Creating Layer scale_4
I1107 16:43:08.660665  5452 net.cpp:406] scale_4 <- conv_4
I1107 16:43:08.660665  5452 net.cpp:380] scale_4 -> fire3/squeeze1x1
I1107 16:43:08.660665  5452 layer_factory.cpp:58] Creating layer scale_4
I1107 16:43:08.660665  5452 net.cpp:122] Setting up scale_4
I1107 16:43:08.660665  5452 net.cpp:129] Top shape: 100 16 28 28 (1254400)
I1107 16:43:08.660665  5452 net.cpp:137] Memory required for data: 349287600
I1107 16:43:08.660665  5452 layer_factory.cpp:58] Creating layer fire3/relu_squeeze1x1
I1107 16:43:08.660665  5452 net.cpp:84] Creating Layer fire3/relu_squeeze1x1
I1107 16:43:08.660665  5452 net.cpp:406] fire3/relu_squeeze1x1 <- fire3/squeeze1x1
I1107 16:43:08.660665  5452 net.cpp:367] fire3/relu_squeeze1x1 -> fire3/squeeze1x1 (in-place)
I1107 16:43:08.660665  5452 net.cpp:122] Setting up fire3/relu_squeeze1x1
I1107 16:43:08.660665  5452 net.cpp:129] Top shape: 100 16 28 28 (1254400)
I1107 16:43:08.660665  5452 net.cpp:137] Memory required for data: 354305200
I1107 16:43:08.660665  5452 layer_factory.cpp:58] Creating layer fire3/squeeze1x1_fire3/relu_squeeze1x1_0_split
I1107 16:43:08.660665  5452 net.cpp:84] Creating Layer fire3/squeeze1x1_fire3/relu_squeeze1x1_0_split
I1107 16:43:08.660665  5452 net.cpp:406] fire3/squeeze1x1_fire3/relu_squeeze1x1_0_split <- fire3/squeeze1x1
I1107 16:43:08.660665  5452 net.cpp:380] fire3/squeeze1x1_fire3/relu_squeeze1x1_0_split -> fire3/squeeze1x1_fire3/relu_squeeze1x1_0_split_0
I1107 16:43:08.660665  5452 net.cpp:380] fire3/squeeze1x1_fire3/relu_squeeze1x1_0_split -> fire3/squeeze1x1_fire3/relu_squeeze1x1_0_split_1
I1107 16:43:08.660665  5452 net.cpp:122] Setting up fire3/squeeze1x1_fire3/relu_squeeze1x1_0_split
I1107 16:43:08.660665  5452 net.cpp:129] Top shape: 100 16 28 28 (1254400)
I1107 16:43:08.660665  5452 net.cpp:129] Top shape: 100 16 28 28 (1254400)
I1107 16:43:08.660665  5452 net.cpp:137] Memory required for data: 364340400
I1107 16:43:08.660665  5452 layer_factory.cpp:58] Creating layer fire3/expand1x1
I1107 16:43:08.660665  5452 net.cpp:84] Creating Layer fire3/expand1x1
I1107 16:43:08.660665  5452 net.cpp:406] fire3/expand1x1 <- fire3/squeeze1x1_fire3/relu_squeeze1x1_0_split_0
I1107 16:43:08.660665  5452 net.cpp:380] fire3/expand1x1 -> conv_5
I1107 16:43:08.661664  5452 net.cpp:122] Setting up fire3/expand1x1
I1107 16:43:08.661664  5452 net.cpp:129] Top shape: 100 64 28 28 (5017600)
I1107 16:43:08.661664  5452 net.cpp:137] Memory required for data: 384410800
I1107 16:43:08.661664  5452 layer_factory.cpp:58] Creating layer bn_5
I1107 16:43:08.662663  5452 net.cpp:84] Creating Layer bn_5
I1107 16:43:08.662663  5452 net.cpp:406] bn_5 <- conv_5
I1107 16:43:08.662663  5452 net.cpp:367] bn_5 -> conv_5 (in-place)
I1107 16:43:08.662663  5452 net.cpp:122] Setting up bn_5
I1107 16:43:08.662663  5452 net.cpp:129] Top shape: 100 64 28 28 (5017600)
I1107 16:43:08.662663  5452 net.cpp:137] Memory required for data: 404481200
I1107 16:43:08.662663  5452 layer_factory.cpp:58] Creating layer scale_5
I1107 16:43:08.662663  5452 net.cpp:84] Creating Layer scale_5
I1107 16:43:08.662663  5452 net.cpp:406] scale_5 <- conv_5
I1107 16:43:08.662663  5452 net.cpp:380] scale_5 -> fire3/expand1x1
I1107 16:43:08.662663  5452 layer_factory.cpp:58] Creating layer scale_5
I1107 16:43:08.662663  5452 net.cpp:122] Setting up scale_5
I1107 16:43:08.662663  5452 net.cpp:129] Top shape: 100 64 28 28 (5017600)
I1107 16:43:08.662663  5452 net.cpp:137] Memory required for data: 424551600
I1107 16:43:08.662663  5452 layer_factory.cpp:58] Creating layer fire3/relu_expand1x1
I1107 16:43:08.662663  5452 net.cpp:84] Creating Layer fire3/relu_expand1x1
I1107 16:43:08.662663  5452 net.cpp:406] fire3/relu_expand1x1 <- fire3/expand1x1
I1107 16:43:08.662663  5452 net.cpp:367] fire3/relu_expand1x1 -> fire3/expand1x1 (in-place)
I1107 16:43:08.662663  5452 net.cpp:122] Setting up fire3/relu_expand1x1
I1107 16:43:08.662663  5452 net.cpp:129] Top shape: 100 64 28 28 (5017600)
I1107 16:43:08.662663  5452 net.cpp:137] Memory required for data: 444622000
I1107 16:43:08.662663  5452 layer_factory.cpp:58] Creating layer fire3/expand3x3
I1107 16:43:08.662663  5452 net.cpp:84] Creating Layer fire3/expand3x3
I1107 16:43:08.662663  5452 net.cpp:406] fire3/expand3x3 <- fire3/squeeze1x1_fire3/relu_squeeze1x1_0_split_1
I1107 16:43:08.662663  5452 net.cpp:380] fire3/expand3x3 -> conv_6
I1107 16:43:08.663663  5452 net.cpp:122] Setting up fire3/expand3x3
I1107 16:43:08.663663  5452 net.cpp:129] Top shape: 100 64 28 28 (5017600)
I1107 16:43:08.663663  5452 net.cpp:137] Memory required for data: 464692400
I1107 16:43:08.663663  5452 layer_factory.cpp:58] Creating layer bn_6
I1107 16:43:08.663663  5452 net.cpp:84] Creating Layer bn_6
I1107 16:43:08.663663  5452 net.cpp:406] bn_6 <- conv_6
I1107 16:43:08.663663  5452 net.cpp:367] bn_6 -> conv_6 (in-place)
I1107 16:43:08.663663  5452 net.cpp:122] Setting up bn_6
I1107 16:43:08.663663  5452 net.cpp:129] Top shape: 100 64 28 28 (5017600)
I1107 16:43:08.663663  5452 net.cpp:137] Memory required for data: 484762800
I1107 16:43:08.663663  5452 layer_factory.cpp:58] Creating layer scale_6
I1107 16:43:08.663663  5452 net.cpp:84] Creating Layer scale_6
I1107 16:43:08.663663  5452 net.cpp:406] scale_6 <- conv_6
I1107 16:43:08.663663  5452 net.cpp:380] scale_6 -> fire3/expand3x3
I1107 16:43:08.663663  5452 layer_factory.cpp:58] Creating layer scale_6
I1107 16:43:08.664664  5452 net.cpp:122] Setting up scale_6
I1107 16:43:08.664664  5452 net.cpp:129] Top shape: 100 64 28 28 (5017600)
I1107 16:43:08.664664  5452 net.cpp:137] Memory required for data: 504833200
I1107 16:43:08.664664  5452 layer_factory.cpp:58] Creating layer fire3/relu_expand3x3
I1107 16:43:08.664664  5452 net.cpp:84] Creating Layer fire3/relu_expand3x3
I1107 16:43:08.664664  5452 net.cpp:406] fire3/relu_expand3x3 <- fire3/expand3x3
I1107 16:43:08.664664  5452 net.cpp:367] fire3/relu_expand3x3 -> fire3/expand3x3 (in-place)
I1107 16:43:08.664664  5452 net.cpp:122] Setting up fire3/relu_expand3x3
I1107 16:43:08.664664  5452 net.cpp:129] Top shape: 100 64 28 28 (5017600)
I1107 16:43:08.664664  5452 net.cpp:137] Memory required for data: 524903600
I1107 16:43:08.664664  5452 layer_factory.cpp:58] Creating layer fire3/concat
I1107 16:43:08.664664  5452 net.cpp:84] Creating Layer fire3/concat
I1107 16:43:08.664664  5452 net.cpp:406] fire3/concat <- fire3/expand1x1
I1107 16:43:08.664664  5452 net.cpp:406] fire3/concat <- fire3/expand3x3
I1107 16:43:08.664664  5452 net.cpp:380] fire3/concat -> fire3/concat
I1107 16:43:08.664664  5452 net.cpp:122] Setting up fire3/concat
I1107 16:43:08.664664  5452 net.cpp:129] Top shape: 100 128 28 28 (10035200)
I1107 16:43:08.664664  5452 net.cpp:137] Memory required for data: 565044400
I1107 16:43:08.664664  5452 layer_factory.cpp:58] Creating layer pool3
I1107 16:43:08.664664  5452 net.cpp:84] Creating Layer pool3
I1107 16:43:08.664664  5452 net.cpp:406] pool3 <- fire3/concat
I1107 16:43:08.664664  5452 net.cpp:380] pool3 -> pool3
I1107 16:43:08.664664  5452 net.cpp:122] Setting up pool3
I1107 16:43:08.664664  5452 net.cpp:129] Top shape: 100 128 14 14 (2508800)
I1107 16:43:08.664664  5452 net.cpp:137] Memory required for data: 575079600
I1107 16:43:08.664664  5452 layer_factory.cpp:58] Creating layer fire4/squeeze1x1
I1107 16:43:08.664664  5452 net.cpp:84] Creating Layer fire4/squeeze1x1
I1107 16:43:08.664664  5452 net.cpp:406] fire4/squeeze1x1 <- pool3
I1107 16:43:08.664664  5452 net.cpp:380] fire4/squeeze1x1 -> conv_7
I1107 16:43:08.665673  5452 net.cpp:122] Setting up fire4/squeeze1x1
I1107 16:43:08.665673  5452 net.cpp:129] Top shape: 100 32 14 14 (627200)
I1107 16:43:08.665673  5452 net.cpp:137] Memory required for data: 577588400
I1107 16:43:08.665673  5452 layer_factory.cpp:58] Creating layer bn_7
I1107 16:43:08.665673  5452 net.cpp:84] Creating Layer bn_7
I1107 16:43:08.665673  5452 net.cpp:406] bn_7 <- conv_7
I1107 16:43:08.665673  5452 net.cpp:367] bn_7 -> conv_7 (in-place)
I1107 16:43:08.665673  5452 net.cpp:122] Setting up bn_7
I1107 16:43:08.665673  5452 net.cpp:129] Top shape: 100 32 14 14 (627200)
I1107 16:43:08.665673  5452 net.cpp:137] Memory required for data: 580097200
I1107 16:43:08.665673  5452 layer_factory.cpp:58] Creating layer scale_7
I1107 16:43:08.665673  5452 net.cpp:84] Creating Layer scale_7
I1107 16:43:08.665673  5452 net.cpp:406] scale_7 <- conv_7
I1107 16:43:08.665673  5452 net.cpp:380] scale_7 -> fire4/squeeze1x1
I1107 16:43:08.666663  5452 layer_factory.cpp:58] Creating layer scale_7
I1107 16:43:08.666663  5452 net.cpp:122] Setting up scale_7
I1107 16:43:08.666663  5452 net.cpp:129] Top shape: 100 32 14 14 (627200)
I1107 16:43:08.666663  5452 net.cpp:137] Memory required for data: 582606000
I1107 16:43:08.666663  5452 layer_factory.cpp:58] Creating layer fire4/relu_squeeze1x1
I1107 16:43:08.666663  5452 net.cpp:84] Creating Layer fire4/relu_squeeze1x1
I1107 16:43:08.666663  5452 net.cpp:406] fire4/relu_squeeze1x1 <- fire4/squeeze1x1
I1107 16:43:08.666663  5452 net.cpp:367] fire4/relu_squeeze1x1 -> fire4/squeeze1x1 (in-place)
I1107 16:43:08.666663  5452 net.cpp:122] Setting up fire4/relu_squeeze1x1
I1107 16:43:08.666663  5452 net.cpp:129] Top shape: 100 32 14 14 (627200)
I1107 16:43:08.666663  5452 net.cpp:137] Memory required for data: 585114800
I1107 16:43:08.666663  5452 layer_factory.cpp:58] Creating layer fire4/squeeze1x1_fire4/relu_squeeze1x1_0_split
I1107 16:43:08.666663  5452 net.cpp:84] Creating Layer fire4/squeeze1x1_fire4/relu_squeeze1x1_0_split
I1107 16:43:08.666663  5452 net.cpp:406] fire4/squeeze1x1_fire4/relu_squeeze1x1_0_split <- fire4/squeeze1x1
I1107 16:43:08.666663  5452 net.cpp:380] fire4/squeeze1x1_fire4/relu_squeeze1x1_0_split -> fire4/squeeze1x1_fire4/relu_squeeze1x1_0_split_0
I1107 16:43:08.666663  5452 net.cpp:380] fire4/squeeze1x1_fire4/relu_squeeze1x1_0_split -> fire4/squeeze1x1_fire4/relu_squeeze1x1_0_split_1
I1107 16:43:08.666663  5452 net.cpp:122] Setting up fire4/squeeze1x1_fire4/relu_squeeze1x1_0_split
I1107 16:43:08.666663  5452 net.cpp:129] Top shape: 100 32 14 14 (627200)
I1107 16:43:08.666663  5452 net.cpp:129] Top shape: 100 32 14 14 (627200)
I1107 16:43:08.666663  5452 net.cpp:137] Memory required for data: 590132400
I1107 16:43:08.666663  5452 layer_factory.cpp:58] Creating layer fire4/expand1x1
I1107 16:43:08.666663  5452 net.cpp:84] Creating Layer fire4/expand1x1
I1107 16:43:08.666663  5452 net.cpp:406] fire4/expand1x1 <- fire4/squeeze1x1_fire4/relu_squeeze1x1_0_split_0
I1107 16:43:08.666663  5452 net.cpp:380] fire4/expand1x1 -> fire4/expand1x1
I1107 16:43:08.667663  5452 net.cpp:122] Setting up fire4/expand1x1
I1107 16:43:08.667663  5452 net.cpp:129] Top shape: 100 128 14 14 (2508800)
I1107 16:43:08.667663  5452 net.cpp:137] Memory required for data: 600167600
I1107 16:43:08.667663  5452 layer_factory.cpp:58] Creating layer fire4/relu_expand1x1
I1107 16:43:08.667663  5452 net.cpp:84] Creating Layer fire4/relu_expand1x1
I1107 16:43:08.667663  5452 net.cpp:406] fire4/relu_expand1x1 <- fire4/expand1x1
I1107 16:43:08.667663  5452 net.cpp:367] fire4/relu_expand1x1 -> fire4/expand1x1 (in-place)
I1107 16:43:08.668663  5452 net.cpp:122] Setting up fire4/relu_expand1x1
I1107 16:43:08.668663  5452 net.cpp:129] Top shape: 100 128 14 14 (2508800)
I1107 16:43:08.668663  5452 net.cpp:137] Memory required for data: 610202800
I1107 16:43:08.668663  5452 layer_factory.cpp:58] Creating layer fire4/expand3x3
I1107 16:43:08.668663  5452 net.cpp:84] Creating Layer fire4/expand3x3
I1107 16:43:08.668663  5452 net.cpp:406] fire4/expand3x3 <- fire4/squeeze1x1_fire4/relu_squeeze1x1_0_split_1
I1107 16:43:08.668663  5452 net.cpp:380] fire4/expand3x3 -> conv_8
I1107 16:43:08.669663  5452 net.cpp:122] Setting up fire4/expand3x3
I1107 16:43:08.669663  5452 net.cpp:129] Top shape: 100 128 14 14 (2508800)
I1107 16:43:08.669663  5452 net.cpp:137] Memory required for data: 620238000
I1107 16:43:08.669663  5452 layer_factory.cpp:58] Creating layer bn_8
I1107 16:43:08.669663  5452 net.cpp:84] Creating Layer bn_8
I1107 16:43:08.669663  5452 net.cpp:406] bn_8 <- conv_8
I1107 16:43:08.669663  5452 net.cpp:367] bn_8 -> conv_8 (in-place)
I1107 16:43:08.670663  5452 net.cpp:122] Setting up bn_8
I1107 16:43:08.670663  5452 net.cpp:129] Top shape: 100 128 14 14 (2508800)
I1107 16:43:08.670663  5452 net.cpp:137] Memory required for data: 630273200
I1107 16:43:08.670663  5452 layer_factory.cpp:58] Creating layer scale_8
I1107 16:43:08.670663  5452 net.cpp:84] Creating Layer scale_8
I1107 16:43:08.670663  5452 net.cpp:406] scale_8 <- conv_8
I1107 16:43:08.670663  5452 net.cpp:380] scale_8 -> fire4/expand3x3
I1107 16:43:08.670663  5452 layer_factory.cpp:58] Creating layer scale_8
I1107 16:43:08.670663  5452 net.cpp:122] Setting up scale_8
I1107 16:43:08.670663  5452 net.cpp:129] Top shape: 100 128 14 14 (2508800)
I1107 16:43:08.670663  5452 net.cpp:137] Memory required for data: 640308400
I1107 16:43:08.670663  5452 layer_factory.cpp:58] Creating layer fire4/relu_expand3x3
I1107 16:43:08.670663  5452 net.cpp:84] Creating Layer fire4/relu_expand3x3
I1107 16:43:08.670663  5452 net.cpp:406] fire4/relu_expand3x3 <- fire4/expand3x3
I1107 16:43:08.670663  5452 net.cpp:367] fire4/relu_expand3x3 -> fire4/expand3x3 (in-place)
I1107 16:43:08.670663  5452 net.cpp:122] Setting up fire4/relu_expand3x3
I1107 16:43:08.670663  5452 net.cpp:129] Top shape: 100 128 14 14 (2508800)
I1107 16:43:08.670663  5452 net.cpp:137] Memory required for data: 650343600
I1107 16:43:08.670663  5452 layer_factory.cpp:58] Creating layer fire4/concat
I1107 16:43:08.670663  5452 net.cpp:84] Creating Layer fire4/concat
I1107 16:43:08.670663  5452 net.cpp:406] fire4/concat <- fire4/expand1x1
I1107 16:43:08.670663  5452 net.cpp:406] fire4/concat <- fire4/expand3x3
I1107 16:43:08.670663  5452 net.cpp:380] fire4/concat -> fire4/concat
I1107 16:43:08.670663  5452 net.cpp:122] Setting up fire4/concat
I1107 16:43:08.670663  5452 net.cpp:129] Top shape: 100 256 14 14 (5017600)
I1107 16:43:08.670663  5452 net.cpp:137] Memory required for data: 670414000
I1107 16:43:08.670663  5452 layer_factory.cpp:58] Creating layer fire5/squeeze1x1
I1107 16:43:08.670663  5452 net.cpp:84] Creating Layer fire5/squeeze1x1
I1107 16:43:08.670663  5452 net.cpp:406] fire5/squeeze1x1 <- fire4/concat
I1107 16:43:08.670663  5452 net.cpp:380] fire5/squeeze1x1 -> conv_9
I1107 16:43:08.671663  5452 net.cpp:122] Setting up fire5/squeeze1x1
I1107 16:43:08.671663  5452 net.cpp:129] Top shape: 100 32 14 14 (627200)
I1107 16:43:08.671663  5452 net.cpp:137] Memory required for data: 672922800
I1107 16:43:08.671663  5452 layer_factory.cpp:58] Creating layer bn_9
I1107 16:43:08.671663  5452 net.cpp:84] Creating Layer bn_9
I1107 16:43:08.671663  5452 net.cpp:406] bn_9 <- conv_9
I1107 16:43:08.671663  5452 net.cpp:367] bn_9 -> conv_9 (in-place)
I1107 16:43:08.671663  5452 net.cpp:122] Setting up bn_9
I1107 16:43:08.671663  5452 net.cpp:129] Top shape: 100 32 14 14 (627200)
I1107 16:43:08.671663  5452 net.cpp:137] Memory required for data: 675431600
I1107 16:43:08.671663  5452 layer_factory.cpp:58] Creating layer scale_9
I1107 16:43:08.671663  5452 net.cpp:84] Creating Layer scale_9
I1107 16:43:08.671663  5452 net.cpp:406] scale_9 <- conv_9
I1107 16:43:08.671663  5452 net.cpp:380] scale_9 -> fire5/squeeze1x1
I1107 16:43:08.671663  5452 layer_factory.cpp:58] Creating layer scale_9
I1107 16:43:08.672664  5452 net.cpp:122] Setting up scale_9
I1107 16:43:08.672664  5452 net.cpp:129] Top shape: 100 32 14 14 (627200)
I1107 16:43:08.672664  5452 net.cpp:137] Memory required for data: 677940400
I1107 16:43:08.672664  5452 layer_factory.cpp:58] Creating layer fire5/relu_squeeze1x1
I1107 16:43:08.672664  5452 net.cpp:84] Creating Layer fire5/relu_squeeze1x1
I1107 16:43:08.672664  5452 net.cpp:406] fire5/relu_squeeze1x1 <- fire5/squeeze1x1
I1107 16:43:08.672664  5452 net.cpp:367] fire5/relu_squeeze1x1 -> fire5/squeeze1x1 (in-place)
I1107 16:43:08.672664  5452 net.cpp:122] Setting up fire5/relu_squeeze1x1
I1107 16:43:08.672664  5452 net.cpp:129] Top shape: 100 32 14 14 (627200)
I1107 16:43:08.672664  5452 net.cpp:137] Memory required for data: 680449200
I1107 16:43:08.672664  5452 layer_factory.cpp:58] Creating layer fire5/squeeze1x1_fire5/relu_squeeze1x1_0_split
I1107 16:43:08.672664  5452 net.cpp:84] Creating Layer fire5/squeeze1x1_fire5/relu_squeeze1x1_0_split
I1107 16:43:08.672664  5452 net.cpp:406] fire5/squeeze1x1_fire5/relu_squeeze1x1_0_split <- fire5/squeeze1x1
I1107 16:43:08.672664  5452 net.cpp:380] fire5/squeeze1x1_fire5/relu_squeeze1x1_0_split -> fire5/squeeze1x1_fire5/relu_squeeze1x1_0_split_0
I1107 16:43:08.672664  5452 net.cpp:380] fire5/squeeze1x1_fire5/relu_squeeze1x1_0_split -> fire5/squeeze1x1_fire5/relu_squeeze1x1_0_split_1
I1107 16:43:08.672664  5452 net.cpp:122] Setting up fire5/squeeze1x1_fire5/relu_squeeze1x1_0_split
I1107 16:43:08.672664  5452 net.cpp:129] Top shape: 100 32 14 14 (627200)
I1107 16:43:08.672664  5452 net.cpp:129] Top shape: 100 32 14 14 (627200)
I1107 16:43:08.672664  5452 net.cpp:137] Memory required for data: 685466800
I1107 16:43:08.672664  5452 layer_factory.cpp:58] Creating layer fire5/expand1x1
I1107 16:43:08.672664  5452 net.cpp:84] Creating Layer fire5/expand1x1
I1107 16:43:08.672664  5452 net.cpp:406] fire5/expand1x1 <- fire5/squeeze1x1_fire5/relu_squeeze1x1_0_split_0
I1107 16:43:08.672664  5452 net.cpp:380] fire5/expand1x1 -> conv_10
I1107 16:43:08.673662  5452 net.cpp:122] Setting up fire5/expand1x1
I1107 16:43:08.673662  5452 net.cpp:129] Top shape: 100 128 14 14 (2508800)
I1107 16:43:08.673662  5452 net.cpp:137] Memory required for data: 695502000
I1107 16:43:08.673662  5452 layer_factory.cpp:58] Creating layer bn_10
I1107 16:43:08.673662  5452 net.cpp:84] Creating Layer bn_10
I1107 16:43:08.673662  5452 net.cpp:406] bn_10 <- conv_10
I1107 16:43:08.673662  5452 net.cpp:367] bn_10 -> conv_10 (in-place)
I1107 16:43:08.673662  5452 net.cpp:122] Setting up bn_10
I1107 16:43:08.673662  5452 net.cpp:129] Top shape: 100 128 14 14 (2508800)
I1107 16:43:08.673662  5452 net.cpp:137] Memory required for data: 705537200
I1107 16:43:08.673662  5452 layer_factory.cpp:58] Creating layer scale_10
I1107 16:43:08.673662  5452 net.cpp:84] Creating Layer scale_10
I1107 16:43:08.673662  5452 net.cpp:406] scale_10 <- conv_10
I1107 16:43:08.673662  5452 net.cpp:380] scale_10 -> fire5/expand1x1
I1107 16:43:08.673662  5452 layer_factory.cpp:58] Creating layer scale_10
I1107 16:43:08.673662  5452 net.cpp:122] Setting up scale_10
I1107 16:43:08.673662  5452 net.cpp:129] Top shape: 100 128 14 14 (2508800)
I1107 16:43:08.673662  5452 net.cpp:137] Memory required for data: 715572400
I1107 16:43:08.673662  5452 layer_factory.cpp:58] Creating layer fire5/relu_expand1x1
I1107 16:43:08.673662  5452 net.cpp:84] Creating Layer fire5/relu_expand1x1
I1107 16:43:08.673662  5452 net.cpp:406] fire5/relu_expand1x1 <- fire5/expand1x1
I1107 16:43:08.673662  5452 net.cpp:367] fire5/relu_expand1x1 -> fire5/expand1x1 (in-place)
I1107 16:43:08.674664  5452 net.cpp:122] Setting up fire5/relu_expand1x1
I1107 16:43:08.674664  5452 net.cpp:129] Top shape: 100 128 14 14 (2508800)
I1107 16:43:08.674664  5452 net.cpp:137] Memory required for data: 725607600
I1107 16:43:08.674664  5452 layer_factory.cpp:58] Creating layer fire5/expand3x3
I1107 16:43:08.674664  5452 net.cpp:84] Creating Layer fire5/expand3x3
I1107 16:43:08.674664  5452 net.cpp:406] fire5/expand3x3 <- fire5/squeeze1x1_fire5/relu_squeeze1x1_0_split_1
I1107 16:43:08.674664  5452 net.cpp:380] fire5/expand3x3 -> conv_11
I1107 16:43:08.675663  5452 net.cpp:122] Setting up fire5/expand3x3
I1107 16:43:08.675663  5452 net.cpp:129] Top shape: 100 128 14 14 (2508800)
I1107 16:43:08.675663  5452 net.cpp:137] Memory required for data: 735642800
I1107 16:43:08.675663  5452 layer_factory.cpp:58] Creating layer bn_11
I1107 16:43:08.675663  5452 net.cpp:84] Creating Layer bn_11
I1107 16:43:08.675663  5452 net.cpp:406] bn_11 <- conv_11
I1107 16:43:08.675663  5452 net.cpp:367] bn_11 -> conv_11 (in-place)
I1107 16:43:08.675663  5452 net.cpp:122] Setting up bn_11
I1107 16:43:08.675663  5452 net.cpp:129] Top shape: 100 128 14 14 (2508800)
I1107 16:43:08.675663  5452 net.cpp:137] Memory required for data: 745678000
I1107 16:43:08.675663  5452 layer_factory.cpp:58] Creating layer scale_11
I1107 16:43:08.675663  5452 net.cpp:84] Creating Layer scale_11
I1107 16:43:08.675663  5452 net.cpp:406] scale_11 <- conv_11
I1107 16:43:08.675663  5452 net.cpp:380] scale_11 -> fire5/expand3x3
I1107 16:43:08.675663  5452 layer_factory.cpp:58] Creating layer scale_11
I1107 16:43:08.675663  5452 net.cpp:122] Setting up scale_11
I1107 16:43:08.675663  5452 net.cpp:129] Top shape: 100 128 14 14 (2508800)
I1107 16:43:08.675663  5452 net.cpp:137] Memory required for data: 755713200
I1107 16:43:08.675663  5452 layer_factory.cpp:58] Creating layer fire5/relu_expand3x3
I1107 16:43:08.675663  5452 net.cpp:84] Creating Layer fire5/relu_expand3x3
I1107 16:43:08.675663  5452 net.cpp:406] fire5/relu_expand3x3 <- fire5/expand3x3
I1107 16:43:08.675663  5452 net.cpp:367] fire5/relu_expand3x3 -> fire5/expand3x3 (in-place)
I1107 16:43:08.676663  5452 net.cpp:122] Setting up fire5/relu_expand3x3
I1107 16:43:08.676663  5452 net.cpp:129] Top shape: 100 128 14 14 (2508800)
I1107 16:43:08.676663  5452 net.cpp:137] Memory required for data: 765748400
I1107 16:43:08.676663  5452 layer_factory.cpp:58] Creating layer fire5/concat
I1107 16:43:08.676663  5452 net.cpp:84] Creating Layer fire5/concat
I1107 16:43:08.676663  5452 net.cpp:406] fire5/concat <- fire5/expand1x1
I1107 16:43:08.676663  5452 net.cpp:406] fire5/concat <- fire5/expand3x3
I1107 16:43:08.676663  5452 net.cpp:380] fire5/concat -> fire5/concat
I1107 16:43:08.676663  5452 net.cpp:122] Setting up fire5/concat
I1107 16:43:08.676663  5452 net.cpp:129] Top shape: 100 256 14 14 (5017600)
I1107 16:43:08.676663  5452 net.cpp:137] Memory required for data: 785818800
I1107 16:43:08.676663  5452 layer_factory.cpp:58] Creating layer pool5
I1107 16:43:08.676663  5452 net.cpp:84] Creating Layer pool5
I1107 16:43:08.676663  5452 net.cpp:406] pool5 <- fire5/concat
I1107 16:43:08.676663  5452 net.cpp:380] pool5 -> pool5
I1107 16:43:08.676663  5452 net.cpp:122] Setting up pool5
I1107 16:43:08.676663  5452 net.cpp:129] Top shape: 100 256 7 7 (1254400)
I1107 16:43:08.676663  5452 net.cpp:137] Memory required for data: 790836400
I1107 16:43:08.676663  5452 layer_factory.cpp:58] Creating layer fire6/squeeze1x1
I1107 16:43:08.676663  5452 net.cpp:84] Creating Layer fire6/squeeze1x1
I1107 16:43:08.676663  5452 net.cpp:406] fire6/squeeze1x1 <- pool5
I1107 16:43:08.676663  5452 net.cpp:380] fire6/squeeze1x1 -> conv_12
I1107 16:43:08.677664  5452 net.cpp:122] Setting up fire6/squeeze1x1
I1107 16:43:08.677664  5452 net.cpp:129] Top shape: 100 48 7 7 (235200)
I1107 16:43:08.677664  5452 net.cpp:137] Memory required for data: 791777200
I1107 16:43:08.677664  5452 layer_factory.cpp:58] Creating layer bn_12
I1107 16:43:08.677664  5452 net.cpp:84] Creating Layer bn_12
I1107 16:43:08.677664  5452 net.cpp:406] bn_12 <- conv_12
I1107 16:43:08.677664  5452 net.cpp:367] bn_12 -> conv_12 (in-place)
I1107 16:43:08.677664  5452 net.cpp:122] Setting up bn_12
I1107 16:43:08.677664  5452 net.cpp:129] Top shape: 100 48 7 7 (235200)
I1107 16:43:08.677664  5452 net.cpp:137] Memory required for data: 792718000
I1107 16:43:08.677664  5452 layer_factory.cpp:58] Creating layer scale_12
I1107 16:43:08.677664  5452 net.cpp:84] Creating Layer scale_12
I1107 16:43:08.677664  5452 net.cpp:406] scale_12 <- conv_12
I1107 16:43:08.677664  5452 net.cpp:380] scale_12 -> fire6/squeeze1x1
I1107 16:43:08.677664  5452 layer_factory.cpp:58] Creating layer scale_12
I1107 16:43:08.677664  5452 net.cpp:122] Setting up scale_12
I1107 16:43:08.677664  5452 net.cpp:129] Top shape: 100 48 7 7 (235200)
I1107 16:43:08.677664  5452 net.cpp:137] Memory required for data: 793658800
I1107 16:43:08.677664  5452 layer_factory.cpp:58] Creating layer fire6/relu_squeeze1x1
I1107 16:43:08.677664  5452 net.cpp:84] Creating Layer fire6/relu_squeeze1x1
I1107 16:43:08.677664  5452 net.cpp:406] fire6/relu_squeeze1x1 <- fire6/squeeze1x1
I1107 16:43:08.677664  5452 net.cpp:367] fire6/relu_squeeze1x1 -> fire6/squeeze1x1 (in-place)
I1107 16:43:08.678663  5452 net.cpp:122] Setting up fire6/relu_squeeze1x1
I1107 16:43:08.678663  5452 net.cpp:129] Top shape: 100 48 7 7 (235200)
I1107 16:43:08.678663  5452 net.cpp:137] Memory required for data: 794599600
I1107 16:43:08.678663  5452 layer_factory.cpp:58] Creating layer fire6/squeeze1x1_fire6/relu_squeeze1x1_0_split
I1107 16:43:08.678663  5452 net.cpp:84] Creating Layer fire6/squeeze1x1_fire6/relu_squeeze1x1_0_split
I1107 16:43:08.678663  5452 net.cpp:406] fire6/squeeze1x1_fire6/relu_squeeze1x1_0_split <- fire6/squeeze1x1
I1107 16:43:08.678663  5452 net.cpp:380] fire6/squeeze1x1_fire6/relu_squeeze1x1_0_split -> fire6/squeeze1x1_fire6/relu_squeeze1x1_0_split_0
I1107 16:43:08.678663  5452 net.cpp:380] fire6/squeeze1x1_fire6/relu_squeeze1x1_0_split -> fire6/squeeze1x1_fire6/relu_squeeze1x1_0_split_1
I1107 16:43:08.678663  5452 net.cpp:122] Setting up fire6/squeeze1x1_fire6/relu_squeeze1x1_0_split
I1107 16:43:08.678663  5452 net.cpp:129] Top shape: 100 48 7 7 (235200)
I1107 16:43:08.678663  5452 net.cpp:129] Top shape: 100 48 7 7 (235200)
I1107 16:43:08.678663  5452 net.cpp:137] Memory required for data: 796481200
I1107 16:43:08.678663  5452 layer_factory.cpp:58] Creating layer fire6/expand1x1
I1107 16:43:08.678663  5452 net.cpp:84] Creating Layer fire6/expand1x1
I1107 16:43:08.678663  5452 net.cpp:406] fire6/expand1x1 <- fire6/squeeze1x1_fire6/relu_squeeze1x1_0_split_0
I1107 16:43:08.678663  5452 net.cpp:380] fire6/expand1x1 -> conv_13
I1107 16:43:08.679663  5452 net.cpp:122] Setting up fire6/expand1x1
I1107 16:43:08.679663  5452 net.cpp:129] Top shape: 100 192 7 7 (940800)
I1107 16:43:08.679663  5452 net.cpp:137] Memory required for data: 800244400
I1107 16:43:08.679663  5452 layer_factory.cpp:58] Creating layer bn_13
I1107 16:43:08.679663  5452 net.cpp:84] Creating Layer bn_13
I1107 16:43:08.679663  5452 net.cpp:406] bn_13 <- conv_13
I1107 16:43:08.679663  5452 net.cpp:367] bn_13 -> conv_13 (in-place)
I1107 16:43:08.679663  5452 net.cpp:122] Setting up bn_13
I1107 16:43:08.679663  5452 net.cpp:129] Top shape: 100 192 7 7 (940800)
I1107 16:43:08.679663  5452 net.cpp:137] Memory required for data: 804007600
I1107 16:43:08.679663  5452 layer_factory.cpp:58] Creating layer scale_13
I1107 16:43:08.679663  5452 net.cpp:84] Creating Layer scale_13
I1107 16:43:08.679663  5452 net.cpp:406] scale_13 <- conv_13
I1107 16:43:08.679663  5452 net.cpp:380] scale_13 -> fire6/expand1x1
I1107 16:43:08.679663  5452 layer_factory.cpp:58] Creating layer scale_13
I1107 16:43:08.679663  5452 net.cpp:122] Setting up scale_13
I1107 16:43:08.679663  5452 net.cpp:129] Top shape: 100 192 7 7 (940800)
I1107 16:43:08.679663  5452 net.cpp:137] Memory required for data: 807770800
I1107 16:43:08.679663  5452 layer_factory.cpp:58] Creating layer fire6/relu_expand1x1
I1107 16:43:08.679663  5452 net.cpp:84] Creating Layer fire6/relu_expand1x1
I1107 16:43:08.680663  5452 net.cpp:406] fire6/relu_expand1x1 <- fire6/expand1x1
I1107 16:43:08.680663  5452 net.cpp:367] fire6/relu_expand1x1 -> fire6/expand1x1 (in-place)
I1107 16:43:08.680663  5452 net.cpp:122] Setting up fire6/relu_expand1x1
I1107 16:43:08.680663  5452 net.cpp:129] Top shape: 100 192 7 7 (940800)
I1107 16:43:08.680663  5452 net.cpp:137] Memory required for data: 811534000
I1107 16:43:08.680663  5452 layer_factory.cpp:58] Creating layer fire6/expand3x3
I1107 16:43:08.680663  5452 net.cpp:84] Creating Layer fire6/expand3x3
I1107 16:43:08.680663  5452 net.cpp:406] fire6/expand3x3 <- fire6/squeeze1x1_fire6/relu_squeeze1x1_0_split_1
I1107 16:43:08.680663  5452 net.cpp:380] fire6/expand3x3 -> conv_14
I1107 16:43:08.682663  5452 net.cpp:122] Setting up fire6/expand3x3
I1107 16:43:08.682663  5452 net.cpp:129] Top shape: 100 192 7 7 (940800)
I1107 16:43:08.682663  5452 net.cpp:137] Memory required for data: 815297200
I1107 16:43:08.682663  5452 layer_factory.cpp:58] Creating layer bn_14
I1107 16:43:08.682663  5452 net.cpp:84] Creating Layer bn_14
I1107 16:43:08.682663  5452 net.cpp:406] bn_14 <- conv_14
I1107 16:43:08.682663  5452 net.cpp:367] bn_14 -> conv_14 (in-place)
I1107 16:43:08.682663  5452 net.cpp:122] Setting up bn_14
I1107 16:43:08.682663  5452 net.cpp:129] Top shape: 100 192 7 7 (940800)
I1107 16:43:08.682663  5452 net.cpp:137] Memory required for data: 819060400
I1107 16:43:08.682663  5452 layer_factory.cpp:58] Creating layer scale_14
I1107 16:43:08.682663  5452 net.cpp:84] Creating Layer scale_14
I1107 16:43:08.682663  5452 net.cpp:406] scale_14 <- conv_14
I1107 16:43:08.682663  5452 net.cpp:380] scale_14 -> fire6/expand3x3
I1107 16:43:08.682663  5452 layer_factory.cpp:58] Creating layer scale_14
I1107 16:43:08.682663  5452 net.cpp:122] Setting up scale_14
I1107 16:43:08.682663  5452 net.cpp:129] Top shape: 100 192 7 7 (940800)
I1107 16:43:08.682663  5452 net.cpp:137] Memory required for data: 822823600
I1107 16:43:08.682663  5452 layer_factory.cpp:58] Creating layer fire6/relu_expand3x3
I1107 16:43:08.682663  5452 net.cpp:84] Creating Layer fire6/relu_expand3x3
I1107 16:43:08.683662  5452 net.cpp:406] fire6/relu_expand3x3 <- fire6/expand3x3
I1107 16:43:08.683662  5452 net.cpp:367] fire6/relu_expand3x3 -> fire6/expand3x3 (in-place)
I1107 16:43:08.683662  5452 net.cpp:122] Setting up fire6/relu_expand3x3
I1107 16:43:08.683662  5452 net.cpp:129] Top shape: 100 192 7 7 (940800)
I1107 16:43:08.683662  5452 net.cpp:137] Memory required for data: 826586800
I1107 16:43:08.683662  5452 layer_factory.cpp:58] Creating layer fire6/concat
I1107 16:43:08.683662  5452 net.cpp:84] Creating Layer fire6/concat
I1107 16:43:08.683662  5452 net.cpp:406] fire6/concat <- fire6/expand1x1
I1107 16:43:08.683662  5452 net.cpp:406] fire6/concat <- fire6/expand3x3
I1107 16:43:08.683662  5452 net.cpp:380] fire6/concat -> fire6/concat
I1107 16:43:08.683662  5452 net.cpp:122] Setting up fire6/concat
I1107 16:43:08.683662  5452 net.cpp:129] Top shape: 100 384 7 7 (1881600)
I1107 16:43:08.683662  5452 net.cpp:137] Memory required for data: 834113200
I1107 16:43:08.683662  5452 layer_factory.cpp:58] Creating layer fire7/squeeze1x1
I1107 16:43:08.683662  5452 net.cpp:84] Creating Layer fire7/squeeze1x1
I1107 16:43:08.683662  5452 net.cpp:406] fire7/squeeze1x1 <- fire6/concat
I1107 16:43:08.683662  5452 net.cpp:380] fire7/squeeze1x1 -> conv_15
I1107 16:43:08.684660  5452 net.cpp:122] Setting up fire7/squeeze1x1
I1107 16:43:08.684660  5452 net.cpp:129] Top shape: 100 48 7 7 (235200)
I1107 16:43:08.684660  5452 net.cpp:137] Memory required for data: 835054000
I1107 16:43:08.684660  5452 layer_factory.cpp:58] Creating layer bn_15
I1107 16:43:08.684660  5452 net.cpp:84] Creating Layer bn_15
I1107 16:43:08.684660  5452 net.cpp:406] bn_15 <- conv_15
I1107 16:43:08.684660  5452 net.cpp:367] bn_15 -> conv_15 (in-place)
I1107 16:43:08.684660  5452 net.cpp:122] Setting up bn_15
I1107 16:43:08.684660  5452 net.cpp:129] Top shape: 100 48 7 7 (235200)
I1107 16:43:08.684660  5452 net.cpp:137] Memory required for data: 835994800
I1107 16:43:08.684660  5452 layer_factory.cpp:58] Creating layer scale_15
I1107 16:43:08.684660  5452 net.cpp:84] Creating Layer scale_15
I1107 16:43:08.684660  5452 net.cpp:406] scale_15 <- conv_15
I1107 16:43:08.684660  5452 net.cpp:380] scale_15 -> fire7/squeeze1x1
I1107 16:43:08.684660  5452 layer_factory.cpp:58] Creating layer scale_15
I1107 16:43:08.684660  5452 net.cpp:122] Setting up scale_15
I1107 16:43:08.684660  5452 net.cpp:129] Top shape: 100 48 7 7 (235200)
I1107 16:43:08.685663  5452 net.cpp:137] Memory required for data: 836935600
I1107 16:43:08.685663  5452 layer_factory.cpp:58] Creating layer fire7/relu_squeeze1x1
I1107 16:43:08.685663  5452 net.cpp:84] Creating Layer fire7/relu_squeeze1x1
I1107 16:43:08.685663  5452 net.cpp:406] fire7/relu_squeeze1x1 <- fire7/squeeze1x1
I1107 16:43:08.685663  5452 net.cpp:367] fire7/relu_squeeze1x1 -> fire7/squeeze1x1 (in-place)
I1107 16:43:08.685663  5452 net.cpp:122] Setting up fire7/relu_squeeze1x1
I1107 16:43:08.685663  5452 net.cpp:129] Top shape: 100 48 7 7 (235200)
I1107 16:43:08.685663  5452 net.cpp:137] Memory required for data: 837876400
I1107 16:43:08.685663  5452 layer_factory.cpp:58] Creating layer fire7/squeeze1x1_fire7/relu_squeeze1x1_0_split
I1107 16:43:08.685663  5452 net.cpp:84] Creating Layer fire7/squeeze1x1_fire7/relu_squeeze1x1_0_split
I1107 16:43:08.685663  5452 net.cpp:406] fire7/squeeze1x1_fire7/relu_squeeze1x1_0_split <- fire7/squeeze1x1
I1107 16:43:08.685663  5452 net.cpp:380] fire7/squeeze1x1_fire7/relu_squeeze1x1_0_split -> fire7/squeeze1x1_fire7/relu_squeeze1x1_0_split_0
I1107 16:43:08.685663  5452 net.cpp:380] fire7/squeeze1x1_fire7/relu_squeeze1x1_0_split -> fire7/squeeze1x1_fire7/relu_squeeze1x1_0_split_1
I1107 16:43:08.685663  5452 net.cpp:122] Setting up fire7/squeeze1x1_fire7/relu_squeeze1x1_0_split
I1107 16:43:08.685663  5452 net.cpp:129] Top shape: 100 48 7 7 (235200)
I1107 16:43:08.685663  5452 net.cpp:129] Top shape: 100 48 7 7 (235200)
I1107 16:43:08.685663  5452 net.cpp:137] Memory required for data: 839758000
I1107 16:43:08.685663  5452 layer_factory.cpp:58] Creating layer fire7/expand1x1
I1107 16:43:08.685663  5452 net.cpp:84] Creating Layer fire7/expand1x1
I1107 16:43:08.685663  5452 net.cpp:406] fire7/expand1x1 <- fire7/squeeze1x1_fire7/relu_squeeze1x1_0_split_0
I1107 16:43:08.685663  5452 net.cpp:380] fire7/expand1x1 -> conv_16
I1107 16:43:08.686662  5452 net.cpp:122] Setting up fire7/expand1x1
I1107 16:43:08.686662  5452 net.cpp:129] Top shape: 100 192 7 7 (940800)
I1107 16:43:08.686662  5452 net.cpp:137] Memory required for data: 843521200
I1107 16:43:08.686662  5452 layer_factory.cpp:58] Creating layer bn_16
I1107 16:43:08.686662  5452 net.cpp:84] Creating Layer bn_16
I1107 16:43:08.686662  5452 net.cpp:406] bn_16 <- conv_16
I1107 16:43:08.686662  5452 net.cpp:367] bn_16 -> conv_16 (in-place)
I1107 16:43:08.686662  5452 net.cpp:122] Setting up bn_16
I1107 16:43:08.686662  5452 net.cpp:129] Top shape: 100 192 7 7 (940800)
I1107 16:43:08.686662  5452 net.cpp:137] Memory required for data: 847284400
I1107 16:43:08.686662  5452 layer_factory.cpp:58] Creating layer scale_16
I1107 16:43:08.686662  5452 net.cpp:84] Creating Layer scale_16
I1107 16:43:08.686662  5452 net.cpp:406] scale_16 <- conv_16
I1107 16:43:08.686662  5452 net.cpp:380] scale_16 -> fire7/expand1x1
I1107 16:43:08.686662  5452 layer_factory.cpp:58] Creating layer scale_16
I1107 16:43:08.687664  5452 net.cpp:122] Setting up scale_16
I1107 16:43:08.687664  5452 net.cpp:129] Top shape: 100 192 7 7 (940800)
I1107 16:43:08.687664  5452 net.cpp:137] Memory required for data: 851047600
I1107 16:43:08.687664  5452 layer_factory.cpp:58] Creating layer fire7/relu_expand1x1
I1107 16:43:08.687664  5452 net.cpp:84] Creating Layer fire7/relu_expand1x1
I1107 16:43:08.687664  5452 net.cpp:406] fire7/relu_expand1x1 <- fire7/expand1x1
I1107 16:43:08.687664  5452 net.cpp:367] fire7/relu_expand1x1 -> fire7/expand1x1 (in-place)
I1107 16:43:08.687664  5452 net.cpp:122] Setting up fire7/relu_expand1x1
I1107 16:43:08.687664  5452 net.cpp:129] Top shape: 100 192 7 7 (940800)
I1107 16:43:08.687664  5452 net.cpp:137] Memory required for data: 854810800
I1107 16:43:08.687664  5452 layer_factory.cpp:58] Creating layer fire7/expand3x3
I1107 16:43:08.687664  5452 net.cpp:84] Creating Layer fire7/expand3x3
I1107 16:43:08.687664  5452 net.cpp:406] fire7/expand3x3 <- fire7/squeeze1x1_fire7/relu_squeeze1x1_0_split_1
I1107 16:43:08.687664  5452 net.cpp:380] fire7/expand3x3 -> conv_17
I1107 16:43:08.689663  5452 net.cpp:122] Setting up fire7/expand3x3
I1107 16:43:08.689663  5452 net.cpp:129] Top shape: 100 192 7 7 (940800)
I1107 16:43:08.689663  5452 net.cpp:137] Memory required for data: 858574000
I1107 16:43:08.689663  5452 layer_factory.cpp:58] Creating layer bn_17
I1107 16:43:08.689663  5452 net.cpp:84] Creating Layer bn_17
I1107 16:43:08.689663  5452 net.cpp:406] bn_17 <- conv_17
I1107 16:43:08.689663  5452 net.cpp:367] bn_17 -> conv_17 (in-place)
I1107 16:43:08.689663  5452 net.cpp:122] Setting up bn_17
I1107 16:43:08.689663  5452 net.cpp:129] Top shape: 100 192 7 7 (940800)
I1107 16:43:08.689663  5452 net.cpp:137] Memory required for data: 862337200
I1107 16:43:08.689663  5452 layer_factory.cpp:58] Creating layer scale_17
I1107 16:43:08.689663  5452 net.cpp:84] Creating Layer scale_17
I1107 16:43:08.689663  5452 net.cpp:406] scale_17 <- conv_17
I1107 16:43:08.689663  5452 net.cpp:380] scale_17 -> fire7/expand3x3
I1107 16:43:08.689663  5452 layer_factory.cpp:58] Creating layer scale_17
I1107 16:43:08.689663  5452 net.cpp:122] Setting up scale_17
I1107 16:43:08.689663  5452 net.cpp:129] Top shape: 100 192 7 7 (940800)
I1107 16:43:08.689663  5452 net.cpp:137] Memory required for data: 866100400
I1107 16:43:08.689663  5452 layer_factory.cpp:58] Creating layer fire7/relu_expand3x3
I1107 16:43:08.689663  5452 net.cpp:84] Creating Layer fire7/relu_expand3x3
I1107 16:43:08.689663  5452 net.cpp:406] fire7/relu_expand3x3 <- fire7/expand3x3
I1107 16:43:08.689663  5452 net.cpp:367] fire7/relu_expand3x3 -> fire7/expand3x3 (in-place)
I1107 16:43:08.689663  5452 net.cpp:122] Setting up fire7/relu_expand3x3
I1107 16:43:08.689663  5452 net.cpp:129] Top shape: 100 192 7 7 (940800)
I1107 16:43:08.689663  5452 net.cpp:137] Memory required for data: 869863600
I1107 16:43:08.689663  5452 layer_factory.cpp:58] Creating layer fire7/concat
I1107 16:43:08.689663  5452 net.cpp:84] Creating Layer fire7/concat
I1107 16:43:08.689663  5452 net.cpp:406] fire7/concat <- fire7/expand1x1
I1107 16:43:08.689663  5452 net.cpp:406] fire7/concat <- fire7/expand3x3
I1107 16:43:08.689663  5452 net.cpp:380] fire7/concat -> fire7/concat
I1107 16:43:08.689663  5452 net.cpp:122] Setting up fire7/concat
I1107 16:43:08.689663  5452 net.cpp:129] Top shape: 100 384 7 7 (1881600)
I1107 16:43:08.689663  5452 net.cpp:137] Memory required for data: 877390000
I1107 16:43:08.690660  5452 layer_factory.cpp:58] Creating layer fire8/squeeze1x1
I1107 16:43:08.690660  5452 net.cpp:84] Creating Layer fire8/squeeze1x1
I1107 16:43:08.690660  5452 net.cpp:406] fire8/squeeze1x1 <- fire7/concat
I1107 16:43:08.690660  5452 net.cpp:380] fire8/squeeze1x1 -> conv_18
I1107 16:43:08.691663  5452 net.cpp:122] Setting up fire8/squeeze1x1
I1107 16:43:08.691663  5452 net.cpp:129] Top shape: 100 64 7 7 (313600)
I1107 16:43:08.691663  5452 net.cpp:137] Memory required for data: 878644400
I1107 16:43:08.691663  5452 layer_factory.cpp:58] Creating layer bn_18
I1107 16:43:08.691663  5452 net.cpp:84] Creating Layer bn_18
I1107 16:43:08.691663  5452 net.cpp:406] bn_18 <- conv_18
I1107 16:43:08.691663  5452 net.cpp:367] bn_18 -> conv_18 (in-place)
I1107 16:43:08.691663  5452 net.cpp:122] Setting up bn_18
I1107 16:43:08.691663  5452 net.cpp:129] Top shape: 100 64 7 7 (313600)
I1107 16:43:08.691663  5452 net.cpp:137] Memory required for data: 879898800
I1107 16:43:08.691663  5452 layer_factory.cpp:58] Creating layer scale_18
I1107 16:43:08.691663  5452 net.cpp:84] Creating Layer scale_18
I1107 16:43:08.691663  5452 net.cpp:406] scale_18 <- conv_18
I1107 16:43:08.691663  5452 net.cpp:380] scale_18 -> fire8/squeeze1x1
I1107 16:43:08.691663  5452 layer_factory.cpp:58] Creating layer scale_18
I1107 16:43:08.691663  5452 net.cpp:122] Setting up scale_18
I1107 16:43:08.691663  5452 net.cpp:129] Top shape: 100 64 7 7 (313600)
I1107 16:43:08.691663  5452 net.cpp:137] Memory required for data: 881153200
I1107 16:43:08.691663  5452 layer_factory.cpp:58] Creating layer fire8/relu_squeeze1x1
I1107 16:43:08.691663  5452 net.cpp:84] Creating Layer fire8/relu_squeeze1x1
I1107 16:43:08.691663  5452 net.cpp:406] fire8/relu_squeeze1x1 <- fire8/squeeze1x1
I1107 16:43:08.691663  5452 net.cpp:367] fire8/relu_squeeze1x1 -> fire8/squeeze1x1 (in-place)
I1107 16:43:08.692663  5452 net.cpp:122] Setting up fire8/relu_squeeze1x1
I1107 16:43:08.692663  5452 net.cpp:129] Top shape: 100 64 7 7 (313600)
I1107 16:43:08.692663  5452 net.cpp:137] Memory required for data: 882407600
I1107 16:43:08.692663  5452 layer_factory.cpp:58] Creating layer fire8/squeeze1x1_fire8/relu_squeeze1x1_0_split
I1107 16:43:08.692663  5452 net.cpp:84] Creating Layer fire8/squeeze1x1_fire8/relu_squeeze1x1_0_split
I1107 16:43:08.692663  5452 net.cpp:406] fire8/squeeze1x1_fire8/relu_squeeze1x1_0_split <- fire8/squeeze1x1
I1107 16:43:08.692663  5452 net.cpp:380] fire8/squeeze1x1_fire8/relu_squeeze1x1_0_split -> fire8/squeeze1x1_fire8/relu_squeeze1x1_0_split_0
I1107 16:43:08.692663  5452 net.cpp:380] fire8/squeeze1x1_fire8/relu_squeeze1x1_0_split -> fire8/squeeze1x1_fire8/relu_squeeze1x1_0_split_1
I1107 16:43:08.692663  5452 net.cpp:122] Setting up fire8/squeeze1x1_fire8/relu_squeeze1x1_0_split
I1107 16:43:08.692663  5452 net.cpp:129] Top shape: 100 64 7 7 (313600)
I1107 16:43:08.692663  5452 net.cpp:129] Top shape: 100 64 7 7 (313600)
I1107 16:43:08.692663  5452 net.cpp:137] Memory required for data: 884916400
I1107 16:43:08.692663  5452 layer_factory.cpp:58] Creating layer fire8/expand1x1
I1107 16:43:08.692663  5452 net.cpp:84] Creating Layer fire8/expand1x1
I1107 16:43:08.692663  5452 net.cpp:406] fire8/expand1x1 <- fire8/squeeze1x1_fire8/relu_squeeze1x1_0_split_0
I1107 16:43:08.692663  5452 net.cpp:380] fire8/expand1x1 -> conv_19
I1107 16:43:08.693665  5452 net.cpp:122] Setting up fire8/expand1x1
I1107 16:43:08.693665  5452 net.cpp:129] Top shape: 100 256 7 7 (1254400)
I1107 16:43:08.693665  5452 net.cpp:137] Memory required for data: 889934000
I1107 16:43:08.693665  5452 layer_factory.cpp:58] Creating layer bn_19
I1107 16:43:08.693665  5452 net.cpp:84] Creating Layer bn_19
I1107 16:43:08.693665  5452 net.cpp:406] bn_19 <- conv_19
I1107 16:43:08.693665  5452 net.cpp:367] bn_19 -> conv_19 (in-place)
I1107 16:43:08.693665  5452 net.cpp:122] Setting up bn_19
I1107 16:43:08.693665  5452 net.cpp:129] Top shape: 100 256 7 7 (1254400)
I1107 16:43:08.693665  5452 net.cpp:137] Memory required for data: 894951600
I1107 16:43:08.693665  5452 layer_factory.cpp:58] Creating layer scale_19
I1107 16:43:08.693665  5452 net.cpp:84] Creating Layer scale_19
I1107 16:43:08.693665  5452 net.cpp:406] scale_19 <- conv_19
I1107 16:43:08.693665  5452 net.cpp:380] scale_19 -> fire8/expand1x1
I1107 16:43:08.693665  5452 layer_factory.cpp:58] Creating layer scale_19
I1107 16:43:08.693665  5452 net.cpp:122] Setting up scale_19
I1107 16:43:08.693665  5452 net.cpp:129] Top shape: 100 256 7 7 (1254400)
I1107 16:43:08.693665  5452 net.cpp:137] Memory required for data: 899969200
I1107 16:43:08.693665  5452 layer_factory.cpp:58] Creating layer fire8/relu_expand1x1
I1107 16:43:08.693665  5452 net.cpp:84] Creating Layer fire8/relu_expand1x1
I1107 16:43:08.693665  5452 net.cpp:406] fire8/relu_expand1x1 <- fire8/expand1x1
I1107 16:43:08.693665  5452 net.cpp:367] fire8/relu_expand1x1 -> fire8/expand1x1 (in-place)
I1107 16:43:08.694664  5452 net.cpp:122] Setting up fire8/relu_expand1x1
I1107 16:43:08.694664  5452 net.cpp:129] Top shape: 100 256 7 7 (1254400)
I1107 16:43:08.694664  5452 net.cpp:137] Memory required for data: 904986800
I1107 16:43:08.694664  5452 layer_factory.cpp:58] Creating layer fire8/expand3x3
I1107 16:43:08.694664  5452 net.cpp:84] Creating Layer fire8/expand3x3
I1107 16:43:08.694664  5452 net.cpp:406] fire8/expand3x3 <- fire8/squeeze1x1_fire8/relu_squeeze1x1_0_split_1
I1107 16:43:08.694664  5452 net.cpp:380] fire8/expand3x3 -> conv_20
I1107 16:43:08.696663  5452 net.cpp:122] Setting up fire8/expand3x3
I1107 16:43:08.696663  5452 net.cpp:129] Top shape: 100 256 7 7 (1254400)
I1107 16:43:08.696663  5452 net.cpp:137] Memory required for data: 910004400
I1107 16:43:08.696663  5452 layer_factory.cpp:58] Creating layer bn_20
I1107 16:43:08.696663  5452 net.cpp:84] Creating Layer bn_20
I1107 16:43:08.696663  5452 net.cpp:406] bn_20 <- conv_20
I1107 16:43:08.696663  5452 net.cpp:367] bn_20 -> conv_20 (in-place)
I1107 16:43:08.696663  5452 net.cpp:122] Setting up bn_20
I1107 16:43:08.696663  5452 net.cpp:129] Top shape: 100 256 7 7 (1254400)
I1107 16:43:08.696663  5452 net.cpp:137] Memory required for data: 915022000
I1107 16:43:08.696663  5452 layer_factory.cpp:58] Creating layer scale_20
I1107 16:43:08.696663  5452 net.cpp:84] Creating Layer scale_20
I1107 16:43:08.696663  5452 net.cpp:406] scale_20 <- conv_20
I1107 16:43:08.696663  5452 net.cpp:380] scale_20 -> fire8/expand3x3
I1107 16:43:08.696663  5452 layer_factory.cpp:58] Creating layer scale_20
I1107 16:43:08.696663  5452 net.cpp:122] Setting up scale_20
I1107 16:43:08.696663  5452 net.cpp:129] Top shape: 100 256 7 7 (1254400)
I1107 16:43:08.696663  5452 net.cpp:137] Memory required for data: 920039600
I1107 16:43:08.696663  5452 layer_factory.cpp:58] Creating layer fire8/relu_expand3x3
I1107 16:43:08.697664  5452 net.cpp:84] Creating Layer fire8/relu_expand3x3
I1107 16:43:08.697664  5452 net.cpp:406] fire8/relu_expand3x3 <- fire8/expand3x3
I1107 16:43:08.697664  5452 net.cpp:367] fire8/relu_expand3x3 -> fire8/expand3x3 (in-place)
I1107 16:43:08.697664  5452 net.cpp:122] Setting up fire8/relu_expand3x3
I1107 16:43:08.697664  5452 net.cpp:129] Top shape: 100 256 7 7 (1254400)
I1107 16:43:08.697664  5452 net.cpp:137] Memory required for data: 925057200
I1107 16:43:08.697664  5452 layer_factory.cpp:58] Creating layer fire8/concat
I1107 16:43:08.697664  5452 net.cpp:84] Creating Layer fire8/concat
I1107 16:43:08.697664  5452 net.cpp:406] fire8/concat <- fire8/expand1x1
I1107 16:43:08.697664  5452 net.cpp:406] fire8/concat <- fire8/expand3x3
I1107 16:43:08.697664  5452 net.cpp:380] fire8/concat -> fire8/concat
I1107 16:43:08.697664  5452 net.cpp:122] Setting up fire8/concat
I1107 16:43:08.697664  5452 net.cpp:129] Top shape: 100 512 7 7 (2508800)
I1107 16:43:08.697664  5452 net.cpp:137] Memory required for data: 935092400
I1107 16:43:08.697664  5452 layer_factory.cpp:58] Creating layer fire9/squeeze1x1
I1107 16:43:08.697664  5452 net.cpp:84] Creating Layer fire9/squeeze1x1
I1107 16:43:08.697664  5452 net.cpp:406] fire9/squeeze1x1 <- fire8/concat
I1107 16:43:08.697664  5452 net.cpp:380] fire9/squeeze1x1 -> conv_21
I1107 16:43:08.698663  5452 net.cpp:122] Setting up fire9/squeeze1x1
I1107 16:43:08.698663  5452 net.cpp:129] Top shape: 100 64 7 7 (313600)
I1107 16:43:08.698663  5452 net.cpp:137] Memory required for data: 936346800
I1107 16:43:08.698663  5452 layer_factory.cpp:58] Creating layer bn_21
I1107 16:43:08.698663  5452 net.cpp:84] Creating Layer bn_21
I1107 16:43:08.698663  5452 net.cpp:406] bn_21 <- conv_21
I1107 16:43:08.698663  5452 net.cpp:367] bn_21 -> conv_21 (in-place)
I1107 16:43:08.698663  5452 net.cpp:122] Setting up bn_21
I1107 16:43:08.698663  5452 net.cpp:129] Top shape: 100 64 7 7 (313600)
I1107 16:43:08.698663  5452 net.cpp:137] Memory required for data: 937601200
I1107 16:43:08.698663  5452 layer_factory.cpp:58] Creating layer scale_21
I1107 16:43:08.698663  5452 net.cpp:84] Creating Layer scale_21
I1107 16:43:08.698663  5452 net.cpp:406] scale_21 <- conv_21
I1107 16:43:08.698663  5452 net.cpp:380] scale_21 -> fire9/squeeze1x1
I1107 16:43:08.698663  5452 layer_factory.cpp:58] Creating layer scale_21
I1107 16:43:08.698663  5452 net.cpp:122] Setting up scale_21
I1107 16:43:08.698663  5452 net.cpp:129] Top shape: 100 64 7 7 (313600)
I1107 16:43:08.698663  5452 net.cpp:137] Memory required for data: 938855600
I1107 16:43:08.698663  5452 layer_factory.cpp:58] Creating layer fire9/relu_squeeze1x1
I1107 16:43:08.698663  5452 net.cpp:84] Creating Layer fire9/relu_squeeze1x1
I1107 16:43:08.698663  5452 net.cpp:406] fire9/relu_squeeze1x1 <- fire9/squeeze1x1
I1107 16:43:08.698663  5452 net.cpp:367] fire9/relu_squeeze1x1 -> fire9/squeeze1x1 (in-place)
I1107 16:43:08.699663  5452 net.cpp:122] Setting up fire9/relu_squeeze1x1
I1107 16:43:08.699663  5452 net.cpp:129] Top shape: 100 64 7 7 (313600)
I1107 16:43:08.699663  5452 net.cpp:137] Memory required for data: 940110000
I1107 16:43:08.699663  5452 layer_factory.cpp:58] Creating layer fire9/squeeze1x1_fire9/relu_squeeze1x1_0_split
I1107 16:43:08.699663  5452 net.cpp:84] Creating Layer fire9/squeeze1x1_fire9/relu_squeeze1x1_0_split
I1107 16:43:08.699663  5452 net.cpp:406] fire9/squeeze1x1_fire9/relu_squeeze1x1_0_split <- fire9/squeeze1x1
I1107 16:43:08.699663  5452 net.cpp:380] fire9/squeeze1x1_fire9/relu_squeeze1x1_0_split -> fire9/squeeze1x1_fire9/relu_squeeze1x1_0_split_0
I1107 16:43:08.699663  5452 net.cpp:380] fire9/squeeze1x1_fire9/relu_squeeze1x1_0_split -> fire9/squeeze1x1_fire9/relu_squeeze1x1_0_split_1
I1107 16:43:08.699663  5452 net.cpp:122] Setting up fire9/squeeze1x1_fire9/relu_squeeze1x1_0_split
I1107 16:43:08.699663  5452 net.cpp:129] Top shape: 100 64 7 7 (313600)
I1107 16:43:08.699663  5452 net.cpp:129] Top shape: 100 64 7 7 (313600)
I1107 16:43:08.699663  5452 net.cpp:137] Memory required for data: 942618800
I1107 16:43:08.699663  5452 layer_factory.cpp:58] Creating layer fire9/expand1x1
I1107 16:43:08.699663  5452 net.cpp:84] Creating Layer fire9/expand1x1
I1107 16:43:08.699663  5452 net.cpp:406] fire9/expand1x1 <- fire9/squeeze1x1_fire9/relu_squeeze1x1_0_split_0
I1107 16:43:08.699663  5452 net.cpp:380] fire9/expand1x1 -> conv_22
I1107 16:43:08.700664  5452 net.cpp:122] Setting up fire9/expand1x1
I1107 16:43:08.700664  5452 net.cpp:129] Top shape: 100 256 7 7 (1254400)
I1107 16:43:08.700664  5452 net.cpp:137] Memory required for data: 947636400
I1107 16:43:08.700664  5452 layer_factory.cpp:58] Creating layer bn_22
I1107 16:43:08.700664  5452 net.cpp:84] Creating Layer bn_22
I1107 16:43:08.700664  5452 net.cpp:406] bn_22 <- conv_22
I1107 16:43:08.700664  5452 net.cpp:367] bn_22 -> conv_22 (in-place)
I1107 16:43:08.700664  5452 net.cpp:122] Setting up bn_22
I1107 16:43:08.700664  5452 net.cpp:129] Top shape: 100 256 7 7 (1254400)
I1107 16:43:08.700664  5452 net.cpp:137] Memory required for data: 952654000
I1107 16:43:08.700664  5452 layer_factory.cpp:58] Creating layer scale_22
I1107 16:43:08.700664  5452 net.cpp:84] Creating Layer scale_22
I1107 16:43:08.700664  5452 net.cpp:406] scale_22 <- conv_22
I1107 16:43:08.700664  5452 net.cpp:380] scale_22 -> fire9/expand1x1
I1107 16:43:08.700664  5452 layer_factory.cpp:58] Creating layer scale_22
I1107 16:43:08.700664  5452 net.cpp:122] Setting up scale_22
I1107 16:43:08.701661  5452 net.cpp:129] Top shape: 100 256 7 7 (1254400)
I1107 16:43:08.701661  5452 net.cpp:137] Memory required for data: 957671600
I1107 16:43:08.701661  5452 layer_factory.cpp:58] Creating layer fire9/relu_expand1x1
I1107 16:43:08.701661  5452 net.cpp:84] Creating Layer fire9/relu_expand1x1
I1107 16:43:08.701661  5452 net.cpp:406] fire9/relu_expand1x1 <- fire9/expand1x1
I1107 16:43:08.701661  5452 net.cpp:367] fire9/relu_expand1x1 -> fire9/expand1x1 (in-place)
I1107 16:43:08.701661  5452 net.cpp:122] Setting up fire9/relu_expand1x1
I1107 16:43:08.701661  5452 net.cpp:129] Top shape: 100 256 7 7 (1254400)
I1107 16:43:08.701661  5452 net.cpp:137] Memory required for data: 962689200
I1107 16:43:08.701661  5452 layer_factory.cpp:58] Creating layer fire9/expand3x3
I1107 16:43:08.701661  5452 net.cpp:84] Creating Layer fire9/expand3x3
I1107 16:43:08.701661  5452 net.cpp:406] fire9/expand3x3 <- fire9/squeeze1x1_fire9/relu_squeeze1x1_0_split_1
I1107 16:43:08.701661  5452 net.cpp:380] fire9/expand3x3 -> conv_23
I1107 16:43:08.703663  5452 net.cpp:122] Setting up fire9/expand3x3
I1107 16:43:08.703663  5452 net.cpp:129] Top shape: 100 256 7 7 (1254400)
I1107 16:43:08.703663  5452 net.cpp:137] Memory required for data: 967706800
I1107 16:43:08.703663  5452 layer_factory.cpp:58] Creating layer bn_23
I1107 16:43:08.703663  5452 net.cpp:84] Creating Layer bn_23
I1107 16:43:08.703663  5452 net.cpp:406] bn_23 <- conv_23
I1107 16:43:08.703663  5452 net.cpp:367] bn_23 -> conv_23 (in-place)
I1107 16:43:08.703663  5452 net.cpp:122] Setting up bn_23
I1107 16:43:08.703663  5452 net.cpp:129] Top shape: 100 256 7 7 (1254400)
I1107 16:43:08.703663  5452 net.cpp:137] Memory required for data: 972724400
I1107 16:43:08.703663  5452 layer_factory.cpp:58] Creating layer scale_23
I1107 16:43:08.703663  5452 net.cpp:84] Creating Layer scale_23
I1107 16:43:08.703663  5452 net.cpp:406] scale_23 <- conv_23
I1107 16:43:08.703663  5452 net.cpp:380] scale_23 -> fire9/expand3x3
I1107 16:43:08.703663  5452 layer_factory.cpp:58] Creating layer scale_23
I1107 16:43:08.703663  5452 net.cpp:122] Setting up scale_23
I1107 16:43:08.703663  5452 net.cpp:129] Top shape: 100 256 7 7 (1254400)
I1107 16:43:08.703663  5452 net.cpp:137] Memory required for data: 977742000
I1107 16:43:08.703663  5452 layer_factory.cpp:58] Creating layer fire9/relu_expand3x3
I1107 16:43:08.703663  5452 net.cpp:84] Creating Layer fire9/relu_expand3x3
I1107 16:43:08.703663  5452 net.cpp:406] fire9/relu_expand3x3 <- fire9/expand3x3
I1107 16:43:08.703663  5452 net.cpp:367] fire9/relu_expand3x3 -> fire9/expand3x3 (in-place)
I1107 16:43:08.704663  5452 net.cpp:122] Setting up fire9/relu_expand3x3
I1107 16:43:08.704663  5452 net.cpp:129] Top shape: 100 256 7 7 (1254400)
I1107 16:43:08.704663  5452 net.cpp:137] Memory required for data: 982759600
I1107 16:43:08.704663  5452 layer_factory.cpp:58] Creating layer fire9/concat
I1107 16:43:08.704663  5452 net.cpp:84] Creating Layer fire9/concat
I1107 16:43:08.704663  5452 net.cpp:406] fire9/concat <- fire9/expand1x1
I1107 16:43:08.704663  5452 net.cpp:406] fire9/concat <- fire9/expand3x3
I1107 16:43:08.704663  5452 net.cpp:380] fire9/concat -> fire9/concat
I1107 16:43:08.704663  5452 net.cpp:122] Setting up fire9/concat
I1107 16:43:08.704663  5452 net.cpp:129] Top shape: 100 512 7 7 (2508800)
I1107 16:43:08.704663  5452 net.cpp:137] Memory required for data: 992794800
I1107 16:43:08.704663  5452 layer_factory.cpp:58] Creating layer drop9
I1107 16:43:08.704663  5452 net.cpp:84] Creating Layer drop9
I1107 16:43:08.704663  5452 net.cpp:406] drop9 <- fire9/concat
I1107 16:43:08.704663  5452 net.cpp:367] drop9 -> fire9/concat (in-place)
I1107 16:43:08.704663  5452 net.cpp:122] Setting up drop9
I1107 16:43:08.704663  5452 net.cpp:129] Top shape: 100 512 7 7 (2508800)
I1107 16:43:08.704663  5452 net.cpp:137] Memory required for data: 1002830000
I1107 16:43:08.704663  5452 layer_factory.cpp:58] Creating layer conv10
I1107 16:43:08.704663  5452 net.cpp:84] Creating Layer conv10
I1107 16:43:08.704663  5452 net.cpp:406] conv10 <- fire9/concat
I1107 16:43:08.704663  5452 net.cpp:380] conv10 -> conv10
I1107 16:43:08.705663  5452 net.cpp:122] Setting up conv10
I1107 16:43:08.705663  5452 net.cpp:129] Top shape: 100 10 7 7 (49000)
I1107 16:43:08.705663  5452 net.cpp:137] Memory required for data: 1003026000
I1107 16:43:08.705663  5452 layer_factory.cpp:58] Creating layer relu_conv10
I1107 16:43:08.705663  5452 net.cpp:84] Creating Layer relu_conv10
I1107 16:43:08.705663  5452 net.cpp:406] relu_conv10 <- conv10
I1107 16:43:08.705663  5452 net.cpp:367] relu_conv10 -> conv10 (in-place)
I1107 16:43:08.705663  5452 net.cpp:122] Setting up relu_conv10
I1107 16:43:08.705663  5452 net.cpp:129] Top shape: 100 10 7 7 (49000)
I1107 16:43:08.705663  5452 net.cpp:137] Memory required for data: 1003222000
I1107 16:43:08.705663  5452 layer_factory.cpp:58] Creating layer pool10
I1107 16:43:08.705663  5452 net.cpp:84] Creating Layer pool10
I1107 16:43:08.705663  5452 net.cpp:406] pool10 <- conv10
I1107 16:43:08.705663  5452 net.cpp:380] pool10 -> pool10
I1107 16:43:08.706663  5452 net.cpp:122] Setting up pool10
I1107 16:43:08.706663  5452 net.cpp:129] Top shape: 100 10 1 1 (1000)
I1107 16:43:08.706663  5452 net.cpp:137] Memory required for data: 1003226000
I1107 16:43:08.706663  5452 layer_factory.cpp:58] Creating layer pool10_pool10_0_split
I1107 16:43:08.706663  5452 net.cpp:84] Creating Layer pool10_pool10_0_split
I1107 16:43:08.706663  5452 net.cpp:406] pool10_pool10_0_split <- pool10
I1107 16:43:08.706663  5452 net.cpp:380] pool10_pool10_0_split -> pool10_pool10_0_split_0
I1107 16:43:08.706663  5452 net.cpp:380] pool10_pool10_0_split -> pool10_pool10_0_split_1
I1107 16:43:08.706663  5452 net.cpp:122] Setting up pool10_pool10_0_split
I1107 16:43:08.706663  5452 net.cpp:129] Top shape: 100 10 1 1 (1000)
I1107 16:43:08.706663  5452 net.cpp:129] Top shape: 100 10 1 1 (1000)
I1107 16:43:08.706663  5452 net.cpp:137] Memory required for data: 1003234000
I1107 16:43:08.706663  5452 layer_factory.cpp:58] Creating layer accuracy_training
I1107 16:43:08.706663  5452 net.cpp:84] Creating Layer accuracy_training
I1107 16:43:08.706663  5452 net.cpp:406] accuracy_training <- pool10_pool10_0_split_0
I1107 16:43:08.706663  5452 net.cpp:406] accuracy_training <- label_cifar_1_split_0
…
