…
I0313 07:50:21.816046  6320 net.cpp:322] The NetState phase (0) differed from the phase (1) specified by a rule in layer accuracy
I0313 07:50:21.816046  6320 net.cpp:58] Initializing net from parameters: 
name: "CIFAR10_full"
state {
  phase: TRAIN
  level: 0
  stage: ""
}
layer {
  name: "cifar"
  type: "Data"
  top: "data"
  top: "label"
  include {
    phase: TRAIN
  }
  transform_param {
    mirror: true
    mean_file: "examples/cifar10/mean.binaryproto"
  }
  data_param {
    source: "examples/cifar10/cifar10_train_lmdb"
    batch_size: 100
    backend: LMDB
  }
}
layer {
  name: "conv1"
  type: "Convolution"
  bottom: "data"
  top: "conv1"
  param {
    lr_mult: 1
  }
  convolution_param {
    num_output: 64
    bias_term: true
    pad: 1
    kernel_size: 3
    stride: 1
    weight_filler {
      type: "xavier"
    }
  }
}
layer {
  name: "bn1"
  type: "BatchNorm"
  bottom: "conv1"
  top: "bn1"
  include {
    phase: TRAIN
  }
  batch_norm_param {
    use_global_stats: false
    moving_average_fraction: 0.95
  }
}
layer {
  name: "scale1"
  type: "Scale"
  bottom: "bn1"
  top: "scale1"
  scale_param {
    bias_term: true
  }
}
layer {
  name: "relu1"
  type: "ReLU"
  bottom: "scale1"
  top: "relu1"
}
layer {
  name: "conv1_0"
  type: "Convolution"
  bottom: "relu1"
  top: "conv1_0"
  param {
    lr_mult: 1
  }
  convolution_param {
    num_output: 32
    bias_term: true
    pad: 1
    kernel_size: 3
    stride: 1
    weight_filler {
      type: "xavier"
    }
  }
}
layer {
  name: "bn1_0"
  type: "BatchNorm"
  bottom: "conv1_0"
  top: "bn1_0"
  include {
    phase: TRAIN
  }
  batch_norm_param {
    use_global_stats: false
    moving_average_fraction: 0.95
  }
}
layer {
  name: "scale1_0"
  type: "Scale"
  bottom: "bn1_0"
  top: "scale1_0"
  scale_param {
    bias_term: true
  }
}
layer {
  name: "relu1_0"
  type: "ReLU"
  bottom: "scale1_0"
  top: "relu1_0"
}
layer {
  name: "conv2"
  type: "Convolution"
  bottom: "relu1_0"
  top: "conv2"
  param {
    lr_mult: 1
  }
  convolution_param {
    num_output: 32
    bias_term: true
    pad: 1
    kernel_size: 3
    stride: 1
    weight_filler {
      type: "gaussian"
      std: 0.01
    }
  }
}
layer {
  name: "bn2"
  type: "BatchNorm"
  bottom: "conv2"
  top: "bn2"
  include {
    phase: TRAIN
  }
  batch_norm_param {
    use_global_stats: false
    moving_average_fraction: 0.95
  }
}
layer {
  name: "scale2"
  type: "Scale"
  bottom: "bn2"
  top: "scale2"
  scale_param {
    bias_term: true
  }
}
layer {
  name: "relu2"
  type: "ReLU"
  bottom: "scale2"
  top: "relu2"
}
layer {
  name: "conv2_1"
  type: "Convolution"
  bottom: "relu2"
  top: "conv2_1"
  param {
    lr_mult: 1
  }
  convolution_param {
    num_output: 32
    bias_term: true
    pad: 1
    kernel_size: 3
    stride: 1
    weight_filler {
      type: "gaussian"
      std: 0.01
    }
  }
}
layer {
  name: "bn2_1"
  type: "BatchNorm"
  bottom: "conv2_1"
  top: "bn2_1"
  include {
    phase: TRAIN
  }
  batch_norm_param {
    use_global_stats: false
    moving_average_fraction: 0.95
  }
}
layer {
  name: "scale2_1"
  type: "Scale"
  bottom: "bn2_1"
  top: "scale2_1"
  scale_param {
    bias_term: true
  }
}
layer {
  name: "relu2_1"
  type: "ReLU"
  bottom: "scale2_1"
  top: "relu2_1"
}
layer {
  name: "pool2_1"
  type: "Pooling"
  bottom: "relu2_1"
  top: "pool2_1"
  pooling_param {
    pool: MAX
    kernel_size: 2
    stride: 2
  }
}
layer {
  name: "conv2_2"
  type: "Convolution"
  bottom: "pool2_1"
  top: "conv2_2"
  param {
    lr_mult: 1
  }
  convolution_param {
    num_output: 32
    bias_term: true
    pad: 1
    kernel_size: 3
    stride: 1
    weight_filler {
      type: "gaussian"
      std: 0.01
    }
  }
}
layer {
  name: "bn2_2"
  type: "BatchNorm"
  bottom: "conv2_2"
  top: "bn2_2"
  include {
    phase: TRAIN
  }
  batch_norm_param {
    use_global_stats: false
    moving_average_fraction: 0.95
  }
}
layer {
  name: "scale2_2"
  type: "Scale"
  bottom: "bn2_2"
  top: "scale2_2"
  scale_param {
    bias_term: true
  }
}
layer {
  name: "relu2_2"
  type: "ReLU"
  bottom: "scale2_2"
  top: "relu2_2"
}
layer {
  name: "conv3"
  type: "Convolution"
  bottom: "relu2_2"
  top: "conv3"
  param {
    lr_mult: 1
  }
  convolution_param {
    num_output: 32
    bias_term: true
    pad: 1
    kernel_size: 3
    stride: 1
    weight_filler {
      type: "xavier"
    }
  }
}
layer {
  name: "bn3"
  type: "BatchNorm"
  bottom: "conv3"
  top: "bn3"
  include {
    phase: TRAIN
  }
  batch_norm_param {
    use_global_stats: false
    moving_average_fraction: 0.95
  }
}
layer {
  name: "scale3"
  type: "Scale"
  bottom: "bn3"
  top: "scale3"
  scale_param {
    bias_term: true
  }
}
layer {
  name: "relu3"
  type: "ReLU"
  bottom: "scale3"
  top: "relu3"
}
layer {
  name: "conv4"
  type: "Convolution"
  bottom: "relu3"
  top: "conv4"
  param {
    lr_mult: 1
  }
  convolution_param {
    num_output: 64
    bias_term: true
    pad: 1
    kernel_size: 3
    stride: 1
    weight_filler {
      type: "xavier"
    }
  }
}
layer {
  name: "pool4"
  type: "Pooling"
  bottom: "conv4"
  top: "pool4"
  pooling_param {
    pool: MAX
    kernel_size: 2
    stride: 2
  }
}
layer {
  name: "bn4"
  type: "BatchNorm"
  bottom: "pool4"
  top: "bn4"
  include {
    phase: TRAIN
  }
  batch_norm_param {
    use_global_stats: false
    moving_average_fraction: 0.95
  }
}
layer {
  name: "scale4"
  type: "Scale"
  bottom: "bn4"
  top: "scale4"
  scale_param {
    bias_term: true
  }
}
layer {
  name: "relu4"
  type: "ReLU"
  bottom: "scale4"
  top: "relu4"
}
layer {
  name: "conv4_1"
  type: "Convolution"
  bottom: "relu4"
  top: "conv4_1"
  param {
    lr_mult: 1
  }
  convolution_param {
    num_output: 64
    bias_term: true
    pad: 2
    kernel_size: 5
    stride: 1
    weight_filler {
      type: "xavier"
    }
  }
}
layer {
  name: "bn4_1"
  type: "BatchNorm"
  bottom: "conv4_1"
  top: "bn4_1"
  include {
    phase: TRAIN
  }
  batch_norm_param {
    use_global_stats: false
    moving_average_fraction: 0.95
  }
}
layer {
  name: "scale4_1"
  type: "Scale"
  bottom: "bn4_1"
  top: "scale4_1"
  scale_param {
    bias_term: true
  }
}
layer {
  name: "relu4_1"
  type: "ReLU"
  bottom: "scale4_1"
  top: "relu4_1"
}
layer {
  name: "conv4_2"
  type: "Convolution"
  bottom: "relu4_1"
  top: "conv4_2"
  param {
    lr_mult: 1
  }
  convolution_param {
    num_output: 64
    bias_term: true
    pad: 2
    kernel_size: 5
    stride: 1
    weight_filler {
      type: "xavier"
    }
  }
}
layer {
  name: "bn4_2"
  type: "BatchNorm"
  bottom: "conv4_2"
  top: "bn4_2"
  include {
    phase: TRAIN
  }
  batch_norm_param {
    use_global_stats: false
    moving_average_fraction: 0.95
  }
}
layer {
  name: "scale4_2"
  type: "Scale"
  bottom: "bn4_2"
  top: "scale4_2"
  scale_param {
    bias_term: true
  }
}
layer {
  name: "relu4_2"
  type: "ReLU"
  bottom: "scale4_2"
  top: "relu4_2"
}
layer {
  name: "pool4_2"
  type: "Pooling"
  bottom: "relu4_2"
  top: "pool4_2"
  pooling_param {
    pool: MAX
    kernel_size: 2
    stride: 2
  }
}
layer {
  name: "conv4_0"
  type: "Convolution"
  bottom: "pool4_2"
  top: "conv4_0"
  param {
    lr_mult: 1
  }
  convolution_param {
    num_output: 128
    bias_term: true
    pad: 2
    kernel_size: 5
    stride: 1
    weight_filler {
      type: "xavier"
    }
  }
}
layer {
  name: "bn4_0"
  type: "BatchNorm"
  bottom: "conv4_0"
  top: "bn4_0"
  include {
    phase: TRAIN
  }
  batch_norm_param {
    use_global_stats: false
    moving_average_fraction: 0.95
  }
}
layer {
  name: "scale4_0"
  type: "Scale"
  bottom: "bn4_0"
  top: "scale4_0"
  scale_param {
    bias_term: true
  }
}
layer {
  name: "relu4_0"
  type: "ReLU"
  bottom: "scale4_0"
  top: "relu4_0"
}
layer {
  name: "cccp4"
  type: "Convolution"
  bottom: "relu4_0"
  top: "cccp4"
  param {
    lr_mult: 1
    decay_mult: 1
  }
  param {
    lr_mult: 2
    decay_mult: 0
  }
  convolution_param {
    num_output: 256
    kernel_size: 1
    group: 1
    weight_filler {
      type: "xavier"
    }
    bias_filler {
      type: "constant"
      value: 0
    }
  }
}
layer {
  name: "relu_cccp4"
  type: "ReLU"
  bottom: "cccp4"
  top: "cccp4"
}
layer {
  name: "cccp5"
  type: "Convolution"
  bottom: "cccp4"
  top: "cccp5"
  param {
    lr_mult: 1
    decay_mult: 1
  }
  param {
    lr_mult: 2
    decay_mult: 0
  }
  convolution_param {
    num_output: 64
    kernel_size: 1
    group: 1
    weight_filler {
      type: "xavier"
    }
    bias_filler {
      type: "constant"
      value: 0
    }
  }
}
layer {
  name: "relu_cccp5"
  type: "ReLU"
  bottom: "cccp5"
  top: "cccp5"
}
layer {
  name: "poolcp5"
  type: "Pooling"
  bottom: "cccp5"
  top: "poolcp5"
  pooling_param {
    pool: MAX
    kernel_size: 2
    stride: 2
  }
}
layer {
  name: "cccp6"
  type: "Convolution"
  bottom: "poolcp5"
  top: "cccp6"
  param {
    lr_mult: 1
    decay_mult: 1
  }
  param {
    lr_mult: 2
    decay_mult: 0
  }
  convolution_param {
    num_output: 64
    pad: 2
    kernel_size: 5
    group: 1
    weight_filler {
      type: "xavier"
    }
    bias_filler {
      type: "constant"
      value: 0
    }
  }
}
layer {
  name: "relu_cccp6"
  type: "ReLU"
  bottom: "cccp6"
  top: "cccp6"
}
layer {
  name: "poolcp6"
  type: "Pooling"
  bottom: "cccp6"
  top: "poolcp6"
  pooling_param {
    pool: MAX
    kernel_size: 2
    stride: 2
  }
}
layer {
  name: "ip1"
  type: "InnerProduct"
  bottom: "poolcp6"
  top: "ip1"
  param {
    lr_mult: 1
    decay_mult: 0
  }
  param {
    lr_mult: 2
    decay_mult: 0
  }
  inner_product_param {
    num_output: 10
    weight_filler {
      type: "xavier"
    }
    bias_filler {
      type: "constant"
    }
  }
}
layer {
  name: "accuracy_training"
  type: "Accuracy"
  bottom: "ip1"
  bottom: "label"
  top: "accuracy_training"
  include {
    phase: TRAIN
  }
}
layer {
  name: "loss"
  type: "SoftmaxWithLoss"
  bottom: "ip1"
  bottom: "label"
  top: "loss"
}
I0313 07:50:21.816046  6320 layer_factory.cpp:58] Creating layer cifar
I0313 07:50:21.817028  6320 net.cpp:100] Creating Layer cifar
I0313 07:50:21.817028  6320 net.cpp:408] cifar -> data
I0313 07:50:21.817028  6320 net.cpp:408] cifar -> label
I0313 07:50:21.817028  6320 data_transformer.cpp:25] Loading mean file from: examples/cifar10/mean.binaryproto
I0313 07:50:21.826025 14500 common.cpp:36] System entropy source not available, using fallback algorithm to generate seed instead.
I0313 07:50:21.832530 14500 db_lmdb.cpp:40] Opened lmdb examples/cifar10/cifar10_train_lmdb
I0313 07:50:21.906038  6320 data_layer.cpp:41] output data size: 100,3,32,32
I0313 07:50:21.913053  6320 net.cpp:150] Setting up cifar
I0313 07:50:21.913053  6320 net.cpp:157] Top shape: 100 3 32 32 (307200)
I0313 07:50:21.913053  6320 net.cpp:157] Top shape: 100 (100)
I0313 07:50:21.913053  6320 net.cpp:165] Memory required for data: 1229200
I0313 07:50:21.913053  6320 layer_factory.cpp:58] Creating layer label_cifar_1_split
I0313 07:50:21.913053  6320 net.cpp:100] Creating Layer label_cifar_1_split
I0313 07:50:21.913053  6320 net.cpp:434] label_cifar_1_split <- label
I0313 07:50:21.913053  6320 net.cpp:408] label_cifar_1_split -> label_cifar_1_split_0
I0313 07:50:21.913053  6320 net.cpp:408] label_cifar_1_split -> label_cifar_1_split_1
I0313 07:50:21.913053  6320 net.cpp:150] Setting up label_cifar_1_split
I0313 07:50:21.913053  6320 net.cpp:157] Top shape: 100 (100)
I0313 07:50:21.913053  6320 net.cpp:157] Top shape: 100 (100)
I0313 07:50:21.913053  6320 net.cpp:165] Memory required for data: 1230000
I0313 07:50:21.913053  6320 layer_factory.cpp:58] Creating layer conv1
I0313 07:50:21.913053  6320 net.cpp:100] Creating Layer conv1
I0313 07:50:21.913053  6320 net.cpp:434] conv1 <- data
I0313 07:50:21.913053  6320 net.cpp:408] conv1 -> conv1
I0313 07:50:21.915035 13964 common.cpp:36] System entropy source not available, using fallback algorithm to generate seed instead.
I0313 07:50:22.532860  6320 net.cpp:150] Setting up conv1
I0313 07:50:22.532860  6320 net.cpp:157] Top shape: 100 64 32 32 (6553600)
I0313 07:50:22.532860  6320 net.cpp:165] Memory required for data: 27444400
I0313 07:50:22.532860  6320 layer_factory.cpp:58] Creating layer bn1
I0313 07:50:22.532860  6320 net.cpp:100] Creating Layer bn1
I0313 07:50:22.532860  6320 net.cpp:434] bn1 <- conv1
I0313 07:50:22.532860  6320 net.cpp:408] bn1 -> bn1
I0313 07:50:22.533362  6320 net.cpp:150] Setting up bn1
I0313 07:50:22.533362  6320 net.cpp:157] Top shape: 100 64 32 32 (6553600)
I0313 07:50:22.533362  6320 net.cpp:165] Memory required for data: 53658800
I0313 07:50:22.533362  6320 layer_factory.cpp:58] Creating layer scale1
I0313 07:50:22.533362  6320 net.cpp:100] Creating Layer scale1
I0313 07:50:22.533362  6320 net.cpp:434] scale1 <- bn1
I0313 07:50:22.533362  6320 net.cpp:408] scale1 -> scale1
I0313 07:50:22.533362  6320 layer_factory.cpp:58] Creating layer scale1
I0313 07:50:22.533362  6320 net.cpp:150] Setting up scale1
I0313 07:50:22.533362  6320 net.cpp:157] Top shape: 100 64 32 32 (6553600)
I0313 07:50:22.533362  6320 net.cpp:165] Memory required for data: 79873200
I0313 07:50:22.533362  6320 layer_factory.cpp:58] Creating layer relu1
I0313 07:50:22.533362  6320 net.cpp:100] Creating Layer relu1
I0313 07:50:22.533362  6320 net.cpp:434] relu1 <- scale1
I0313 07:50:22.533362  6320 net.cpp:408] relu1 -> relu1
I0313 07:50:22.536860  6320 net.cpp:150] Setting up relu1
I0313 07:50:22.536860  6320 net.cpp:157] Top shape: 100 64 32 32 (6553600)
I0313 07:50:22.536860  6320 net.cpp:165] Memory required for data: 106087600
I0313 07:50:22.536860  6320 layer_factory.cpp:58] Creating layer conv1_0
I0313 07:50:22.536860  6320 net.cpp:100] Creating Layer conv1_0
I0313 07:50:22.536860  6320 net.cpp:434] conv1_0 <- relu1
I0313 07:50:22.536860  6320 net.cpp:408] conv1_0 -> conv1_0
I0313 07:50:22.541363  6320 net.cpp:150] Setting up conv1_0
I0313 07:50:22.541363  6320 net.cpp:157] Top shape: 100 32 32 32 (3276800)
I0313 07:50:22.541363  6320 net.cpp:165] Memory required for data: 119194800
I0313 07:50:22.541363  6320 layer_factory.cpp:58] Creating layer bn1_0
I0313 07:50:22.541363  6320 net.cpp:100] Creating Layer bn1_0
I0313 07:50:22.541363  6320 net.cpp:434] bn1_0 <- conv1_0
I0313 07:50:22.541363  6320 net.cpp:408] bn1_0 -> bn1_0
I0313 07:50:22.541862  6320 net.cpp:150] Setting up bn1_0
I0313 07:50:22.541862  6320 net.cpp:157] Top shape: 100 32 32 32 (3276800)
I0313 07:50:22.541862  6320 net.cpp:165] Memory required for data: 132302000
I0313 07:50:22.541862  6320 layer_factory.cpp:58] Creating layer scale1_0
I0313 07:50:22.541862  6320 net.cpp:100] Creating Layer scale1_0
I0313 07:50:22.541862  6320 net.cpp:434] scale1_0 <- bn1_0
I0313 07:50:22.541862  6320 net.cpp:408] scale1_0 -> scale1_0
I0313 07:50:22.541862  6320 layer_factory.cpp:58] Creating layer scale1_0
I0313 07:50:22.541862  6320 net.cpp:150] Setting up scale1_0
I0313 07:50:22.542340  6320 net.cpp:157] Top shape: 100 32 32 32 (3276800)
I0313 07:50:22.542340  6320 net.cpp:165] Memory required for data: 145409200
I0313 07:50:22.542340  6320 layer_factory.cpp:58] Creating layer relu1_0
I0313 07:50:22.542340  6320 net.cpp:100] Creating Layer relu1_0
I0313 07:50:22.542340  6320 net.cpp:434] relu1_0 <- scale1_0
I0313 07:50:22.542340  6320 net.cpp:408] relu1_0 -> relu1_0
I0313 07:50:22.544361  6320 net.cpp:150] Setting up relu1_0
I0313 07:50:22.544361  6320 net.cpp:157] Top shape: 100 32 32 32 (3276800)
I0313 07:50:22.544361  6320 net.cpp:165] Memory required for data: 158516400
I0313 07:50:22.544361  6320 layer_factory.cpp:58] Creating layer conv2
I0313 07:50:22.544361  6320 net.cpp:100] Creating Layer conv2
I0313 07:50:22.544361  6320 net.cpp:434] conv2 <- relu1_0
I0313 07:50:22.544361  6320 net.cpp:408] conv2 -> conv2
I0313 07:50:22.549386  6320 net.cpp:150] Setting up conv2
I0313 07:50:22.549386  6320 net.cpp:157] Top shape: 100 32 32 32 (3276800)
I0313 07:50:22.549386  6320 net.cpp:165] Memory required for data: 171623600
I0313 07:50:22.549386  6320 layer_factory.cpp:58] Creating layer bn2
I0313 07:50:22.549386  6320 net.cpp:100] Creating Layer bn2
I0313 07:50:22.549386  6320 net.cpp:434] bn2 <- conv2
I0313 07:50:22.549386  6320 net.cpp:408] bn2 -> bn2
I0313 07:50:22.550364  6320 net.cpp:150] Setting up bn2
I0313 07:50:22.550364  6320 net.cpp:157] Top shape: 100 32 32 32 (3276800)
I0313 07:50:22.550364  6320 net.cpp:165] Memory required for data: 184730800
I0313 07:50:22.550364  6320 layer_factory.cpp:58] Creating layer scale2
I0313 07:50:22.550364  6320 net.cpp:100] Creating Layer scale2
I0313 07:50:22.550364  6320 net.cpp:434] scale2 <- bn2
I0313 07:50:22.550364  6320 net.cpp:408] scale2 -> scale2
I0313 07:50:22.550364  6320 layer_factory.cpp:58] Creating layer scale2
I0313 07:50:22.550364  6320 net.cpp:150] Setting up scale2
I0313 07:50:22.550364  6320 net.cpp:157] Top shape: 100 32 32 32 (3276800)
I0313 07:50:22.550364  6320 net.cpp:165] Memory required for data: 197838000
I0313 07:50:22.550364  6320 layer_factory.cpp:58] Creating layer relu2
I0313 07:50:22.550364  6320 net.cpp:100] Creating Layer relu2
I0313 07:50:22.550364  6320 net.cpp:434] relu2 <- scale2
I0313 07:50:22.550364  6320 net.cpp:408] relu2 -> relu2
I0313 07:50:22.550364  6320 net.cpp:150] Setting up relu2
I0313 07:50:22.550364  6320 net.cpp:157] Top shape: 100 32 32 32 (3276800)
I0313 07:50:22.550364  6320 net.cpp:165] Memory required for data: 210945200
I0313 07:50:22.550364  6320 layer_factory.cpp:58] Creating layer conv2_1
I0313 07:50:22.550364  6320 net.cpp:100] Creating Layer conv2_1
I0313 07:50:22.550364  6320 net.cpp:434] conv2_1 <- relu2
I0313 07:50:22.550364  6320 net.cpp:408] conv2_1 -> conv2_1
I0313 07:50:22.557379  6320 net.cpp:150] Setting up conv2_1
I0313 07:50:22.557379  6320 net.cpp:157] Top shape: 100 32 32 32 (3276800)
I0313 07:50:22.557379  6320 net.cpp:165] Memory required for data: 224052400
I0313 07:50:22.557379  6320 layer_factory.cpp:58] Creating layer bn2_1
I0313 07:50:22.557379  6320 net.cpp:100] Creating Layer bn2_1
I0313 07:50:22.557379  6320 net.cpp:434] bn2_1 <- conv2_1
I0313 07:50:22.557379  6320 net.cpp:408] bn2_1 -> bn2_1
I0313 07:50:22.557379  6320 net.cpp:150] Setting up bn2_1
I0313 07:50:22.558379  6320 net.cpp:157] Top shape: 100 32 32 32 (3276800)
I0313 07:50:22.558379  6320 net.cpp:165] Memory required for data: 237159600
I0313 07:50:22.558379  6320 layer_factory.cpp:58] Creating layer scale2_1
I0313 07:50:22.558379  6320 net.cpp:100] Creating Layer scale2_1
I0313 07:50:22.558379  6320 net.cpp:434] scale2_1 <- bn2_1
I0313 07:50:22.558379  6320 net.cpp:408] scale2_1 -> scale2_1
I0313 07:50:22.558379  6320 layer_factory.cpp:58] Creating layer scale2_1
I0313 07:50:22.558379  6320 net.cpp:150] Setting up scale2_1
I0313 07:50:22.558379  6320 net.cpp:157] Top shape: 100 32 32 32 (3276800)
I0313 07:50:22.558379  6320 net.cpp:165] Memory required for data: 250266800
I0313 07:50:22.558379  6320 layer_factory.cpp:58] Creating layer relu2_1
I0313 07:50:22.558379  6320 net.cpp:100] Creating Layer relu2_1
I0313 07:50:22.558379  6320 net.cpp:434] relu2_1 <- scale2_1
I0313 07:50:22.558379  6320 net.cpp:408] relu2_1 -> relu2_1
I0313 07:50:22.558379  6320 net.cpp:150] Setting up relu2_1
I0313 07:50:22.558379  6320 net.cpp:157] Top shape: 100 32 32 32 (3276800)
I0313 07:50:22.558379  6320 net.cpp:165] Memory required for data: 263374000
I0313 07:50:22.558379  6320 layer_factory.cpp:58] Creating layer pool2_1
I0313 07:50:22.558379  6320 net.cpp:100] Creating Layer pool2_1
I0313 07:50:22.559379  6320 net.cpp:434] pool2_1 <- relu2_1
I0313 07:50:22.559379  6320 net.cpp:408] pool2_1 -> pool2_1
I0313 07:50:22.559379  6320 net.cpp:150] Setting up pool2_1
I0313 07:50:22.559379  6320 net.cpp:157] Top shape: 100 32 16 16 (819200)
I0313 07:50:22.559379  6320 net.cpp:165] Memory required for data: 266650800
I0313 07:50:22.559379  6320 layer_factory.cpp:58] Creating layer conv2_2
I0313 07:50:22.559379  6320 net.cpp:100] Creating Layer conv2_2
I0313 07:50:22.559379  6320 net.cpp:434] conv2_2 <- pool2_1
I0313 07:50:22.559379  6320 net.cpp:408] conv2_2 -> conv2_2
I0313 07:50:22.566365  6320 net.cpp:150] Setting up conv2_2
I0313 07:50:22.566365  6320 net.cpp:157] Top shape: 100 32 16 16 (819200)
I0313 07:50:22.566365  6320 net.cpp:165] Memory required for data: 269927600
I0313 07:50:22.566365  6320 layer_factory.cpp:58] Creating layer bn2_2
I0313 07:50:22.566365  6320 net.cpp:100] Creating Layer bn2_2
I0313 07:50:22.566365  6320 net.cpp:434] bn2_2 <- conv2_2
I0313 07:50:22.566365  6320 net.cpp:408] bn2_2 -> bn2_2
I0313 07:50:22.566365  6320 net.cpp:150] Setting up bn2_2
I0313 07:50:22.566365  6320 net.cpp:157] Top shape: 100 32 16 16 (819200)
I0313 07:50:22.566365  6320 net.cpp:165] Memory required for data: 273204400
I0313 07:50:22.566365  6320 layer_factory.cpp:58] Creating layer scale2_2
I0313 07:50:22.566365  6320 net.cpp:100] Creating Layer scale2_2
I0313 07:50:22.566365  6320 net.cpp:434] scale2_2 <- bn2_2
I0313 07:50:22.566365  6320 net.cpp:408] scale2_2 -> scale2_2
I0313 07:50:22.566365  6320 layer_factory.cpp:58] Creating layer scale2_2
I0313 07:50:22.567364  6320 net.cpp:150] Setting up scale2_2
I0313 07:50:22.567364  6320 net.cpp:157] Top shape: 100 32 16 16 (819200)
I0313 07:50:22.567364  6320 net.cpp:165] Memory required for data: 276481200
I0313 07:50:22.567364  6320 layer_factory.cpp:58] Creating layer relu2_2
I0313 07:50:22.567364  6320 net.cpp:100] Creating Layer relu2_2
I0313 07:50:22.567364  6320 net.cpp:434] relu2_2 <- scale2_2
I0313 07:50:22.567364  6320 net.cpp:408] relu2_2 -> relu2_2
I0313 07:50:22.567364  6320 net.cpp:150] Setting up relu2_2
I0313 07:50:22.567364  6320 net.cpp:157] Top shape: 100 32 16 16 (819200)
I0313 07:50:22.567364  6320 net.cpp:165] Memory required for data: 279758000
I0313 07:50:22.567364  6320 layer_factory.cpp:58] Creating layer conv3
I0313 07:50:22.567364  6320 net.cpp:100] Creating Layer conv3
I0313 07:50:22.567364  6320 net.cpp:434] conv3 <- relu2_2
I0313 07:50:22.567364  6320 net.cpp:408] conv3 -> conv3
I0313 07:50:22.572365  6320 net.cpp:150] Setting up conv3
I0313 07:50:22.572365  6320 net.cpp:157] Top shape: 100 32 16 16 (819200)
I0313 07:50:22.572365  6320 net.cpp:165] Memory required for data: 283034800
I0313 07:50:22.572365  6320 layer_factory.cpp:58] Creating layer bn3
I0313 07:50:22.572365  6320 net.cpp:100] Creating Layer bn3
I0313 07:50:22.572365  6320 net.cpp:434] bn3 <- conv3
I0313 07:50:22.572365  6320 net.cpp:408] bn3 -> bn3
I0313 07:50:22.572365  6320 net.cpp:150] Setting up bn3
I0313 07:50:22.572365  6320 net.cpp:157] Top shape: 100 32 16 16 (819200)
I0313 07:50:22.572365  6320 net.cpp:165] Memory required for data: 286311600
I0313 07:50:22.572365  6320 layer_factory.cpp:58] Creating layer scale3
I0313 07:50:22.572365  6320 net.cpp:100] Creating Layer scale3
I0313 07:50:22.572365  6320 net.cpp:434] scale3 <- bn3
I0313 07:50:22.572365  6320 net.cpp:408] scale3 -> scale3
I0313 07:50:22.572365  6320 layer_factory.cpp:58] Creating layer scale3
I0313 07:50:22.572365  6320 net.cpp:150] Setting up scale3
I0313 07:50:22.572365  6320 net.cpp:157] Top shape: 100 32 16 16 (819200)
I0313 07:50:22.572365  6320 net.cpp:165] Memory required for data: 289588400
I0313 07:50:22.572365  6320 layer_factory.cpp:58] Creating layer relu3
I0313 07:50:22.572365  6320 net.cpp:100] Creating Layer relu3
I0313 07:50:22.572365  6320 net.cpp:434] relu3 <- scale3
I0313 07:50:22.572365  6320 net.cpp:408] relu3 -> relu3
I0313 07:50:22.574376  6320 net.cpp:150] Setting up relu3
I0313 07:50:22.574376  6320 net.cpp:157] Top shape: 100 32 16 16 (819200)
I0313 07:50:22.574376  6320 net.cpp:165] Memory required for data: 292865200
I0313 07:50:22.574376  6320 layer_factory.cpp:58] Creating layer conv4
I0313 07:50:22.574376  6320 net.cpp:100] Creating Layer conv4
I0313 07:50:22.574376  6320 net.cpp:434] conv4 <- relu3
I0313 07:50:22.574376  6320 net.cpp:408] conv4 -> conv4
I0313 07:50:22.577366  6320 net.cpp:150] Setting up conv4
I0313 07:50:22.577366  6320 net.cpp:157] Top shape: 100 64 16 16 (1638400)
I0313 07:50:22.577366  6320 net.cpp:165] Memory required for data: 299418800
I0313 07:50:22.577366  6320 layer_factory.cpp:58] Creating layer pool4
I0313 07:50:22.577366  6320 net.cpp:100] Creating Layer pool4
I0313 07:50:22.577366  6320 net.cpp:434] pool4 <- conv4
I0313 07:50:22.577366  6320 net.cpp:408] pool4 -> pool4
I0313 07:50:22.577366  6320 net.cpp:150] Setting up pool4
I0313 07:50:22.577366  6320 net.cpp:157] Top shape: 100 64 8 8 (409600)
I0313 07:50:22.577366  6320 net.cpp:165] Memory required for data: 301057200
I0313 07:50:22.577366  6320 layer_factory.cpp:58] Creating layer bn4
I0313 07:50:22.577366  6320 net.cpp:100] Creating Layer bn4
I0313 07:50:22.577366  6320 net.cpp:434] bn4 <- pool4
I0313 07:50:22.577366  6320 net.cpp:408] bn4 -> bn4
I0313 07:50:22.577366  6320 net.cpp:150] Setting up bn4
I0313 07:50:22.577366  6320 net.cpp:157] Top shape: 100 64 8 8 (409600)
I0313 07:50:22.577366  6320 net.cpp:165] Memory required for data: 302695600
I0313 07:50:22.577366  6320 layer_factory.cpp:58] Creating layer scale4
I0313 07:50:22.577366  6320 net.cpp:100] Creating Layer scale4
I0313 07:50:22.577366  6320 net.cpp:434] scale4 <- bn4
I0313 07:50:22.577366  6320 net.cpp:408] scale4 -> scale4
I0313 07:50:22.577366  6320 layer_factory.cpp:58] Creating layer scale4
I0313 07:50:22.577366  6320 net.cpp:150] Setting up scale4
I0313 07:50:22.577366  6320 net.cpp:157] Top shape: 100 64 8 8 (409600)
I0313 07:50:22.577366  6320 net.cpp:165] Memory required for data: 304334000
I0313 07:50:22.577366  6320 layer_factory.cpp:58] Creating layer relu4
I0313 07:50:22.577366  6320 net.cpp:100] Creating Layer relu4
I0313 07:50:22.577366  6320 net.cpp:434] relu4 <- scale4
I0313 07:50:22.577366  6320 net.cpp:408] relu4 -> relu4
I0313 07:50:22.580384  6320 net.cpp:150] Setting up relu4
I0313 07:50:22.581383  6320 net.cpp:157] Top shape: 100 64 8 8 (409600)
I0313 07:50:22.581383  6320 net.cpp:165] Memory required for data: 305972400
I0313 07:50:22.581383  6320 layer_factory.cpp:58] Creating layer conv4_1
I0313 07:50:22.581383  6320 net.cpp:100] Creating Layer conv4_1
I0313 07:50:22.581383  6320 net.cpp:434] conv4_1 <- relu4
I0313 07:50:22.581383  6320 net.cpp:408] conv4_1 -> conv4_1
I0313 07:50:22.586365  6320 net.cpp:150] Setting up conv4_1
I0313 07:50:22.586365  6320 net.cpp:157] Top shape: 100 64 8 8 (409600)
I0313 07:50:22.586365  6320 net.cpp:165] Memory required for data: 307610800
I0313 07:50:22.586365  6320 layer_factory.cpp:58] Creating layer bn4_1
I0313 07:50:22.586365  6320 net.cpp:100] Creating Layer bn4_1
I0313 07:50:22.586365  6320 net.cpp:434] bn4_1 <- conv4_1
I0313 07:50:22.586365  6320 net.cpp:408] bn4_1 -> bn4_1
I0313 07:50:22.586365  6320 net.cpp:150] Setting up bn4_1
I0313 07:50:22.586365  6320 net.cpp:157] Top shape: 100 64 8 8 (409600)
I0313 07:50:22.586365  6320 net.cpp:165] Memory required for data: 309249200
I0313 07:50:22.586365  6320 layer_factory.cpp:58] Creating layer scale4_1
I0313 07:50:22.586365  6320 net.cpp:100] Creating Layer scale4_1
I0313 07:50:22.586365  6320 net.cpp:434] scale4_1 <- bn4_1
I0313 07:50:22.586365  6320 net.cpp:408] scale4_1 -> scale4_1
I0313 07:50:22.586365  6320 layer_factory.cpp:58] Creating layer scale4_1
I0313 07:50:22.586365  6320 net.cpp:150] Setting up scale4_1
I0313 07:50:22.586365  6320 net.cpp:157] Top shape: 100 64 8 8 (409600)
I0313 07:50:22.586365  6320 net.cpp:165] Memory required for data: 310887600
I0313 07:50:22.586365  6320 layer_factory.cpp:58] Creating layer relu4_1
I0313 07:50:22.586365  6320 net.cpp:100] Creating Layer relu4_1
I0313 07:50:22.586365  6320 net.cpp:434] relu4_1 <- scale4_1
I0313 07:50:22.586365  6320 net.cpp:408] relu4_1 -> relu4_1
I0313 07:50:22.589385  6320 net.cpp:150] Setting up relu4_1
I0313 07:50:22.589385  6320 net.cpp:157] Top shape: 100 64 8 8 (409600)
I0313 07:50:22.589385  6320 net.cpp:165] Memory required for data: 312526000
I0313 07:50:22.589385  6320 layer_factory.cpp:58] Creating layer conv4_2
I0313 07:50:22.589385  6320 net.cpp:100] Creating Layer conv4_2
I0313 07:50:22.589385  6320 net.cpp:434] conv4_2 <- relu4_1
I0313 07:50:22.589385  6320 net.cpp:408] conv4_2 -> conv4_2
I0313 07:50:22.594367  6320 net.cpp:150] Setting up conv4_2
I0313 07:50:22.594367  6320 net.cpp:157] Top shape: 100 64 8 8 (409600)
I0313 07:50:22.594367  6320 net.cpp:165] Memory required for data: 314164400
I0313 07:50:22.594367  6320 layer_factory.cpp:58] Creating layer bn4_2
I0313 07:50:22.594367  6320 net.cpp:100] Creating Layer bn4_2
I0313 07:50:22.594367  6320 net.cpp:434] bn4_2 <- conv4_2
I0313 07:50:22.594367  6320 net.cpp:408] bn4_2 -> bn4_2
I0313 07:50:22.594367  6320 net.cpp:150] Setting up bn4_2
I0313 07:50:22.594367  6320 net.cpp:157] Top shape: 100 64 8 8 (409600)
I0313 07:50:22.594367  6320 net.cpp:165] Memory required for data: 315802800
I0313 07:50:22.594367  6320 layer_factory.cpp:58] Creating layer scale4_2
I0313 07:50:22.594367  6320 net.cpp:100] Creating Layer scale4_2
I0313 07:50:22.594367  6320 net.cpp:434] scale4_2 <- bn4_2
I0313 07:50:22.594367  6320 net.cpp:408] scale4_2 -> scale4_2
I0313 07:50:22.594367  6320 layer_factory.cpp:58] Creating layer scale4_2
I0313 07:50:22.594367  6320 net.cpp:150] Setting up scale4_2
I0313 07:50:22.594367  6320 net.cpp:157] Top shape: 100 64 8 8 (409600)
I0313 07:50:22.594367  6320 net.cpp:165] Memory required for data: 317441200
I0313 07:50:22.594367  6320 layer_factory.cpp:58] Creating layer relu4_2
I0313 07:50:22.594367  6320 net.cpp:100] Creating Layer relu4_2
I0313 07:50:22.594367  6320 net.cpp:434] relu4_2 <- scale4_2
I0313 07:50:22.594367  6320 net.cpp:408] relu4_2 -> relu4_2
I0313 07:50:22.598378  6320 net.cpp:150] Setting up relu4_2
I0313 07:50:22.598378  6320 net.cpp:157] Top shape: 100 64 8 8 (409600)
I0313 07:50:22.598378  6320 net.cpp:165] Memory required for data: 319079600
I0313 07:50:22.598378  6320 layer_factory.cpp:58] Creating layer pool4_2
I0313 07:50:22.598378  6320 net.cpp:100] Creating Layer pool4_2
I0313 07:50:22.598378  6320 net.cpp:434] pool4_2 <- relu4_2
I0313 07:50:22.598378  6320 net.cpp:408] pool4_2 -> pool4_2
I0313 07:50:22.598378  6320 net.cpp:150] Setting up pool4_2
I0313 07:50:22.598378  6320 net.cpp:157] Top shape: 100 64 4 4 (102400)
I0313 07:50:22.598378  6320 net.cpp:165] Memory required for data: 319489200
I0313 07:50:22.598378  6320 layer_factory.cpp:58] Creating layer conv4_0
I0313 07:50:22.598378  6320 net.cpp:100] Creating Layer conv4_0
I0313 07:50:22.598378  6320 net.cpp:434] conv4_0 <- pool4_2
I0313 07:50:22.598378  6320 net.cpp:408] conv4_0 -> conv4_0
I0313 07:50:22.602380  6320 net.cpp:150] Setting up conv4_0
I0313 07:50:22.602380  6320 net.cpp:157] Top shape: 100 128 4 4 (204800)
I0313 07:50:22.602380  6320 net.cpp:165] Memory required for data: 320308400
I0313 07:50:22.602380  6320 layer_factory.cpp:58] Creating layer bn4_0
I0313 07:50:22.603363  6320 net.cpp:100] Creating Layer bn4_0
I0313 07:50:22.603363  6320 net.cpp:434] bn4_0 <- conv4_0
I0313 07:50:22.603363  6320 net.cpp:408] bn4_0 -> bn4_0
I0313 07:50:22.603363  6320 net.cpp:150] Setting up bn4_0
I0313 07:50:22.603363  6320 net.cpp:157] Top shape: 100 128 4 4 (204800)
I0313 07:50:22.603363  6320 net.cpp:165] Memory required for data: 321127600
I0313 07:50:22.603363  6320 layer_factory.cpp:58] Creating layer scale4_0
I0313 07:50:22.603363  6320 net.cpp:100] Creating Layer scale4_0
I0313 07:50:22.603363  6320 net.cpp:434] scale4_0 <- bn4_0
I0313 07:50:22.603363  6320 net.cpp:408] scale4_0 -> scale4_0
I0313 07:50:22.603363  6320 layer_factory.cpp:58] Creating layer scale4_0
I0313 07:50:22.603363  6320 net.cpp:150] Setting up scale4_0
I0313 07:50:22.603363  6320 net.cpp:157] Top shape: 100 128 4 4 (204800)
I0313 07:50:22.603363  6320 net.cpp:165] Memory required for data: 321946800
I0313 07:50:22.603363  6320 layer_factory.cpp:58] Creating layer relu4_0
I0313 07:50:22.603363  6320 net.cpp:100] Creating Layer relu4_0
I0313 07:50:22.603363  6320 net.cpp:434] relu4_0 <- scale4_0
I0313 07:50:22.603363  6320 net.cpp:408] relu4_0 -> relu4_0
I0313 07:50:22.606379  6320 net.cpp:150] Setting up relu4_0
I0313 07:50:22.606379  6320 net.cpp:157] Top shape: 100 128 4 4 (204800)
I0313 07:50:22.606379  6320 net.cpp:165] Memory required for data: 322766000
I0313 07:50:22.606379  6320 layer_factory.cpp:58] Creating layer cccp4
I0313 07:50:22.606379  6320 net.cpp:100] Creating Layer cccp4
I0313 07:50:22.606379  6320 net.cpp:434] cccp4 <- relu4_0
I0313 07:50:22.606379  6320 net.cpp:408] cccp4 -> cccp4
I0313 07:50:22.611379  6320 net.cpp:150] Setting up cccp4
I0313 07:50:22.611379  6320 net.cpp:157] Top shape: 100 256 4 4 (409600)
I0313 07:50:22.611379  6320 net.cpp:165] Memory required for data: 324404400
I0313 07:50:22.611379  6320 layer_factory.cpp:58] Creating layer relu_cccp4
I0313 07:50:22.611379  6320 net.cpp:100] Creating Layer relu_cccp4
I0313 07:50:22.611379  6320 net.cpp:434] relu_cccp4 <- cccp4
I0313 07:50:22.611379  6320 net.cpp:395] relu_cccp4 -> cccp4 (in-place)
I0313 07:50:22.611379  6320 net.cpp:150] Setting up relu_cccp4
I0313 07:50:22.611379  6320 net.cpp:157] Top shape: 100 256 4 4 (409600)
I0313 07:50:22.611379  6320 net.cpp:165] Memory required for data: 326042800
I0313 07:50:22.611379  6320 layer_factory.cpp:58] Creating layer cccp5
I0313 07:50:22.611379  6320 net.cpp:100] Creating Layer cccp5
I0313 07:50:22.611379  6320 net.cpp:434] cccp5 <- cccp4
I0313 07:50:22.611379  6320 net.cpp:408] cccp5 -> cccp5
I0313 07:50:22.618379  6320 net.cpp:150] Setting up cccp5
I0313 07:50:22.618379  6320 net.cpp:157] Top shape: 100 64 4 4 (102400)
I0313 07:50:22.618379  6320 net.cpp:165] Memory required for data: 326452400
I0313 07:50:22.618379  6320 layer_factory.cpp:58] Creating layer relu_cccp5
I0313 07:50:22.618379  6320 net.cpp:100] Creating Layer relu_cccp5
I0313 07:50:22.618379  6320 net.cpp:434] relu_cccp5 <- cccp5
I0313 07:50:22.618379  6320 net.cpp:395] relu_cccp5 -> cccp5 (in-place)
I0313 07:50:22.619379  6320 net.cpp:150] Setting up relu_cccp5
I0313 07:50:22.619379  6320 net.cpp:157] Top shape: 100 64 4 4 (102400)
I0313 07:50:22.619379  6320 net.cpp:165] Memory required for data: 326862000
I0313 07:50:22.619379  6320 layer_factory.cpp:58] Creating layer poolcp5
I0313 07:50:22.619379  6320 net.cpp:100] Creating Layer poolcp5
I0313 07:50:22.619379  6320 net.cpp:434] poolcp5 <- cccp5
I0313 07:50:22.619379  6320 net.cpp:408] poolcp5 -> poolcp5
I0313 07:50:22.619379  6320 net.cpp:150] Setting up poolcp5
I0313 07:50:22.619379  6320 net.cpp:157] Top shape: 100 64 2 2 (25600)
I0313 07:50:22.619379  6320 net.cpp:165] Memory required for data: 326964400
I0313 07:50:22.620369  6320 layer_factory.cpp:58] Creating layer cccp6
I0313 07:50:22.620369  6320 net.cpp:100] Creating Layer cccp6
I0313 07:50:22.620369  6320 net.cpp:434] cccp6 <- poolcp5
I0313 07:50:22.620369  6320 net.cpp:408] cccp6 -> cccp6
I0313 07:50:22.627362  6320 net.cpp:150] Setting up cccp6
I0313 07:50:22.627362  6320 net.cpp:157] Top shape: 100 64 2 2 (25600)
I0313 07:50:22.627362  6320 net.cpp:165] Memory required for data: 327066800
I0313 07:50:22.627362  6320 layer_factory.cpp:58] Creating layer relu_cccp6
I0313 07:50:22.627362  6320 net.cpp:100] Creating Layer relu_cccp6
I0313 07:50:22.627362  6320 net.cpp:434] relu_cccp6 <- cccp6
I0313 07:50:22.627362  6320 net.cpp:395] relu_cccp6 -> cccp6 (in-place)
I0313 07:50:22.628365  6320 net.cpp:150] Setting up relu_cccp6
I0313 07:50:22.628365  6320 net.cpp:157] Top shape: 100 64 2 2 (25600)
I0313 07:50:22.628365  6320 net.cpp:165] Memory required for data: 327169200
I0313 07:50:22.628365  6320 layer_factory.cpp:58] Creating layer poolcp6
I0313 07:50:22.628365  6320 net.cpp:100] Creating Layer poolcp6
I0313 07:50:22.628365  6320 net.cpp:434] poolcp6 <- cccp6
I0313 07:50:22.628365  6320 net.cpp:408] poolcp6 -> poolcp6
I0313 07:50:22.628365  6320 net.cpp:150] Setting up poolcp6
I0313 07:50:22.628365  6320 net.cpp:157] Top shape: 100 64 1 1 (6400)
I0313 07:50:22.628365  6320 net.cpp:165] Memory required for data: 327194800
I0313 07:50:22.628365  6320 layer_factory.cpp:58] Creating layer ip1
I0313 07:50:22.628365  6320 net.cpp:100] Creating Layer ip1
I0313 07:50:22.628365  6320 net.cpp:434] ip1 <- poolcp6
I0313 07:50:22.628365  6320 net.cpp:408] ip1 -> ip1
I0313 07:50:22.628365  6320 net.cpp:150] Setting up ip1
I0313 07:50:22.628365  6320 net.cpp:157] Top shape: 100 10 (1000)
I0313 07:50:22.628365  6320 net.cpp:165] Memory required for data: 327198800
I0313 07:50:22.628365  6320 layer_factory.cpp:58] Creating layer ip1_ip1_0_split
I0313 07:50:22.628365  6320 net.cpp:100] Creating Layer ip1_ip1_0_split
I0313 07:50:22.628365  6320 net.cpp:434] ip1_ip1_0_split <- ip1
I0313 07:50:22.628365  6320 net.cpp:408] ip1_ip1_0_split -> ip1_ip1_0_split_0
I0313 07:50:22.628365  6320 net.cpp:408] ip1_ip1_0_split -> ip1_ip1_0_split_1
I0313 07:50:22.628365  6320 net.cpp:150] Setting up ip1_ip1_0_split
I0313 07:50:22.628365  6320 net.cpp:157] Top shape: 100 10 (1000)
I0313 07:50:22.628365  6320 net.cpp:157] Top shape: 100 10 (1000)
I0313 07:50:22.628365  6320 net.cpp:165] Memory required for data: 327206800
I0313 07:50:22.628365  6320 layer_factory.cpp:58] Creating layer accuracy_training
I0313 07:50:22.628365  6320 net.cpp:100] Creating Layer accuracy_training
I0313 07:50:22.628365  6320 net.cpp:434] accuracy_training <- ip1_ip1_0_split_0
I0313 07:50:22.628365  6320 net.cpp:434] accuracy_training <- label_cifar_1_split_0
…
I0313 07:50:22.632866  6320 net.cpp:322] The NetState phase (1) differed from the phase (0) specified by a rule in layer bn4_0
I0313 07:50:22.633366  6320 net.cpp:322] The NetState phase (1) differed from the phase (0) specified by a rule in layer accuracy_training
I0313 07:50:22.633366  6320 net.cpp:58] Initializing net from parameters: 
name: "CIFAR10_full"
state {
  phase: TEST
}
layer {
  name: "cifar"
  type: "Data"
  top: "data"
  top: "label"
  include {
    phase: TEST
  }
  transform_param {
    mean_file: "examples/cifar10/mean.binaryproto"
  }
  data_param {
    source: "examples/cifar10/cifar10_test_lmdb"
    batch_size: 50
    backend: LMDB
  }
}
layer {
  name: "conv1"
  type: "Convolution"
  bottom: "data"
  top: "conv1"
  param {
    lr_mult: 1
  }
  convolution_param {
    num_output: 64
    bias_term: true
    pad: 1
    kernel_size: 3
    stride: 1
    weight_filler {
      type: "xavier"
    }
  }
}
layer {
  name: "bn1"
  type: "BatchNorm"
  bottom: "conv1"
  top: "bn1"
  include {
    phase: TEST
  }
  batch_norm_param {
    use_global_stats: true
    moving_average_fraction: 0.95
  }
}
layer {
  name: "scale1"
  type: "Scale"
  bottom: "bn1"
  top: "scale1"
  scale_param {
    bias_term: true
  }
}
layer {
  name: "relu1"
  type: "ReLU"
  bottom: "scale1"
  top: "relu1"
}
layer {
  name: "conv1_0"
  type: "Convolution"
  bottom: "relu1"
  top: "conv1_0"
  param {
    lr_mult: 1
  }
  convolution_param {
    num_output: 32
    bias_term: true
    pad: 1
    kernel_size: 3
    stride: 1
    weight_filler {
      type: "xavier"
    }
  }
}
layer {
  name: "bn1_0"
  type: "BatchNorm"
  bottom: "conv1_0"
  top: "bn1_0"
  include {
    phase: TEST
  }
  batch_norm_param {
    use_global_stats: true
    moving_average_fraction: 0.95
  }
}
layer {
  name: "scale1_0"
  type: "Scale"
  bottom: "bn1_0"
  top: "scale1_0"
  scale_param {
    bias_term: true
  }
}
layer {
  name: "relu1_0"
  type: "ReLU"
  bottom: "scale1_0"
  top: "relu1_0"
}
layer {
  name: "conv2"
  type: "Convolution"
  bottom: "relu1_0"
  top: "conv2"
  param {
    lr_mult: 1
  }
  convolution_param {
    num_output: 32
    bias_term: true
    pad: 1
    kernel_size: 3
    stride: 1
    weight_filler {
      type: "gaussian"
      std: 0.01
    }
  }
}
layer {
  name: "bn2"
  type: "BatchNorm"
  bottom: "conv2"
  top: "bn2"
  include {
    phase: TEST
  }
  batch_norm_param {
    use_global_stats: true
    moving_average_fraction: 0.95
  }
}
layer {
  name: "scale2"
  type: "Scale"
  bottom: "bn2"
  top: "scale2"
  scale_param {
    bias_term: true
  }
}
layer {
  name: "relu2"
  type: "ReLU"
  bottom: "scale2"
  top: "relu2"
}
layer {
  name: "conv2_1"
  type: "Convolution"
  bottom: "relu2"
  top: "conv2_1"
  param {
    lr_mult: 1
  }
  convolution_param {
    num_output: 32
    bias_term: true
    pad: 1
    kernel_size: 3
    stride: 1
    weight_filler {
      type: "gaussian"
      std: 0.01
    }
  }
}
layer {
  name: "bn2_1"
  type: "BatchNorm"
  bottom: "conv2_1"
  top: "bn2_1"
  include {
    phase: TEST
  }
  batch_norm_param {
    use_global_stats: true
    moving_average_fraction: 0.95
  }
}
layer {
  name: "scale2_1"
  type: "Scale"
  bottom: "bn2_1"
  top: "scale2_1"
  scale_param {
    bias_term: true
  }
}
layer {
  name: "relu2_1"
  type: "ReLU"
  bottom: "scale2_1"
  top: "relu2_1"
}
layer {
  name: "pool2_1"
  type: "Pooling"
  bottom: "relu2_1"
  top: "pool2_1"
  pooling_param {
    pool: MAX
    kernel_size: 2
    stride: 2
  }
}
layer {
  name: "conv2_2"
  type: "Convolution"
  bottom: "pool2_1"
  top: "conv2_2"
  param {
    lr_mult: 1
  }
  convolution_param {
    num_output: 32
    bias_term: true
    pad: 1
    kernel_size: 3
    stride: 1
    weight_filler {
      type: "gaussian"
      std: 0.01
    }
  }
}
layer {
  name: "bn2_2"
  type: "BatchNorm"
  bottom: "conv2_2"
  top: "bn2_2"
  include {
    phase: TEST
  }
  batch_norm_param {
    use_global_stats: true
    moving_average_fraction: 0.95
  }
}
layer {
  name: "scale2_2"
  type: "Scale"
  bottom: "bn2_2"
  top: "scale2_2"
  scale_param {
    bias_term: true
  }
}
layer {
  name: "relu2_2"
  type: "ReLU"
  bottom: "scale2_2"
  top: "relu2_2"
}
layer {
  name: "conv3"
  type: "Convolution"
  bottom: "relu2_2"
  top: "conv3"
  param {
    lr_mult: 1
  }
  convolution_param {
    num_output: 32
    bias_term: true
    pad: 1
    kernel_size: 3
    stride: 1
    weight_filler {
      type: "xavier"
    }
  }
}
layer {
  name: "bn3"
  type: "BatchNorm"
  bottom: "conv3"
  top: "bn3"
  include {
    phase: TEST
  }
  batch_norm_param {
    use_global_stats: true
    moving_average_fraction: 0.95
  }
}
layer {
  name: "scale3"
  type: "Scale"
  bottom: "bn3"
  top: "scale3"
  scale_param {
    bias_term: true
  }
}
layer {
  name: "relu3"
  type: "ReLU"
  bottom: "scale3"
  top: "relu3"
}
layer {
  name: "conv4"
  type: "Convolution"
  bottom: "relu3"
  top: "conv4"
  param {
    lr_mult: 1
  }
  convolution_param {
    num_output: 64
    bias_term: true
    pad: 1
    kernel_size: 3
    stride: 1
    weight_filler {
      type: "xavier"
    }
  }
}
layer {
  name: "pool4"
  type: "Pooling"
  bottom: "conv4"
  top: "pool4"
  pooling_param {
    pool: MAX
    kernel_size: 2
    stride: 2
  }
}
layer {
  name: "bn4"
  type: "BatchNorm"
  bottom: "pool4"
  top: "bn4"
  include {
    phase: TEST
  }
  batch_norm_param {
    use_global_stats: true
    moving_average_fraction: 0.95
  }
}
layer {
  name: "scale4"
  type: "Scale"
  bottom: "bn4"
  top: "scale4"
  scale_param {
    bias_term: true
  }
}
layer {
  name: "relu4"
  type: "ReLU"
  bottom: "scale4"
  top: "relu4"
}
layer {
  name: "conv4_1"
  type: "Convolution"
  bottom: "relu4"
  top: "conv4_1"
  param {
    lr_mult: 1
  }
  convolution_param {
    num_output: 64
    bias_term: true
    pad: 2
    kernel_size: 5
    stride: 1
    weight_filler {
      type: "xavier"
    }
  }
}
layer {
  name: "bn4_1"
  type: "BatchNorm"
  bottom: "conv4_1"
  top: "bn4_1"
  include {
    phase: TEST
  }
  batch_norm_param {
    use_global_stats: true
    moving_average_fraction: 0.95
  }
}
layer {
  name: "scale4_1"
  type: "Scale"
  bottom: "bn4_1"
  top: "scale4_1"
  scale_param {
    bias_term: true
  }
}
layer {
  name: "relu4_1"
  type: "ReLU"
  bottom: "scale4_1"
  top: "relu4_1"
}
layer {
  name: "conv4_2"
  type: "Convolution"
  bottom: "relu4_1"
  top: "conv4_2"
  param {
    lr_mult: 1
  }
  convolution_param {
    num_output: 64
    bias_term: true
    pad: 2
    kernel_size: 5
    stride: 1
    weight_filler {
      type: "xavier"
    }
  }
}
layer {
  name: "bn4_2"
  type: "BatchNorm"
  bottom: "conv4_2"
  top: "bn4_2"
  include {
    phase: TEST
  }
  batch_norm_param {
    use_global_stats: true
    moving_average_fraction: 0.95
  }
}
layer {
  name: "scale4_2"
  type: "Scale"
  bottom: "bn4_2"
  top: "scale4_2"
  scale_param {
    bias_term: true
  }
}
layer {
  name: "relu4_2"
  type: "ReLU"
  bottom: "scale4_2"
  top: "relu4_2"
}
layer {
  name: "pool4_2"
  type: "Pooling"
  bottom: "relu4_2"
  top: "pool4_2"
  pooling_param {
    pool: MAX
    kernel_size: 2
    stride: 2
  }
}
layer {
  name: "conv4_0"
  type: "Convolution"
  bottom: "pool4_2"
  top: "conv4_0"
  param {
    lr_mult: 1
  }
  convolution_param {
    num_output: 128
    bias_term: true
    pad: 2
    kernel_size: 5
    stride: 1
    weight_filler {
      type: "xavier"
    }
  }
}
layer {
  name: "bn4_0"
  type: "BatchNorm"
  bottom: "conv4_0"
  top: "bn4_0"
  include {
    phase: TEST
  }
  batch_norm_param {
    use_global_stats: true
    moving_average_fraction: 0.95
  }
}
layer {
  name: "scale4_0"
  type: "Scale"
  bottom: "bn4_0"
  top: "scale4_0"
  scale_param {
    bias_term: true
  }
}
layer {
  name: "relu4_0"
  type: "ReLU"
  bottom: "scale4_0"
  top: "relu4_0"
}
layer {
  name: "cccp4"
  type: "Convolution"
  bottom: "relu4_0"
  top: "cccp4"
  param {
    lr_mult: 1
    decay_mult: 1
  }
  param {
    lr_mult: 2
    decay_mult: 0
  }
  convolution_param {
    num_output: 256
    kernel_size: 1
    group: 1
    weight_filler {
      type: "xavier"
    }
    bias_filler {
      type: "constant"
      value: 0
    }
  }
}
layer {
  name: "relu_cccp4"
  type: "ReLU"
  bottom: "cccp4"
  top: "cccp4"
}
layer {
  name: "cccp5"
  type: "Convolution"
  bottom: "cccp4"
  top: "cccp5"
  param {
    lr_mult: 1
    decay_mult: 1
  }
  param {
    lr_mult: 2
    decay_mult: 0
  }
  convolution_param {
    num_output: 64
    kernel_size: 1
    group: 1
    weight_filler {
      type: "xavier"
    }
    bias_filler {
      type: "constant"
      value: 0
    }
  }
}
layer {
  name: "relu_cccp5"
  type: "ReLU"
  bottom: "cccp5"
  top: "cccp5"
}
layer {
  name: "poolcp5"
  type: "Pooling"
  bottom: "cccp5"
  top: "poolcp5"
  pooling_param {
    pool: MAX
    kernel_size: 2
    stride: 2
  }
}
layer {
  name: "cccp6"
  type: "Convolution"
  bottom: "poolcp5"
  top: "cccp6"
  param {
    lr_mult: 1
    decay_mult: 1
  }
  param {
    lr_mult: 2
    decay_mult: 0
  }
  convolution_param {
    num_output: 64
    pad: 2
    kernel_size: 5
    group: 1
    weight_filler {
      type: "xavier"
    }
    bias_filler {
      type: "constant"
      value: 0
    }
  }
}
layer {
  name: "relu_cccp6"
  type: "ReLU"
  bottom: "cccp6"
  top: "cccp6"
}
layer {
  name: "poolcp6"
  type: "Pooling"
  bottom: "cccp6"
  top: "poolcp6"
  pooling_param {
    pool: MAX
    kernel_size: 2
    stride: 2
  }
}
layer {
  name: "ip1"
  type: "InnerProduct"
  bottom: "poolcp6"
  top: "ip1"
  param {
    lr_mult: 1
    decay_mult: 0
  }
  param {
    lr_mult: 2
    decay_mult: 0
  }
  inner_product_param {
    num_output: 10
    weight_filler {
      type: "xavier"
    }
    bias_filler {
      type: "constant"
    }
  }
}
layer {
  name: "accuracy"
  type: "Accuracy"
  bottom: "ip1"
  bottom: "label"
  top: "accuracy"
  include {
    phase: TEST
  }
}
layer {
  name: "loss"
  type: "SoftmaxWithLoss"
  bottom: "ip1"
  bottom: "label"
  top: "loss"
}
I0313 07:50:22.633867  6320 layer_factory.cpp:58] Creating layer cifar
I0313 07:50:22.634366  6320 net.cpp:100] Creating Layer cifar
I0313 07:50:22.634366  6320 net.cpp:408] cifar -> data
I0313 07:50:22.634366  6320 net.cpp:408] cifar -> label
I0313 07:50:22.634366  6320 data_transformer.cpp:25] Loading mean file from: examples/cifar10/mean.binaryproto
I0313 07:50:22.636867  2596 common.cpp:36] System entropy source not available, using fallback algorithm to generate seed instead.
I0313 07:50:22.642868  2596 db_lmdb.cpp:40] Opened lmdb examples/cifar10/cifar10_test_lmdb
I0313 07:50:22.642868  6320 data_layer.cpp:41] output data size: 50,3,32,32
I0313 07:50:22.647042  6320 net.cpp:150] Setting up cifar
I0313 07:50:22.647042  6320 net.cpp:157] Top shape: 50 3 32 32 (153600)
I0313 07:50:22.647042  6320 net.cpp:157] Top shape: 50 (50)
I0313 07:50:22.647042  6320 net.cpp:165] Memory required for data: 614600
I0313 07:50:22.647042  6320 layer_factory.cpp:58] Creating layer label_cifar_1_split
I0313 07:50:22.647042  6320 net.cpp:100] Creating Layer label_cifar_1_split
I0313 07:50:22.647042  6320 net.cpp:434] label_cifar_1_split <- label
I0313 07:50:22.647042  6320 net.cpp:408] label_cifar_1_split -> label_cifar_1_split_0
I0313 07:50:22.647042  6320 net.cpp:408] label_cifar_1_split -> label_cifar_1_split_1
I0313 07:50:22.647042  6320 net.cpp:150] Setting up label_cifar_1_split
I0313 07:50:22.647042  6320 net.cpp:157] Top shape: 50 (50)
I0313 07:50:22.647042  6320 net.cpp:157] Top shape: 50 (50)
I0313 07:50:22.647042  6320 net.cpp:165] Memory required for data: 615000
I0313 07:50:22.647042  6320 layer_factory.cpp:58] Creating layer conv1
I0313 07:50:22.647042  6320 net.cpp:100] Creating Layer conv1
I0313 07:50:22.647042  6320 net.cpp:434] conv1 <- data
I0313 07:50:22.647042  6320 net.cpp:408] conv1 -> conv1
I0313 07:50:22.648028 11092 common.cpp:36] System entropy source not available, using fallback algorithm to generate seed instead.
I0313 07:50:22.653025  6320 net.cpp:150] Setting up conv1
I0313 07:50:22.653025  6320 net.cpp:157] Top shape: 50 64 32 32 (3276800)
I0313 07:50:22.653025  6320 net.cpp:165] Memory required for data: 13722200
I0313 07:50:22.653025  6320 layer_factory.cpp:58] Creating layer bn1
I0313 07:50:22.653025  6320 net.cpp:100] Creating Layer bn1
I0313 07:50:22.653025  6320 net.cpp:434] bn1 <- conv1
I0313 07:50:22.653025  6320 net.cpp:408] bn1 -> bn1
I0313 07:50:22.654024  6320 net.cpp:150] Setting up bn1
I0313 07:50:22.654024  6320 net.cpp:157] Top shape: 50 64 32 32 (3276800)
I0313 07:50:22.654024  6320 net.cpp:165] Memory required for data: 26829400
I0313 07:50:22.654024  6320 layer_factory.cpp:58] Creating layer scale1
I0313 07:50:22.654024  6320 net.cpp:100] Creating Layer scale1
I0313 07:50:22.654024  6320 net.cpp:434] scale1 <- bn1
I0313 07:50:22.654024  6320 net.cpp:408] scale1 -> scale1
I0313 07:50:22.654024  6320 layer_factory.cpp:58] Creating layer scale1
I0313 07:50:22.654024  6320 net.cpp:150] Setting up scale1
I0313 07:50:22.654024  6320 net.cpp:157] Top shape: 50 64 32 32 (3276800)
I0313 07:50:22.654024  6320 net.cpp:165] Memory required for data: 39936600
I0313 07:50:22.654024  6320 layer_factory.cpp:58] Creating layer relu1
I0313 07:50:22.654024  6320 net.cpp:100] Creating Layer relu1
I0313 07:50:22.654024  6320 net.cpp:434] relu1 <- scale1
I0313 07:50:22.654024  6320 net.cpp:408] relu1 -> relu1
I0313 07:50:22.655025  6320 net.cpp:150] Setting up relu1
I0313 07:50:22.655025  6320 net.cpp:157] Top shape: 50 64 32 32 (3276800)
I0313 07:50:22.655025  6320 net.cpp:165] Memory required for data: 53043800
I0313 07:50:22.655025  6320 layer_factory.cpp:58] Creating layer conv1_0
I0313 07:50:22.655025  6320 net.cpp:100] Creating Layer conv1_0
I0313 07:50:22.655025  6320 net.cpp:434] conv1_0 <- relu1
I0313 07:50:22.655025  6320 net.cpp:408] conv1_0 -> conv1_0
I0313 07:50:22.663041  6320 net.cpp:150] Setting up conv1_0
I0313 07:50:22.663041  6320 net.cpp:157] Top shape: 50 32 32 32 (1638400)
I0313 07:50:22.663041  6320 net.cpp:165] Memory required for data: 59597400
I0313 07:50:22.663041  6320 layer_factory.cpp:58] Creating layer bn1_0
I0313 07:50:22.663041  6320 net.cpp:100] Creating Layer bn1_0
I0313 07:50:22.663041  6320 net.cpp:434] bn1_0 <- conv1_0
I0313 07:50:22.663041  6320 net.cpp:408] bn1_0 -> bn1_0
I0313 07:50:22.663041  6320 net.cpp:150] Setting up bn1_0
I0313 07:50:22.663041  6320 net.cpp:157] Top shape: 50 32 32 32 (1638400)
I0313 07:50:22.663041  6320 net.cpp:165] Memory required for data: 66151000
I0313 07:50:22.663041  6320 layer_factory.cpp:58] Creating layer scale1_0
I0313 07:50:22.663041  6320 net.cpp:100] Creating Layer scale1_0
I0313 07:50:22.663041  6320 net.cpp:434] scale1_0 <- bn1_0
I0313 07:50:22.663041  6320 net.cpp:408] scale1_0 -> scale1_0
I0313 07:50:22.664026  6320 layer_factory.cpp:58] Creating layer scale1_0
I0313 07:50:22.664026  6320 net.cpp:150] Setting up scale1_0
I0313 07:50:22.664026  6320 net.cpp:157] Top shape: 50 32 32 32 (1638400)
I0313 07:50:22.664026  6320 net.cpp:165] Memory required for data: 72704600
I0313 07:50:22.664026  6320 layer_factory.cpp:58] Creating layer relu1_0
I0313 07:50:22.664026  6320 net.cpp:100] Creating Layer relu1_0
I0313 07:50:22.664026  6320 net.cpp:434] relu1_0 <- scale1_0
I0313 07:50:22.664026  6320 net.cpp:408] relu1_0 -> relu1_0
I0313 07:50:22.670040  6320 net.cpp:150] Setting up relu1_0
I0313 07:50:22.670040  6320 net.cpp:157] Top shape: 50 32 32 32 (1638400)
I0313 07:50:22.670040  6320 net.cpp:165] Memory required for data: 79258200
I0313 07:50:22.670040  6320 layer_factory.cpp:58] Creating layer conv2
I0313 07:50:22.670040  6320 net.cpp:100] Creating Layer conv2
I0313 07:50:22.670040  6320 net.cpp:434] conv2 <- relu1_0
I0313 07:50:22.670040  6320 net.cpp:408] conv2 -> conv2
I0313 07:50:22.672025  6320 net.cpp:150] Setting up conv2
I0313 07:50:22.672025  6320 net.cpp:157] Top shape: 50 32 32 32 (1638400)
I0313 07:50:22.672025  6320 net.cpp:165] Memory required for data: 85811800
I0313 07:50:22.672025  6320 layer_factory.cpp:58] Creating layer bn2
I0313 07:50:22.672025  6320 net.cpp:100] Creating Layer bn2
I0313 07:50:22.672025  6320 net.cpp:434] bn2 <- conv2
I0313 07:50:22.672025  6320 net.cpp:408] bn2 -> bn2
I0313 07:50:22.672025  6320 net.cpp:150] Setting up bn2
I0313 07:50:22.672025  6320 net.cpp:157] Top shape: 50 32 32 32 (1638400)
I0313 07:50:22.672025  6320 net.cpp:165] Memory required for data: 92365400
I0313 07:50:22.672025  6320 layer_factory.cpp:58] Creating layer scale2
I0313 07:50:22.672025  6320 net.cpp:100] Creating Layer scale2
I0313 07:50:22.672025  6320 net.cpp:434] scale2 <- bn2
I0313 07:50:22.672025  6320 net.cpp:408] scale2 -> scale2
I0313 07:50:22.672025  6320 layer_factory.cpp:58] Creating layer scale2
I0313 07:50:22.672025  6320 net.cpp:150] Setting up scale2
I0313 07:50:22.672025  6320 net.cpp:157] Top shape: 50 32 32 32 (1638400)
I0313 07:50:22.672025  6320 net.cpp:165] Memory required for data: 98919000
I0313 07:50:22.672025  6320 layer_factory.cpp:58] Creating layer relu2
I0313 07:50:22.672025  6320 net.cpp:100] Creating Layer relu2
I0313 07:50:22.672025  6320 net.cpp:434] relu2 <- scale2
I0313 07:50:22.672025  6320 net.cpp:408] relu2 -> relu2
I0313 07:50:22.675045  6320 net.cpp:150] Setting up relu2
I0313 07:50:22.675045  6320 net.cpp:157] Top shape: 50 32 32 32 (1638400)
I0313 07:50:22.675045  6320 net.cpp:165] Memory required for data: 105472600
I0313 07:50:22.675045  6320 layer_factory.cpp:58] Creating layer conv2_1
I0313 07:50:22.675045  6320 net.cpp:100] Creating Layer conv2_1
I0313 07:50:22.675045  6320 net.cpp:434] conv2_1 <- relu2
I0313 07:50:22.675045  6320 net.cpp:408] conv2_1 -> conv2_1
I0313 07:50:22.680027  6320 net.cpp:150] Setting up conv2_1
I0313 07:50:22.680027  6320 net.cpp:157] Top shape: 50 32 32 32 (1638400)
I0313 07:50:22.680027  6320 net.cpp:165] Memory required for data: 112026200
I0313 07:50:22.680027  6320 layer_factory.cpp:58] Creating layer bn2_1
I0313 07:50:22.680027  6320 net.cpp:100] Creating Layer bn2_1
I0313 07:50:22.680027  6320 net.cpp:434] bn2_1 <- conv2_1
I0313 07:50:22.680027  6320 net.cpp:408] bn2_1 -> bn2_1
I0313 07:50:22.680027  6320 net.cpp:150] Setting up bn2_1
I0313 07:50:22.680027  6320 net.cpp:157] Top shape: 50 32 32 32 (1638400)
I0313 07:50:22.680027  6320 net.cpp:165] Memory required for data: 118579800
I0313 07:50:22.680027  6320 layer_factory.cpp:58] Creating layer scale2_1
I0313 07:50:22.680027  6320 net.cpp:100] Creating Layer scale2_1
I0313 07:50:22.680027  6320 net.cpp:434] scale2_1 <- bn2_1
I0313 07:50:22.680027  6320 net.cpp:408] scale2_1 -> scale2_1
I0313 07:50:22.680027  6320 layer_factory.cpp:58] Creating layer scale2_1
I0313 07:50:22.680027  6320 net.cpp:150] Setting up scale2_1
I0313 07:50:22.680027  6320 net.cpp:157] Top shape: 50 32 32 32 (1638400)
I0313 07:50:22.680027  6320 net.cpp:165] Memory required for data: 125133400
I0313 07:50:22.680027  6320 layer_factory.cpp:58] Creating layer relu2_1
I0313 07:50:22.680027  6320 net.cpp:100] Creating Layer relu2_1
I0313 07:50:22.680027  6320 net.cpp:434] relu2_1 <- scale2_1
I0313 07:50:22.680027  6320 net.cpp:408] relu2_1 -> relu2_1
I0313 07:50:22.683042  6320 net.cpp:150] Setting up relu2_1
I0313 07:50:22.684041  6320 net.cpp:157] Top shape: 50 32 32 32 (1638400)
I0313 07:50:22.684041  6320 net.cpp:165] Memory required for data: 131687000
I0313 07:50:22.684041  6320 layer_factory.cpp:58] Creating layer pool2_1
I0313 07:50:22.684041  6320 net.cpp:100] Creating Layer pool2_1
I0313 07:50:22.684041  6320 net.cpp:434] pool2_1 <- relu2_1
I0313 07:50:22.684041  6320 net.cpp:408] pool2_1 -> pool2_1
I0313 07:50:22.684041  6320 net.cpp:150] Setting up pool2_1
I0313 07:50:22.684041  6320 net.cpp:157] Top shape: 50 32 16 16 (409600)
I0313 07:50:22.684041  6320 net.cpp:165] Memory required for data: 133325400
I0313 07:50:22.684041  6320 layer_factory.cpp:58] Creating layer conv2_2
I0313 07:50:22.684041  6320 net.cpp:100] Creating Layer conv2_2
I0313 07:50:22.684041  6320 net.cpp:434] conv2_2 <- pool2_1
I0313 07:50:22.684041  6320 net.cpp:408] conv2_2 -> conv2_2
I0313 07:50:22.688040  6320 net.cpp:150] Setting up conv2_2
I0313 07:50:22.688040  6320 net.cpp:157] Top shape: 50 32 16 16 (409600)
I0313 07:50:22.688040  6320 net.cpp:165] Memory required for data: 134963800
I0313 07:50:22.688040  6320 layer_factory.cpp:58] Creating layer bn2_2
I0313 07:50:22.688040  6320 net.cpp:100] Creating Layer bn2_2
I0313 07:50:22.688040  6320 net.cpp:434] bn2_2 <- conv2_2
I0313 07:50:22.688040  6320 net.cpp:408] bn2_2 -> bn2_2
I0313 07:50:22.688040  6320 net.cpp:150] Setting up bn2_2
I0313 07:50:22.688040  6320 net.cpp:157] Top shape: 50 32 16 16 (409600)
I0313 07:50:22.688040  6320 net.cpp:165] Memory required for data: 136602200
I0313 07:50:22.688040  6320 layer_factory.cpp:58] Creating layer scale2_2
I0313 07:50:22.688040  6320 net.cpp:100] Creating Layer scale2_2
I0313 07:50:22.688040  6320 net.cpp:434] scale2_2 <- bn2_2
I0313 07:50:22.688040  6320 net.cpp:408] scale2_2 -> scale2_2
I0313 07:50:22.688040  6320 layer_factory.cpp:58] Creating layer scale2_2
I0313 07:50:22.689024  6320 net.cpp:150] Setting up scale2_2
I0313 07:50:22.689024  6320 net.cpp:157] Top shape: 50 32 16 16 (409600)
I0313 07:50:22.689024  6320 net.cpp:165] Memory required for data: 138240600
I0313 07:50:22.689024  6320 layer_factory.cpp:58] Creating layer relu2_2
I0313 07:50:22.689024  6320 net.cpp:100] Creating Layer relu2_2
I0313 07:50:22.689024  6320 net.cpp:434] relu2_2 <- scale2_2
I0313 07:50:22.689024  6320 net.cpp:408] relu2_2 -> relu2_2
I0313 07:50:22.692040  6320 net.cpp:150] Setting up relu2_2
I0313 07:50:22.692040  6320 net.cpp:157] Top shape: 50 32 16 16 (409600)
I0313 07:50:22.692040  6320 net.cpp:165] Memory required for data: 139879000
I0313 07:50:22.692040  6320 layer_factory.cpp:58] Creating layer conv3
I0313 07:50:22.692040  6320 net.cpp:100] Creating Layer conv3
I0313 07:50:22.692040  6320 net.cpp:434] conv3 <- relu2_2
I0313 07:50:22.692040  6320 net.cpp:408] conv3 -> conv3
I0313 07:50:22.696046  6320 net.cpp:150] Setting up conv3
I0313 07:50:22.697046  6320 net.cpp:157] Top shape: 50 32 16 16 (409600)
I0313 07:50:22.697046  6320 net.cpp:165] Memory required for data: 141517400
I0313 07:50:22.697046  6320 layer_factory.cpp:58] Creating layer bn3
I0313 07:50:22.697046  6320 net.cpp:100] Creating Layer bn3
I0313 07:50:22.697046  6320 net.cpp:434] bn3 <- conv3
I0313 07:50:22.697046  6320 net.cpp:408] bn3 -> bn3
I0313 07:50:22.697046  6320 net.cpp:150] Setting up bn3
I0313 07:50:22.697046  6320 net.cpp:157] Top shape: 50 32 16 16 (409600)
I0313 07:50:22.697046  6320 net.cpp:165] Memory required for data: 143155800
I0313 07:50:22.697046  6320 layer_factory.cpp:58] Creating layer scale3
I0313 07:50:22.697046  6320 net.cpp:100] Creating Layer scale3
I0313 07:50:22.697046  6320 net.cpp:434] scale3 <- bn3
I0313 07:50:22.697046  6320 net.cpp:408] scale3 -> scale3
I0313 07:50:22.697046  6320 layer_factory.cpp:58] Creating layer scale3
I0313 07:50:22.697046  6320 net.cpp:150] Setting up scale3
I0313 07:50:22.697046  6320 net.cpp:157] Top shape: 50 32 16 16 (409600)
I0313 07:50:22.697046  6320 net.cpp:165] Memory required for data: 144794200
I0313 07:50:22.697046  6320 layer_factory.cpp:58] Creating layer relu3
I0313 07:50:22.697046  6320 net.cpp:100] Creating Layer relu3
I0313 07:50:22.697046  6320 net.cpp:434] relu3 <- scale3
I0313 07:50:22.697046  6320 net.cpp:408] relu3 -> relu3
I0313 07:50:22.700047  6320 net.cpp:150] Setting up relu3
I0313 07:50:22.700047  6320 net.cpp:157] Top shape: 50 32 16 16 (409600)
I0313 07:50:22.700047  6320 net.cpp:165] Memory required for data: 146432600
I0313 07:50:22.700047  6320 layer_factory.cpp:58] Creating layer conv4
I0313 07:50:22.700047  6320 net.cpp:100] Creating Layer conv4
I0313 07:50:22.700047  6320 net.cpp:434] conv4 <- relu3
I0313 07:50:22.700047  6320 net.cpp:408] conv4 -> conv4
I0313 07:50:22.705046  6320 net.cpp:150] Setting up conv4
I0313 07:50:22.705046  6320 net.cpp:157] Top shape: 50 64 16 16 (819200)
I0313 07:50:22.705046  6320 net.cpp:165] Memory required for data: 149709400
I0313 07:50:22.705046  6320 layer_factory.cpp:58] Creating layer pool4
I0313 07:50:22.705046  6320 net.cpp:100] Creating Layer pool4
I0313 07:50:22.705046  6320 net.cpp:434] pool4 <- conv4
I0313 07:50:22.705046  6320 net.cpp:408] pool4 -> pool4
I0313 07:50:22.705046  6320 net.cpp:150] Setting up pool4
I0313 07:50:22.705046  6320 net.cpp:157] Top shape: 50 64 8 8 (204800)
I0313 07:50:22.705046  6320 net.cpp:165] Memory required for data: 150528600
I0313 07:50:22.705046  6320 layer_factory.cpp:58] Creating layer bn4
I0313 07:50:22.705046  6320 net.cpp:100] Creating Layer bn4
I0313 07:50:22.705046  6320 net.cpp:434] bn4 <- pool4
I0313 07:50:22.705046  6320 net.cpp:408] bn4 -> bn4
I0313 07:50:22.705046  6320 net.cpp:150] Setting up bn4
I0313 07:50:22.705046  6320 net.cpp:157] Top shape: 50 64 8 8 (204800)
I0313 07:50:22.705046  6320 net.cpp:165] Memory required for data: 151347800
I0313 07:50:22.705046  6320 layer_factory.cpp:58] Creating layer scale4
I0313 07:50:22.705046  6320 net.cpp:100] Creating Layer scale4
I0313 07:50:22.705046  6320 net.cpp:434] scale4 <- bn4
I0313 07:50:22.705046  6320 net.cpp:408] scale4 -> scale4
I0313 07:50:22.705046  6320 layer_factory.cpp:58] Creating layer scale4
I0313 07:50:22.706029  6320 net.cpp:150] Setting up scale4
I0313 07:50:22.706029  6320 net.cpp:157] Top shape: 50 64 8 8 (204800)
I0313 07:50:22.706029  6320 net.cpp:165] Memory required for data: 152167000
I0313 07:50:22.706029  6320 layer_factory.cpp:58] Creating layer relu4
I0313 07:50:22.706029  6320 net.cpp:100] Creating Layer relu4
I0313 07:50:22.706029  6320 net.cpp:434] relu4 <- scale4
I0313 07:50:22.706029  6320 net.cpp:408] relu4 -> relu4
I0313 07:50:22.709045  6320 net.cpp:150] Setting up relu4
I0313 07:50:22.709045  6320 net.cpp:157] Top shape: 50 64 8 8 (204800)
I0313 07:50:22.709045  6320 net.cpp:165] Memory required for data: 152986200
I0313 07:50:22.709045  6320 layer_factory.cpp:58] Creating layer conv4_1
I0313 07:50:22.709045  6320 net.cpp:100] Creating Layer conv4_1
I0313 07:50:22.709045  6320 net.cpp:434] conv4_1 <- relu4
I0313 07:50:22.709045  6320 net.cpp:408] conv4_1 -> conv4_1
I0313 07:50:22.713047  6320 net.cpp:150] Setting up conv4_1
I0313 07:50:22.713047  6320 net.cpp:157] Top shape: 50 64 8 8 (204800)
I0313 07:50:22.713047  6320 net.cpp:165] Memory required for data: 153805400
I0313 07:50:22.713047  6320 layer_factory.cpp:58] Creating layer bn4_1
I0313 07:50:22.713047  6320 net.cpp:100] Creating Layer bn4_1
I0313 07:50:22.713047  6320 net.cpp:434] bn4_1 <- conv4_1
I0313 07:50:22.713047  6320 net.cpp:408] bn4_1 -> bn4_1
I0313 07:50:22.713047  6320 net.cpp:150] Setting up bn4_1
I0313 07:50:22.713047  6320 net.cpp:157] Top shape: 50 64 8 8 (204800)
I0313 07:50:22.713047  6320 net.cpp:165] Memory required for data: 154624600
I0313 07:50:22.713047  6320 layer_factory.cpp:58] Creating layer scale4_1
I0313 07:50:22.713047  6320 net.cpp:100] Creating Layer scale4_1
I0313 07:50:22.713047  6320 net.cpp:434] scale4_1 <- bn4_1
I0313 07:50:22.714028  6320 net.cpp:408] scale4_1 -> scale4_1
I0313 07:50:22.714028  6320 layer_factory.cpp:58] Creating layer scale4_1
I0313 07:50:22.714028  6320 net.cpp:150] Setting up scale4_1
I0313 07:50:22.714028  6320 net.cpp:157] Top shape: 50 64 8 8 (204800)
I0313 07:50:22.714028  6320 net.cpp:165] Memory required for data: 155443800
I0313 07:50:22.714028  6320 layer_factory.cpp:58] Creating layer relu4_1
I0313 07:50:22.714028  6320 net.cpp:100] Creating Layer relu4_1
I0313 07:50:22.714028  6320 net.cpp:434] relu4_1 <- scale4_1
I0313 07:50:22.714028  6320 net.cpp:408] relu4_1 -> relu4_1
I0313 07:50:22.717046  6320 net.cpp:150] Setting up relu4_1
I0313 07:50:22.717046  6320 net.cpp:157] Top shape: 50 64 8 8 (204800)
I0313 07:50:22.717046  6320 net.cpp:165] Memory required for data: 156263000
I0313 07:50:22.717046  6320 layer_factory.cpp:58] Creating layer conv4_2
I0313 07:50:22.717046  6320 net.cpp:100] Creating Layer conv4_2
I0313 07:50:22.717046  6320 net.cpp:434] conv4_2 <- relu4_1
I0313 07:50:22.717046  6320 net.cpp:408] conv4_2 -> conv4_2
I0313 07:50:22.722025  6320 net.cpp:150] Setting up conv4_2
I0313 07:50:22.722025  6320 net.cpp:157] Top shape: 50 64 8 8 (204800)
I0313 07:50:22.722025  6320 net.cpp:165] Memory required for data: 157082200
I0313 07:50:22.722025  6320 layer_factory.cpp:58] Creating layer bn4_2
I0313 07:50:22.722025  6320 net.cpp:100] Creating Layer bn4_2
I0313 07:50:22.722025  6320 net.cpp:434] bn4_2 <- conv4_2
I0313 07:50:22.722025  6320 net.cpp:408] bn4_2 -> bn4_2
I0313 07:50:22.722025  6320 net.cpp:150] Setting up bn4_2
I0313 07:50:22.722025  6320 net.cpp:157] Top shape: 50 64 8 8 (204800)
I0313 07:50:22.722025  6320 net.cpp:165] Memory required for data: 157901400
I0313 07:50:22.722025  6320 layer_factory.cpp:58] Creating layer scale4_2
I0313 07:50:22.722025  6320 net.cpp:100] Creating Layer scale4_2
I0313 07:50:22.722025  6320 net.cpp:434] scale4_2 <- bn4_2
I0313 07:50:22.722025  6320 net.cpp:408] scale4_2 -> scale4_2
I0313 07:50:22.722025  6320 layer_factory.cpp:58] Creating layer scale4_2
I0313 07:50:22.722025  6320 net.cpp:150] Setting up scale4_2
I0313 07:50:22.722025  6320 net.cpp:157] Top shape: 50 64 8 8 (204800)
I0313 07:50:22.722025  6320 net.cpp:165] Memory required for data: 158720600
I0313 07:50:22.722025  6320 layer_factory.cpp:58] Creating layer relu4_2
I0313 07:50:22.722025  6320 net.cpp:100] Creating Layer relu4_2
I0313 07:50:22.722025  6320 net.cpp:434] relu4_2 <- scale4_2
I0313 07:50:22.722025  6320 net.cpp:408] relu4_2 -> relu4_2
I0313 07:50:22.726027  6320 net.cpp:150] Setting up relu4_2
I0313 07:50:22.726027  6320 net.cpp:157] Top shape: 50 64 8 8 (204800)
I0313 07:50:22.726027  6320 net.cpp:165] Memory required for data: 159539800
I0313 07:50:22.726027  6320 layer_factory.cpp:58] Creating layer pool4_2
I0313 07:50:22.726027  6320 net.cpp:100] Creating Layer pool4_2
I0313 07:50:22.726027  6320 net.cpp:434] pool4_2 <- relu4_2
I0313 07:50:22.726027  6320 net.cpp:408] pool4_2 -> pool4_2
I0313 07:50:22.726027  6320 net.cpp:150] Setting up pool4_2
I0313 07:50:22.726027  6320 net.cpp:157] Top shape: 50 64 4 4 (51200)
I0313 07:50:22.726027  6320 net.cpp:165] Memory required for data: 159744600
I0313 07:50:22.726027  6320 layer_factory.cpp:58] Creating layer conv4_0
I0313 07:50:22.726027  6320 net.cpp:100] Creating Layer conv4_0
I0313 07:50:22.726027  6320 net.cpp:434] conv4_0 <- pool4_2
I0313 07:50:22.726027  6320 net.cpp:408] conv4_0 -> conv4_0
I0313 07:50:22.730562  6320 net.cpp:150] Setting up conv4_0
I0313 07:50:22.731062  6320 net.cpp:157] Top shape: 50 128 4 4 (102400)
I0313 07:50:22.731062  6320 net.cpp:165] Memory required for data: 160154200
I0313 07:50:22.731062  6320 layer_factory.cpp:58] Creating layer bn4_0
I0313 07:50:22.731062  6320 net.cpp:100] Creating Layer bn4_0
I0313 07:50:22.731062  6320 net.cpp:434] bn4_0 <- conv4_0
I0313 07:50:22.731062  6320 net.cpp:408] bn4_0 -> bn4_0
I0313 07:50:22.731062  6320 net.cpp:150] Setting up bn4_0
I0313 07:50:22.731062  6320 net.cpp:157] Top shape: 50 128 4 4 (102400)
I0313 07:50:22.731062  6320 net.cpp:165] Memory required for data: 160563800
I0313 07:50:22.731062  6320 layer_factory.cpp:58] Creating layer scale4_0
I0313 07:50:22.731062  6320 net.cpp:100] Creating Layer scale4_0
I0313 07:50:22.731062  6320 net.cpp:434] scale4_0 <- bn4_0
I0313 07:50:22.731062  6320 net.cpp:408] scale4_0 -> scale4_0
I0313 07:50:22.731546  6320 layer_factory.cpp:58] Creating layer scale4_0
I0313 07:50:22.731546  6320 net.cpp:150] Setting up scale4_0
I0313 07:50:22.731546  6320 net.cpp:157] Top shape: 50 128 4 4 (102400)
I0313 07:50:22.731546  6320 net.cpp:165] Memory required for data: 160973400
I0313 07:50:22.731546  6320 layer_factory.cpp:58] Creating layer relu4_0
I0313 07:50:22.731546  6320 net.cpp:100] Creating Layer relu4_0
I0313 07:50:22.731546  6320 net.cpp:434] relu4_0 <- scale4_0
I0313 07:50:22.731546  6320 net.cpp:408] relu4_0 -> relu4_0
I0313 07:50:22.734561  6320 net.cpp:150] Setting up relu4_0
I0313 07:50:22.734561  6320 net.cpp:157] Top shape: 50 128 4 4 (102400)
I0313 07:50:22.734561  6320 net.cpp:165] Memory required for data: 161383000
I0313 07:50:22.734561  6320 layer_factory.cpp:58] Creating layer cccp4
I0313 07:50:22.734561  6320 net.cpp:100] Creating Layer cccp4
I0313 07:50:22.734561  6320 net.cpp:434] cccp4 <- relu4_0
I0313 07:50:22.734561  6320 net.cpp:408] cccp4 -> cccp4
I0313 07:50:22.739061  6320 net.cpp:150] Setting up cccp4
I0313 07:50:22.739061  6320 net.cpp:157] Top shape: 50 256 4 4 (204800)
I0313 07:50:22.739061  6320 net.cpp:165] Memory required for data: 162202200
I0313 07:50:22.739061  6320 layer_factory.cpp:58] Creating layer relu_cccp4
I0313 07:50:22.739061  6320 net.cpp:100] Creating Layer relu_cccp4
I0313 07:50:22.739061  6320 net.cpp:434] relu_cccp4 <- cccp4
I0313 07:50:22.739061  6320 net.cpp:395] relu_cccp4 -> cccp4 (in-place)
I0313 07:50:22.739562  6320 net.cpp:150] Setting up relu_cccp4
I0313 07:50:22.739562  6320 net.cpp:157] Top shape: 50 256 4 4 (204800)
I0313 07:50:22.739562  6320 net.cpp:165] Memory required for data: 163021400
I0313 07:50:22.739562  6320 layer_factory.cpp:58] Creating layer cccp5
I0313 07:50:22.739562  6320 net.cpp:100] Creating Layer cccp5
I0313 07:50:22.739562  6320 net.cpp:434] cccp5 <- cccp4
I0313 07:50:22.739562  6320 net.cpp:408] cccp5 -> cccp5
I0313 07:50:22.746567  6320 net.cpp:150] Setting up cccp5
I0313 07:50:22.746567  6320 net.cpp:157] Top shape: 50 64 4 4 (51200)
I0313 07:50:22.746567  6320 net.cpp:165] Memory required for data: 163226200
I0313 07:50:22.746567  6320 layer_factory.cpp:58] Creating layer relu_cccp5
I0313 07:50:22.746567  6320 net.cpp:100] Creating Layer relu_cccp5
I0313 07:50:22.746567  6320 net.cpp:434] relu_cccp5 <- cccp5
I0313 07:50:22.746567  6320 net.cpp:395] relu_cccp5 -> cccp5 (in-place)
I0313 07:50:22.747565  6320 net.cpp:150] Setting up relu_cccp5
I0313 07:50:22.747565  6320 net.cpp:157] Top shape: 50 64 4 4 (51200)
I0313 07:50:22.747565  6320 net.cpp:165] Memory required for data: 163431000
I0313 07:50:22.747565  6320 layer_factory.cpp:58] Creating layer poolcp5
I0313 07:50:22.747565  6320 net.cpp:100] Creating Layer poolcp5
I0313 07:50:22.747565  6320 net.cpp:434] poolcp5 <- cccp5
I0313 07:50:22.747565  6320 net.cpp:408] poolcp5 -> poolcp5
I0313 07:50:22.747565  6320 net.cpp:150] Setting up poolcp5
I0313 07:50:22.747565  6320 net.cpp:157] Top shape: 50 64 2 2 (12800)
I0313 07:50:22.747565  6320 net.cpp:165] Memory required for data: 163482200
I0313 07:50:22.747565  6320 layer_factory.cpp:58] Creating layer cccp6
I0313 07:50:22.747565  6320 net.cpp:100] Creating Layer cccp6
I0313 07:50:22.747565  6320 net.cpp:434] cccp6 <- poolcp5
I0313 07:50:22.747565  6320 net.cpp:408] cccp6 -> cccp6
I0313 07:50:22.754570  6320 net.cpp:150] Setting up cccp6
I0313 07:50:22.754570  6320 net.cpp:157] Top shape: 50 64 2 2 (12800)
I0313 07:50:22.754570  6320 net.cpp:165] Memory required for data: 163533400
I0313 07:50:22.754570  6320 layer_factory.cpp:58] Creating layer relu_cccp6
I0313 07:50:22.754570  6320 net.cpp:100] Creating Layer relu_cccp6
I0313 07:50:22.754570  6320 net.cpp:434] relu_cccp6 <- cccp6
I0313 07:50:22.754570  6320 net.cpp:395] relu_cccp6 -> cccp6 (in-place)
I0313 07:50:22.755554  6320 net.cpp:150] Setting up relu_cccp6
I0313 07:50:22.755554  6320 net.cpp:157] Top shape: 50 64 2 2 (12800)
I0313 07:50:22.755554  6320 net.cpp:165] Memory required for data: 163584600
I0313 07:50:22.755554  6320 layer_factory.cpp:58] Creating layer poolcp6
I0313 07:50:22.755554  6320 net.cpp:100] Creating Layer poolcp6
I0313 07:50:22.755554  6320 net.cpp:434] poolcp6 <- cccp6
I0313 07:50:22.755554  6320 net.cpp:408] poolcp6 -> poolcp6
I0313 07:50:22.755554  6320 net.cpp:150] Setting up poolcp6
I0313 07:50:22.755554  6320 net.cpp:157] Top shape: 50 64 1 1 (3200)
I0313 07:50:22.755554  6320 net.cpp:165] Memory required for data: 163597400
I0313 07:50:22.755554  6320 layer_factory.cpp:58] Creating layer ip1
I0313 07:50:22.755554  6320 net.cpp:100] Creating Layer ip1
I0313 07:50:22.755554  6320 net.cpp:434] ip1 <- poolcp6
I0313 07:50:22.755554  6320 net.cpp:408] ip1 -> ip1
I0313 07:50:22.756572  6320 net.cpp:150] Setting up ip1
I0313 07:50:22.756572  6320 net.cpp:157] Top shape: 50 10 (500)
I0313 07:50:22.756572  6320 net.cpp:165] Memory required for data: 163599400
I0313 07:50:22.756572  6320 layer_factory.cpp:58] Creating layer ip1_ip1_0_split
I0313 07:50:22.756572  6320 net.cpp:100] Creating Layer ip1_ip1_0_split
I0313 07:50:22.756572  6320 net.cpp:434] ip1_ip1_0_split <- ip1
I0313 07:50:22.756572  6320 net.cpp:408] ip1_ip1_0_split -> ip1_ip1_0_split_0
I0313 07:50:22.756572  6320 net.cpp:408] ip1_ip1_0_split -> ip1_ip1_0_split_1
I0313 07:50:22.756572  6320 net.cpp:150] Setting up ip1_ip1_0_split
I0313 07:50:22.756572  6320 net.cpp:157] Top shape: 50 10 (500)
I0313 07:50:22.756572  6320 net.cpp:157] Top shape: 50 10 (500)
I0313 07:50:22.756572  6320 net.cpp:165] Memory required for data: 163603400
I0313 07:50:22.756572  6320 layer_factory.cpp:58] Creating layer accuracy
I0313 07:50:22.756572  6320 net.cpp:100] Creating Layer accuracy
I0313 07:50:22.756572  6320 net.cpp:434] accuracy <- ip1_ip1_0_split_0
I0313 07:50:22.756572  6320 net.cpp:434] accuracy <- label_cifar_1_split_0
I0313 07:50:22.756572  6320 net.cpp:408] accuracy -> accuracy
…
