…
I0629 23:41:46.174450 17428 net.cpp:294] The NetState phase (0) differed from the phase (1) specified by a rule in layer accuracy
I0629 23:41:46.174950 17428 net.cpp:51] Initializing net from parameters: 
name: "CIFAR10_SimpleNet_GP_11L_128K_biggerFeatMaps"
state {
  phase: TRAIN
  level: 0
  stage: ""
}
layer {
  name: "cifar"
  type: "Data"
  top: "data"
  top: "label"
  include {
    phase: TRAIN
  }
  transform_param {
    mirror: true
    crop_size: 32
  }
  data_param {
    source: "examples/cifar10/cifar10_train_leveldb_padding"
    batch_size: 100
    backend: LEVELDB
  }
}
layer {
  name: "conv1"
  type: "Convolution"
  bottom: "data"
  top: "conv1"
  param {
    lr_mult: 1
  }
  convolution_param {
    num_output: 20
    bias_term: true
    pad: 1
    kernel_size: 3
    stride: 1
    weight_filler {
      type: "xavier"
    }
  }
}
layer {
  name: "bn1"
  type: "BatchNorm"
  bottom: "conv1"
  top: "conv1"
  param {
    lr_mult: 0
    decay_mult: 0
  }
  param {
    lr_mult: 0
    decay_mult: 0
  }
  param {
    lr_mult: 0
    decay_mult: 0
  }
  include {
    phase: TRAIN
  }
  batch_norm_param {
    use_global_stats: false
    moving_average_fraction: 0.95
  }
}
layer {
  name: "scale1"
  type: "Scale"
  bottom: "conv1"
  top: "conv1"
  scale_param {
    bias_term: true
  }
}
layer {
  name: "relu1"
  type: "ReLU"
  bottom: "conv1"
  top: "conv1"
}
layer {
  name: "conv1_0"
  type: "Convolution"
  bottom: "conv1"
  top: "conv1_0"
  param {
    lr_mult: 1
  }
  convolution_param {
    num_output: 25
    bias_term: true
    pad: 1
    kernel_size: 3
    stride: 1
    weight_filler {
      type: "xavier"
    }
  }
}
layer {
  name: "bn1_0"
  type: "BatchNorm"
  bottom: "conv1_0"
  top: "conv1_0"
  param {
    lr_mult: 0
    decay_mult: 0
  }
  param {
    lr_mult: 0
    decay_mult: 0
  }
  param {
    lr_mult: 0
    decay_mult: 0
  }
  include {
    phase: TRAIN
  }
  batch_norm_param {
    use_global_stats: false
    moving_average_fraction: 0.95
  }
}
layer {
  name: "scale1_0"
  type: "Scale"
  bottom: "conv1_0"
  top: "conv1_0"
  scale_param {
    bias_term: true
  }
}
layer {
  name: "relu1_0"
  type: "ReLU"
  bottom: "conv1_0"
  top: "conv1_0"
}
layer {
  name: "conv2"
  type: "Convolution"
  bottom: "conv1_0"
  top: "conv2"
  param {
    lr_mult: 1
  }
  convolution_param {
    num_output: 25
    bias_term: true
    pad: 1
    kernel_size: 3
    stride: 1
    weight_filler {
      type: "gaussian"
      std: 0.01
    }
  }
}
layer {
  name: "bn2"
  type: "BatchNorm"
  bottom: "conv2"
  top: "conv2"
  param {
    lr_mult: 0
    decay_mult: 0
  }
  param {
    lr_mult: 0
    decay_mult: 0
  }
  param {
    lr_mult: 0
    decay_mult: 0
  }
  include {
    phase: TRAIN
  }
  batch_norm_param {
    use_global_stats: false
    moving_average_fraction: 0.95
  }
}
layer {
  name: "scale2"
  type: "Scale"
  bottom: "conv2"
  top: "conv2"
  scale_param {
    bias_term: true
  }
}
layer {
  name: "relu2"
  type: "ReLU"
  bottom: "conv2"
  top: "conv2"
}
layer {
  name: "conv2_1"
  type: "Convolution"
  bottom: "conv2"
  top: "conv2_1"
  param {
    lr_mult: 1
  }
  convolution_param {
    num_output: 25
    bias_term: true
    pad: 1
    kernel_size: 3
    stride: 1
    weight_filler {
      type: "gaussian"
      std: 0.01
    }
  }
}
layer {
  name: "bn2_1"
  type: "BatchNorm"
  bottom: "conv2_1"
  top: "conv2_1"
  param {
    lr_mult: 0
    decay_mult: 0
  }
  param {
    lr_mult: 0
    decay_mult: 0
  }
  param {
    lr_mult: 0
    decay_mult: 0
  }
  include {
    phase: TRAIN
  }
  batch_norm_param {
    use_global_stats: false
    moving_average_fraction: 0.95
  }
}
layer {
  name: "scale2_1"
  type: "Scale"
  bottom: "conv2_1"
  top: "conv2_1"
  scale_param {
    bias_term: true
  }
}
layer {
  name: "relu2_1"
  type: "ReLU"
  bottom: "conv2_1"
  top: "conv2_1"
}
layer {
  name: "conv2_2"
  type: "Convolution"
  bottom: "conv2_1"
  top: "conv2_2"
  param {
    lr_mult: 1
  }
  convolution_param {
    num_output: 25
    bias_term: true
    pad: 1
    kernel_size: 3
    stride: 1
    weight_filler {
      type: "gaussian"
      std: 0.01
    }
  }
}
layer {
  name: "bn2_2"
  type: "BatchNorm"
  bottom: "conv2_2"
  top: "conv2_2"
  param {
    lr_mult: 0
    decay_mult: 0
  }
  param {
    lr_mult: 0
    decay_mult: 0
  }
  param {
    lr_mult: 0
    decay_mult: 0
  }
  include {
    phase: TRAIN
  }
  batch_norm_param {
    use_global_stats: false
    moving_average_fraction: 0.95
  }
}
layer {
  name: "scale2_2"
  type: "Scale"
  bottom: "conv2_2"
  top: "conv2_2"
  scale_param {
    bias_term: true
  }
}
layer {
  name: "relu2_2"
  type: "ReLU"
  bottom: "conv2_2"
  top: "conv2_2"
}
layer {
  name: "pool2_1"
  type: "Pooling"
  bottom: "conv2_2"
  top: "pool2_1"
  pooling_param {
    pool: MAX
    kernel_size: 2
    stride: 2
  }
}
layer {
  name: "conv3"
  type: "Convolution"
  bottom: "pool2_1"
  top: "conv3"
  param {
    lr_mult: 1
  }
  convolution_param {
    num_output: 25
    bias_term: true
    pad: 1
    kernel_size: 3
    stride: 1
    weight_filler {
      type: "xavier"
    }
  }
}
layer {
  name: "bn3"
  type: "BatchNorm"
  bottom: "conv3"
  top: "conv3"
  param {
    lr_mult: 0
    decay_mult: 0
  }
  param {
    lr_mult: 0
    decay_mult: 0
  }
  param {
    lr_mult: 0
    decay_mult: 0
  }
  include {
    phase: TRAIN
  }
  batch_norm_param {
    use_global_stats: false
    moving_average_fraction: 0.95
  }
}
layer {
  name: "scale3"
  type: "Scale"
  bottom: "conv3"
  top: "conv3"
  scale_param {
    bias_term: true
  }
}
layer {
  name: "relu3"
  type: "ReLU"
  bottom: "conv3"
  top: "conv3"
}
layer {
  name: "conv4"
  type: "Convolution"
  bottom: "conv3"
  top: "conv4"
  param {
    lr_mult: 1
  }
  convolution_param {
    num_output: 25
    bias_term: true
    pad: 1
    kernel_size: 3
    stride: 1
    weight_filler {
      type: "xavier"
    }
  }
}
layer {
  name: "bn4"
  type: "BatchNorm"
  bottom: "conv4"
  top: "conv4"
  param {
    lr_mult: 0
    decay_mult: 0
  }
  param {
    lr_mult: 0
    decay_mult: 0
  }
  param {
    lr_mult: 0
    decay_mult: 0
  }
  include {
    phase: TRAIN
  }
  batch_norm_param {
    use_global_stats: false
    moving_average_fraction: 0.95
  }
}
layer {
  name: "scale4"
  type: "Scale"
  bottom: "conv4"
  top: "conv4"
  scale_param {
    bias_term: true
  }
}
layer {
  name: "relu4"
  type: "ReLU"
  bottom: "conv4"
  top: "conv4"
}
layer {
  name: "conv4_1"
  type: "Convolution"
  bottom: "conv4"
  top: "conv4_1"
  param {
    lr_mult: 1
  }
  convolution_param {
    num_output: 25
    bias_term: true
    pad: 1
    kernel_size: 3
    stride: 1
    weight_filler {
      type: "xavier"
    }
  }
}
layer {
  name: "bn4_1"
  type: "BatchNorm"
  bottom: "conv4_1"
  top: "conv4_1"
  param {
    lr_mult: 0
    decay_mult: 0
  }
  param {
    lr_mult: 0
    decay_mult: 0
  }
  param {
    lr_mult: 0
    decay_mult: 0
  }
  include {
    phase: TRAIN
  }
  batch_norm_param {
    use_global_stats: false
    moving_average_fraction: 0.95
  }
}
layer {
  name: "scale4_1"
  type: "Scale"
  bottom: "conv4_1"
  top: "conv4_1"
  scale_param {
    bias_term: true
  }
}
layer {
  name: "relu4_1"
  type: "ReLU"
  bottom: "conv4_1"
  top: "conv4_1"
}
layer {
  name: "conv4_2"
  type: "Convolution"
  bottom: "conv4_1"
  top: "conv4_2"
  param {
    lr_mult: 1
  }
  convolution_param {
    num_output: 64
    bias_term: true
    pad: 1
    kernel_size: 3
    stride: 1
    weight_filler {
      type: "xavier"
    }
  }
}
layer {
  name: "bn4_2"
  type: "BatchNorm"
  bottom: "conv4_2"
  top: "conv4_2"
  param {
    lr_mult: 0
    decay_mult: 0
  }
  param {
    lr_mult: 0
    decay_mult: 0
  }
  param {
    lr_mult: 0
    decay_mult: 0
  }
  include {
    phase: TRAIN
  }
  batch_norm_param {
    use_global_stats: false
    moving_average_fraction: 0.95
  }
}
layer {
  name: "scale4_2"
  type: "Scale"
  bottom: "conv4_2"
  top: "conv4_2"
  scale_param {
    bias_term: true
  }
}
layer {
  name: "relu4_2"
  type: "ReLU"
  bottom: "conv4_2"
  top: "conv4_2"
}
layer {
  name: "pool4_2"
  type: "Pooling"
  bottom: "conv4_2"
  top: "pool4_2"
  pooling_param {
    pool: MAX
    kernel_size: 2
    stride: 2
  }
}
layer {
  name: "conv4_0"
  type: "Convolution"
  bottom: "pool4_2"
  top: "conv4_0"
  param {
    lr_mult: 1
  }
  convolution_param {
    num_output: 64
    bias_term: true
    pad: 1
    kernel_size: 3
    stride: 1
    weight_filler {
      type: "xavier"
    }
  }
}
layer {
  name: "bn4_0"
  type: "BatchNorm"
  bottom: "conv4_0"
  top: "conv4_0"
  param {
    lr_mult: 0
    decay_mult: 0
  }
  param {
    lr_mult: 0
    decay_mult: 0
  }
  param {
    lr_mult: 0
    decay_mult: 0
  }
  include {
    phase: TRAIN
  }
  batch_norm_param {
    use_global_stats: false
    moving_average_fraction: 0.95
  }
}
layer {
  name: "scale4_0"
  type: "Scale"
  bottom: "conv4_0"
  top: "conv4_0"
  scale_param {
    bias_term: true
  }
}
layer {
  name: "relu4_0"
  type: "ReLU"
  bottom: "conv4_0"
  top: "conv4_0"
}
layer {
  name: "cccp4"
  type: "Convolution"
  bottom: "conv4_0"
  top: "cccp4"
  param {
    lr_mult: 1
    decay_mult: 1
  }
  param {
    lr_mult: 2
    decay_mult: 0
  }
  convolution_param {
    num_output: 64
    pad: 1
    kernel_size: 3
    weight_filler {
      type: "xavier"
    }
    bias_filler {
      type: "constant"
      value: 0
    }
  }
}
layer {
  name: "bn_cccp4"
  type: "BatchNorm"
  bottom: "cccp4"
  top: "cccp4"
  param {
    lr_mult: 0
    decay_mult: 0
  }
  param {
    lr_mult: 0
    decay_mult: 0
  }
  param {
    lr_mult: 0
    decay_mult: 0
  }
  include {
    phase: TRAIN
  }
  batch_norm_param {
    use_global_stats: false
    moving_average_fraction: 0.95
  }
}
layer {
  name: "scale_cccp4"
  type: "Scale"
  bottom: "cccp4"
  top: "cccp4"
  scale_param {
    bias_term: true
  }
}
layer {
  name: "relu_cccp4"
  type: "ReLU"
  bottom: "cccp4"
  top: "cccp4"
}
layer {
  name: "poolcp6"
  type: "Pooling"
  bottom: "cccp4"
  top: "poolcp6"
  pooling_param {
    pool: MAX
    global_pooling: true
  }
}
layer {
  name: "ip1"
  type: "InnerProduct"
  bottom: "poolcp6"
  top: "ip1"
  param {
    lr_mult: 1
    decay_mult: 0
  }
  param {
    lr_mult: 2
    decay_mult: 0
  }
  inner_product_param {
    num_output: 10
    weight_filler {
      type: "xavier"
    }
    bias_filler {
      type: "constant"
    }
  }
}
layer {
  name: "accuracy_training"
  type: "Accuracy"
  bottom: "ip1"
  bottom: "label"
  top: "accuracy_training"
  include {
    phase: TRAIN
  }
}
layer {
  name: "loss"
  type: "SoftmaxWithLoss"
  bottom: "ip1"
  bottom: "label"
  top: "loss"
}
I0629 23:41:46.175451 17428 layer_factory.cpp:58] Creating layer cifar
I0629 23:41:46.180469 17428 db_leveldb.cpp:18] Opened leveldb examples/cifar10/cifar10_train_leveldb_padding
I0629 23:41:46.180469 17428 net.cpp:84] Creating Layer cifar
I0629 23:41:46.180469 17428 net.cpp:380] cifar -> data
I0629 23:41:46.180469 17428 net.cpp:380] cifar -> label
I0629 23:41:46.180469 17428 common.cpp:36] System entropy source not available, using fallback algorithm to generate seed instead.
I0629 23:41:46.181469 17428 data_layer.cpp:45] output data size: 100,3,32,32
I0629 23:41:46.186467 17428 net.cpp:122] Setting up cifar
I0629 23:41:46.186467 17428 net.cpp:129] Top shape: 100 3 32 32 (307200)
I0629 23:41:46.186467 17428 net.cpp:129] Top shape: 100 (100)
I0629 23:41:46.186467 17428 net.cpp:137] Memory required for data: 1229200
I0629 23:41:46.186467 17428 layer_factory.cpp:58] Creating layer label_cifar_1_split
I0629 23:41:46.186467 17428 net.cpp:84] Creating Layer label_cifar_1_split
I0629 23:41:46.186467 17428 net.cpp:406] label_cifar_1_split <- label
I0629 23:41:46.186467 17428 net.cpp:380] label_cifar_1_split -> label_cifar_1_split_0
I0629 23:41:46.186467 17428 net.cpp:380] label_cifar_1_split -> label_cifar_1_split_1
I0629 23:41:46.186467 17428 net.cpp:122] Setting up label_cifar_1_split
I0629 23:41:46.186467 17428 net.cpp:129] Top shape: 100 (100)
I0629 23:41:46.186467 17428 net.cpp:129] Top shape: 100 (100)
I0629 23:41:46.186467 17428 net.cpp:137] Memory required for data: 1230000
I0629 23:41:46.186467 17428 layer_factory.cpp:58] Creating layer conv1
I0629 23:41:46.186467 17428 net.cpp:84] Creating Layer conv1
I0629 23:41:46.186467 17428 net.cpp:406] conv1 <- data
I0629 23:41:46.186467 17428 net.cpp:380] conv1 -> conv1
I0629 23:41:46.187459 17624 common.cpp:36] System entropy source not available, using fallback algorithm to generate seed instead.
I0629 23:41:46.431203 17428 net.cpp:122] Setting up conv1
I0629 23:41:46.431203 17428 net.cpp:129] Top shape: 100 20 32 32 (2048000)
I0629 23:41:46.431203 17428 net.cpp:137] Memory required for data: 9422000
I0629 23:41:46.431203 17428 layer_factory.cpp:58] Creating layer bn1
I0629 23:41:46.431203 17428 net.cpp:84] Creating Layer bn1
I0629 23:41:46.431203 17428 net.cpp:406] bn1 <- conv1
I0629 23:41:46.431203 17428 net.cpp:367] bn1 -> conv1 (in-place)
I0629 23:41:46.431203 17428 net.cpp:122] Setting up bn1
I0629 23:41:46.431203 17428 net.cpp:129] Top shape: 100 20 32 32 (2048000)
I0629 23:41:46.431203 17428 net.cpp:137] Memory required for data: 17614000
I0629 23:41:46.431203 17428 layer_factory.cpp:58] Creating layer scale1
I0629 23:41:46.431203 17428 net.cpp:84] Creating Layer scale1
I0629 23:41:46.431203 17428 net.cpp:406] scale1 <- conv1
I0629 23:41:46.431203 17428 net.cpp:367] scale1 -> conv1 (in-place)
I0629 23:41:46.431203 17428 layer_factory.cpp:58] Creating layer scale1
I0629 23:41:46.431203 17428 net.cpp:122] Setting up scale1
I0629 23:41:46.431203 17428 net.cpp:129] Top shape: 100 20 32 32 (2048000)
I0629 23:41:46.431203 17428 net.cpp:137] Memory required for data: 25806000
I0629 23:41:46.431706 17428 layer_factory.cpp:58] Creating layer relu1
I0629 23:41:46.431706 17428 net.cpp:84] Creating Layer relu1
I0629 23:41:46.431706 17428 net.cpp:406] relu1 <- conv1
I0629 23:41:46.431706 17428 net.cpp:367] relu1 -> conv1 (in-place)
I0629 23:41:46.431706 17428 net.cpp:122] Setting up relu1
I0629 23:41:46.431706 17428 net.cpp:129] Top shape: 100 20 32 32 (2048000)
I0629 23:41:46.431706 17428 net.cpp:137] Memory required for data: 33998000
I0629 23:41:46.431706 17428 layer_factory.cpp:58] Creating layer conv1_0
I0629 23:41:46.431706 17428 net.cpp:84] Creating Layer conv1_0
I0629 23:41:46.431706 17428 net.cpp:406] conv1_0 <- conv1
I0629 23:41:46.431706 17428 net.cpp:380] conv1_0 -> conv1_0
I0629 23:41:46.433207 17428 net.cpp:122] Setting up conv1_0
I0629 23:41:46.433207 17428 net.cpp:129] Top shape: 100 25 32 32 (2560000)
I0629 23:41:46.433207 17428 net.cpp:137] Memory required for data: 44238000
I0629 23:41:46.433207 17428 layer_factory.cpp:58] Creating layer bn1_0
I0629 23:41:46.433207 17428 net.cpp:84] Creating Layer bn1_0
I0629 23:41:46.433207 17428 net.cpp:406] bn1_0 <- conv1_0
I0629 23:41:46.433207 17428 net.cpp:367] bn1_0 -> conv1_0 (in-place)
I0629 23:41:46.433707 17428 net.cpp:122] Setting up bn1_0
I0629 23:41:46.433707 17428 net.cpp:129] Top shape: 100 25 32 32 (2560000)
I0629 23:41:46.433707 17428 net.cpp:137] Memory required for data: 54478000
I0629 23:41:46.433707 17428 layer_factory.cpp:58] Creating layer scale1_0
I0629 23:41:46.433707 17428 net.cpp:84] Creating Layer scale1_0
I0629 23:41:46.433707 17428 net.cpp:406] scale1_0 <- conv1_0
I0629 23:41:46.433707 17428 net.cpp:367] scale1_0 -> conv1_0 (in-place)
I0629 23:41:46.433707 17428 layer_factory.cpp:58] Creating layer scale1_0
I0629 23:41:46.433707 17428 net.cpp:122] Setting up scale1_0
I0629 23:41:46.433707 17428 net.cpp:129] Top shape: 100 25 32 32 (2560000)
I0629 23:41:46.433707 17428 net.cpp:137] Memory required for data: 64718000
I0629 23:41:46.433707 17428 layer_factory.cpp:58] Creating layer relu1_0
I0629 23:41:46.433707 17428 net.cpp:84] Creating Layer relu1_0
I0629 23:41:46.433707 17428 net.cpp:406] relu1_0 <- conv1_0
I0629 23:41:46.433707 17428 net.cpp:367] relu1_0 -> conv1_0 (in-place)
I0629 23:41:46.434208 17428 net.cpp:122] Setting up relu1_0
I0629 23:41:46.434208 17428 net.cpp:129] Top shape: 100 25 32 32 (2560000)
I0629 23:41:46.434208 17428 net.cpp:137] Memory required for data: 74958000
I0629 23:41:46.434208 17428 layer_factory.cpp:58] Creating layer conv2
I0629 23:41:46.434208 17428 net.cpp:84] Creating Layer conv2
I0629 23:41:46.434208 17428 net.cpp:406] conv2 <- conv1_0
I0629 23:41:46.434208 17428 net.cpp:380] conv2 -> conv2
I0629 23:41:46.434708 17428 net.cpp:122] Setting up conv2
I0629 23:41:46.434708 17428 net.cpp:129] Top shape: 100 25 32 32 (2560000)
I0629 23:41:46.435209 17428 net.cpp:137] Memory required for data: 85198000
I0629 23:41:46.435209 17428 layer_factory.cpp:58] Creating layer bn2
I0629 23:41:46.435209 17428 net.cpp:84] Creating Layer bn2
I0629 23:41:46.435209 17428 net.cpp:406] bn2 <- conv2
I0629 23:41:46.435209 17428 net.cpp:367] bn2 -> conv2 (in-place)
I0629 23:41:46.435209 17428 net.cpp:122] Setting up bn2
I0629 23:41:46.435209 17428 net.cpp:129] Top shape: 100 25 32 32 (2560000)
I0629 23:41:46.435209 17428 net.cpp:137] Memory required for data: 95438000
I0629 23:41:46.435209 17428 layer_factory.cpp:58] Creating layer scale2
I0629 23:41:46.435209 17428 net.cpp:84] Creating Layer scale2
I0629 23:41:46.435209 17428 net.cpp:406] scale2 <- conv2
I0629 23:41:46.435209 17428 net.cpp:367] scale2 -> conv2 (in-place)
I0629 23:41:46.435209 17428 layer_factory.cpp:58] Creating layer scale2
I0629 23:41:46.435209 17428 net.cpp:122] Setting up scale2
I0629 23:41:46.435209 17428 net.cpp:129] Top shape: 100 25 32 32 (2560000)
I0629 23:41:46.435209 17428 net.cpp:137] Memory required for data: 105678000
I0629 23:41:46.435209 17428 layer_factory.cpp:58] Creating layer relu2
I0629 23:41:46.435209 17428 net.cpp:84] Creating Layer relu2
I0629 23:41:46.435209 17428 net.cpp:406] relu2 <- conv2
I0629 23:41:46.435209 17428 net.cpp:367] relu2 -> conv2 (in-place)
I0629 23:41:46.435866 17428 net.cpp:122] Setting up relu2
I0629 23:41:46.435866 17428 net.cpp:129] Top shape: 100 25 32 32 (2560000)
I0629 23:41:46.435866 17428 net.cpp:137] Memory required for data: 115918000
I0629 23:41:46.435866 17428 layer_factory.cpp:58] Creating layer conv2_1
I0629 23:41:46.435866 17428 net.cpp:84] Creating Layer conv2_1
I0629 23:41:46.435866 17428 net.cpp:406] conv2_1 <- conv2
I0629 23:41:46.435866 17428 net.cpp:380] conv2_1 -> conv2_1
I0629 23:41:46.436868 17428 net.cpp:122] Setting up conv2_1
I0629 23:41:46.436868 17428 net.cpp:129] Top shape: 100 25 32 32 (2560000)
I0629 23:41:46.436868 17428 net.cpp:137] Memory required for data: 126158000
I0629 23:41:46.436868 17428 layer_factory.cpp:58] Creating layer bn2_1
I0629 23:41:46.436868 17428 net.cpp:84] Creating Layer bn2_1
I0629 23:41:46.436868 17428 net.cpp:406] bn2_1 <- conv2_1
I0629 23:41:46.436868 17428 net.cpp:367] bn2_1 -> conv2_1 (in-place)
I0629 23:41:46.436868 17428 net.cpp:122] Setting up bn2_1
I0629 23:41:46.436868 17428 net.cpp:129] Top shape: 100 25 32 32 (2560000)
I0629 23:41:46.436868 17428 net.cpp:137] Memory required for data: 136398000
I0629 23:41:46.436868 17428 layer_factory.cpp:58] Creating layer scale2_1
I0629 23:41:46.436868 17428 net.cpp:84] Creating Layer scale2_1
I0629 23:41:46.436868 17428 net.cpp:406] scale2_1 <- conv2_1
I0629 23:41:46.436868 17428 net.cpp:367] scale2_1 -> conv2_1 (in-place)
I0629 23:41:46.436868 17428 layer_factory.cpp:58] Creating layer scale2_1
I0629 23:41:46.437368 17428 net.cpp:122] Setting up scale2_1
I0629 23:41:46.437368 17428 net.cpp:129] Top shape: 100 25 32 32 (2560000)
I0629 23:41:46.437368 17428 net.cpp:137] Memory required for data: 146638000
I0629 23:41:46.437368 17428 layer_factory.cpp:58] Creating layer relu2_1
I0629 23:41:46.437368 17428 net.cpp:84] Creating Layer relu2_1
I0629 23:41:46.437368 17428 net.cpp:406] relu2_1 <- conv2_1
I0629 23:41:46.437368 17428 net.cpp:367] relu2_1 -> conv2_1 (in-place)
I0629 23:41:46.437368 17428 net.cpp:122] Setting up relu2_1
I0629 23:41:46.437368 17428 net.cpp:129] Top shape: 100 25 32 32 (2560000)
I0629 23:41:46.437368 17428 net.cpp:137] Memory required for data: 156878000
I0629 23:41:46.437368 17428 layer_factory.cpp:58] Creating layer conv2_2
I0629 23:41:46.437368 17428 net.cpp:84] Creating Layer conv2_2
I0629 23:41:46.437368 17428 net.cpp:406] conv2_2 <- conv2_1
I0629 23:41:46.437368 17428 net.cpp:380] conv2_2 -> conv2_2
I0629 23:41:46.438370 17428 net.cpp:122] Setting up conv2_2
I0629 23:41:46.438370 17428 net.cpp:129] Top shape: 100 25 32 32 (2560000)
I0629 23:41:46.438370 17428 net.cpp:137] Memory required for data: 167118000
I0629 23:41:46.438370 17428 layer_factory.cpp:58] Creating layer bn2_2
I0629 23:41:46.438370 17428 net.cpp:84] Creating Layer bn2_2
I0629 23:41:46.438370 17428 net.cpp:406] bn2_2 <- conv2_2
I0629 23:41:46.438370 17428 net.cpp:367] bn2_2 -> conv2_2 (in-place)
I0629 23:41:46.438869 17428 net.cpp:122] Setting up bn2_2
I0629 23:41:46.438869 17428 net.cpp:129] Top shape: 100 25 32 32 (2560000)
I0629 23:41:46.438869 17428 net.cpp:137] Memory required for data: 177358000
I0629 23:41:46.438869 17428 layer_factory.cpp:58] Creating layer scale2_2
I0629 23:41:46.438869 17428 net.cpp:84] Creating Layer scale2_2
I0629 23:41:46.438869 17428 net.cpp:406] scale2_2 <- conv2_2
I0629 23:41:46.438869 17428 net.cpp:367] scale2_2 -> conv2_2 (in-place)
I0629 23:41:46.438869 17428 layer_factory.cpp:58] Creating layer scale2_2
I0629 23:41:46.438869 17428 net.cpp:122] Setting up scale2_2
I0629 23:41:46.438869 17428 net.cpp:129] Top shape: 100 25 32 32 (2560000)
I0629 23:41:46.438869 17428 net.cpp:137] Memory required for data: 187598000
I0629 23:41:46.438869 17428 layer_factory.cpp:58] Creating layer relu2_2
I0629 23:41:46.438869 17428 net.cpp:84] Creating Layer relu2_2
I0629 23:41:46.438869 17428 net.cpp:406] relu2_2 <- conv2_2
I0629 23:41:46.438869 17428 net.cpp:367] relu2_2 -> conv2_2 (in-place)
I0629 23:41:46.438869 17428 net.cpp:122] Setting up relu2_2
I0629 23:41:46.438869 17428 net.cpp:129] Top shape: 100 25 32 32 (2560000)
I0629 23:41:46.438869 17428 net.cpp:137] Memory required for data: 197838000
I0629 23:41:46.438869 17428 layer_factory.cpp:58] Creating layer pool2_1
I0629 23:41:46.438869 17428 net.cpp:84] Creating Layer pool2_1
I0629 23:41:46.438869 17428 net.cpp:406] pool2_1 <- conv2_2
I0629 23:41:46.438869 17428 net.cpp:380] pool2_1 -> pool2_1
I0629 23:41:46.438869 17428 net.cpp:122] Setting up pool2_1
I0629 23:41:46.438869 17428 net.cpp:129] Top shape: 100 25 16 16 (640000)
I0629 23:41:46.438869 17428 net.cpp:137] Memory required for data: 200398000
I0629 23:41:46.438869 17428 layer_factory.cpp:58] Creating layer conv3
I0629 23:41:46.438869 17428 net.cpp:84] Creating Layer conv3
I0629 23:41:46.439370 17428 net.cpp:406] conv3 <- pool2_1
I0629 23:41:46.439370 17428 net.cpp:380] conv3 -> conv3
I0629 23:41:46.440371 17428 net.cpp:122] Setting up conv3
I0629 23:41:46.440371 17428 net.cpp:129] Top shape: 100 25 16 16 (640000)
I0629 23:41:46.440371 17428 net.cpp:137] Memory required for data: 202958000
I0629 23:41:46.440371 17428 layer_factory.cpp:58] Creating layer bn3
I0629 23:41:46.440371 17428 net.cpp:84] Creating Layer bn3
I0629 23:41:46.440371 17428 net.cpp:406] bn3 <- conv3
I0629 23:41:46.440371 17428 net.cpp:367] bn3 -> conv3 (in-place)
I0629 23:41:46.440871 17428 net.cpp:122] Setting up bn3
I0629 23:41:46.440871 17428 net.cpp:129] Top shape: 100 25 16 16 (640000)
I0629 23:41:46.440871 17428 net.cpp:137] Memory required for data: 205518000
I0629 23:41:46.440871 17428 layer_factory.cpp:58] Creating layer scale3
I0629 23:41:46.440871 17428 net.cpp:84] Creating Layer scale3
I0629 23:41:46.440871 17428 net.cpp:406] scale3 <- conv3
I0629 23:41:46.440871 17428 net.cpp:367] scale3 -> conv3 (in-place)
I0629 23:41:46.440871 17428 layer_factory.cpp:58] Creating layer scale3
I0629 23:41:46.440871 17428 net.cpp:122] Setting up scale3
I0629 23:41:46.440871 17428 net.cpp:129] Top shape: 100 25 16 16 (640000)
I0629 23:41:46.440871 17428 net.cpp:137] Memory required for data: 208078000
I0629 23:41:46.440871 17428 layer_factory.cpp:58] Creating layer relu3
I0629 23:41:46.440871 17428 net.cpp:84] Creating Layer relu3
I0629 23:41:46.440871 17428 net.cpp:406] relu3 <- conv3
I0629 23:41:46.440871 17428 net.cpp:367] relu3 -> conv3 (in-place)
I0629 23:41:46.440871 17428 net.cpp:122] Setting up relu3
I0629 23:41:46.440871 17428 net.cpp:129] Top shape: 100 25 16 16 (640000)
I0629 23:41:46.440871 17428 net.cpp:137] Memory required for data: 210638000
I0629 23:41:46.440871 17428 layer_factory.cpp:58] Creating layer conv4
I0629 23:41:46.440871 17428 net.cpp:84] Creating Layer conv4
I0629 23:41:46.441371 17428 net.cpp:406] conv4 <- conv3
I0629 23:41:46.441371 17428 net.cpp:380] conv4 -> conv4
I0629 23:41:46.442311 17428 net.cpp:122] Setting up conv4
I0629 23:41:46.442311 17428 net.cpp:129] Top shape: 100 25 16 16 (640000)
I0629 23:41:46.442311 17428 net.cpp:137] Memory required for data: 213198000
I0629 23:41:46.442311 17428 layer_factory.cpp:58] Creating layer bn4
I0629 23:41:46.442311 17428 net.cpp:84] Creating Layer bn4
I0629 23:41:46.442311 17428 net.cpp:406] bn4 <- conv4
I0629 23:41:46.442311 17428 net.cpp:367] bn4 -> conv4 (in-place)
I0629 23:41:46.442311 17428 net.cpp:122] Setting up bn4
I0629 23:41:46.442311 17428 net.cpp:129] Top shape: 100 25 16 16 (640000)
I0629 23:41:46.442311 17428 net.cpp:137] Memory required for data: 215758000
I0629 23:41:46.442311 17428 layer_factory.cpp:58] Creating layer scale4
I0629 23:41:46.442311 17428 net.cpp:84] Creating Layer scale4
I0629 23:41:46.442311 17428 net.cpp:406] scale4 <- conv4
I0629 23:41:46.442311 17428 net.cpp:367] scale4 -> conv4 (in-place)
I0629 23:41:46.442311 17428 layer_factory.cpp:58] Creating layer scale4
I0629 23:41:46.442311 17428 net.cpp:122] Setting up scale4
I0629 23:41:46.442311 17428 net.cpp:129] Top shape: 100 25 16 16 (640000)
I0629 23:41:46.442311 17428 net.cpp:137] Memory required for data: 218318000
I0629 23:41:46.442311 17428 layer_factory.cpp:58] Creating layer relu4
I0629 23:41:46.442811 17428 net.cpp:84] Creating Layer relu4
I0629 23:41:46.442811 17428 net.cpp:406] relu4 <- conv4
I0629 23:41:46.442811 17428 net.cpp:367] relu4 -> conv4 (in-place)
I0629 23:41:46.442811 17428 net.cpp:122] Setting up relu4
I0629 23:41:46.442811 17428 net.cpp:129] Top shape: 100 25 16 16 (640000)
I0629 23:41:46.442811 17428 net.cpp:137] Memory required for data: 220878000
I0629 23:41:46.442811 17428 layer_factory.cpp:58] Creating layer conv4_1
I0629 23:41:46.442811 17428 net.cpp:84] Creating Layer conv4_1
I0629 23:41:46.442811 17428 net.cpp:406] conv4_1 <- conv4
I0629 23:41:46.442811 17428 net.cpp:380] conv4_1 -> conv4_1
I0629 23:41:46.443812 17428 net.cpp:122] Setting up conv4_1
I0629 23:41:46.443812 17428 net.cpp:129] Top shape: 100 25 16 16 (640000)
I0629 23:41:46.443812 17428 net.cpp:137] Memory required for data: 223438000
I0629 23:41:46.443812 17428 layer_factory.cpp:58] Creating layer bn4_1
I0629 23:41:46.444313 17428 net.cpp:84] Creating Layer bn4_1
I0629 23:41:46.444313 17428 net.cpp:406] bn4_1 <- conv4_1
I0629 23:41:46.444313 17428 net.cpp:367] bn4_1 -> conv4_1 (in-place)
I0629 23:41:46.444313 17428 net.cpp:122] Setting up bn4_1
I0629 23:41:46.444313 17428 net.cpp:129] Top shape: 100 25 16 16 (640000)
I0629 23:41:46.444313 17428 net.cpp:137] Memory required for data: 225998000
I0629 23:41:46.444313 17428 layer_factory.cpp:58] Creating layer scale4_1
I0629 23:41:46.444313 17428 net.cpp:84] Creating Layer scale4_1
I0629 23:41:46.444313 17428 net.cpp:406] scale4_1 <- conv4_1
I0629 23:41:46.444313 17428 net.cpp:367] scale4_1 -> conv4_1 (in-place)
I0629 23:41:46.444313 17428 layer_factory.cpp:58] Creating layer scale4_1
I0629 23:41:46.444313 17428 net.cpp:122] Setting up scale4_1
I0629 23:41:46.444313 17428 net.cpp:129] Top shape: 100 25 16 16 (640000)
I0629 23:41:46.444313 17428 net.cpp:137] Memory required for data: 228558000
I0629 23:41:46.444313 17428 layer_factory.cpp:58] Creating layer relu4_1
I0629 23:41:46.444313 17428 net.cpp:84] Creating Layer relu4_1
I0629 23:41:46.444313 17428 net.cpp:406] relu4_1 <- conv4_1
I0629 23:41:46.444313 17428 net.cpp:367] relu4_1 -> conv4_1 (in-place)
I0629 23:41:46.444813 17428 net.cpp:122] Setting up relu4_1
I0629 23:41:46.444813 17428 net.cpp:129] Top shape: 100 25 16 16 (640000)
I0629 23:41:46.444813 17428 net.cpp:137] Memory required for data: 231118000
I0629 23:41:46.444813 17428 layer_factory.cpp:58] Creating layer conv4_2
I0629 23:41:46.444813 17428 net.cpp:84] Creating Layer conv4_2
I0629 23:41:46.444813 17428 net.cpp:406] conv4_2 <- conv4_1
I0629 23:41:46.444813 17428 net.cpp:380] conv4_2 -> conv4_2
I0629 23:41:46.445813 17428 net.cpp:122] Setting up conv4_2
I0629 23:41:46.445813 17428 net.cpp:129] Top shape: 100 64 16 16 (1638400)
I0629 23:41:46.445813 17428 net.cpp:137] Memory required for data: 237671600
I0629 23:41:46.445813 17428 layer_factory.cpp:58] Creating layer bn4_2
I0629 23:41:46.445813 17428 net.cpp:84] Creating Layer bn4_2
I0629 23:41:46.445813 17428 net.cpp:406] bn4_2 <- conv4_2
I0629 23:41:46.445813 17428 net.cpp:367] bn4_2 -> conv4_2 (in-place)
I0629 23:41:46.445813 17428 net.cpp:122] Setting up bn4_2
I0629 23:41:46.445813 17428 net.cpp:129] Top shape: 100 64 16 16 (1638400)
I0629 23:41:46.445813 17428 net.cpp:137] Memory required for data: 244225200
I0629 23:41:46.445813 17428 layer_factory.cpp:58] Creating layer scale4_2
I0629 23:41:46.445813 17428 net.cpp:84] Creating Layer scale4_2
I0629 23:41:46.445813 17428 net.cpp:406] scale4_2 <- conv4_2
I0629 23:41:46.445813 17428 net.cpp:367] scale4_2 -> conv4_2 (in-place)
I0629 23:41:46.445813 17428 layer_factory.cpp:58] Creating layer scale4_2
I0629 23:41:46.446315 17428 net.cpp:122] Setting up scale4_2
I0629 23:41:46.446315 17428 net.cpp:129] Top shape: 100 64 16 16 (1638400)
I0629 23:41:46.446315 17428 net.cpp:137] Memory required for data: 250778800
I0629 23:41:46.446315 17428 layer_factory.cpp:58] Creating layer relu4_2
I0629 23:41:46.446315 17428 net.cpp:84] Creating Layer relu4_2
I0629 23:41:46.446315 17428 net.cpp:406] relu4_2 <- conv4_2
I0629 23:41:46.446315 17428 net.cpp:367] relu4_2 -> conv4_2 (in-place)
I0629 23:41:46.446815 17428 net.cpp:122] Setting up relu4_2
I0629 23:41:46.446815 17428 net.cpp:129] Top shape: 100 64 16 16 (1638400)
I0629 23:41:46.446815 17428 net.cpp:137] Memory required for data: 257332400
I0629 23:41:46.446815 17428 layer_factory.cpp:58] Creating layer pool4_2
I0629 23:41:46.446815 17428 net.cpp:84] Creating Layer pool4_2
I0629 23:41:46.446815 17428 net.cpp:406] pool4_2 <- conv4_2
I0629 23:41:46.446815 17428 net.cpp:380] pool4_2 -> pool4_2
I0629 23:41:46.446815 17428 net.cpp:122] Setting up pool4_2
I0629 23:41:46.446815 17428 net.cpp:129] Top shape: 100 64 8 8 (409600)
I0629 23:41:46.446815 17428 net.cpp:137] Memory required for data: 258970800
I0629 23:41:46.446815 17428 layer_factory.cpp:58] Creating layer conv4_0
I0629 23:41:46.446815 17428 net.cpp:84] Creating Layer conv4_0
I0629 23:41:46.446815 17428 net.cpp:406] conv4_0 <- pool4_2
I0629 23:41:46.446815 17428 net.cpp:380] conv4_0 -> conv4_0
I0629 23:41:46.448317 17428 net.cpp:122] Setting up conv4_0
I0629 23:41:46.448815 17428 net.cpp:129] Top shape: 100 64 8 8 (409600)
I0629 23:41:46.448815 17428 net.cpp:137] Memory required for data: 260609200
I0629 23:41:46.448815 17428 layer_factory.cpp:58] Creating layer bn4_0
I0629 23:41:46.448815 17428 net.cpp:84] Creating Layer bn4_0
I0629 23:41:46.448815 17428 net.cpp:406] bn4_0 <- conv4_0
I0629 23:41:46.448815 17428 net.cpp:367] bn4_0 -> conv4_0 (in-place)
I0629 23:41:46.448815 17428 net.cpp:122] Setting up bn4_0
I0629 23:41:46.448815 17428 net.cpp:129] Top shape: 100 64 8 8 (409600)
I0629 23:41:46.448815 17428 net.cpp:137] Memory required for data: 262247600
I0629 23:41:46.448815 17428 layer_factory.cpp:58] Creating layer scale4_0
I0629 23:41:46.448815 17428 net.cpp:84] Creating Layer scale4_0
I0629 23:41:46.448815 17428 net.cpp:406] scale4_0 <- conv4_0
I0629 23:41:46.448815 17428 net.cpp:367] scale4_0 -> conv4_0 (in-place)
I0629 23:41:46.448815 17428 layer_factory.cpp:58] Creating layer scale4_0
I0629 23:41:46.448815 17428 net.cpp:122] Setting up scale4_0
I0629 23:41:46.448815 17428 net.cpp:129] Top shape: 100 64 8 8 (409600)
I0629 23:41:46.448815 17428 net.cpp:137] Memory required for data: 263886000
I0629 23:41:46.448815 17428 layer_factory.cpp:58] Creating layer relu4_0
I0629 23:41:46.448815 17428 net.cpp:84] Creating Layer relu4_0
I0629 23:41:46.448815 17428 net.cpp:406] relu4_0 <- conv4_0
I0629 23:41:46.448815 17428 net.cpp:367] relu4_0 -> conv4_0 (in-place)
I0629 23:41:46.449316 17428 net.cpp:122] Setting up relu4_0
I0629 23:41:46.449316 17428 net.cpp:129] Top shape: 100 64 8 8 (409600)
I0629 23:41:46.449316 17428 net.cpp:137] Memory required for data: 265524400
I0629 23:41:46.449316 17428 layer_factory.cpp:58] Creating layer cccp4
I0629 23:41:46.449316 17428 net.cpp:84] Creating Layer cccp4
I0629 23:41:46.449316 17428 net.cpp:406] cccp4 <- conv4_0
I0629 23:41:46.449316 17428 net.cpp:380] cccp4 -> cccp4
I0629 23:41:46.450316 17428 net.cpp:122] Setting up cccp4
I0629 23:41:46.450316 17428 net.cpp:129] Top shape: 100 64 8 8 (409600)
I0629 23:41:46.450316 17428 net.cpp:137] Memory required for data: 267162800
I0629 23:41:46.450316 17428 layer_factory.cpp:58] Creating layer bn_cccp4
I0629 23:41:46.450316 17428 net.cpp:84] Creating Layer bn_cccp4
I0629 23:41:46.450316 17428 net.cpp:406] bn_cccp4 <- cccp4
I0629 23:41:46.450316 17428 net.cpp:367] bn_cccp4 -> cccp4 (in-place)
I0629 23:41:46.450316 17428 net.cpp:122] Setting up bn_cccp4
I0629 23:41:46.450316 17428 net.cpp:129] Top shape: 100 64 8 8 (409600)
I0629 23:41:46.450316 17428 net.cpp:137] Memory required for data: 268801200
I0629 23:41:46.450316 17428 layer_factory.cpp:58] Creating layer scale_cccp4
I0629 23:41:46.450316 17428 net.cpp:84] Creating Layer scale_cccp4
I0629 23:41:46.450316 17428 net.cpp:406] scale_cccp4 <- cccp4
I0629 23:41:46.450316 17428 net.cpp:367] scale_cccp4 -> cccp4 (in-place)
I0629 23:41:46.450817 17428 layer_factory.cpp:58] Creating layer scale_cccp4
I0629 23:41:46.450817 17428 net.cpp:122] Setting up scale_cccp4
I0629 23:41:46.450817 17428 net.cpp:129] Top shape: 100 64 8 8 (409600)
I0629 23:41:46.450817 17428 net.cpp:137] Memory required for data: 270439600
I0629 23:41:46.450817 17428 layer_factory.cpp:58] Creating layer relu_cccp4
I0629 23:41:46.450817 17428 net.cpp:84] Creating Layer relu_cccp4
I0629 23:41:46.450817 17428 net.cpp:406] relu_cccp4 <- cccp4
I0629 23:41:46.450817 17428 net.cpp:367] relu_cccp4 -> cccp4 (in-place)
I0629 23:41:46.450817 17428 net.cpp:122] Setting up relu_cccp4
I0629 23:41:46.450817 17428 net.cpp:129] Top shape: 100 64 8 8 (409600)
I0629 23:41:46.450817 17428 net.cpp:137] Memory required for data: 272078000
I0629 23:41:46.450817 17428 layer_factory.cpp:58] Creating layer poolcp6
I0629 23:41:46.450817 17428 net.cpp:84] Creating Layer poolcp6
I0629 23:41:46.450817 17428 net.cpp:406] poolcp6 <- cccp4
I0629 23:41:46.450817 17428 net.cpp:380] poolcp6 -> poolcp6
I0629 23:41:46.450817 17428 net.cpp:122] Setting up poolcp6
I0629 23:41:46.450817 17428 net.cpp:129] Top shape: 100 64 1 1 (6400)
I0629 23:41:46.450817 17428 net.cpp:137] Memory required for data: 272103600
I0629 23:41:46.450817 17428 layer_factory.cpp:58] Creating layer ip1
I0629 23:41:46.450817 17428 net.cpp:84] Creating Layer ip1
I0629 23:41:46.450817 17428 net.cpp:406] ip1 <- poolcp6
I0629 23:41:46.450817 17428 net.cpp:380] ip1 -> ip1
I0629 23:41:46.451318 17428 net.cpp:122] Setting up ip1
I0629 23:41:46.451318 17428 net.cpp:129] Top shape: 100 10 (1000)
I0629 23:41:46.451318 17428 net.cpp:137] Memory required for data: 272107600
I0629 23:41:46.451318 17428 layer_factory.cpp:58] Creating layer ip1_ip1_0_split
I0629 23:41:46.451318 17428 net.cpp:84] Creating Layer ip1_ip1_0_split
I0629 23:41:46.451318 17428 net.cpp:406] ip1_ip1_0_split <- ip1
I0629 23:41:46.451318 17428 net.cpp:380] ip1_ip1_0_split -> ip1_ip1_0_split_0
I0629 23:41:46.451318 17428 net.cpp:380] ip1_ip1_0_split -> ip1_ip1_0_split_1
I0629 23:41:46.451318 17428 net.cpp:122] Setting up ip1_ip1_0_split
I0629 23:41:46.451318 17428 net.cpp:129] Top shape: 100 10 (1000)
I0629 23:41:46.451318 17428 net.cpp:129] Top shape: 100 10 (1000)
I0629 23:41:46.451318 17428 net.cpp:137] Memory required for data: 272115600
I0629 23:41:46.451318 17428 layer_factory.cpp:58] Creating layer accuracy_training
I0629 23:41:46.451318 17428 net.cpp:84] Creating Layer accuracy_training
I0629 23:41:46.451318 17428 net.cpp:406] accuracy_training <- ip1_ip1_0_split_0
I0629 23:41:46.451318 17428 net.cpp:406] accuracy_training <- label_cifar_1_split_0
…
