…
I0629 11:54:38.316440 14716 net.cpp:294] The NetState phase (0) differed from the phase (1) specified by a rule in layer accuracy
I0629 11:54:38.316440 14716 net.cpp:51] Initializing net from parameters: 
name: "CIFAR10_SimpleNet_GP_13L_128K_t2"
state {
  phase: TRAIN
  level: 0
  stage: ""
}
layer {
  name: "cifar"
  type: "Data"
  top: "data"
  top: "label"
  include {
    phase: TRAIN
  }
  transform_param {
    mirror: true
    crop_size: 32
  }
  data_param {
    source: "examples/cifar10/cifar10_train_leveldb_padding"
    batch_size: 100
    backend: LEVELDB
  }
}
layer {
  name: "conv1"
  type: "Convolution"
  bottom: "data"
  top: "conv1"
  param {
    lr_mult: 1
  }
  convolution_param {
    num_output: 19
    bias_term: true
    pad: 1
    kernel_size: 3
    stride: 1
    weight_filler {
      type: "xavier"
    }
  }
}
layer {
  name: "bn1"
  type: "BatchNorm"
  bottom: "conv1"
  top: "conv1"
  param {
    lr_mult: 0
    decay_mult: 0
  }
  param {
    lr_mult: 0
    decay_mult: 0
  }
  param {
    lr_mult: 0
    decay_mult: 0
  }
  include {
    phase: TRAIN
  }
  batch_norm_param {
    use_global_stats: false
    moving_average_fraction: 0.95
  }
}
layer {
  name: "scale1"
  type: "Scale"
  bottom: "conv1"
  top: "conv1"
  scale_param {
    bias_term: true
  }
}
layer {
  name: "relu1"
  type: "ReLU"
  bottom: "conv1"
  top: "conv1"
}
layer {
  name: "conv1_0"
  type: "Convolution"
  bottom: "conv1"
  top: "conv1_0"
  param {
    lr_mult: 1
  }
  convolution_param {
    num_output: 25
    bias_term: true
    pad: 1
    kernel_size: 3
    stride: 1
    weight_filler {
      type: "xavier"
    }
  }
}
layer {
  name: "bn1_0"
  type: "BatchNorm"
  bottom: "conv1_0"
  top: "conv1_0"
  param {
    lr_mult: 0
    decay_mult: 0
  }
  param {
    lr_mult: 0
    decay_mult: 0
  }
  param {
    lr_mult: 0
    decay_mult: 0
  }
  include {
    phase: TRAIN
  }
  batch_norm_param {
    use_global_stats: false
    moving_average_fraction: 0.95
  }
}
layer {
  name: "scale1_0"
  type: "Scale"
  bottom: "conv1_0"
  top: "conv1_0"
  scale_param {
    bias_term: true
  }
}
layer {
  name: "relu1_0"
  type: "ReLU"
  bottom: "conv1_0"
  top: "conv1_0"
}
layer {
  name: "conv2"
  type: "Convolution"
  bottom: "conv1_0"
  top: "conv2"
  param {
    lr_mult: 1
  }
  convolution_param {
    num_output: 25
    bias_term: true
    pad: 1
    kernel_size: 3
    stride: 1
    weight_filler {
      type: "gaussian"
      std: 0.01
    }
  }
}
layer {
  name: "bn2"
  type: "BatchNorm"
  bottom: "conv2"
  top: "conv2"
  param {
    lr_mult: 0
    decay_mult: 0
  }
  param {
    lr_mult: 0
    decay_mult: 0
  }
  param {
    lr_mult: 0
    decay_mult: 0
  }
  include {
    phase: TRAIN
  }
  batch_norm_param {
    use_global_stats: false
    moving_average_fraction: 0.95
  }
}
layer {
  name: "scale2"
  type: "Scale"
  bottom: "conv2"
  top: "conv2"
  scale_param {
    bias_term: true
  }
}
layer {
  name: "relu2"
  type: "ReLU"
  bottom: "conv2"
  top: "conv2"
}
layer {
  name: "conv2_1"
  type: "Convolution"
  bottom: "conv2"
  top: "conv2_1"
  param {
    lr_mult: 1
  }
  convolution_param {
    num_output: 25
    bias_term: true
    pad: 1
    kernel_size: 3
    stride: 1
    weight_filler {
      type: "gaussian"
      std: 0.01
    }
  }
}
layer {
  name: "bn2_1"
  type: "BatchNorm"
  bottom: "conv2_1"
  top: "conv2_1"
  param {
    lr_mult: 0
    decay_mult: 0
  }
  param {
    lr_mult: 0
    decay_mult: 0
  }
  param {
    lr_mult: 0
    decay_mult: 0
  }
  include {
    phase: TRAIN
  }
  batch_norm_param {
    use_global_stats: false
    moving_average_fraction: 0.95
  }
}
layer {
  name: "scale2_1"
  type: "Scale"
  bottom: "conv2_1"
  top: "conv2_1"
  scale_param {
    bias_term: true
  }
}
layer {
  name: "relu2_1"
  type: "ReLU"
  bottom: "conv2_1"
  top: "conv2_1"
}
layer {
  name: "conv2_2"
  type: "Convolution"
  bottom: "conv2_1"
  top: "conv2_2"
  param {
    lr_mult: 1
  }
  convolution_param {
    num_output: 25
    bias_term: true
    pad: 1
    kernel_size: 3
    stride: 1
    weight_filler {
      type: "gaussian"
      std: 0.01
    }
  }
}
layer {
  name: "bn2_2"
  type: "BatchNorm"
  bottom: "conv2_2"
  top: "conv2_2"
  param {
    lr_mult: 0
    decay_mult: 0
  }
  param {
    lr_mult: 0
    decay_mult: 0
  }
  param {
    lr_mult: 0
    decay_mult: 0
  }
  include {
    phase: TRAIN
  }
  batch_norm_param {
    use_global_stats: false
    moving_average_fraction: 0.95
  }
}
layer {
  name: "scale2_2"
  type: "Scale"
  bottom: "conv2_2"
  top: "conv2_2"
  scale_param {
    bias_term: true
  }
}
layer {
  name: "relu2_2"
  type: "ReLU"
  bottom: "conv2_2"
  top: "conv2_2"
}
layer {
  name: "pool2_1"
  type: "Pooling"
  bottom: "conv2_2"
  top: "pool2_1"
  pooling_param {
    pool: MAX
    kernel_size: 2
    stride: 2
  }
}
layer {
  name: "conv3"
  type: "Convolution"
  bottom: "pool2_1"
  top: "conv3"
  param {
    lr_mult: 1
  }
  convolution_param {
    num_output: 25
    bias_term: true
    pad: 1
    kernel_size: 3
    stride: 1
    weight_filler {
      type: "xavier"
    }
  }
}
layer {
  name: "bn3"
  type: "BatchNorm"
  bottom: "conv3"
  top: "conv3"
  param {
    lr_mult: 0
    decay_mult: 0
  }
  param {
    lr_mult: 0
    decay_mult: 0
  }
  param {
    lr_mult: 0
    decay_mult: 0
  }
  include {
    phase: TRAIN
  }
  batch_norm_param {
    use_global_stats: false
    moving_average_fraction: 0.95
  }
}
layer {
  name: "scale3"
  type: "Scale"
  bottom: "conv3"
  top: "conv3"
  scale_param {
    bias_term: true
  }
}
layer {
  name: "relu3"
  type: "ReLU"
  bottom: "conv3"
  top: "conv3"
}
layer {
  name: "conv3_1"
  type: "Convolution"
  bottom: "conv3"
  top: "conv3_1"
  param {
    lr_mult: 1
  }
  convolution_param {
    num_output: 25
    bias_term: true
    pad: 1
    kernel_size: 3
    stride: 1
    weight_filler {
      type: "xavier"
    }
  }
}
layer {
  name: "bn3_1"
  type: "BatchNorm"
  bottom: "conv3_1"
  top: "conv3_1"
  param {
    lr_mult: 0
    decay_mult: 0
  }
  param {
    lr_mult: 0
    decay_mult: 0
  }
  param {
    lr_mult: 0
    decay_mult: 0
  }
  include {
    phase: TRAIN
  }
  batch_norm_param {
    use_global_stats: false
    moving_average_fraction: 0.95
  }
}
layer {
  name: "scale3_1"
  type: "Scale"
  bottom: "conv3_1"
  top: "conv3_1"
  scale_param {
    bias_term: true
  }
}
layer {
  name: "relu3_1"
  type: "ReLU"
  bottom: "conv3_1"
  top: "conv3_1"
}
layer {
  name: "conv4"
  type: "Convolution"
  bottom: "conv3_1"
  top: "conv4"
  param {
    lr_mult: 1
  }
  convolution_param {
    num_output: 25
    bias_term: true
    pad: 1
    kernel_size: 3
    stride: 1
    weight_filler {
      type: "xavier"
    }
  }
}
layer {
  name: "bn4"
  type: "BatchNorm"
  bottom: "conv4"
  top: "conv4"
  param {
    lr_mult: 0
    decay_mult: 0
  }
  param {
    lr_mult: 0
    decay_mult: 0
  }
  param {
    lr_mult: 0
    decay_mult: 0
  }
  include {
    phase: TRAIN
  }
  batch_norm_param {
    use_global_stats: false
    moving_average_fraction: 0.95
  }
}
layer {
  name: "scale4"
  type: "Scale"
  bottom: "conv4"
  top: "conv4"
  scale_param {
    bias_term: true
  }
}
layer {
  name: "relu4"
  type: "ReLU"
  bottom: "conv4"
  top: "conv4"
}
layer {
  name: "conv4_1"
  type: "Convolution"
  bottom: "conv4"
  top: "conv4_1"
  param {
    lr_mult: 1
  }
  convolution_param {
    num_output: 26
    bias_term: true
    pad: 1
    kernel_size: 3
    stride: 1
    weight_filler {
      type: "xavier"
    }
  }
}
layer {
  name: "bn4_1"
  type: "BatchNorm"
  bottom: "conv4_1"
  top: "conv4_1"
  param {
    lr_mult: 0
    decay_mult: 0
  }
  param {
    lr_mult: 0
    decay_mult: 0
  }
  param {
    lr_mult: 0
    decay_mult: 0
  }
  include {
    phase: TRAIN
  }
  batch_norm_param {
    use_global_stats: false
    moving_average_fraction: 0.95
  }
}
layer {
  name: "scale4_1"
  type: "Scale"
  bottom: "conv4_1"
  top: "conv4_1"
  scale_param {
    bias_term: true
  }
}
layer {
  name: "relu4_1"
  type: "ReLU"
  bottom: "conv4_1"
  top: "conv4_1"
}
layer {
  name: "conv4_2"
  type: "Convolution"
  bottom: "conv4_1"
  top: "conv4_2"
  param {
    lr_mult: 1
  }
  convolution_param {
    num_output: 51
    bias_term: true
    pad: 1
    kernel_size: 3
    stride: 1
    weight_filler {
      type: "xavier"
    }
  }
}
layer {
  name: "bn4_2"
  type: "BatchNorm"
  bottom: "conv4_2"
  top: "conv4_2"
  param {
    lr_mult: 0
    decay_mult: 0
  }
  param {
    lr_mult: 0
    decay_mult: 0
  }
  param {
    lr_mult: 0
    decay_mult: 0
  }
  include {
    phase: TRAIN
  }
  batch_norm_param {
    use_global_stats: false
    moving_average_fraction: 0.95
  }
}
layer {
  name: "scale4_2"
  type: "Scale"
  bottom: "conv4_2"
  top: "conv4_2"
  scale_param {
    bias_term: true
  }
}
layer {
  name: "relu4_2"
  type: "ReLU"
  bottom: "conv4_2"
  top: "conv4_2"
}
layer {
  name: "pool4_2"
  type: "Pooling"
  bottom: "conv4_2"
  top: "pool4_2"
  pooling_param {
    pool: MAX
    kernel_size: 2
    stride: 2
  }
}
layer {
  name: "conv4_0"
  type: "Convolution"
  bottom: "pool4_2"
  top: "conv4_0"
  param {
    lr_mult: 1
  }
  convolution_param {
    num_output: 51
    bias_term: true
    pad: 1
    kernel_size: 3
    stride: 1
    weight_filler {
      type: "xavier"
    }
  }
}
layer {
  name: "bn4_0"
  type: "BatchNorm"
  bottom: "conv4_0"
  top: "conv4_0"
  param {
    lr_mult: 0
    decay_mult: 0
  }
  param {
    lr_mult: 0
    decay_mult: 0
  }
  param {
    lr_mult: 0
    decay_mult: 0
  }
  include {
    phase: TRAIN
  }
  batch_norm_param {
    use_global_stats: false
    moving_average_fraction: 0.95
  }
}
layer {
  name: "scale4_0"
  type: "Scale"
  bottom: "conv4_0"
  top: "conv4_0"
  scale_param {
    bias_term: true
  }
}
layer {
  name: "relu4_0"
  type: "ReLU"
  bottom: "conv4_0"
  top: "conv4_0"
}
layer {
  name: "conv11"
  type: "Convolution"
  bottom: "conv4_0"
  top: "conv11"
  param {
    lr_mult: 1
    decay_mult: 1
  }
  param {
    lr_mult: 2
    decay_mult: 0
  }
  convolution_param {
    num_output: 51
    pad: 1
    kernel_size: 3
    weight_filler {
      type: "xavier"
    }
    bias_filler {
      type: "constant"
      value: 0
    }
  }
}
layer {
  name: "bn_conv11"
  type: "BatchNorm"
  bottom: "conv11"
  top: "conv11"
  param {
    lr_mult: 0
    decay_mult: 0
  }
  param {
    lr_mult: 0
    decay_mult: 0
  }
  param {
    lr_mult: 0
    decay_mult: 0
  }
  include {
    phase: TRAIN
  }
  batch_norm_param {
    use_global_stats: false
    moving_average_fraction: 0.95
  }
}
layer {
  name: "scale_conv11"
  type: "Scale"
  bottom: "conv11"
  top: "conv11"
  scale_param {
    bias_term: true
  }
}
layer {
  name: "relu_conv11"
  type: "ReLU"
  bottom: "conv11"
  top: "conv11"
}
layer {
  name: "conv12"
  type: "Convolution"
  bottom: "conv11"
  top: "conv12"
  param {
    lr_mult: 1
    decay_mult: 1
  }
  param {
    lr_mult: 2
    decay_mult: 0
  }
  convolution_param {
    num_output: 52
    pad: 1
    kernel_size: 3
    weight_filler {
      type: "xavier"
    }
    bias_filler {
      type: "constant"
      value: 0
    }
  }
}
layer {
  name: "bn_conv12"
  type: "BatchNorm"
  bottom: "conv12"
  top: "conv12"
  param {
    lr_mult: 0
    decay_mult: 0
  }
  param {
    lr_mult: 0
    decay_mult: 0
  }
  param {
    lr_mult: 0
    decay_mult: 0
  }
  include {
    phase: TRAIN
  }
  batch_norm_param {
    use_global_stats: false
    moving_average_fraction: 0.95
  }
}
layer {
  name: "scale_conv12"
  type: "Scale"
  bottom: "conv12"
  top: "conv12"
  scale_param {
    bias_term: true
  }
}
layer {
  name: "relu_conv12"
  type: "ReLU"
  bottom: "conv12"
  top: "conv12"
}
layer {
  name: "poolcp6"
  type: "Pooling"
  bottom: "conv12"
  top: "poolcp6"
  pooling_param {
    pool: MAX
    global_pooling: true
  }
}
layer {
  name: "ip1"
  type: "InnerProduct"
  bottom: "poolcp6"
  top: "ip1"
  param {
    lr_mult: 1
    decay_mult: 0
  }
  param {
    lr_mult: 2
    decay_mult: 0
  }
  inner_product_param {
    num_output: 10
    weight_filler {
      type: "xavier"
    }
    bias_filler {
      type: "constant"
    }
  }
}
layer {
  name: "accuracy_training"
  type: "Accuracy"
  bottom: "ip1"
  bottom: "label"
  top: "accuracy_training"
  include {
    phase: TRAIN
  }
}
layer {
  name: "loss"
  type: "SoftmaxWithLoss"
  bottom: "ip1"
  bottom: "label"
  top: "loss"
}
I0629 11:54:38.316967 14716 layer_factory.cpp:58] Creating layer cifar
I0629 11:54:38.319972 14716 db_leveldb.cpp:18] Opened leveldb examples/cifar10/cifar10_train_leveldb_padding
I0629 11:54:38.320474 14716 net.cpp:84] Creating Layer cifar
I0629 11:54:38.320474 14716 net.cpp:380] cifar -> data
I0629 11:54:38.320474 14716 net.cpp:380] cifar -> label
I0629 11:54:38.320474 14716 common.cpp:36] System entropy source not available, using fallback algorithm to generate seed instead.
I0629 11:54:38.320976 14716 data_layer.cpp:45] output data size: 100,3,32,32
I0629 11:54:38.326330 14716 net.cpp:122] Setting up cifar
I0629 11:54:38.326330 14716 net.cpp:129] Top shape: 100 3 32 32 (307200)
I0629 11:54:38.326330 14716 net.cpp:129] Top shape: 100 (100)
I0629 11:54:38.326330 14716 net.cpp:137] Memory required for data: 1229200
I0629 11:54:38.326330 14716 layer_factory.cpp:58] Creating layer label_cifar_1_split
I0629 11:54:38.326330 14716 net.cpp:84] Creating Layer label_cifar_1_split
I0629 11:54:38.326330 14716 net.cpp:406] label_cifar_1_split <- label
I0629 11:54:38.326330 14716 net.cpp:380] label_cifar_1_split -> label_cifar_1_split_0
I0629 11:54:38.326330 14716 net.cpp:380] label_cifar_1_split -> label_cifar_1_split_1
I0629 11:54:38.326330 14716 net.cpp:122] Setting up label_cifar_1_split
I0629 11:54:38.326330 14716 net.cpp:129] Top shape: 100 (100)
I0629 11:54:38.326830 14716 net.cpp:129] Top shape: 100 (100)
I0629 11:54:38.326830 14716 net.cpp:137] Memory required for data: 1230000
I0629 11:54:38.326830 14716 layer_factory.cpp:58] Creating layer conv1
I0629 11:54:38.326830 14716 net.cpp:84] Creating Layer conv1
I0629 11:54:38.326830 14716 net.cpp:406] conv1 <- data
I0629 11:54:38.326830 14716 net.cpp:380] conv1 -> conv1
I0629 11:54:38.327330  9420 common.cpp:36] System entropy source not available, using fallback algorithm to generate seed instead.
I0629 11:54:38.558646 14716 net.cpp:122] Setting up conv1
I0629 11:54:38.558646 14716 net.cpp:129] Top shape: 100 19 32 32 (1945600)
I0629 11:54:38.558646 14716 net.cpp:137] Memory required for data: 9012400
I0629 11:54:38.558646 14716 layer_factory.cpp:58] Creating layer bn1
I0629 11:54:38.558646 14716 net.cpp:84] Creating Layer bn1
I0629 11:54:38.558646 14716 net.cpp:406] bn1 <- conv1
I0629 11:54:38.558646 14716 net.cpp:367] bn1 -> conv1 (in-place)
I0629 11:54:38.558646 14716 net.cpp:122] Setting up bn1
I0629 11:54:38.558646 14716 net.cpp:129] Top shape: 100 19 32 32 (1945600)
I0629 11:54:38.558646 14716 net.cpp:137] Memory required for data: 16794800
I0629 11:54:38.558646 14716 layer_factory.cpp:58] Creating layer scale1
I0629 11:54:38.558646 14716 net.cpp:84] Creating Layer scale1
I0629 11:54:38.558646 14716 net.cpp:406] scale1 <- conv1
I0629 11:54:38.558646 14716 net.cpp:367] scale1 -> conv1 (in-place)
I0629 11:54:38.558646 14716 layer_factory.cpp:58] Creating layer scale1
I0629 11:54:38.558646 14716 net.cpp:122] Setting up scale1
I0629 11:54:38.558646 14716 net.cpp:129] Top shape: 100 19 32 32 (1945600)
I0629 11:54:38.558646 14716 net.cpp:137] Memory required for data: 24577200
I0629 11:54:38.558646 14716 layer_factory.cpp:58] Creating layer relu1
I0629 11:54:38.558646 14716 net.cpp:84] Creating Layer relu1
I0629 11:54:38.558646 14716 net.cpp:406] relu1 <- conv1
I0629 11:54:38.558646 14716 net.cpp:367] relu1 -> conv1 (in-place)
I0629 11:54:38.558646 14716 net.cpp:122] Setting up relu1
I0629 11:54:38.558646 14716 net.cpp:129] Top shape: 100 19 32 32 (1945600)
I0629 11:54:38.558646 14716 net.cpp:137] Memory required for data: 32359600
I0629 11:54:38.558646 14716 layer_factory.cpp:58] Creating layer conv1_0
I0629 11:54:38.558646 14716 net.cpp:84] Creating Layer conv1_0
I0629 11:54:38.558646 14716 net.cpp:406] conv1_0 <- conv1
I0629 11:54:38.558646 14716 net.cpp:380] conv1_0 -> conv1_0
I0629 11:54:38.560650 14716 net.cpp:122] Setting up conv1_0
I0629 11:54:38.560650 14716 net.cpp:129] Top shape: 100 25 32 32 (2560000)
I0629 11:54:38.560650 14716 net.cpp:137] Memory required for data: 42599600
I0629 11:54:38.560650 14716 layer_factory.cpp:58] Creating layer bn1_0
I0629 11:54:38.560650 14716 net.cpp:84] Creating Layer bn1_0
I0629 11:54:38.560650 14716 net.cpp:406] bn1_0 <- conv1_0
I0629 11:54:38.560650 14716 net.cpp:367] bn1_0 -> conv1_0 (in-place)
I0629 11:54:38.560650 14716 net.cpp:122] Setting up bn1_0
I0629 11:54:38.560650 14716 net.cpp:129] Top shape: 100 25 32 32 (2560000)
I0629 11:54:38.560650 14716 net.cpp:137] Memory required for data: 52839600
I0629 11:54:38.560650 14716 layer_factory.cpp:58] Creating layer scale1_0
I0629 11:54:38.560650 14716 net.cpp:84] Creating Layer scale1_0
I0629 11:54:38.560650 14716 net.cpp:406] scale1_0 <- conv1_0
I0629 11:54:38.560650 14716 net.cpp:367] scale1_0 -> conv1_0 (in-place)
I0629 11:54:38.560650 14716 layer_factory.cpp:58] Creating layer scale1_0
I0629 11:54:38.560650 14716 net.cpp:122] Setting up scale1_0
I0629 11:54:38.560650 14716 net.cpp:129] Top shape: 100 25 32 32 (2560000)
I0629 11:54:38.560650 14716 net.cpp:137] Memory required for data: 63079600
I0629 11:54:38.560650 14716 layer_factory.cpp:58] Creating layer relu1_0
I0629 11:54:38.560650 14716 net.cpp:84] Creating Layer relu1_0
I0629 11:54:38.560650 14716 net.cpp:406] relu1_0 <- conv1_0
I0629 11:54:38.560650 14716 net.cpp:367] relu1_0 -> conv1_0 (in-place)
I0629 11:54:38.561650 14716 net.cpp:122] Setting up relu1_0
I0629 11:54:38.561650 14716 net.cpp:129] Top shape: 100 25 32 32 (2560000)
I0629 11:54:38.561650 14716 net.cpp:137] Memory required for data: 73319600
I0629 11:54:38.561650 14716 layer_factory.cpp:58] Creating layer conv2
I0629 11:54:38.561650 14716 net.cpp:84] Creating Layer conv2
I0629 11:54:38.561650 14716 net.cpp:406] conv2 <- conv1_0
I0629 11:54:38.561650 14716 net.cpp:380] conv2 -> conv2
I0629 11:54:38.562651 14716 net.cpp:122] Setting up conv2
I0629 11:54:38.562651 14716 net.cpp:129] Top shape: 100 25 32 32 (2560000)
I0629 11:54:38.562651 14716 net.cpp:137] Memory required for data: 83559600
I0629 11:54:38.562651 14716 layer_factory.cpp:58] Creating layer bn2
I0629 11:54:38.562651 14716 net.cpp:84] Creating Layer bn2
I0629 11:54:38.562651 14716 net.cpp:406] bn2 <- conv2
I0629 11:54:38.562651 14716 net.cpp:367] bn2 -> conv2 (in-place)
I0629 11:54:38.562651 14716 net.cpp:122] Setting up bn2
I0629 11:54:38.562651 14716 net.cpp:129] Top shape: 100 25 32 32 (2560000)
I0629 11:54:38.562651 14716 net.cpp:137] Memory required for data: 93799600
I0629 11:54:38.562651 14716 layer_factory.cpp:58] Creating layer scale2
I0629 11:54:38.562651 14716 net.cpp:84] Creating Layer scale2
I0629 11:54:38.562651 14716 net.cpp:406] scale2 <- conv2
I0629 11:54:38.562651 14716 net.cpp:367] scale2 -> conv2 (in-place)
I0629 11:54:38.562651 14716 layer_factory.cpp:58] Creating layer scale2
I0629 11:54:38.562651 14716 net.cpp:122] Setting up scale2
I0629 11:54:38.562651 14716 net.cpp:129] Top shape: 100 25 32 32 (2560000)
I0629 11:54:38.562651 14716 net.cpp:137] Memory required for data: 104039600
I0629 11:54:38.562651 14716 layer_factory.cpp:58] Creating layer relu2
I0629 11:54:38.562651 14716 net.cpp:84] Creating Layer relu2
I0629 11:54:38.562651 14716 net.cpp:406] relu2 <- conv2
I0629 11:54:38.562651 14716 net.cpp:367] relu2 -> conv2 (in-place)
I0629 11:54:38.563284 14716 net.cpp:122] Setting up relu2
I0629 11:54:38.563284 14716 net.cpp:129] Top shape: 100 25 32 32 (2560000)
I0629 11:54:38.563284 14716 net.cpp:137] Memory required for data: 114279600
I0629 11:54:38.563284 14716 layer_factory.cpp:58] Creating layer conv2_1
I0629 11:54:38.563284 14716 net.cpp:84] Creating Layer conv2_1
I0629 11:54:38.563284 14716 net.cpp:406] conv2_1 <- conv2
I0629 11:54:38.563284 14716 net.cpp:380] conv2_1 -> conv2_1
I0629 11:54:38.564363 14716 net.cpp:122] Setting up conv2_1
I0629 11:54:38.564363 14716 net.cpp:129] Top shape: 100 25 32 32 (2560000)
I0629 11:54:38.564363 14716 net.cpp:137] Memory required for data: 124519600
I0629 11:54:38.564363 14716 layer_factory.cpp:58] Creating layer bn2_1
I0629 11:54:38.564363 14716 net.cpp:84] Creating Layer bn2_1
I0629 11:54:38.564363 14716 net.cpp:406] bn2_1 <- conv2_1
I0629 11:54:38.564363 14716 net.cpp:367] bn2_1 -> conv2_1 (in-place)
I0629 11:54:38.564363 14716 net.cpp:122] Setting up bn2_1
I0629 11:54:38.564363 14716 net.cpp:129] Top shape: 100 25 32 32 (2560000)
I0629 11:54:38.564363 14716 net.cpp:137] Memory required for data: 134759600
I0629 11:54:38.564363 14716 layer_factory.cpp:58] Creating layer scale2_1
I0629 11:54:38.564363 14716 net.cpp:84] Creating Layer scale2_1
I0629 11:54:38.564363 14716 net.cpp:406] scale2_1 <- conv2_1
I0629 11:54:38.564363 14716 net.cpp:367] scale2_1 -> conv2_1 (in-place)
I0629 11:54:38.564363 14716 layer_factory.cpp:58] Creating layer scale2_1
I0629 11:54:38.564363 14716 net.cpp:122] Setting up scale2_1
I0629 11:54:38.564363 14716 net.cpp:129] Top shape: 100 25 32 32 (2560000)
I0629 11:54:38.564363 14716 net.cpp:137] Memory required for data: 144999600
I0629 11:54:38.564363 14716 layer_factory.cpp:58] Creating layer relu2_1
I0629 11:54:38.564363 14716 net.cpp:84] Creating Layer relu2_1
I0629 11:54:38.564363 14716 net.cpp:406] relu2_1 <- conv2_1
I0629 11:54:38.564363 14716 net.cpp:367] relu2_1 -> conv2_1 (in-place)
I0629 11:54:38.564363 14716 net.cpp:122] Setting up relu2_1
I0629 11:54:38.564363 14716 net.cpp:129] Top shape: 100 25 32 32 (2560000)
I0629 11:54:38.564363 14716 net.cpp:137] Memory required for data: 155239600
I0629 11:54:38.564363 14716 layer_factory.cpp:58] Creating layer conv2_2
I0629 11:54:38.564363 14716 net.cpp:84] Creating Layer conv2_2
I0629 11:54:38.564363 14716 net.cpp:406] conv2_2 <- conv2_1
I0629 11:54:38.564363 14716 net.cpp:380] conv2_2 -> conv2_2
I0629 11:54:38.565881 14716 net.cpp:122] Setting up conv2_2
I0629 11:54:38.565881 14716 net.cpp:129] Top shape: 100 25 32 32 (2560000)
I0629 11:54:38.565881 14716 net.cpp:137] Memory required for data: 165479600
I0629 11:54:38.565881 14716 layer_factory.cpp:58] Creating layer bn2_2
I0629 11:54:38.565881 14716 net.cpp:84] Creating Layer bn2_2
I0629 11:54:38.565881 14716 net.cpp:406] bn2_2 <- conv2_2
I0629 11:54:38.565881 14716 net.cpp:367] bn2_2 -> conv2_2 (in-place)
I0629 11:54:38.565881 14716 net.cpp:122] Setting up bn2_2
I0629 11:54:38.565881 14716 net.cpp:129] Top shape: 100 25 32 32 (2560000)
I0629 11:54:38.565881 14716 net.cpp:137] Memory required for data: 175719600
I0629 11:54:38.565881 14716 layer_factory.cpp:58] Creating layer scale2_2
I0629 11:54:38.565881 14716 net.cpp:84] Creating Layer scale2_2
I0629 11:54:38.565881 14716 net.cpp:406] scale2_2 <- conv2_2
I0629 11:54:38.565881 14716 net.cpp:367] scale2_2 -> conv2_2 (in-place)
I0629 11:54:38.565881 14716 layer_factory.cpp:58] Creating layer scale2_2
I0629 11:54:38.565881 14716 net.cpp:122] Setting up scale2_2
I0629 11:54:38.565881 14716 net.cpp:129] Top shape: 100 25 32 32 (2560000)
I0629 11:54:38.565881 14716 net.cpp:137] Memory required for data: 185959600
I0629 11:54:38.565881 14716 layer_factory.cpp:58] Creating layer relu2_2
I0629 11:54:38.565881 14716 net.cpp:84] Creating Layer relu2_2
I0629 11:54:38.565881 14716 net.cpp:406] relu2_2 <- conv2_2
I0629 11:54:38.565881 14716 net.cpp:367] relu2_2 -> conv2_2 (in-place)
I0629 11:54:38.565881 14716 net.cpp:122] Setting up relu2_2
I0629 11:54:38.565881 14716 net.cpp:129] Top shape: 100 25 32 32 (2560000)
I0629 11:54:38.565881 14716 net.cpp:137] Memory required for data: 196199600
I0629 11:54:38.565881 14716 layer_factory.cpp:58] Creating layer pool2_1
I0629 11:54:38.565881 14716 net.cpp:84] Creating Layer pool2_1
I0629 11:54:38.565881 14716 net.cpp:406] pool2_1 <- conv2_2
I0629 11:54:38.565881 14716 net.cpp:380] pool2_1 -> pool2_1
I0629 11:54:38.565881 14716 net.cpp:122] Setting up pool2_1
I0629 11:54:38.565881 14716 net.cpp:129] Top shape: 100 25 16 16 (640000)
I0629 11:54:38.565881 14716 net.cpp:137] Memory required for data: 198759600
I0629 11:54:38.565881 14716 layer_factory.cpp:58] Creating layer conv3
I0629 11:54:38.565881 14716 net.cpp:84] Creating Layer conv3
I0629 11:54:38.565881 14716 net.cpp:406] conv3 <- pool2_1
I0629 11:54:38.565881 14716 net.cpp:380] conv3 -> conv3
I0629 11:54:38.567453 14716 net.cpp:122] Setting up conv3
I0629 11:54:38.567453 14716 net.cpp:129] Top shape: 100 25 16 16 (640000)
I0629 11:54:38.567453 14716 net.cpp:137] Memory required for data: 201319600
I0629 11:54:38.567453 14716 layer_factory.cpp:58] Creating layer bn3
I0629 11:54:38.567453 14716 net.cpp:84] Creating Layer bn3
I0629 11:54:38.567453 14716 net.cpp:406] bn3 <- conv3
I0629 11:54:38.567453 14716 net.cpp:367] bn3 -> conv3 (in-place)
I0629 11:54:38.567453 14716 net.cpp:122] Setting up bn3
I0629 11:54:38.567453 14716 net.cpp:129] Top shape: 100 25 16 16 (640000)
I0629 11:54:38.567453 14716 net.cpp:137] Memory required for data: 203879600
I0629 11:54:38.567453 14716 layer_factory.cpp:58] Creating layer scale3
I0629 11:54:38.567453 14716 net.cpp:84] Creating Layer scale3
I0629 11:54:38.567453 14716 net.cpp:406] scale3 <- conv3
I0629 11:54:38.567453 14716 net.cpp:367] scale3 -> conv3 (in-place)
I0629 11:54:38.567453 14716 layer_factory.cpp:58] Creating layer scale3
I0629 11:54:38.567453 14716 net.cpp:122] Setting up scale3
I0629 11:54:38.567453 14716 net.cpp:129] Top shape: 100 25 16 16 (640000)
I0629 11:54:38.567453 14716 net.cpp:137] Memory required for data: 206439600
I0629 11:54:38.567453 14716 layer_factory.cpp:58] Creating layer relu3
I0629 11:54:38.567453 14716 net.cpp:84] Creating Layer relu3
I0629 11:54:38.567453 14716 net.cpp:406] relu3 <- conv3
I0629 11:54:38.567453 14716 net.cpp:367] relu3 -> conv3 (in-place)
I0629 11:54:38.568455 14716 net.cpp:122] Setting up relu3
I0629 11:54:38.568455 14716 net.cpp:129] Top shape: 100 25 16 16 (640000)
I0629 11:54:38.568455 14716 net.cpp:137] Memory required for data: 208999600
I0629 11:54:38.568455 14716 layer_factory.cpp:58] Creating layer conv3_1
I0629 11:54:38.568455 14716 net.cpp:84] Creating Layer conv3_1
I0629 11:54:38.568455 14716 net.cpp:406] conv3_1 <- conv3
I0629 11:54:38.568455 14716 net.cpp:380] conv3_1 -> conv3_1
I0629 11:54:38.569456 14716 net.cpp:122] Setting up conv3_1
I0629 11:54:38.569456 14716 net.cpp:129] Top shape: 100 25 16 16 (640000)
I0629 11:54:38.569456 14716 net.cpp:137] Memory required for data: 211559600
I0629 11:54:38.569456 14716 layer_factory.cpp:58] Creating layer bn3_1
I0629 11:54:38.569456 14716 net.cpp:84] Creating Layer bn3_1
I0629 11:54:38.569456 14716 net.cpp:406] bn3_1 <- conv3_1
I0629 11:54:38.569456 14716 net.cpp:367] bn3_1 -> conv3_1 (in-place)
I0629 11:54:38.569456 14716 net.cpp:122] Setting up bn3_1
I0629 11:54:38.569456 14716 net.cpp:129] Top shape: 100 25 16 16 (640000)
I0629 11:54:38.569456 14716 net.cpp:137] Memory required for data: 214119600
I0629 11:54:38.569456 14716 layer_factory.cpp:58] Creating layer scale3_1
I0629 11:54:38.569456 14716 net.cpp:84] Creating Layer scale3_1
I0629 11:54:38.569456 14716 net.cpp:406] scale3_1 <- conv3_1
I0629 11:54:38.569456 14716 net.cpp:367] scale3_1 -> conv3_1 (in-place)
I0629 11:54:38.569456 14716 layer_factory.cpp:58] Creating layer scale3_1
I0629 11:54:38.569456 14716 net.cpp:122] Setting up scale3_1
I0629 11:54:38.569456 14716 net.cpp:129] Top shape: 100 25 16 16 (640000)
I0629 11:54:38.569456 14716 net.cpp:137] Memory required for data: 216679600
I0629 11:54:38.569456 14716 layer_factory.cpp:58] Creating layer relu3_1
I0629 11:54:38.569456 14716 net.cpp:84] Creating Layer relu3_1
I0629 11:54:38.569456 14716 net.cpp:406] relu3_1 <- conv3_1
I0629 11:54:38.569456 14716 net.cpp:367] relu3_1 -> conv3_1 (in-place)
I0629 11:54:38.569456 14716 net.cpp:122] Setting up relu3_1
I0629 11:54:38.569456 14716 net.cpp:129] Top shape: 100 25 16 16 (640000)
I0629 11:54:38.569456 14716 net.cpp:137] Memory required for data: 219239600
I0629 11:54:38.569456 14716 layer_factory.cpp:58] Creating layer conv4
I0629 11:54:38.569456 14716 net.cpp:84] Creating Layer conv4
I0629 11:54:38.569456 14716 net.cpp:406] conv4 <- conv3_1
I0629 11:54:38.569456 14716 net.cpp:380] conv4 -> conv4
I0629 11:54:38.570492 14716 net.cpp:122] Setting up conv4
I0629 11:54:38.570492 14716 net.cpp:129] Top shape: 100 25 16 16 (640000)
I0629 11:54:38.570492 14716 net.cpp:137] Memory required for data: 221799600
I0629 11:54:38.570492 14716 layer_factory.cpp:58] Creating layer bn4
I0629 11:54:38.570492 14716 net.cpp:84] Creating Layer bn4
I0629 11:54:38.570492 14716 net.cpp:406] bn4 <- conv4
I0629 11:54:38.570492 14716 net.cpp:367] bn4 -> conv4 (in-place)
I0629 11:54:38.570492 14716 net.cpp:122] Setting up bn4
I0629 11:54:38.570492 14716 net.cpp:129] Top shape: 100 25 16 16 (640000)
I0629 11:54:38.570492 14716 net.cpp:137] Memory required for data: 224359600
I0629 11:54:38.570492 14716 layer_factory.cpp:58] Creating layer scale4
I0629 11:54:38.570492 14716 net.cpp:84] Creating Layer scale4
I0629 11:54:38.570492 14716 net.cpp:406] scale4 <- conv4
I0629 11:54:38.570492 14716 net.cpp:367] scale4 -> conv4 (in-place)
I0629 11:54:38.570492 14716 layer_factory.cpp:58] Creating layer scale4
I0629 11:54:38.570492 14716 net.cpp:122] Setting up scale4
I0629 11:54:38.570492 14716 net.cpp:129] Top shape: 100 25 16 16 (640000)
I0629 11:54:38.570492 14716 net.cpp:137] Memory required for data: 226919600
I0629 11:54:38.570492 14716 layer_factory.cpp:58] Creating layer relu4
I0629 11:54:38.570492 14716 net.cpp:84] Creating Layer relu4
I0629 11:54:38.570492 14716 net.cpp:406] relu4 <- conv4
I0629 11:54:38.570492 14716 net.cpp:367] relu4 -> conv4 (in-place)
I0629 11:54:38.571494 14716 net.cpp:122] Setting up relu4
I0629 11:54:38.571494 14716 net.cpp:129] Top shape: 100 25 16 16 (640000)
I0629 11:54:38.571494 14716 net.cpp:137] Memory required for data: 229479600
I0629 11:54:38.571494 14716 layer_factory.cpp:58] Creating layer conv4_1
I0629 11:54:38.571494 14716 net.cpp:84] Creating Layer conv4_1
I0629 11:54:38.571494 14716 net.cpp:406] conv4_1 <- conv4
I0629 11:54:38.571494 14716 net.cpp:380] conv4_1 -> conv4_1
I0629 11:54:38.572495 14716 net.cpp:122] Setting up conv4_1
I0629 11:54:38.572495 14716 net.cpp:129] Top shape: 100 26 16 16 (665600)
I0629 11:54:38.572495 14716 net.cpp:137] Memory required for data: 232142000
I0629 11:54:38.572495 14716 layer_factory.cpp:58] Creating layer bn4_1
I0629 11:54:38.572495 14716 net.cpp:84] Creating Layer bn4_1
I0629 11:54:38.572495 14716 net.cpp:406] bn4_1 <- conv4_1
I0629 11:54:38.572495 14716 net.cpp:367] bn4_1 -> conv4_1 (in-place)
I0629 11:54:38.572495 14716 net.cpp:122] Setting up bn4_1
I0629 11:54:38.572495 14716 net.cpp:129] Top shape: 100 26 16 16 (665600)
I0629 11:54:38.572495 14716 net.cpp:137] Memory required for data: 234804400
I0629 11:54:38.572495 14716 layer_factory.cpp:58] Creating layer scale4_1
I0629 11:54:38.572495 14716 net.cpp:84] Creating Layer scale4_1
I0629 11:54:38.572495 14716 net.cpp:406] scale4_1 <- conv4_1
I0629 11:54:38.572495 14716 net.cpp:367] scale4_1 -> conv4_1 (in-place)
I0629 11:54:38.572495 14716 layer_factory.cpp:58] Creating layer scale4_1
I0629 11:54:38.572495 14716 net.cpp:122] Setting up scale4_1
I0629 11:54:38.572495 14716 net.cpp:129] Top shape: 100 26 16 16 (665600)
I0629 11:54:38.572495 14716 net.cpp:137] Memory required for data: 237466800
I0629 11:54:38.572495 14716 layer_factory.cpp:58] Creating layer relu4_1
I0629 11:54:38.572495 14716 net.cpp:84] Creating Layer relu4_1
I0629 11:54:38.572495 14716 net.cpp:406] relu4_1 <- conv4_1
I0629 11:54:38.572495 14716 net.cpp:367] relu4_1 -> conv4_1 (in-place)
I0629 11:54:38.573495 14716 net.cpp:122] Setting up relu4_1
I0629 11:54:38.573495 14716 net.cpp:129] Top shape: 100 26 16 16 (665600)
I0629 11:54:38.573495 14716 net.cpp:137] Memory required for data: 240129200
I0629 11:54:38.573495 14716 layer_factory.cpp:58] Creating layer conv4_2
I0629 11:54:38.573495 14716 net.cpp:84] Creating Layer conv4_2
I0629 11:54:38.573495 14716 net.cpp:406] conv4_2 <- conv4_1
I0629 11:54:38.573495 14716 net.cpp:380] conv4_2 -> conv4_2
I0629 11:54:38.574435 14716 net.cpp:122] Setting up conv4_2
I0629 11:54:38.574435 14716 net.cpp:129] Top shape: 100 51 16 16 (1305600)
I0629 11:54:38.574435 14716 net.cpp:137] Memory required for data: 245351600
I0629 11:54:38.574435 14716 layer_factory.cpp:58] Creating layer bn4_2
I0629 11:54:38.574435 14716 net.cpp:84] Creating Layer bn4_2
I0629 11:54:38.574435 14716 net.cpp:406] bn4_2 <- conv4_2
I0629 11:54:38.574435 14716 net.cpp:367] bn4_2 -> conv4_2 (in-place)
I0629 11:54:38.574435 14716 net.cpp:122] Setting up bn4_2
I0629 11:54:38.574435 14716 net.cpp:129] Top shape: 100 51 16 16 (1305600)
I0629 11:54:38.574435 14716 net.cpp:137] Memory required for data: 250574000
I0629 11:54:38.574435 14716 layer_factory.cpp:58] Creating layer scale4_2
I0629 11:54:38.574435 14716 net.cpp:84] Creating Layer scale4_2
I0629 11:54:38.574435 14716 net.cpp:406] scale4_2 <- conv4_2
I0629 11:54:38.574435 14716 net.cpp:367] scale4_2 -> conv4_2 (in-place)
I0629 11:54:38.574435 14716 layer_factory.cpp:58] Creating layer scale4_2
I0629 11:54:38.574435 14716 net.cpp:122] Setting up scale4_2
I0629 11:54:38.574435 14716 net.cpp:129] Top shape: 100 51 16 16 (1305600)
I0629 11:54:38.574435 14716 net.cpp:137] Memory required for data: 255796400
I0629 11:54:38.574435 14716 layer_factory.cpp:58] Creating layer relu4_2
I0629 11:54:38.574435 14716 net.cpp:84] Creating Layer relu4_2
I0629 11:54:38.574435 14716 net.cpp:406] relu4_2 <- conv4_2
I0629 11:54:38.574435 14716 net.cpp:367] relu4_2 -> conv4_2 (in-place)
I0629 11:54:38.574435 14716 net.cpp:122] Setting up relu4_2
I0629 11:54:38.574435 14716 net.cpp:129] Top shape: 100 51 16 16 (1305600)
I0629 11:54:38.574435 14716 net.cpp:137] Memory required for data: 261018800
I0629 11:54:38.574435 14716 layer_factory.cpp:58] Creating layer pool4_2
I0629 11:54:38.574435 14716 net.cpp:84] Creating Layer pool4_2
I0629 11:54:38.574435 14716 net.cpp:406] pool4_2 <- conv4_2
I0629 11:54:38.574435 14716 net.cpp:380] pool4_2 -> pool4_2
I0629 11:54:38.574435 14716 net.cpp:122] Setting up pool4_2
I0629 11:54:38.574435 14716 net.cpp:129] Top shape: 100 51 8 8 (326400)
I0629 11:54:38.574435 14716 net.cpp:137] Memory required for data: 262324400
I0629 11:54:38.574435 14716 layer_factory.cpp:58] Creating layer conv4_0
I0629 11:54:38.574435 14716 net.cpp:84] Creating Layer conv4_0
I0629 11:54:38.574435 14716 net.cpp:406] conv4_0 <- pool4_2
I0629 11:54:38.574435 14716 net.cpp:380] conv4_0 -> conv4_0
I0629 11:54:38.576804 14716 net.cpp:122] Setting up conv4_0
I0629 11:54:38.576804 14716 net.cpp:129] Top shape: 100 51 8 8 (326400)
I0629 11:54:38.576804 14716 net.cpp:137] Memory required for data: 263630000
I0629 11:54:38.576804 14716 layer_factory.cpp:58] Creating layer bn4_0
I0629 11:54:38.576804 14716 net.cpp:84] Creating Layer bn4_0
I0629 11:54:38.576804 14716 net.cpp:406] bn4_0 <- conv4_0
I0629 11:54:38.576804 14716 net.cpp:367] bn4_0 -> conv4_0 (in-place)
I0629 11:54:38.576804 14716 net.cpp:122] Setting up bn4_0
I0629 11:54:38.576804 14716 net.cpp:129] Top shape: 100 51 8 8 (326400)
I0629 11:54:38.576804 14716 net.cpp:137] Memory required for data: 264935600
I0629 11:54:38.576804 14716 layer_factory.cpp:58] Creating layer scale4_0
I0629 11:54:38.576804 14716 net.cpp:84] Creating Layer scale4_0
I0629 11:54:38.576804 14716 net.cpp:406] scale4_0 <- conv4_0
I0629 11:54:38.576804 14716 net.cpp:367] scale4_0 -> conv4_0 (in-place)
I0629 11:54:38.576804 14716 layer_factory.cpp:58] Creating layer scale4_0
I0629 11:54:38.576804 14716 net.cpp:122] Setting up scale4_0
I0629 11:54:38.576804 14716 net.cpp:129] Top shape: 100 51 8 8 (326400)
I0629 11:54:38.576804 14716 net.cpp:137] Memory required for data: 266241200
I0629 11:54:38.576804 14716 layer_factory.cpp:58] Creating layer relu4_0
I0629 11:54:38.576804 14716 net.cpp:84] Creating Layer relu4_0
I0629 11:54:38.576804 14716 net.cpp:406] relu4_0 <- conv4_0
I0629 11:54:38.576804 14716 net.cpp:367] relu4_0 -> conv4_0 (in-place)
I0629 11:54:38.576804 14716 net.cpp:122] Setting up relu4_0
I0629 11:54:38.576804 14716 net.cpp:129] Top shape: 100 51 8 8 (326400)
I0629 11:54:38.576804 14716 net.cpp:137] Memory required for data: 267546800
I0629 11:54:38.576804 14716 layer_factory.cpp:58] Creating layer conv11
I0629 11:54:38.576804 14716 net.cpp:84] Creating Layer conv11
I0629 11:54:38.576804 14716 net.cpp:406] conv11 <- conv4_0
I0629 11:54:38.576804 14716 net.cpp:380] conv11 -> conv11
I0629 11:54:38.578346 14716 net.cpp:122] Setting up conv11
I0629 11:54:38.578346 14716 net.cpp:129] Top shape: 100 51 8 8 (326400)
I0629 11:54:38.578346 14716 net.cpp:137] Memory required for data: 268852400
I0629 11:54:38.578346 14716 layer_factory.cpp:58] Creating layer bn_conv11
I0629 11:54:38.578346 14716 net.cpp:84] Creating Layer bn_conv11
I0629 11:54:38.578346 14716 net.cpp:406] bn_conv11 <- conv11
I0629 11:54:38.578346 14716 net.cpp:367] bn_conv11 -> conv11 (in-place)
I0629 11:54:38.578346 14716 net.cpp:122] Setting up bn_conv11
I0629 11:54:38.578346 14716 net.cpp:129] Top shape: 100 51 8 8 (326400)
I0629 11:54:38.578346 14716 net.cpp:137] Memory required for data: 270158000
I0629 11:54:38.578346 14716 layer_factory.cpp:58] Creating layer scale_conv11
I0629 11:54:38.578346 14716 net.cpp:84] Creating Layer scale_conv11
I0629 11:54:38.578346 14716 net.cpp:406] scale_conv11 <- conv11
I0629 11:54:38.578346 14716 net.cpp:367] scale_conv11 -> conv11 (in-place)
I0629 11:54:38.578346 14716 layer_factory.cpp:58] Creating layer scale_conv11
I0629 11:54:38.578346 14716 net.cpp:122] Setting up scale_conv11
I0629 11:54:38.578346 14716 net.cpp:129] Top shape: 100 51 8 8 (326400)
I0629 11:54:38.578346 14716 net.cpp:137] Memory required for data: 271463600
I0629 11:54:38.578346 14716 layer_factory.cpp:58] Creating layer relu_conv11
I0629 11:54:38.578346 14716 net.cpp:84] Creating Layer relu_conv11
I0629 11:54:38.578346 14716 net.cpp:406] relu_conv11 <- conv11
I0629 11:54:38.578346 14716 net.cpp:367] relu_conv11 -> conv11 (in-place)
I0629 11:54:38.579349 14716 net.cpp:122] Setting up relu_conv11
I0629 11:54:38.579349 14716 net.cpp:129] Top shape: 100 51 8 8 (326400)
I0629 11:54:38.579349 14716 net.cpp:137] Memory required for data: 272769200
I0629 11:54:38.579349 14716 layer_factory.cpp:58] Creating layer conv12
I0629 11:54:38.579349 14716 net.cpp:84] Creating Layer conv12
I0629 11:54:38.579349 14716 net.cpp:406] conv12 <- conv11
I0629 11:54:38.579349 14716 net.cpp:380] conv12 -> conv12
I0629 11:54:38.580005 14716 net.cpp:122] Setting up conv12
I0629 11:54:38.580005 14716 net.cpp:129] Top shape: 100 52 8 8 (332800)
I0629 11:54:38.580005 14716 net.cpp:137] Memory required for data: 274100400
I0629 11:54:38.580005 14716 layer_factory.cpp:58] Creating layer bn_conv12
I0629 11:54:38.580005 14716 net.cpp:84] Creating Layer bn_conv12
I0629 11:54:38.580005 14716 net.cpp:406] bn_conv12 <- conv12
I0629 11:54:38.580005 14716 net.cpp:367] bn_conv12 -> conv12 (in-place)
I0629 11:54:38.580005 14716 net.cpp:122] Setting up bn_conv12
I0629 11:54:38.580005 14716 net.cpp:129] Top shape: 100 52 8 8 (332800)
I0629 11:54:38.580005 14716 net.cpp:137] Memory required for data: 275431600
I0629 11:54:38.580005 14716 layer_factory.cpp:58] Creating layer scale_conv12
I0629 11:54:38.580005 14716 net.cpp:84] Creating Layer scale_conv12
I0629 11:54:38.580005 14716 net.cpp:406] scale_conv12 <- conv12
I0629 11:54:38.580005 14716 net.cpp:367] scale_conv12 -> conv12 (in-place)
I0629 11:54:38.580005 14716 layer_factory.cpp:58] Creating layer scale_conv12
I0629 11:54:38.580005 14716 net.cpp:122] Setting up scale_conv12
I0629 11:54:38.580005 14716 net.cpp:129] Top shape: 100 52 8 8 (332800)
I0629 11:54:38.580005 14716 net.cpp:137] Memory required for data: 276762800
I0629 11:54:38.580005 14716 layer_factory.cpp:58] Creating layer relu_conv12
I0629 11:54:38.580005 14716 net.cpp:84] Creating Layer relu_conv12
I0629 11:54:38.580005 14716 net.cpp:406] relu_conv12 <- conv12
I0629 11:54:38.580005 14716 net.cpp:367] relu_conv12 -> conv12 (in-place)
I0629 11:54:38.581007 14716 net.cpp:122] Setting up relu_conv12
I0629 11:54:38.581007 14716 net.cpp:129] Top shape: 100 52 8 8 (332800)
I0629 11:54:38.581007 14716 net.cpp:137] Memory required for data: 278094000
I0629 11:54:38.581007 14716 layer_factory.cpp:58] Creating layer poolcp6
I0629 11:54:38.581007 14716 net.cpp:84] Creating Layer poolcp6
I0629 11:54:38.581007 14716 net.cpp:406] poolcp6 <- conv12
I0629 11:54:38.581007 14716 net.cpp:380] poolcp6 -> poolcp6
I0629 11:54:38.581007 14716 net.cpp:122] Setting up poolcp6
I0629 11:54:38.581007 14716 net.cpp:129] Top shape: 100 52 1 1 (5200)
I0629 11:54:38.581007 14716 net.cpp:137] Memory required for data: 278114800
I0629 11:54:38.581007 14716 layer_factory.cpp:58] Creating layer ip1
I0629 11:54:38.581007 14716 net.cpp:84] Creating Layer ip1
I0629 11:54:38.581007 14716 net.cpp:406] ip1 <- poolcp6
I0629 11:54:38.581007 14716 net.cpp:380] ip1 -> ip1
I0629 11:54:38.581007 14716 net.cpp:122] Setting up ip1
I0629 11:54:38.581007 14716 net.cpp:129] Top shape: 100 10 (1000)
I0629 11:54:38.581007 14716 net.cpp:137] Memory required for data: 278118800
I0629 11:54:38.581007 14716 layer_factory.cpp:58] Creating layer ip1_ip1_0_split
I0629 11:54:38.581007 14716 net.cpp:84] Creating Layer ip1_ip1_0_split
I0629 11:54:38.581007 14716 net.cpp:406] ip1_ip1_0_split <- ip1
I0629 11:54:38.581007 14716 net.cpp:380] ip1_ip1_0_split -> ip1_ip1_0_split_0
I0629 11:54:38.581007 14716 net.cpp:380] ip1_ip1_0_split -> ip1_ip1_0_split_1
I0629 11:54:38.581007 14716 net.cpp:122] Setting up ip1_ip1_0_split
I0629 11:54:38.581007 14716 net.cpp:129] Top shape: 100 10 (1000)
I0629 11:54:38.581007 14716 net.cpp:129] Top shape: 100 10 (1000)
I0629 11:54:38.581007 14716 net.cpp:137] Memory required for data: 278126800
I0629 11:54:38.581007 14716 layer_factory.cpp:58] Creating layer accuracy_training
I0629 11:54:38.581007 14716 net.cpp:84] Creating Layer accuracy_training
I0629 11:54:38.581007 14716 net.cpp:406] accuracy_training <- ip1_ip1_0_split_0
I0629 11:54:38.581007 14716 net.cpp:406] accuracy_training <- label_cifar_1_split_0
…
