…
I0605 03:11:47.443192  7864 net.cpp:294] The NetState phase (0) differed from the phase (1) specified by a rule in layer accuracy
I0605 03:11:47.443192  7864 net.cpp:51] Initializing net from parameters: 
name: "CIFAR10_SimpleNet_GP_CCCP_drpall_8Mil"
state {
  phase: TRAIN
  level: 0
  stage: ""
}
layer {
  name: "cifar"
  type: "Data"
  top: "data"
  top: "label"
  include {
    phase: TRAIN
  }
  transform_param {
    mirror: true
    crop_size: 32
  }
  data_param {
    source: "examples/cifar10/cifar10_train_leveldb_padding"
    batch_size: 100
    backend: LEVELDB
  }
}
layer {
  name: "conv1"
  type: "Convolution"
  bottom: "data"
  top: "conv1"
  param {
    lr_mult: 1
  }
  convolution_param {
    num_output: 64
    bias_term: true
    pad: 1
    kernel_size: 3
    stride: 1
    weight_filler {
      type: "xavier"
    }
  }
}
layer {
  name: "bn1"
  type: "BatchNorm"
  bottom: "conv1"
  top: "conv1"
  param {
    lr_mult: 0
    decay_mult: 0
  }
  param {
    lr_mult: 0
    decay_mult: 0
  }
  param {
    lr_mult: 0
    decay_mult: 0
  }
  include {
    phase: TRAIN
  }
  batch_norm_param {
    use_global_stats: false
    moving_average_fraction: 0.95
  }
}
layer {
  name: "scale1"
  type: "Scale"
  bottom: "conv1"
  top: "conv1"
  scale_param {
    bias_term: true
  }
}
layer {
  name: "relu1"
  type: "ReLU"
  bottom: "conv1"
  top: "conv1"
}
layer {
  name: "drop1"
  type: "Dropout"
  bottom: "conv1"
  top: "conv1"
  dropout_param {
    dropout_ratio: 0.2
  }
}
layer {
  name: "conv1_0"
  type: "Convolution"
  bottom: "conv1"
  top: "conv1_0"
  param {
    lr_mult: 1
  }
  convolution_param {
    num_output: 128
    bias_term: true
    pad: 1
    kernel_size: 3
    stride: 1
    weight_filler {
      type: "xavier"
    }
  }
}
layer {
  name: "bn1_0"
  type: "BatchNorm"
  bottom: "conv1_0"
  top: "conv1_0"
  param {
    lr_mult: 0
    decay_mult: 0
  }
  param {
    lr_mult: 0
    decay_mult: 0
  }
  param {
    lr_mult: 0
    decay_mult: 0
  }
  include {
    phase: TRAIN
  }
  batch_norm_param {
    use_global_stats: false
    moving_average_fraction: 0.95
  }
}
layer {
  name: "scale1_0"
  type: "Scale"
  bottom: "conv1_0"
  top: "conv1_0"
  scale_param {
    bias_term: true
  }
}
layer {
  name: "relu1_0"
  type: "ReLU"
  bottom: "conv1_0"
  top: "conv1_0"
}
layer {
  name: "drop2"
  type: "Dropout"
  bottom: "conv1_0"
  top: "conv1_0"
  dropout_param {
    dropout_ratio: 0.2
  }
}
layer {
  name: "conv2"
  type: "Convolution"
  bottom: "conv1_0"
  top: "conv2"
  param {
    lr_mult: 1
  }
  convolution_param {
    num_output: 128
    bias_term: true
    pad: 1
    kernel_size: 3
    stride: 1
    weight_filler {
      type: "gaussian"
      std: 0.01
    }
  }
}
layer {
  name: "bn2"
  type: "BatchNorm"
  bottom: "conv2"
  top: "conv2"
  param {
    lr_mult: 0
    decay_mult: 0
  }
  param {
    lr_mult: 0
    decay_mult: 0
  }
  param {
    lr_mult: 0
    decay_mult: 0
  }
  include {
    phase: TRAIN
  }
  batch_norm_param {
    use_global_stats: false
    moving_average_fraction: 0.95
  }
}
layer {
  name: "scale2"
  type: "Scale"
  bottom: "conv2"
  top: "conv2"
  scale_param {
    bias_term: true
  }
}
layer {
  name: "relu2"
  type: "ReLU"
  bottom: "conv2"
  top: "conv2"
}
layer {
  name: "drop3"
  type: "Dropout"
  bottom: "conv2"
  top: "conv2"
  dropout_param {
    dropout_ratio: 0.2
  }
}
layer {
  name: "conv2_1"
  type: "Convolution"
  bottom: "conv2"
  top: "conv2_1"
  param {
    lr_mult: 1
  }
  convolution_param {
    num_output: 256
    bias_term: true
    pad: 1
    kernel_size: 3
    stride: 1
    weight_filler {
      type: "gaussian"
      std: 0.01
    }
  }
}
layer {
  name: "bn2_1"
  type: "BatchNorm"
  bottom: "conv2_1"
  top: "conv2_1"
  param {
    lr_mult: 0
    decay_mult: 0
  }
  param {
    lr_mult: 0
    decay_mult: 0
  }
  param {
    lr_mult: 0
    decay_mult: 0
  }
  include {
    phase: TRAIN
  }
  batch_norm_param {
    use_global_stats: false
    moving_average_fraction: 0.95
  }
}
layer {
  name: "scale2_1"
  type: "Scale"
  bottom: "conv2_1"
  top: "conv2_1"
  scale_param {
    bias_term: true
  }
}
layer {
  name: "relu2_1"
  type: "ReLU"
  bottom: "conv2_1"
  top: "conv2_1"
}
layer {
  name: "pool2_1"
  type: "Pooling"
  bottom: "conv2_1"
  top: "pool2_1"
  pooling_param {
    pool: MAX
    kernel_size: 2
    stride: 2
  }
}
layer {
  name: "drop4"
  type: "Dropout"
  bottom: "pool2_1"
  top: "pool2_1"
  dropout_param {
    dropout_ratio: 0.2
  }
}
layer {
  name: "conv2_2"
  type: "Convolution"
  bottom: "pool2_1"
  top: "conv2_2"
  param {
    lr_mult: 1
  }
  convolution_param {
    num_output: 256
    bias_term: true
    pad: 1
    kernel_size: 3
    stride: 1
    weight_filler {
      type: "gaussian"
      std: 0.01
    }
  }
}
layer {
  name: "bn2_2"
  type: "BatchNorm"
  bottom: "conv2_2"
  top: "conv2_2"
  param {
    lr_mult: 0
    decay_mult: 0
  }
  param {
    lr_mult: 0
    decay_mult: 0
  }
  param {
    lr_mult: 0
    decay_mult: 0
  }
  include {
    phase: TRAIN
  }
  batch_norm_param {
    use_global_stats: false
    moving_average_fraction: 0.95
  }
}
layer {
  name: "scale2_2"
  type: "Scale"
  bottom: "conv2_2"
  top: "conv2_2"
  scale_param {
    bias_term: true
  }
}
layer {
  name: "relu2_2"
  type: "ReLU"
  bottom: "conv2_2"
  top: "conv2_2"
}
layer {
  name: "drop5"
  type: "Dropout"
  bottom: "conv2_2"
  top: "conv2_2"
  dropout_param {
    dropout_ratio: 0.2
  }
}
layer {
  name: "conv3"
  type: "Convolution"
  bottom: "conv2_2"
  top: "conv3"
  param {
    lr_mult: 1
  }
  convolution_param {
    num_output: 256
    bias_term: true
    pad: 1
    kernel_size: 3
    stride: 1
    weight_filler {
      type: "xavier"
    }
  }
}
layer {
  name: "bn3"
  type: "BatchNorm"
  bottom: "conv3"
  top: "conv3"
  param {
    lr_mult: 0
    decay_mult: 0
  }
  param {
    lr_mult: 0
    decay_mult: 0
  }
  param {
    lr_mult: 0
    decay_mult: 0
  }
  include {
    phase: TRAIN
  }
  batch_norm_param {
    use_global_stats: false
    moving_average_fraction: 0.95
  }
}
layer {
  name: "scale3"
  type: "Scale"
  bottom: "conv3"
  top: "conv3"
  scale_param {
    bias_term: true
  }
}
layer {
  name: "relu3"
  type: "ReLU"
  bottom: "conv3"
  top: "conv3"
}
layer {
  name: "drop6"
  type: "Dropout"
  bottom: "conv3"
  top: "conv3"
  dropout_param {
    dropout_ratio: 0.2
  }
}
layer {
  name: "conv4"
  type: "Convolution"
  bottom: "conv3"
  top: "conv4"
  param {
    lr_mult: 1
  }
  convolution_param {
    num_output: 384
    bias_term: true
    pad: 1
    kernel_size: 3
    stride: 1
    weight_filler {
      type: "xavier"
    }
  }
}
layer {
  name: "pool4"
  type: "Pooling"
  bottom: "conv4"
  top: "pool4"
  pooling_param {
    pool: MAX
    kernel_size: 2
    stride: 2
  }
}
layer {
  name: "bn4"
  type: "BatchNorm"
  bottom: "pool4"
  top: "pool4"
  param {
    lr_mult: 0
    decay_mult: 0
  }
  param {
    lr_mult: 0
    decay_mult: 0
  }
  param {
    lr_mult: 0
    decay_mult: 0
  }
  include {
    phase: TRAIN
  }
  batch_norm_param {
    use_global_stats: false
    moving_average_fraction: 0.95
  }
}
layer {
  name: "scale4"
  type: "Scale"
  bottom: "pool4"
  top: "pool4"
  scale_param {
    bias_term: true
  }
}
layer {
  name: "relu4"
  type: "ReLU"
  bottom: "pool4"
  top: "pool4"
}
layer {
  name: "drop7"
  type: "Dropout"
  bottom: "pool4"
  top: "pool4"
  dropout_param {
    dropout_ratio: 0.2
  }
}
layer {
  name: "conv4_1"
  type: "Convolution"
  bottom: "pool4"
  top: "conv4_1"
  param {
    lr_mult: 1
  }
  convolution_param {
    num_output: 384
    bias_term: true
    pad: 1
    kernel_size: 3
    stride: 1
    weight_filler {
      type: "xavier"
    }
  }
}
layer {
  name: "bn4_1"
  type: "BatchNorm"
  bottom: "conv4_1"
  top: "conv4_1"
  param {
    lr_mult: 0
    decay_mult: 0
  }
  param {
    lr_mult: 0
    decay_mult: 0
  }
  param {
    lr_mult: 0
    decay_mult: 0
  }
  include {
    phase: TRAIN
  }
  batch_norm_param {
    use_global_stats: false
    moving_average_fraction: 0.95
  }
}
layer {
  name: "scale4_1"
  type: "Scale"
  bottom: "conv4_1"
  top: "conv4_1"
  scale_param {
    bias_term: true
  }
}
layer {
  name: "relu4_1"
  type: "ReLU"
  bottom: "conv4_1"
  top: "conv4_1"
}
layer {
  name: "drop8"
  type: "Dropout"
  bottom: "conv4_1"
  top: "conv4_1"
  dropout_param {
    dropout_ratio: 0.2
  }
}
layer {
  name: "conv4_2"
  type: "Convolution"
  bottom: "conv4_1"
  top: "conv4_2"
  param {
    lr_mult: 1
  }
  convolution_param {
    num_output: 512
    bias_term: true
    pad: 1
    kernel_size: 3
    stride: 1
    weight_filler {
      type: "xavier"
    }
  }
}
layer {
  name: "bn4_2"
  type: "BatchNorm"
  bottom: "conv4_2"
  top: "conv4_2"
  param {
    lr_mult: 0
    decay_mult: 0
  }
  param {
    lr_mult: 0
    decay_mult: 0
  }
  param {
    lr_mult: 0
    decay_mult: 0
  }
  include {
    phase: TRAIN
  }
  batch_norm_param {
    use_global_stats: false
    moving_average_fraction: 0.95
  }
}
layer {
  name: "scale4_2"
  type: "Scale"
  bottom: "conv4_2"
  top: "conv4_2"
  scale_param {
    bias_term: true
  }
}
layer {
  name: "relu4_2"
  type: "ReLU"
  bottom: "conv4_2"
  top: "conv4_2"
}
layer {
  name: "drop9"
  type: "Dropout"
  bottom: "conv4_2"
  top: "conv4_2"
  dropout_param {
    dropout_ratio: 0.2
  }
}
layer {
  name: "pool4_2"
  type: "Pooling"
  bottom: "conv4_2"
  top: "pool4_2"
  pooling_param {
    pool: MAX
    kernel_size: 2
    stride: 2
  }
}
layer {
  name: "conv4_0"
  type: "Convolution"
  bottom: "pool4_2"
  top: "conv4_0"
  param {
    lr_mult: 1
  }
  convolution_param {
    num_output: 512
    bias_term: true
    pad: 1
    kernel_size: 3
    stride: 1
    weight_filler {
      type: "xavier"
    }
  }
}
layer {
  name: "bn4_0"
  type: "BatchNorm"
  bottom: "conv4_0"
  top: "conv4_0"
  param {
    lr_mult: 0
    decay_mult: 0
  }
  param {
    lr_mult: 0
    decay_mult: 0
  }
  param {
    lr_mult: 0
    decay_mult: 0
  }
  include {
    phase: TRAIN
  }
  batch_norm_param {
    use_global_stats: false
    moving_average_fraction: 0.95
  }
}
layer {
  name: "scale4_0"
  type: "Scale"
  bottom: "conv4_0"
  top: "conv4_0"
  scale_param {
    bias_term: true
  }
}
layer {
  name: "relu4_0"
  type: "ReLU"
  bottom: "conv4_0"
  top: "conv4_0"
}
layer {
  name: "drop10"
  type: "Dropout"
  bottom: "conv4_0"
  top: "conv4_0"
  dropout_param {
    dropout_ratio: 0.2
  }
}
layer {
  name: "poolcp4"
  type: "Pooling"
  bottom: "conv4_0"
  top: "poolcp4"
  pooling_param {
    pool: MAX
    global_pooling: true
  }
}
layer {
  name: "ip1"
  type: "InnerProduct"
  bottom: "poolcp4"
  top: "ip1"
  param {
    lr_mult: 1
    decay_mult: 0
  }
  param {
    lr_mult: 2
    decay_mult: 0
  }
  inner_product_param {
    num_output: 10
    weight_filler {
      type: "xavier"
    }
    bias_filler {
      type: "constant"
    }
  }
}
layer {
  name: "accuracy_training"
  type: "Accuracy"
  bottom: "ip1"
  bottom: "label"
  top: "accuracy_training"
  include {
    phase: TRAIN
  }
}
layer {
  name: "loss"
  type: "SoftmaxWithLoss"
  bottom: "ip1"
  bottom: "label"
  top: "loss"
}
I0605 03:11:47.443192  7864 layer_factory.cpp:58] Creating layer cifar
I0605 03:11:47.463229  7864 db_leveldb.cpp:18] Opened leveldb examples/cifar10/cifar10_train_leveldb_padding
I0605 03:11:47.463229  7864 net.cpp:84] Creating Layer cifar
I0605 03:11:47.463229  7864 net.cpp:380] cifar -> data
I0605 03:11:47.463229  7864 net.cpp:380] cifar -> label
I0605 03:11:47.463229  7864 data_layer.cpp:45] output data size: 100,3,32,32
I0605 03:11:47.473192  7864 net.cpp:122] Setting up cifar
I0605 03:11:47.473192  7864 net.cpp:129] Top shape: 100 3 32 32 (307200)
I0605 03:11:47.473192  7864 net.cpp:129] Top shape: 100 (100)
I0605 03:11:47.473192  7864 net.cpp:137] Memory required for data: 1229200
I0605 03:11:47.473192  7864 layer_factory.cpp:58] Creating layer label_cifar_1_split
I0605 03:11:47.473192  7864 net.cpp:84] Creating Layer label_cifar_1_split
I0605 03:11:47.473192  7864 net.cpp:406] label_cifar_1_split <- label
I0605 03:11:47.473192  7864 net.cpp:380] label_cifar_1_split -> label_cifar_1_split_0
I0605 03:11:47.473192  7864 net.cpp:380] label_cifar_1_split -> label_cifar_1_split_1
I0605 03:11:47.473192  7864 net.cpp:122] Setting up label_cifar_1_split
I0605 03:11:47.473192  7864 net.cpp:129] Top shape: 100 (100)
I0605 03:11:47.473192  7864 net.cpp:129] Top shape: 100 (100)
I0605 03:11:47.473192  7864 net.cpp:137] Memory required for data: 1230000
I0605 03:11:47.473192  7864 layer_factory.cpp:58] Creating layer conv1
I0605 03:11:47.473192  7864 net.cpp:84] Creating Layer conv1
I0605 03:11:47.473192  7864 net.cpp:406] conv1 <- data
I0605 03:11:47.473192  7864 net.cpp:380] conv1 -> conv1
I0605 03:11:47.473192  6188 common.cpp:36] System entropy source not available, using fallback algorithm to generate seed instead.
I0605 03:11:47.692955  7864 net.cpp:122] Setting up conv1
I0605 03:11:47.692955  7864 net.cpp:129] Top shape: 100 64 32 32 (6553600)
I0605 03:11:47.692955  7864 net.cpp:137] Memory required for data: 27444400
I0605 03:11:47.692955  7864 layer_factory.cpp:58] Creating layer bn1
I0605 03:11:47.692955  7864 net.cpp:84] Creating Layer bn1
I0605 03:11:47.692955  7864 net.cpp:406] bn1 <- conv1
I0605 03:11:47.692955  7864 net.cpp:367] bn1 -> conv1 (in-place)
I0605 03:11:47.692955  7864 net.cpp:122] Setting up bn1
I0605 03:11:47.692955  7864 net.cpp:129] Top shape: 100 64 32 32 (6553600)
I0605 03:11:47.692955  7864 net.cpp:137] Memory required for data: 53658800
I0605 03:11:47.692955  7864 layer_factory.cpp:58] Creating layer scale1
I0605 03:11:47.703378  7864 net.cpp:84] Creating Layer scale1
I0605 03:11:47.703378  7864 net.cpp:406] scale1 <- conv1
I0605 03:11:47.703378  7864 net.cpp:367] scale1 -> conv1 (in-place)
I0605 03:11:47.703378  7864 layer_factory.cpp:58] Creating layer scale1
I0605 03:11:47.703378  7864 net.cpp:122] Setting up scale1
I0605 03:11:47.703378  7864 net.cpp:129] Top shape: 100 64 32 32 (6553600)
I0605 03:11:47.703378  7864 net.cpp:137] Memory required for data: 79873200
I0605 03:11:47.703378  7864 layer_factory.cpp:58] Creating layer relu1
I0605 03:11:47.703378  7864 net.cpp:84] Creating Layer relu1
I0605 03:11:47.703378  7864 net.cpp:406] relu1 <- conv1
I0605 03:11:47.703378  7864 net.cpp:367] relu1 -> conv1 (in-place)
I0605 03:11:47.703378  7864 net.cpp:122] Setting up relu1
I0605 03:11:47.703378  7864 net.cpp:129] Top shape: 100 64 32 32 (6553600)
I0605 03:11:47.703378  7864 net.cpp:137] Memory required for data: 106087600
I0605 03:11:47.703378  7864 layer_factory.cpp:58] Creating layer drop1
I0605 03:11:47.703378  7864 net.cpp:84] Creating Layer drop1
I0605 03:11:47.703378  7864 net.cpp:406] drop1 <- conv1
I0605 03:11:47.703378  7864 net.cpp:367] drop1 -> conv1 (in-place)
I0605 03:11:47.703378  7864 net.cpp:122] Setting up drop1
I0605 03:11:47.703378  7864 net.cpp:129] Top shape: 100 64 32 32 (6553600)
I0605 03:11:47.703378  7864 net.cpp:137] Memory required for data: 132302000
I0605 03:11:47.703378  7864 layer_factory.cpp:58] Creating layer conv1_0
I0605 03:11:47.703378  7864 net.cpp:84] Creating Layer conv1_0
I0605 03:11:47.703378  7864 net.cpp:406] conv1_0 <- conv1
I0605 03:11:47.703378  7864 net.cpp:380] conv1_0 -> conv1_0
I0605 03:11:47.703378  7864 net.cpp:122] Setting up conv1_0
I0605 03:11:47.703378  7864 net.cpp:129] Top shape: 100 128 32 32 (13107200)
I0605 03:11:47.703378  7864 net.cpp:137] Memory required for data: 184730800
I0605 03:11:47.703378  7864 layer_factory.cpp:58] Creating layer bn1_0
I0605 03:11:47.703378  7864 net.cpp:84] Creating Layer bn1_0
I0605 03:11:47.703378  7864 net.cpp:406] bn1_0 <- conv1_0
I0605 03:11:47.703378  7864 net.cpp:367] bn1_0 -> conv1_0 (in-place)
I0605 03:11:47.703378  7864 net.cpp:122] Setting up bn1_0
I0605 03:11:47.703378  7864 net.cpp:129] Top shape: 100 128 32 32 (13107200)
I0605 03:11:47.703378  7864 net.cpp:137] Memory required for data: 237159600
I0605 03:11:47.703378  7864 layer_factory.cpp:58] Creating layer scale1_0
I0605 03:11:47.703378  7864 net.cpp:84] Creating Layer scale1_0
I0605 03:11:47.703378  7864 net.cpp:406] scale1_0 <- conv1_0
I0605 03:11:47.703378  7864 net.cpp:367] scale1_0 -> conv1_0 (in-place)
I0605 03:11:47.703378  7864 layer_factory.cpp:58] Creating layer scale1_0
I0605 03:11:47.703378  7864 net.cpp:122] Setting up scale1_0
I0605 03:11:47.703378  7864 net.cpp:129] Top shape: 100 128 32 32 (13107200)
I0605 03:11:47.703378  7864 net.cpp:137] Memory required for data: 289588400
I0605 03:11:47.703378  7864 layer_factory.cpp:58] Creating layer relu1_0
I0605 03:11:47.703378  7864 net.cpp:84] Creating Layer relu1_0
I0605 03:11:47.703378  7864 net.cpp:406] relu1_0 <- conv1_0
I0605 03:11:47.703378  7864 net.cpp:367] relu1_0 -> conv1_0 (in-place)
I0605 03:11:47.703378  7864 net.cpp:122] Setting up relu1_0
I0605 03:11:47.703378  7864 net.cpp:129] Top shape: 100 128 32 32 (13107200)
I0605 03:11:47.703378  7864 net.cpp:137] Memory required for data: 342017200
I0605 03:11:47.703378  7864 layer_factory.cpp:58] Creating layer drop2
I0605 03:11:47.703378  7864 net.cpp:84] Creating Layer drop2
I0605 03:11:47.703378  7864 net.cpp:406] drop2 <- conv1_0
I0605 03:11:47.703378  7864 net.cpp:367] drop2 -> conv1_0 (in-place)
I0605 03:11:47.703378  7864 net.cpp:122] Setting up drop2
I0605 03:11:47.703378  7864 net.cpp:129] Top shape: 100 128 32 32 (13107200)
I0605 03:11:47.703378  7864 net.cpp:137] Memory required for data: 394446000
I0605 03:11:47.703378  7864 layer_factory.cpp:58] Creating layer conv2
I0605 03:11:47.703378  7864 net.cpp:84] Creating Layer conv2
I0605 03:11:47.703378  7864 net.cpp:406] conv2 <- conv1_0
I0605 03:11:47.703378  7864 net.cpp:380] conv2 -> conv2
I0605 03:11:47.703378  7864 net.cpp:122] Setting up conv2
I0605 03:11:47.703378  7864 net.cpp:129] Top shape: 100 128 32 32 (13107200)
I0605 03:11:47.703378  7864 net.cpp:137] Memory required for data: 446874800
I0605 03:11:47.703378  7864 layer_factory.cpp:58] Creating layer bn2
I0605 03:11:47.703378  7864 net.cpp:84] Creating Layer bn2
I0605 03:11:47.703378  7864 net.cpp:406] bn2 <- conv2
I0605 03:11:47.703378  7864 net.cpp:367] bn2 -> conv2 (in-place)
I0605 03:11:47.703378  7864 net.cpp:122] Setting up bn2
I0605 03:11:47.703378  7864 net.cpp:129] Top shape: 100 128 32 32 (13107200)
I0605 03:11:47.703378  7864 net.cpp:137] Memory required for data: 499303600
I0605 03:11:47.703378  7864 layer_factory.cpp:58] Creating layer scale2
I0605 03:11:47.703378  7864 net.cpp:84] Creating Layer scale2
I0605 03:11:47.703378  7864 net.cpp:406] scale2 <- conv2
I0605 03:11:47.703378  7864 net.cpp:367] scale2 -> conv2 (in-place)
I0605 03:11:47.703378  7864 layer_factory.cpp:58] Creating layer scale2
I0605 03:11:47.703378  7864 net.cpp:122] Setting up scale2
I0605 03:11:47.703378  7864 net.cpp:129] Top shape: 100 128 32 32 (13107200)
I0605 03:11:47.703378  7864 net.cpp:137] Memory required for data: 551732400
I0605 03:11:47.703378  7864 layer_factory.cpp:58] Creating layer relu2
I0605 03:11:47.703378  7864 net.cpp:84] Creating Layer relu2
I0605 03:11:47.703378  7864 net.cpp:406] relu2 <- conv2
I0605 03:11:47.703378  7864 net.cpp:367] relu2 -> conv2 (in-place)
I0605 03:11:47.703378  7864 net.cpp:122] Setting up relu2
I0605 03:11:47.703378  7864 net.cpp:129] Top shape: 100 128 32 32 (13107200)
I0605 03:11:47.703378  7864 net.cpp:137] Memory required for data: 604161200
I0605 03:11:47.703378  7864 layer_factory.cpp:58] Creating layer drop3
I0605 03:11:47.703378  7864 net.cpp:84] Creating Layer drop3
I0605 03:11:47.703378  7864 net.cpp:406] drop3 <- conv2
I0605 03:11:47.703378  7864 net.cpp:367] drop3 -> conv2 (in-place)
I0605 03:11:47.703378  7864 net.cpp:122] Setting up drop3
I0605 03:11:47.703378  7864 net.cpp:129] Top shape: 100 128 32 32 (13107200)
I0605 03:11:47.703378  7864 net.cpp:137] Memory required for data: 656590000
I0605 03:11:47.703378  7864 layer_factory.cpp:58] Creating layer conv2_1
I0605 03:11:47.703378  7864 net.cpp:84] Creating Layer conv2_1
I0605 03:11:47.703378  7864 net.cpp:406] conv2_1 <- conv2
I0605 03:11:47.703378  7864 net.cpp:380] conv2_1 -> conv2_1
I0605 03:11:47.713394  7864 net.cpp:122] Setting up conv2_1
I0605 03:11:47.713394  7864 net.cpp:129] Top shape: 100 256 32 32 (26214400)
I0605 03:11:47.713394  7864 net.cpp:137] Memory required for data: 761447600
I0605 03:11:47.713394  7864 layer_factory.cpp:58] Creating layer bn2_1
I0605 03:11:47.713394  7864 net.cpp:84] Creating Layer bn2_1
I0605 03:11:47.713394  7864 net.cpp:406] bn2_1 <- conv2_1
I0605 03:11:47.713394  7864 net.cpp:367] bn2_1 -> conv2_1 (in-place)
I0605 03:11:47.713394  7864 net.cpp:122] Setting up bn2_1
I0605 03:11:47.713394  7864 net.cpp:129] Top shape: 100 256 32 32 (26214400)
I0605 03:11:47.713394  7864 net.cpp:137] Memory required for data: 866305200
I0605 03:11:47.713394  7864 layer_factory.cpp:58] Creating layer scale2_1
I0605 03:11:47.713394  7864 net.cpp:84] Creating Layer scale2_1
I0605 03:11:47.713394  7864 net.cpp:406] scale2_1 <- conv2_1
I0605 03:11:47.713394  7864 net.cpp:367] scale2_1 -> conv2_1 (in-place)
I0605 03:11:47.713394  7864 layer_factory.cpp:58] Creating layer scale2_1
I0605 03:11:47.713394  7864 net.cpp:122] Setting up scale2_1
I0605 03:11:47.713394  7864 net.cpp:129] Top shape: 100 256 32 32 (26214400)
I0605 03:11:47.713394  7864 net.cpp:137] Memory required for data: 971162800
I0605 03:11:47.713394  7864 layer_factory.cpp:58] Creating layer relu2_1
I0605 03:11:47.713394  7864 net.cpp:84] Creating Layer relu2_1
I0605 03:11:47.713394  7864 net.cpp:406] relu2_1 <- conv2_1
I0605 03:11:47.713394  7864 net.cpp:367] relu2_1 -> conv2_1 (in-place)
I0605 03:11:47.713394  7864 net.cpp:122] Setting up relu2_1
I0605 03:11:47.713394  7864 net.cpp:129] Top shape: 100 256 32 32 (26214400)
I0605 03:11:47.713394  7864 net.cpp:137] Memory required for data: 1076020400
I0605 03:11:47.713394  7864 layer_factory.cpp:58] Creating layer pool2_1
I0605 03:11:47.713394  7864 net.cpp:84] Creating Layer pool2_1
I0605 03:11:47.713394  7864 net.cpp:406] pool2_1 <- conv2_1
I0605 03:11:47.713394  7864 net.cpp:380] pool2_1 -> pool2_1
I0605 03:11:47.713394  7864 net.cpp:122] Setting up pool2_1
I0605 03:11:47.713394  7864 net.cpp:129] Top shape: 100 256 16 16 (6553600)
I0605 03:11:47.713394  7864 net.cpp:137] Memory required for data: 1102234800
I0605 03:11:47.713394  7864 layer_factory.cpp:58] Creating layer drop4
I0605 03:11:47.713394  7864 net.cpp:84] Creating Layer drop4
I0605 03:11:47.713394  7864 net.cpp:406] drop4 <- pool2_1
I0605 03:11:47.713394  7864 net.cpp:367] drop4 -> pool2_1 (in-place)
I0605 03:11:47.713394  7864 net.cpp:122] Setting up drop4
I0605 03:11:47.713394  7864 net.cpp:129] Top shape: 100 256 16 16 (6553600)
I0605 03:11:47.713394  7864 net.cpp:137] Memory required for data: 1128449200
I0605 03:11:47.713394  7864 layer_factory.cpp:58] Creating layer conv2_2
I0605 03:11:47.713394  7864 net.cpp:84] Creating Layer conv2_2
I0605 03:11:47.713394  7864 net.cpp:406] conv2_2 <- pool2_1
I0605 03:11:47.713394  7864 net.cpp:380] conv2_2 -> conv2_2
I0605 03:11:47.713394  7864 net.cpp:122] Setting up conv2_2
I0605 03:11:47.713394  7864 net.cpp:129] Top shape: 100 256 16 16 (6553600)
I0605 03:11:47.713394  7864 net.cpp:137] Memory required for data: 1154663600
I0605 03:11:47.713394  7864 layer_factory.cpp:58] Creating layer bn2_2
I0605 03:11:47.713394  7864 net.cpp:84] Creating Layer bn2_2
I0605 03:11:47.713394  7864 net.cpp:406] bn2_2 <- conv2_2
I0605 03:11:47.713394  7864 net.cpp:367] bn2_2 -> conv2_2 (in-place)
I0605 03:11:47.723395  7864 net.cpp:122] Setting up bn2_2
I0605 03:11:47.723395  7864 net.cpp:129] Top shape: 100 256 16 16 (6553600)
I0605 03:11:47.723395  7864 net.cpp:137] Memory required for data: 1180878000
I0605 03:11:47.723395  7864 layer_factory.cpp:58] Creating layer scale2_2
I0605 03:11:47.723395  7864 net.cpp:84] Creating Layer scale2_2
I0605 03:11:47.723395  7864 net.cpp:406] scale2_2 <- conv2_2
I0605 03:11:47.723395  7864 net.cpp:367] scale2_2 -> conv2_2 (in-place)
I0605 03:11:47.723395  7864 layer_factory.cpp:58] Creating layer scale2_2
I0605 03:11:47.723395  7864 net.cpp:122] Setting up scale2_2
I0605 03:11:47.723395  7864 net.cpp:129] Top shape: 100 256 16 16 (6553600)
I0605 03:11:47.723395  7864 net.cpp:137] Memory required for data: 1207092400
I0605 03:11:47.723395  7864 layer_factory.cpp:58] Creating layer relu2_2
I0605 03:11:47.723395  7864 net.cpp:84] Creating Layer relu2_2
I0605 03:11:47.723395  7864 net.cpp:406] relu2_2 <- conv2_2
I0605 03:11:47.723395  7864 net.cpp:367] relu2_2 -> conv2_2 (in-place)
I0605 03:11:47.723395  7864 net.cpp:122] Setting up relu2_2
I0605 03:11:47.723395  7864 net.cpp:129] Top shape: 100 256 16 16 (6553600)
I0605 03:11:47.723395  7864 net.cpp:137] Memory required for data: 1233306800
I0605 03:11:47.723395  7864 layer_factory.cpp:58] Creating layer drop5
I0605 03:11:47.723395  7864 net.cpp:84] Creating Layer drop5
I0605 03:11:47.723395  7864 net.cpp:406] drop5 <- conv2_2
I0605 03:11:47.723395  7864 net.cpp:367] drop5 -> conv2_2 (in-place)
I0605 03:11:47.723395  7864 net.cpp:122] Setting up drop5
I0605 03:11:47.723395  7864 net.cpp:129] Top shape: 100 256 16 16 (6553600)
I0605 03:11:47.723395  7864 net.cpp:137] Memory required for data: 1259521200
I0605 03:11:47.723395  7864 layer_factory.cpp:58] Creating layer conv3
I0605 03:11:47.723395  7864 net.cpp:84] Creating Layer conv3
I0605 03:11:47.723395  7864 net.cpp:406] conv3 <- conv2_2
I0605 03:11:47.723395  7864 net.cpp:380] conv3 -> conv3
I0605 03:11:47.723395  7864 net.cpp:122] Setting up conv3
I0605 03:11:47.723395  7864 net.cpp:129] Top shape: 100 256 16 16 (6553600)
I0605 03:11:47.723395  7864 net.cpp:137] Memory required for data: 1285735600
I0605 03:11:47.723395  7864 layer_factory.cpp:58] Creating layer bn3
I0605 03:11:47.723395  7864 net.cpp:84] Creating Layer bn3
I0605 03:11:47.723395  7864 net.cpp:406] bn3 <- conv3
I0605 03:11:47.723395  7864 net.cpp:367] bn3 -> conv3 (in-place)
I0605 03:11:47.723395  7864 net.cpp:122] Setting up bn3
I0605 03:11:47.723395  7864 net.cpp:129] Top shape: 100 256 16 16 (6553600)
I0605 03:11:47.723395  7864 net.cpp:137] Memory required for data: 1311950000
I0605 03:11:47.723395  7864 layer_factory.cpp:58] Creating layer scale3
I0605 03:11:47.723395  7864 net.cpp:84] Creating Layer scale3
I0605 03:11:47.723395  7864 net.cpp:406] scale3 <- conv3
I0605 03:11:47.723395  7864 net.cpp:367] scale3 -> conv3 (in-place)
I0605 03:11:47.723395  7864 layer_factory.cpp:58] Creating layer scale3
I0605 03:11:47.723395  7864 net.cpp:122] Setting up scale3
I0605 03:11:47.723395  7864 net.cpp:129] Top shape: 100 256 16 16 (6553600)
I0605 03:11:47.723395  7864 net.cpp:137] Memory required for data: 1338164400
I0605 03:11:47.723395  7864 layer_factory.cpp:58] Creating layer relu3
I0605 03:11:47.723395  7864 net.cpp:84] Creating Layer relu3
I0605 03:11:47.723395  7864 net.cpp:406] relu3 <- conv3
I0605 03:11:47.723395  7864 net.cpp:367] relu3 -> conv3 (in-place)
I0605 03:11:47.723395  7864 net.cpp:122] Setting up relu3
I0605 03:11:47.723395  7864 net.cpp:129] Top shape: 100 256 16 16 (6553600)
I0605 03:11:47.723395  7864 net.cpp:137] Memory required for data: 1364378800
I0605 03:11:47.723395  7864 layer_factory.cpp:58] Creating layer drop6
I0605 03:11:47.723395  7864 net.cpp:84] Creating Layer drop6
I0605 03:11:47.723395  7864 net.cpp:406] drop6 <- conv3
I0605 03:11:47.723395  7864 net.cpp:367] drop6 -> conv3 (in-place)
I0605 03:11:47.723395  7864 net.cpp:122] Setting up drop6
I0605 03:11:47.723395  7864 net.cpp:129] Top shape: 100 256 16 16 (6553600)
I0605 03:11:47.723395  7864 net.cpp:137] Memory required for data: 1390593200
I0605 03:11:47.723395  7864 layer_factory.cpp:58] Creating layer conv4
I0605 03:11:47.723395  7864 net.cpp:84] Creating Layer conv4
I0605 03:11:47.723395  7864 net.cpp:406] conv4 <- conv3
I0605 03:11:47.723395  7864 net.cpp:380] conv4 -> conv4
I0605 03:11:47.733392  7864 net.cpp:122] Setting up conv4
I0605 03:11:47.733392  7864 net.cpp:129] Top shape: 100 384 16 16 (9830400)
I0605 03:11:47.733392  7864 net.cpp:137] Memory required for data: 1429914800
I0605 03:11:47.733392  7864 layer_factory.cpp:58] Creating layer pool4
I0605 03:11:47.733392  7864 net.cpp:84] Creating Layer pool4
I0605 03:11:47.733392  7864 net.cpp:406] pool4 <- conv4
I0605 03:11:47.733392  7864 net.cpp:380] pool4 -> pool4
I0605 03:11:47.733392  7864 net.cpp:122] Setting up pool4
I0605 03:11:47.733392  7864 net.cpp:129] Top shape: 100 384 8 8 (2457600)
I0605 03:11:47.733392  7864 net.cpp:137] Memory required for data: 1439745200
I0605 03:11:47.733392  7864 layer_factory.cpp:58] Creating layer bn4
I0605 03:11:47.733392  7864 net.cpp:84] Creating Layer bn4
I0605 03:11:47.733392  7864 net.cpp:406] bn4 <- pool4
I0605 03:11:47.733392  7864 net.cpp:367] bn4 -> pool4 (in-place)
I0605 03:11:47.733392  7864 net.cpp:122] Setting up bn4
I0605 03:11:47.733392  7864 net.cpp:129] Top shape: 100 384 8 8 (2457600)
I0605 03:11:47.733392  7864 net.cpp:137] Memory required for data: 1449575600
I0605 03:11:47.733392  7864 layer_factory.cpp:58] Creating layer scale4
I0605 03:11:47.733392  7864 net.cpp:84] Creating Layer scale4
I0605 03:11:47.733392  7864 net.cpp:406] scale4 <- pool4
I0605 03:11:47.733392  7864 net.cpp:367] scale4 -> pool4 (in-place)
I0605 03:11:47.733392  7864 layer_factory.cpp:58] Creating layer scale4
I0605 03:11:47.733392  7864 net.cpp:122] Setting up scale4
I0605 03:11:47.733392  7864 net.cpp:129] Top shape: 100 384 8 8 (2457600)
I0605 03:11:47.733392  7864 net.cpp:137] Memory required for data: 1459406000
I0605 03:11:47.733392  7864 layer_factory.cpp:58] Creating layer relu4
I0605 03:11:47.733392  7864 net.cpp:84] Creating Layer relu4
I0605 03:11:47.733392  7864 net.cpp:406] relu4 <- pool4
I0605 03:11:47.733392  7864 net.cpp:367] relu4 -> pool4 (in-place)
I0605 03:11:47.733392  7864 net.cpp:122] Setting up relu4
I0605 03:11:47.733392  7864 net.cpp:129] Top shape: 100 384 8 8 (2457600)
I0605 03:11:47.733392  7864 net.cpp:137] Memory required for data: 1469236400
I0605 03:11:47.733392  7864 layer_factory.cpp:58] Creating layer drop7
I0605 03:11:47.733392  7864 net.cpp:84] Creating Layer drop7
I0605 03:11:47.733392  7864 net.cpp:406] drop7 <- pool4
I0605 03:11:47.733392  7864 net.cpp:367] drop7 -> pool4 (in-place)
I0605 03:11:47.733392  7864 net.cpp:122] Setting up drop7
I0605 03:11:47.733392  7864 net.cpp:129] Top shape: 100 384 8 8 (2457600)
I0605 03:11:47.733392  7864 net.cpp:137] Memory required for data: 1479066800
I0605 03:11:47.733392  7864 layer_factory.cpp:58] Creating layer conv4_1
I0605 03:11:47.733392  7864 net.cpp:84] Creating Layer conv4_1
I0605 03:11:47.733392  7864 net.cpp:406] conv4_1 <- pool4
I0605 03:11:47.733392  7864 net.cpp:380] conv4_1 -> conv4_1
I0605 03:11:47.743396  7864 net.cpp:122] Setting up conv4_1
I0605 03:11:47.743396  7864 net.cpp:129] Top shape: 100 384 8 8 (2457600)
I0605 03:11:47.743396  7864 net.cpp:137] Memory required for data: 1488897200
I0605 03:11:47.743396  7864 layer_factory.cpp:58] Creating layer bn4_1
I0605 03:11:47.743396  7864 net.cpp:84] Creating Layer bn4_1
I0605 03:11:47.743396  7864 net.cpp:406] bn4_1 <- conv4_1
I0605 03:11:47.743396  7864 net.cpp:367] bn4_1 -> conv4_1 (in-place)
I0605 03:11:47.743396  7864 net.cpp:122] Setting up bn4_1
I0605 03:11:47.743396  7864 net.cpp:129] Top shape: 100 384 8 8 (2457600)
I0605 03:11:47.743396  7864 net.cpp:137] Memory required for data: 1498727600
I0605 03:11:47.743396  7864 layer_factory.cpp:58] Creating layer scale4_1
I0605 03:11:47.743396  7864 net.cpp:84] Creating Layer scale4_1
I0605 03:11:47.743396  7864 net.cpp:406] scale4_1 <- conv4_1
I0605 03:11:47.743396  7864 net.cpp:367] scale4_1 -> conv4_1 (in-place)
I0605 03:11:47.743396  7864 layer_factory.cpp:58] Creating layer scale4_1
I0605 03:11:47.743396  7864 net.cpp:122] Setting up scale4_1
I0605 03:11:47.743396  7864 net.cpp:129] Top shape: 100 384 8 8 (2457600)
I0605 03:11:47.743396  7864 net.cpp:137] Memory required for data: 1508558000
I0605 03:11:47.743396  7864 layer_factory.cpp:58] Creating layer relu4_1
I0605 03:11:47.743396  7864 net.cpp:84] Creating Layer relu4_1
I0605 03:11:47.743396  7864 net.cpp:406] relu4_1 <- conv4_1
I0605 03:11:47.743396  7864 net.cpp:367] relu4_1 -> conv4_1 (in-place)
I0605 03:11:47.743396  7864 net.cpp:122] Setting up relu4_1
I0605 03:11:47.743396  7864 net.cpp:129] Top shape: 100 384 8 8 (2457600)
I0605 03:11:47.743396  7864 net.cpp:137] Memory required for data: 1518388400
I0605 03:11:47.743396  7864 layer_factory.cpp:58] Creating layer drop8
I0605 03:11:47.743396  7864 net.cpp:84] Creating Layer drop8
I0605 03:11:47.743396  7864 net.cpp:406] drop8 <- conv4_1
I0605 03:11:47.743396  7864 net.cpp:367] drop8 -> conv4_1 (in-place)
I0605 03:11:47.743396  7864 net.cpp:122] Setting up drop8
I0605 03:11:47.743396  7864 net.cpp:129] Top shape: 100 384 8 8 (2457600)
I0605 03:11:47.743396  7864 net.cpp:137] Memory required for data: 1528218800
I0605 03:11:47.743396  7864 layer_factory.cpp:58] Creating layer conv4_2
I0605 03:11:47.743396  7864 net.cpp:84] Creating Layer conv4_2
I0605 03:11:47.743396  7864 net.cpp:406] conv4_2 <- conv4_1
I0605 03:11:47.743396  7864 net.cpp:380] conv4_2 -> conv4_2
I0605 03:11:47.753393  7864 net.cpp:122] Setting up conv4_2
I0605 03:11:47.753393  7864 net.cpp:129] Top shape: 100 512 8 8 (3276800)
I0605 03:11:47.753393  7864 net.cpp:137] Memory required for data: 1541326000
I0605 03:11:47.753393  7864 layer_factory.cpp:58] Creating layer bn4_2
I0605 03:11:47.753393  7864 net.cpp:84] Creating Layer bn4_2
I0605 03:11:47.753393  7864 net.cpp:406] bn4_2 <- conv4_2
I0605 03:11:47.753393  7864 net.cpp:367] bn4_2 -> conv4_2 (in-place)
I0605 03:11:47.753393  7864 net.cpp:122] Setting up bn4_2
I0605 03:11:47.753393  7864 net.cpp:129] Top shape: 100 512 8 8 (3276800)
I0605 03:11:47.753393  7864 net.cpp:137] Memory required for data: 1554433200
I0605 03:11:47.753393  7864 layer_factory.cpp:58] Creating layer scale4_2
I0605 03:11:47.753393  7864 net.cpp:84] Creating Layer scale4_2
I0605 03:11:47.753393  7864 net.cpp:406] scale4_2 <- conv4_2
I0605 03:11:47.753393  7864 net.cpp:367] scale4_2 -> conv4_2 (in-place)
I0605 03:11:47.753393  7864 layer_factory.cpp:58] Creating layer scale4_2
I0605 03:11:47.753393  7864 net.cpp:122] Setting up scale4_2
I0605 03:11:47.753393  7864 net.cpp:129] Top shape: 100 512 8 8 (3276800)
I0605 03:11:47.753393  7864 net.cpp:137] Memory required for data: 1567540400
I0605 03:11:47.753393  7864 layer_factory.cpp:58] Creating layer relu4_2
I0605 03:11:47.753393  7864 net.cpp:84] Creating Layer relu4_2
I0605 03:11:47.753393  7864 net.cpp:406] relu4_2 <- conv4_2
I0605 03:11:47.753393  7864 net.cpp:367] relu4_2 -> conv4_2 (in-place)
I0605 03:11:47.753393  7864 net.cpp:122] Setting up relu4_2
I0605 03:11:47.753393  7864 net.cpp:129] Top shape: 100 512 8 8 (3276800)
I0605 03:11:47.753393  7864 net.cpp:137] Memory required for data: 1580647600
I0605 03:11:47.753393  7864 layer_factory.cpp:58] Creating layer drop9
I0605 03:11:47.753393  7864 net.cpp:84] Creating Layer drop9
I0605 03:11:47.753393  7864 net.cpp:406] drop9 <- conv4_2
I0605 03:11:47.753393  7864 net.cpp:367] drop9 -> conv4_2 (in-place)
I0605 03:11:47.753393  7864 net.cpp:122] Setting up drop9
I0605 03:11:47.753393  7864 net.cpp:129] Top shape: 100 512 8 8 (3276800)
I0605 03:11:47.753393  7864 net.cpp:137] Memory required for data: 1593754800
I0605 03:11:47.753393  7864 layer_factory.cpp:58] Creating layer pool4_2
I0605 03:11:47.753393  7864 net.cpp:84] Creating Layer pool4_2
I0605 03:11:47.753393  7864 net.cpp:406] pool4_2 <- conv4_2
I0605 03:11:47.753393  7864 net.cpp:380] pool4_2 -> pool4_2
I0605 03:11:47.753393  7864 net.cpp:122] Setting up pool4_2
I0605 03:11:47.753393  7864 net.cpp:129] Top shape: 100 512 4 4 (819200)
I0605 03:11:47.753393  7864 net.cpp:137] Memory required for data: 1597031600
I0605 03:11:47.753393  7864 layer_factory.cpp:58] Creating layer conv4_0
I0605 03:11:47.753393  7864 net.cpp:84] Creating Layer conv4_0
I0605 03:11:47.753393  7864 net.cpp:406] conv4_0 <- pool4_2
I0605 03:11:47.753393  7864 net.cpp:380] conv4_0 -> conv4_0
I0605 03:11:47.773399  7864 net.cpp:122] Setting up conv4_0
I0605 03:11:47.773399  7864 net.cpp:129] Top shape: 100 512 4 4 (819200)
I0605 03:11:47.773399  7864 net.cpp:137] Memory required for data: 1600308400
I0605 03:11:47.773399  7864 layer_factory.cpp:58] Creating layer bn4_0
I0605 03:11:47.773399  7864 net.cpp:84] Creating Layer bn4_0
I0605 03:11:47.773399  7864 net.cpp:406] bn4_0 <- conv4_0
I0605 03:11:47.773399  7864 net.cpp:367] bn4_0 -> conv4_0 (in-place)
I0605 03:11:47.773399  7864 net.cpp:122] Setting up bn4_0
I0605 03:11:47.773399  7864 net.cpp:129] Top shape: 100 512 4 4 (819200)
I0605 03:11:47.773399  7864 net.cpp:137] Memory required for data: 1603585200
I0605 03:11:47.773399  7864 layer_factory.cpp:58] Creating layer scale4_0
I0605 03:11:47.773399  7864 net.cpp:84] Creating Layer scale4_0
I0605 03:11:47.773399  7864 net.cpp:406] scale4_0 <- conv4_0
I0605 03:11:47.773399  7864 net.cpp:367] scale4_0 -> conv4_0 (in-place)
I0605 03:11:47.773399  7864 layer_factory.cpp:58] Creating layer scale4_0
I0605 03:11:47.773399  7864 net.cpp:122] Setting up scale4_0
I0605 03:11:47.773399  7864 net.cpp:129] Top shape: 100 512 4 4 (819200)
I0605 03:11:47.773399  7864 net.cpp:137] Memory required for data: 1606862000
I0605 03:11:47.773399  7864 layer_factory.cpp:58] Creating layer relu4_0
I0605 03:11:47.773399  7864 net.cpp:84] Creating Layer relu4_0
I0605 03:11:47.773399  7864 net.cpp:406] relu4_0 <- conv4_0
I0605 03:11:47.773399  7864 net.cpp:367] relu4_0 -> conv4_0 (in-place)
I0605 03:11:47.773399  7864 net.cpp:122] Setting up relu4_0
I0605 03:11:47.773399  7864 net.cpp:129] Top shape: 100 512 4 4 (819200)
I0605 03:11:47.773399  7864 net.cpp:137] Memory required for data: 1610138800
I0605 03:11:47.773399  7864 layer_factory.cpp:58] Creating layer drop10
I0605 03:11:47.773399  7864 net.cpp:84] Creating Layer drop10
I0605 03:11:47.773399  7864 net.cpp:406] drop10 <- conv4_0
I0605 03:11:47.773399  7864 net.cpp:367] drop10 -> conv4_0 (in-place)
I0605 03:11:47.773399  7864 net.cpp:122] Setting up drop10
I0605 03:11:47.773399  7864 net.cpp:129] Top shape: 100 512 4 4 (819200)
I0605 03:11:47.773399  7864 net.cpp:137] Memory required for data: 1613415600
I0605 03:11:47.773399  7864 layer_factory.cpp:58] Creating layer poolcp4
I0605 03:11:47.773399  7864 net.cpp:84] Creating Layer poolcp4
I0605 03:11:47.773399  7864 net.cpp:406] poolcp4 <- conv4_0
I0605 03:11:47.773399  7864 net.cpp:380] poolcp4 -> poolcp4
I0605 03:11:47.773399  7864 net.cpp:122] Setting up poolcp4
I0605 03:11:47.773399  7864 net.cpp:129] Top shape: 100 512 1 1 (51200)
I0605 03:11:47.773399  7864 net.cpp:137] Memory required for data: 1613620400
I0605 03:11:47.773399  7864 layer_factory.cpp:58] Creating layer ip1
I0605 03:11:47.773399  7864 net.cpp:84] Creating Layer ip1
I0605 03:11:47.773399  7864 net.cpp:406] ip1 <- poolcp4
I0605 03:11:47.773399  7864 net.cpp:380] ip1 -> ip1
I0605 03:11:47.773399  7864 net.cpp:122] Setting up ip1
I0605 03:11:47.773399  7864 net.cpp:129] Top shape: 100 10 (1000)
I0605 03:11:47.773399  7864 net.cpp:137] Memory required for data: 1613624400
I0605 03:11:47.773399  7864 layer_factory.cpp:58] Creating layer ip1_ip1_0_split
I0605 03:11:47.773399  7864 net.cpp:84] Creating Layer ip1_ip1_0_split
I0605 03:11:47.773399  7864 net.cpp:406] ip1_ip1_0_split <- ip1
I0605 03:11:47.773399  7864 net.cpp:380] ip1_ip1_0_split -> ip1_ip1_0_split_0
I0605 03:11:47.773399  7864 net.cpp:380] ip1_ip1_0_split -> ip1_ip1_0_split_1
I0605 03:11:47.773399  7864 net.cpp:122] Setting up ip1_ip1_0_split
I0605 03:11:47.773399  7864 net.cpp:129] Top shape: 100 10 (1000)
I0605 03:11:47.773399  7864 net.cpp:129] Top shape: 100 10 (1000)
I0605 03:11:47.773399  7864 net.cpp:137] Memory required for data: 1613632400
I0605 03:11:47.773399  7864 layer_factory.cpp:58] Creating layer accuracy_training
I0605 03:11:47.773399  7864 net.cpp:84] Creating Layer accuracy_training
I0605 03:11:47.773399  7864 net.cpp:406] accuracy_training <- ip1_ip1_0_split_0
I0605 03:11:47.773399  7864 net.cpp:406] accuracy_training <- label_cifar_1_split_0
…
