…
I1129 19:21:12.171290 34092 net.cpp:294] The NetState phase (0) differed from the phase (1) specified by a rule in layer accuracy
I1129 19:21:12.171290 34092 net.cpp:51] Initializing net from parameters: 
name: "CIFAR10_Squeezenet_1.1_maxdrp"
state {
  phase: TRAIN
  level: 0
  stage: ""
}
layer {
  name: "cifar"
  type: "Data"
  top: "data"
  top: "label"
  include {
    phase: TRAIN
  }
  transform_param {
    mirror: true
    crop_size: 32
  }
  data_param {
    source: "examples/cifar10/cifar10_train_leveldb_padding"
    batch_size: 100
    backend: LEVELDB
  }
}
layer {
  name: "conv1"
  type: "Convolution"
  bottom: "data"
  top: "conv1"
  convolution_param {
    num_output: 64
    kernel_size: 3
    stride: 1
    weight_filler {
      type: "xavier"
    }
  }
}
layer {
  name: "relu_conv1"
  type: "ReLU"
  bottom: "conv1"
  top: "conv1"
}
layer {
  name: "pool1"
  type: "Pooling"
  bottom: "conv1"
  top: "pool1"
  pooling_param {
    pool: MAX
    kernel_size: 3
    stride: 1
  }
}
layer {
  name: "drop1"
  type: "Dropout"
  bottom: "pool1"
  top: "pool1"
  dropout_param {
    dropout_ratio: 0.1
  }
}
layer {
  name: "fire2/squeeze1x1"
  type: "Convolution"
  bottom: "pool1"
  top: "fire2/squeeze1x1"
  convolution_param {
    num_output: 16
    kernel_size: 1
    weight_filler {
      type: "xavier"
    }
  }
}
layer {
  name: "fire2/relu_squeeze1x1"
  type: "ReLU"
  bottom: "fire2/squeeze1x1"
  top: "fire2/squeeze1x1"
}
layer {
  name: "fire2/expand1x1"
  type: "Convolution"
  bottom: "fire2/squeeze1x1"
  top: "fire2/expand1x1"
  convolution_param {
    num_output: 64
    kernel_size: 1
    weight_filler {
      type: "xavier"
    }
  }
}
layer {
  name: "fire2/relu_expand1x1"
  type: "ReLU"
  bottom: "fire2/expand1x1"
  top: "fire2/expand1x1"
}
layer {
  name: "fire2/expand3x3"
  type: "Convolution"
  bottom: "fire2/squeeze1x1"
  top: "fire2/expand3x3"
  convolution_param {
    num_output: 64
    pad: 1
    kernel_size: 3
    weight_filler {
      type: "xavier"
    }
  }
}
layer {
  name: "fire2/relu_expand3x3"
  type: "ReLU"
  bottom: "fire2/expand3x3"
  top: "fire2/expand3x3"
}
layer {
  name: "fire2/concat"
  type: "Concat"
  bottom: "fire2/expand1x1"
  bottom: "fire2/expand3x3"
  top: "fire2/concat"
}
layer {
  name: "fire3/squeeze1x1"
  type: "Convolution"
  bottom: "fire2/concat"
  top: "fire3/squeeze1x1"
  convolution_param {
    num_output: 16
    kernel_size: 1
    weight_filler {
      type: "xavier"
    }
  }
}
layer {
  name: "fire3/relu_squeeze1x1"
  type: "ReLU"
  bottom: "fire3/squeeze1x1"
  top: "fire3/squeeze1x1"
}
layer {
  name: "fire3/expand1x1"
  type: "Convolution"
  bottom: "fire3/squeeze1x1"
  top: "fire3/expand1x1"
  convolution_param {
    num_output: 64
    kernel_size: 1
    weight_filler {
      type: "xavier"
    }
  }
}
layer {
  name: "fire3/relu_expand1x1"
  type: "ReLU"
  bottom: "fire3/expand1x1"
  top: "fire3/expand1x1"
}
layer {
  name: "fire3/expand3x3"
  type: "Convolution"
  bottom: "fire3/squeeze1x1"
  top: "fire3/expand3x3"
  convolution_param {
    num_output: 64
    pad: 1
    kernel_size: 3
    weight_filler {
      type: "xavier"
    }
  }
}
layer {
  name: "fire3/relu_expand3x3"
  type: "ReLU"
  bottom: "fire3/expand3x3"
  top: "fire3/expand3x3"
}
layer {
  name: "fire3/concat"
  type: "Concat"
  bottom: "fire3/expand1x1"
  bottom: "fire3/expand3x3"
  top: "fire3/concat"
}
layer {
  name: "pool3"
  type: "Pooling"
  bottom: "fire3/concat"
  top: "pool3"
  pooling_param {
    pool: MAX
    kernel_size: 3
    stride: 2
  }
}
layer {
  name: "drop2"
  type: "Dropout"
  bottom: "pool3"
  top: "pool3"
  dropout_param {
    dropout_ratio: 0.1
  }
}
layer {
  name: "fire4/squeeze1x1"
  type: "Convolution"
  bottom: "pool3"
  top: "fire4/squeeze1x1"
  convolution_param {
    num_output: 32
    kernel_size: 1
    weight_filler {
      type: "xavier"
    }
  }
}
layer {
  name: "fire4/relu_squeeze1x1"
  type: "ReLU"
  bottom: "fire4/squeeze1x1"
  top: "fire4/squeeze1x1"
}
layer {
  name: "fire4/expand1x1"
  type: "Convolution"
  bottom: "fire4/squeeze1x1"
  top: "fire4/expand1x1"
  convolution_param {
    num_output: 128
    kernel_size: 1
    weight_filler {
      type: "xavier"
    }
  }
}
layer {
  name: "fire4/relu_expand1x1"
  type: "ReLU"
  bottom: "fire4/expand1x1"
  top: "fire4/expand1x1"
}
layer {
  name: "fire4/expand3x3"
  type: "Convolution"
  bottom: "fire4/squeeze1x1"
  top: "fire4/expand3x3"
  convolution_param {
    num_output: 128
    pad: 1
    kernel_size: 3
    weight_filler {
      type: "xavier"
    }
  }
}
layer {
  name: "fire4/relu_expand3x3"
  type: "ReLU"
  bottom: "fire4/expand3x3"
  top: "fire4/expand3x3"
}
layer {
  name: "fire4/concat"
  type: "Concat"
  bottom: "fire4/expand1x1"
  bottom: "fire4/expand3x3"
  top: "fire4/concat"
}
layer {
  name: "fire5/squeeze1x1"
  type: "Convolution"
  bottom: "fire4/concat"
  top: "fire5/squeeze1x1"
  convolution_param {
    num_output: 32
    kernel_size: 1
    weight_filler {
      type: "xavier"
    }
  }
}
layer {
  name: "fire5/relu_squeeze1x1"
  type: "ReLU"
  bottom: "fire5/squeeze1x1"
  top: "fire5/squeeze1x1"
}
layer {
  name: "fire5/expand1x1"
  type: "Convolution"
  bottom: "fire5/squeeze1x1"
  top: "fire5/expand1x1"
  convolution_param {
    num_output: 128
    kernel_size: 1
    weight_filler {
      type: "xavier"
    }
  }
}
layer {
  name: "fire5/relu_expand1x1"
  type: "ReLU"
  bottom: "fire5/expand1x1"
  top: "fire5/expand1x1"
}
layer {
  name: "fire5/expand3x3"
  type: "Convolution"
  bottom: "fire5/squeeze1x1"
  top: "fire5/expand3x3"
  convolution_param {
    num_output: 128
    pad: 1
    kernel_size: 3
    weight_filler {
      type: "xavier"
    }
  }
}
layer {
  name: "fire5/relu_expand3x3"
  type: "ReLU"
  bottom: "fire5/expand3x3"
  top: "fire5/expand3x3"
}
layer {
  name: "fire5/concat"
  type: "Concat"
  bottom: "fire5/expand1x1"
  bottom: "fire5/expand3x3"
  top: "fire5/concat"
}
layer {
  name: "pool5"
  type: "Pooling"
  bottom: "fire5/concat"
  top: "pool5"
  pooling_param {
    pool: MAX
    kernel_size: 3
    stride: 2
  }
}
layer {
  name: "drop3"
  type: "Dropout"
  bottom: "pool5"
  top: "pool5"
  dropout_param {
    dropout_ratio: 0.1
  }
}
layer {
  name: "fire6/squeeze1x1"
  type: "Convolution"
  bottom: "pool5"
  top: "fire6/squeeze1x1"
  convolution_param {
    num_output: 48
    kernel_size: 1
    weight_filler {
      type: "xavier"
    }
  }
}
layer {
  name: "fire6/relu_squeeze1x1"
  type: "ReLU"
  bottom: "fire6/squeeze1x1"
  top: "fire6/squeeze1x1"
}
layer {
  name: "fire6/expand1x1"
  type: "Convolution"
  bottom: "fire6/squeeze1x1"
  top: "fire6/expand1x1"
  convolution_param {
    num_output: 192
    kernel_size: 1
    weight_filler {
      type: "xavier"
    }
  }
}
layer {
  name: "fire6/relu_expand1x1"
  type: "ReLU"
  bottom: "fire6/expand1x1"
  top: "fire6/expand1x1"
}
layer {
  name: "fire6/expand3x3"
  type: "Convolution"
  bottom: "fire6/squeeze1x1"
  top: "fire6/expand3x3"
  convolution_param {
    num_output: 192
    pad: 1
    kernel_size: 3
    weight_filler {
      type: "xavier"
    }
  }
}
layer {
  name: "fire6/relu_expand3x3"
  type: "ReLU"
  bottom: "fire6/expand3x3"
  top: "fire6/expand3x3"
}
layer {
  name: "fire6/concat"
  type: "Concat"
  bottom: "fire6/expand1x1"
  bottom: "fire6/expand3x3"
  top: "fire6/concat"
}
layer {
  name: "fire7/squeeze1x1"
  type: "Convolution"
  bottom: "fire6/concat"
  top: "fire7/squeeze1x1"
  convolution_param {
    num_output: 48
    kernel_size: 1
    weight_filler {
      type: "xavier"
    }
  }
}
layer {
  name: "fire7/relu_squeeze1x1"
  type: "ReLU"
  bottom: "fire7/squeeze1x1"
  top: "fire7/squeeze1x1"
}
layer {
  name: "fire7/expand1x1"
  type: "Convolution"
  bottom: "fire7/squeeze1x1"
  top: "fire7/expand1x1"
  convolution_param {
    num_output: 192
    kernel_size: 1
    weight_filler {
      type: "xavier"
    }
  }
}
layer {
  name: "fire7/relu_expand1x1"
  type: "ReLU"
  bottom: "fire7/expand1x1"
  top: "fire7/expand1x1"
}
layer {
  name: "fire7/expand3x3"
  type: "Convolution"
  bottom: "fire7/squeeze1x1"
  top: "fire7/expand3x3"
  convolution_param {
    num_output: 192
    pad: 1
    kernel_size: 3
    weight_filler {
      type: "xavier"
    }
  }
}
layer {
  name: "fire7/relu_expand3x3"
  type: "ReLU"
  bottom: "fire7/expand3x3"
  top: "fire7/expand3x3"
}
layer {
  name: "fire7/concat"
  type: "Concat"
  bottom: "fire7/expand1x1"
  bottom: "fire7/expand3x3"
  top: "fire7/concat"
}
layer {
  name: "fire8/squeeze1x1"
  type: "Convolution"
  bottom: "fire7/concat"
  top: "fire8/squeeze1x1"
  convolution_param {
    num_output: 64
    kernel_size: 1
    weight_filler {
      type: "xavier"
    }
  }
}
layer {
  name: "fire8/relu_squeeze1x1"
  type: "ReLU"
  bottom: "fire8/squeeze1x1"
  top: "fire8/squeeze1x1"
}
layer {
  name: "fire8/expand1x1"
  type: "Convolution"
  bottom: "fire8/squeeze1x1"
  top: "fire8/expand1x1"
  convolution_param {
    num_output: 256
    kernel_size: 1
    weight_filler {
      type: "xavier"
    }
  }
}
layer {
  name: "fire8/relu_expand1x1"
  type: "ReLU"
  bottom: "fire8/expand1x1"
  top: "fire8/expand1x1"
}
layer {
  name: "fire8/expand3x3"
  type: "Convolution"
  bottom: "fire8/squeeze1x1"
  top: "fire8/expand3x3"
  convolution_param {
    num_output: 256
    pad: 1
    kernel_size: 3
    weight_filler {
      type: "xavier"
    }
  }
}
layer {
  name: "fire8/relu_expand3x3"
  type: "ReLU"
  bottom: "fire8/expand3x3"
  top: "fire8/expand3x3"
}
layer {
  name: "fire8/concat"
  type: "Concat"
  bottom: "fire8/expand1x1"
  bottom: "fire8/expand3x3"
  top: "fire8/concat"
}
layer {
  name: "fire9/squeeze1x1"
  type: "Convolution"
  bottom: "fire8/concat"
  top: "fire9/squeeze1x1"
  convolution_param {
    num_output: 64
    kernel_size: 1
    weight_filler {
      type: "xavier"
    }
  }
}
layer {
  name: "fire9/relu_squeeze1x1"
  type: "ReLU"
  bottom: "fire9/squeeze1x1"
  top: "fire9/squeeze1x1"
}
layer {
  name: "fire9/expand1x1"
  type: "Convolution"
  bottom: "fire9/squeeze1x1"
  top: "fire9/expand1x1"
  convolution_param {
    num_output: 256
    kernel_size: 1
    weight_filler {
      type: "xavier"
    }
  }
}
layer {
  name: "fire9/relu_expand1x1"
  type: "ReLU"
  bottom: "fire9/expand1x1"
  top: "fire9/expand1x1"
}
layer {
  name: "fire9/expand3x3"
  type: "Convolution"
  bottom: "fire9/squeeze1x1"
  top: "fire9/expand3x3"
  convolution_param {
    num_output: 256
    pad: 1
    kernel_size: 3
    weight_filler {
      type: "xavier"
    }
  }
}
layer {
  name: "fire9/relu_expand3x3"
  type: "ReLU"
  bottom: "fire9/expand3x3"
  top: "fire9/expand3x3"
}
layer {
  name: "fire9/concat"
  type: "Concat"
  bottom: "fire9/expand1x1"
  bottom: "fire9/expand3x3"
  top: "fire9/concat"
}
layer {
  name: "drop9"
  type: "Dropout"
  bottom: "fire9/concat"
  top: "fire9/concat"
  dropout_param {
    dropout_ratio: 0.5
  }
}
layer {
  name: "conv10"
  type: "Convolution"
  bottom: "fire9/concat"
  top: "conv10"
  convolution_param {
    num_output: 10
    kernel_size: 1
    weight_filler {
      type: "gaussian"
      mean: 0
      std: 0.01
    }
  }
}
layer {
  name: "relu_conv10"
  type: "ReLU"
  bottom: "conv10"
  top: "conv10"
}
layer {
  name: "pool10"
  type: "Pooling"
  bottom: "conv10"
  top: "pool10"
  pooling_param {
    pool: AVE
    global_pooling: true
  }
}
layer {
  name: "accuracy_training"
  type: "Accuracy"
  bottom: "pool10"
  bottom: "label"
  top: "accuracy_training"
  include {
    phase: TRAIN
  }
}
layer {
  name: "loss"
  type: "SoftmaxWithLoss"
  bottom: "pool10"
  bottom: "label"
  top: "loss"
}
I1129 19:21:12.206305 34092 layer_factory.cpp:58] Creating layer cifar
I1129 19:21:12.212323 34092 db_leveldb.cpp:18] Opened leveldb examples/cifar10/cifar10_train_leveldb_padding
I1129 19:21:12.213290 34092 net.cpp:84] Creating Layer cifar
I1129 19:21:12.213290 34092 net.cpp:380] cifar -> data
I1129 19:21:12.213290 34092 net.cpp:380] cifar -> label
I1129 19:21:12.213290 34092 common.cpp:36] System entropy source not available, using fallback algorithm to generate seed instead.
I1129 19:21:12.214290 34092 data_layer.cpp:45] output data size: 100,3,32,32
I1129 19:21:12.225291 34092 net.cpp:122] Setting up cifar
I1129 19:21:12.226294 34092 net.cpp:129] Top shape: 100 3 32 32 (307200)
I1129 19:21:12.226294 34092 net.cpp:129] Top shape: 100 (100)
I1129 19:21:12.226294 34092 net.cpp:137] Memory required for data: 1229200
I1129 19:21:12.226294 34092 layer_factory.cpp:58] Creating layer label_cifar_1_split
I1129 19:21:12.226294 34092 net.cpp:84] Creating Layer label_cifar_1_split
I1129 19:21:12.226294 34092 net.cpp:406] label_cifar_1_split <- label
I1129 19:21:12.226294 34092 net.cpp:380] label_cifar_1_split -> label_cifar_1_split_0
I1129 19:21:12.226294 34092 net.cpp:380] label_cifar_1_split -> label_cifar_1_split_1
I1129 19:21:12.226294 34092 net.cpp:122] Setting up label_cifar_1_split
I1129 19:21:12.226294 34092 net.cpp:129] Top shape: 100 (100)
I1129 19:21:12.226294 34092 net.cpp:129] Top shape: 100 (100)
I1129 19:21:12.226294 34092 net.cpp:137] Memory required for data: 1230000
I1129 19:21:12.226294 34092 layer_factory.cpp:58] Creating layer conv1
I1129 19:21:12.226294 34092 net.cpp:84] Creating Layer conv1
I1129 19:21:12.226294 34092 net.cpp:406] conv1 <- data
I1129 19:21:12.226294 34092 net.cpp:380] conv1 -> conv1
I1129 19:21:12.227290 25000 common.cpp:36] System entropy source not available, using fallback algorithm to generate seed instead.
I1129 19:21:12.485822 34092 net.cpp:122] Setting up conv1
I1129 19:21:12.485822 34092 net.cpp:129] Top shape: 100 64 30 30 (5760000)
I1129 19:21:12.485822 34092 net.cpp:137] Memory required for data: 24270000
I1129 19:21:12.485822 34092 layer_factory.cpp:58] Creating layer relu_conv1
I1129 19:21:12.485822 34092 net.cpp:84] Creating Layer relu_conv1
I1129 19:21:12.485822 34092 net.cpp:406] relu_conv1 <- conv1
I1129 19:21:12.485822 34092 net.cpp:367] relu_conv1 -> conv1 (in-place)
I1129 19:21:12.485822 34092 net.cpp:122] Setting up relu_conv1
I1129 19:21:12.485822 34092 net.cpp:129] Top shape: 100 64 30 30 (5760000)
I1129 19:21:12.485822 34092 net.cpp:137] Memory required for data: 47310000
I1129 19:21:12.485822 34092 layer_factory.cpp:58] Creating layer pool1
I1129 19:21:12.485822 34092 net.cpp:84] Creating Layer pool1
I1129 19:21:12.485822 34092 net.cpp:406] pool1 <- conv1
I1129 19:21:12.485822 34092 net.cpp:380] pool1 -> pool1
I1129 19:21:12.485822 34092 net.cpp:122] Setting up pool1
I1129 19:21:12.485822 34092 net.cpp:129] Top shape: 100 64 28 28 (5017600)
I1129 19:21:12.485822 34092 net.cpp:137] Memory required for data: 67380400
I1129 19:21:12.485822 34092 layer_factory.cpp:58] Creating layer drop1
I1129 19:21:12.485822 34092 net.cpp:84] Creating Layer drop1
I1129 19:21:12.485822 34092 net.cpp:406] drop1 <- pool1
I1129 19:21:12.485822 34092 net.cpp:367] drop1 -> pool1 (in-place)
I1129 19:21:12.485822 34092 net.cpp:122] Setting up drop1
I1129 19:21:12.485822 34092 net.cpp:129] Top shape: 100 64 28 28 (5017600)
I1129 19:21:12.485822 34092 net.cpp:137] Memory required for data: 87450800
I1129 19:21:12.485822 34092 layer_factory.cpp:58] Creating layer fire2/squeeze1x1
I1129 19:21:12.485822 34092 net.cpp:84] Creating Layer fire2/squeeze1x1
I1129 19:21:12.485822 34092 net.cpp:406] fire2/squeeze1x1 <- pool1
I1129 19:21:12.485822 34092 net.cpp:380] fire2/squeeze1x1 -> fire2/squeeze1x1
I1129 19:21:12.487821 34092 net.cpp:122] Setting up fire2/squeeze1x1
I1129 19:21:12.487821 34092 net.cpp:129] Top shape: 100 16 28 28 (1254400)
I1129 19:21:12.487821 34092 net.cpp:137] Memory required for data: 92468400
I1129 19:21:12.487821 34092 layer_factory.cpp:58] Creating layer fire2/relu_squeeze1x1
I1129 19:21:12.487821 34092 net.cpp:84] Creating Layer fire2/relu_squeeze1x1
I1129 19:21:12.487821 34092 net.cpp:406] fire2/relu_squeeze1x1 <- fire2/squeeze1x1
I1129 19:21:12.487821 34092 net.cpp:367] fire2/relu_squeeze1x1 -> fire2/squeeze1x1 (in-place)
I1129 19:21:12.487821 34092 net.cpp:122] Setting up fire2/relu_squeeze1x1
I1129 19:21:12.487821 34092 net.cpp:129] Top shape: 100 16 28 28 (1254400)
I1129 19:21:12.487821 34092 net.cpp:137] Memory required for data: 97486000
I1129 19:21:12.487821 34092 layer_factory.cpp:58] Creating layer fire2/squeeze1x1_fire2/relu_squeeze1x1_0_split
I1129 19:21:12.487821 34092 net.cpp:84] Creating Layer fire2/squeeze1x1_fire2/relu_squeeze1x1_0_split
I1129 19:21:12.487821 34092 net.cpp:406] fire2/squeeze1x1_fire2/relu_squeeze1x1_0_split <- fire2/squeeze1x1
I1129 19:21:12.487821 34092 net.cpp:380] fire2/squeeze1x1_fire2/relu_squeeze1x1_0_split -> fire2/squeeze1x1_fire2/relu_squeeze1x1_0_split_0
I1129 19:21:12.487821 34092 net.cpp:380] fire2/squeeze1x1_fire2/relu_squeeze1x1_0_split -> fire2/squeeze1x1_fire2/relu_squeeze1x1_0_split_1
I1129 19:21:12.487821 34092 net.cpp:122] Setting up fire2/squeeze1x1_fire2/relu_squeeze1x1_0_split
I1129 19:21:12.487821 34092 net.cpp:129] Top shape: 100 16 28 28 (1254400)
I1129 19:21:12.487821 34092 net.cpp:129] Top shape: 100 16 28 28 (1254400)
I1129 19:21:12.487821 34092 net.cpp:137] Memory required for data: 107521200
I1129 19:21:12.487821 34092 layer_factory.cpp:58] Creating layer fire2/expand1x1
I1129 19:21:12.487821 34092 net.cpp:84] Creating Layer fire2/expand1x1
I1129 19:21:12.487821 34092 net.cpp:406] fire2/expand1x1 <- fire2/squeeze1x1_fire2/relu_squeeze1x1_0_split_0
I1129 19:21:12.487821 34092 net.cpp:380] fire2/expand1x1 -> fire2/expand1x1
I1129 19:21:12.488821 34092 net.cpp:122] Setting up fire2/expand1x1
I1129 19:21:12.488821 34092 net.cpp:129] Top shape: 100 64 28 28 (5017600)
I1129 19:21:12.488821 34092 net.cpp:137] Memory required for data: 127591600
I1129 19:21:12.488821 34092 layer_factory.cpp:58] Creating layer fire2/relu_expand1x1
I1129 19:21:12.488821 34092 net.cpp:84] Creating Layer fire2/relu_expand1x1
I1129 19:21:12.488821 34092 net.cpp:406] fire2/relu_expand1x1 <- fire2/expand1x1
I1129 19:21:12.488821 34092 net.cpp:367] fire2/relu_expand1x1 -> fire2/expand1x1 (in-place)
I1129 19:21:12.489822 34092 net.cpp:122] Setting up fire2/relu_expand1x1
I1129 19:21:12.489822 34092 net.cpp:129] Top shape: 100 64 28 28 (5017600)
I1129 19:21:12.489822 34092 net.cpp:137] Memory required for data: 147662000
I1129 19:21:12.489822 34092 layer_factory.cpp:58] Creating layer fire2/expand3x3
I1129 19:21:12.489822 34092 net.cpp:84] Creating Layer fire2/expand3x3
I1129 19:21:12.489822 34092 net.cpp:406] fire2/expand3x3 <- fire2/squeeze1x1_fire2/relu_squeeze1x1_0_split_1
I1129 19:21:12.489822 34092 net.cpp:380] fire2/expand3x3 -> fire2/expand3x3
I1129 19:21:12.491837 34092 net.cpp:122] Setting up fire2/expand3x3
I1129 19:21:12.491837 34092 net.cpp:129] Top shape: 100 64 28 28 (5017600)
I1129 19:21:12.491837 34092 net.cpp:137] Memory required for data: 167732400
I1129 19:21:12.491837 34092 layer_factory.cpp:58] Creating layer fire2/relu_expand3x3
I1129 19:21:12.491837 34092 net.cpp:84] Creating Layer fire2/relu_expand3x3
I1129 19:21:12.491837 34092 net.cpp:406] fire2/relu_expand3x3 <- fire2/expand3x3
I1129 19:21:12.491837 34092 net.cpp:367] fire2/relu_expand3x3 -> fire2/expand3x3 (in-place)
I1129 19:21:12.491837 34092 net.cpp:122] Setting up fire2/relu_expand3x3
I1129 19:21:12.491837 34092 net.cpp:129] Top shape: 100 64 28 28 (5017600)
I1129 19:21:12.491837 34092 net.cpp:137] Memory required for data: 187802800
I1129 19:21:12.491837 34092 layer_factory.cpp:58] Creating layer fire2/concat
I1129 19:21:12.491837 34092 net.cpp:84] Creating Layer fire2/concat
I1129 19:21:12.491837 34092 net.cpp:406] fire2/concat <- fire2/expand1x1
I1129 19:21:12.491837 34092 net.cpp:406] fire2/concat <- fire2/expand3x3
I1129 19:21:12.491837 34092 net.cpp:380] fire2/concat -> fire2/concat
I1129 19:21:12.491837 34092 net.cpp:122] Setting up fire2/concat
I1129 19:21:12.491837 34092 net.cpp:129] Top shape: 100 128 28 28 (10035200)
I1129 19:21:12.491837 34092 net.cpp:137] Memory required for data: 227943600
I1129 19:21:12.492836 34092 layer_factory.cpp:58] Creating layer fire3/squeeze1x1
I1129 19:21:12.492836 34092 net.cpp:84] Creating Layer fire3/squeeze1x1
I1129 19:21:12.492836 34092 net.cpp:406] fire3/squeeze1x1 <- fire2/concat
I1129 19:21:12.492836 34092 net.cpp:380] fire3/squeeze1x1 -> fire3/squeeze1x1
I1129 19:21:12.493834 34092 net.cpp:122] Setting up fire3/squeeze1x1
I1129 19:21:12.493834 34092 net.cpp:129] Top shape: 100 16 28 28 (1254400)
I1129 19:21:12.493834 34092 net.cpp:137] Memory required for data: 232961200
I1129 19:21:12.493834 34092 layer_factory.cpp:58] Creating layer fire3/relu_squeeze1x1
I1129 19:21:12.493834 34092 net.cpp:84] Creating Layer fire3/relu_squeeze1x1
I1129 19:21:12.493834 34092 net.cpp:406] fire3/relu_squeeze1x1 <- fire3/squeeze1x1
I1129 19:21:12.493834 34092 net.cpp:367] fire3/relu_squeeze1x1 -> fire3/squeeze1x1 (in-place)
I1129 19:21:12.493834 34092 net.cpp:122] Setting up fire3/relu_squeeze1x1
I1129 19:21:12.493834 34092 net.cpp:129] Top shape: 100 16 28 28 (1254400)
I1129 19:21:12.493834 34092 net.cpp:137] Memory required for data: 237978800
I1129 19:21:12.493834 34092 layer_factory.cpp:58] Creating layer fire3/squeeze1x1_fire3/relu_squeeze1x1_0_split
I1129 19:21:12.493834 34092 net.cpp:84] Creating Layer fire3/squeeze1x1_fire3/relu_squeeze1x1_0_split
I1129 19:21:12.493834 34092 net.cpp:406] fire3/squeeze1x1_fire3/relu_squeeze1x1_0_split <- fire3/squeeze1x1
I1129 19:21:12.493834 34092 net.cpp:380] fire3/squeeze1x1_fire3/relu_squeeze1x1_0_split -> fire3/squeeze1x1_fire3/relu_squeeze1x1_0_split_0
I1129 19:21:12.493834 34092 net.cpp:380] fire3/squeeze1x1_fire3/relu_squeeze1x1_0_split -> fire3/squeeze1x1_fire3/relu_squeeze1x1_0_split_1
I1129 19:21:12.493834 34092 net.cpp:122] Setting up fire3/squeeze1x1_fire3/relu_squeeze1x1_0_split
I1129 19:21:12.494833 34092 net.cpp:129] Top shape: 100 16 28 28 (1254400)
I1129 19:21:12.494833 34092 net.cpp:129] Top shape: 100 16 28 28 (1254400)
I1129 19:21:12.494833 34092 net.cpp:137] Memory required for data: 248014000
I1129 19:21:12.494833 34092 layer_factory.cpp:58] Creating layer fire3/expand1x1
I1129 19:21:12.494833 34092 net.cpp:84] Creating Layer fire3/expand1x1
I1129 19:21:12.494833 34092 net.cpp:406] fire3/expand1x1 <- fire3/squeeze1x1_fire3/relu_squeeze1x1_0_split_0
I1129 19:21:12.494833 34092 net.cpp:380] fire3/expand1x1 -> fire3/expand1x1
I1129 19:21:12.494833 34092 net.cpp:122] Setting up fire3/expand1x1
I1129 19:21:12.494833 34092 net.cpp:129] Top shape: 100 64 28 28 (5017600)
I1129 19:21:12.494833 34092 net.cpp:137] Memory required for data: 268084400
I1129 19:21:12.494833 34092 layer_factory.cpp:58] Creating layer fire3/relu_expand1x1
I1129 19:21:12.494833 34092 net.cpp:84] Creating Layer fire3/relu_expand1x1
I1129 19:21:12.494833 34092 net.cpp:406] fire3/relu_expand1x1 <- fire3/expand1x1
I1129 19:21:12.494833 34092 net.cpp:367] fire3/relu_expand1x1 -> fire3/expand1x1 (in-place)
I1129 19:21:12.495833 34092 net.cpp:122] Setting up fire3/relu_expand1x1
I1129 19:21:12.495833 34092 net.cpp:129] Top shape: 100 64 28 28 (5017600)
I1129 19:21:12.495833 34092 net.cpp:137] Memory required for data: 288154800
I1129 19:21:12.495833 34092 layer_factory.cpp:58] Creating layer fire3/expand3x3
I1129 19:21:12.495833 34092 net.cpp:84] Creating Layer fire3/expand3x3
I1129 19:21:12.495833 34092 net.cpp:406] fire3/expand3x3 <- fire3/squeeze1x1_fire3/relu_squeeze1x1_0_split_1
I1129 19:21:12.495833 34092 net.cpp:380] fire3/expand3x3 -> fire3/expand3x3
I1129 19:21:12.496822 34092 net.cpp:122] Setting up fire3/expand3x3
I1129 19:21:12.496822 34092 net.cpp:129] Top shape: 100 64 28 28 (5017600)
I1129 19:21:12.496822 34092 net.cpp:137] Memory required for data: 308225200
I1129 19:21:12.496822 34092 layer_factory.cpp:58] Creating layer fire3/relu_expand3x3
I1129 19:21:12.496822 34092 net.cpp:84] Creating Layer fire3/relu_expand3x3
I1129 19:21:12.496822 34092 net.cpp:406] fire3/relu_expand3x3 <- fire3/expand3x3
I1129 19:21:12.496822 34092 net.cpp:367] fire3/relu_expand3x3 -> fire3/expand3x3 (in-place)
I1129 19:21:12.497823 34092 net.cpp:122] Setting up fire3/relu_expand3x3
I1129 19:21:12.497823 34092 net.cpp:129] Top shape: 100 64 28 28 (5017600)
I1129 19:21:12.497823 34092 net.cpp:137] Memory required for data: 328295600
I1129 19:21:12.497823 34092 layer_factory.cpp:58] Creating layer fire3/concat
I1129 19:21:12.497823 34092 net.cpp:84] Creating Layer fire3/concat
I1129 19:21:12.497823 34092 net.cpp:406] fire3/concat <- fire3/expand1x1
I1129 19:21:12.497823 34092 net.cpp:406] fire3/concat <- fire3/expand3x3
I1129 19:21:12.497823 34092 net.cpp:380] fire3/concat -> fire3/concat
I1129 19:21:12.497823 34092 net.cpp:122] Setting up fire3/concat
I1129 19:21:12.497823 34092 net.cpp:129] Top shape: 100 128 28 28 (10035200)
I1129 19:21:12.497823 34092 net.cpp:137] Memory required for data: 368436400
I1129 19:21:12.497823 34092 layer_factory.cpp:58] Creating layer pool3
I1129 19:21:12.497823 34092 net.cpp:84] Creating Layer pool3
I1129 19:21:12.497823 34092 net.cpp:406] pool3 <- fire3/concat
I1129 19:21:12.497823 34092 net.cpp:380] pool3 -> pool3
I1129 19:21:12.497823 34092 net.cpp:122] Setting up pool3
I1129 19:21:12.497823 34092 net.cpp:129] Top shape: 100 128 14 14 (2508800)
I1129 19:21:12.497823 34092 net.cpp:137] Memory required for data: 378471600
I1129 19:21:12.497823 34092 layer_factory.cpp:58] Creating layer drop2
I1129 19:21:12.497823 34092 net.cpp:84] Creating Layer drop2
I1129 19:21:12.497823 34092 net.cpp:406] drop2 <- pool3
I1129 19:21:12.497823 34092 net.cpp:367] drop2 -> pool3 (in-place)
I1129 19:21:12.497823 34092 net.cpp:122] Setting up drop2
I1129 19:21:12.497823 34092 net.cpp:129] Top shape: 100 128 14 14 (2508800)
I1129 19:21:12.497823 34092 net.cpp:137] Memory required for data: 388506800
I1129 19:21:12.497823 34092 layer_factory.cpp:58] Creating layer fire4/squeeze1x1
I1129 19:21:12.497823 34092 net.cpp:84] Creating Layer fire4/squeeze1x1
I1129 19:21:12.497823 34092 net.cpp:406] fire4/squeeze1x1 <- pool3
I1129 19:21:12.497823 34092 net.cpp:380] fire4/squeeze1x1 -> fire4/squeeze1x1
I1129 19:21:12.498822 34092 net.cpp:122] Setting up fire4/squeeze1x1
I1129 19:21:12.498822 34092 net.cpp:129] Top shape: 100 32 14 14 (627200)
I1129 19:21:12.498822 34092 net.cpp:137] Memory required for data: 391015600
I1129 19:21:12.498822 34092 layer_factory.cpp:58] Creating layer fire4/relu_squeeze1x1
I1129 19:21:12.498822 34092 net.cpp:84] Creating Layer fire4/relu_squeeze1x1
I1129 19:21:12.498822 34092 net.cpp:406] fire4/relu_squeeze1x1 <- fire4/squeeze1x1
I1129 19:21:12.498822 34092 net.cpp:367] fire4/relu_squeeze1x1 -> fire4/squeeze1x1 (in-place)
I1129 19:21:12.499821 34092 net.cpp:122] Setting up fire4/relu_squeeze1x1
I1129 19:21:12.499821 34092 net.cpp:129] Top shape: 100 32 14 14 (627200)
I1129 19:21:12.499821 34092 net.cpp:137] Memory required for data: 393524400
I1129 19:21:12.499821 34092 layer_factory.cpp:58] Creating layer fire4/squeeze1x1_fire4/relu_squeeze1x1_0_split
I1129 19:21:12.499821 34092 net.cpp:84] Creating Layer fire4/squeeze1x1_fire4/relu_squeeze1x1_0_split
I1129 19:21:12.499821 34092 net.cpp:406] fire4/squeeze1x1_fire4/relu_squeeze1x1_0_split <- fire4/squeeze1x1
I1129 19:21:12.499821 34092 net.cpp:380] fire4/squeeze1x1_fire4/relu_squeeze1x1_0_split -> fire4/squeeze1x1_fire4/relu_squeeze1x1_0_split_0
I1129 19:21:12.499821 34092 net.cpp:380] fire4/squeeze1x1_fire4/relu_squeeze1x1_0_split -> fire4/squeeze1x1_fire4/relu_squeeze1x1_0_split_1
I1129 19:21:12.499821 34092 net.cpp:122] Setting up fire4/squeeze1x1_fire4/relu_squeeze1x1_0_split
I1129 19:21:12.499821 34092 net.cpp:129] Top shape: 100 32 14 14 (627200)
I1129 19:21:12.499821 34092 net.cpp:129] Top shape: 100 32 14 14 (627200)
I1129 19:21:12.499821 34092 net.cpp:137] Memory required for data: 398542000
I1129 19:21:12.499821 34092 layer_factory.cpp:58] Creating layer fire4/expand1x1
I1129 19:21:12.499821 34092 net.cpp:84] Creating Layer fire4/expand1x1
I1129 19:21:12.499821 34092 net.cpp:406] fire4/expand1x1 <- fire4/squeeze1x1_fire4/relu_squeeze1x1_0_split_0
I1129 19:21:12.499821 34092 net.cpp:380] fire4/expand1x1 -> fire4/expand1x1
I1129 19:21:12.500821 34092 net.cpp:122] Setting up fire4/expand1x1
I1129 19:21:12.500821 34092 net.cpp:129] Top shape: 100 128 14 14 (2508800)
I1129 19:21:12.500821 34092 net.cpp:137] Memory required for data: 408577200
I1129 19:21:12.500821 34092 layer_factory.cpp:58] Creating layer fire4/relu_expand1x1
I1129 19:21:12.500821 34092 net.cpp:84] Creating Layer fire4/relu_expand1x1
I1129 19:21:12.500821 34092 net.cpp:406] fire4/relu_expand1x1 <- fire4/expand1x1
I1129 19:21:12.500821 34092 net.cpp:367] fire4/relu_expand1x1 -> fire4/expand1x1 (in-place)
I1129 19:21:12.500821 34092 net.cpp:122] Setting up fire4/relu_expand1x1
I1129 19:21:12.500821 34092 net.cpp:129] Top shape: 100 128 14 14 (2508800)
I1129 19:21:12.500821 34092 net.cpp:137] Memory required for data: 418612400
I1129 19:21:12.500821 34092 layer_factory.cpp:58] Creating layer fire4/expand3x3
I1129 19:21:12.500821 34092 net.cpp:84] Creating Layer fire4/expand3x3
I1129 19:21:12.500821 34092 net.cpp:406] fire4/expand3x3 <- fire4/squeeze1x1_fire4/relu_squeeze1x1_0_split_1
I1129 19:21:12.500821 34092 net.cpp:380] fire4/expand3x3 -> fire4/expand3x3
I1129 19:21:12.502823 34092 net.cpp:122] Setting up fire4/expand3x3
I1129 19:21:12.502823 34092 net.cpp:129] Top shape: 100 128 14 14 (2508800)
I1129 19:21:12.502823 34092 net.cpp:137] Memory required for data: 428647600
I1129 19:21:12.502823 34092 layer_factory.cpp:58] Creating layer fire4/relu_expand3x3
I1129 19:21:12.502823 34092 net.cpp:84] Creating Layer fire4/relu_expand3x3
I1129 19:21:12.502823 34092 net.cpp:406] fire4/relu_expand3x3 <- fire4/expand3x3
I1129 19:21:12.502823 34092 net.cpp:367] fire4/relu_expand3x3 -> fire4/expand3x3 (in-place)
I1129 19:21:12.502823 34092 net.cpp:122] Setting up fire4/relu_expand3x3
I1129 19:21:12.502823 34092 net.cpp:129] Top shape: 100 128 14 14 (2508800)
I1129 19:21:12.502823 34092 net.cpp:137] Memory required for data: 438682800
I1129 19:21:12.502823 34092 layer_factory.cpp:58] Creating layer fire4/concat
I1129 19:21:12.502823 34092 net.cpp:84] Creating Layer fire4/concat
I1129 19:21:12.502823 34092 net.cpp:406] fire4/concat <- fire4/expand1x1
I1129 19:21:12.502823 34092 net.cpp:406] fire4/concat <- fire4/expand3x3
I1129 19:21:12.502823 34092 net.cpp:380] fire4/concat -> fire4/concat
I1129 19:21:12.502823 34092 net.cpp:122] Setting up fire4/concat
I1129 19:21:12.502823 34092 net.cpp:129] Top shape: 100 256 14 14 (5017600)
I1129 19:21:12.502823 34092 net.cpp:137] Memory required for data: 458753200
I1129 19:21:12.502823 34092 layer_factory.cpp:58] Creating layer fire5/squeeze1x1
I1129 19:21:12.502823 34092 net.cpp:84] Creating Layer fire5/squeeze1x1
I1129 19:21:12.502823 34092 net.cpp:406] fire5/squeeze1x1 <- fire4/concat
I1129 19:21:12.502823 34092 net.cpp:380] fire5/squeeze1x1 -> fire5/squeeze1x1
I1129 19:21:12.504822 34092 net.cpp:122] Setting up fire5/squeeze1x1
I1129 19:21:12.504822 34092 net.cpp:129] Top shape: 100 32 14 14 (627200)
I1129 19:21:12.504822 34092 net.cpp:137] Memory required for data: 461262000
I1129 19:21:12.504822 34092 layer_factory.cpp:58] Creating layer fire5/relu_squeeze1x1
I1129 19:21:12.504822 34092 net.cpp:84] Creating Layer fire5/relu_squeeze1x1
I1129 19:21:12.504822 34092 net.cpp:406] fire5/relu_squeeze1x1 <- fire5/squeeze1x1
I1129 19:21:12.504822 34092 net.cpp:367] fire5/relu_squeeze1x1 -> fire5/squeeze1x1 (in-place)
I1129 19:21:12.504822 34092 net.cpp:122] Setting up fire5/relu_squeeze1x1
I1129 19:21:12.504822 34092 net.cpp:129] Top shape: 100 32 14 14 (627200)
I1129 19:21:12.504822 34092 net.cpp:137] Memory required for data: 463770800
I1129 19:21:12.504822 34092 layer_factory.cpp:58] Creating layer fire5/squeeze1x1_fire5/relu_squeeze1x1_0_split
I1129 19:21:12.504822 34092 net.cpp:84] Creating Layer fire5/squeeze1x1_fire5/relu_squeeze1x1_0_split
I1129 19:21:12.504822 34092 net.cpp:406] fire5/squeeze1x1_fire5/relu_squeeze1x1_0_split <- fire5/squeeze1x1
I1129 19:21:12.504822 34092 net.cpp:380] fire5/squeeze1x1_fire5/relu_squeeze1x1_0_split -> fire5/squeeze1x1_fire5/relu_squeeze1x1_0_split_0
I1129 19:21:12.504822 34092 net.cpp:380] fire5/squeeze1x1_fire5/relu_squeeze1x1_0_split -> fire5/squeeze1x1_fire5/relu_squeeze1x1_0_split_1
I1129 19:21:12.504822 34092 net.cpp:122] Setting up fire5/squeeze1x1_fire5/relu_squeeze1x1_0_split
I1129 19:21:12.504822 34092 net.cpp:129] Top shape: 100 32 14 14 (627200)
I1129 19:21:12.504822 34092 net.cpp:129] Top shape: 100 32 14 14 (627200)
I1129 19:21:12.504822 34092 net.cpp:137] Memory required for data: 468788400
I1129 19:21:12.504822 34092 layer_factory.cpp:58] Creating layer fire5/expand1x1
I1129 19:21:12.504822 34092 net.cpp:84] Creating Layer fire5/expand1x1
I1129 19:21:12.504822 34092 net.cpp:406] fire5/expand1x1 <- fire5/squeeze1x1_fire5/relu_squeeze1x1_0_split_0
I1129 19:21:12.504822 34092 net.cpp:380] fire5/expand1x1 -> fire5/expand1x1
I1129 19:21:12.506821 34092 net.cpp:122] Setting up fire5/expand1x1
I1129 19:21:12.506821 34092 net.cpp:129] Top shape: 100 128 14 14 (2508800)
I1129 19:21:12.506821 34092 net.cpp:137] Memory required for data: 478823600
I1129 19:21:12.506821 34092 layer_factory.cpp:58] Creating layer fire5/relu_expand1x1
I1129 19:21:12.506821 34092 net.cpp:84] Creating Layer fire5/relu_expand1x1
I1129 19:21:12.506821 34092 net.cpp:406] fire5/relu_expand1x1 <- fire5/expand1x1
I1129 19:21:12.506821 34092 net.cpp:367] fire5/relu_expand1x1 -> fire5/expand1x1 (in-place)
I1129 19:21:12.506821 34092 net.cpp:122] Setting up fire5/relu_expand1x1
I1129 19:21:12.506821 34092 net.cpp:129] Top shape: 100 128 14 14 (2508800)
I1129 19:21:12.507833 34092 net.cpp:137] Memory required for data: 488858800
I1129 19:21:12.507833 34092 layer_factory.cpp:58] Creating layer fire5/expand3x3
I1129 19:21:12.507833 34092 net.cpp:84] Creating Layer fire5/expand3x3
I1129 19:21:12.507833 34092 net.cpp:406] fire5/expand3x3 <- fire5/squeeze1x1_fire5/relu_squeeze1x1_0_split_1
I1129 19:21:12.507833 34092 net.cpp:380] fire5/expand3x3 -> fire5/expand3x3
I1129 19:21:12.508834 34092 net.cpp:122] Setting up fire5/expand3x3
I1129 19:21:12.508834 34092 net.cpp:129] Top shape: 100 128 14 14 (2508800)
I1129 19:21:12.508834 34092 net.cpp:137] Memory required for data: 498894000
I1129 19:21:12.508834 34092 layer_factory.cpp:58] Creating layer fire5/relu_expand3x3
I1129 19:21:12.508834 34092 net.cpp:84] Creating Layer fire5/relu_expand3x3
I1129 19:21:12.508834 34092 net.cpp:406] fire5/relu_expand3x3 <- fire5/expand3x3
I1129 19:21:12.508834 34092 net.cpp:367] fire5/relu_expand3x3 -> fire5/expand3x3 (in-place)
I1129 19:21:12.508834 34092 net.cpp:122] Setting up fire5/relu_expand3x3
I1129 19:21:12.508834 34092 net.cpp:129] Top shape: 100 128 14 14 (2508800)
I1129 19:21:12.508834 34092 net.cpp:137] Memory required for data: 508929200
I1129 19:21:12.508834 34092 layer_factory.cpp:58] Creating layer fire5/concat
I1129 19:21:12.508834 34092 net.cpp:84] Creating Layer fire5/concat
I1129 19:21:12.508834 34092 net.cpp:406] fire5/concat <- fire5/expand1x1
I1129 19:21:12.508834 34092 net.cpp:406] fire5/concat <- fire5/expand3x3
I1129 19:21:12.508834 34092 net.cpp:380] fire5/concat -> fire5/concat
I1129 19:21:12.508834 34092 net.cpp:122] Setting up fire5/concat
I1129 19:21:12.508834 34092 net.cpp:129] Top shape: 100 256 14 14 (5017600)
I1129 19:21:12.508834 34092 net.cpp:137] Memory required for data: 528999600
I1129 19:21:12.508834 34092 layer_factory.cpp:58] Creating layer pool5
I1129 19:21:12.508834 34092 net.cpp:84] Creating Layer pool5
I1129 19:21:12.508834 34092 net.cpp:406] pool5 <- fire5/concat
I1129 19:21:12.508834 34092 net.cpp:380] pool5 -> pool5
I1129 19:21:12.508834 34092 net.cpp:122] Setting up pool5
I1129 19:21:12.509832 34092 net.cpp:129] Top shape: 100 256 7 7 (1254400)
I1129 19:21:12.509832 34092 net.cpp:137] Memory required for data: 534017200
I1129 19:21:12.509832 34092 layer_factory.cpp:58] Creating layer drop3
I1129 19:21:12.509832 34092 net.cpp:84] Creating Layer drop3
I1129 19:21:12.509832 34092 net.cpp:406] drop3 <- pool5
I1129 19:21:12.509832 34092 net.cpp:367] drop3 -> pool5 (in-place)
I1129 19:21:12.509832 34092 net.cpp:122] Setting up drop3
I1129 19:21:12.509832 34092 net.cpp:129] Top shape: 100 256 7 7 (1254400)
I1129 19:21:12.509832 34092 net.cpp:137] Memory required for data: 539034800
I1129 19:21:12.509832 34092 layer_factory.cpp:58] Creating layer fire6/squeeze1x1
I1129 19:21:12.509832 34092 net.cpp:84] Creating Layer fire6/squeeze1x1
I1129 19:21:12.509832 34092 net.cpp:406] fire6/squeeze1x1 <- pool5
I1129 19:21:12.509832 34092 net.cpp:380] fire6/squeeze1x1 -> fire6/squeeze1x1
I1129 19:21:12.510823 34092 net.cpp:122] Setting up fire6/squeeze1x1
I1129 19:21:12.510823 34092 net.cpp:129] Top shape: 100 48 7 7 (235200)
I1129 19:21:12.510823 34092 net.cpp:137] Memory required for data: 539975600
I1129 19:21:12.510823 34092 layer_factory.cpp:58] Creating layer fire6/relu_squeeze1x1
I1129 19:21:12.510823 34092 net.cpp:84] Creating Layer fire6/relu_squeeze1x1
I1129 19:21:12.510823 34092 net.cpp:406] fire6/relu_squeeze1x1 <- fire6/squeeze1x1
I1129 19:21:12.510823 34092 net.cpp:367] fire6/relu_squeeze1x1 -> fire6/squeeze1x1 (in-place)
I1129 19:21:12.510823 34092 net.cpp:122] Setting up fire6/relu_squeeze1x1
I1129 19:21:12.510823 34092 net.cpp:129] Top shape: 100 48 7 7 (235200)
I1129 19:21:12.510823 34092 net.cpp:137] Memory required for data: 540916400
I1129 19:21:12.510823 34092 layer_factory.cpp:58] Creating layer fire6/squeeze1x1_fire6/relu_squeeze1x1_0_split
I1129 19:21:12.510823 34092 net.cpp:84] Creating Layer fire6/squeeze1x1_fire6/relu_squeeze1x1_0_split
I1129 19:21:12.510823 34092 net.cpp:406] fire6/squeeze1x1_fire6/relu_squeeze1x1_0_split <- fire6/squeeze1x1
I1129 19:21:12.510823 34092 net.cpp:380] fire6/squeeze1x1_fire6/relu_squeeze1x1_0_split -> fire6/squeeze1x1_fire6/relu_squeeze1x1_0_split_0
I1129 19:21:12.510823 34092 net.cpp:380] fire6/squeeze1x1_fire6/relu_squeeze1x1_0_split -> fire6/squeeze1x1_fire6/relu_squeeze1x1_0_split_1
I1129 19:21:12.510823 34092 net.cpp:122] Setting up fire6/squeeze1x1_fire6/relu_squeeze1x1_0_split
I1129 19:21:12.510823 34092 net.cpp:129] Top shape: 100 48 7 7 (235200)
I1129 19:21:12.510823 34092 net.cpp:129] Top shape: 100 48 7 7 (235200)
I1129 19:21:12.510823 34092 net.cpp:137] Memory required for data: 542798000
I1129 19:21:12.510823 34092 layer_factory.cpp:58] Creating layer fire6/expand1x1
I1129 19:21:12.510823 34092 net.cpp:84] Creating Layer fire6/expand1x1
I1129 19:21:12.510823 34092 net.cpp:406] fire6/expand1x1 <- fire6/squeeze1x1_fire6/relu_squeeze1x1_0_split_0
I1129 19:21:12.510823 34092 net.cpp:380] fire6/expand1x1 -> fire6/expand1x1
I1129 19:21:12.512821 34092 net.cpp:122] Setting up fire6/expand1x1
I1129 19:21:12.512821 34092 net.cpp:129] Top shape: 100 192 7 7 (940800)
I1129 19:21:12.512821 34092 net.cpp:137] Memory required for data: 546561200
I1129 19:21:12.512821 34092 layer_factory.cpp:58] Creating layer fire6/relu_expand1x1
I1129 19:21:12.512821 34092 net.cpp:84] Creating Layer fire6/relu_expand1x1
I1129 19:21:12.512821 34092 net.cpp:406] fire6/relu_expand1x1 <- fire6/expand1x1
I1129 19:21:12.512821 34092 net.cpp:367] fire6/relu_expand1x1 -> fire6/expand1x1 (in-place)
I1129 19:21:12.512821 34092 net.cpp:122] Setting up fire6/relu_expand1x1
I1129 19:21:12.512821 34092 net.cpp:129] Top shape: 100 192 7 7 (940800)
I1129 19:21:12.512821 34092 net.cpp:137] Memory required for data: 550324400
I1129 19:21:12.512821 34092 layer_factory.cpp:58] Creating layer fire6/expand3x3
I1129 19:21:12.512821 34092 net.cpp:84] Creating Layer fire6/expand3x3
I1129 19:21:12.512821 34092 net.cpp:406] fire6/expand3x3 <- fire6/squeeze1x1_fire6/relu_squeeze1x1_0_split_1
I1129 19:21:12.512821 34092 net.cpp:380] fire6/expand3x3 -> fire6/expand3x3
I1129 19:21:12.515832 34092 net.cpp:122] Setting up fire6/expand3x3
I1129 19:21:12.515832 34092 net.cpp:129] Top shape: 100 192 7 7 (940800)
I1129 19:21:12.515832 34092 net.cpp:137] Memory required for data: 554087600
I1129 19:21:12.515832 34092 layer_factory.cpp:58] Creating layer fire6/relu_expand3x3
I1129 19:21:12.515832 34092 net.cpp:84] Creating Layer fire6/relu_expand3x3
I1129 19:21:12.515832 34092 net.cpp:406] fire6/relu_expand3x3 <- fire6/expand3x3
I1129 19:21:12.515832 34092 net.cpp:367] fire6/relu_expand3x3 -> fire6/expand3x3 (in-place)
I1129 19:21:12.515832 34092 net.cpp:122] Setting up fire6/relu_expand3x3
I1129 19:21:12.515832 34092 net.cpp:129] Top shape: 100 192 7 7 (940800)
I1129 19:21:12.515832 34092 net.cpp:137] Memory required for data: 557850800
I1129 19:21:12.515832 34092 layer_factory.cpp:58] Creating layer fire6/concat
I1129 19:21:12.515832 34092 net.cpp:84] Creating Layer fire6/concat
I1129 19:21:12.515832 34092 net.cpp:406] fire6/concat <- fire6/expand1x1
I1129 19:21:12.515832 34092 net.cpp:406] fire6/concat <- fire6/expand3x3
I1129 19:21:12.515832 34092 net.cpp:380] fire6/concat -> fire6/concat
I1129 19:21:12.515832 34092 net.cpp:122] Setting up fire6/concat
I1129 19:21:12.516822 34092 net.cpp:129] Top shape: 100 384 7 7 (1881600)
I1129 19:21:12.516822 34092 net.cpp:137] Memory required for data: 565377200
I1129 19:21:12.516822 34092 layer_factory.cpp:58] Creating layer fire7/squeeze1x1
I1129 19:21:12.516822 34092 net.cpp:84] Creating Layer fire7/squeeze1x1
I1129 19:21:12.516822 34092 net.cpp:406] fire7/squeeze1x1 <- fire6/concat
I1129 19:21:12.516822 34092 net.cpp:380] fire7/squeeze1x1 -> fire7/squeeze1x1
I1129 19:21:12.517829 34092 net.cpp:122] Setting up fire7/squeeze1x1
I1129 19:21:12.517829 34092 net.cpp:129] Top shape: 100 48 7 7 (235200)
I1129 19:21:12.517829 34092 net.cpp:137] Memory required for data: 566318000
I1129 19:21:12.517829 34092 layer_factory.cpp:58] Creating layer fire7/relu_squeeze1x1
I1129 19:21:12.517829 34092 net.cpp:84] Creating Layer fire7/relu_squeeze1x1
I1129 19:21:12.517829 34092 net.cpp:406] fire7/relu_squeeze1x1 <- fire7/squeeze1x1
I1129 19:21:12.517829 34092 net.cpp:367] fire7/relu_squeeze1x1 -> fire7/squeeze1x1 (in-place)
I1129 19:21:12.518821 34092 net.cpp:122] Setting up fire7/relu_squeeze1x1
I1129 19:21:12.518821 34092 net.cpp:129] Top shape: 100 48 7 7 (235200)
I1129 19:21:12.518821 34092 net.cpp:137] Memory required for data: 567258800
I1129 19:21:12.518821 34092 layer_factory.cpp:58] Creating layer fire7/squeeze1x1_fire7/relu_squeeze1x1_0_split
I1129 19:21:12.518821 34092 net.cpp:84] Creating Layer fire7/squeeze1x1_fire7/relu_squeeze1x1_0_split
I1129 19:21:12.518821 34092 net.cpp:406] fire7/squeeze1x1_fire7/relu_squeeze1x1_0_split <- fire7/squeeze1x1
I1129 19:21:12.518821 34092 net.cpp:380] fire7/squeeze1x1_fire7/relu_squeeze1x1_0_split -> fire7/squeeze1x1_fire7/relu_squeeze1x1_0_split_0
I1129 19:21:12.518821 34092 net.cpp:380] fire7/squeeze1x1_fire7/relu_squeeze1x1_0_split -> fire7/squeeze1x1_fire7/relu_squeeze1x1_0_split_1
I1129 19:21:12.518821 34092 net.cpp:122] Setting up fire7/squeeze1x1_fire7/relu_squeeze1x1_0_split
I1129 19:21:12.518821 34092 net.cpp:129] Top shape: 100 48 7 7 (235200)
I1129 19:21:12.518821 34092 net.cpp:129] Top shape: 100 48 7 7 (235200)
I1129 19:21:12.518821 34092 net.cpp:137] Memory required for data: 569140400
I1129 19:21:12.518821 34092 layer_factory.cpp:58] Creating layer fire7/expand1x1
I1129 19:21:12.518821 34092 net.cpp:84] Creating Layer fire7/expand1x1
I1129 19:21:12.518821 34092 net.cpp:406] fire7/expand1x1 <- fire7/squeeze1x1_fire7/relu_squeeze1x1_0_split_0
I1129 19:21:12.518821 34092 net.cpp:380] fire7/expand1x1 -> fire7/expand1x1
I1129 19:21:12.519824 34092 net.cpp:122] Setting up fire7/expand1x1
I1129 19:21:12.519824 34092 net.cpp:129] Top shape: 100 192 7 7 (940800)
I1129 19:21:12.519824 34092 net.cpp:137] Memory required for data: 572903600
I1129 19:21:12.519824 34092 layer_factory.cpp:58] Creating layer fire7/relu_expand1x1
I1129 19:21:12.519824 34092 net.cpp:84] Creating Layer fire7/relu_expand1x1
I1129 19:21:12.519824 34092 net.cpp:406] fire7/relu_expand1x1 <- fire7/expand1x1
I1129 19:21:12.519824 34092 net.cpp:367] fire7/relu_expand1x1 -> fire7/expand1x1 (in-place)
I1129 19:21:12.519824 34092 net.cpp:122] Setting up fire7/relu_expand1x1
I1129 19:21:12.520843 34092 net.cpp:129] Top shape: 100 192 7 7 (940800)
I1129 19:21:12.520843 34092 net.cpp:137] Memory required for data: 576666800
I1129 19:21:12.520843 34092 layer_factory.cpp:58] Creating layer fire7/expand3x3
I1129 19:21:12.520843 34092 net.cpp:84] Creating Layer fire7/expand3x3
I1129 19:21:12.520843 34092 net.cpp:406] fire7/expand3x3 <- fire7/squeeze1x1_fire7/relu_squeeze1x1_0_split_1
I1129 19:21:12.520843 34092 net.cpp:380] fire7/expand3x3 -> fire7/expand3x3
I1129 19:21:12.522831 34092 net.cpp:122] Setting up fire7/expand3x3
I1129 19:21:12.522831 34092 net.cpp:129] Top shape: 100 192 7 7 (940800)
I1129 19:21:12.522831 34092 net.cpp:137] Memory required for data: 580430000
I1129 19:21:12.522831 34092 layer_factory.cpp:58] Creating layer fire7/relu_expand3x3
I1129 19:21:12.522831 34092 net.cpp:84] Creating Layer fire7/relu_expand3x3
I1129 19:21:12.522831 34092 net.cpp:406] fire7/relu_expand3x3 <- fire7/expand3x3
I1129 19:21:12.522831 34092 net.cpp:367] fire7/relu_expand3x3 -> fire7/expand3x3 (in-place)
I1129 19:21:12.522831 34092 net.cpp:122] Setting up fire7/relu_expand3x3
I1129 19:21:12.522831 34092 net.cpp:129] Top shape: 100 192 7 7 (940800)
I1129 19:21:12.522831 34092 net.cpp:137] Memory required for data: 584193200
I1129 19:21:12.522831 34092 layer_factory.cpp:58] Creating layer fire7/concat
I1129 19:21:12.522831 34092 net.cpp:84] Creating Layer fire7/concat
I1129 19:21:12.522831 34092 net.cpp:406] fire7/concat <- fire7/expand1x1
I1129 19:21:12.522831 34092 net.cpp:406] fire7/concat <- fire7/expand3x3
I1129 19:21:12.522831 34092 net.cpp:380] fire7/concat -> fire7/concat
I1129 19:21:12.522831 34092 net.cpp:122] Setting up fire7/concat
I1129 19:21:12.522831 34092 net.cpp:129] Top shape: 100 384 7 7 (1881600)
I1129 19:21:12.522831 34092 net.cpp:137] Memory required for data: 591719600
I1129 19:21:12.522831 34092 layer_factory.cpp:58] Creating layer fire8/squeeze1x1
I1129 19:21:12.522831 34092 net.cpp:84] Creating Layer fire8/squeeze1x1
I1129 19:21:12.522831 34092 net.cpp:406] fire8/squeeze1x1 <- fire7/concat
I1129 19:21:12.522831 34092 net.cpp:380] fire8/squeeze1x1 -> fire8/squeeze1x1
I1129 19:21:12.524821 34092 net.cpp:122] Setting up fire8/squeeze1x1
I1129 19:21:12.524821 34092 net.cpp:129] Top shape: 100 64 7 7 (313600)
I1129 19:21:12.524821 34092 net.cpp:137] Memory required for data: 592974000
I1129 19:21:12.524821 34092 layer_factory.cpp:58] Creating layer fire8/relu_squeeze1x1
I1129 19:21:12.524821 34092 net.cpp:84] Creating Layer fire8/relu_squeeze1x1
I1129 19:21:12.524821 34092 net.cpp:406] fire8/relu_squeeze1x1 <- fire8/squeeze1x1
I1129 19:21:12.524821 34092 net.cpp:367] fire8/relu_squeeze1x1 -> fire8/squeeze1x1 (in-place)
I1129 19:21:12.524821 34092 net.cpp:122] Setting up fire8/relu_squeeze1x1
I1129 19:21:12.524821 34092 net.cpp:129] Top shape: 100 64 7 7 (313600)
I1129 19:21:12.524821 34092 net.cpp:137] Memory required for data: 594228400
I1129 19:21:12.524821 34092 layer_factory.cpp:58] Creating layer fire8/squeeze1x1_fire8/relu_squeeze1x1_0_split
I1129 19:21:12.524821 34092 net.cpp:84] Creating Layer fire8/squeeze1x1_fire8/relu_squeeze1x1_0_split
I1129 19:21:12.524821 34092 net.cpp:406] fire8/squeeze1x1_fire8/relu_squeeze1x1_0_split <- fire8/squeeze1x1
I1129 19:21:12.524821 34092 net.cpp:380] fire8/squeeze1x1_fire8/relu_squeeze1x1_0_split -> fire8/squeeze1x1_fire8/relu_squeeze1x1_0_split_0
I1129 19:21:12.524821 34092 net.cpp:380] fire8/squeeze1x1_fire8/relu_squeeze1x1_0_split -> fire8/squeeze1x1_fire8/relu_squeeze1x1_0_split_1
I1129 19:21:12.524821 34092 net.cpp:122] Setting up fire8/squeeze1x1_fire8/relu_squeeze1x1_0_split
I1129 19:21:12.524821 34092 net.cpp:129] Top shape: 100 64 7 7 (313600)
I1129 19:21:12.524821 34092 net.cpp:129] Top shape: 100 64 7 7 (313600)
I1129 19:21:12.524821 34092 net.cpp:137] Memory required for data: 596737200
I1129 19:21:12.524821 34092 layer_factory.cpp:58] Creating layer fire8/expand1x1
I1129 19:21:12.524821 34092 net.cpp:84] Creating Layer fire8/expand1x1
I1129 19:21:12.524821 34092 net.cpp:406] fire8/expand1x1 <- fire8/squeeze1x1_fire8/relu_squeeze1x1_0_split_0
I1129 19:21:12.524821 34092 net.cpp:380] fire8/expand1x1 -> fire8/expand1x1
I1129 19:21:12.526823 34092 net.cpp:122] Setting up fire8/expand1x1
I1129 19:21:12.526823 34092 net.cpp:129] Top shape: 100 256 7 7 (1254400)
I1129 19:21:12.526823 34092 net.cpp:137] Memory required for data: 601754800
I1129 19:21:12.526823 34092 layer_factory.cpp:58] Creating layer fire8/relu_expand1x1
I1129 19:21:12.526823 34092 net.cpp:84] Creating Layer fire8/relu_expand1x1
I1129 19:21:12.526823 34092 net.cpp:406] fire8/relu_expand1x1 <- fire8/expand1x1
I1129 19:21:12.526823 34092 net.cpp:367] fire8/relu_expand1x1 -> fire8/expand1x1 (in-place)
I1129 19:21:12.526823 34092 net.cpp:122] Setting up fire8/relu_expand1x1
I1129 19:21:12.526823 34092 net.cpp:129] Top shape: 100 256 7 7 (1254400)
I1129 19:21:12.526823 34092 net.cpp:137] Memory required for data: 606772400
I1129 19:21:12.526823 34092 layer_factory.cpp:58] Creating layer fire8/expand3x3
I1129 19:21:12.526823 34092 net.cpp:84] Creating Layer fire8/expand3x3
I1129 19:21:12.526823 34092 net.cpp:406] fire8/expand3x3 <- fire8/squeeze1x1_fire8/relu_squeeze1x1_0_split_1
I1129 19:21:12.526823 34092 net.cpp:380] fire8/expand3x3 -> fire8/expand3x3
I1129 19:21:12.529821 34092 net.cpp:122] Setting up fire8/expand3x3
I1129 19:21:12.529821 34092 net.cpp:129] Top shape: 100 256 7 7 (1254400)
I1129 19:21:12.529821 34092 net.cpp:137] Memory required for data: 611790000
I1129 19:21:12.529821 34092 layer_factory.cpp:58] Creating layer fire8/relu_expand3x3
I1129 19:21:12.529821 34092 net.cpp:84] Creating Layer fire8/relu_expand3x3
I1129 19:21:12.529821 34092 net.cpp:406] fire8/relu_expand3x3 <- fire8/expand3x3
I1129 19:21:12.529821 34092 net.cpp:367] fire8/relu_expand3x3 -> fire8/expand3x3 (in-place)
I1129 19:21:12.529821 34092 net.cpp:122] Setting up fire8/relu_expand3x3
I1129 19:21:12.529821 34092 net.cpp:129] Top shape: 100 256 7 7 (1254400)
I1129 19:21:12.529821 34092 net.cpp:137] Memory required for data: 616807600
I1129 19:21:12.529821 34092 layer_factory.cpp:58] Creating layer fire8/concat
I1129 19:21:12.529821 34092 net.cpp:84] Creating Layer fire8/concat
I1129 19:21:12.529821 34092 net.cpp:406] fire8/concat <- fire8/expand1x1
I1129 19:21:12.529821 34092 net.cpp:406] fire8/concat <- fire8/expand3x3
I1129 19:21:12.529821 34092 net.cpp:380] fire8/concat -> fire8/concat
I1129 19:21:12.529821 34092 net.cpp:122] Setting up fire8/concat
I1129 19:21:12.529821 34092 net.cpp:129] Top shape: 100 512 7 7 (2508800)
I1129 19:21:12.529821 34092 net.cpp:137] Memory required for data: 626842800
I1129 19:21:12.529821 34092 layer_factory.cpp:58] Creating layer fire9/squeeze1x1
I1129 19:21:12.529821 34092 net.cpp:84] Creating Layer fire9/squeeze1x1
I1129 19:21:12.529821 34092 net.cpp:406] fire9/squeeze1x1 <- fire8/concat
I1129 19:21:12.529821 34092 net.cpp:380] fire9/squeeze1x1 -> fire9/squeeze1x1
I1129 19:21:12.531841 34092 net.cpp:122] Setting up fire9/squeeze1x1
I1129 19:21:12.531841 34092 net.cpp:129] Top shape: 100 64 7 7 (313600)
I1129 19:21:12.531841 34092 net.cpp:137] Memory required for data: 628097200
I1129 19:21:12.531841 34092 layer_factory.cpp:58] Creating layer fire9/relu_squeeze1x1
I1129 19:21:12.531841 34092 net.cpp:84] Creating Layer fire9/relu_squeeze1x1
I1129 19:21:12.531841 34092 net.cpp:406] fire9/relu_squeeze1x1 <- fire9/squeeze1x1
I1129 19:21:12.531841 34092 net.cpp:367] fire9/relu_squeeze1x1 -> fire9/squeeze1x1 (in-place)
I1129 19:21:12.532364 34092 net.cpp:122] Setting up fire9/relu_squeeze1x1
I1129 19:21:12.532364 34092 net.cpp:129] Top shape: 100 64 7 7 (313600)
I1129 19:21:12.532364 34092 net.cpp:137] Memory required for data: 629351600
I1129 19:21:12.532364 34092 layer_factory.cpp:58] Creating layer fire9/squeeze1x1_fire9/relu_squeeze1x1_0_split
I1129 19:21:12.532364 34092 net.cpp:84] Creating Layer fire9/squeeze1x1_fire9/relu_squeeze1x1_0_split
I1129 19:21:12.532862 34092 net.cpp:406] fire9/squeeze1x1_fire9/relu_squeeze1x1_0_split <- fire9/squeeze1x1
I1129 19:21:12.532862 34092 net.cpp:380] fire9/squeeze1x1_fire9/relu_squeeze1x1_0_split -> fire9/squeeze1x1_fire9/relu_squeeze1x1_0_split_0
I1129 19:21:12.532862 34092 net.cpp:380] fire9/squeeze1x1_fire9/relu_squeeze1x1_0_split -> fire9/squeeze1x1_fire9/relu_squeeze1x1_0_split_1
I1129 19:21:12.532862 34092 net.cpp:122] Setting up fire9/squeeze1x1_fire9/relu_squeeze1x1_0_split
I1129 19:21:12.532862 34092 net.cpp:129] Top shape: 100 64 7 7 (313600)
I1129 19:21:12.532862 34092 net.cpp:129] Top shape: 100 64 7 7 (313600)
I1129 19:21:12.532862 34092 net.cpp:137] Memory required for data: 631860400
I1129 19:21:12.532862 34092 layer_factory.cpp:58] Creating layer fire9/expand1x1
I1129 19:21:12.532862 34092 net.cpp:84] Creating Layer fire9/expand1x1
I1129 19:21:12.532862 34092 net.cpp:406] fire9/expand1x1 <- fire9/squeeze1x1_fire9/relu_squeeze1x1_0_split_0
I1129 19:21:12.532862 34092 net.cpp:380] fire9/expand1x1 -> fire9/expand1x1
I1129 19:21:12.533861 34092 net.cpp:122] Setting up fire9/expand1x1
I1129 19:21:12.533861 34092 net.cpp:129] Top shape: 100 256 7 7 (1254400)
I1129 19:21:12.533861 34092 net.cpp:137] Memory required for data: 636878000
I1129 19:21:12.533861 34092 layer_factory.cpp:58] Creating layer fire9/relu_expand1x1
I1129 19:21:12.533861 34092 net.cpp:84] Creating Layer fire9/relu_expand1x1
I1129 19:21:12.533861 34092 net.cpp:406] fire9/relu_expand1x1 <- fire9/expand1x1
I1129 19:21:12.533861 34092 net.cpp:367] fire9/relu_expand1x1 -> fire9/expand1x1 (in-place)
I1129 19:21:12.534348 34092 net.cpp:122] Setting up fire9/relu_expand1x1
I1129 19:21:12.534348 34092 net.cpp:129] Top shape: 100 256 7 7 (1254400)
I1129 19:21:12.534348 34092 net.cpp:137] Memory required for data: 641895600
I1129 19:21:12.534348 34092 layer_factory.cpp:58] Creating layer fire9/expand3x3
I1129 19:21:12.534348 34092 net.cpp:84] Creating Layer fire9/expand3x3
I1129 19:21:12.534348 34092 net.cpp:406] fire9/expand3x3 <- fire9/squeeze1x1_fire9/relu_squeeze1x1_0_split_1
I1129 19:21:12.534348 34092 net.cpp:380] fire9/expand3x3 -> fire9/expand3x3
I1129 19:21:12.536818 34092 net.cpp:122] Setting up fire9/expand3x3
I1129 19:21:12.536818 34092 net.cpp:129] Top shape: 100 256 7 7 (1254400)
I1129 19:21:12.536818 34092 net.cpp:137] Memory required for data: 646913200
I1129 19:21:12.536818 34092 layer_factory.cpp:58] Creating layer fire9/relu_expand3x3
I1129 19:21:12.536818 34092 net.cpp:84] Creating Layer fire9/relu_expand3x3
I1129 19:21:12.536818 34092 net.cpp:406] fire9/relu_expand3x3 <- fire9/expand3x3
I1129 19:21:12.536818 34092 net.cpp:367] fire9/relu_expand3x3 -> fire9/expand3x3 (in-place)
I1129 19:21:12.536818 34092 net.cpp:122] Setting up fire9/relu_expand3x3
I1129 19:21:12.536818 34092 net.cpp:129] Top shape: 100 256 7 7 (1254400)
I1129 19:21:12.536818 34092 net.cpp:137] Memory required for data: 651930800
I1129 19:21:12.536818 34092 layer_factory.cpp:58] Creating layer fire9/concat
I1129 19:21:12.536818 34092 net.cpp:84] Creating Layer fire9/concat
I1129 19:21:12.536818 34092 net.cpp:406] fire9/concat <- fire9/expand1x1
I1129 19:21:12.536818 34092 net.cpp:406] fire9/concat <- fire9/expand3x3
I1129 19:21:12.536818 34092 net.cpp:380] fire9/concat -> fire9/concat
I1129 19:21:12.536818 34092 net.cpp:122] Setting up fire9/concat
I1129 19:21:12.536818 34092 net.cpp:129] Top shape: 100 512 7 7 (2508800)
I1129 19:21:12.536818 34092 net.cpp:137] Memory required for data: 661966000
I1129 19:21:12.536818 34092 layer_factory.cpp:58] Creating layer drop9
I1129 19:21:12.536818 34092 net.cpp:84] Creating Layer drop9
I1129 19:21:12.536818 34092 net.cpp:406] drop9 <- fire9/concat
I1129 19:21:12.536818 34092 net.cpp:367] drop9 -> fire9/concat (in-place)
I1129 19:21:12.536818 34092 net.cpp:122] Setting up drop9
I1129 19:21:12.537328 34092 net.cpp:129] Top shape: 100 512 7 7 (2508800)
I1129 19:21:12.537328 34092 net.cpp:137] Memory required for data: 672001200
I1129 19:21:12.537328 34092 layer_factory.cpp:58] Creating layer conv10
I1129 19:21:12.537328 34092 net.cpp:84] Creating Layer conv10
I1129 19:21:12.537328 34092 net.cpp:406] conv10 <- fire9/concat
I1129 19:21:12.537328 34092 net.cpp:380] conv10 -> conv10
I1129 19:21:12.538817 34092 net.cpp:122] Setting up conv10
I1129 19:21:12.538817 34092 net.cpp:129] Top shape: 100 10 7 7 (49000)
I1129 19:21:12.538817 34092 net.cpp:137] Memory required for data: 672197200
I1129 19:21:12.538817 34092 layer_factory.cpp:58] Creating layer relu_conv10
I1129 19:21:12.538817 34092 net.cpp:84] Creating Layer relu_conv10
I1129 19:21:12.538817 34092 net.cpp:406] relu_conv10 <- conv10
I1129 19:21:12.538817 34092 net.cpp:367] relu_conv10 -> conv10 (in-place)
I1129 19:21:12.538817 34092 net.cpp:122] Setting up relu_conv10
I1129 19:21:12.538817 34092 net.cpp:129] Top shape: 100 10 7 7 (49000)
I1129 19:21:12.538817 34092 net.cpp:137] Memory required for data: 672393200
I1129 19:21:12.538817 34092 layer_factory.cpp:58] Creating layer pool10
I1129 19:21:12.538817 34092 net.cpp:84] Creating Layer pool10
I1129 19:21:12.538817 34092 net.cpp:406] pool10 <- conv10
I1129 19:21:12.538817 34092 net.cpp:380] pool10 -> pool10
I1129 19:21:12.539317 34092 net.cpp:122] Setting up pool10
I1129 19:21:12.539317 34092 net.cpp:129] Top shape: 100 10 1 1 (1000)
I1129 19:21:12.539317 34092 net.cpp:137] Memory required for data: 672397200
I1129 19:21:12.539317 34092 layer_factory.cpp:58] Creating layer pool10_pool10_0_split
I1129 19:21:12.539317 34092 net.cpp:84] Creating Layer pool10_pool10_0_split
I1129 19:21:12.539317 34092 net.cpp:406] pool10_pool10_0_split <- pool10
I1129 19:21:12.539317 34092 net.cpp:380] pool10_pool10_0_split -> pool10_pool10_0_split_0
I1129 19:21:12.539317 34092 net.cpp:380] pool10_pool10_0_split -> pool10_pool10_0_split_1
I1129 19:21:12.539317 34092 net.cpp:122] Setting up pool10_pool10_0_split
I1129 19:21:12.539317 34092 net.cpp:129] Top shape: 100 10 1 1 (1000)
I1129 19:21:12.539317 34092 net.cpp:129] Top shape: 100 10 1 1 (1000)
I1129 19:21:12.539317 34092 net.cpp:137] Memory required for data: 672405200
I1129 19:21:12.539317 34092 layer_factory.cpp:58] Creating layer accuracy_training
I1129 19:21:12.539317 34092 net.cpp:84] Creating Layer accuracy_training
I1129 19:21:12.539317 34092 net.cpp:406] accuracy_training <- pool10_pool10_0_split_0
I1129 19:21:12.539317 34092 net.cpp:406] accuracy_training <- label_cifar_1_split_0
…
