…
I1018 10:27:15.852270  9880 net.cpp:294] The NetState phase (0) differed from the phase (1) specified by a rule in layer accuracy
I1018 10:27:15.852270  9880 net.cpp:51] Initializing net from parameters: 
name: "CIFAR10_SimpleNet_GP_13L_Simple_NoGrpCon_Drp_600k"
state {
  phase: TRAIN
  level: 0
  stage: ""
}
layer {
  name: "cifar"
  type: "Data"
  top: "data"
  top: "label"
  include {
    phase: TRAIN
  }
  transform_param {
    mirror: true
    crop_size: 32
  }
  data_param {
    source: "examples/cifar10/cifar10_train_leveldb_padding"
    batch_size: 100
    backend: LEVELDB
  }
}
layer {
  name: "conv1"
  type: "Convolution"
  bottom: "data"
  top: "conv1"
  param {
    lr_mult: 1
  }
  convolution_param {
    num_output: 40
    bias_term: true
    pad: 1
    kernel_size: 3
    stride: 1
    weight_filler {
      type: "xavier"
    }
  }
}
layer {
  name: "bn1"
  type: "BatchNorm"
  bottom: "conv1"
  top: "conv1"
  param {
    lr_mult: 0
    decay_mult: 0
  }
  param {
    lr_mult: 0
    decay_mult: 0
  }
  param {
    lr_mult: 0
    decay_mult: 0
  }
  include {
    phase: TRAIN
  }
  batch_norm_param {
    use_global_stats: false
    moving_average_fraction: 0.99
  }
}
layer {
  name: "scale1"
  type: "Scale"
  bottom: "conv1"
  top: "conv1"
  scale_param {
    bias_term: true
  }
}
layer {
  name: "relu1"
  type: "ReLU"
  bottom: "conv1"
  top: "conv1"
}
layer {
  name: "drop1"
  type: "Dropout"
  bottom: "conv1"
  top: "conv1"
  dropout_param {
    dropout_ratio: 0.1
  }
}
layer {
  name: "conv1_0"
  type: "Convolution"
  bottom: "conv1"
  top: "conv1_0"
  param {
    lr_mult: 1
  }
  convolution_param {
    num_output: 60
    bias_term: true
    pad: 1
    kernel_size: 3
    stride: 1
    weight_filler {
      type: "xavier"
    }
  }
}
layer {
  name: "bn1_0"
  type: "BatchNorm"
  bottom: "conv1_0"
  top: "conv1_0"
  param {
    lr_mult: 0
    decay_mult: 0
  }
  param {
    lr_mult: 0
    decay_mult: 0
  }
  param {
    lr_mult: 0
    decay_mult: 0
  }
  include {
    phase: TRAIN
  }
  batch_norm_param {
    use_global_stats: false
    moving_average_fraction: 0.99
  }
}
layer {
  name: "scale1_0"
  type: "Scale"
  bottom: "conv1_0"
  top: "conv1_0"
  scale_param {
    bias_term: true
  }
}
layer {
  name: "relu1_0"
  type: "ReLU"
  bottom: "conv1_0"
  top: "conv1_0"
}
layer {
  name: "drop2"
  type: "Dropout"
  bottom: "conv1_0"
  top: "conv1_0"
  dropout_param {
    dropout_ratio: 0.1
  }
}
layer {
  name: "conv2"
  type: "Convolution"
  bottom: "conv1_0"
  top: "conv2"
  param {
    lr_mult: 1
  }
  convolution_param {
    num_output: 60
    bias_term: true
    pad: 1
    kernel_size: 3
    stride: 1
    weight_filler {
      type: "xavier"
    }
  }
}
layer {
  name: "bn2"
  type: "BatchNorm"
  bottom: "conv2"
  top: "conv2"
  param {
    lr_mult: 0
    decay_mult: 0
  }
  param {
    lr_mult: 0
    decay_mult: 0
  }
  param {
    lr_mult: 0
    decay_mult: 0
  }
  include {
    phase: TRAIN
  }
  batch_norm_param {
    use_global_stats: false
    moving_average_fraction: 0.99
  }
}
layer {
  name: "scale2"
  type: "Scale"
  bottom: "conv2"
  top: "conv2"
  scale_param {
    bias_term: true
  }
}
layer {
  name: "relu2"
  type: "ReLU"
  bottom: "conv2"
  top: "conv2"
}
layer {
  name: "drop3"
  type: "Dropout"
  bottom: "conv2"
  top: "conv2"
  dropout_param {
    dropout_ratio: 0.1
  }
}
layer {
  name: "conv2_1"
  type: "Convolution"
  bottom: "conv2"
  top: "conv2_1"
  param {
    lr_mult: 1
  }
  convolution_param {
    num_output: 60
    bias_term: true
    pad: 1
    kernel_size: 3
    stride: 1
    weight_filler {
      type: "xavier"
    }
  }
}
layer {
  name: "bn2_1"
  type: "BatchNorm"
  bottom: "conv2_1"
  top: "conv2_1"
  param {
    lr_mult: 0
    decay_mult: 0
  }
  param {
    lr_mult: 0
    decay_mult: 0
  }
  param {
    lr_mult: 0
    decay_mult: 0
  }
  include {
    phase: TRAIN
  }
  batch_norm_param {
    use_global_stats: false
    moving_average_fraction: 0.99
  }
}
layer {
  name: "scale2_1"
  type: "Scale"
  bottom: "conv2_1"
  top: "conv2_1"
  scale_param {
    bias_term: true
  }
}
layer {
  name: "relu2_1"
  type: "ReLU"
  bottom: "conv2_1"
  top: "conv2_1"
}
layer {
  name: "drop4"
  type: "Dropout"
  bottom: "conv2_1"
  top: "conv2_1"
  dropout_param {
    dropout_ratio: 0.1
  }
}
layer {
  name: "conv2_2"
  type: "Convolution"
  bottom: "conv2_1"
  top: "conv2_2"
  param {
    lr_mult: 1
  }
  convolution_param {
    num_output: 72
    bias_term: true
    pad: 1
    kernel_size: 3
    stride: 1
    weight_filler {
      type: "xavier"
    }
  }
}
layer {
  name: "bn2_2"
  type: "BatchNorm"
  bottom: "conv2_2"
  top: "conv2_2"
  param {
    lr_mult: 0
    decay_mult: 0
  }
  param {
    lr_mult: 0
    decay_mult: 0
  }
  param {
    lr_mult: 0
    decay_mult: 0
  }
  include {
    phase: TRAIN
  }
  batch_norm_param {
    use_global_stats: false
    moving_average_fraction: 0.99
  }
}
layer {
  name: "scale2_2"
  type: "Scale"
  bottom: "conv2_2"
  top: "conv2_2"
  scale_param {
    bias_term: true
  }
}
layer {
  name: "relu2_2"
  type: "ReLU"
  bottom: "conv2_2"
  top: "conv2_2"
}
layer {
  name: "pool2_1"
  type: "Pooling"
  bottom: "conv2_2"
  top: "pool2_1"
  pooling_param {
    pool: MAX
    kernel_size: 2
    stride: 2
  }
}
layer {
  name: "drop5"
  type: "Dropout"
  bottom: "pool2_1"
  top: "pool2_1"
  dropout_param {
    dropout_ratio: 0.1
  }
}
layer {
  name: "conv3"
  type: "Convolution"
  bottom: "pool2_1"
  top: "conv3"
  param {
    lr_mult: 1
  }
  convolution_param {
    num_output: 73
    bias_term: true
    pad: 1
    kernel_size: 3
    stride: 1
    weight_filler {
      type: "xavier"
    }
  }
}
layer {
  name: "bn3"
  type: "BatchNorm"
  bottom: "conv3"
  top: "conv3"
  param {
    lr_mult: 0
    decay_mult: 0
  }
  param {
    lr_mult: 0
    decay_mult: 0
  }
  param {
    lr_mult: 0
    decay_mult: 0
  }
  include {
    phase: TRAIN
  }
  batch_norm_param {
    use_global_stats: false
    moving_average_fraction: 0.99
  }
}
layer {
  name: "scale3"
  type: "Scale"
  bottom: "conv3"
  top: "conv3"
  scale_param {
    bias_term: true
  }
}
layer {
  name: "relu3"
  type: "ReLU"
  bottom: "conv3"
  top: "conv3"
}
layer {
  name: "drop6"
  type: "Dropout"
  bottom: "conv3"
  top: "conv3"
  dropout_param {
    dropout_ratio: 0.1
  }
}
layer {
  name: "conv3_1"
  type: "Convolution"
  bottom: "conv3"
  top: "conv3_1"
  param {
    lr_mult: 1
  }
  convolution_param {
    num_output: 73
    bias_term: true
    pad: 1
    kernel_size: 3
    stride: 1
    weight_filler {
      type: "xavier"
    }
  }
}
layer {
  name: "bn3_1"
  type: "BatchNorm"
  bottom: "conv3_1"
  top: "conv3_1"
  param {
    lr_mult: 0
    decay_mult: 0
  }
  param {
    lr_mult: 0
    decay_mult: 0
  }
  param {
    lr_mult: 0
    decay_mult: 0
  }
  include {
    phase: TRAIN
  }
  batch_norm_param {
    use_global_stats: false
    moving_average_fraction: 0.99
  }
}
layer {
  name: "scale3_1"
  type: "Scale"
  bottom: "conv3_1"
  top: "conv3_1"
  scale_param {
    bias_term: true
  }
}
layer {
  name: "relu3_1"
  type: "ReLU"
  bottom: "conv3_1"
  top: "conv3_1"
}
layer {
  name: "drop6_1"
  type: "Dropout"
  bottom: "conv3_1"
  top: "conv3_1"
  dropout_param {
    dropout_ratio: 0.1
  }
}
layer {
  name: "conv4"
  type: "Convolution"
  bottom: "conv3_1"
  top: "conv4"
  param {
    lr_mult: 1
  }
  convolution_param {
    num_output: 73
    bias_term: true
    pad: 1
    kernel_size: 3
    stride: 1
    weight_filler {
      type: "xavier"
    }
  }
}
layer {
  name: "bn4"
  type: "BatchNorm"
  bottom: "conv4"
  top: "conv4"
  param {
    lr_mult: 0
    decay_mult: 0
  }
  param {
    lr_mult: 0
    decay_mult: 0
  }
  param {
    lr_mult: 0
    decay_mult: 0
  }
  include {
    phase: TRAIN
  }
  batch_norm_param {
    use_global_stats: false
    moving_average_fraction: 0.99
  }
}
layer {
  name: "scale4"
  type: "Scale"
  bottom: "conv4"
  top: "conv4"
  scale_param {
    bias_term: true
  }
}
layer {
  name: "relu4"
  type: "ReLU"
  bottom: "conv4"
  top: "conv4"
}
layer {
  name: "drop7"
  type: "Dropout"
  bottom: "conv4"
  top: "conv4"
  dropout_param {
    dropout_ratio: 0.1
  }
}
layer {
  name: "conv4_1"
  type: "Convolution"
  bottom: "conv4"
  top: "conv4_1"
  param {
    lr_mult: 1
  }
  convolution_param {
    num_output: 75
    bias_term: true
    pad: 1
    kernel_size: 3
    stride: 1
    weight_filler {
      type: "xavier"
    }
  }
}
layer {
  name: "bn4_1"
  type: "BatchNorm"
  bottom: "conv4_1"
  top: "conv4_1"
  param {
    lr_mult: 0
    decay_mult: 0
  }
  param {
    lr_mult: 0
    decay_mult: 0
  }
  param {
    lr_mult: 0
    decay_mult: 0
  }
  include {
    phase: TRAIN
  }
  batch_norm_param {
    use_global_stats: false
    moving_average_fraction: 0.99
  }
}
layer {
  name: "scale4_1"
  type: "Scale"
  bottom: "conv4_1"
  top: "conv4_1"
  scale_param {
    bias_term: true
  }
}
layer {
  name: "relu4_1"
  type: "ReLU"
  bottom: "conv4_1"
  top: "conv4_1"
}
layer {
  name: "drop8"
  type: "Dropout"
  bottom: "conv4_1"
  top: "conv4_1"
  dropout_param {
    dropout_ratio: 0.1
  }
}
layer {
  name: "conv4_2"
  type: "Convolution"
  bottom: "conv4_1"
  top: "conv4_2"
  param {
    lr_mult: 1
  }
  convolution_param {
    num_output: 81
    bias_term: true
    pad: 1
    kernel_size: 3
    stride: 1
    weight_filler {
      type: "xavier"
    }
  }
}
layer {
  name: "bn4_2"
  type: "BatchNorm"
  bottom: "conv4_2"
  top: "conv4_2"
  param {
    lr_mult: 0
    decay_mult: 0
  }
  param {
    lr_mult: 0
    decay_mult: 0
  }
  param {
    lr_mult: 0
    decay_mult: 0
  }
  include {
    phase: TRAIN
  }
  batch_norm_param {
    use_global_stats: false
    moving_average_fraction: 0.99
  }
}
layer {
  name: "scale4_2"
  type: "Scale"
  bottom: "conv4_2"
  top: "conv4_2"
  scale_param {
    bias_term: true
  }
}
layer {
  name: "relu4_2"
  type: "ReLU"
  bottom: "conv4_2"
  top: "conv4_2"
}
layer {
  name: "pool4_2"
  type: "Pooling"
  bottom: "conv4_2"
  top: "pool4_2"
  pooling_param {
    pool: MAX
    kernel_size: 2
    stride: 2
  }
}
layer {
  name: "drop9"
  type: "Dropout"
  bottom: "pool4_2"
  top: "pool4_2"
  dropout_param {
    dropout_ratio: 0.2
  }
}
layer {
  name: "conv4_0"
  type: "Convolution"
  bottom: "pool4_2"
  top: "conv4_0"
  param {
    lr_mult: 1
  }
  convolution_param {
    num_output: 82
    bias_term: true
    pad: 1
    kernel_size: 3
    stride: 1
    weight_filler {
      type: "xavier"
    }
  }
}
layer {
  name: "bn4_0"
  type: "BatchNorm"
  bottom: "conv4_0"
  top: "conv4_0"
  param {
    lr_mult: 0
    decay_mult: 0
  }
  param {
    lr_mult: 0
    decay_mult: 0
  }
  param {
    lr_mult: 0
    decay_mult: 0
  }
  include {
    phase: TRAIN
  }
  batch_norm_param {
    use_global_stats: false
    moving_average_fraction: 0.99
  }
}
layer {
  name: "scale4_0"
  type: "Scale"
  bottom: "conv4_0"
  top: "conv4_0"
  scale_param {
    bias_term: true
  }
}
layer {
  name: "relu4_0"
  type: "ReLU"
  bottom: "conv4_0"
  top: "conv4_0"
}
layer {
  name: "drop10"
  type: "Dropout"
  bottom: "conv4_0"
  top: "conv4_0"
  dropout_param {
    dropout_ratio: 0.2
  }
}
layer {
  name: "conv11"
  type: "Convolution"
  bottom: "conv4_0"
  top: "conv11"
  param {
    lr_mult: 1
    decay_mult: 1
  }
  param {
    lr_mult: 2
    decay_mult: 0
  }
  convolution_param {
    num_output: 90
    pad: 1
    kernel_size: 3
    weight_filler {
      type: "xavier"
    }
    bias_filler {
      type: "constant"
      value: 0
    }
  }
}
layer {
  name: "bn_conv11"
  type: "BatchNorm"
  bottom: "conv11"
  top: "conv11"
  param {
    lr_mult: 0
    decay_mult: 0
  }
  param {
    lr_mult: 0
    decay_mult: 0
  }
  param {
    lr_mult: 0
    decay_mult: 0
  }
  include {
    phase: TRAIN
  }
  batch_norm_param {
    use_global_stats: false
    moving_average_fraction: 0.99
  }
}
layer {
  name: "scale_conv11"
  type: "Scale"
  bottom: "conv11"
  top: "conv11"
  scale_param {
    bias_term: true
  }
}
layer {
  name: "relu_conv11"
  type: "ReLU"
  bottom: "conv11"
  top: "conv11"
}
layer {
  name: "drop11"
  type: "Dropout"
  bottom: "conv11"
  top: "conv11"
  dropout_param {
    dropout_ratio: 0.2
  }
}
layer {
  name: "conv12"
  type: "Convolution"
  bottom: "conv11"
  top: "conv12"
  param {
    lr_mult: 1
    decay_mult: 1
  }
  param {
    lr_mult: 2
    decay_mult: 0
  }
  convolution_param {
    num_output: 120
    pad: 1
    kernel_size: 3
    weight_filler {
      type: "xavier"
    }
    bias_filler {
      type: "constant"
      value: 0
    }
  }
}
layer {
  name: "bn_conv12"
  type: "BatchNorm"
  bottom: "conv12"
  top: "conv12"
  param {
    lr_mult: 0
    decay_mult: 0
  }
  param {
    lr_mult: 0
    decay_mult: 0
  }
  param {
    lr_mult: 0
    decay_mult: 0
  }
  include {
    phase: TRAIN
  }
  batch_norm_param {
    use_global_stats: false
    moving_average_fraction: 0.99
  }
}
layer {
  name: "scale_conv12"
  type: "Scale"
  bottom: "conv12"
  top: "conv12"
  scale_param {
    bias_term: true
  }
}
layer {
  name: "relu_conv12"
  type: "ReLU"
  bottom: "conv12"
  top: "conv12"
}
layer {
  name: "poolcp6"
  type: "Pooling"
  bottom: "conv12"
  top: "poolcp6"
  pooling_param {
    pool: MAX
    global_pooling: true
  }
}
layer {
  name: "drop12"
  type: "Dropout"
  bottom: "poolcp6"
  top: "poolcp6"
  dropout_param {
    dropout_ratio: 0.2
  }
}
layer {
  name: "ip1"
  type: "InnerProduct"
  bottom: "poolcp6"
  top: "ip1"
  param {
    lr_mult: 1
    decay_mult: 0
  }
  param {
    lr_mult: 2
    decay_mult: 0
  }
  inner_product_param {
    num_output: 10
    weight_filler {
      type: "xavier"
    }
    bias_filler {
      type: "constant"
    }
  }
}
layer {
  name: "accuracy_training"
  type: "Accuracy"
  bottom: "ip1"
  bottom: "label"
  top: "accuracy_training"
  include {
    phase: TRAIN
  }
}
layer {
  name: "loss"
  type: "SoftmaxWithLoss"
  bottom: "ip1"
  bottom: "label"
  top: "loss"
}
I1018 10:27:15.860785  9880 layer_factory.cpp:58] Creating layer cifar
I1018 10:27:15.866787  9880 db_leveldb.cpp:18] Opened leveldb examples/cifar10/cifar10_train_leveldb_padding
I1018 10:27:15.866787  9880 net.cpp:84] Creating Layer cifar
I1018 10:27:15.866787  9880 net.cpp:380] cifar -> data
I1018 10:27:15.866787  9880 net.cpp:380] cifar -> label
I1018 10:27:15.867787  9880 data_layer.cpp:45] output data size: 100,3,32,32
I1018 10:27:15.873787  9880 net.cpp:122] Setting up cifar
I1018 10:27:15.873787  9880 net.cpp:129] Top shape: 100 3 32 32 (307200)
I1018 10:27:15.873787  9880 net.cpp:129] Top shape: 100 (100)
I1018 10:27:15.873787  9880 net.cpp:137] Memory required for data: 1229200
I1018 10:27:15.873787  9880 layer_factory.cpp:58] Creating layer label_cifar_1_split
I1018 10:27:15.873787  9880 net.cpp:84] Creating Layer label_cifar_1_split
I1018 10:27:15.873787  9880 net.cpp:406] label_cifar_1_split <- label
I1018 10:27:15.873787  9880 net.cpp:380] label_cifar_1_split -> label_cifar_1_split_0
I1018 10:27:15.873787  9880 net.cpp:380] label_cifar_1_split -> label_cifar_1_split_1
I1018 10:27:15.873787  9880 net.cpp:122] Setting up label_cifar_1_split
I1018 10:27:15.873787  9880 net.cpp:129] Top shape: 100 (100)
I1018 10:27:15.873787  9880 net.cpp:129] Top shape: 100 (100)
I1018 10:27:15.873787  9880 net.cpp:137] Memory required for data: 1230000
I1018 10:27:15.873787  9880 layer_factory.cpp:58] Creating layer conv1
I1018 10:27:15.873787  9880 net.cpp:84] Creating Layer conv1
I1018 10:27:15.873787  9880 net.cpp:406] conv1 <- data
I1018 10:27:15.873787  9880 net.cpp:380] conv1 -> conv1
I1018 10:27:15.874788  1892 common.cpp:36] System entropy source not available, using fallback algorithm to generate seed instead.
I1018 10:27:16.114810  9880 net.cpp:122] Setting up conv1
I1018 10:27:16.114810  9880 net.cpp:129] Top shape: 100 40 32 32 (4096000)
I1018 10:27:16.114810  9880 net.cpp:137] Memory required for data: 17614000
I1018 10:27:16.114810  9880 layer_factory.cpp:58] Creating layer bn1
I1018 10:27:16.114810  9880 net.cpp:84] Creating Layer bn1
I1018 10:27:16.114810  9880 net.cpp:406] bn1 <- conv1
I1018 10:27:16.114810  9880 net.cpp:367] bn1 -> conv1 (in-place)
I1018 10:27:16.115810  9880 net.cpp:122] Setting up bn1
I1018 10:27:16.115810  9880 net.cpp:129] Top shape: 100 40 32 32 (4096000)
I1018 10:27:16.115810  9880 net.cpp:137] Memory required for data: 33998000
I1018 10:27:16.115810  9880 layer_factory.cpp:58] Creating layer scale1
I1018 10:27:16.115810  9880 net.cpp:84] Creating Layer scale1
I1018 10:27:16.115810  9880 net.cpp:406] scale1 <- conv1
I1018 10:27:16.115810  9880 net.cpp:367] scale1 -> conv1 (in-place)
I1018 10:27:16.115810  9880 layer_factory.cpp:58] Creating layer scale1
I1018 10:27:16.115810  9880 net.cpp:122] Setting up scale1
I1018 10:27:16.115810  9880 net.cpp:129] Top shape: 100 40 32 32 (4096000)
I1018 10:27:16.115810  9880 net.cpp:137] Memory required for data: 50382000
I1018 10:27:16.115810  9880 layer_factory.cpp:58] Creating layer relu1
I1018 10:27:16.115810  9880 net.cpp:84] Creating Layer relu1
I1018 10:27:16.115810  9880 net.cpp:406] relu1 <- conv1
I1018 10:27:16.115810  9880 net.cpp:367] relu1 -> conv1 (in-place)
I1018 10:27:16.115810  9880 net.cpp:122] Setting up relu1
I1018 10:27:16.115810  9880 net.cpp:129] Top shape: 100 40 32 32 (4096000)
I1018 10:27:16.115810  9880 net.cpp:137] Memory required for data: 66766000
I1018 10:27:16.115810  9880 layer_factory.cpp:58] Creating layer drop1
I1018 10:27:16.115810  9880 net.cpp:84] Creating Layer drop1
I1018 10:27:16.115810  9880 net.cpp:406] drop1 <- conv1
I1018 10:27:16.115810  9880 net.cpp:367] drop1 -> conv1 (in-place)
I1018 10:27:16.115810  9880 net.cpp:122] Setting up drop1
I1018 10:27:16.115810  9880 net.cpp:129] Top shape: 100 40 32 32 (4096000)
I1018 10:27:16.115810  9880 net.cpp:137] Memory required for data: 83150000
I1018 10:27:16.115810  9880 layer_factory.cpp:58] Creating layer conv1_0
I1018 10:27:16.115810  9880 net.cpp:84] Creating Layer conv1_0
I1018 10:27:16.115810  9880 net.cpp:406] conv1_0 <- conv1
I1018 10:27:16.115810  9880 net.cpp:380] conv1_0 -> conv1_0
I1018 10:27:16.117810  9880 net.cpp:122] Setting up conv1_0
I1018 10:27:16.117810  9880 net.cpp:129] Top shape: 100 60 32 32 (6144000)
I1018 10:27:16.117810  9880 net.cpp:137] Memory required for data: 107726000
I1018 10:27:16.117810  9880 layer_factory.cpp:58] Creating layer bn1_0
I1018 10:27:16.117810  9880 net.cpp:84] Creating Layer bn1_0
I1018 10:27:16.117810  9880 net.cpp:406] bn1_0 <- conv1_0
I1018 10:27:16.117810  9880 net.cpp:367] bn1_0 -> conv1_0 (in-place)
I1018 10:27:16.117810  9880 net.cpp:122] Setting up bn1_0
I1018 10:27:16.117810  9880 net.cpp:129] Top shape: 100 60 32 32 (6144000)
I1018 10:27:16.117810  9880 net.cpp:137] Memory required for data: 132302000
I1018 10:27:16.117810  9880 layer_factory.cpp:58] Creating layer scale1_0
I1018 10:27:16.117810  9880 net.cpp:84] Creating Layer scale1_0
I1018 10:27:16.117810  9880 net.cpp:406] scale1_0 <- conv1_0
I1018 10:27:16.117810  9880 net.cpp:367] scale1_0 -> conv1_0 (in-place)
I1018 10:27:16.117810  9880 layer_factory.cpp:58] Creating layer scale1_0
I1018 10:27:16.117810  9880 net.cpp:122] Setting up scale1_0
I1018 10:27:16.117810  9880 net.cpp:129] Top shape: 100 60 32 32 (6144000)
I1018 10:27:16.117810  9880 net.cpp:137] Memory required for data: 156878000
I1018 10:27:16.117810  9880 layer_factory.cpp:58] Creating layer relu1_0
I1018 10:27:16.117810  9880 net.cpp:84] Creating Layer relu1_0
I1018 10:27:16.117810  9880 net.cpp:406] relu1_0 <- conv1_0
I1018 10:27:16.117810  9880 net.cpp:367] relu1_0 -> conv1_0 (in-place)
I1018 10:27:16.118810  9880 net.cpp:122] Setting up relu1_0
I1018 10:27:16.118810  9880 net.cpp:129] Top shape: 100 60 32 32 (6144000)
I1018 10:27:16.118810  9880 net.cpp:137] Memory required for data: 181454000
I1018 10:27:16.118810  9880 layer_factory.cpp:58] Creating layer drop2
I1018 10:27:16.118810  9880 net.cpp:84] Creating Layer drop2
I1018 10:27:16.118810  9880 net.cpp:406] drop2 <- conv1_0
I1018 10:27:16.118810  9880 net.cpp:367] drop2 -> conv1_0 (in-place)
I1018 10:27:16.118810  9880 net.cpp:122] Setting up drop2
I1018 10:27:16.118810  9880 net.cpp:129] Top shape: 100 60 32 32 (6144000)
I1018 10:27:16.118810  9880 net.cpp:137] Memory required for data: 206030000
I1018 10:27:16.118810  9880 layer_factory.cpp:58] Creating layer conv2
I1018 10:27:16.118810  9880 net.cpp:84] Creating Layer conv2
I1018 10:27:16.118810  9880 net.cpp:406] conv2 <- conv1_0
I1018 10:27:16.118810  9880 net.cpp:380] conv2 -> conv2
I1018 10:27:16.119810  9880 net.cpp:122] Setting up conv2
I1018 10:27:16.119810  9880 net.cpp:129] Top shape: 100 60 32 32 (6144000)
I1018 10:27:16.119810  9880 net.cpp:137] Memory required for data: 230606000
I1018 10:27:16.119810  9880 layer_factory.cpp:58] Creating layer bn2
I1018 10:27:16.119810  9880 net.cpp:84] Creating Layer bn2
I1018 10:27:16.119810  9880 net.cpp:406] bn2 <- conv2
I1018 10:27:16.119810  9880 net.cpp:367] bn2 -> conv2 (in-place)
I1018 10:27:16.119810  9880 net.cpp:122] Setting up bn2
I1018 10:27:16.119810  9880 net.cpp:129] Top shape: 100 60 32 32 (6144000)
I1018 10:27:16.119810  9880 net.cpp:137] Memory required for data: 255182000
I1018 10:27:16.119810  9880 layer_factory.cpp:58] Creating layer scale2
I1018 10:27:16.119810  9880 net.cpp:84] Creating Layer scale2
I1018 10:27:16.119810  9880 net.cpp:406] scale2 <- conv2
I1018 10:27:16.119810  9880 net.cpp:367] scale2 -> conv2 (in-place)
I1018 10:27:16.119810  9880 layer_factory.cpp:58] Creating layer scale2
I1018 10:27:16.119810  9880 net.cpp:122] Setting up scale2
I1018 10:27:16.119810  9880 net.cpp:129] Top shape: 100 60 32 32 (6144000)
I1018 10:27:16.119810  9880 net.cpp:137] Memory required for data: 279758000
I1018 10:27:16.119810  9880 layer_factory.cpp:58] Creating layer relu2
I1018 10:27:16.119810  9880 net.cpp:84] Creating Layer relu2
I1018 10:27:16.119810  9880 net.cpp:406] relu2 <- conv2
I1018 10:27:16.119810  9880 net.cpp:367] relu2 -> conv2 (in-place)
I1018 10:27:16.120810  9880 net.cpp:122] Setting up relu2
I1018 10:27:16.120810  9880 net.cpp:129] Top shape: 100 60 32 32 (6144000)
I1018 10:27:16.120810  9880 net.cpp:137] Memory required for data: 304334000
I1018 10:27:16.120810  9880 layer_factory.cpp:58] Creating layer drop3
I1018 10:27:16.120810  9880 net.cpp:84] Creating Layer drop3
I1018 10:27:16.120810  9880 net.cpp:406] drop3 <- conv2
I1018 10:27:16.120810  9880 net.cpp:367] drop3 -> conv2 (in-place)
I1018 10:27:16.120810  9880 net.cpp:122] Setting up drop3
I1018 10:27:16.120810  9880 net.cpp:129] Top shape: 100 60 32 32 (6144000)
I1018 10:27:16.120810  9880 net.cpp:137] Memory required for data: 328910000
I1018 10:27:16.120810  9880 layer_factory.cpp:58] Creating layer conv2_1
I1018 10:27:16.120810  9880 net.cpp:84] Creating Layer conv2_1
I1018 10:27:16.120810  9880 net.cpp:406] conv2_1 <- conv2
I1018 10:27:16.120810  9880 net.cpp:380] conv2_1 -> conv2_1
I1018 10:27:16.121810  9880 net.cpp:122] Setting up conv2_1
I1018 10:27:16.121810  9880 net.cpp:129] Top shape: 100 60 32 32 (6144000)
I1018 10:27:16.121810  9880 net.cpp:137] Memory required for data: 353486000
I1018 10:27:16.121810  9880 layer_factory.cpp:58] Creating layer bn2_1
I1018 10:27:16.121810  9880 net.cpp:84] Creating Layer bn2_1
I1018 10:27:16.121810  9880 net.cpp:406] bn2_1 <- conv2_1
I1018 10:27:16.121810  9880 net.cpp:367] bn2_1 -> conv2_1 (in-place)
I1018 10:27:16.121810  9880 net.cpp:122] Setting up bn2_1
I1018 10:27:16.121810  9880 net.cpp:129] Top shape: 100 60 32 32 (6144000)
I1018 10:27:16.121810  9880 net.cpp:137] Memory required for data: 378062000
I1018 10:27:16.121810  9880 layer_factory.cpp:58] Creating layer scale2_1
I1018 10:27:16.121810  9880 net.cpp:84] Creating Layer scale2_1
I1018 10:27:16.121810  9880 net.cpp:406] scale2_1 <- conv2_1
I1018 10:27:16.121810  9880 net.cpp:367] scale2_1 -> conv2_1 (in-place)
I1018 10:27:16.121810  9880 layer_factory.cpp:58] Creating layer scale2_1
I1018 10:27:16.121810  9880 net.cpp:122] Setting up scale2_1
I1018 10:27:16.121810  9880 net.cpp:129] Top shape: 100 60 32 32 (6144000)
I1018 10:27:16.121810  9880 net.cpp:137] Memory required for data: 402638000
I1018 10:27:16.122810  9880 layer_factory.cpp:58] Creating layer relu2_1
I1018 10:27:16.122810  9880 net.cpp:84] Creating Layer relu2_1
I1018 10:27:16.122810  9880 net.cpp:406] relu2_1 <- conv2_1
I1018 10:27:16.122810  9880 net.cpp:367] relu2_1 -> conv2_1 (in-place)
I1018 10:27:16.122810  9880 net.cpp:122] Setting up relu2_1
I1018 10:27:16.122810  9880 net.cpp:129] Top shape: 100 60 32 32 (6144000)
I1018 10:27:16.122810  9880 net.cpp:137] Memory required for data: 427214000
I1018 10:27:16.122810  9880 layer_factory.cpp:58] Creating layer drop4
I1018 10:27:16.122810  9880 net.cpp:84] Creating Layer drop4
I1018 10:27:16.122810  9880 net.cpp:406] drop4 <- conv2_1
I1018 10:27:16.122810  9880 net.cpp:367] drop4 -> conv2_1 (in-place)
I1018 10:27:16.122810  9880 net.cpp:122] Setting up drop4
I1018 10:27:16.122810  9880 net.cpp:129] Top shape: 100 60 32 32 (6144000)
I1018 10:27:16.122810  9880 net.cpp:137] Memory required for data: 451790000
I1018 10:27:16.122810  9880 layer_factory.cpp:58] Creating layer conv2_2
I1018 10:27:16.122810  9880 net.cpp:84] Creating Layer conv2_2
I1018 10:27:16.122810  9880 net.cpp:406] conv2_2 <- conv2_1
I1018 10:27:16.122810  9880 net.cpp:380] conv2_2 -> conv2_2
I1018 10:27:16.123809  9880 net.cpp:122] Setting up conv2_2
I1018 10:27:16.123809  9880 net.cpp:129] Top shape: 100 72 32 32 (7372800)
I1018 10:27:16.123809  9880 net.cpp:137] Memory required for data: 481281200
I1018 10:27:16.123809  9880 layer_factory.cpp:58] Creating layer bn2_2
I1018 10:27:16.123809  9880 net.cpp:84] Creating Layer bn2_2
I1018 10:27:16.123809  9880 net.cpp:406] bn2_2 <- conv2_2
I1018 10:27:16.123809  9880 net.cpp:367] bn2_2 -> conv2_2 (in-place)
I1018 10:27:16.124810  9880 net.cpp:122] Setting up bn2_2
I1018 10:27:16.124810  9880 net.cpp:129] Top shape: 100 72 32 32 (7372800)
I1018 10:27:16.124810  9880 net.cpp:137] Memory required for data: 510772400
I1018 10:27:16.124810  9880 layer_factory.cpp:58] Creating layer scale2_2
I1018 10:27:16.124810  9880 net.cpp:84] Creating Layer scale2_2
I1018 10:27:16.124810  9880 net.cpp:406] scale2_2 <- conv2_2
I1018 10:27:16.124810  9880 net.cpp:367] scale2_2 -> conv2_2 (in-place)
I1018 10:27:16.124810  9880 layer_factory.cpp:58] Creating layer scale2_2
I1018 10:27:16.124810  9880 net.cpp:122] Setting up scale2_2
I1018 10:27:16.124810  9880 net.cpp:129] Top shape: 100 72 32 32 (7372800)
I1018 10:27:16.124810  9880 net.cpp:137] Memory required for data: 540263600
I1018 10:27:16.124810  9880 layer_factory.cpp:58] Creating layer relu2_2
I1018 10:27:16.124810  9880 net.cpp:84] Creating Layer relu2_2
I1018 10:27:16.124810  9880 net.cpp:406] relu2_2 <- conv2_2
I1018 10:27:16.124810  9880 net.cpp:367] relu2_2 -> conv2_2 (in-place)
I1018 10:27:16.124810  9880 net.cpp:122] Setting up relu2_2
I1018 10:27:16.124810  9880 net.cpp:129] Top shape: 100 72 32 32 (7372800)
I1018 10:27:16.124810  9880 net.cpp:137] Memory required for data: 569754800
I1018 10:27:16.124810  9880 layer_factory.cpp:58] Creating layer pool2_1
I1018 10:27:16.124810  9880 net.cpp:84] Creating Layer pool2_1
I1018 10:27:16.124810  9880 net.cpp:406] pool2_1 <- conv2_2
I1018 10:27:16.124810  9880 net.cpp:380] pool2_1 -> pool2_1
I1018 10:27:16.124810  9880 net.cpp:122] Setting up pool2_1
I1018 10:27:16.124810  9880 net.cpp:129] Top shape: 100 72 16 16 (1843200)
I1018 10:27:16.124810  9880 net.cpp:137] Memory required for data: 577127600
I1018 10:27:16.124810  9880 layer_factory.cpp:58] Creating layer drop5
I1018 10:27:16.124810  9880 net.cpp:84] Creating Layer drop5
I1018 10:27:16.124810  9880 net.cpp:406] drop5 <- pool2_1
I1018 10:27:16.124810  9880 net.cpp:367] drop5 -> pool2_1 (in-place)
I1018 10:27:16.124810  9880 net.cpp:122] Setting up drop5
I1018 10:27:16.124810  9880 net.cpp:129] Top shape: 100 72 16 16 (1843200)
I1018 10:27:16.124810  9880 net.cpp:137] Memory required for data: 584500400
I1018 10:27:16.124810  9880 layer_factory.cpp:58] Creating layer conv3
I1018 10:27:16.124810  9880 net.cpp:84] Creating Layer conv3
I1018 10:27:16.124810  9880 net.cpp:406] conv3 <- pool2_1
I1018 10:27:16.124810  9880 net.cpp:380] conv3 -> conv3
I1018 10:27:16.126811  9880 net.cpp:122] Setting up conv3
I1018 10:27:16.126811  9880 net.cpp:129] Top shape: 100 73 16 16 (1868800)
I1018 10:27:16.126811  9880 net.cpp:137] Memory required for data: 591975600
I1018 10:27:16.126811  9880 layer_factory.cpp:58] Creating layer bn3
I1018 10:27:16.126811  9880 net.cpp:84] Creating Layer bn3
I1018 10:27:16.126811  9880 net.cpp:406] bn3 <- conv3
I1018 10:27:16.126811  9880 net.cpp:367] bn3 -> conv3 (in-place)
I1018 10:27:16.126811  9880 net.cpp:122] Setting up bn3
I1018 10:27:16.126811  9880 net.cpp:129] Top shape: 100 73 16 16 (1868800)
I1018 10:27:16.126811  9880 net.cpp:137] Memory required for data: 599450800
I1018 10:27:16.126811  9880 layer_factory.cpp:58] Creating layer scale3
I1018 10:27:16.126811  9880 net.cpp:84] Creating Layer scale3
I1018 10:27:16.126811  9880 net.cpp:406] scale3 <- conv3
I1018 10:27:16.126811  9880 net.cpp:367] scale3 -> conv3 (in-place)
I1018 10:27:16.126811  9880 layer_factory.cpp:58] Creating layer scale3
I1018 10:27:16.126811  9880 net.cpp:122] Setting up scale3
I1018 10:27:16.126811  9880 net.cpp:129] Top shape: 100 73 16 16 (1868800)
I1018 10:27:16.126811  9880 net.cpp:137] Memory required for data: 606926000
I1018 10:27:16.126811  9880 layer_factory.cpp:58] Creating layer relu3
I1018 10:27:16.126811  9880 net.cpp:84] Creating Layer relu3
I1018 10:27:16.126811  9880 net.cpp:406] relu3 <- conv3
I1018 10:27:16.126811  9880 net.cpp:367] relu3 -> conv3 (in-place)
I1018 10:27:16.126811  9880 net.cpp:122] Setting up relu3
I1018 10:27:16.126811  9880 net.cpp:129] Top shape: 100 73 16 16 (1868800)
I1018 10:27:16.126811  9880 net.cpp:137] Memory required for data: 614401200
I1018 10:27:16.126811  9880 layer_factory.cpp:58] Creating layer drop6
I1018 10:27:16.126811  9880 net.cpp:84] Creating Layer drop6
I1018 10:27:16.126811  9880 net.cpp:406] drop6 <- conv3
I1018 10:27:16.126811  9880 net.cpp:367] drop6 -> conv3 (in-place)
I1018 10:27:16.126811  9880 net.cpp:122] Setting up drop6
I1018 10:27:16.127810  9880 net.cpp:129] Top shape: 100 73 16 16 (1868800)
I1018 10:27:16.127810  9880 net.cpp:137] Memory required for data: 621876400
I1018 10:27:16.127810  9880 layer_factory.cpp:58] Creating layer conv3_1
I1018 10:27:16.127810  9880 net.cpp:84] Creating Layer conv3_1
I1018 10:27:16.127810  9880 net.cpp:406] conv3_1 <- conv3
I1018 10:27:16.127810  9880 net.cpp:380] conv3_1 -> conv3_1
I1018 10:27:16.128809  9880 net.cpp:122] Setting up conv3_1
I1018 10:27:16.128809  9880 net.cpp:129] Top shape: 100 73 16 16 (1868800)
I1018 10:27:16.128809  9880 net.cpp:137] Memory required for data: 629351600
I1018 10:27:16.128809  9880 layer_factory.cpp:58] Creating layer bn3_1
I1018 10:27:16.128809  9880 net.cpp:84] Creating Layer bn3_1
I1018 10:27:16.129815  9880 net.cpp:406] bn3_1 <- conv3_1
I1018 10:27:16.129815  9880 net.cpp:367] bn3_1 -> conv3_1 (in-place)
I1018 10:27:16.129815  9880 net.cpp:122] Setting up bn3_1
I1018 10:27:16.129815  9880 net.cpp:129] Top shape: 100 73 16 16 (1868800)
I1018 10:27:16.129815  9880 net.cpp:137] Memory required for data: 636826800
I1018 10:27:16.129815  9880 layer_factory.cpp:58] Creating layer scale3_1
I1018 10:27:16.129815  9880 net.cpp:84] Creating Layer scale3_1
I1018 10:27:16.129815  9880 net.cpp:406] scale3_1 <- conv3_1
I1018 10:27:16.129815  9880 net.cpp:367] scale3_1 -> conv3_1 (in-place)
I1018 10:27:16.129815  9880 layer_factory.cpp:58] Creating layer scale3_1
I1018 10:27:16.129815  9880 net.cpp:122] Setting up scale3_1
I1018 10:27:16.129815  9880 net.cpp:129] Top shape: 100 73 16 16 (1868800)
I1018 10:27:16.129815  9880 net.cpp:137] Memory required for data: 644302000
I1018 10:27:16.129815  9880 layer_factory.cpp:58] Creating layer relu3_1
I1018 10:27:16.129815  9880 net.cpp:84] Creating Layer relu3_1
I1018 10:27:16.129815  9880 net.cpp:406] relu3_1 <- conv3_1
I1018 10:27:16.129815  9880 net.cpp:367] relu3_1 -> conv3_1 (in-place)
I1018 10:27:16.129815  9880 net.cpp:122] Setting up relu3_1
I1018 10:27:16.129815  9880 net.cpp:129] Top shape: 100 73 16 16 (1868800)
I1018 10:27:16.129815  9880 net.cpp:137] Memory required for data: 651777200
I1018 10:27:16.129815  9880 layer_factory.cpp:58] Creating layer drop6_1
I1018 10:27:16.129815  9880 net.cpp:84] Creating Layer drop6_1
I1018 10:27:16.129815  9880 net.cpp:406] drop6_1 <- conv3_1
I1018 10:27:16.129815  9880 net.cpp:367] drop6_1 -> conv3_1 (in-place)
I1018 10:27:16.129815  9880 net.cpp:122] Setting up drop6_1
I1018 10:27:16.129815  9880 net.cpp:129] Top shape: 100 73 16 16 (1868800)
I1018 10:27:16.129815  9880 net.cpp:137] Memory required for data: 659252400
I1018 10:27:16.129815  9880 layer_factory.cpp:58] Creating layer conv4
I1018 10:27:16.129815  9880 net.cpp:84] Creating Layer conv4
I1018 10:27:16.129815  9880 net.cpp:406] conv4 <- conv3_1
I1018 10:27:16.129815  9880 net.cpp:380] conv4 -> conv4
I1018 10:27:16.131810  9880 net.cpp:122] Setting up conv4
I1018 10:27:16.131810  9880 net.cpp:129] Top shape: 100 73 16 16 (1868800)
I1018 10:27:16.131810  9880 net.cpp:137] Memory required for data: 666727600
I1018 10:27:16.131810  9880 layer_factory.cpp:58] Creating layer bn4
I1018 10:27:16.131810  9880 net.cpp:84] Creating Layer bn4
I1018 10:27:16.131810  9880 net.cpp:406] bn4 <- conv4
I1018 10:27:16.131810  9880 net.cpp:367] bn4 -> conv4 (in-place)
I1018 10:27:16.131810  9880 net.cpp:122] Setting up bn4
I1018 10:27:16.131810  9880 net.cpp:129] Top shape: 100 73 16 16 (1868800)
I1018 10:27:16.131810  9880 net.cpp:137] Memory required for data: 674202800
I1018 10:27:16.131810  9880 layer_factory.cpp:58] Creating layer scale4
I1018 10:27:16.131810  9880 net.cpp:84] Creating Layer scale4
I1018 10:27:16.131810  9880 net.cpp:406] scale4 <- conv4
I1018 10:27:16.131810  9880 net.cpp:367] scale4 -> conv4 (in-place)
I1018 10:27:16.131810  9880 layer_factory.cpp:58] Creating layer scale4
I1018 10:27:16.132810  9880 net.cpp:122] Setting up scale4
I1018 10:27:16.132810  9880 net.cpp:129] Top shape: 100 73 16 16 (1868800)
I1018 10:27:16.132810  9880 net.cpp:137] Memory required for data: 681678000
I1018 10:27:16.132810  9880 layer_factory.cpp:58] Creating layer relu4
I1018 10:27:16.132810  9880 net.cpp:84] Creating Layer relu4
I1018 10:27:16.132810  9880 net.cpp:406] relu4 <- conv4
I1018 10:27:16.132810  9880 net.cpp:367] relu4 -> conv4 (in-place)
I1018 10:27:16.132810  9880 net.cpp:122] Setting up relu4
I1018 10:27:16.132810  9880 net.cpp:129] Top shape: 100 73 16 16 (1868800)
I1018 10:27:16.132810  9880 net.cpp:137] Memory required for data: 689153200
I1018 10:27:16.132810  9880 layer_factory.cpp:58] Creating layer drop7
I1018 10:27:16.132810  9880 net.cpp:84] Creating Layer drop7
I1018 10:27:16.132810  9880 net.cpp:406] drop7 <- conv4
I1018 10:27:16.132810  9880 net.cpp:367] drop7 -> conv4 (in-place)
I1018 10:27:16.132810  9880 net.cpp:122] Setting up drop7
I1018 10:27:16.132810  9880 net.cpp:129] Top shape: 100 73 16 16 (1868800)
I1018 10:27:16.132810  9880 net.cpp:137] Memory required for data: 696628400
I1018 10:27:16.132810  9880 layer_factory.cpp:58] Creating layer conv4_1
I1018 10:27:16.132810  9880 net.cpp:84] Creating Layer conv4_1
I1018 10:27:16.132810  9880 net.cpp:406] conv4_1 <- conv4
I1018 10:27:16.132810  9880 net.cpp:380] conv4_1 -> conv4_1
I1018 10:27:16.134812  9880 net.cpp:122] Setting up conv4_1
I1018 10:27:16.134812  9880 net.cpp:129] Top shape: 100 75 16 16 (1920000)
I1018 10:27:16.134812  9880 net.cpp:137] Memory required for data: 704308400
I1018 10:27:16.134812  9880 layer_factory.cpp:58] Creating layer bn4_1
I1018 10:27:16.134812  9880 net.cpp:84] Creating Layer bn4_1
I1018 10:27:16.134812  9880 net.cpp:406] bn4_1 <- conv4_1
I1018 10:27:16.134812  9880 net.cpp:367] bn4_1 -> conv4_1 (in-place)
I1018 10:27:16.134812  9880 net.cpp:122] Setting up bn4_1
I1018 10:27:16.134812  9880 net.cpp:129] Top shape: 100 75 16 16 (1920000)
I1018 10:27:16.134812  9880 net.cpp:137] Memory required for data: 711988400
I1018 10:27:16.134812  9880 layer_factory.cpp:58] Creating layer scale4_1
I1018 10:27:16.134812  9880 net.cpp:84] Creating Layer scale4_1
I1018 10:27:16.134812  9880 net.cpp:406] scale4_1 <- conv4_1
I1018 10:27:16.134812  9880 net.cpp:367] scale4_1 -> conv4_1 (in-place)
I1018 10:27:16.134812  9880 layer_factory.cpp:58] Creating layer scale4_1
I1018 10:27:16.134812  9880 net.cpp:122] Setting up scale4_1
I1018 10:27:16.134812  9880 net.cpp:129] Top shape: 100 75 16 16 (1920000)
I1018 10:27:16.134812  9880 net.cpp:137] Memory required for data: 719668400
I1018 10:27:16.134812  9880 layer_factory.cpp:58] Creating layer relu4_1
I1018 10:27:16.134812  9880 net.cpp:84] Creating Layer relu4_1
I1018 10:27:16.134812  9880 net.cpp:406] relu4_1 <- conv4_1
I1018 10:27:16.134812  9880 net.cpp:367] relu4_1 -> conv4_1 (in-place)
I1018 10:27:16.134812  9880 net.cpp:122] Setting up relu4_1
I1018 10:27:16.134812  9880 net.cpp:129] Top shape: 100 75 16 16 (1920000)
I1018 10:27:16.135809  9880 net.cpp:137] Memory required for data: 727348400
I1018 10:27:16.135809  9880 layer_factory.cpp:58] Creating layer drop8
I1018 10:27:16.135809  9880 net.cpp:84] Creating Layer drop8
I1018 10:27:16.135809  9880 net.cpp:406] drop8 <- conv4_1
I1018 10:27:16.135809  9880 net.cpp:367] drop8 -> conv4_1 (in-place)
I1018 10:27:16.135809  9880 net.cpp:122] Setting up drop8
I1018 10:27:16.135809  9880 net.cpp:129] Top shape: 100 75 16 16 (1920000)
I1018 10:27:16.135809  9880 net.cpp:137] Memory required for data: 735028400
I1018 10:27:16.135809  9880 layer_factory.cpp:58] Creating layer conv4_2
I1018 10:27:16.135809  9880 net.cpp:84] Creating Layer conv4_2
I1018 10:27:16.135809  9880 net.cpp:406] conv4_2 <- conv4_1
I1018 10:27:16.135809  9880 net.cpp:380] conv4_2 -> conv4_2
I1018 10:27:16.136812  9880 net.cpp:122] Setting up conv4_2
I1018 10:27:16.136812  9880 net.cpp:129] Top shape: 100 81 16 16 (2073600)
I1018 10:27:16.136812  9880 net.cpp:137] Memory required for data: 743322800
I1018 10:27:16.136812  9880 layer_factory.cpp:58] Creating layer bn4_2
I1018 10:27:16.136812  9880 net.cpp:84] Creating Layer bn4_2
I1018 10:27:16.136812  9880 net.cpp:406] bn4_2 <- conv4_2
I1018 10:27:16.136812  9880 net.cpp:367] bn4_2 -> conv4_2 (in-place)
I1018 10:27:16.136812  9880 net.cpp:122] Setting up bn4_2
I1018 10:27:16.136812  9880 net.cpp:129] Top shape: 100 81 16 16 (2073600)
I1018 10:27:16.136812  9880 net.cpp:137] Memory required for data: 751617200
I1018 10:27:16.136812  9880 layer_factory.cpp:58] Creating layer scale4_2
I1018 10:27:16.136812  9880 net.cpp:84] Creating Layer scale4_2
I1018 10:27:16.136812  9880 net.cpp:406] scale4_2 <- conv4_2
I1018 10:27:16.136812  9880 net.cpp:367] scale4_2 -> conv4_2 (in-place)
I1018 10:27:16.136812  9880 layer_factory.cpp:58] Creating layer scale4_2
I1018 10:27:16.137809  9880 net.cpp:122] Setting up scale4_2
I1018 10:27:16.137809  9880 net.cpp:129] Top shape: 100 81 16 16 (2073600)
I1018 10:27:16.137809  9880 net.cpp:137] Memory required for data: 759911600
I1018 10:27:16.137809  9880 layer_factory.cpp:58] Creating layer relu4_2
I1018 10:27:16.137809  9880 net.cpp:84] Creating Layer relu4_2
I1018 10:27:16.137809  9880 net.cpp:406] relu4_2 <- conv4_2
I1018 10:27:16.137809  9880 net.cpp:367] relu4_2 -> conv4_2 (in-place)
I1018 10:27:16.137809  9880 net.cpp:122] Setting up relu4_2
I1018 10:27:16.137809  9880 net.cpp:129] Top shape: 100 81 16 16 (2073600)
I1018 10:27:16.137809  9880 net.cpp:137] Memory required for data: 768206000
I1018 10:27:16.137809  9880 layer_factory.cpp:58] Creating layer pool4_2
I1018 10:27:16.137809  9880 net.cpp:84] Creating Layer pool4_2
I1018 10:27:16.137809  9880 net.cpp:406] pool4_2 <- conv4_2
I1018 10:27:16.137809  9880 net.cpp:380] pool4_2 -> pool4_2
I1018 10:27:16.137809  9880 net.cpp:122] Setting up pool4_2
I1018 10:27:16.137809  9880 net.cpp:129] Top shape: 100 81 8 8 (518400)
I1018 10:27:16.137809  9880 net.cpp:137] Memory required for data: 770279600
I1018 10:27:16.137809  9880 layer_factory.cpp:58] Creating layer drop9
I1018 10:27:16.137809  9880 net.cpp:84] Creating Layer drop9
I1018 10:27:16.137809  9880 net.cpp:406] drop9 <- pool4_2
I1018 10:27:16.137809  9880 net.cpp:367] drop9 -> pool4_2 (in-place)
I1018 10:27:16.137809  9880 net.cpp:122] Setting up drop9
I1018 10:27:16.137809  9880 net.cpp:129] Top shape: 100 81 8 8 (518400)
I1018 10:27:16.137809  9880 net.cpp:137] Memory required for data: 772353200
I1018 10:27:16.137809  9880 layer_factory.cpp:58] Creating layer conv4_0
I1018 10:27:16.137809  9880 net.cpp:84] Creating Layer conv4_0
I1018 10:27:16.137809  9880 net.cpp:406] conv4_0 <- pool4_2
I1018 10:27:16.137809  9880 net.cpp:380] conv4_0 -> conv4_0
I1018 10:27:16.139811  9880 net.cpp:122] Setting up conv4_0
I1018 10:27:16.139811  9880 net.cpp:129] Top shape: 100 82 8 8 (524800)
I1018 10:27:16.139811  9880 net.cpp:137] Memory required for data: 774452400
I1018 10:27:16.139811  9880 layer_factory.cpp:58] Creating layer bn4_0
I1018 10:27:16.139811  9880 net.cpp:84] Creating Layer bn4_0
I1018 10:27:16.139811  9880 net.cpp:406] bn4_0 <- conv4_0
I1018 10:27:16.139811  9880 net.cpp:367] bn4_0 -> conv4_0 (in-place)
I1018 10:27:16.139811  9880 net.cpp:122] Setting up bn4_0
I1018 10:27:16.139811  9880 net.cpp:129] Top shape: 100 82 8 8 (524800)
I1018 10:27:16.139811  9880 net.cpp:137] Memory required for data: 776551600
I1018 10:27:16.139811  9880 layer_factory.cpp:58] Creating layer scale4_0
I1018 10:27:16.139811  9880 net.cpp:84] Creating Layer scale4_0
I1018 10:27:16.139811  9880 net.cpp:406] scale4_0 <- conv4_0
I1018 10:27:16.139811  9880 net.cpp:367] scale4_0 -> conv4_0 (in-place)
I1018 10:27:16.139811  9880 layer_factory.cpp:58] Creating layer scale4_0
I1018 10:27:16.139811  9880 net.cpp:122] Setting up scale4_0
I1018 10:27:16.139811  9880 net.cpp:129] Top shape: 100 82 8 8 (524800)
I1018 10:27:16.139811  9880 net.cpp:137] Memory required for data: 778650800
I1018 10:27:16.139811  9880 layer_factory.cpp:58] Creating layer relu4_0
I1018 10:27:16.139811  9880 net.cpp:84] Creating Layer relu4_0
I1018 10:27:16.139811  9880 net.cpp:406] relu4_0 <- conv4_0
I1018 10:27:16.139811  9880 net.cpp:367] relu4_0 -> conv4_0 (in-place)
I1018 10:27:16.139811  9880 net.cpp:122] Setting up relu4_0
I1018 10:27:16.139811  9880 net.cpp:129] Top shape: 100 82 8 8 (524800)
I1018 10:27:16.139811  9880 net.cpp:137] Memory required for data: 780750000
I1018 10:27:16.139811  9880 layer_factory.cpp:58] Creating layer drop10
I1018 10:27:16.139811  9880 net.cpp:84] Creating Layer drop10
I1018 10:27:16.139811  9880 net.cpp:406] drop10 <- conv4_0
I1018 10:27:16.139811  9880 net.cpp:367] drop10 -> conv4_0 (in-place)
I1018 10:27:16.139811  9880 net.cpp:122] Setting up drop10
I1018 10:27:16.139811  9880 net.cpp:129] Top shape: 100 82 8 8 (524800)
I1018 10:27:16.139811  9880 net.cpp:137] Memory required for data: 782849200
I1018 10:27:16.139811  9880 layer_factory.cpp:58] Creating layer conv11
I1018 10:27:16.139811  9880 net.cpp:84] Creating Layer conv11
I1018 10:27:16.139811  9880 net.cpp:406] conv11 <- conv4_0
I1018 10:27:16.139811  9880 net.cpp:380] conv11 -> conv11
I1018 10:27:16.141809  9880 net.cpp:122] Setting up conv11
I1018 10:27:16.141809  9880 net.cpp:129] Top shape: 100 90 8 8 (576000)
I1018 10:27:16.141809  9880 net.cpp:137] Memory required for data: 785153200
I1018 10:27:16.141809  9880 layer_factory.cpp:58] Creating layer bn_conv11
I1018 10:27:16.141809  9880 net.cpp:84] Creating Layer bn_conv11
I1018 10:27:16.141809  9880 net.cpp:406] bn_conv11 <- conv11
I1018 10:27:16.141809  9880 net.cpp:367] bn_conv11 -> conv11 (in-place)
I1018 10:27:16.141809  9880 net.cpp:122] Setting up bn_conv11
I1018 10:27:16.141809  9880 net.cpp:129] Top shape: 100 90 8 8 (576000)
I1018 10:27:16.141809  9880 net.cpp:137] Memory required for data: 787457200
I1018 10:27:16.141809  9880 layer_factory.cpp:58] Creating layer scale_conv11
I1018 10:27:16.141809  9880 net.cpp:84] Creating Layer scale_conv11
I1018 10:27:16.141809  9880 net.cpp:406] scale_conv11 <- conv11
I1018 10:27:16.141809  9880 net.cpp:367] scale_conv11 -> conv11 (in-place)
I1018 10:27:16.142810  9880 layer_factory.cpp:58] Creating layer scale_conv11
I1018 10:27:16.142810  9880 net.cpp:122] Setting up scale_conv11
I1018 10:27:16.142810  9880 net.cpp:129] Top shape: 100 90 8 8 (576000)
I1018 10:27:16.142810  9880 net.cpp:137] Memory required for data: 789761200
I1018 10:27:16.142810  9880 layer_factory.cpp:58] Creating layer relu_conv11
I1018 10:27:16.142810  9880 net.cpp:84] Creating Layer relu_conv11
I1018 10:27:16.142810  9880 net.cpp:406] relu_conv11 <- conv11
I1018 10:27:16.142810  9880 net.cpp:367] relu_conv11 -> conv11 (in-place)
I1018 10:27:16.142810  9880 net.cpp:122] Setting up relu_conv11
I1018 10:27:16.142810  9880 net.cpp:129] Top shape: 100 90 8 8 (576000)
I1018 10:27:16.142810  9880 net.cpp:137] Memory required for data: 792065200
I1018 10:27:16.142810  9880 layer_factory.cpp:58] Creating layer drop11
I1018 10:27:16.142810  9880 net.cpp:84] Creating Layer drop11
I1018 10:27:16.142810  9880 net.cpp:406] drop11 <- conv11
I1018 10:27:16.142810  9880 net.cpp:367] drop11 -> conv11 (in-place)
I1018 10:27:16.142810  9880 net.cpp:122] Setting up drop11
I1018 10:27:16.142810  9880 net.cpp:129] Top shape: 100 90 8 8 (576000)
I1018 10:27:16.142810  9880 net.cpp:137] Memory required for data: 794369200
I1018 10:27:16.142810  9880 layer_factory.cpp:58] Creating layer conv12
I1018 10:27:16.142810  9880 net.cpp:84] Creating Layer conv12
I1018 10:27:16.142810  9880 net.cpp:406] conv12 <- conv11
I1018 10:27:16.142810  9880 net.cpp:380] conv12 -> conv12
I1018 10:27:16.144809  9880 net.cpp:122] Setting up conv12
I1018 10:27:16.144809  9880 net.cpp:129] Top shape: 100 120 8 8 (768000)
I1018 10:27:16.144809  9880 net.cpp:137] Memory required for data: 797441200
I1018 10:27:16.144809  9880 layer_factory.cpp:58] Creating layer bn_conv12
I1018 10:27:16.144809  9880 net.cpp:84] Creating Layer bn_conv12
I1018 10:27:16.144809  9880 net.cpp:406] bn_conv12 <- conv12
I1018 10:27:16.144809  9880 net.cpp:367] bn_conv12 -> conv12 (in-place)
I1018 10:27:16.144809  9880 net.cpp:122] Setting up bn_conv12
I1018 10:27:16.144809  9880 net.cpp:129] Top shape: 100 120 8 8 (768000)
I1018 10:27:16.144809  9880 net.cpp:137] Memory required for data: 800513200
I1018 10:27:16.144809  9880 layer_factory.cpp:58] Creating layer scale_conv12
I1018 10:27:16.144809  9880 net.cpp:84] Creating Layer scale_conv12
I1018 10:27:16.145809  9880 net.cpp:406] scale_conv12 <- conv12
I1018 10:27:16.145809  9880 net.cpp:367] scale_conv12 -> conv12 (in-place)
I1018 10:27:16.145809  9880 layer_factory.cpp:58] Creating layer scale_conv12
I1018 10:27:16.145809  9880 net.cpp:122] Setting up scale_conv12
I1018 10:27:16.145809  9880 net.cpp:129] Top shape: 100 120 8 8 (768000)
I1018 10:27:16.145809  9880 net.cpp:137] Memory required for data: 803585200
I1018 10:27:16.145809  9880 layer_factory.cpp:58] Creating layer relu_conv12
I1018 10:27:16.145809  9880 net.cpp:84] Creating Layer relu_conv12
I1018 10:27:16.145809  9880 net.cpp:406] relu_conv12 <- conv12
I1018 10:27:16.145809  9880 net.cpp:367] relu_conv12 -> conv12 (in-place)
I1018 10:27:16.146314  9880 net.cpp:122] Setting up relu_conv12
I1018 10:27:16.146314  9880 net.cpp:129] Top shape: 100 120 8 8 (768000)
I1018 10:27:16.146314  9880 net.cpp:137] Memory required for data: 806657200
I1018 10:27:16.146314  9880 layer_factory.cpp:58] Creating layer poolcp6
I1018 10:27:16.146314  9880 net.cpp:84] Creating Layer poolcp6
I1018 10:27:16.146314  9880 net.cpp:406] poolcp6 <- conv12
I1018 10:27:16.146314  9880 net.cpp:380] poolcp6 -> poolcp6
I1018 10:27:16.146314  9880 net.cpp:122] Setting up poolcp6
I1018 10:27:16.146314  9880 net.cpp:129] Top shape: 100 120 1 1 (12000)
I1018 10:27:16.146314  9880 net.cpp:137] Memory required for data: 806705200
I1018 10:27:16.146314  9880 layer_factory.cpp:58] Creating layer drop12
I1018 10:27:16.146314  9880 net.cpp:84] Creating Layer drop12
I1018 10:27:16.146314  9880 net.cpp:406] drop12 <- poolcp6
I1018 10:27:16.146314  9880 net.cpp:367] drop12 -> poolcp6 (in-place)
I1018 10:27:16.146314  9880 net.cpp:122] Setting up drop12
I1018 10:27:16.146314  9880 net.cpp:129] Top shape: 100 120 1 1 (12000)
I1018 10:27:16.146314  9880 net.cpp:137] Memory required for data: 806753200
I1018 10:27:16.146314  9880 layer_factory.cpp:58] Creating layer ip1
I1018 10:27:16.146314  9880 net.cpp:84] Creating Layer ip1
I1018 10:27:16.146314  9880 net.cpp:406] ip1 <- poolcp6
I1018 10:27:16.146314  9880 net.cpp:380] ip1 -> ip1
I1018 10:27:16.146314  9880 net.cpp:122] Setting up ip1
I1018 10:27:16.146314  9880 net.cpp:129] Top shape: 100 10 (1000)
I1018 10:27:16.146314  9880 net.cpp:137] Memory required for data: 806757200
I1018 10:27:16.146314  9880 layer_factory.cpp:58] Creating layer ip1_ip1_0_split
I1018 10:27:16.146314  9880 net.cpp:84] Creating Layer ip1_ip1_0_split
I1018 10:27:16.146314  9880 net.cpp:406] ip1_ip1_0_split <- ip1
I1018 10:27:16.146314  9880 net.cpp:380] ip1_ip1_0_split -> ip1_ip1_0_split_0
I1018 10:27:16.146314  9880 net.cpp:380] ip1_ip1_0_split -> ip1_ip1_0_split_1
I1018 10:27:16.146314  9880 net.cpp:122] Setting up ip1_ip1_0_split
I1018 10:27:16.146814  9880 net.cpp:129] Top shape: 100 10 (1000)
I1018 10:27:16.146814  9880 net.cpp:129] Top shape: 100 10 (1000)
I1018 10:27:16.146814  9880 net.cpp:137] Memory required for data: 806765200
I1018 10:27:16.146814  9880 layer_factory.cpp:58] Creating layer accuracy_training
I1018 10:27:16.146814  9880 net.cpp:84] Creating Layer accuracy_training
I1018 10:27:16.146814  9880 net.cpp:406] accuracy_training <- ip1_ip1_0_split_0
I1018 10:27:16.146814  9880 net.cpp:406] accuracy_training <- label_cifar_1_split_0
…
