…
I1122 08:19:52.588443 18896 net.cpp:294] The NetState phase (0) differed from the phase (1) specified by a rule in layer accuracy
I1122 08:19:52.589443 18896 net.cpp:51] Initializing net from parameters: 
name: "CIFAR10_SimpleNet_GP_10L_Simple_NoGrpCon_NoDrp_300k"
state {
  phase: TRAIN
  level: 0
  stage: ""
}
layer {
  name: "cifar"
  type: "Data"
  top: "data"
  top: "label"
  include {
    phase: TRAIN
  }
  transform_param {
    mirror: true
    crop_size: 32
  }
  data_param {
    source: "examples/cifar10/cifar10_train_lmdb_zeropad"
    batch_size: 100
    backend: LMDB
  }
}
layer {
  name: "conv1"
  type: "Convolution"
  bottom: "data"
  top: "conv1"
  param {
    lr_mult: 1
  }
  convolution_param {
    num_output: 40
    bias_term: true
    pad: 1
    kernel_size: 3
    stride: 1
    weight_filler {
      type: "xavier"
    }
  }
}
layer {
  name: "bn1"
  type: "BatchNorm"
  bottom: "conv1"
  top: "conv1"
  param {
    lr_mult: 0
    decay_mult: 0
  }
  param {
    lr_mult: 0
    decay_mult: 0
  }
  param {
    lr_mult: 0
    decay_mult: 0
  }
  include {
    phase: TRAIN
  }
  batch_norm_param {
    use_global_stats: false
    moving_average_fraction: 0.99
  }
}
layer {
  name: "scale1"
  type: "Scale"
  bottom: "conv1"
  top: "conv1"
  scale_param {
    bias_term: true
  }
}
layer {
  name: "relu1"
  type: "ReLU"
  bottom: "conv1"
  top: "conv1"
}
layer {
  name: "conv2"
  type: "Convolution"
  bottom: "conv1"
  top: "conv2"
  param {
    lr_mult: 1
  }
  convolution_param {
    num_output: 40
    bias_term: true
    pad: 1
    kernel_size: 3
    stride: 1
    weight_filler {
      type: "xavier"
    }
  }
}
layer {
  name: "bn2"
  type: "BatchNorm"
  bottom: "conv2"
  top: "conv2"
  param {
    lr_mult: 0
    decay_mult: 0
  }
  param {
    lr_mult: 0
    decay_mult: 0
  }
  param {
    lr_mult: 0
    decay_mult: 0
  }
  include {
    phase: TRAIN
  }
  batch_norm_param {
    use_global_stats: false
    moving_average_fraction: 0.99
  }
}
layer {
  name: "scale2"
  type: "Scale"
  bottom: "conv2"
  top: "conv2"
  scale_param {
    bias_term: true
  }
}
layer {
  name: "relu2"
  type: "ReLU"
  bottom: "conv2"
  top: "conv2"
}
layer {
  name: "conv2_1"
  type: "Convolution"
  bottom: "conv2"
  top: "conv2_1"
  param {
    lr_mult: 1
  }
  convolution_param {
    num_output: 40
    bias_term: true
    pad: 1
    kernel_size: 3
    stride: 1
    weight_filler {
      type: "xavier"
    }
  }
}
layer {
  name: "bn2_1"
  type: "BatchNorm"
  bottom: "conv2_1"
  top: "conv2_1"
  param {
    lr_mult: 0
    decay_mult: 0
  }
  param {
    lr_mult: 0
    decay_mult: 0
  }
  param {
    lr_mult: 0
    decay_mult: 0
  }
  include {
    phase: TRAIN
  }
  batch_norm_param {
    use_global_stats: false
    moving_average_fraction: 0.99
  }
}
layer {
  name: "scale2_1"
  type: "Scale"
  bottom: "conv2_1"
  top: "conv2_1"
  scale_param {
    bias_term: true
  }
}
layer {
  name: "relu2_1"
  type: "ReLU"
  bottom: "conv2_1"
  top: "conv2_1"
}
layer {
  name: "conv2_2"
  type: "Convolution"
  bottom: "conv2_1"
  top: "conv2_2"
  param {
    lr_mult: 1
  }
  convolution_param {
    num_output: 55
    bias_term: true
    pad: 1
    kernel_size: 3
    stride: 1
    weight_filler {
      type: "xavier"
    }
  }
}
layer {
  name: "bn2_2"
  type: "BatchNorm"
  bottom: "conv2_2"
  top: "conv2_2"
  param {
    lr_mult: 0
    decay_mult: 0
  }
  param {
    lr_mult: 0
    decay_mult: 0
  }
  param {
    lr_mult: 0
    decay_mult: 0
  }
  include {
    phase: TRAIN
  }
  batch_norm_param {
    use_global_stats: false
    moving_average_fraction: 0.99
  }
}
layer {
  name: "scale2_2"
  type: "Scale"
  bottom: "conv2_2"
  top: "conv2_2"
  scale_param {
    bias_term: true
  }
}
layer {
  name: "relu2_2"
  type: "ReLU"
  bottom: "conv2_2"
  top: "conv2_2"
}
layer {
  name: "pool2_1"
  type: "Pooling"
  bottom: "conv2_2"
  top: "pool2_1"
  pooling_param {
    pool: MAX
    kernel_size: 2
    stride: 2
  }
}
layer {
  name: "conv3"
  type: "Convolution"
  bottom: "pool2_1"
  top: "conv3"
  param {
    lr_mult: 1
  }
  convolution_param {
    num_output: 55
    bias_term: true
    pad: 1
    kernel_size: 3
    stride: 1
    weight_filler {
      type: "xavier"
    }
  }
}
layer {
  name: "bn3"
  type: "BatchNorm"
  bottom: "conv3"
  top: "conv3"
  param {
    lr_mult: 0
    decay_mult: 0
  }
  param {
    lr_mult: 0
    decay_mult: 0
  }
  param {
    lr_mult: 0
    decay_mult: 0
  }
  include {
    phase: TRAIN
  }
  batch_norm_param {
    use_global_stats: false
    moving_average_fraction: 0.99
  }
}
layer {
  name: "scale3"
  type: "Scale"
  bottom: "conv3"
  top: "conv3"
  scale_param {
    bias_term: true
  }
}
layer {
  name: "relu3"
  type: "ReLU"
  bottom: "conv3"
  top: "conv3"
}
layer {
  name: "conv4"
  type: "Convolution"
  bottom: "conv3"
  top: "conv4"
  param {
    lr_mult: 1
  }
  convolution_param {
    num_output: 55
    bias_term: true
    pad: 1
    kernel_size: 3
    stride: 1
    weight_filler {
      type: "xavier"
    }
  }
}
layer {
  name: "bn4"
  type: "BatchNorm"
  bottom: "conv4"
  top: "conv4"
  param {
    lr_mult: 0
    decay_mult: 0
  }
  param {
    lr_mult: 0
    decay_mult: 0
  }
  param {
    lr_mult: 0
    decay_mult: 0
  }
  include {
    phase: TRAIN
  }
  batch_norm_param {
    use_global_stats: false
    moving_average_fraction: 0.99
  }
}
layer {
  name: "scale4"
  type: "Scale"
  bottom: "conv4"
  top: "conv4"
  scale_param {
    bias_term: true
  }
}
layer {
  name: "relu4"
  type: "ReLU"
  bottom: "conv4"
  top: "conv4"
}
layer {
  name: "conv4_1"
  type: "Convolution"
  bottom: "conv4"
  top: "conv4_1"
  param {
    lr_mult: 1
  }
  convolution_param {
    num_output: 55
    bias_term: true
    pad: 1
    kernel_size: 3
    stride: 1
    weight_filler {
      type: "xavier"
    }
  }
}
layer {
  name: "bn4_1"
  type: "BatchNorm"
  bottom: "conv4_1"
  top: "conv4_1"
  param {
    lr_mult: 0
    decay_mult: 0
  }
  param {
    lr_mult: 0
    decay_mult: 0
  }
  param {
    lr_mult: 0
    decay_mult: 0
  }
  include {
    phase: TRAIN
  }
  batch_norm_param {
    use_global_stats: false
    moving_average_fraction: 0.99
  }
}
layer {
  name: "scale4_1"
  type: "Scale"
  bottom: "conv4_1"
  top: "conv4_1"
  scale_param {
    bias_term: true
  }
}
layer {
  name: "relu4_1"
  type: "ReLU"
  bottom: "conv4_1"
  top: "conv4_1"
}
layer {
  name: "conv4_2"
  type: "Convolution"
  bottom: "conv4_1"
  top: "conv4_2"
  param {
    lr_mult: 1
  }
  convolution_param {
    num_output: 75
    bias_term: true
    pad: 1
    kernel_size: 3
    stride: 1
    weight_filler {
      type: "xavier"
    }
  }
}
layer {
  name: "bn4_2"
  type: "BatchNorm"
  bottom: "conv4_2"
  top: "conv4_2"
  param {
    lr_mult: 0
    decay_mult: 0
  }
  param {
    lr_mult: 0
    decay_mult: 0
  }
  param {
    lr_mult: 0
    decay_mult: 0
  }
  include {
    phase: TRAIN
  }
  batch_norm_param {
    use_global_stats: false
    moving_average_fraction: 0.99
  }
}
layer {
  name: "scale4_2"
  type: "Scale"
  bottom: "conv4_2"
  top: "conv4_2"
  scale_param {
    bias_term: true
  }
}
layer {
  name: "relu4_2"
  type: "ReLU"
  bottom: "conv4_2"
  top: "conv4_2"
}
layer {
  name: "pool4_2"
  type: "Pooling"
  bottom: "conv4_2"
  top: "pool4_2"
  pooling_param {
    pool: MAX
    kernel_size: 2
    stride: 2
  }
}
layer {
  name: "conv11"
  type: "Convolution"
  bottom: "pool4_2"
  top: "conv11"
  param {
    lr_mult: 1
    decay_mult: 1
  }
  param {
    lr_mult: 2
    decay_mult: 0
  }
  convolution_param {
    num_output: 85
    pad: 1
    kernel_size: 3
    weight_filler {
      type: "xavier"
    }
    bias_filler {
      type: "constant"
      value: 0
    }
  }
}
layer {
  name: "bn_conv11"
  type: "BatchNorm"
  bottom: "conv11"
  top: "conv11"
  param {
    lr_mult: 0
    decay_mult: 0
  }
  param {
    lr_mult: 0
    decay_mult: 0
  }
  param {
    lr_mult: 0
    decay_mult: 0
  }
  include {
    phase: TRAIN
  }
  batch_norm_param {
    use_global_stats: false
    moving_average_fraction: 0.99
  }
}
layer {
  name: "scale_conv11"
  type: "Scale"
  bottom: "conv11"
  top: "conv11"
  scale_param {
    bias_term: true
  }
}
layer {
  name: "relu_conv11"
  type: "ReLU"
  bottom: "conv11"
  top: "conv11"
}
layer {
  name: "conv12"
  type: "Convolution"
  bottom: "conv11"
  top: "conv12"
  param {
    lr_mult: 1
    decay_mult: 1
  }
  param {
    lr_mult: 2
    decay_mult: 0
  }
  convolution_param {
    num_output: 95
    pad: 1
    kernel_size: 3
    weight_filler {
      type: "xavier"
    }
    bias_filler {
      type: "constant"
      value: 0
    }
  }
}
layer {
  name: "bn_conv12"
  type: "BatchNorm"
  bottom: "conv12"
  top: "conv12"
  param {
    lr_mult: 0
    decay_mult: 0
  }
  param {
    lr_mult: 0
    decay_mult: 0
  }
  param {
    lr_mult: 0
    decay_mult: 0
  }
  include {
    phase: TRAIN
  }
  batch_norm_param {
    use_global_stats: false
    moving_average_fraction: 0.99
  }
}
layer {
  name: "scale_conv12"
  type: "Scale"
  bottom: "conv12"
  top: "conv12"
  scale_param {
    bias_term: true
  }
}
layer {
  name: "relu_conv12"
  type: "ReLU"
  bottom: "conv12"
  top: "conv12"
}
layer {
  name: "poolcp6"
  type: "Pooling"
  bottom: "conv12"
  top: "poolcp6"
  pooling_param {
    pool: MAX
    global_pooling: true
  }
}
layer {
  name: "ip1"
  type: "InnerProduct"
  bottom: "poolcp6"
  top: "ip1"
  param {
    lr_mult: 1
    decay_mult: 0
  }
  param {
    lr_mult: 2
    decay_mult: 0
  }
  inner_product_param {
    num_output: 10
    weight_filler {
      type: "xavier"
    }
    bias_filler {
      type: "constant"
    }
  }
}
layer {
  name: "accuracy_training"
  type: "Accuracy"
  bottom: "ip1"
  bottom: "label"
  top: "accuracy_training"
  include {
    phase: TRAIN
  }
}
layer {
  name: "loss"
  type: "SoftmaxWithLoss"
  bottom: "ip1"
  bottom: "label"
  top: "loss"
}
I1122 08:19:52.702491 18896 layer_factory.cpp:58] Creating layer cifar
I1122 08:19:52.726492 18896 db_lmdb.cpp:40] Opened lmdb examples/cifar10/cifar10_train_lmdb_zeropad
I1122 08:19:52.727505 18896 net.cpp:84] Creating Layer cifar
I1122 08:19:52.727505 18896 net.cpp:380] cifar -> data
I1122 08:19:52.727505 18896 net.cpp:380] cifar -> label
I1122 08:19:52.728025 18896 data_layer.cpp:45] output data size: 100,3,32,32
I1122 08:19:52.733510 18896 net.cpp:122] Setting up cifar
I1122 08:19:52.733510 18896 net.cpp:129] Top shape: 100 3 32 32 (307200)
I1122 08:19:52.733510 18896 net.cpp:129] Top shape: 100 (100)
I1122 08:19:52.733510 18896 net.cpp:137] Memory required for data: 1229200
I1122 08:19:52.733510 18896 layer_factory.cpp:58] Creating layer label_cifar_1_split
I1122 08:19:52.733510 18896 net.cpp:84] Creating Layer label_cifar_1_split
I1122 08:19:52.733510 18896 net.cpp:406] label_cifar_1_split <- label
I1122 08:19:52.733510 18896 net.cpp:380] label_cifar_1_split -> label_cifar_1_split_0
I1122 08:19:52.733510 18896 net.cpp:380] label_cifar_1_split -> label_cifar_1_split_1
I1122 08:19:52.733510 18896 net.cpp:122] Setting up label_cifar_1_split
I1122 08:19:52.733510 18896 net.cpp:129] Top shape: 100 (100)
I1122 08:19:52.733510 18896 net.cpp:129] Top shape: 100 (100)
I1122 08:19:52.733510 18896 net.cpp:137] Memory required for data: 1230000
I1122 08:19:52.733510 18896 layer_factory.cpp:58] Creating layer conv1
I1122 08:19:52.733510 18896 net.cpp:84] Creating Layer conv1
I1122 08:19:52.733510 18896 net.cpp:406] conv1 <- data
I1122 08:19:52.733510 18896 net.cpp:380] conv1 -> conv1
I1122 08:19:52.734521 12432 common.cpp:36] System entropy source not available, using fallback algorithm to generate seed instead.
I1122 08:19:52.990556 18896 net.cpp:122] Setting up conv1
I1122 08:19:52.990556 18896 net.cpp:129] Top shape: 100 40 32 32 (4096000)
I1122 08:19:52.990556 18896 net.cpp:137] Memory required for data: 17614000
I1122 08:19:52.990556 18896 layer_factory.cpp:58] Creating layer bn1
I1122 08:19:52.990556 18896 net.cpp:84] Creating Layer bn1
I1122 08:19:52.990556 18896 net.cpp:406] bn1 <- conv1
I1122 08:19:52.990556 18896 net.cpp:367] bn1 -> conv1 (in-place)
I1122 08:19:52.991554 18896 net.cpp:122] Setting up bn1
I1122 08:19:52.991554 18896 net.cpp:129] Top shape: 100 40 32 32 (4096000)
I1122 08:19:52.991554 18896 net.cpp:137] Memory required for data: 33998000
I1122 08:19:52.991554 18896 layer_factory.cpp:58] Creating layer scale1
I1122 08:19:52.991554 18896 net.cpp:84] Creating Layer scale1
I1122 08:19:52.991554 18896 net.cpp:406] scale1 <- conv1
I1122 08:19:52.991554 18896 net.cpp:367] scale1 -> conv1 (in-place)
I1122 08:19:52.991554 18896 layer_factory.cpp:58] Creating layer scale1
I1122 08:19:52.991554 18896 net.cpp:122] Setting up scale1
I1122 08:19:52.991554 18896 net.cpp:129] Top shape: 100 40 32 32 (4096000)
I1122 08:19:52.991554 18896 net.cpp:137] Memory required for data: 50382000
I1122 08:19:52.991554 18896 layer_factory.cpp:58] Creating layer relu1
I1122 08:19:52.991554 18896 net.cpp:84] Creating Layer relu1
I1122 08:19:52.991554 18896 net.cpp:406] relu1 <- conv1
I1122 08:19:52.991554 18896 net.cpp:367] relu1 -> conv1 (in-place)
I1122 08:19:52.991554 18896 net.cpp:122] Setting up relu1
I1122 08:19:52.991554 18896 net.cpp:129] Top shape: 100 40 32 32 (4096000)
I1122 08:19:52.991554 18896 net.cpp:137] Memory required for data: 66766000
I1122 08:19:52.991554 18896 layer_factory.cpp:58] Creating layer conv2
I1122 08:19:52.991554 18896 net.cpp:84] Creating Layer conv2
I1122 08:19:52.991554 18896 net.cpp:406] conv2 <- conv1
I1122 08:19:52.991554 18896 net.cpp:380] conv2 -> conv2
I1122 08:19:52.993553 18896 net.cpp:122] Setting up conv2
I1122 08:19:52.993553 18896 net.cpp:129] Top shape: 100 40 32 32 (4096000)
I1122 08:19:52.993553 18896 net.cpp:137] Memory required for data: 83150000
I1122 08:19:52.993553 18896 layer_factory.cpp:58] Creating layer bn2
I1122 08:19:52.993553 18896 net.cpp:84] Creating Layer bn2
I1122 08:19:52.993553 18896 net.cpp:406] bn2 <- conv2
I1122 08:19:52.993553 18896 net.cpp:367] bn2 -> conv2 (in-place)
I1122 08:19:52.993553 18896 net.cpp:122] Setting up bn2
I1122 08:19:52.993553 18896 net.cpp:129] Top shape: 100 40 32 32 (4096000)
I1122 08:19:52.993553 18896 net.cpp:137] Memory required for data: 99534000
I1122 08:19:52.993553 18896 layer_factory.cpp:58] Creating layer scale2
I1122 08:19:52.993553 18896 net.cpp:84] Creating Layer scale2
I1122 08:19:52.993553 18896 net.cpp:406] scale2 <- conv2
I1122 08:19:52.993553 18896 net.cpp:367] scale2 -> conv2 (in-place)
I1122 08:19:52.993553 18896 layer_factory.cpp:58] Creating layer scale2
I1122 08:19:52.993553 18896 net.cpp:122] Setting up scale2
I1122 08:19:52.993553 18896 net.cpp:129] Top shape: 100 40 32 32 (4096000)
I1122 08:19:52.993553 18896 net.cpp:137] Memory required for data: 115918000
I1122 08:19:52.993553 18896 layer_factory.cpp:58] Creating layer relu2
I1122 08:19:52.993553 18896 net.cpp:84] Creating Layer relu2
I1122 08:19:52.993553 18896 net.cpp:406] relu2 <- conv2
I1122 08:19:52.993553 18896 net.cpp:367] relu2 -> conv2 (in-place)
I1122 08:19:52.993553 18896 net.cpp:122] Setting up relu2
I1122 08:19:52.993553 18896 net.cpp:129] Top shape: 100 40 32 32 (4096000)
I1122 08:19:52.993553 18896 net.cpp:137] Memory required for data: 132302000
I1122 08:19:52.993553 18896 layer_factory.cpp:58] Creating layer conv2_1
I1122 08:19:52.993553 18896 net.cpp:84] Creating Layer conv2_1
I1122 08:19:52.993553 18896 net.cpp:406] conv2_1 <- conv2
I1122 08:19:52.993553 18896 net.cpp:380] conv2_1 -> conv2_1
I1122 08:19:52.994554 18896 net.cpp:122] Setting up conv2_1
I1122 08:19:52.994554 18896 net.cpp:129] Top shape: 100 40 32 32 (4096000)
I1122 08:19:52.994554 18896 net.cpp:137] Memory required for data: 148686000
I1122 08:19:52.995553 18896 layer_factory.cpp:58] Creating layer bn2_1
I1122 08:19:52.995553 18896 net.cpp:84] Creating Layer bn2_1
I1122 08:19:52.995553 18896 net.cpp:406] bn2_1 <- conv2_1
I1122 08:19:52.995553 18896 net.cpp:367] bn2_1 -> conv2_1 (in-place)
I1122 08:19:52.995553 18896 net.cpp:122] Setting up bn2_1
I1122 08:19:52.995553 18896 net.cpp:129] Top shape: 100 40 32 32 (4096000)
I1122 08:19:52.995553 18896 net.cpp:137] Memory required for data: 165070000
I1122 08:19:52.995553 18896 layer_factory.cpp:58] Creating layer scale2_1
I1122 08:19:52.995553 18896 net.cpp:84] Creating Layer scale2_1
I1122 08:19:52.995553 18896 net.cpp:406] scale2_1 <- conv2_1
I1122 08:19:52.995553 18896 net.cpp:367] scale2_1 -> conv2_1 (in-place)
I1122 08:19:52.995553 18896 layer_factory.cpp:58] Creating layer scale2_1
I1122 08:19:52.995553 18896 net.cpp:122] Setting up scale2_1
I1122 08:19:52.995553 18896 net.cpp:129] Top shape: 100 40 32 32 (4096000)
I1122 08:19:52.995553 18896 net.cpp:137] Memory required for data: 181454000
I1122 08:19:52.995553 18896 layer_factory.cpp:58] Creating layer relu2_1
I1122 08:19:52.995553 18896 net.cpp:84] Creating Layer relu2_1
I1122 08:19:52.995553 18896 net.cpp:406] relu2_1 <- conv2_1
I1122 08:19:52.995553 18896 net.cpp:367] relu2_1 -> conv2_1 (in-place)
I1122 08:19:52.995553 18896 net.cpp:122] Setting up relu2_1
I1122 08:19:52.995553 18896 net.cpp:129] Top shape: 100 40 32 32 (4096000)
I1122 08:19:52.995553 18896 net.cpp:137] Memory required for data: 197838000
I1122 08:19:52.995553 18896 layer_factory.cpp:58] Creating layer conv2_2
I1122 08:19:52.995553 18896 net.cpp:84] Creating Layer conv2_2
I1122 08:19:52.995553 18896 net.cpp:406] conv2_2 <- conv2_1
I1122 08:19:52.995553 18896 net.cpp:380] conv2_2 -> conv2_2
I1122 08:19:52.997560 18896 net.cpp:122] Setting up conv2_2
I1122 08:19:52.997560 18896 net.cpp:129] Top shape: 100 55 32 32 (5632000)
I1122 08:19:52.997560 18896 net.cpp:137] Memory required for data: 220366000
I1122 08:19:52.997560 18896 layer_factory.cpp:58] Creating layer bn2_2
I1122 08:19:52.997560 18896 net.cpp:84] Creating Layer bn2_2
I1122 08:19:52.997560 18896 net.cpp:406] bn2_2 <- conv2_2
I1122 08:19:52.997560 18896 net.cpp:367] bn2_2 -> conv2_2 (in-place)
I1122 08:19:52.997560 18896 net.cpp:122] Setting up bn2_2
I1122 08:19:52.997560 18896 net.cpp:129] Top shape: 100 55 32 32 (5632000)
I1122 08:19:52.997560 18896 net.cpp:137] Memory required for data: 242894000
I1122 08:19:52.997560 18896 layer_factory.cpp:58] Creating layer scale2_2
I1122 08:19:52.997560 18896 net.cpp:84] Creating Layer scale2_2
I1122 08:19:52.997560 18896 net.cpp:406] scale2_2 <- conv2_2
I1122 08:19:52.997560 18896 net.cpp:367] scale2_2 -> conv2_2 (in-place)
I1122 08:19:52.997560 18896 layer_factory.cpp:58] Creating layer scale2_2
I1122 08:19:52.997560 18896 net.cpp:122] Setting up scale2_2
I1122 08:19:52.997560 18896 net.cpp:129] Top shape: 100 55 32 32 (5632000)
I1122 08:19:52.997560 18896 net.cpp:137] Memory required for data: 265422000
I1122 08:19:52.997560 18896 layer_factory.cpp:58] Creating layer relu2_2
I1122 08:19:52.997560 18896 net.cpp:84] Creating Layer relu2_2
I1122 08:19:52.997560 18896 net.cpp:406] relu2_2 <- conv2_2
I1122 08:19:52.997560 18896 net.cpp:367] relu2_2 -> conv2_2 (in-place)
I1122 08:19:52.998553 18896 net.cpp:122] Setting up relu2_2
I1122 08:19:52.998553 18896 net.cpp:129] Top shape: 100 55 32 32 (5632000)
I1122 08:19:52.998553 18896 net.cpp:137] Memory required for data: 287950000
I1122 08:19:52.998553 18896 layer_factory.cpp:58] Creating layer pool2_1
I1122 08:19:52.998553 18896 net.cpp:84] Creating Layer pool2_1
I1122 08:19:52.998553 18896 net.cpp:406] pool2_1 <- conv2_2
I1122 08:19:52.998553 18896 net.cpp:380] pool2_1 -> pool2_1
I1122 08:19:52.998553 18896 net.cpp:122] Setting up pool2_1
I1122 08:19:52.998553 18896 net.cpp:129] Top shape: 100 55 16 16 (1408000)
I1122 08:19:52.998553 18896 net.cpp:137] Memory required for data: 293582000
I1122 08:19:52.998553 18896 layer_factory.cpp:58] Creating layer conv3
I1122 08:19:52.998553 18896 net.cpp:84] Creating Layer conv3
I1122 08:19:52.998553 18896 net.cpp:406] conv3 <- pool2_1
I1122 08:19:52.998553 18896 net.cpp:380] conv3 -> conv3
I1122 08:19:52.999553 18896 net.cpp:122] Setting up conv3
I1122 08:19:52.999553 18896 net.cpp:129] Top shape: 100 55 16 16 (1408000)
I1122 08:19:52.999553 18896 net.cpp:137] Memory required for data: 299214000
I1122 08:19:52.999553 18896 layer_factory.cpp:58] Creating layer bn3
I1122 08:19:52.999553 18896 net.cpp:84] Creating Layer bn3
I1122 08:19:52.999553 18896 net.cpp:406] bn3 <- conv3
I1122 08:19:52.999553 18896 net.cpp:367] bn3 -> conv3 (in-place)
I1122 08:19:52.999553 18896 net.cpp:122] Setting up bn3
I1122 08:19:52.999553 18896 net.cpp:129] Top shape: 100 55 16 16 (1408000)
I1122 08:19:52.999553 18896 net.cpp:137] Memory required for data: 304846000
I1122 08:19:52.999553 18896 layer_factory.cpp:58] Creating layer scale3
I1122 08:19:52.999553 18896 net.cpp:84] Creating Layer scale3
I1122 08:19:52.999553 18896 net.cpp:406] scale3 <- conv3
I1122 08:19:52.999553 18896 net.cpp:367] scale3 -> conv3 (in-place)
I1122 08:19:52.999553 18896 layer_factory.cpp:58] Creating layer scale3
I1122 08:19:52.999553 18896 net.cpp:122] Setting up scale3
I1122 08:19:52.999553 18896 net.cpp:129] Top shape: 100 55 16 16 (1408000)
I1122 08:19:52.999553 18896 net.cpp:137] Memory required for data: 310478000
I1122 08:19:52.999553 18896 layer_factory.cpp:58] Creating layer relu3
I1122 08:19:52.999553 18896 net.cpp:84] Creating Layer relu3
I1122 08:19:52.999553 18896 net.cpp:406] relu3 <- conv3
I1122 08:19:52.999553 18896 net.cpp:367] relu3 -> conv3 (in-place)
I1122 08:19:53.000555 18896 net.cpp:122] Setting up relu3
I1122 08:19:53.000555 18896 net.cpp:129] Top shape: 100 55 16 16 (1408000)
I1122 08:19:53.000555 18896 net.cpp:137] Memory required for data: 316110000
I1122 08:19:53.000555 18896 layer_factory.cpp:58] Creating layer conv4
I1122 08:19:53.000555 18896 net.cpp:84] Creating Layer conv4
I1122 08:19:53.000555 18896 net.cpp:406] conv4 <- conv3
I1122 08:19:53.000555 18896 net.cpp:380] conv4 -> conv4
I1122 08:19:53.001554 18896 net.cpp:122] Setting up conv4
I1122 08:19:53.001554 18896 net.cpp:129] Top shape: 100 55 16 16 (1408000)
I1122 08:19:53.001554 18896 net.cpp:137] Memory required for data: 321742000
I1122 08:19:53.001554 18896 layer_factory.cpp:58] Creating layer bn4
I1122 08:19:53.001554 18896 net.cpp:84] Creating Layer bn4
I1122 08:19:53.001554 18896 net.cpp:406] bn4 <- conv4
I1122 08:19:53.001554 18896 net.cpp:367] bn4 -> conv4 (in-place)
I1122 08:19:53.001554 18896 net.cpp:122] Setting up bn4
I1122 08:19:53.001554 18896 net.cpp:129] Top shape: 100 55 16 16 (1408000)
I1122 08:19:53.001554 18896 net.cpp:137] Memory required for data: 327374000
I1122 08:19:53.001554 18896 layer_factory.cpp:58] Creating layer scale4
I1122 08:19:53.001554 18896 net.cpp:84] Creating Layer scale4
I1122 08:19:53.001554 18896 net.cpp:406] scale4 <- conv4
I1122 08:19:53.001554 18896 net.cpp:367] scale4 -> conv4 (in-place)
I1122 08:19:53.001554 18896 layer_factory.cpp:58] Creating layer scale4
I1122 08:19:53.002553 18896 net.cpp:122] Setting up scale4
I1122 08:19:53.002553 18896 net.cpp:129] Top shape: 100 55 16 16 (1408000)
I1122 08:19:53.002553 18896 net.cpp:137] Memory required for data: 333006000
I1122 08:19:53.002553 18896 layer_factory.cpp:58] Creating layer relu4
I1122 08:19:53.002553 18896 net.cpp:84] Creating Layer relu4
I1122 08:19:53.002553 18896 net.cpp:406] relu4 <- conv4
I1122 08:19:53.002553 18896 net.cpp:367] relu4 -> conv4 (in-place)
I1122 08:19:53.002553 18896 net.cpp:122] Setting up relu4
I1122 08:19:53.002553 18896 net.cpp:129] Top shape: 100 55 16 16 (1408000)
I1122 08:19:53.002553 18896 net.cpp:137] Memory required for data: 338638000
I1122 08:19:53.002553 18896 layer_factory.cpp:58] Creating layer conv4_1
I1122 08:19:53.002553 18896 net.cpp:84] Creating Layer conv4_1
I1122 08:19:53.002553 18896 net.cpp:406] conv4_1 <- conv4
I1122 08:19:53.002553 18896 net.cpp:380] conv4_1 -> conv4_1
I1122 08:19:53.004554 18896 net.cpp:122] Setting up conv4_1
I1122 08:19:53.004554 18896 net.cpp:129] Top shape: 100 55 16 16 (1408000)
I1122 08:19:53.004554 18896 net.cpp:137] Memory required for data: 344270000
I1122 08:19:53.004554 18896 layer_factory.cpp:58] Creating layer bn4_1
I1122 08:19:53.004554 18896 net.cpp:84] Creating Layer bn4_1
I1122 08:19:53.004554 18896 net.cpp:406] bn4_1 <- conv4_1
I1122 08:19:53.004554 18896 net.cpp:367] bn4_1 -> conv4_1 (in-place)
I1122 08:19:53.004554 18896 net.cpp:122] Setting up bn4_1
I1122 08:19:53.004554 18896 net.cpp:129] Top shape: 100 55 16 16 (1408000)
I1122 08:19:53.004554 18896 net.cpp:137] Memory required for data: 349902000
I1122 08:19:53.004554 18896 layer_factory.cpp:58] Creating layer scale4_1
I1122 08:19:53.004554 18896 net.cpp:84] Creating Layer scale4_1
I1122 08:19:53.004554 18896 net.cpp:406] scale4_1 <- conv4_1
I1122 08:19:53.004554 18896 net.cpp:367] scale4_1 -> conv4_1 (in-place)
I1122 08:19:53.004554 18896 layer_factory.cpp:58] Creating layer scale4_1
I1122 08:19:53.004554 18896 net.cpp:122] Setting up scale4_1
I1122 08:19:53.004554 18896 net.cpp:129] Top shape: 100 55 16 16 (1408000)
I1122 08:19:53.004554 18896 net.cpp:137] Memory required for data: 355534000
I1122 08:19:53.004554 18896 layer_factory.cpp:58] Creating layer relu4_1
I1122 08:19:53.004554 18896 net.cpp:84] Creating Layer relu4_1
I1122 08:19:53.004554 18896 net.cpp:406] relu4_1 <- conv4_1
I1122 08:19:53.004554 18896 net.cpp:367] relu4_1 -> conv4_1 (in-place)
I1122 08:19:53.004554 18896 net.cpp:122] Setting up relu4_1
I1122 08:19:53.004554 18896 net.cpp:129] Top shape: 100 55 16 16 (1408000)
I1122 08:19:53.004554 18896 net.cpp:137] Memory required for data: 361166000
I1122 08:19:53.004554 18896 layer_factory.cpp:58] Creating layer conv4_2
I1122 08:19:53.004554 18896 net.cpp:84] Creating Layer conv4_2
I1122 08:19:53.004554 18896 net.cpp:406] conv4_2 <- conv4_1
I1122 08:19:53.004554 18896 net.cpp:380] conv4_2 -> conv4_2
I1122 08:19:53.006553 18896 net.cpp:122] Setting up conv4_2
I1122 08:19:53.006553 18896 net.cpp:129] Top shape: 100 75 16 16 (1920000)
I1122 08:19:53.006553 18896 net.cpp:137] Memory required for data: 368846000
I1122 08:19:53.006553 18896 layer_factory.cpp:58] Creating layer bn4_2
I1122 08:19:53.006553 18896 net.cpp:84] Creating Layer bn4_2
I1122 08:19:53.006553 18896 net.cpp:406] bn4_2 <- conv4_2
I1122 08:19:53.006553 18896 net.cpp:367] bn4_2 -> conv4_2 (in-place)
I1122 08:19:53.006553 18896 net.cpp:122] Setting up bn4_2
I1122 08:19:53.006553 18896 net.cpp:129] Top shape: 100 75 16 16 (1920000)
I1122 08:19:53.006553 18896 net.cpp:137] Memory required for data: 376526000
I1122 08:19:53.006553 18896 layer_factory.cpp:58] Creating layer scale4_2
I1122 08:19:53.006553 18896 net.cpp:84] Creating Layer scale4_2
I1122 08:19:53.006553 18896 net.cpp:406] scale4_2 <- conv4_2
I1122 08:19:53.006553 18896 net.cpp:367] scale4_2 -> conv4_2 (in-place)
I1122 08:19:53.006553 18896 layer_factory.cpp:58] Creating layer scale4_2
I1122 08:19:53.006553 18896 net.cpp:122] Setting up scale4_2
I1122 08:19:53.006553 18896 net.cpp:129] Top shape: 100 75 16 16 (1920000)
I1122 08:19:53.006553 18896 net.cpp:137] Memory required for data: 384206000
I1122 08:19:53.006553 18896 layer_factory.cpp:58] Creating layer relu4_2
I1122 08:19:53.006553 18896 net.cpp:84] Creating Layer relu4_2
I1122 08:19:53.006553 18896 net.cpp:406] relu4_2 <- conv4_2
I1122 08:19:53.006553 18896 net.cpp:367] relu4_2 -> conv4_2 (in-place)
I1122 08:19:53.007560 18896 net.cpp:122] Setting up relu4_2
I1122 08:19:53.007560 18896 net.cpp:129] Top shape: 100 75 16 16 (1920000)
I1122 08:19:53.007560 18896 net.cpp:137] Memory required for data: 391886000
I1122 08:19:53.007560 18896 layer_factory.cpp:58] Creating layer pool4_2
I1122 08:19:53.007560 18896 net.cpp:84] Creating Layer pool4_2
I1122 08:19:53.007560 18896 net.cpp:406] pool4_2 <- conv4_2
I1122 08:19:53.007560 18896 net.cpp:380] pool4_2 -> pool4_2
I1122 08:19:53.007560 18896 net.cpp:122] Setting up pool4_2
I1122 08:19:53.007560 18896 net.cpp:129] Top shape: 100 75 8 8 (480000)
I1122 08:19:53.007560 18896 net.cpp:137] Memory required for data: 393806000
I1122 08:19:53.007560 18896 layer_factory.cpp:58] Creating layer conv11
I1122 08:19:53.007560 18896 net.cpp:84] Creating Layer conv11
I1122 08:19:53.007560 18896 net.cpp:406] conv11 <- pool4_2
I1122 08:19:53.007560 18896 net.cpp:380] conv11 -> conv11
I1122 08:19:53.009554 18896 net.cpp:122] Setting up conv11
I1122 08:19:53.009554 18896 net.cpp:129] Top shape: 100 85 8 8 (544000)
I1122 08:19:53.009554 18896 net.cpp:137] Memory required for data: 395982000
I1122 08:19:53.009554 18896 layer_factory.cpp:58] Creating layer bn_conv11
I1122 08:19:53.009554 18896 net.cpp:84] Creating Layer bn_conv11
I1122 08:19:53.009554 18896 net.cpp:406] bn_conv11 <- conv11
I1122 08:19:53.009554 18896 net.cpp:367] bn_conv11 -> conv11 (in-place)
I1122 08:19:53.009554 18896 net.cpp:122] Setting up bn_conv11
I1122 08:19:53.009554 18896 net.cpp:129] Top shape: 100 85 8 8 (544000)
I1122 08:19:53.009554 18896 net.cpp:137] Memory required for data: 398158000
I1122 08:19:53.009554 18896 layer_factory.cpp:58] Creating layer scale_conv11
I1122 08:19:53.009554 18896 net.cpp:84] Creating Layer scale_conv11
I1122 08:19:53.009554 18896 net.cpp:406] scale_conv11 <- conv11
I1122 08:19:53.009554 18896 net.cpp:367] scale_conv11 -> conv11 (in-place)
I1122 08:19:53.009554 18896 layer_factory.cpp:58] Creating layer scale_conv11
I1122 08:19:53.009554 18896 net.cpp:122] Setting up scale_conv11
I1122 08:19:53.009554 18896 net.cpp:129] Top shape: 100 85 8 8 (544000)
I1122 08:19:53.009554 18896 net.cpp:137] Memory required for data: 400334000
I1122 08:19:53.009554 18896 layer_factory.cpp:58] Creating layer relu_conv11
I1122 08:19:53.009554 18896 net.cpp:84] Creating Layer relu_conv11
I1122 08:19:53.009554 18896 net.cpp:406] relu_conv11 <- conv11
I1122 08:19:53.009554 18896 net.cpp:367] relu_conv11 -> conv11 (in-place)
I1122 08:19:53.009554 18896 net.cpp:122] Setting up relu_conv11
I1122 08:19:53.009554 18896 net.cpp:129] Top shape: 100 85 8 8 (544000)
I1122 08:19:53.009554 18896 net.cpp:137] Memory required for data: 402510000
I1122 08:19:53.009554 18896 layer_factory.cpp:58] Creating layer conv12
I1122 08:19:53.009554 18896 net.cpp:84] Creating Layer conv12
I1122 08:19:53.009554 18896 net.cpp:406] conv12 <- conv11
I1122 08:19:53.009554 18896 net.cpp:380] conv12 -> conv12
I1122 08:19:53.011554 18896 net.cpp:122] Setting up conv12
I1122 08:19:53.012554 18896 net.cpp:129] Top shape: 100 95 8 8 (608000)
I1122 08:19:53.012554 18896 net.cpp:137] Memory required for data: 404942000
I1122 08:19:53.012554 18896 layer_factory.cpp:58] Creating layer bn_conv12
I1122 08:19:53.012554 18896 net.cpp:84] Creating Layer bn_conv12
I1122 08:19:53.012554 18896 net.cpp:406] bn_conv12 <- conv12
I1122 08:19:53.012554 18896 net.cpp:367] bn_conv12 -> conv12 (in-place)
I1122 08:19:53.012554 18896 net.cpp:122] Setting up bn_conv12
I1122 08:19:53.012554 18896 net.cpp:129] Top shape: 100 95 8 8 (608000)
I1122 08:19:53.012554 18896 net.cpp:137] Memory required for data: 407374000
I1122 08:19:53.012554 18896 layer_factory.cpp:58] Creating layer scale_conv12
I1122 08:19:53.012554 18896 net.cpp:84] Creating Layer scale_conv12
I1122 08:19:53.012554 18896 net.cpp:406] scale_conv12 <- conv12
I1122 08:19:53.012554 18896 net.cpp:367] scale_conv12 -> conv12 (in-place)
I1122 08:19:53.012554 18896 layer_factory.cpp:58] Creating layer scale_conv12
I1122 08:19:53.012554 18896 net.cpp:122] Setting up scale_conv12
I1122 08:19:53.012554 18896 net.cpp:129] Top shape: 100 95 8 8 (608000)
I1122 08:19:53.012554 18896 net.cpp:137] Memory required for data: 409806000
I1122 08:19:53.012554 18896 layer_factory.cpp:58] Creating layer relu_conv12
I1122 08:19:53.012554 18896 net.cpp:84] Creating Layer relu_conv12
I1122 08:19:53.012554 18896 net.cpp:406] relu_conv12 <- conv12
I1122 08:19:53.012554 18896 net.cpp:367] relu_conv12 -> conv12 (in-place)
I1122 08:19:53.012554 18896 net.cpp:122] Setting up relu_conv12
I1122 08:19:53.012554 18896 net.cpp:129] Top shape: 100 95 8 8 (608000)
I1122 08:19:53.012554 18896 net.cpp:137] Memory required for data: 412238000
I1122 08:19:53.012554 18896 layer_factory.cpp:58] Creating layer poolcp6
I1122 08:19:53.012554 18896 net.cpp:84] Creating Layer poolcp6
I1122 08:19:53.012554 18896 net.cpp:406] poolcp6 <- conv12
I1122 08:19:53.012554 18896 net.cpp:380] poolcp6 -> poolcp6
I1122 08:19:53.012554 18896 net.cpp:122] Setting up poolcp6
I1122 08:19:53.012554 18896 net.cpp:129] Top shape: 100 95 1 1 (9500)
I1122 08:19:53.012554 18896 net.cpp:137] Memory required for data: 412276000
I1122 08:19:53.012554 18896 layer_factory.cpp:58] Creating layer ip1
I1122 08:19:53.012554 18896 net.cpp:84] Creating Layer ip1
I1122 08:19:53.012554 18896 net.cpp:406] ip1 <- poolcp6
I1122 08:19:53.013555 18896 net.cpp:380] ip1 -> ip1
I1122 08:19:53.013555 18896 net.cpp:122] Setting up ip1
I1122 08:19:53.013555 18896 net.cpp:129] Top shape: 100 10 (1000)
I1122 08:19:53.013555 18896 net.cpp:137] Memory required for data: 412280000
I1122 08:19:53.013555 18896 layer_factory.cpp:58] Creating layer ip1_ip1_0_split
I1122 08:19:53.013555 18896 net.cpp:84] Creating Layer ip1_ip1_0_split
I1122 08:19:53.013555 18896 net.cpp:406] ip1_ip1_0_split <- ip1
I1122 08:19:53.013555 18896 net.cpp:380] ip1_ip1_0_split -> ip1_ip1_0_split_0
I1122 08:19:53.013555 18896 net.cpp:380] ip1_ip1_0_split -> ip1_ip1_0_split_1
I1122 08:19:53.013555 18896 net.cpp:122] Setting up ip1_ip1_0_split
I1122 08:19:53.013555 18896 net.cpp:129] Top shape: 100 10 (1000)
I1122 08:19:53.013555 18896 net.cpp:129] Top shape: 100 10 (1000)
I1122 08:19:53.013555 18896 net.cpp:137] Memory required for data: 412288000
I1122 08:19:53.013555 18896 layer_factory.cpp:58] Creating layer accuracy_training
I1122 08:19:53.013555 18896 net.cpp:84] Creating Layer accuracy_training
I1122 08:19:53.013555 18896 net.cpp:406] accuracy_training <- ip1_ip1_0_split_0
I1122 08:19:53.013555 18896 net.cpp:406] accuracy_training <- label_cifar_1_split_0
…
