…
I1123 15:19:18.083374 22196 net.cpp:294] The NetState phase (0) differed from the phase (1) specified by a rule in layer accuracy
I1123 15:19:18.083374 22196 net.cpp:51] Initializing net from parameters: 
name: "CIFAR10_SimpleNet_GP_8L_Simple_7x7_300K"
state {
  phase: TRAIN
  level: 0
  stage: ""
}
layer {
  name: "cifar"
  type: "Data"
  top: "data"
  top: "label"
  include {
    phase: TRAIN
  }
  transform_param {
    mirror: true
    crop_size: 32
  }
  data_param {
    source: "examples/cifar10/cifar10_train_lmdb_zeropad"
    batch_size: 100
    backend: LMDB
  }
}
layer {
  name: "conv1"
  type: "Convolution"
  bottom: "data"
  top: "conv1"
  param {
    lr_mult: 1
  }
  convolution_param {
    num_output: 20
    bias_term: true
    pad: 3
    kernel_size: 7
    stride: 1
    weight_filler {
      type: "xavier"
    }
  }
}
layer {
  name: "bn1"
  type: "BatchNorm"
  bottom: "conv1"
  top: "conv1"
  param {
    lr_mult: 0
    decay_mult: 0
  }
  param {
    lr_mult: 0
    decay_mult: 0
  }
  param {
    lr_mult: 0
    decay_mult: 0
  }
  include {
    phase: TRAIN
  }
  batch_norm_param {
    use_global_stats: false
    moving_average_fraction: 0.99
  }
}
layer {
  name: "scale1"
  type: "Scale"
  bottom: "conv1"
  top: "conv1"
  scale_param {
    bias_term: true
  }
}
layer {
  name: "relu1"
  type: "ReLU"
  bottom: "conv1"
  top: "conv1"
}
layer {
  name: "conv2"
  type: "Convolution"
  bottom: "conv1"
  top: "conv2"
  param {
    lr_mult: 1
  }
  convolution_param {
    num_output: 20
    bias_term: true
    pad: 3
    kernel_size: 7
    stride: 1
    weight_filler {
      type: "xavier"
    }
  }
}
layer {
  name: "bn2"
  type: "BatchNorm"
  bottom: "conv2"
  top: "conv2"
  param {
    lr_mult: 0
    decay_mult: 0
  }
  param {
    lr_mult: 0
    decay_mult: 0
  }
  param {
    lr_mult: 0
    decay_mult: 0
  }
  include {
    phase: TRAIN
  }
  batch_norm_param {
    use_global_stats: false
    moving_average_fraction: 0.99
  }
}
layer {
  name: "scale2"
  type: "Scale"
  bottom: "conv2"
  top: "conv2"
  scale_param {
    bias_term: true
  }
}
layer {
  name: "relu2"
  type: "ReLU"
  bottom: "conv2"
  top: "conv2"
}
layer {
  name: "conv2_2"
  type: "Convolution"
  bottom: "conv2"
  top: "conv2_2"
  param {
    lr_mult: 1
  }
  convolution_param {
    num_output: 30
    bias_term: true
    pad: 3
    kernel_size: 7
    stride: 1
    weight_filler {
      type: "xavier"
    }
  }
}
layer {
  name: "bn2_2"
  type: "BatchNorm"
  bottom: "conv2_2"
  top: "conv2_2"
  param {
    lr_mult: 0
    decay_mult: 0
  }
  param {
    lr_mult: 0
    decay_mult: 0
  }
  param {
    lr_mult: 0
    decay_mult: 0
  }
  include {
    phase: TRAIN
  }
  batch_norm_param {
    use_global_stats: false
    moving_average_fraction: 0.99
  }
}
layer {
  name: "scale2_2"
  type: "Scale"
  bottom: "conv2_2"
  top: "conv2_2"
  scale_param {
    bias_term: true
  }
}
layer {
  name: "relu2_2"
  type: "ReLU"
  bottom: "conv2_2"
  top: "conv2_2"
}
layer {
  name: "pool2_1"
  type: "Pooling"
  bottom: "conv2_2"
  top: "pool2_1"
  pooling_param {
    pool: MAX
    kernel_size: 2
    stride: 2
  }
}
layer {
  name: "conv3"
  type: "Convolution"
  bottom: "pool2_1"
  top: "conv3"
  param {
    lr_mult: 1
  }
  convolution_param {
    num_output: 30
    bias_term: true
    pad: 3
    kernel_size: 7
    stride: 1
    weight_filler {
      type: "xavier"
    }
  }
}
layer {
  name: "bn3"
  type: "BatchNorm"
  bottom: "conv3"
  top: "conv3"
  param {
    lr_mult: 0
    decay_mult: 0
  }
  param {
    lr_mult: 0
    decay_mult: 0
  }
  param {
    lr_mult: 0
    decay_mult: 0
  }
  include {
    phase: TRAIN
  }
  batch_norm_param {
    use_global_stats: false
    moving_average_fraction: 0.99
  }
}
layer {
  name: "scale3"
  type: "Scale"
  bottom: "conv3"
  top: "conv3"
  scale_param {
    bias_term: true
  }
}
layer {
  name: "relu3"
  type: "ReLU"
  bottom: "conv3"
  top: "conv3"
}
layer {
  name: "conv4"
  type: "Convolution"
  bottom: "conv3"
  top: "conv4"
  param {
    lr_mult: 1
  }
  convolution_param {
    num_output: 30
    bias_term: true
    pad: 3
    kernel_size: 7
    stride: 1
    weight_filler {
      type: "xavier"
    }
  }
}
layer {
  name: "bn4"
  type: "BatchNorm"
  bottom: "conv4"
  top: "conv4"
  param {
    lr_mult: 0
    decay_mult: 0
  }
  param {
    lr_mult: 0
    decay_mult: 0
  }
  param {
    lr_mult: 0
    decay_mult: 0
  }
  include {
    phase: TRAIN
  }
  batch_norm_param {
    use_global_stats: false
    moving_average_fraction: 0.99
  }
}
layer {
  name: "scale4"
  type: "Scale"
  bottom: "conv4"
  top: "conv4"
  scale_param {
    bias_term: true
  }
}
layer {
  name: "relu4"
  type: "ReLU"
  bottom: "conv4"
  top: "conv4"
}
layer {
  name: "conv4_1"
  type: "Convolution"
  bottom: "conv4"
  top: "conv4_1"
  param {
    lr_mult: 1
  }
  convolution_param {
    num_output: 30
    bias_term: true
    pad: 3
    kernel_size: 7
    stride: 1
    weight_filler {
      type: "xavier"
    }
  }
}
layer {
  name: "bn4_1"
  type: "BatchNorm"
  bottom: "conv4_1"
  top: "conv4_1"
  param {
    lr_mult: 0
    decay_mult: 0
  }
  param {
    lr_mult: 0
    decay_mult: 0
  }
  param {
    lr_mult: 0
    decay_mult: 0
  }
  include {
    phase: TRAIN
  }
  batch_norm_param {
    use_global_stats: false
    moving_average_fraction: 0.99
  }
}
layer {
  name: "scale4_1"
  type: "Scale"
  bottom: "conv4_1"
  top: "conv4_1"
  scale_param {
    bias_term: true
  }
}
layer {
  name: "relu4_1"
  type: "ReLU"
  bottom: "conv4_1"
  top: "conv4_1"
}
layer {
  name: "conv4_2"
  type: "Convolution"
  bottom: "conv4_1"
  top: "conv4_2"
  param {
    lr_mult: 1
  }
  convolution_param {
    num_output: 35
    bias_term: true
    pad: 3
    kernel_size: 7
    stride: 1
    weight_filler {
      type: "xavier"
    }
  }
}
layer {
  name: "bn4_2"
  type: "BatchNorm"
  bottom: "conv4_2"
  top: "conv4_2"
  param {
    lr_mult: 0
    decay_mult: 0
  }
  param {
    lr_mult: 0
    decay_mult: 0
  }
  param {
    lr_mult: 0
    decay_mult: 0
  }
  include {
    phase: TRAIN
  }
  batch_norm_param {
    use_global_stats: false
    moving_average_fraction: 0.99
  }
}
layer {
  name: "scale4_2"
  type: "Scale"
  bottom: "conv4_2"
  top: "conv4_2"
  scale_param {
    bias_term: true
  }
}
layer {
  name: "relu4_2"
  type: "ReLU"
  bottom: "conv4_2"
  top: "conv4_2"
}
layer {
  name: "pool4_2"
  type: "Pooling"
  bottom: "conv4_2"
  top: "pool4_2"
  pooling_param {
    pool: MAX
    kernel_size: 2
    stride: 2
  }
}
layer {
  name: "conv12"
  type: "Convolution"
  bottom: "pool4_2"
  top: "conv12"
  param {
    lr_mult: 1
    decay_mult: 1
  }
  param {
    lr_mult: 2
    decay_mult: 0
  }
  convolution_param {
    num_output: 38
    pad: 3
    kernel_size: 7
    weight_filler {
      type: "xavier"
    }
    bias_filler {
      type: "constant"
      value: 0
    }
  }
}
layer {
  name: "bn_conv12"
  type: "BatchNorm"
  bottom: "conv12"
  top: "conv12"
  param {
    lr_mult: 0
    decay_mult: 0
  }
  param {
    lr_mult: 0
    decay_mult: 0
  }
  param {
    lr_mult: 0
    decay_mult: 0
  }
  include {
    phase: TRAIN
  }
  batch_norm_param {
    use_global_stats: false
    moving_average_fraction: 0.99
  }
}
layer {
  name: "scale_conv12"
  type: "Scale"
  bottom: "conv12"
  top: "conv12"
  scale_param {
    bias_term: true
  }
}
layer {
  name: "relu_conv12"
  type: "ReLU"
  bottom: "conv12"
  top: "conv12"
}
layer {
  name: "poolcp6"
  type: "Pooling"
  bottom: "conv12"
  top: "poolcp6"
  pooling_param {
    pool: MAX
    global_pooling: true
  }
}
layer {
  name: "ip1"
  type: "InnerProduct"
  bottom: "poolcp6"
  top: "ip1"
  param {
    lr_mult: 1
    decay_mult: 0
  }
  param {
    lr_mult: 2
    decay_mult: 0
  }
  inner_product_param {
    num_output: 10
    weight_filler {
      type: "xavier"
    }
    bias_filler {
      type: "constant"
    }
  }
}
layer {
  name: "accuracy_training"
  type: "Accuracy"
  bottom: "ip1"
  bottom: "label"
  top: "accuracy_training"
  include {
    phase: TRAIN
  }
}
layer {
  name: "loss"
  type: "SoftmaxWithLoss"
  bottom: "ip1"
  bottom: "label"
  top: "loss"
}
I1123 15:19:18.145931 22196 layer_factory.cpp:58] Creating layer cifar
I1123 15:19:18.153920 22196 db_lmdb.cpp:40] Opened lmdb examples/cifar10/cifar10_train_lmdb_zeropad
I1123 15:19:18.153920 22196 net.cpp:84] Creating Layer cifar
I1123 15:19:18.153920 22196 net.cpp:380] cifar -> data
I1123 15:19:18.153920 22196 net.cpp:380] cifar -> label
I1123 15:19:18.154918 22196 data_layer.cpp:45] output data size: 100,3,32,32
I1123 15:19:18.159947 22196 net.cpp:122] Setting up cifar
I1123 15:19:18.159947 22196 net.cpp:129] Top shape: 100 3 32 32 (307200)
I1123 15:19:18.159947 22196 net.cpp:129] Top shape: 100 (100)
I1123 15:19:18.159947 22196 net.cpp:137] Memory required for data: 1229200
I1123 15:19:18.159947 22196 layer_factory.cpp:58] Creating layer label_cifar_1_split
I1123 15:19:18.159947 22196 net.cpp:84] Creating Layer label_cifar_1_split
I1123 15:19:18.159947 22196 net.cpp:406] label_cifar_1_split <- label
I1123 15:19:18.159947 22196 net.cpp:380] label_cifar_1_split -> label_cifar_1_split_0
I1123 15:19:18.159947 22196 net.cpp:380] label_cifar_1_split -> label_cifar_1_split_1
I1123 15:19:18.160446 22196 net.cpp:122] Setting up label_cifar_1_split
I1123 15:19:18.160446 22196 net.cpp:129] Top shape: 100 (100)
I1123 15:19:18.160446 22196 net.cpp:129] Top shape: 100 (100)
I1123 15:19:18.160446 22196 net.cpp:137] Memory required for data: 1230000
I1123 15:19:18.160446 22196 layer_factory.cpp:58] Creating layer conv1
I1123 15:19:18.160446 22196 net.cpp:84] Creating Layer conv1
I1123 15:19:18.160446 22196 net.cpp:406] conv1 <- data
I1123 15:19:18.160446 22196 net.cpp:380] conv1 -> conv1
I1123 15:19:18.160946 20256 common.cpp:36] System entropy source not available, using fallback algorithm to generate seed instead.
I1123 15:19:18.410270 22196 net.cpp:122] Setting up conv1
I1123 15:19:18.410270 22196 net.cpp:129] Top shape: 100 20 32 32 (2048000)
I1123 15:19:18.410270 22196 net.cpp:137] Memory required for data: 9422000
I1123 15:19:18.410270 22196 layer_factory.cpp:58] Creating layer bn1
I1123 15:19:18.410270 22196 net.cpp:84] Creating Layer bn1
I1123 15:19:18.410270 22196 net.cpp:406] bn1 <- conv1
I1123 15:19:18.410270 22196 net.cpp:367] bn1 -> conv1 (in-place)
I1123 15:19:18.410270 22196 net.cpp:122] Setting up bn1
I1123 15:19:18.410270 22196 net.cpp:129] Top shape: 100 20 32 32 (2048000)
I1123 15:19:18.410270 22196 net.cpp:137] Memory required for data: 17614000
I1123 15:19:18.410270 22196 layer_factory.cpp:58] Creating layer scale1
I1123 15:19:18.410270 22196 net.cpp:84] Creating Layer scale1
I1123 15:19:18.410270 22196 net.cpp:406] scale1 <- conv1
I1123 15:19:18.410270 22196 net.cpp:367] scale1 -> conv1 (in-place)
I1123 15:19:18.410270 22196 layer_factory.cpp:58] Creating layer scale1
I1123 15:19:18.410270 22196 net.cpp:122] Setting up scale1
I1123 15:19:18.410270 22196 net.cpp:129] Top shape: 100 20 32 32 (2048000)
I1123 15:19:18.410270 22196 net.cpp:137] Memory required for data: 25806000
I1123 15:19:18.410270 22196 layer_factory.cpp:58] Creating layer relu1
I1123 15:19:18.410270 22196 net.cpp:84] Creating Layer relu1
I1123 15:19:18.410270 22196 net.cpp:406] relu1 <- conv1
I1123 15:19:18.410270 22196 net.cpp:367] relu1 -> conv1 (in-place)
I1123 15:19:18.410270 22196 net.cpp:122] Setting up relu1
I1123 15:19:18.410270 22196 net.cpp:129] Top shape: 100 20 32 32 (2048000)
I1123 15:19:18.410270 22196 net.cpp:137] Memory required for data: 33998000
I1123 15:19:18.410270 22196 layer_factory.cpp:58] Creating layer conv2
I1123 15:19:18.410270 22196 net.cpp:84] Creating Layer conv2
I1123 15:19:18.410270 22196 net.cpp:406] conv2 <- conv1
I1123 15:19:18.410270 22196 net.cpp:380] conv2 -> conv2
I1123 15:19:18.412273 22196 net.cpp:122] Setting up conv2
I1123 15:19:18.412273 22196 net.cpp:129] Top shape: 100 20 32 32 (2048000)
I1123 15:19:18.412273 22196 net.cpp:137] Memory required for data: 42190000
I1123 15:19:18.412273 22196 layer_factory.cpp:58] Creating layer bn2
I1123 15:19:18.412273 22196 net.cpp:84] Creating Layer bn2
I1123 15:19:18.412273 22196 net.cpp:406] bn2 <- conv2
I1123 15:19:18.412273 22196 net.cpp:367] bn2 -> conv2 (in-place)
I1123 15:19:18.412273 22196 net.cpp:122] Setting up bn2
I1123 15:19:18.412273 22196 net.cpp:129] Top shape: 100 20 32 32 (2048000)
I1123 15:19:18.412273 22196 net.cpp:137] Memory required for data: 50382000
I1123 15:19:18.412273 22196 layer_factory.cpp:58] Creating layer scale2
I1123 15:19:18.412273 22196 net.cpp:84] Creating Layer scale2
I1123 15:19:18.412273 22196 net.cpp:406] scale2 <- conv2
I1123 15:19:18.412273 22196 net.cpp:367] scale2 -> conv2 (in-place)
I1123 15:19:18.412273 22196 layer_factory.cpp:58] Creating layer scale2
I1123 15:19:18.412273 22196 net.cpp:122] Setting up scale2
I1123 15:19:18.412273 22196 net.cpp:129] Top shape: 100 20 32 32 (2048000)
I1123 15:19:18.412273 22196 net.cpp:137] Memory required for data: 58574000
I1123 15:19:18.412273 22196 layer_factory.cpp:58] Creating layer relu2
I1123 15:19:18.412273 22196 net.cpp:84] Creating Layer relu2
I1123 15:19:18.412273 22196 net.cpp:406] relu2 <- conv2
I1123 15:19:18.412273 22196 net.cpp:367] relu2 -> conv2 (in-place)
I1123 15:19:18.413275 22196 net.cpp:122] Setting up relu2
I1123 15:19:18.413275 22196 net.cpp:129] Top shape: 100 20 32 32 (2048000)
I1123 15:19:18.413275 22196 net.cpp:137] Memory required for data: 66766000
I1123 15:19:18.413275 22196 layer_factory.cpp:58] Creating layer conv2_2
I1123 15:19:18.413275 22196 net.cpp:84] Creating Layer conv2_2
I1123 15:19:18.413275 22196 net.cpp:406] conv2_2 <- conv2
I1123 15:19:18.413275 22196 net.cpp:380] conv2_2 -> conv2_2
I1123 15:19:18.414270 22196 net.cpp:122] Setting up conv2_2
I1123 15:19:18.414270 22196 net.cpp:129] Top shape: 100 30 32 32 (3072000)
I1123 15:19:18.414270 22196 net.cpp:137] Memory required for data: 79054000
I1123 15:19:18.414270 22196 layer_factory.cpp:58] Creating layer bn2_2
I1123 15:19:18.414270 22196 net.cpp:84] Creating Layer bn2_2
I1123 15:19:18.414270 22196 net.cpp:406] bn2_2 <- conv2_2
I1123 15:19:18.414270 22196 net.cpp:367] bn2_2 -> conv2_2 (in-place)
I1123 15:19:18.414270 22196 net.cpp:122] Setting up bn2_2
I1123 15:19:18.414270 22196 net.cpp:129] Top shape: 100 30 32 32 (3072000)
I1123 15:19:18.414270 22196 net.cpp:137] Memory required for data: 91342000
I1123 15:19:18.414270 22196 layer_factory.cpp:58] Creating layer scale2_2
I1123 15:19:18.414270 22196 net.cpp:84] Creating Layer scale2_2
I1123 15:19:18.414270 22196 net.cpp:406] scale2_2 <- conv2_2
I1123 15:19:18.414270 22196 net.cpp:367] scale2_2 -> conv2_2 (in-place)
I1123 15:19:18.414270 22196 layer_factory.cpp:58] Creating layer scale2_2
I1123 15:19:18.414270 22196 net.cpp:122] Setting up scale2_2
I1123 15:19:18.414270 22196 net.cpp:129] Top shape: 100 30 32 32 (3072000)
I1123 15:19:18.414270 22196 net.cpp:137] Memory required for data: 103630000
I1123 15:19:18.414270 22196 layer_factory.cpp:58] Creating layer relu2_2
I1123 15:19:18.414270 22196 net.cpp:84] Creating Layer relu2_2
I1123 15:19:18.414270 22196 net.cpp:406] relu2_2 <- conv2_2
I1123 15:19:18.414270 22196 net.cpp:367] relu2_2 -> conv2_2 (in-place)
I1123 15:19:18.414270 22196 net.cpp:122] Setting up relu2_2
I1123 15:19:18.414270 22196 net.cpp:129] Top shape: 100 30 32 32 (3072000)
I1123 15:19:18.414270 22196 net.cpp:137] Memory required for data: 115918000
I1123 15:19:18.414270 22196 layer_factory.cpp:58] Creating layer pool2_1
I1123 15:19:18.414270 22196 net.cpp:84] Creating Layer pool2_1
I1123 15:19:18.414270 22196 net.cpp:406] pool2_1 <- conv2_2
I1123 15:19:18.414270 22196 net.cpp:380] pool2_1 -> pool2_1
I1123 15:19:18.415271 22196 net.cpp:122] Setting up pool2_1
I1123 15:19:18.415271 22196 net.cpp:129] Top shape: 100 30 16 16 (768000)
I1123 15:19:18.415271 22196 net.cpp:137] Memory required for data: 118990000
I1123 15:19:18.415271 22196 layer_factory.cpp:58] Creating layer conv3
I1123 15:19:18.415271 22196 net.cpp:84] Creating Layer conv3
I1123 15:19:18.415271 22196 net.cpp:406] conv3 <- pool2_1
I1123 15:19:18.415271 22196 net.cpp:380] conv3 -> conv3
I1123 15:19:18.416270 22196 net.cpp:122] Setting up conv3
I1123 15:19:18.416270 22196 net.cpp:129] Top shape: 100 30 16 16 (768000)
I1123 15:19:18.416270 22196 net.cpp:137] Memory required for data: 122062000
I1123 15:19:18.416270 22196 layer_factory.cpp:58] Creating layer bn3
I1123 15:19:18.416270 22196 net.cpp:84] Creating Layer bn3
I1123 15:19:18.416270 22196 net.cpp:406] bn3 <- conv3
I1123 15:19:18.416270 22196 net.cpp:367] bn3 -> conv3 (in-place)
I1123 15:19:18.416270 22196 net.cpp:122] Setting up bn3
I1123 15:19:18.416270 22196 net.cpp:129] Top shape: 100 30 16 16 (768000)
I1123 15:19:18.416270 22196 net.cpp:137] Memory required for data: 125134000
I1123 15:19:18.416270 22196 layer_factory.cpp:58] Creating layer scale3
I1123 15:19:18.416270 22196 net.cpp:84] Creating Layer scale3
I1123 15:19:18.416270 22196 net.cpp:406] scale3 <- conv3
I1123 15:19:18.416270 22196 net.cpp:367] scale3 -> conv3 (in-place)
I1123 15:19:18.416270 22196 layer_factory.cpp:58] Creating layer scale3
I1123 15:19:18.416270 22196 net.cpp:122] Setting up scale3
I1123 15:19:18.416270 22196 net.cpp:129] Top shape: 100 30 16 16 (768000)
I1123 15:19:18.416270 22196 net.cpp:137] Memory required for data: 128206000
I1123 15:19:18.416270 22196 layer_factory.cpp:58] Creating layer relu3
I1123 15:19:18.416270 22196 net.cpp:84] Creating Layer relu3
I1123 15:19:18.416270 22196 net.cpp:406] relu3 <- conv3
I1123 15:19:18.416270 22196 net.cpp:367] relu3 -> conv3 (in-place)
I1123 15:19:18.416270 22196 net.cpp:122] Setting up relu3
I1123 15:19:18.416270 22196 net.cpp:129] Top shape: 100 30 16 16 (768000)
I1123 15:19:18.416270 22196 net.cpp:137] Memory required for data: 131278000
I1123 15:19:18.416270 22196 layer_factory.cpp:58] Creating layer conv4
I1123 15:19:18.416270 22196 net.cpp:84] Creating Layer conv4
I1123 15:19:18.416270 22196 net.cpp:406] conv4 <- conv3
I1123 15:19:18.416270 22196 net.cpp:380] conv4 -> conv4
I1123 15:19:18.418270 22196 net.cpp:122] Setting up conv4
I1123 15:19:18.418270 22196 net.cpp:129] Top shape: 100 30 16 16 (768000)
I1123 15:19:18.418270 22196 net.cpp:137] Memory required for data: 134350000
I1123 15:19:18.418270 22196 layer_factory.cpp:58] Creating layer bn4
I1123 15:19:18.418270 22196 net.cpp:84] Creating Layer bn4
I1123 15:19:18.418270 22196 net.cpp:406] bn4 <- conv4
I1123 15:19:18.418270 22196 net.cpp:367] bn4 -> conv4 (in-place)
I1123 15:19:18.418270 22196 net.cpp:122] Setting up bn4
I1123 15:19:18.418270 22196 net.cpp:129] Top shape: 100 30 16 16 (768000)
I1123 15:19:18.418270 22196 net.cpp:137] Memory required for data: 137422000
I1123 15:19:18.418270 22196 layer_factory.cpp:58] Creating layer scale4
I1123 15:19:18.418270 22196 net.cpp:84] Creating Layer scale4
I1123 15:19:18.418270 22196 net.cpp:406] scale4 <- conv4
I1123 15:19:18.418270 22196 net.cpp:367] scale4 -> conv4 (in-place)
I1123 15:19:18.418270 22196 layer_factory.cpp:58] Creating layer scale4
I1123 15:19:18.418270 22196 net.cpp:122] Setting up scale4
I1123 15:19:18.418270 22196 net.cpp:129] Top shape: 100 30 16 16 (768000)
I1123 15:19:18.418270 22196 net.cpp:137] Memory required for data: 140494000
I1123 15:19:18.418270 22196 layer_factory.cpp:58] Creating layer relu4
I1123 15:19:18.418270 22196 net.cpp:84] Creating Layer relu4
I1123 15:19:18.418270 22196 net.cpp:406] relu4 <- conv4
I1123 15:19:18.418270 22196 net.cpp:367] relu4 -> conv4 (in-place)
I1123 15:19:18.419270 22196 net.cpp:122] Setting up relu4
I1123 15:19:18.419270 22196 net.cpp:129] Top shape: 100 30 16 16 (768000)
I1123 15:19:18.419270 22196 net.cpp:137] Memory required for data: 143566000
I1123 15:19:18.419270 22196 layer_factory.cpp:58] Creating layer conv4_1
I1123 15:19:18.419270 22196 net.cpp:84] Creating Layer conv4_1
I1123 15:19:18.419270 22196 net.cpp:406] conv4_1 <- conv4
I1123 15:19:18.419270 22196 net.cpp:380] conv4_1 -> conv4_1
I1123 15:19:18.420269 22196 net.cpp:122] Setting up conv4_1
I1123 15:19:18.420269 22196 net.cpp:129] Top shape: 100 30 16 16 (768000)
I1123 15:19:18.420269 22196 net.cpp:137] Memory required for data: 146638000
I1123 15:19:18.420269 22196 layer_factory.cpp:58] Creating layer bn4_1
I1123 15:19:18.420269 22196 net.cpp:84] Creating Layer bn4_1
I1123 15:19:18.420269 22196 net.cpp:406] bn4_1 <- conv4_1
I1123 15:19:18.420269 22196 net.cpp:367] bn4_1 -> conv4_1 (in-place)
I1123 15:19:18.420269 22196 net.cpp:122] Setting up bn4_1
I1123 15:19:18.420269 22196 net.cpp:129] Top shape: 100 30 16 16 (768000)
I1123 15:19:18.420269 22196 net.cpp:137] Memory required for data: 149710000
I1123 15:19:18.420269 22196 layer_factory.cpp:58] Creating layer scale4_1
I1123 15:19:18.420269 22196 net.cpp:84] Creating Layer scale4_1
I1123 15:19:18.420269 22196 net.cpp:406] scale4_1 <- conv4_1
I1123 15:19:18.420269 22196 net.cpp:367] scale4_1 -> conv4_1 (in-place)
I1123 15:19:18.420269 22196 layer_factory.cpp:58] Creating layer scale4_1
I1123 15:19:18.420269 22196 net.cpp:122] Setting up scale4_1
I1123 15:19:18.420269 22196 net.cpp:129] Top shape: 100 30 16 16 (768000)
I1123 15:19:18.420269 22196 net.cpp:137] Memory required for data: 152782000
I1123 15:19:18.420269 22196 layer_factory.cpp:58] Creating layer relu4_1
I1123 15:19:18.420269 22196 net.cpp:84] Creating Layer relu4_1
I1123 15:19:18.420269 22196 net.cpp:406] relu4_1 <- conv4_1
I1123 15:19:18.420269 22196 net.cpp:367] relu4_1 -> conv4_1 (in-place)
I1123 15:19:18.421272 22196 net.cpp:122] Setting up relu4_1
I1123 15:19:18.421272 22196 net.cpp:129] Top shape: 100 30 16 16 (768000)
I1123 15:19:18.421272 22196 net.cpp:137] Memory required for data: 155854000
I1123 15:19:18.421272 22196 layer_factory.cpp:58] Creating layer conv4_2
I1123 15:19:18.421272 22196 net.cpp:84] Creating Layer conv4_2
I1123 15:19:18.421272 22196 net.cpp:406] conv4_2 <- conv4_1
I1123 15:19:18.421272 22196 net.cpp:380] conv4_2 -> conv4_2
I1123 15:19:18.422271 22196 net.cpp:122] Setting up conv4_2
I1123 15:19:18.422271 22196 net.cpp:129] Top shape: 100 35 16 16 (896000)
I1123 15:19:18.422271 22196 net.cpp:137] Memory required for data: 159438000
I1123 15:19:18.422271 22196 layer_factory.cpp:58] Creating layer bn4_2
I1123 15:19:18.422271 22196 net.cpp:84] Creating Layer bn4_2
I1123 15:19:18.422271 22196 net.cpp:406] bn4_2 <- conv4_2
I1123 15:19:18.422271 22196 net.cpp:367] bn4_2 -> conv4_2 (in-place)
I1123 15:19:18.422271 22196 net.cpp:122] Setting up bn4_2
I1123 15:19:18.422271 22196 net.cpp:129] Top shape: 100 35 16 16 (896000)
I1123 15:19:18.422271 22196 net.cpp:137] Memory required for data: 163022000
I1123 15:19:18.422271 22196 layer_factory.cpp:58] Creating layer scale4_2
I1123 15:19:18.422271 22196 net.cpp:84] Creating Layer scale4_2
I1123 15:19:18.422271 22196 net.cpp:406] scale4_2 <- conv4_2
I1123 15:19:18.422271 22196 net.cpp:367] scale4_2 -> conv4_2 (in-place)
I1123 15:19:18.422271 22196 layer_factory.cpp:58] Creating layer scale4_2
I1123 15:19:18.422271 22196 net.cpp:122] Setting up scale4_2
I1123 15:19:18.422271 22196 net.cpp:129] Top shape: 100 35 16 16 (896000)
I1123 15:19:18.422271 22196 net.cpp:137] Memory required for data: 166606000
I1123 15:19:18.422271 22196 layer_factory.cpp:58] Creating layer relu4_2
I1123 15:19:18.422271 22196 net.cpp:84] Creating Layer relu4_2
I1123 15:19:18.422271 22196 net.cpp:406] relu4_2 <- conv4_2
I1123 15:19:18.422271 22196 net.cpp:367] relu4_2 -> conv4_2 (in-place)
I1123 15:19:18.423270 22196 net.cpp:122] Setting up relu4_2
I1123 15:19:18.423270 22196 net.cpp:129] Top shape: 100 35 16 16 (896000)
I1123 15:19:18.423270 22196 net.cpp:137] Memory required for data: 170190000
I1123 15:19:18.423270 22196 layer_factory.cpp:58] Creating layer pool4_2
I1123 15:19:18.423270 22196 net.cpp:84] Creating Layer pool4_2
I1123 15:19:18.423270 22196 net.cpp:406] pool4_2 <- conv4_2
I1123 15:19:18.423270 22196 net.cpp:380] pool4_2 -> pool4_2
I1123 15:19:18.423270 22196 net.cpp:122] Setting up pool4_2
I1123 15:19:18.423270 22196 net.cpp:129] Top shape: 100 35 8 8 (224000)
I1123 15:19:18.423270 22196 net.cpp:137] Memory required for data: 171086000
I1123 15:19:18.423270 22196 layer_factory.cpp:58] Creating layer conv12
I1123 15:19:18.423270 22196 net.cpp:84] Creating Layer conv12
I1123 15:19:18.423270 22196 net.cpp:406] conv12 <- pool4_2
I1123 15:19:18.423270 22196 net.cpp:380] conv12 -> conv12
I1123 15:19:18.424269 22196 net.cpp:122] Setting up conv12
I1123 15:19:18.424269 22196 net.cpp:129] Top shape: 100 38 8 8 (243200)
I1123 15:19:18.424269 22196 net.cpp:137] Memory required for data: 172058800
I1123 15:19:18.424269 22196 layer_factory.cpp:58] Creating layer bn_conv12
I1123 15:19:18.424269 22196 net.cpp:84] Creating Layer bn_conv12
I1123 15:19:18.424269 22196 net.cpp:406] bn_conv12 <- conv12
I1123 15:19:18.424269 22196 net.cpp:367] bn_conv12 -> conv12 (in-place)
I1123 15:19:18.425271 22196 net.cpp:122] Setting up bn_conv12
I1123 15:19:18.425271 22196 net.cpp:129] Top shape: 100 38 8 8 (243200)
I1123 15:19:18.425271 22196 net.cpp:137] Memory required for data: 173031600
I1123 15:19:18.425271 22196 layer_factory.cpp:58] Creating layer scale_conv12
I1123 15:19:18.425271 22196 net.cpp:84] Creating Layer scale_conv12
I1123 15:19:18.425271 22196 net.cpp:406] scale_conv12 <- conv12
I1123 15:19:18.425271 22196 net.cpp:367] scale_conv12 -> conv12 (in-place)
I1123 15:19:18.425271 22196 layer_factory.cpp:58] Creating layer scale_conv12
I1123 15:19:18.425271 22196 net.cpp:122] Setting up scale_conv12
I1123 15:19:18.425271 22196 net.cpp:129] Top shape: 100 38 8 8 (243200)
I1123 15:19:18.425271 22196 net.cpp:137] Memory required for data: 174004400
I1123 15:19:18.425271 22196 layer_factory.cpp:58] Creating layer relu_conv12
I1123 15:19:18.425271 22196 net.cpp:84] Creating Layer relu_conv12
I1123 15:19:18.425271 22196 net.cpp:406] relu_conv12 <- conv12
I1123 15:19:18.425271 22196 net.cpp:367] relu_conv12 -> conv12 (in-place)
I1123 15:19:18.425271 22196 net.cpp:122] Setting up relu_conv12
I1123 15:19:18.425271 22196 net.cpp:129] Top shape: 100 38 8 8 (243200)
I1123 15:19:18.425271 22196 net.cpp:137] Memory required for data: 174977200
I1123 15:19:18.425271 22196 layer_factory.cpp:58] Creating layer poolcp6
I1123 15:19:18.425271 22196 net.cpp:84] Creating Layer poolcp6
I1123 15:19:18.425271 22196 net.cpp:406] poolcp6 <- conv12
I1123 15:19:18.425271 22196 net.cpp:380] poolcp6 -> poolcp6
I1123 15:19:18.425271 22196 net.cpp:122] Setting up poolcp6
I1123 15:19:18.425271 22196 net.cpp:129] Top shape: 100 38 1 1 (3800)
I1123 15:19:18.425271 22196 net.cpp:137] Memory required for data: 174992400
I1123 15:19:18.425271 22196 layer_factory.cpp:58] Creating layer ip1
I1123 15:19:18.425271 22196 net.cpp:84] Creating Layer ip1
I1123 15:19:18.425271 22196 net.cpp:406] ip1 <- poolcp6
I1123 15:19:18.425271 22196 net.cpp:380] ip1 -> ip1
I1123 15:19:18.426270 22196 net.cpp:122] Setting up ip1
I1123 15:19:18.426270 22196 net.cpp:129] Top shape: 100 10 (1000)
I1123 15:19:18.426270 22196 net.cpp:137] Memory required for data: 174996400
I1123 15:19:18.426270 22196 layer_factory.cpp:58] Creating layer ip1_ip1_0_split
I1123 15:19:18.426270 22196 net.cpp:84] Creating Layer ip1_ip1_0_split
I1123 15:19:18.426270 22196 net.cpp:406] ip1_ip1_0_split <- ip1
I1123 15:19:18.426270 22196 net.cpp:380] ip1_ip1_0_split -> ip1_ip1_0_split_0
I1123 15:19:18.426270 22196 net.cpp:380] ip1_ip1_0_split -> ip1_ip1_0_split_1
I1123 15:19:18.426270 22196 net.cpp:122] Setting up ip1_ip1_0_split
I1123 15:19:18.426270 22196 net.cpp:129] Top shape: 100 10 (1000)
I1123 15:19:18.426270 22196 net.cpp:129] Top shape: 100 10 (1000)
I1123 15:19:18.426270 22196 net.cpp:137] Memory required for data: 175004400
I1123 15:19:18.426270 22196 layer_factory.cpp:58] Creating layer accuracy_training
I1123 15:19:18.426270 22196 net.cpp:84] Creating Layer accuracy_training
I1123 15:19:18.426270 22196 net.cpp:406] accuracy_training <- ip1_ip1_0_split_0
I1123 15:19:18.426270 22196 net.cpp:406] accuracy_training <- label_cifar_1_split_0
…
