…
I0825 22:19:21.895401 16812 net.cpp:294] The NetState phase (0) differed from the phase (1) specified by a rule in layer accuracy
I0825 22:19:21.895401 16812 net.cpp:51] Initializing net from parameters: 
name: "SVHN__SimpleNet_GP_13L_drpall_5Mil_66"
state {
  phase: TRAIN
  level: 0
  stage: ""
}
layer {
  name: "SVHN"
  type: "Data"
  top: "data"
  top: "label"
  include {
    phase: TRAIN
  }
  transform_param {
    scale: 0.0039215684
  }
  data_param {
    source: "examples/svhn/svhn_train_leveldb"
    batch_size: 100
    backend: LEVELDB
  }
}
layer {
  name: "conv1"
  type: "Convolution"
  bottom: "data"
  top: "conv1"
  param {
    lr_mult: 1
  }
  convolution_param {
    num_output: 66
    bias_term: true
    pad: 1
    kernel_size: 3
    stride: 1
    weight_filler {
      type: "xavier"
    }
  }
}
layer {
  name: "bn1"
  type: "BatchNorm"
  bottom: "conv1"
  top: "conv1"
  param {
    lr_mult: 0
    decay_mult: 0
  }
  param {
    lr_mult: 0
    decay_mult: 0
  }
  param {
    lr_mult: 0
    decay_mult: 0
  }
  include {
    phase: TRAIN
  }
  batch_norm_param {
    use_global_stats: false
    moving_average_fraction: 0.95
  }
}
layer {
  name: "scale1"
  type: "Scale"
  bottom: "conv1"
  top: "conv1"
  scale_param {
    bias_term: true
  }
}
layer {
  name: "relu1"
  type: "ReLU"
  bottom: "conv1"
  top: "conv1"
}
layer {
  name: "drop1"
  type: "Dropout"
  bottom: "conv1"
  top: "conv1"
  dropout_param {
    dropout_ratio: 0.2
  }
}
layer {
  name: "conv1_0"
  type: "Convolution"
  bottom: "conv1"
  top: "conv1_0"
  param {
    lr_mult: 1
  }
  convolution_param {
    num_output: 128
    bias_term: true
    pad: 1
    kernel_size: 3
    stride: 1
    weight_filler {
      type: "xavier"
    }
  }
}
layer {
  name: "bn1_0"
  type: "BatchNorm"
  bottom: "conv1_0"
  top: "conv1_0"
  param {
    lr_mult: 0
    decay_mult: 0
  }
  param {
    lr_mult: 0
    decay_mult: 0
  }
  param {
    lr_mult: 0
    decay_mult: 0
  }
  include {
    phase: TRAIN
  }
  batch_norm_param {
    use_global_stats: false
    moving_average_fraction: 0.95
  }
}
layer {
  name: "scale1_0"
  type: "Scale"
  bottom: "conv1_0"
  top: "conv1_0"
  scale_param {
    bias_term: true
  }
}
layer {
  name: "relu1_0"
  type: "ReLU"
  bottom: "conv1_0"
  top: "conv1_0"
}
layer {
  name: "drop2"
  type: "Dropout"
  bottom: "conv1_0"
  top: "conv1_0"
  dropout_param {
    dropout_ratio: 0.2
  }
}
layer {
  name: "conv2"
  type: "Convolution"
  bottom: "conv1_0"
  top: "conv2"
  param {
    lr_mult: 1
  }
  convolution_param {
    num_output: 128
    bias_term: true
    pad: 1
    kernel_size: 3
    stride: 1
    weight_filler {
      type: "gaussian"
      std: 0.01
    }
  }
}
layer {
  name: "bn2"
  type: "BatchNorm"
  bottom: "conv2"
  top: "conv2"
  param {
    lr_mult: 0
    decay_mult: 0
  }
  param {
    lr_mult: 0
    decay_mult: 0
  }
  param {
    lr_mult: 0
    decay_mult: 0
  }
  include {
    phase: TRAIN
  }
  batch_norm_param {
    use_global_stats: false
    moving_average_fraction: 0.95
  }
}
layer {
  name: "scale2"
  type: "Scale"
  bottom: "conv2"
  top: "conv2"
  scale_param {
    bias_term: true
  }
}
layer {
  name: "relu2"
  type: "ReLU"
  bottom: "conv2"
  top: "conv2"
}
layer {
  name: "drop3"
  type: "Dropout"
  bottom: "conv2"
  top: "conv2"
  dropout_param {
    dropout_ratio: 0.2
  }
}
layer {
  name: "conv2_1"
  type: "Convolution"
  bottom: "conv2"
  top: "conv2_1"
  param {
    lr_mult: 1
  }
  convolution_param {
    num_output: 128
    bias_term: true
    pad: 1
    kernel_size: 3
    stride: 1
    weight_filler {
      type: "gaussian"
      std: 0.01
    }
  }
}
layer {
  name: "bn2_1"
  type: "BatchNorm"
  bottom: "conv2_1"
  top: "conv2_1"
  param {
    lr_mult: 0
    decay_mult: 0
  }
  param {
    lr_mult: 0
    decay_mult: 0
  }
  param {
    lr_mult: 0
    decay_mult: 0
  }
  include {
    phase: TRAIN
  }
  batch_norm_param {
    use_global_stats: false
    moving_average_fraction: 0.95
  }
}
layer {
  name: "scale2_1"
  type: "Scale"
  bottom: "conv2_1"
  top: "conv2_1"
  scale_param {
    bias_term: true
  }
}
layer {
  name: "relu2_1"
  type: "ReLU"
  bottom: "conv2_1"
  top: "conv2_1"
}
layer {
  name: "drop4"
  type: "Dropout"
  bottom: "conv2_1"
  top: "conv2_1"
  dropout_param {
    dropout_ratio: 0.2
  }
}
layer {
  name: "conv2_2"
  type: "Convolution"
  bottom: "conv2_1"
  top: "conv2_2"
  param {
    lr_mult: 1
  }
  convolution_param {
    num_output: 192
    bias_term: true
    pad: 1
    kernel_size: 3
    stride: 1
    weight_filler {
      type: "gaussian"
      std: 0.01
    }
  }
}
layer {
  name: "bn2_2"
  type: "BatchNorm"
  bottom: "conv2_2"
  top: "conv2_2"
  param {
    lr_mult: 0
    decay_mult: 0
  }
  param {
    lr_mult: 0
    decay_mult: 0
  }
  param {
    lr_mult: 0
    decay_mult: 0
  }
  include {
    phase: TRAIN
  }
  batch_norm_param {
    use_global_stats: false
    moving_average_fraction: 0.95
  }
}
layer {
  name: "scale2_2"
  type: "Scale"
  bottom: "conv2_2"
  top: "conv2_2"
  scale_param {
    bias_term: true
  }
}
layer {
  name: "relu2_2"
  type: "ReLU"
  bottom: "conv2_2"
  top: "conv2_2"
}
layer {
  name: "pool2_1"
  type: "Pooling"
  bottom: "conv2_2"
  top: "pool2_1"
  pooling_param {
    pool: MAX
    kernel_size: 2
    stride: 2
  }
}
layer {
  name: "drop5"
  type: "Dropout"
  bottom: "pool2_1"
  top: "pool2_1"
  dropout_param {
    dropout_ratio: 0.2
  }
}
layer {
  name: "conv3"
  type: "Convolution"
  bottom: "pool2_1"
  top: "conv3"
  param {
    lr_mult: 1
  }
  convolution_param {
    num_output: 192
    bias_term: true
    pad: 1
    kernel_size: 3
    stride: 1
    weight_filler {
      type: "xavier"
    }
  }
}
layer {
  name: "bn3"
  type: "BatchNorm"
  bottom: "conv3"
  top: "conv3"
  param {
    lr_mult: 0
    decay_mult: 0
  }
  param {
    lr_mult: 0
    decay_mult: 0
  }
  param {
    lr_mult: 0
    decay_mult: 0
  }
  include {
    phase: TRAIN
  }
  batch_norm_param {
    use_global_stats: false
    moving_average_fraction: 0.95
  }
}
layer {
  name: "scale3"
  type: "Scale"
  bottom: "conv3"
  top: "conv3"
  scale_param {
    bias_term: true
  }
}
layer {
  name: "relu3"
  type: "ReLU"
  bottom: "conv3"
  top: "conv3"
}
layer {
  name: "drop6"
  type: "Dropout"
  bottom: "conv3"
  top: "conv3"
  dropout_param {
    dropout_ratio: 0.2
  }
}
layer {
  name: "conv3_1"
  type: "Convolution"
  bottom: "conv3"
  top: "conv3_1"
  param {
    lr_mult: 1
  }
  convolution_param {
    num_output: 192
    bias_term: true
    pad: 1
    kernel_size: 3
    stride: 1
    weight_filler {
      type: "xavier"
    }
  }
}
layer {
  name: "bn3_1"
  type: "BatchNorm"
  bottom: "conv3_1"
  top: "conv3_1"
  param {
    lr_mult: 0
    decay_mult: 0
  }
  param {
    lr_mult: 0
    decay_mult: 0
  }
  param {
    lr_mult: 0
    decay_mult: 0
  }
  include {
    phase: TRAIN
  }
  batch_norm_param {
    use_global_stats: false
    moving_average_fraction: 0.95
  }
}
layer {
  name: "scale3_1"
  type: "Scale"
  bottom: "conv3_1"
  top: "conv3_1"
  scale_param {
    bias_term: true
  }
}
layer {
  name: "relu3_1"
  type: "ReLU"
  bottom: "conv3_1"
  top: "conv3_1"
}
layer {
  name: "drop6_1"
  type: "Dropout"
  bottom: "conv3_1"
  top: "conv3_1"
  dropout_param {
    dropout_ratio: 0.2
  }
}
layer {
  name: "conv4"
  type: "Convolution"
  bottom: "conv3_1"
  top: "conv4"
  param {
    lr_mult: 1
  }
  convolution_param {
    num_output: 192
    bias_term: true
    pad: 1
    kernel_size: 3
    stride: 1
    weight_filler {
      type: "xavier"
    }
  }
}
layer {
  name: "bn4"
  type: "BatchNorm"
  bottom: "conv4"
  top: "conv4"
  param {
    lr_mult: 0
    decay_mult: 0
  }
  param {
    lr_mult: 0
    decay_mult: 0
  }
  param {
    lr_mult: 0
    decay_mult: 0
  }
  include {
    phase: TRAIN
  }
  batch_norm_param {
    use_global_stats: false
    moving_average_fraction: 0.95
  }
}
layer {
  name: "scale4"
  type: "Scale"
  bottom: "conv4"
  top: "conv4"
  scale_param {
    bias_term: true
  }
}
layer {
  name: "relu4"
  type: "ReLU"
  bottom: "conv4"
  top: "conv4"
}
layer {
  name: "drop7"
  type: "Dropout"
  bottom: "conv4"
  top: "conv4"
  dropout_param {
    dropout_ratio: 0.2
  }
}
layer {
  name: "conv4_1"
  type: "Convolution"
  bottom: "conv4"
  top: "conv4_1"
  param {
    lr_mult: 1
  }
  convolution_param {
    num_output: 192
    bias_term: true
    pad: 1
    kernel_size: 3
    stride: 1
    weight_filler {
      type: "xavier"
    }
  }
}
layer {
  name: "bn4_1"
  type: "BatchNorm"
  bottom: "conv4_1"
  top: "conv4_1"
  param {
    lr_mult: 0
    decay_mult: 0
  }
  param {
    lr_mult: 0
    decay_mult: 0
  }
  param {
    lr_mult: 0
    decay_mult: 0
  }
  include {
    phase: TRAIN
  }
  batch_norm_param {
    use_global_stats: false
    moving_average_fraction: 0.95
  }
}
layer {
  name: "scale4_1"
  type: "Scale"
  bottom: "conv4_1"
  top: "conv4_1"
  scale_param {
    bias_term: true
  }
}
layer {
  name: "relu4_1"
  type: "ReLU"
  bottom: "conv4_1"
  top: "conv4_1"
}
layer {
  name: "drop8"
  type: "Dropout"
  bottom: "conv4_1"
  top: "conv4_1"
  dropout_param {
    dropout_ratio: 0.2
  }
}
layer {
  name: "conv4_2"
  type: "Convolution"
  bottom: "conv4_1"
  top: "conv4_2"
  param {
    lr_mult: 1
  }
  convolution_param {
    num_output: 288
    bias_term: true
    pad: 1
    kernel_size: 3
    stride: 1
    weight_filler {
      type: "xavier"
    }
  }
}
layer {
  name: "bn4_2"
  type: "BatchNorm"
  bottom: "conv4_2"
  top: "conv4_2"
  param {
    lr_mult: 0
    decay_mult: 0
  }
  param {
    lr_mult: 0
    decay_mult: 0
  }
  param {
    lr_mult: 0
    decay_mult: 0
  }
  include {
    phase: TRAIN
  }
  batch_norm_param {
    use_global_stats: false
    moving_average_fraction: 0.95
  }
}
layer {
  name: "scale4_2"
  type: "Scale"
  bottom: "conv4_2"
  top: "conv4_2"
  scale_param {
    bias_term: true
  }
}
layer {
  name: "relu4_2"
  type: "ReLU"
  bottom: "conv4_2"
  top: "conv4_2"
}
layer {
  name: "pool4_2"
  type: "Pooling"
  bottom: "conv4_2"
  top: "pool4_2"
  pooling_param {
    pool: MAX
    kernel_size: 2
    stride: 2
  }
}
layer {
  name: "drop9"
  type: "Dropout"
  bottom: "pool4_2"
  top: "pool4_2"
  dropout_param {
    dropout_ratio: 0.3
  }
}
layer {
  name: "conv4_0"
  type: "Convolution"
  bottom: "pool4_2"
  top: "conv4_0"
  param {
    lr_mult: 1
  }
  convolution_param {
    num_output: 288
    bias_term: true
    pad: 1
    kernel_size: 3
    stride: 1
    weight_filler {
      type: "xavier"
    }
  }
}
layer {
  name: "bn4_0"
  type: "BatchNorm"
  bottom: "conv4_0"
  top: "conv4_0"
  param {
    lr_mult: 0
    decay_mult: 0
  }
  param {
    lr_mult: 0
    decay_mult: 0
  }
  param {
    lr_mult: 0
    decay_mult: 0
  }
  include {
    phase: TRAIN
  }
  batch_norm_param {
    use_global_stats: false
    moving_average_fraction: 0.95
  }
}
layer {
  name: "scale4_0"
  type: "Scale"
  bottom: "conv4_0"
  top: "conv4_0"
  scale_param {
    bias_term: true
  }
}
layer {
  name: "relu4_0"
  type: "ReLU"
  bottom: "conv4_0"
  top: "conv4_0"
}
layer {
  name: "drop10"
  type: "Dropout"
  bottom: "conv4_0"
  top: "conv4_0"
  dropout_param {
    dropout_ratio: 0.3
  }
}
layer {
  name: "conv11"
  type: "Convolution"
  bottom: "conv4_0"
  top: "conv11"
  param {
    lr_mult: 1
    decay_mult: 1
  }
  param {
    lr_mult: 2
    decay_mult: 0
  }
  convolution_param {
    num_output: 355
    pad: 1
    kernel_size: 3
    weight_filler {
      type: "xavier"
    }
    bias_filler {
      type: "constant"
      value: 0
    }
  }
}
layer {
  name: "bn_conv11"
  type: "BatchNorm"
  bottom: "conv11"
  top: "conv11"
  param {
    lr_mult: 0
    decay_mult: 0
  }
  param {
    lr_mult: 0
    decay_mult: 0
  }
  param {
    lr_mult: 0
    decay_mult: 0
  }
  include {
    phase: TRAIN
  }
  batch_norm_param {
    use_global_stats: false
    moving_average_fraction: 0.95
  }
}
layer {
  name: "scale_conv11"
  type: "Scale"
  bottom: "conv11"
  top: "conv11"
  scale_param {
    bias_term: true
  }
}
layer {
  name: "relu_conv11"
  type: "ReLU"
  bottom: "conv11"
  top: "conv11"
}
layer {
  name: "drop11"
  type: "Dropout"
  bottom: "conv11"
  top: "conv11"
  dropout_param {
    dropout_ratio: 0.3
  }
}
layer {
  name: "conv12"
  type: "Convolution"
  bottom: "conv11"
  top: "conv12"
  param {
    lr_mult: 1
    decay_mult: 1
  }
  param {
    lr_mult: 2
    decay_mult: 0
  }
  convolution_param {
    num_output: 432
    pad: 1
    kernel_size: 3
    weight_filler {
      type: "xavier"
    }
    bias_filler {
      type: "constant"
      value: 0
    }
  }
}
layer {
  name: "bn_conv12"
  type: "BatchNorm"
  bottom: "conv12"
  top: "conv12"
  param {
    lr_mult: 0
    decay_mult: 0
  }
  param {
    lr_mult: 0
    decay_mult: 0
  }
  param {
    lr_mult: 0
    decay_mult: 0
  }
  include {
    phase: TRAIN
  }
  batch_norm_param {
    use_global_stats: false
    moving_average_fraction: 0.95
  }
}
layer {
  name: "scale_conv12"
  type: "Scale"
  bottom: "conv12"
  top: "conv12"
  scale_param {
    bias_term: true
  }
}
layer {
  name: "relu_conv12"
  type: "ReLU"
  bottom: "conv12"
  top: "conv12"
}
layer {
  name: "poolcp6"
  type: "Pooling"
  bottom: "conv12"
  top: "poolcp6"
  pooling_param {
    pool: MAX
    global_pooling: true
  }
}
layer {
  name: "drop12"
  type: "Dropout"
  bottom: "poolcp6"
  top: "poolcp6"
  dropout_param {
    dropout_ratio: 0.3
  }
}
layer {
  name: "ip1"
  type: "InnerProduct"
  bottom: "poolcp6"
  top: "ip1"
  param {
    lr_mult: 1
    decay_mult: 0
  }
  param {
    lr_mult: 2
    decay_mult: 0
  }
  inner_product_param {
    num_output: 10
    weight_filler {
      type: "xavier"
    }
    bias_filler {
      type: "constant"
    }
  }
}
layer {
  name: "loss"
  type: "SoftmaxWithLoss"
  bottom: "ip1"
  bottom: "label"
  top: "loss"
}
I0825 22:19:21.896400 16812 layer_factory.cpp:58] Creating layer SVHN
I0825 22:19:21.898387 16812 db_leveldb.cpp:18] Opened leveldb examples/svhn/svhn_train_leveldb
I0825 22:19:21.899405 16812 net.cpp:84] Creating Layer SVHN
I0825 22:19:21.899405 16812 net.cpp:380] SVHN -> data
I0825 22:19:21.899405 16812 net.cpp:380] SVHN -> label
I0825 22:19:21.900405 16812 data_layer.cpp:45] output data size: 100,3,32,32
I0825 22:19:21.904834 16812 net.cpp:122] Setting up SVHN
I0825 22:19:21.904834 16812 net.cpp:129] Top shape: 100 3 32 32 (307200)
I0825 22:19:21.904834 16812 net.cpp:129] Top shape: 100 (100)
I0825 22:19:21.904834 16812 net.cpp:137] Memory required for data: 1229200
I0825 22:19:21.904834 16812 layer_factory.cpp:58] Creating layer conv1
I0825 22:19:21.904834 16812 net.cpp:84] Creating Layer conv1
I0825 22:19:21.904834 16812 net.cpp:406] conv1 <- data
I0825 22:19:21.904834 16812 net.cpp:380] conv1 -> conv1
I0825 22:19:21.905834 12552 common.cpp:36] System entropy source not available, using fallback algorithm to generate seed instead.
I0825 22:19:22.118324 16812 net.cpp:122] Setting up conv1
I0825 22:19:22.118324 16812 net.cpp:129] Top shape: 100 66 32 32 (6758400)
I0825 22:19:22.118324 16812 net.cpp:137] Memory required for data: 28262800
I0825 22:19:22.118324 16812 layer_factory.cpp:58] Creating layer bn1
I0825 22:19:22.118324 16812 net.cpp:84] Creating Layer bn1
I0825 22:19:22.118324 16812 net.cpp:406] bn1 <- conv1
I0825 22:19:22.118324 16812 net.cpp:367] bn1 -> conv1 (in-place)
I0825 22:19:22.118324 16812 net.cpp:122] Setting up bn1
I0825 22:19:22.118324 16812 net.cpp:129] Top shape: 100 66 32 32 (6758400)
I0825 22:19:22.118324 16812 net.cpp:137] Memory required for data: 55296400
I0825 22:19:22.118324 16812 layer_factory.cpp:58] Creating layer scale1
I0825 22:19:22.118324 16812 net.cpp:84] Creating Layer scale1
I0825 22:19:22.118324 16812 net.cpp:406] scale1 <- conv1
I0825 22:19:22.118324 16812 net.cpp:367] scale1 -> conv1 (in-place)
I0825 22:19:22.118324 16812 layer_factory.cpp:58] Creating layer scale1
I0825 22:19:22.118324 16812 net.cpp:122] Setting up scale1
I0825 22:19:22.118324 16812 net.cpp:129] Top shape: 100 66 32 32 (6758400)
I0825 22:19:22.118324 16812 net.cpp:137] Memory required for data: 82330000
I0825 22:19:22.118324 16812 layer_factory.cpp:58] Creating layer relu1
I0825 22:19:22.118324 16812 net.cpp:84] Creating Layer relu1
I0825 22:19:22.118324 16812 net.cpp:406] relu1 <- conv1
I0825 22:19:22.118324 16812 net.cpp:367] relu1 -> conv1 (in-place)
I0825 22:19:22.118324 16812 net.cpp:122] Setting up relu1
I0825 22:19:22.118324 16812 net.cpp:129] Top shape: 100 66 32 32 (6758400)
I0825 22:19:22.118324 16812 net.cpp:137] Memory required for data: 109363600
I0825 22:19:22.118324 16812 layer_factory.cpp:58] Creating layer drop1
I0825 22:19:22.118324 16812 net.cpp:84] Creating Layer drop1
I0825 22:19:22.118324 16812 net.cpp:406] drop1 <- conv1
I0825 22:19:22.118324 16812 net.cpp:367] drop1 -> conv1 (in-place)
I0825 22:19:22.118324 16812 net.cpp:122] Setting up drop1
I0825 22:19:22.118324 16812 net.cpp:129] Top shape: 100 66 32 32 (6758400)
I0825 22:19:22.118324 16812 net.cpp:137] Memory required for data: 136397200
I0825 22:19:22.118324 16812 layer_factory.cpp:58] Creating layer conv1_0
I0825 22:19:22.119324 16812 net.cpp:84] Creating Layer conv1_0
I0825 22:19:22.119324 16812 net.cpp:406] conv1_0 <- conv1
I0825 22:19:22.119324 16812 net.cpp:380] conv1_0 -> conv1_0
I0825 22:19:22.120321 16812 net.cpp:122] Setting up conv1_0
I0825 22:19:22.120321 16812 net.cpp:129] Top shape: 100 128 32 32 (13107200)
I0825 22:19:22.120321 16812 net.cpp:137] Memory required for data: 188826000
I0825 22:19:22.120321 16812 layer_factory.cpp:58] Creating layer bn1_0
I0825 22:19:22.120321 16812 net.cpp:84] Creating Layer bn1_0
I0825 22:19:22.120321 16812 net.cpp:406] bn1_0 <- conv1_0
I0825 22:19:22.120321 16812 net.cpp:367] bn1_0 -> conv1_0 (in-place)
I0825 22:19:22.120321 16812 net.cpp:122] Setting up bn1_0
I0825 22:19:22.120321 16812 net.cpp:129] Top shape: 100 128 32 32 (13107200)
I0825 22:19:22.120321 16812 net.cpp:137] Memory required for data: 241254800
I0825 22:19:22.120321 16812 layer_factory.cpp:58] Creating layer scale1_0
I0825 22:19:22.120321 16812 net.cpp:84] Creating Layer scale1_0
I0825 22:19:22.120321 16812 net.cpp:406] scale1_0 <- conv1_0
I0825 22:19:22.120321 16812 net.cpp:367] scale1_0 -> conv1_0 (in-place)
I0825 22:19:22.120321 16812 layer_factory.cpp:58] Creating layer scale1_0
I0825 22:19:22.120321 16812 net.cpp:122] Setting up scale1_0
I0825 22:19:22.121325 16812 net.cpp:129] Top shape: 100 128 32 32 (13107200)
I0825 22:19:22.121325 16812 net.cpp:137] Memory required for data: 293683600
I0825 22:19:22.121325 16812 layer_factory.cpp:58] Creating layer relu1_0
I0825 22:19:22.121325 16812 net.cpp:84] Creating Layer relu1_0
I0825 22:19:22.121325 16812 net.cpp:406] relu1_0 <- conv1_0
I0825 22:19:22.121325 16812 net.cpp:367] relu1_0 -> conv1_0 (in-place)
I0825 22:19:22.121325 16812 net.cpp:122] Setting up relu1_0
I0825 22:19:22.121325 16812 net.cpp:129] Top shape: 100 128 32 32 (13107200)
I0825 22:19:22.121325 16812 net.cpp:137] Memory required for data: 346112400
I0825 22:19:22.121325 16812 layer_factory.cpp:58] Creating layer drop2
I0825 22:19:22.121325 16812 net.cpp:84] Creating Layer drop2
I0825 22:19:22.121325 16812 net.cpp:406] drop2 <- conv1_0
I0825 22:19:22.121325 16812 net.cpp:367] drop2 -> conv1_0 (in-place)
I0825 22:19:22.121325 16812 net.cpp:122] Setting up drop2
I0825 22:19:22.121325 16812 net.cpp:129] Top shape: 100 128 32 32 (13107200)
I0825 22:19:22.121325 16812 net.cpp:137] Memory required for data: 398541200
I0825 22:19:22.121325 16812 layer_factory.cpp:58] Creating layer conv2
I0825 22:19:22.121325 16812 net.cpp:84] Creating Layer conv2
I0825 22:19:22.121325 16812 net.cpp:406] conv2 <- conv1_0
I0825 22:19:22.121325 16812 net.cpp:380] conv2 -> conv2
I0825 22:19:22.124311 16812 net.cpp:122] Setting up conv2
I0825 22:19:22.124311 16812 net.cpp:129] Top shape: 100 128 32 32 (13107200)
I0825 22:19:22.124311 16812 net.cpp:137] Memory required for data: 450970000
I0825 22:19:22.124311 16812 layer_factory.cpp:58] Creating layer bn2
I0825 22:19:22.124311 16812 net.cpp:84] Creating Layer bn2
I0825 22:19:22.124311 16812 net.cpp:406] bn2 <- conv2
I0825 22:19:22.124311 16812 net.cpp:367] bn2 -> conv2 (in-place)
I0825 22:19:22.125326 16812 net.cpp:122] Setting up bn2
I0825 22:19:22.125326 16812 net.cpp:129] Top shape: 100 128 32 32 (13107200)
I0825 22:19:22.125326 16812 net.cpp:137] Memory required for data: 503398800
I0825 22:19:22.125326 16812 layer_factory.cpp:58] Creating layer scale2
I0825 22:19:22.125326 16812 net.cpp:84] Creating Layer scale2
I0825 22:19:22.125326 16812 net.cpp:406] scale2 <- conv2
I0825 22:19:22.125326 16812 net.cpp:367] scale2 -> conv2 (in-place)
I0825 22:19:22.125326 16812 layer_factory.cpp:58] Creating layer scale2
I0825 22:19:22.125326 16812 net.cpp:122] Setting up scale2
I0825 22:19:22.125326 16812 net.cpp:129] Top shape: 100 128 32 32 (13107200)
I0825 22:19:22.125326 16812 net.cpp:137] Memory required for data: 555827600
I0825 22:19:22.125326 16812 layer_factory.cpp:58] Creating layer relu2
I0825 22:19:22.125326 16812 net.cpp:84] Creating Layer relu2
I0825 22:19:22.125326 16812 net.cpp:406] relu2 <- conv2
I0825 22:19:22.125326 16812 net.cpp:367] relu2 -> conv2 (in-place)
I0825 22:19:22.126314 16812 net.cpp:122] Setting up relu2
I0825 22:19:22.126314 16812 net.cpp:129] Top shape: 100 128 32 32 (13107200)
I0825 22:19:22.126314 16812 net.cpp:137] Memory required for data: 608256400
I0825 22:19:22.126314 16812 layer_factory.cpp:58] Creating layer drop3
I0825 22:19:22.126314 16812 net.cpp:84] Creating Layer drop3
I0825 22:19:22.126314 16812 net.cpp:406] drop3 <- conv2
I0825 22:19:22.126314 16812 net.cpp:367] drop3 -> conv2 (in-place)
I0825 22:19:22.126314 16812 net.cpp:122] Setting up drop3
I0825 22:19:22.126314 16812 net.cpp:129] Top shape: 100 128 32 32 (13107200)
I0825 22:19:22.126314 16812 net.cpp:137] Memory required for data: 660685200
I0825 22:19:22.126314 16812 layer_factory.cpp:58] Creating layer conv2_1
I0825 22:19:22.126314 16812 net.cpp:84] Creating Layer conv2_1
I0825 22:19:22.126314 16812 net.cpp:406] conv2_1 <- conv2
I0825 22:19:22.126314 16812 net.cpp:380] conv2_1 -> conv2_1
I0825 22:19:22.129326 16812 net.cpp:122] Setting up conv2_1
I0825 22:19:22.129326 16812 net.cpp:129] Top shape: 100 128 32 32 (13107200)
I0825 22:19:22.129326 16812 net.cpp:137] Memory required for data: 713114000
I0825 22:19:22.129326 16812 layer_factory.cpp:58] Creating layer bn2_1
I0825 22:19:22.129326 16812 net.cpp:84] Creating Layer bn2_1
I0825 22:19:22.129326 16812 net.cpp:406] bn2_1 <- conv2_1
I0825 22:19:22.129326 16812 net.cpp:367] bn2_1 -> conv2_1 (in-place)
I0825 22:19:22.130326 16812 net.cpp:122] Setting up bn2_1
I0825 22:19:22.130326 16812 net.cpp:129] Top shape: 100 128 32 32 (13107200)
I0825 22:19:22.130326 16812 net.cpp:137] Memory required for data: 765542800
I0825 22:19:22.130326 16812 layer_factory.cpp:58] Creating layer scale2_1
I0825 22:19:22.130326 16812 net.cpp:84] Creating Layer scale2_1
I0825 22:19:22.130326 16812 net.cpp:406] scale2_1 <- conv2_1
I0825 22:19:22.130326 16812 net.cpp:367] scale2_1 -> conv2_1 (in-place)
I0825 22:19:22.130326 16812 layer_factory.cpp:58] Creating layer scale2_1
I0825 22:19:22.130326 16812 net.cpp:122] Setting up scale2_1
I0825 22:19:22.130326 16812 net.cpp:129] Top shape: 100 128 32 32 (13107200)
I0825 22:19:22.130326 16812 net.cpp:137] Memory required for data: 817971600
I0825 22:19:22.130326 16812 layer_factory.cpp:58] Creating layer relu2_1
I0825 22:19:22.130326 16812 net.cpp:84] Creating Layer relu2_1
I0825 22:19:22.130326 16812 net.cpp:406] relu2_1 <- conv2_1
I0825 22:19:22.130326 16812 net.cpp:367] relu2_1 -> conv2_1 (in-place)
I0825 22:19:22.130326 16812 net.cpp:122] Setting up relu2_1
I0825 22:19:22.130326 16812 net.cpp:129] Top shape: 100 128 32 32 (13107200)
I0825 22:19:22.130326 16812 net.cpp:137] Memory required for data: 870400400
I0825 22:19:22.130326 16812 layer_factory.cpp:58] Creating layer drop4
I0825 22:19:22.130326 16812 net.cpp:84] Creating Layer drop4
I0825 22:19:22.130326 16812 net.cpp:406] drop4 <- conv2_1
I0825 22:19:22.130326 16812 net.cpp:367] drop4 -> conv2_1 (in-place)
I0825 22:19:22.130326 16812 net.cpp:122] Setting up drop4
I0825 22:19:22.130326 16812 net.cpp:129] Top shape: 100 128 32 32 (13107200)
I0825 22:19:22.130326 16812 net.cpp:137] Memory required for data: 922829200
I0825 22:19:22.130326 16812 layer_factory.cpp:58] Creating layer conv2_2
I0825 22:19:22.130326 16812 net.cpp:84] Creating Layer conv2_2
I0825 22:19:22.130326 16812 net.cpp:406] conv2_2 <- conv2_1
I0825 22:19:22.130326 16812 net.cpp:380] conv2_2 -> conv2_2
I0825 22:19:22.135331 16812 net.cpp:122] Setting up conv2_2
I0825 22:19:22.135331 16812 net.cpp:129] Top shape: 100 192 32 32 (19660800)
I0825 22:19:22.135331 16812 net.cpp:137] Memory required for data: 1001472400
I0825 22:19:22.135331 16812 layer_factory.cpp:58] Creating layer bn2_2
I0825 22:19:22.135331 16812 net.cpp:84] Creating Layer bn2_2
I0825 22:19:22.135331 16812 net.cpp:406] bn2_2 <- conv2_2
I0825 22:19:22.135331 16812 net.cpp:367] bn2_2 -> conv2_2 (in-place)
I0825 22:19:22.136332 16812 net.cpp:122] Setting up bn2_2
I0825 22:19:22.136332 16812 net.cpp:129] Top shape: 100 192 32 32 (19660800)
I0825 22:19:22.136332 16812 net.cpp:137] Memory required for data: 1080115600
I0825 22:19:22.136332 16812 layer_factory.cpp:58] Creating layer scale2_2
I0825 22:19:22.136332 16812 net.cpp:84] Creating Layer scale2_2
I0825 22:19:22.136332 16812 net.cpp:406] scale2_2 <- conv2_2
I0825 22:19:22.136332 16812 net.cpp:367] scale2_2 -> conv2_2 (in-place)
I0825 22:19:22.136332 16812 layer_factory.cpp:58] Creating layer scale2_2
I0825 22:19:22.136332 16812 net.cpp:122] Setting up scale2_2
I0825 22:19:22.136332 16812 net.cpp:129] Top shape: 100 192 32 32 (19660800)
I0825 22:19:22.136332 16812 net.cpp:137] Memory required for data: 1158758800
I0825 22:19:22.136332 16812 layer_factory.cpp:58] Creating layer relu2_2
I0825 22:19:22.136332 16812 net.cpp:84] Creating Layer relu2_2
I0825 22:19:22.136332 16812 net.cpp:406] relu2_2 <- conv2_2
I0825 22:19:22.136332 16812 net.cpp:367] relu2_2 -> conv2_2 (in-place)
I0825 22:19:22.136332 16812 net.cpp:122] Setting up relu2_2
I0825 22:19:22.136332 16812 net.cpp:129] Top shape: 100 192 32 32 (19660800)
I0825 22:19:22.136332 16812 net.cpp:137] Memory required for data: 1237402000
I0825 22:19:22.136332 16812 layer_factory.cpp:58] Creating layer pool2_1
I0825 22:19:22.136332 16812 net.cpp:84] Creating Layer pool2_1
I0825 22:19:22.136332 16812 net.cpp:406] pool2_1 <- conv2_2
I0825 22:19:22.136332 16812 net.cpp:380] pool2_1 -> pool2_1
I0825 22:19:22.136332 16812 net.cpp:122] Setting up pool2_1
I0825 22:19:22.136332 16812 net.cpp:129] Top shape: 100 192 16 16 (4915200)
I0825 22:19:22.136332 16812 net.cpp:137] Memory required for data: 1257062800
I0825 22:19:22.136332 16812 layer_factory.cpp:58] Creating layer drop5
I0825 22:19:22.136332 16812 net.cpp:84] Creating Layer drop5
I0825 22:19:22.136332 16812 net.cpp:406] drop5 <- pool2_1
I0825 22:19:22.136332 16812 net.cpp:367] drop5 -> pool2_1 (in-place)
I0825 22:19:22.136332 16812 net.cpp:122] Setting up drop5
I0825 22:19:22.136332 16812 net.cpp:129] Top shape: 100 192 16 16 (4915200)
I0825 22:19:22.136332 16812 net.cpp:137] Memory required for data: 1276723600
I0825 22:19:22.136332 16812 layer_factory.cpp:58] Creating layer conv3
I0825 22:19:22.136332 16812 net.cpp:84] Creating Layer conv3
I0825 22:19:22.136332 16812 net.cpp:406] conv3 <- pool2_1
I0825 22:19:22.136332 16812 net.cpp:380] conv3 -> conv3
I0825 22:19:22.140323 16812 net.cpp:122] Setting up conv3
I0825 22:19:22.140323 16812 net.cpp:129] Top shape: 100 192 16 16 (4915200)
I0825 22:19:22.140323 16812 net.cpp:137] Memory required for data: 1296384400
I0825 22:19:22.140323 16812 layer_factory.cpp:58] Creating layer bn3
I0825 22:19:22.140323 16812 net.cpp:84] Creating Layer bn3
I0825 22:19:22.140323 16812 net.cpp:406] bn3 <- conv3
I0825 22:19:22.140323 16812 net.cpp:367] bn3 -> conv3 (in-place)
I0825 22:19:22.140323 16812 net.cpp:122] Setting up bn3
I0825 22:19:22.140323 16812 net.cpp:129] Top shape: 100 192 16 16 (4915200)
I0825 22:19:22.140323 16812 net.cpp:137] Memory required for data: 1316045200
I0825 22:19:22.140323 16812 layer_factory.cpp:58] Creating layer scale3
I0825 22:19:22.140323 16812 net.cpp:84] Creating Layer scale3
I0825 22:19:22.140323 16812 net.cpp:406] scale3 <- conv3
I0825 22:19:22.140323 16812 net.cpp:367] scale3 -> conv3 (in-place)
I0825 22:19:22.140323 16812 layer_factory.cpp:58] Creating layer scale3
I0825 22:19:22.140323 16812 net.cpp:122] Setting up scale3
I0825 22:19:22.140323 16812 net.cpp:129] Top shape: 100 192 16 16 (4915200)
I0825 22:19:22.140323 16812 net.cpp:137] Memory required for data: 1335706000
I0825 22:19:22.140323 16812 layer_factory.cpp:58] Creating layer relu3
I0825 22:19:22.140323 16812 net.cpp:84] Creating Layer relu3
I0825 22:19:22.140323 16812 net.cpp:406] relu3 <- conv3
I0825 22:19:22.140323 16812 net.cpp:367] relu3 -> conv3 (in-place)
I0825 22:19:22.141333 16812 net.cpp:122] Setting up relu3
I0825 22:19:22.141333 16812 net.cpp:129] Top shape: 100 192 16 16 (4915200)
I0825 22:19:22.141333 16812 net.cpp:137] Memory required for data: 1355366800
I0825 22:19:22.141333 16812 layer_factory.cpp:58] Creating layer drop6
I0825 22:19:22.141333 16812 net.cpp:84] Creating Layer drop6
I0825 22:19:22.141333 16812 net.cpp:406] drop6 <- conv3
I0825 22:19:22.141333 16812 net.cpp:367] drop6 -> conv3 (in-place)
I0825 22:19:22.141333 16812 net.cpp:122] Setting up drop6
I0825 22:19:22.141333 16812 net.cpp:129] Top shape: 100 192 16 16 (4915200)
I0825 22:19:22.141333 16812 net.cpp:137] Memory required for data: 1375027600
I0825 22:19:22.141333 16812 layer_factory.cpp:58] Creating layer conv3_1
I0825 22:19:22.141333 16812 net.cpp:84] Creating Layer conv3_1
I0825 22:19:22.141333 16812 net.cpp:406] conv3_1 <- conv3
I0825 22:19:22.141333 16812 net.cpp:380] conv3_1 -> conv3_1
I0825 22:19:22.145328 16812 net.cpp:122] Setting up conv3_1
I0825 22:19:22.145328 16812 net.cpp:129] Top shape: 100 192 16 16 (4915200)
I0825 22:19:22.145328 16812 net.cpp:137] Memory required for data: 1394688400
I0825 22:19:22.145328 16812 layer_factory.cpp:58] Creating layer bn3_1
I0825 22:19:22.145328 16812 net.cpp:84] Creating Layer bn3_1
I0825 22:19:22.145328 16812 net.cpp:406] bn3_1 <- conv3_1
I0825 22:19:22.145328 16812 net.cpp:367] bn3_1 -> conv3_1 (in-place)
I0825 22:19:22.145328 16812 net.cpp:122] Setting up bn3_1
I0825 22:19:22.145328 16812 net.cpp:129] Top shape: 100 192 16 16 (4915200)
I0825 22:19:22.145328 16812 net.cpp:137] Memory required for data: 1414349200
I0825 22:19:22.145328 16812 layer_factory.cpp:58] Creating layer scale3_1
I0825 22:19:22.145328 16812 net.cpp:84] Creating Layer scale3_1
I0825 22:19:22.145328 16812 net.cpp:406] scale3_1 <- conv3_1
I0825 22:19:22.145328 16812 net.cpp:367] scale3_1 -> conv3_1 (in-place)
I0825 22:19:22.145328 16812 layer_factory.cpp:58] Creating layer scale3_1
I0825 22:19:22.145328 16812 net.cpp:122] Setting up scale3_1
I0825 22:19:22.145328 16812 net.cpp:129] Top shape: 100 192 16 16 (4915200)
I0825 22:19:22.145328 16812 net.cpp:137] Memory required for data: 1434010000
I0825 22:19:22.145328 16812 layer_factory.cpp:58] Creating layer relu3_1
I0825 22:19:22.145328 16812 net.cpp:84] Creating Layer relu3_1
I0825 22:19:22.145328 16812 net.cpp:406] relu3_1 <- conv3_1
I0825 22:19:22.145328 16812 net.cpp:367] relu3_1 -> conv3_1 (in-place)
I0825 22:19:22.145328 16812 net.cpp:122] Setting up relu3_1
I0825 22:19:22.145328 16812 net.cpp:129] Top shape: 100 192 16 16 (4915200)
I0825 22:19:22.145328 16812 net.cpp:137] Memory required for data: 1453670800
I0825 22:19:22.145328 16812 layer_factory.cpp:58] Creating layer drop6_1
I0825 22:19:22.145328 16812 net.cpp:84] Creating Layer drop6_1
I0825 22:19:22.145328 16812 net.cpp:406] drop6_1 <- conv3_1
I0825 22:19:22.145328 16812 net.cpp:367] drop6_1 -> conv3_1 (in-place)
I0825 22:19:22.145328 16812 net.cpp:122] Setting up drop6_1
I0825 22:19:22.145328 16812 net.cpp:129] Top shape: 100 192 16 16 (4915200)
I0825 22:19:22.145328 16812 net.cpp:137] Memory required for data: 1473331600
I0825 22:19:22.145328 16812 layer_factory.cpp:58] Creating layer conv4
I0825 22:19:22.145328 16812 net.cpp:84] Creating Layer conv4
I0825 22:19:22.145328 16812 net.cpp:406] conv4 <- conv3_1
I0825 22:19:22.145328 16812 net.cpp:380] conv4 -> conv4
I0825 22:19:22.149338 16812 net.cpp:122] Setting up conv4
I0825 22:19:22.149338 16812 net.cpp:129] Top shape: 100 192 16 16 (4915200)
I0825 22:19:22.149338 16812 net.cpp:137] Memory required for data: 1492992400
I0825 22:19:22.149338 16812 layer_factory.cpp:58] Creating layer bn4
I0825 22:19:22.149338 16812 net.cpp:84] Creating Layer bn4
I0825 22:19:22.149338 16812 net.cpp:406] bn4 <- conv4
I0825 22:19:22.149338 16812 net.cpp:367] bn4 -> conv4 (in-place)
I0825 22:19:22.149338 16812 net.cpp:122] Setting up bn4
I0825 22:19:22.149338 16812 net.cpp:129] Top shape: 100 192 16 16 (4915200)
I0825 22:19:22.149338 16812 net.cpp:137] Memory required for data: 1512653200
I0825 22:19:22.149338 16812 layer_factory.cpp:58] Creating layer scale4
I0825 22:19:22.149338 16812 net.cpp:84] Creating Layer scale4
I0825 22:19:22.149338 16812 net.cpp:406] scale4 <- conv4
I0825 22:19:22.149338 16812 net.cpp:367] scale4 -> conv4 (in-place)
I0825 22:19:22.149338 16812 layer_factory.cpp:58] Creating layer scale4
I0825 22:19:22.149338 16812 net.cpp:122] Setting up scale4
I0825 22:19:22.149338 16812 net.cpp:129] Top shape: 100 192 16 16 (4915200)
I0825 22:19:22.150339 16812 net.cpp:137] Memory required for data: 1532314000
I0825 22:19:22.150339 16812 layer_factory.cpp:58] Creating layer relu4
I0825 22:19:22.150339 16812 net.cpp:84] Creating Layer relu4
I0825 22:19:22.150339 16812 net.cpp:406] relu4 <- conv4
I0825 22:19:22.150339 16812 net.cpp:367] relu4 -> conv4 (in-place)
I0825 22:19:22.150339 16812 net.cpp:122] Setting up relu4
I0825 22:19:22.150339 16812 net.cpp:129] Top shape: 100 192 16 16 (4915200)
I0825 22:19:22.150339 16812 net.cpp:137] Memory required for data: 1551974800
I0825 22:19:22.150339 16812 layer_factory.cpp:58] Creating layer drop7
I0825 22:19:22.150339 16812 net.cpp:84] Creating Layer drop7
I0825 22:19:22.150339 16812 net.cpp:406] drop7 <- conv4
I0825 22:19:22.150339 16812 net.cpp:367] drop7 -> conv4 (in-place)
I0825 22:19:22.150339 16812 net.cpp:122] Setting up drop7
I0825 22:19:22.150339 16812 net.cpp:129] Top shape: 100 192 16 16 (4915200)
I0825 22:19:22.150339 16812 net.cpp:137] Memory required for data: 1571635600
I0825 22:19:22.150339 16812 layer_factory.cpp:58] Creating layer conv4_1
I0825 22:19:22.150339 16812 net.cpp:84] Creating Layer conv4_1
I0825 22:19:22.150339 16812 net.cpp:406] conv4_1 <- conv4
I0825 22:19:22.150339 16812 net.cpp:380] conv4_1 -> conv4_1
I0825 22:19:22.154484 16812 net.cpp:122] Setting up conv4_1
I0825 22:19:22.154484 16812 net.cpp:129] Top shape: 100 192 16 16 (4915200)
I0825 22:19:22.154484 16812 net.cpp:137] Memory required for data: 1591296400
I0825 22:19:22.154484 16812 layer_factory.cpp:58] Creating layer bn4_1
I0825 22:19:22.154484 16812 net.cpp:84] Creating Layer bn4_1
I0825 22:19:22.154484 16812 net.cpp:406] bn4_1 <- conv4_1
I0825 22:19:22.154484 16812 net.cpp:367] bn4_1 -> conv4_1 (in-place)
I0825 22:19:22.154484 16812 net.cpp:122] Setting up bn4_1
I0825 22:19:22.154484 16812 net.cpp:129] Top shape: 100 192 16 16 (4915200)
I0825 22:19:22.154484 16812 net.cpp:137] Memory required for data: 1610957200
I0825 22:19:22.154484 16812 layer_factory.cpp:58] Creating layer scale4_1
I0825 22:19:22.154484 16812 net.cpp:84] Creating Layer scale4_1
I0825 22:19:22.154484 16812 net.cpp:406] scale4_1 <- conv4_1
I0825 22:19:22.154484 16812 net.cpp:367] scale4_1 -> conv4_1 (in-place)
I0825 22:19:22.154484 16812 layer_factory.cpp:58] Creating layer scale4_1
I0825 22:19:22.154484 16812 net.cpp:122] Setting up scale4_1
I0825 22:19:22.154484 16812 net.cpp:129] Top shape: 100 192 16 16 (4915200)
I0825 22:19:22.154484 16812 net.cpp:137] Memory required for data: 1630618000
I0825 22:19:22.154484 16812 layer_factory.cpp:58] Creating layer relu4_1
I0825 22:19:22.154484 16812 net.cpp:84] Creating Layer relu4_1
I0825 22:19:22.154484 16812 net.cpp:406] relu4_1 <- conv4_1
I0825 22:19:22.154484 16812 net.cpp:367] relu4_1 -> conv4_1 (in-place)
I0825 22:19:22.155164 16812 net.cpp:122] Setting up relu4_1
I0825 22:19:22.155164 16812 net.cpp:129] Top shape: 100 192 16 16 (4915200)
I0825 22:19:22.155164 16812 net.cpp:137] Memory required for data: 1650278800
I0825 22:19:22.155164 16812 layer_factory.cpp:58] Creating layer drop8
I0825 22:19:22.155164 16812 net.cpp:84] Creating Layer drop8
I0825 22:19:22.155164 16812 net.cpp:406] drop8 <- conv4_1
I0825 22:19:22.155164 16812 net.cpp:367] drop8 -> conv4_1 (in-place)
I0825 22:19:22.155164 16812 net.cpp:122] Setting up drop8
I0825 22:19:22.155164 16812 net.cpp:129] Top shape: 100 192 16 16 (4915200)
I0825 22:19:22.155164 16812 net.cpp:137] Memory required for data: 1669939600
I0825 22:19:22.155164 16812 layer_factory.cpp:58] Creating layer conv4_2
I0825 22:19:22.155164 16812 net.cpp:84] Creating Layer conv4_2
I0825 22:19:22.155164 16812 net.cpp:406] conv4_2 <- conv4_1
I0825 22:19:22.155164 16812 net.cpp:380] conv4_2 -> conv4_2
I0825 22:19:22.159765 16812 net.cpp:122] Setting up conv4_2
I0825 22:19:22.159765 16812 net.cpp:129] Top shape: 100 288 16 16 (7372800)
I0825 22:19:22.159765 16812 net.cpp:137] Memory required for data: 1699430800
I0825 22:19:22.159765 16812 layer_factory.cpp:58] Creating layer bn4_2
I0825 22:19:22.159765 16812 net.cpp:84] Creating Layer bn4_2
I0825 22:19:22.159765 16812 net.cpp:406] bn4_2 <- conv4_2
I0825 22:19:22.159765 16812 net.cpp:367] bn4_2 -> conv4_2 (in-place)
I0825 22:19:22.159765 16812 net.cpp:122] Setting up bn4_2
I0825 22:19:22.159765 16812 net.cpp:129] Top shape: 100 288 16 16 (7372800)
I0825 22:19:22.159765 16812 net.cpp:137] Memory required for data: 1728922000
I0825 22:19:22.159765 16812 layer_factory.cpp:58] Creating layer scale4_2
I0825 22:19:22.159765 16812 net.cpp:84] Creating Layer scale4_2
I0825 22:19:22.159765 16812 net.cpp:406] scale4_2 <- conv4_2
I0825 22:19:22.159765 16812 net.cpp:367] scale4_2 -> conv4_2 (in-place)
I0825 22:19:22.159765 16812 layer_factory.cpp:58] Creating layer scale4_2
I0825 22:19:22.159765 16812 net.cpp:122] Setting up scale4_2
I0825 22:19:22.159765 16812 net.cpp:129] Top shape: 100 288 16 16 (7372800)
I0825 22:19:22.159765 16812 net.cpp:137] Memory required for data: 1758413200
I0825 22:19:22.159765 16812 layer_factory.cpp:58] Creating layer relu4_2
I0825 22:19:22.159765 16812 net.cpp:84] Creating Layer relu4_2
I0825 22:19:22.159765 16812 net.cpp:406] relu4_2 <- conv4_2
I0825 22:19:22.159765 16812 net.cpp:367] relu4_2 -> conv4_2 (in-place)
I0825 22:19:22.159765 16812 net.cpp:122] Setting up relu4_2
I0825 22:19:22.159765 16812 net.cpp:129] Top shape: 100 288 16 16 (7372800)
I0825 22:19:22.159765 16812 net.cpp:137] Memory required for data: 1787904400
I0825 22:19:22.159765 16812 layer_factory.cpp:58] Creating layer pool4_2
I0825 22:19:22.159765 16812 net.cpp:84] Creating Layer pool4_2
I0825 22:19:22.159765 16812 net.cpp:406] pool4_2 <- conv4_2
I0825 22:19:22.159765 16812 net.cpp:380] pool4_2 -> pool4_2
I0825 22:19:22.159765 16812 net.cpp:122] Setting up pool4_2
I0825 22:19:22.159765 16812 net.cpp:129] Top shape: 100 288 8 8 (1843200)
I0825 22:19:22.159765 16812 net.cpp:137] Memory required for data: 1795277200
I0825 22:19:22.159765 16812 layer_factory.cpp:58] Creating layer drop9
I0825 22:19:22.159765 16812 net.cpp:84] Creating Layer drop9
I0825 22:19:22.159765 16812 net.cpp:406] drop9 <- pool4_2
I0825 22:19:22.159765 16812 net.cpp:367] drop9 -> pool4_2 (in-place)
I0825 22:19:22.159765 16812 net.cpp:122] Setting up drop9
I0825 22:19:22.159765 16812 net.cpp:129] Top shape: 100 288 8 8 (1843200)
I0825 22:19:22.159765 16812 net.cpp:137] Memory required for data: 1802650000
I0825 22:19:22.159765 16812 layer_factory.cpp:58] Creating layer conv4_0
I0825 22:19:22.159765 16812 net.cpp:84] Creating Layer conv4_0
I0825 22:19:22.159765 16812 net.cpp:406] conv4_0 <- pool4_2
I0825 22:19:22.159765 16812 net.cpp:380] conv4_0 -> conv4_0
I0825 22:19:22.166844 16812 net.cpp:122] Setting up conv4_0
I0825 22:19:22.166844 16812 net.cpp:129] Top shape: 100 288 8 8 (1843200)
I0825 22:19:22.166844 16812 net.cpp:137] Memory required for data: 1810022800
I0825 22:19:22.166844 16812 layer_factory.cpp:58] Creating layer bn4_0
I0825 22:19:22.166844 16812 net.cpp:84] Creating Layer bn4_0
I0825 22:19:22.166844 16812 net.cpp:406] bn4_0 <- conv4_0
I0825 22:19:22.166844 16812 net.cpp:367] bn4_0 -> conv4_0 (in-place)
I0825 22:19:22.166844 16812 net.cpp:122] Setting up bn4_0
I0825 22:19:22.166844 16812 net.cpp:129] Top shape: 100 288 8 8 (1843200)
I0825 22:19:22.166844 16812 net.cpp:137] Memory required for data: 1817395600
I0825 22:19:22.166844 16812 layer_factory.cpp:58] Creating layer scale4_0
I0825 22:19:22.166844 16812 net.cpp:84] Creating Layer scale4_0
I0825 22:19:22.166844 16812 net.cpp:406] scale4_0 <- conv4_0
I0825 22:19:22.166844 16812 net.cpp:367] scale4_0 -> conv4_0 (in-place)
I0825 22:19:22.166844 16812 layer_factory.cpp:58] Creating layer scale4_0
I0825 22:19:22.166844 16812 net.cpp:122] Setting up scale4_0
I0825 22:19:22.166844 16812 net.cpp:129] Top shape: 100 288 8 8 (1843200)
I0825 22:19:22.166844 16812 net.cpp:137] Memory required for data: 1824768400
I0825 22:19:22.166844 16812 layer_factory.cpp:58] Creating layer relu4_0
I0825 22:19:22.166844 16812 net.cpp:84] Creating Layer relu4_0
I0825 22:19:22.166844 16812 net.cpp:406] relu4_0 <- conv4_0
I0825 22:19:22.166844 16812 net.cpp:367] relu4_0 -> conv4_0 (in-place)
I0825 22:19:22.166844 16812 net.cpp:122] Setting up relu4_0
I0825 22:19:22.166844 16812 net.cpp:129] Top shape: 100 288 8 8 (1843200)
I0825 22:19:22.166844 16812 net.cpp:137] Memory required for data: 1832141200
I0825 22:19:22.166844 16812 layer_factory.cpp:58] Creating layer drop10
I0825 22:19:22.166844 16812 net.cpp:84] Creating Layer drop10
I0825 22:19:22.166844 16812 net.cpp:406] drop10 <- conv4_0
I0825 22:19:22.166844 16812 net.cpp:367] drop10 -> conv4_0 (in-place)
I0825 22:19:22.166844 16812 net.cpp:122] Setting up drop10
I0825 22:19:22.166844 16812 net.cpp:129] Top shape: 100 288 8 8 (1843200)
I0825 22:19:22.166844 16812 net.cpp:137] Memory required for data: 1839514000
I0825 22:19:22.166844 16812 layer_factory.cpp:58] Creating layer conv11
I0825 22:19:22.166844 16812 net.cpp:84] Creating Layer conv11
I0825 22:19:22.166844 16812 net.cpp:406] conv11 <- conv4_0
I0825 22:19:22.166844 16812 net.cpp:380] conv11 -> conv11
I0825 22:19:22.175854 16812 net.cpp:122] Setting up conv11
I0825 22:19:22.175854 16812 net.cpp:129] Top shape: 100 355 8 8 (2272000)
I0825 22:19:22.175854 16812 net.cpp:137] Memory required for data: 1848602000
I0825 22:19:22.175854 16812 layer_factory.cpp:58] Creating layer bn_conv11
I0825 22:19:22.175854 16812 net.cpp:84] Creating Layer bn_conv11
I0825 22:19:22.175854 16812 net.cpp:406] bn_conv11 <- conv11
I0825 22:19:22.175854 16812 net.cpp:367] bn_conv11 -> conv11 (in-place)
I0825 22:19:22.175854 16812 net.cpp:122] Setting up bn_conv11
I0825 22:19:22.175854 16812 net.cpp:129] Top shape: 100 355 8 8 (2272000)
I0825 22:19:22.175854 16812 net.cpp:137] Memory required for data: 1857690000
I0825 22:19:22.175854 16812 layer_factory.cpp:58] Creating layer scale_conv11
I0825 22:19:22.175854 16812 net.cpp:84] Creating Layer scale_conv11
I0825 22:19:22.175854 16812 net.cpp:406] scale_conv11 <- conv11
I0825 22:19:22.175854 16812 net.cpp:367] scale_conv11 -> conv11 (in-place)
I0825 22:19:22.175854 16812 layer_factory.cpp:58] Creating layer scale_conv11
I0825 22:19:22.176856 16812 net.cpp:122] Setting up scale_conv11
I0825 22:19:22.176856 16812 net.cpp:129] Top shape: 100 355 8 8 (2272000)
I0825 22:19:22.176856 16812 net.cpp:137] Memory required for data: 1866778000
I0825 22:19:22.176856 16812 layer_factory.cpp:58] Creating layer relu_conv11
I0825 22:19:22.176856 16812 net.cpp:84] Creating Layer relu_conv11
I0825 22:19:22.176856 16812 net.cpp:406] relu_conv11 <- conv11
I0825 22:19:22.176856 16812 net.cpp:367] relu_conv11 -> conv11 (in-place)
I0825 22:19:22.176856 16812 net.cpp:122] Setting up relu_conv11
I0825 22:19:22.176856 16812 net.cpp:129] Top shape: 100 355 8 8 (2272000)
I0825 22:19:22.176856 16812 net.cpp:137] Memory required for data: 1875866000
I0825 22:19:22.176856 16812 layer_factory.cpp:58] Creating layer drop11
I0825 22:19:22.176856 16812 net.cpp:84] Creating Layer drop11
I0825 22:19:22.176856 16812 net.cpp:406] drop11 <- conv11
I0825 22:19:22.176856 16812 net.cpp:367] drop11 -> conv11 (in-place)
I0825 22:19:22.176856 16812 net.cpp:122] Setting up drop11
I0825 22:19:22.176856 16812 net.cpp:129] Top shape: 100 355 8 8 (2272000)
I0825 22:19:22.176856 16812 net.cpp:137] Memory required for data: 1884954000
I0825 22:19:22.176856 16812 layer_factory.cpp:58] Creating layer conv12
I0825 22:19:22.176856 16812 net.cpp:84] Creating Layer conv12
I0825 22:19:22.176856 16812 net.cpp:406] conv12 <- conv11
I0825 22:19:22.176856 16812 net.cpp:380] conv12 -> conv12
I0825 22:19:22.187861 16812 net.cpp:122] Setting up conv12
I0825 22:19:22.187861 16812 net.cpp:129] Top shape: 100 432 8 8 (2764800)
I0825 22:19:22.187861 16812 net.cpp:137] Memory required for data: 1896013200
I0825 22:19:22.187861 16812 layer_factory.cpp:58] Creating layer bn_conv12
I0825 22:19:22.187861 16812 net.cpp:84] Creating Layer bn_conv12
I0825 22:19:22.187861 16812 net.cpp:406] bn_conv12 <- conv12
I0825 22:19:22.187861 16812 net.cpp:367] bn_conv12 -> conv12 (in-place)
I0825 22:19:22.187861 16812 net.cpp:122] Setting up bn_conv12
I0825 22:19:22.187861 16812 net.cpp:129] Top shape: 100 432 8 8 (2764800)
I0825 22:19:22.187861 16812 net.cpp:137] Memory required for data: 1907072400
I0825 22:19:22.187861 16812 layer_factory.cpp:58] Creating layer scale_conv12
I0825 22:19:22.187861 16812 net.cpp:84] Creating Layer scale_conv12
I0825 22:19:22.187861 16812 net.cpp:406] scale_conv12 <- conv12
I0825 22:19:22.187861 16812 net.cpp:367] scale_conv12 -> conv12 (in-place)
I0825 22:19:22.187861 16812 layer_factory.cpp:58] Creating layer scale_conv12
I0825 22:19:22.187861 16812 net.cpp:122] Setting up scale_conv12
I0825 22:19:22.187861 16812 net.cpp:129] Top shape: 100 432 8 8 (2764800)
I0825 22:19:22.187861 16812 net.cpp:137] Memory required for data: 1918131600
I0825 22:19:22.187861 16812 layer_factory.cpp:58] Creating layer relu_conv12
I0825 22:19:22.187861 16812 net.cpp:84] Creating Layer relu_conv12
I0825 22:19:22.187861 16812 net.cpp:406] relu_conv12 <- conv12
I0825 22:19:22.187861 16812 net.cpp:367] relu_conv12 -> conv12 (in-place)
I0825 22:19:22.187861 16812 net.cpp:122] Setting up relu_conv12
I0825 22:19:22.187861 16812 net.cpp:129] Top shape: 100 432 8 8 (2764800)
I0825 22:19:22.187861 16812 net.cpp:137] Memory required for data: 1929190800
I0825 22:19:22.188863 16812 layer_factory.cpp:58] Creating layer poolcp6
I0825 22:19:22.188863 16812 net.cpp:84] Creating Layer poolcp6
I0825 22:19:22.188863 16812 net.cpp:406] poolcp6 <- conv12
I0825 22:19:22.188863 16812 net.cpp:380] poolcp6 -> poolcp6
I0825 22:19:22.188863 16812 net.cpp:122] Setting up poolcp6
I0825 22:19:22.188863 16812 net.cpp:129] Top shape: 100 432 1 1 (43200)
I0825 22:19:22.188863 16812 net.cpp:137] Memory required for data: 1929363600
I0825 22:19:22.188863 16812 layer_factory.cpp:58] Creating layer drop12
I0825 22:19:22.188863 16812 net.cpp:84] Creating Layer drop12
I0825 22:19:22.188863 16812 net.cpp:406] drop12 <- poolcp6
I0825 22:19:22.188863 16812 net.cpp:367] drop12 -> poolcp6 (in-place)
I0825 22:19:22.188863 16812 net.cpp:122] Setting up drop12
I0825 22:19:22.188863 16812 net.cpp:129] Top shape: 100 432 1 1 (43200)
I0825 22:19:22.188863 16812 net.cpp:137] Memory required for data: 1929536400
I0825 22:19:22.188863 16812 layer_factory.cpp:58] Creating layer ip1
I0825 22:19:22.188863 16812 net.cpp:84] Creating Layer ip1
I0825 22:19:22.188863 16812 net.cpp:406] ip1 <- poolcp6
I0825 22:19:22.188863 16812 net.cpp:380] ip1 -> ip1
I0825 22:19:22.188863 16812 net.cpp:122] Setting up ip1
I0825 22:19:22.188863 16812 net.cpp:129] Top shape: 100 10 (1000)
I0825 22:19:22.188863 16812 net.cpp:137] Memory required for data: 1929540400
I0825 22:19:22.188863 16812 layer_factory.cpp:58] Creating layer loss
I0825 22:19:22.188863 16812 net.cpp:84] Creating Layer loss
I0825 22:19:22.188863 16812 net.cpp:406] loss <- ip1
I0825 22:19:22.188863 16812 net.cpp:406] loss <- label
I0825 22:19:22.188863 16812 net.cpp:380] loss -> loss
I0825 22:19:22.188863 16812 layer_factory.cpp:58] Creating layer loss
…
I0825 22:19:22.190865 16812 net.cpp:294] The NetState phase (1) differed from the phase (0) specified by a rule in layer bn_conv11
I0825 22:19:22.190865 16812 net.cpp:294] The NetState phase (1) differed from the phase (0) specified by a rule in layer bn_conv12
I0825 22:19:22.191864 16812 net.cpp:51] Initializing net from parameters: 
name: "SVHN__SimpleNet_GP_13L_drpall_5Mil_66"
state {
  phase: TEST
}
layer {
  name: "SVHN"
  type: "Data"
  top: "data"
  top: "label"
  include {
    phase: TEST
  }
  transform_param {
    scale: 0.0039215684
  }
  data_param {
    source: "examples/svhn/svhn_test_leveldb"
    batch_size: 16
    backend: LEVELDB
  }
}
layer {
  name: "conv1"
  type: "Convolution"
  bottom: "data"
  top: "conv1"
  param {
    lr_mult: 1
  }
  convolution_param {
    num_output: 66
    bias_term: true
    pad: 1
    kernel_size: 3
    stride: 1
    weight_filler {
      type: "xavier"
    }
  }
}
layer {
  name: "bn1"
  type: "BatchNorm"
  bottom: "conv1"
  top: "conv1"
  param {
    lr_mult: 0
    decay_mult: 0
  }
  param {
    lr_mult: 0
    decay_mult: 0
  }
  param {
    lr_mult: 0
    decay_mult: 0
  }
  include {
    phase: TEST
  }
  batch_norm_param {
    use_global_stats: true
    moving_average_fraction: 0.95
  }
}
layer {
  name: "scale1"
  type: "Scale"
  bottom: "conv1"
  top: "conv1"
  scale_param {
    bias_term: true
  }
}
layer {
  name: "relu1"
  type: "ReLU"
  bottom: "conv1"
  top: "conv1"
}
layer {
  name: "drop1"
  type: "Dropout"
  bottom: "conv1"
  top: "conv1"
  dropout_param {
    dropout_ratio: 0.2
  }
}
layer {
  name: "conv1_0"
  type: "Convolution"
  bottom: "conv1"
  top: "conv1_0"
  param {
    lr_mult: 1
  }
  convolution_param {
    num_output: 128
    bias_term: true
    pad: 1
    kernel_size: 3
    stride: 1
    weight_filler {
      type: "xavier"
    }
  }
}
layer {
  name: "bn1_0"
  type: "BatchNorm"
  bottom: "conv1_0"
  top: "conv1_0"
  param {
    lr_mult: 0
    decay_mult: 0
  }
  param {
    lr_mult: 0
    decay_mult: 0
  }
  param {
    lr_mult: 0
    decay_mult: 0
  }
  include {
    phase: TEST
  }
  batch_norm_param {
    use_global_stats: true
    moving_average_fraction: 0.95
  }
}
layer {
  name: "scale1_0"
  type: "Scale"
  bottom: "conv1_0"
  top: "conv1_0"
  scale_param {
    bias_term: true
  }
}
layer {
  name: "relu1_0"
  type: "ReLU"
  bottom: "conv1_0"
  top: "conv1_0"
}
layer {
  name: "drop2"
  type: "Dropout"
  bottom: "conv1_0"
  top: "conv1_0"
  dropout_param {
    dropout_ratio: 0.2
  }
}
layer {
  name: "conv2"
  type: "Convolution"
  bottom: "conv1_0"
  top: "conv2"
  param {
    lr_mult: 1
  }
  convolution_param {
    num_output: 128
    bias_term: true
    pad: 1
    kernel_size: 3
    stride: 1
    weight_filler {
      type: "gaussian"
      std: 0.01
    }
  }
}
layer {
  name: "bn2"
  type: "BatchNorm"
  bottom: "conv2"
  top: "conv2"
  param {
    lr_mult: 0
    decay_mult: 0
  }
  param {
    lr_mult: 0
    decay_mult: 0
  }
  param {
    lr_mult: 0
    decay_mult: 0
  }
  include {
    phase: TEST
  }
  batch_norm_param {
    use_global_stats: true
    moving_average_fraction: 0.95
  }
}
layer {
  name: "scale2"
  type: "Scale"
  bottom: "conv2"
  top: "conv2"
  scale_param {
    bias_term: true
  }
}
layer {
  name: "relu2"
  type: "ReLU"
  bottom: "conv2"
  top: "conv2"
}
layer {
  name: "drop3"
  type: "Dropout"
  bottom: "conv2"
  top: "conv2"
  dropout_param {
    dropout_ratio: 0.2
  }
}
layer {
  name: "conv2_1"
  type: "Convolution"
  bottom: "conv2"
  top: "conv2_1"
  param {
    lr_mult: 1
  }
  convolution_param {
    num_output: 128
    bias_term: true
    pad: 1
    kernel_size: 3
    stride: 1
    weight_filler {
      type: "gaussian"
      std: 0.01
    }
  }
}
layer {
  name: "bn2_1"
  type: "BatchNorm"
  bottom: "conv2_1"
  top: "conv2_1"
  param {
    lr_mult: 0
    decay_mult: 0
  }
  param {
    lr_mult: 0
    decay_mult: 0
  }
  param {
    lr_mult: 0
    decay_mult: 0
  }
  include {
    phase: TEST
  }
  batch_norm_param {
    use_global_stats: true
    moving_average_fraction: 0.95
  }
}
layer {
  name: "scale2_1"
  type: "Scale"
  bottom: "conv2_1"
  top: "conv2_1"
  scale_param {
    bias_term: true
  }
}
layer {
  name: "relu2_1"
  type: "ReLU"
  bottom: "conv2_1"
  top: "conv2_1"
}
layer {
  name: "drop4"
  type: "Dropout"
  bottom: "conv2_1"
  top: "conv2_1"
  dropout_param {
    dropout_ratio: 0.2
  }
}
layer {
  name: "conv2_2"
  type: "Convolution"
  bottom: "conv2_1"
  top: "conv2_2"
  param {
    lr_mult: 1
  }
  convolution_param {
    num_output: 192
    bias_term: true
    pad: 1
    kernel_size: 3
    stride: 1
    weight_filler {
      type: "gaussian"
      std: 0.01
    }
  }
}
layer {
  name: "bn2_2"
  type: "BatchNorm"
  bottom: "conv2_2"
  top: "conv2_2"
  param {
    lr_mult: 0
    decay_mult: 0
  }
  param {
    lr_mult: 0
    decay_mult: 0
  }
  param {
    lr_mult: 0
    decay_mult: 0
  }
  include {
    phase: TEST
  }
  batch_norm_param {
    use_global_stats: true
    moving_average_fraction: 0.95
  }
}
layer {
  name: "scale2_2"
  type: "Scale"
  bottom: "conv2_2"
  top: "conv2_2"
  scale_param {
    bias_term: true
  }
}
layer {
  name: "relu2_2"
  type: "ReLU"
  bottom: "conv2_2"
  top: "conv2_2"
}
layer {
  name: "pool2_1"
  type: "Pooling"
  bottom: "conv2_2"
  top: "pool2_1"
  pooling_param {
    pool: MAX
    kernel_size: 2
    stride: 2
  }
}
layer {
  name: "drop5"
  type: "Dropout"
  bottom: "pool2_1"
  top: "pool2_1"
  dropout_param {
    dropout_ratio: 0.2
  }
}
layer {
  name: "conv3"
  type: "Convolution"
  bottom: "pool2_1"
  top: "conv3"
  param {
    lr_mult: 1
  }
  convolution_param {
    num_output: 192
    bias_term: true
    pad: 1
    kernel_size: 3
    stride: 1
    weight_filler {
      type: "xavier"
    }
  }
}
layer {
  name: "bn3"
  type: "BatchNorm"
  bottom: "conv3"
  top: "conv3"
  param {
    lr_mult: 0
    decay_mult: 0
  }
  param {
    lr_mult: 0
    decay_mult: 0
  }
  param {
    lr_mult: 0
    decay_mult: 0
  }
  include {
    phase: TEST
  }
  batch_norm_param {
    use_global_stats: true
    moving_average_fraction: 0.95
  }
}
layer {
  name: "scale3"
  type: "Scale"
  bottom: "conv3"
  top: "conv3"
  scale_param {
    bias_term: true
  }
}
layer {
  name: "relu3"
  type: "ReLU"
  bottom: "conv3"
  top: "conv3"
}
layer {
  name: "drop6"
  type: "Dropout"
  bottom: "conv3"
  top: "conv3"
  dropout_param {
    dropout_ratio: 0.2
  }
}
layer {
  name: "conv3_1"
  type: "Convolution"
  bottom: "conv3"
  top: "conv3_1"
  param {
    lr_mult: 1
  }
  convolution_param {
    num_output: 192
    bias_term: true
    pad: 1
    kernel_size: 3
    stride: 1
    weight_filler {
      type: "xavier"
    }
  }
}
layer {
  name: "bn3_1"
  type: "BatchNorm"
  bottom: "conv3_1"
  top: "conv3_1"
  param {
    lr_mult: 0
    decay_mult: 0
  }
  param {
    lr_mult: 0
    decay_mult: 0
  }
  param {
    lr_mult: 0
    decay_mult: 0
  }
  include {
    phase: TEST
  }
  batch_norm_param {
    use_global_stats: true
    moving_average_fraction: 0.95
  }
}
layer {
  name: "scale3_1"
  type: "Scale"
  bottom: "conv3_1"
  top: "conv3_1"
  scale_param {
    bias_term: true
  }
}
layer {
  name: "relu3_1"
  type: "ReLU"
  bottom: "conv3_1"
  top: "conv3_1"
}
layer {
  name: "drop6_1"
  type: "Dropout"
  bottom: "conv3_1"
  top: "conv3_1"
  dropout_param {
    dropout_ratio: 0.2
  }
}
layer {
  name: "conv4"
  type: "Convolution"
  bottom: "conv3_1"
  top: "conv4"
  param {
    lr_mult: 1
  }
  convolution_param {
    num_output: 192
    bias_term: true
    pad: 1
    kernel_size: 3
    stride: 1
    weight_filler {
      type: "xavier"
    }
  }
}
layer {
  name: "bn4"
  type: "BatchNorm"
  bottom: "conv4"
  top: "conv4"
  param {
    lr_mult: 0
    decay_mult: 0
  }
  param {
    lr_mult: 0
    decay_mult: 0
  }
  param {
    lr_mult: 0
    decay_mult: 0
  }
  include {
    phase: TEST
  }
  batch_norm_param {
    use_global_stats: true
    moving_average_fraction: 0.95
  }
}
layer {
  name: "scale4"
  type: "Scale"
  bottom: "conv4"
  top: "conv4"
  scale_param {
    bias_term: true
  }
}
layer {
  name: "relu4"
  type: "ReLU"
  bottom: "conv4"
  top: "conv4"
}
layer {
  name: "drop7"
  type: "Dropout"
  bottom: "conv4"
  top: "conv4"
  dropout_param {
    dropout_ratio: 0.2
  }
}
layer {
  name: "conv4_1"
  type: "Convolution"
  bottom: "conv4"
  top: "conv4_1"
  param {
    lr_mult: 1
  }
  convolution_param {
    num_output: 192
    bias_term: true
    pad: 1
    kernel_size: 3
    stride: 1
    weight_filler {
      type: "xavier"
    }
  }
}
layer {
  name: "bn4_1"
  type: "BatchNorm"
  bottom: "conv4_1"
  top: "conv4_1"
  param {
    lr_mult: 0
    decay_mult: 0
  }
  param {
    lr_mult: 0
    decay_mult: 0
  }
  param {
    lr_mult: 0
    decay_mult: 0
  }
  include {
    phase: TEST
  }
  batch_norm_param {
    use_global_stats: true
    moving_average_fraction: 0.95
  }
}
layer {
  name: "scale4_1"
  type: "Scale"
  bottom: "conv4_1"
  top: "conv4_1"
  scale_param {
    bias_term: true
  }
}
layer {
  name: "relu4_1"
  type: "ReLU"
  bottom: "conv4_1"
  top: "conv4_1"
}
layer {
  name: "drop8"
  type: "Dropout"
  bottom: "conv4_1"
  top: "conv4_1"
  dropout_param {
    dropout_ratio: 0.2
  }
}
layer {
  name: "conv4_2"
  type: "Convolution"
  bottom: "conv4_1"
  top: "conv4_2"
  param {
    lr_mult: 1
  }
  convolution_param {
    num_output: 288
    bias_term: true
    pad: 1
    kernel_size: 3
    stride: 1
    weight_filler {
      type: "xavier"
    }
  }
}
layer {
  name: "bn4_2"
  type: "BatchNorm"
  bottom: "conv4_2"
  top: "conv4_2"
  param {
    lr_mult: 0
    decay_mult: 0
  }
  param {
    lr_mult: 0
    decay_mult: 0
  }
  param {
    lr_mult: 0
    decay_mult: 0
  }
  include {
    phase: TEST
  }
  batch_norm_param {
    use_global_stats: true
    moving_average_fraction: 0.95
  }
}
layer {
  name: "scale4_2"
  type: "Scale"
  bottom: "conv4_2"
  top: "conv4_2"
  scale_param {
    bias_term: true
  }
}
layer {
  name: "relu4_2"
  type: "ReLU"
  bottom: "conv4_2"
  top: "conv4_2"
}
layer {
  name: "pool4_2"
  type: "Pooling"
  bottom: "conv4_2"
  top: "pool4_2"
  pooling_param {
    pool: MAX
    kernel_size: 2
    stride: 2
  }
}
layer {
  name: "drop9"
  type: "Dropout"
  bottom: "pool4_2"
  top: "pool4_2"
  dropout_param {
    dropout_ratio: 0.3
  }
}
layer {
  name: "conv4_0"
  type: "Convolution"
  bottom: "pool4_2"
  top: "conv4_0"
  param {
    lr_mult: 1
  }
  convolution_param {
    num_output: 288
    bias_term: true
    pad: 1
    kernel_size: 3
    stride: 1
    weight_filler {
      type: "xavier"
    }
  }
}
layer {
  name: "bn4_0"
  type: "BatchNorm"
  bottom: "conv4_0"
  top: "conv4_0"
  param {
    lr_mult: 0
    decay_mult: 0
  }
  param {
    lr_mult: 0
    decay_mult: 0
  }
  param {
    lr_mult: 0
    decay_mult: 0
  }
  include {
    phase: TEST
  }
  batch_norm_param {
    use_global_stats: true
    moving_average_fraction: 0.95
  }
}
layer {
  name: "scale4_0"
  type: "Scale"
  bottom: "conv4_0"
  top: "conv4_0"
  scale_param {
    bias_term: true
  }
}
layer {
  name: "relu4_0"
  type: "ReLU"
  bottom: "conv4_0"
  top: "conv4_0"
}
layer {
  name: "drop10"
  type: "Dropout"
  bottom: "conv4_0"
  top: "conv4_0"
  dropout_param {
    dropout_ratio: 0.3
  }
}
layer {
  name: "conv11"
  type: "Convolution"
  bottom: "conv4_0"
  top: "conv11"
  param {
    lr_mult: 1
    decay_mult: 1
  }
  param {
    lr_mult: 2
    decay_mult: 0
  }
  convolution_param {
    num_output: 355
    pad: 1
    kernel_size: 3
    weight_filler {
      type: "xavier"
    }
    bias_filler {
      type: "constant"
      value: 0
    }
  }
}
layer {
  name: "bn_conv11"
  type: "BatchNorm"
  bottom: "conv11"
  top: "conv11"
  param {
    lr_mult: 0
    decay_mult: 0
  }
  param {
    lr_mult: 0
    decay_mult: 0
  }
  param {
    lr_mult: 0
    decay_mult: 0
  }
  include {
    phase: TEST
  }
  batch_norm_param {
    use_global_stats: true
    moving_average_fraction: 0.95
  }
}
layer {
  name: "scale_conv11"
  type: "Scale"
  bottom: "conv11"
  top: "conv11"
  scale_param {
    bias_term: true
  }
}
layer {
  name: "relu_conv11"
  type: "ReLU"
  bottom: "conv11"
  top: "conv11"
}
layer {
  name: "drop11"
  type: "Dropout"
  bottom: "conv11"
  top: "conv11"
  dropout_param {
    dropout_ratio: 0.3
  }
}
layer {
  name: "conv12"
  type: "Convolution"
  bottom: "conv11"
  top: "conv12"
  param {
    lr_mult: 1
    decay_mult: 1
  }
  param {
    lr_mult: 2
    decay_mult: 0
  }
  convolution_param {
    num_output: 432
    pad: 1
    kernel_size: 3
    weight_filler {
      type: "xavier"
    }
    bias_filler {
      type: "constant"
      value: 0
    }
  }
}
layer {
  name: "bn_conv12"
  type: "BatchNorm"
  bottom: "conv12"
  top: "conv12"
  param {
    lr_mult: 0
    decay_mult: 0
  }
  param {
    lr_mult: 0
    decay_mult: 0
  }
  param {
    lr_mult: 0
    decay_mult: 0
  }
  include {
    phase: TEST
  }
  batch_norm_param {
    use_global_stats: true
    moving_average_fraction: 0.95
  }
}
layer {
  name: "scale_conv12"
  type: "Scale"
  bottom: "conv12"
  top: "conv12"
  scale_param {
    bias_term: true
  }
}
layer {
  name: "relu_conv12"
  type: "ReLU"
  bottom: "conv12"
  top: "conv12"
}
layer {
  name: "poolcp6"
  type: "Pooling"
  bottom: "conv12"
  top: "poolcp6"
  pooling_param {
    pool: MAX
    global_pooling: true
  }
}
layer {
  name: "drop12"
  type: "Dropout"
  bottom: "poolcp6"
  top: "poolcp6"
  dropout_param {
    dropout_ratio: 0.3
  }
}
layer {
  name: "ip1"
  type: "InnerProduct"
  bottom: "poolcp6"
  top: "ip1"
  param {
    lr_mult: 1
    decay_mult: 0
  }
  param {
    lr_mult: 2
    decay_mult: 0
  }
  inner_product_param {
    num_output: 10
    weight_filler {
      type: "xavier"
    }
    bias_filler {
      type: "constant"
    }
  }
}
layer {
  name: "accuracy"
  type: "Accuracy"
  bottom: "ip1"
  bottom: "label"
  top: "accuracy"
  include {
    phase: TEST
  }
}
layer {
  name: "loss"
  type: "SoftmaxWithLoss"
  bottom: "ip1"
  bottom: "label"
  top: "loss"
}
I0825 22:19:22.191864 16812 layer_factory.cpp:58] Creating layer SVHN
I0825 22:19:22.196868 16812 db_leveldb.cpp:18] Opened leveldb examples/svhn/svhn_test_leveldb
I0825 22:19:22.196868 16812 net.cpp:84] Creating Layer SVHN
I0825 22:19:22.196868 16812 net.cpp:380] SVHN -> data
I0825 22:19:22.196868 16812 net.cpp:380] SVHN -> label
I0825 22:19:22.196868 16812 data_layer.cpp:45] output data size: 16,3,32,32
I0825 22:19:22.199870 16812 net.cpp:122] Setting up SVHN
I0825 22:19:22.199870 16812 net.cpp:129] Top shape: 16 3 32 32 (49152)
I0825 22:19:22.199870 16812 net.cpp:129] Top shape: 16 (16)
I0825 22:19:22.199870 16812 net.cpp:137] Memory required for data: 196672
I0825 22:19:22.199870 16812 layer_factory.cpp:58] Creating layer label_SVHN_1_split
I0825 22:19:22.199870 16812 net.cpp:84] Creating Layer label_SVHN_1_split
I0825 22:19:22.199870 16812 net.cpp:406] label_SVHN_1_split <- label
I0825 22:19:22.199870 16812 net.cpp:380] label_SVHN_1_split -> label_SVHN_1_split_0
I0825 22:19:22.199870 16812 net.cpp:380] label_SVHN_1_split -> label_SVHN_1_split_1
I0825 22:19:22.199870 16812 net.cpp:122] Setting up label_SVHN_1_split
I0825 22:19:22.199870 16812 net.cpp:129] Top shape: 16 (16)
I0825 22:19:22.199870 16812 net.cpp:129] Top shape: 16 (16)
I0825 22:19:22.199870 16812 net.cpp:137] Memory required for data: 196800
I0825 22:19:22.199870 16812 layer_factory.cpp:58] Creating layer conv1
I0825 22:19:22.199870 16812 net.cpp:84] Creating Layer conv1
I0825 22:19:22.199870 16812 net.cpp:406] conv1 <- data
I0825 22:19:22.199870 16812 net.cpp:380] conv1 -> conv1
I0825 22:19:22.200871  1736 common.cpp:36] System entropy source not available, using fallback algorithm to generate seed instead.
I0825 22:19:22.201871 16812 net.cpp:122] Setting up conv1
I0825 22:19:22.201871 16812 net.cpp:129] Top shape: 16 66 32 32 (1081344)
I0825 22:19:22.201871 16812 net.cpp:137] Memory required for data: 4522176
I0825 22:19:22.201871 16812 layer_factory.cpp:58] Creating layer bn1
I0825 22:19:22.201871 16812 net.cpp:84] Creating Layer bn1
I0825 22:19:22.201871 16812 net.cpp:406] bn1 <- conv1
I0825 22:19:22.201871 16812 net.cpp:367] bn1 -> conv1 (in-place)
I0825 22:19:22.201871 16812 net.cpp:122] Setting up bn1
I0825 22:19:22.201871 16812 net.cpp:129] Top shape: 16 66 32 32 (1081344)
I0825 22:19:22.201871 16812 net.cpp:137] Memory required for data: 8847552
I0825 22:19:22.201871 16812 layer_factory.cpp:58] Creating layer scale1
I0825 22:19:22.201871 16812 net.cpp:84] Creating Layer scale1
I0825 22:19:22.201871 16812 net.cpp:406] scale1 <- conv1
I0825 22:19:22.201871 16812 net.cpp:367] scale1 -> conv1 (in-place)
I0825 22:19:22.201871 16812 layer_factory.cpp:58] Creating layer scale1
I0825 22:19:22.201871 16812 net.cpp:122] Setting up scale1
I0825 22:19:22.201871 16812 net.cpp:129] Top shape: 16 66 32 32 (1081344)
I0825 22:19:22.201871 16812 net.cpp:137] Memory required for data: 13172928
I0825 22:19:22.201871 16812 layer_factory.cpp:58] Creating layer relu1
I0825 22:19:22.201871 16812 net.cpp:84] Creating Layer relu1
I0825 22:19:22.201871 16812 net.cpp:406] relu1 <- conv1
I0825 22:19:22.201871 16812 net.cpp:367] relu1 -> conv1 (in-place)
I0825 22:19:22.201871 16812 net.cpp:122] Setting up relu1
I0825 22:19:22.201871 16812 net.cpp:129] Top shape: 16 66 32 32 (1081344)
I0825 22:19:22.201871 16812 net.cpp:137] Memory required for data: 17498304
I0825 22:19:22.201871 16812 layer_factory.cpp:58] Creating layer drop1
I0825 22:19:22.201871 16812 net.cpp:84] Creating Layer drop1
I0825 22:19:22.201871 16812 net.cpp:406] drop1 <- conv1
I0825 22:19:22.201871 16812 net.cpp:367] drop1 -> conv1 (in-place)
I0825 22:19:22.201871 16812 net.cpp:122] Setting up drop1
I0825 22:19:22.201871 16812 net.cpp:129] Top shape: 16 66 32 32 (1081344)
I0825 22:19:22.201871 16812 net.cpp:137] Memory required for data: 21823680
I0825 22:19:22.201871 16812 layer_factory.cpp:58] Creating layer conv1_0
I0825 22:19:22.201871 16812 net.cpp:84] Creating Layer conv1_0
I0825 22:19:22.202872 16812 net.cpp:406] conv1_0 <- conv1
I0825 22:19:22.202872 16812 net.cpp:380] conv1_0 -> conv1_0
I0825 22:19:22.203873 16812 net.cpp:122] Setting up conv1_0
I0825 22:19:22.203873 16812 net.cpp:129] Top shape: 16 128 32 32 (2097152)
I0825 22:19:22.203873 16812 net.cpp:137] Memory required for data: 30212288
I0825 22:19:22.203873 16812 layer_factory.cpp:58] Creating layer bn1_0
I0825 22:19:22.203873 16812 net.cpp:84] Creating Layer bn1_0
I0825 22:19:22.203873 16812 net.cpp:406] bn1_0 <- conv1_0
I0825 22:19:22.203873 16812 net.cpp:367] bn1_0 -> conv1_0 (in-place)
I0825 22:19:22.203873 16812 net.cpp:122] Setting up bn1_0
I0825 22:19:22.203873 16812 net.cpp:129] Top shape: 16 128 32 32 (2097152)
I0825 22:19:22.203873 16812 net.cpp:137] Memory required for data: 38600896
I0825 22:19:22.203873 16812 layer_factory.cpp:58] Creating layer scale1_0
I0825 22:19:22.204874 16812 net.cpp:84] Creating Layer scale1_0
I0825 22:19:22.204874 16812 net.cpp:406] scale1_0 <- conv1_0
I0825 22:19:22.204874 16812 net.cpp:367] scale1_0 -> conv1_0 (in-place)
I0825 22:19:22.204874 16812 layer_factory.cpp:58] Creating layer scale1_0
I0825 22:19:22.204874 16812 net.cpp:122] Setting up scale1_0
I0825 22:19:22.204874 16812 net.cpp:129] Top shape: 16 128 32 32 (2097152)
I0825 22:19:22.204874 16812 net.cpp:137] Memory required for data: 46989504
I0825 22:19:22.204874 16812 layer_factory.cpp:58] Creating layer relu1_0
I0825 22:19:22.204874 16812 net.cpp:84] Creating Layer relu1_0
I0825 22:19:22.204874 16812 net.cpp:406] relu1_0 <- conv1_0
I0825 22:19:22.204874 16812 net.cpp:367] relu1_0 -> conv1_0 (in-place)
I0825 22:19:22.204874 16812 net.cpp:122] Setting up relu1_0
I0825 22:19:22.204874 16812 net.cpp:129] Top shape: 16 128 32 32 (2097152)
I0825 22:19:22.204874 16812 net.cpp:137] Memory required for data: 55378112
I0825 22:19:22.204874 16812 layer_factory.cpp:58] Creating layer drop2
I0825 22:19:22.204874 16812 net.cpp:84] Creating Layer drop2
I0825 22:19:22.204874 16812 net.cpp:406] drop2 <- conv1_0
I0825 22:19:22.204874 16812 net.cpp:367] drop2 -> conv1_0 (in-place)
I0825 22:19:22.204874 16812 net.cpp:122] Setting up drop2
I0825 22:19:22.204874 16812 net.cpp:129] Top shape: 16 128 32 32 (2097152)
I0825 22:19:22.204874 16812 net.cpp:137] Memory required for data: 63766720
I0825 22:19:22.204874 16812 layer_factory.cpp:58] Creating layer conv2
I0825 22:19:22.204874 16812 net.cpp:84] Creating Layer conv2
I0825 22:19:22.204874 16812 net.cpp:406] conv2 <- conv1_0
I0825 22:19:22.204874 16812 net.cpp:380] conv2 -> conv2
I0825 22:19:22.207876 16812 net.cpp:122] Setting up conv2
I0825 22:19:22.207876 16812 net.cpp:129] Top shape: 16 128 32 32 (2097152)
I0825 22:19:22.207876 16812 net.cpp:137] Memory required for data: 72155328
I0825 22:19:22.207876 16812 layer_factory.cpp:58] Creating layer bn2
I0825 22:19:22.207876 16812 net.cpp:84] Creating Layer bn2
I0825 22:19:22.207876 16812 net.cpp:406] bn2 <- conv2
I0825 22:19:22.207876 16812 net.cpp:367] bn2 -> conv2 (in-place)
I0825 22:19:22.207876 16812 net.cpp:122] Setting up bn2
I0825 22:19:22.207876 16812 net.cpp:129] Top shape: 16 128 32 32 (2097152)
I0825 22:19:22.207876 16812 net.cpp:137] Memory required for data: 80543936
I0825 22:19:22.207876 16812 layer_factory.cpp:58] Creating layer scale2
I0825 22:19:22.207876 16812 net.cpp:84] Creating Layer scale2
I0825 22:19:22.207876 16812 net.cpp:406] scale2 <- conv2
I0825 22:19:22.207876 16812 net.cpp:367] scale2 -> conv2 (in-place)
I0825 22:19:22.207876 16812 layer_factory.cpp:58] Creating layer scale2
I0825 22:19:22.207876 16812 net.cpp:122] Setting up scale2
I0825 22:19:22.207876 16812 net.cpp:129] Top shape: 16 128 32 32 (2097152)
I0825 22:19:22.207876 16812 net.cpp:137] Memory required for data: 88932544
I0825 22:19:22.207876 16812 layer_factory.cpp:58] Creating layer relu2
I0825 22:19:22.207876 16812 net.cpp:84] Creating Layer relu2
I0825 22:19:22.207876 16812 net.cpp:406] relu2 <- conv2
I0825 22:19:22.207876 16812 net.cpp:367] relu2 -> conv2 (in-place)
I0825 22:19:22.208876 16812 net.cpp:122] Setting up relu2
I0825 22:19:22.208876 16812 net.cpp:129] Top shape: 16 128 32 32 (2097152)
I0825 22:19:22.208876 16812 net.cpp:137] Memory required for data: 97321152
I0825 22:19:22.208876 16812 layer_factory.cpp:58] Creating layer drop3
I0825 22:19:22.208876 16812 net.cpp:84] Creating Layer drop3
I0825 22:19:22.208876 16812 net.cpp:406] drop3 <- conv2
I0825 22:19:22.208876 16812 net.cpp:367] drop3 -> conv2 (in-place)
I0825 22:19:22.208876 16812 net.cpp:122] Setting up drop3
I0825 22:19:22.208876 16812 net.cpp:129] Top shape: 16 128 32 32 (2097152)
I0825 22:19:22.208876 16812 net.cpp:137] Memory required for data: 105709760
I0825 22:19:22.208876 16812 layer_factory.cpp:58] Creating layer conv2_1
I0825 22:19:22.208876 16812 net.cpp:84] Creating Layer conv2_1
I0825 22:19:22.208876 16812 net.cpp:406] conv2_1 <- conv2
I0825 22:19:22.208876 16812 net.cpp:380] conv2_1 -> conv2_1
I0825 22:19:22.210878 16812 net.cpp:122] Setting up conv2_1
I0825 22:19:22.210878 16812 net.cpp:129] Top shape: 16 128 32 32 (2097152)
I0825 22:19:22.210878 16812 net.cpp:137] Memory required for data: 114098368
I0825 22:19:22.210878 16812 layer_factory.cpp:58] Creating layer bn2_1
I0825 22:19:22.210878 16812 net.cpp:84] Creating Layer bn2_1
I0825 22:19:22.210878 16812 net.cpp:406] bn2_1 <- conv2_1
I0825 22:19:22.210878 16812 net.cpp:367] bn2_1 -> conv2_1 (in-place)
I0825 22:19:22.211879 16812 net.cpp:122] Setting up bn2_1
I0825 22:19:22.211879 16812 net.cpp:129] Top shape: 16 128 32 32 (2097152)
I0825 22:19:22.211879 16812 net.cpp:137] Memory required for data: 122486976
I0825 22:19:22.211879 16812 layer_factory.cpp:58] Creating layer scale2_1
I0825 22:19:22.211879 16812 net.cpp:84] Creating Layer scale2_1
I0825 22:19:22.211879 16812 net.cpp:406] scale2_1 <- conv2_1
I0825 22:19:22.211879 16812 net.cpp:367] scale2_1 -> conv2_1 (in-place)
I0825 22:19:22.211879 16812 layer_factory.cpp:58] Creating layer scale2_1
I0825 22:19:22.211879 16812 net.cpp:122] Setting up scale2_1
I0825 22:19:22.211879 16812 net.cpp:129] Top shape: 16 128 32 32 (2097152)
I0825 22:19:22.211879 16812 net.cpp:137] Memory required for data: 130875584
I0825 22:19:22.211879 16812 layer_factory.cpp:58] Creating layer relu2_1
I0825 22:19:22.211879 16812 net.cpp:84] Creating Layer relu2_1
I0825 22:19:22.211879 16812 net.cpp:406] relu2_1 <- conv2_1
I0825 22:19:22.211879 16812 net.cpp:367] relu2_1 -> conv2_1 (in-place)
I0825 22:19:22.211879 16812 net.cpp:122] Setting up relu2_1
I0825 22:19:22.211879 16812 net.cpp:129] Top shape: 16 128 32 32 (2097152)
I0825 22:19:22.211879 16812 net.cpp:137] Memory required for data: 139264192
I0825 22:19:22.211879 16812 layer_factory.cpp:58] Creating layer drop4
I0825 22:19:22.211879 16812 net.cpp:84] Creating Layer drop4
I0825 22:19:22.211879 16812 net.cpp:406] drop4 <- conv2_1
I0825 22:19:22.211879 16812 net.cpp:367] drop4 -> conv2_1 (in-place)
I0825 22:19:22.211879 16812 net.cpp:122] Setting up drop4
I0825 22:19:22.211879 16812 net.cpp:129] Top shape: 16 128 32 32 (2097152)
I0825 22:19:22.211879 16812 net.cpp:137] Memory required for data: 147652800
I0825 22:19:22.211879 16812 layer_factory.cpp:58] Creating layer conv2_2
I0825 22:19:22.211879 16812 net.cpp:84] Creating Layer conv2_2
I0825 22:19:22.211879 16812 net.cpp:406] conv2_2 <- conv2_1
I0825 22:19:22.211879 16812 net.cpp:380] conv2_2 -> conv2_2
I0825 22:19:22.215881 16812 net.cpp:122] Setting up conv2_2
I0825 22:19:22.215881 16812 net.cpp:129] Top shape: 16 192 32 32 (3145728)
I0825 22:19:22.215881 16812 net.cpp:137] Memory required for data: 160235712
I0825 22:19:22.215881 16812 layer_factory.cpp:58] Creating layer bn2_2
I0825 22:19:22.215881 16812 net.cpp:84] Creating Layer bn2_2
I0825 22:19:22.215881 16812 net.cpp:406] bn2_2 <- conv2_2
I0825 22:19:22.215881 16812 net.cpp:367] bn2_2 -> conv2_2 (in-place)
I0825 22:19:22.215881 16812 net.cpp:122] Setting up bn2_2
I0825 22:19:22.215881 16812 net.cpp:129] Top shape: 16 192 32 32 (3145728)
I0825 22:19:22.215881 16812 net.cpp:137] Memory required for data: 172818624
I0825 22:19:22.215881 16812 layer_factory.cpp:58] Creating layer scale2_2
I0825 22:19:22.215881 16812 net.cpp:84] Creating Layer scale2_2
I0825 22:19:22.215881 16812 net.cpp:406] scale2_2 <- conv2_2
I0825 22:19:22.215881 16812 net.cpp:367] scale2_2 -> conv2_2 (in-place)
I0825 22:19:22.215881 16812 layer_factory.cpp:58] Creating layer scale2_2
I0825 22:19:22.215881 16812 net.cpp:122] Setting up scale2_2
I0825 22:19:22.215881 16812 net.cpp:129] Top shape: 16 192 32 32 (3145728)
I0825 22:19:22.215881 16812 net.cpp:137] Memory required for data: 185401536
I0825 22:19:22.215881 16812 layer_factory.cpp:58] Creating layer relu2_2
I0825 22:19:22.215881 16812 net.cpp:84] Creating Layer relu2_2
I0825 22:19:22.215881 16812 net.cpp:406] relu2_2 <- conv2_2
I0825 22:19:22.215881 16812 net.cpp:367] relu2_2 -> conv2_2 (in-place)
I0825 22:19:22.216882 16812 net.cpp:122] Setting up relu2_2
I0825 22:19:22.216882 16812 net.cpp:129] Top shape: 16 192 32 32 (3145728)
I0825 22:19:22.216882 16812 net.cpp:137] Memory required for data: 197984448
I0825 22:19:22.216882 16812 layer_factory.cpp:58] Creating layer pool2_1
I0825 22:19:22.216882 16812 net.cpp:84] Creating Layer pool2_1
I0825 22:19:22.216882 16812 net.cpp:406] pool2_1 <- conv2_2
I0825 22:19:22.216882 16812 net.cpp:380] pool2_1 -> pool2_1
I0825 22:19:22.216882 16812 net.cpp:122] Setting up pool2_1
I0825 22:19:22.216882 16812 net.cpp:129] Top shape: 16 192 16 16 (786432)
I0825 22:19:22.216882 16812 net.cpp:137] Memory required for data: 201130176
I0825 22:19:22.216882 16812 layer_factory.cpp:58] Creating layer drop5
I0825 22:19:22.216882 16812 net.cpp:84] Creating Layer drop5
I0825 22:19:22.216882 16812 net.cpp:406] drop5 <- pool2_1
I0825 22:19:22.216882 16812 net.cpp:367] drop5 -> pool2_1 (in-place)
I0825 22:19:22.216882 16812 net.cpp:122] Setting up drop5
I0825 22:19:22.216882 16812 net.cpp:129] Top shape: 16 192 16 16 (786432)
I0825 22:19:22.216882 16812 net.cpp:137] Memory required for data: 204275904
I0825 22:19:22.216882 16812 layer_factory.cpp:58] Creating layer conv3
I0825 22:19:22.216882 16812 net.cpp:84] Creating Layer conv3
I0825 22:19:22.216882 16812 net.cpp:406] conv3 <- pool2_1
I0825 22:19:22.216882 16812 net.cpp:380] conv3 -> conv3
I0825 22:19:22.219884 16812 net.cpp:122] Setting up conv3
I0825 22:19:22.219884 16812 net.cpp:129] Top shape: 16 192 16 16 (786432)
I0825 22:19:22.219884 16812 net.cpp:137] Memory required for data: 207421632
I0825 22:19:22.219884 16812 layer_factory.cpp:58] Creating layer bn3
I0825 22:19:22.219884 16812 net.cpp:84] Creating Layer bn3
I0825 22:19:22.219884 16812 net.cpp:406] bn3 <- conv3
I0825 22:19:22.219884 16812 net.cpp:367] bn3 -> conv3 (in-place)
I0825 22:19:22.220885 16812 net.cpp:122] Setting up bn3
I0825 22:19:22.220885 16812 net.cpp:129] Top shape: 16 192 16 16 (786432)
I0825 22:19:22.220885 16812 net.cpp:137] Memory required for data: 210567360
I0825 22:19:22.220885 16812 layer_factory.cpp:58] Creating layer scale3
I0825 22:19:22.220885 16812 net.cpp:84] Creating Layer scale3
I0825 22:19:22.220885 16812 net.cpp:406] scale3 <- conv3
I0825 22:19:22.220885 16812 net.cpp:367] scale3 -> conv3 (in-place)
I0825 22:19:22.220885 16812 layer_factory.cpp:58] Creating layer scale3
I0825 22:19:22.220885 16812 net.cpp:122] Setting up scale3
I0825 22:19:22.220885 16812 net.cpp:129] Top shape: 16 192 16 16 (786432)
I0825 22:19:22.220885 16812 net.cpp:137] Memory required for data: 213713088
I0825 22:19:22.220885 16812 layer_factory.cpp:58] Creating layer relu3
I0825 22:19:22.220885 16812 net.cpp:84] Creating Layer relu3
I0825 22:19:22.220885 16812 net.cpp:406] relu3 <- conv3
I0825 22:19:22.220885 16812 net.cpp:367] relu3 -> conv3 (in-place)
I0825 22:19:22.220885 16812 net.cpp:122] Setting up relu3
I0825 22:19:22.220885 16812 net.cpp:129] Top shape: 16 192 16 16 (786432)
I0825 22:19:22.220885 16812 net.cpp:137] Memory required for data: 216858816
I0825 22:19:22.220885 16812 layer_factory.cpp:58] Creating layer drop6
I0825 22:19:22.220885 16812 net.cpp:84] Creating Layer drop6
I0825 22:19:22.220885 16812 net.cpp:406] drop6 <- conv3
I0825 22:19:22.220885 16812 net.cpp:367] drop6 -> conv3 (in-place)
I0825 22:19:22.220885 16812 net.cpp:122] Setting up drop6
I0825 22:19:22.220885 16812 net.cpp:129] Top shape: 16 192 16 16 (786432)
I0825 22:19:22.220885 16812 net.cpp:137] Memory required for data: 220004544
I0825 22:19:22.220885 16812 layer_factory.cpp:58] Creating layer conv3_1
I0825 22:19:22.220885 16812 net.cpp:84] Creating Layer conv3_1
I0825 22:19:22.220885 16812 net.cpp:406] conv3_1 <- conv3
I0825 22:19:22.220885 16812 net.cpp:380] conv3_1 -> conv3_1
I0825 22:19:22.224889 16812 net.cpp:122] Setting up conv3_1
I0825 22:19:22.224889 16812 net.cpp:129] Top shape: 16 192 16 16 (786432)
I0825 22:19:22.224889 16812 net.cpp:137] Memory required for data: 223150272
I0825 22:19:22.224889 16812 layer_factory.cpp:58] Creating layer bn3_1
I0825 22:19:22.224889 16812 net.cpp:84] Creating Layer bn3_1
I0825 22:19:22.224889 16812 net.cpp:406] bn3_1 <- conv3_1
I0825 22:19:22.224889 16812 net.cpp:367] bn3_1 -> conv3_1 (in-place)
I0825 22:19:22.224889 16812 net.cpp:122] Setting up bn3_1
I0825 22:19:22.224889 16812 net.cpp:129] Top shape: 16 192 16 16 (786432)
I0825 22:19:22.224889 16812 net.cpp:137] Memory required for data: 226296000
I0825 22:19:22.224889 16812 layer_factory.cpp:58] Creating layer scale3_1
I0825 22:19:22.224889 16812 net.cpp:84] Creating Layer scale3_1
I0825 22:19:22.224889 16812 net.cpp:406] scale3_1 <- conv3_1
I0825 22:19:22.224889 16812 net.cpp:367] scale3_1 -> conv3_1 (in-place)
I0825 22:19:22.224889 16812 layer_factory.cpp:58] Creating layer scale3_1
I0825 22:19:22.224889 16812 net.cpp:122] Setting up scale3_1
I0825 22:19:22.224889 16812 net.cpp:129] Top shape: 16 192 16 16 (786432)
I0825 22:19:22.224889 16812 net.cpp:137] Memory required for data: 229441728
I0825 22:19:22.224889 16812 layer_factory.cpp:58] Creating layer relu3_1
I0825 22:19:22.224889 16812 net.cpp:84] Creating Layer relu3_1
I0825 22:19:22.224889 16812 net.cpp:406] relu3_1 <- conv3_1
I0825 22:19:22.224889 16812 net.cpp:367] relu3_1 -> conv3_1 (in-place)
I0825 22:19:22.225888 16812 net.cpp:122] Setting up relu3_1
I0825 22:19:22.225888 16812 net.cpp:129] Top shape: 16 192 16 16 (786432)
I0825 22:19:22.225888 16812 net.cpp:137] Memory required for data: 232587456
I0825 22:19:22.225888 16812 layer_factory.cpp:58] Creating layer drop6_1
I0825 22:19:22.225888 16812 net.cpp:84] Creating Layer drop6_1
I0825 22:19:22.225888 16812 net.cpp:406] drop6_1 <- conv3_1
I0825 22:19:22.225888 16812 net.cpp:367] drop6_1 -> conv3_1 (in-place)
I0825 22:19:22.225888 16812 net.cpp:122] Setting up drop6_1
I0825 22:19:22.225888 16812 net.cpp:129] Top shape: 16 192 16 16 (786432)
I0825 22:19:22.225888 16812 net.cpp:137] Memory required for data: 235733184
I0825 22:19:22.225888 16812 layer_factory.cpp:58] Creating layer conv4
I0825 22:19:22.225888 16812 net.cpp:84] Creating Layer conv4
I0825 22:19:22.225888 16812 net.cpp:406] conv4 <- conv3_1
I0825 22:19:22.225888 16812 net.cpp:380] conv4 -> conv4
I0825 22:19:22.228891 16812 net.cpp:122] Setting up conv4
I0825 22:19:22.228891 16812 net.cpp:129] Top shape: 16 192 16 16 (786432)
I0825 22:19:22.228891 16812 net.cpp:137] Memory required for data: 238878912
I0825 22:19:22.228891 16812 layer_factory.cpp:58] Creating layer bn4
I0825 22:19:22.228891 16812 net.cpp:84] Creating Layer bn4
I0825 22:19:22.228891 16812 net.cpp:406] bn4 <- conv4
I0825 22:19:22.228891 16812 net.cpp:367] bn4 -> conv4 (in-place)
I0825 22:19:22.229892 16812 net.cpp:122] Setting up bn4
I0825 22:19:22.229892 16812 net.cpp:129] Top shape: 16 192 16 16 (786432)
I0825 22:19:22.229892 16812 net.cpp:137] Memory required for data: 242024640
I0825 22:19:22.229892 16812 layer_factory.cpp:58] Creating layer scale4
I0825 22:19:22.229892 16812 net.cpp:84] Creating Layer scale4
I0825 22:19:22.229892 16812 net.cpp:406] scale4 <- conv4
I0825 22:19:22.229892 16812 net.cpp:367] scale4 -> conv4 (in-place)
I0825 22:19:22.229892 16812 layer_factory.cpp:58] Creating layer scale4
I0825 22:19:22.229892 16812 net.cpp:122] Setting up scale4
I0825 22:19:22.229892 16812 net.cpp:129] Top shape: 16 192 16 16 (786432)
I0825 22:19:22.229892 16812 net.cpp:137] Memory required for data: 245170368
I0825 22:19:22.229892 16812 layer_factory.cpp:58] Creating layer relu4
I0825 22:19:22.229892 16812 net.cpp:84] Creating Layer relu4
I0825 22:19:22.229892 16812 net.cpp:406] relu4 <- conv4
I0825 22:19:22.229892 16812 net.cpp:367] relu4 -> conv4 (in-place)
I0825 22:19:22.229892 16812 net.cpp:122] Setting up relu4
I0825 22:19:22.229892 16812 net.cpp:129] Top shape: 16 192 16 16 (786432)
I0825 22:19:22.229892 16812 net.cpp:137] Memory required for data: 248316096
I0825 22:19:22.229892 16812 layer_factory.cpp:58] Creating layer drop7
I0825 22:19:22.229892 16812 net.cpp:84] Creating Layer drop7
I0825 22:19:22.229892 16812 net.cpp:406] drop7 <- conv4
I0825 22:19:22.229892 16812 net.cpp:367] drop7 -> conv4 (in-place)
I0825 22:19:22.229892 16812 net.cpp:122] Setting up drop7
I0825 22:19:22.229892 16812 net.cpp:129] Top shape: 16 192 16 16 (786432)
I0825 22:19:22.229892 16812 net.cpp:137] Memory required for data: 251461824
I0825 22:19:22.229892 16812 layer_factory.cpp:58] Creating layer conv4_1
I0825 22:19:22.229892 16812 net.cpp:84] Creating Layer conv4_1
I0825 22:19:22.229892 16812 net.cpp:406] conv4_1 <- conv4
I0825 22:19:22.229892 16812 net.cpp:380] conv4_1 -> conv4_1
I0825 22:19:22.234146 16812 net.cpp:122] Setting up conv4_1
I0825 22:19:22.234146 16812 net.cpp:129] Top shape: 16 192 16 16 (786432)
I0825 22:19:22.234146 16812 net.cpp:137] Memory required for data: 254607552
I0825 22:19:22.234146 16812 layer_factory.cpp:58] Creating layer bn4_1
I0825 22:19:22.234146 16812 net.cpp:84] Creating Layer bn4_1
I0825 22:19:22.234146 16812 net.cpp:406] bn4_1 <- conv4_1
I0825 22:19:22.234146 16812 net.cpp:367] bn4_1 -> conv4_1 (in-place)
I0825 22:19:22.234146 16812 net.cpp:122] Setting up bn4_1
I0825 22:19:22.234146 16812 net.cpp:129] Top shape: 16 192 16 16 (786432)
I0825 22:19:22.234146 16812 net.cpp:137] Memory required for data: 257753280
I0825 22:19:22.234146 16812 layer_factory.cpp:58] Creating layer scale4_1
I0825 22:19:22.234146 16812 net.cpp:84] Creating Layer scale4_1
I0825 22:19:22.234146 16812 net.cpp:406] scale4_1 <- conv4_1
I0825 22:19:22.234146 16812 net.cpp:367] scale4_1 -> conv4_1 (in-place)
I0825 22:19:22.234146 16812 layer_factory.cpp:58] Creating layer scale4_1
I0825 22:19:22.234146 16812 net.cpp:122] Setting up scale4_1
I0825 22:19:22.234146 16812 net.cpp:129] Top shape: 16 192 16 16 (786432)
I0825 22:19:22.234146 16812 net.cpp:137] Memory required for data: 260899008
I0825 22:19:22.234146 16812 layer_factory.cpp:58] Creating layer relu4_1
I0825 22:19:22.234146 16812 net.cpp:84] Creating Layer relu4_1
I0825 22:19:22.234146 16812 net.cpp:406] relu4_1 <- conv4_1
I0825 22:19:22.234146 16812 net.cpp:367] relu4_1 -> conv4_1 (in-place)
I0825 22:19:22.234146 16812 net.cpp:122] Setting up relu4_1
I0825 22:19:22.234146 16812 net.cpp:129] Top shape: 16 192 16 16 (786432)
I0825 22:19:22.234146 16812 net.cpp:137] Memory required for data: 264044736
I0825 22:19:22.234146 16812 layer_factory.cpp:58] Creating layer drop8
I0825 22:19:22.234146 16812 net.cpp:84] Creating Layer drop8
I0825 22:19:22.234146 16812 net.cpp:406] drop8 <- conv4_1
I0825 22:19:22.234146 16812 net.cpp:367] drop8 -> conv4_1 (in-place)
I0825 22:19:22.234146 16812 net.cpp:122] Setting up drop8
I0825 22:19:22.234146 16812 net.cpp:129] Top shape: 16 192 16 16 (786432)
I0825 22:19:22.234146 16812 net.cpp:137] Memory required for data: 267190464
I0825 22:19:22.234146 16812 layer_factory.cpp:58] Creating layer conv4_2
I0825 22:19:22.234146 16812 net.cpp:84] Creating Layer conv4_2
I0825 22:19:22.234146 16812 net.cpp:406] conv4_2 <- conv4_1
I0825 22:19:22.234146 16812 net.cpp:380] conv4_2 -> conv4_2
I0825 22:19:22.239385 16812 net.cpp:122] Setting up conv4_2
I0825 22:19:22.239385 16812 net.cpp:129] Top shape: 16 288 16 16 (1179648)
I0825 22:19:22.239385 16812 net.cpp:137] Memory required for data: 271909056
I0825 22:19:22.239385 16812 layer_factory.cpp:58] Creating layer bn4_2
I0825 22:19:22.239385 16812 net.cpp:84] Creating Layer bn4_2
I0825 22:19:22.239385 16812 net.cpp:406] bn4_2 <- conv4_2
I0825 22:19:22.239385 16812 net.cpp:367] bn4_2 -> conv4_2 (in-place)
I0825 22:19:22.239385 16812 net.cpp:122] Setting up bn4_2
I0825 22:19:22.239385 16812 net.cpp:129] Top shape: 16 288 16 16 (1179648)
I0825 22:19:22.239385 16812 net.cpp:137] Memory required for data: 276627648
I0825 22:19:22.239385 16812 layer_factory.cpp:58] Creating layer scale4_2
I0825 22:19:22.239385 16812 net.cpp:84] Creating Layer scale4_2
I0825 22:19:22.239385 16812 net.cpp:406] scale4_2 <- conv4_2
I0825 22:19:22.239385 16812 net.cpp:367] scale4_2 -> conv4_2 (in-place)
I0825 22:19:22.239385 16812 layer_factory.cpp:58] Creating layer scale4_2
I0825 22:19:22.239385 16812 net.cpp:122] Setting up scale4_2
I0825 22:19:22.239385 16812 net.cpp:129] Top shape: 16 288 16 16 (1179648)
I0825 22:19:22.239385 16812 net.cpp:137] Memory required for data: 281346240
I0825 22:19:22.239385 16812 layer_factory.cpp:58] Creating layer relu4_2
I0825 22:19:22.239385 16812 net.cpp:84] Creating Layer relu4_2
I0825 22:19:22.239385 16812 net.cpp:406] relu4_2 <- conv4_2
I0825 22:19:22.239385 16812 net.cpp:367] relu4_2 -> conv4_2 (in-place)
I0825 22:19:22.239385 16812 net.cpp:122] Setting up relu4_2
I0825 22:19:22.239385 16812 net.cpp:129] Top shape: 16 288 16 16 (1179648)
I0825 22:19:22.239385 16812 net.cpp:137] Memory required for data: 286064832
I0825 22:19:22.239385 16812 layer_factory.cpp:58] Creating layer pool4_2
I0825 22:19:22.239385 16812 net.cpp:84] Creating Layer pool4_2
I0825 22:19:22.239385 16812 net.cpp:406] pool4_2 <- conv4_2
I0825 22:19:22.239385 16812 net.cpp:380] pool4_2 -> pool4_2
I0825 22:19:22.239385 16812 net.cpp:122] Setting up pool4_2
I0825 22:19:22.239385 16812 net.cpp:129] Top shape: 16 288 8 8 (294912)
I0825 22:19:22.239385 16812 net.cpp:137] Memory required for data: 287244480
I0825 22:19:22.239385 16812 layer_factory.cpp:58] Creating layer drop9
I0825 22:19:22.239385 16812 net.cpp:84] Creating Layer drop9
I0825 22:19:22.239385 16812 net.cpp:406] drop9 <- pool4_2
I0825 22:19:22.239385 16812 net.cpp:367] drop9 -> pool4_2 (in-place)
I0825 22:19:22.239385 16812 net.cpp:122] Setting up drop9
I0825 22:19:22.239385 16812 net.cpp:129] Top shape: 16 288 8 8 (294912)
I0825 22:19:22.239385 16812 net.cpp:137] Memory required for data: 288424128
I0825 22:19:22.239385 16812 layer_factory.cpp:58] Creating layer conv4_0
I0825 22:19:22.239385 16812 net.cpp:84] Creating Layer conv4_0
I0825 22:19:22.239385 16812 net.cpp:406] conv4_0 <- pool4_2
I0825 22:19:22.239385 16812 net.cpp:380] conv4_0 -> conv4_0
I0825 22:19:22.246337 16812 net.cpp:122] Setting up conv4_0
I0825 22:19:22.246337 16812 net.cpp:129] Top shape: 16 288 8 8 (294912)
I0825 22:19:22.246337 16812 net.cpp:137] Memory required for data: 289603776
I0825 22:19:22.246337 16812 layer_factory.cpp:58] Creating layer bn4_0
I0825 22:19:22.246337 16812 net.cpp:84] Creating Layer bn4_0
I0825 22:19:22.246337 16812 net.cpp:406] bn4_0 <- conv4_0
I0825 22:19:22.246337 16812 net.cpp:367] bn4_0 -> conv4_0 (in-place)
I0825 22:19:22.246337 16812 net.cpp:122] Setting up bn4_0
I0825 22:19:22.246337 16812 net.cpp:129] Top shape: 16 288 8 8 (294912)
I0825 22:19:22.246337 16812 net.cpp:137] Memory required for data: 290783424
I0825 22:19:22.246337 16812 layer_factory.cpp:58] Creating layer scale4_0
I0825 22:19:22.246337 16812 net.cpp:84] Creating Layer scale4_0
I0825 22:19:22.246337 16812 net.cpp:406] scale4_0 <- conv4_0
I0825 22:19:22.246337 16812 net.cpp:367] scale4_0 -> conv4_0 (in-place)
I0825 22:19:22.246337 16812 layer_factory.cpp:58] Creating layer scale4_0
I0825 22:19:22.246337 16812 net.cpp:122] Setting up scale4_0
I0825 22:19:22.246337 16812 net.cpp:129] Top shape: 16 288 8 8 (294912)
I0825 22:19:22.246337 16812 net.cpp:137] Memory required for data: 291963072
I0825 22:19:22.246337 16812 layer_factory.cpp:58] Creating layer relu4_0
I0825 22:19:22.246337 16812 net.cpp:84] Creating Layer relu4_0
I0825 22:19:22.246337 16812 net.cpp:406] relu4_0 <- conv4_0
I0825 22:19:22.246337 16812 net.cpp:367] relu4_0 -> conv4_0 (in-place)
I0825 22:19:22.247180 16812 net.cpp:122] Setting up relu4_0
I0825 22:19:22.247180 16812 net.cpp:129] Top shape: 16 288 8 8 (294912)
I0825 22:19:22.247180 16812 net.cpp:137] Memory required for data: 293142720
I0825 22:19:22.247180 16812 layer_factory.cpp:58] Creating layer drop10
I0825 22:19:22.247180 16812 net.cpp:84] Creating Layer drop10
I0825 22:19:22.247180 16812 net.cpp:406] drop10 <- conv4_0
I0825 22:19:22.247180 16812 net.cpp:367] drop10 -> conv4_0 (in-place)
I0825 22:19:22.247180 16812 net.cpp:122] Setting up drop10
I0825 22:19:22.247180 16812 net.cpp:129] Top shape: 16 288 8 8 (294912)
I0825 22:19:22.247180 16812 net.cpp:137] Memory required for data: 294322368
I0825 22:19:22.247180 16812 layer_factory.cpp:58] Creating layer conv11
I0825 22:19:22.247180 16812 net.cpp:84] Creating Layer conv11
I0825 22:19:22.247180 16812 net.cpp:406] conv11 <- conv4_0
I0825 22:19:22.247180 16812 net.cpp:380] conv11 -> conv11
I0825 22:19:22.254186 16812 net.cpp:122] Setting up conv11
I0825 22:19:22.255187 16812 net.cpp:129] Top shape: 16 355 8 8 (363520)
I0825 22:19:22.255187 16812 net.cpp:137] Memory required for data: 295776448
I0825 22:19:22.255187 16812 layer_factory.cpp:58] Creating layer bn_conv11
I0825 22:19:22.255187 16812 net.cpp:84] Creating Layer bn_conv11
I0825 22:19:22.255187 16812 net.cpp:406] bn_conv11 <- conv11
I0825 22:19:22.255187 16812 net.cpp:367] bn_conv11 -> conv11 (in-place)
I0825 22:19:22.255187 16812 net.cpp:122] Setting up bn_conv11
I0825 22:19:22.255187 16812 net.cpp:129] Top shape: 16 355 8 8 (363520)
I0825 22:19:22.255187 16812 net.cpp:137] Memory required for data: 297230528
I0825 22:19:22.255187 16812 layer_factory.cpp:58] Creating layer scale_conv11
I0825 22:19:22.255187 16812 net.cpp:84] Creating Layer scale_conv11
I0825 22:19:22.255187 16812 net.cpp:406] scale_conv11 <- conv11
I0825 22:19:22.255187 16812 net.cpp:367] scale_conv11 -> conv11 (in-place)
I0825 22:19:22.255187 16812 layer_factory.cpp:58] Creating layer scale_conv11
I0825 22:19:22.255187 16812 net.cpp:122] Setting up scale_conv11
I0825 22:19:22.255187 16812 net.cpp:129] Top shape: 16 355 8 8 (363520)
I0825 22:19:22.255187 16812 net.cpp:137] Memory required for data: 298684608
I0825 22:19:22.255187 16812 layer_factory.cpp:58] Creating layer relu_conv11
I0825 22:19:22.255187 16812 net.cpp:84] Creating Layer relu_conv11
I0825 22:19:22.255187 16812 net.cpp:406] relu_conv11 <- conv11
I0825 22:19:22.255187 16812 net.cpp:367] relu_conv11 -> conv11 (in-place)
I0825 22:19:22.256187 16812 net.cpp:122] Setting up relu_conv11
I0825 22:19:22.256187 16812 net.cpp:129] Top shape: 16 355 8 8 (363520)
I0825 22:19:22.256187 16812 net.cpp:137] Memory required for data: 300138688
I0825 22:19:22.256187 16812 layer_factory.cpp:58] Creating layer drop11
I0825 22:19:22.256187 16812 net.cpp:84] Creating Layer drop11
I0825 22:19:22.256187 16812 net.cpp:406] drop11 <- conv11
I0825 22:19:22.256187 16812 net.cpp:367] drop11 -> conv11 (in-place)
I0825 22:19:22.256187 16812 net.cpp:122] Setting up drop11
I0825 22:19:22.256187 16812 net.cpp:129] Top shape: 16 355 8 8 (363520)
I0825 22:19:22.256187 16812 net.cpp:137] Memory required for data: 301592768
I0825 22:19:22.256187 16812 layer_factory.cpp:58] Creating layer conv12
I0825 22:19:22.256187 16812 net.cpp:84] Creating Layer conv12
I0825 22:19:22.256187 16812 net.cpp:406] conv12 <- conv11
I0825 22:19:22.256187 16812 net.cpp:380] conv12 -> conv12
I0825 22:19:22.265836 16812 net.cpp:122] Setting up conv12
I0825 22:19:22.265836 16812 net.cpp:129] Top shape: 16 432 8 8 (442368)
I0825 22:19:22.265836 16812 net.cpp:137] Memory required for data: 303362240
I0825 22:19:22.265836 16812 layer_factory.cpp:58] Creating layer bn_conv12
I0825 22:19:22.265836 16812 net.cpp:84] Creating Layer bn_conv12
I0825 22:19:22.265836 16812 net.cpp:406] bn_conv12 <- conv12
I0825 22:19:22.265836 16812 net.cpp:367] bn_conv12 -> conv12 (in-place)
I0825 22:19:22.265836 16812 net.cpp:122] Setting up bn_conv12
I0825 22:19:22.265836 16812 net.cpp:129] Top shape: 16 432 8 8 (442368)
I0825 22:19:22.265836 16812 net.cpp:137] Memory required for data: 305131712
I0825 22:19:22.265836 16812 layer_factory.cpp:58] Creating layer scale_conv12
I0825 22:19:22.265836 16812 net.cpp:84] Creating Layer scale_conv12
I0825 22:19:22.265836 16812 net.cpp:406] scale_conv12 <- conv12
I0825 22:19:22.265836 16812 net.cpp:367] scale_conv12 -> conv12 (in-place)
I0825 22:19:22.265836 16812 layer_factory.cpp:58] Creating layer scale_conv12
I0825 22:19:22.265836 16812 net.cpp:122] Setting up scale_conv12
I0825 22:19:22.265836 16812 net.cpp:129] Top shape: 16 432 8 8 (442368)
I0825 22:19:22.265836 16812 net.cpp:137] Memory required for data: 306901184
I0825 22:19:22.265836 16812 layer_factory.cpp:58] Creating layer relu_conv12
I0825 22:19:22.265836 16812 net.cpp:84] Creating Layer relu_conv12
I0825 22:19:22.265836 16812 net.cpp:406] relu_conv12 <- conv12
I0825 22:19:22.265836 16812 net.cpp:367] relu_conv12 -> conv12 (in-place)
I0825 22:19:22.265836 16812 net.cpp:122] Setting up relu_conv12
I0825 22:19:22.265836 16812 net.cpp:129] Top shape: 16 432 8 8 (442368)
I0825 22:19:22.265836 16812 net.cpp:137] Memory required for data: 308670656
I0825 22:19:22.265836 16812 layer_factory.cpp:58] Creating layer poolcp6
I0825 22:19:22.266835 16812 net.cpp:84] Creating Layer poolcp6
I0825 22:19:22.266835 16812 net.cpp:406] poolcp6 <- conv12
I0825 22:19:22.266835 16812 net.cpp:380] poolcp6 -> poolcp6
I0825 22:19:22.266835 16812 net.cpp:122] Setting up poolcp6
I0825 22:19:22.266835 16812 net.cpp:129] Top shape: 16 432 1 1 (6912)
I0825 22:19:22.266835 16812 net.cpp:137] Memory required for data: 308698304
I0825 22:19:22.266835 16812 layer_factory.cpp:58] Creating layer drop12
I0825 22:19:22.266835 16812 net.cpp:84] Creating Layer drop12
I0825 22:19:22.266835 16812 net.cpp:406] drop12 <- poolcp6
I0825 22:19:22.266835 16812 net.cpp:367] drop12 -> poolcp6 (in-place)
I0825 22:19:22.266835 16812 net.cpp:122] Setting up drop12
I0825 22:19:22.266835 16812 net.cpp:129] Top shape: 16 432 1 1 (6912)
I0825 22:19:22.266835 16812 net.cpp:137] Memory required for data: 308725952
I0825 22:19:22.266835 16812 layer_factory.cpp:58] Creating layer ip1
I0825 22:19:22.266835 16812 net.cpp:84] Creating Layer ip1
I0825 22:19:22.266835 16812 net.cpp:406] ip1 <- poolcp6
I0825 22:19:22.266835 16812 net.cpp:380] ip1 -> ip1
I0825 22:19:22.266835 16812 net.cpp:122] Setting up ip1
I0825 22:19:22.266835 16812 net.cpp:129] Top shape: 16 10 (160)
I0825 22:19:22.266835 16812 net.cpp:137] Memory required for data: 308726592
I0825 22:19:22.266835 16812 layer_factory.cpp:58] Creating layer ip1_ip1_0_split
I0825 22:19:22.266835 16812 net.cpp:84] Creating Layer ip1_ip1_0_split
I0825 22:19:22.266835 16812 net.cpp:406] ip1_ip1_0_split <- ip1
I0825 22:19:22.266835 16812 net.cpp:380] ip1_ip1_0_split -> ip1_ip1_0_split_0
I0825 22:19:22.266835 16812 net.cpp:380] ip1_ip1_0_split -> ip1_ip1_0_split_1
I0825 22:19:22.266835 16812 net.cpp:122] Setting up ip1_ip1_0_split
I0825 22:19:22.266835 16812 net.cpp:129] Top shape: 16 10 (160)
I0825 22:19:22.266835 16812 net.cpp:129] Top shape: 16 10 (160)
I0825 22:19:22.266835 16812 net.cpp:137] Memory required for data: 308727872
I0825 22:19:22.266835 16812 layer_factory.cpp:58] Creating layer accuracy
I0825 22:19:22.266835 16812 net.cpp:84] Creating Layer accuracy
I0825 22:19:22.266835 16812 net.cpp:406] accuracy <- ip1_ip1_0_split_0
I0825 22:19:22.266835 16812 net.cpp:406] accuracy <- label_SVHN_1_split_0
I0825 22:19:22.266835 16812 net.cpp:380] accuracy -> accuracy
…
