…
I0701 08:01:04.250335  6572 net.cpp:294] The NetState phase (0) differed from the phase (1) specified by a rule in layer accuracy
I0701 08:01:04.250335  6572 net.cpp:51] Initializing net from parameters: 
name: "CIFAR10_SimpleNet_13_128k_MiddleLayers_2x2"
state {
  phase: TRAIN
  level: 0
  stage: ""
}
layer {
  name: "cifar"
  type: "Data"
  top: "data"
  top: "label"
  include {
    phase: TRAIN
  }
  transform_param {
    mirror: true
    crop_size: 32
  }
  data_param {
    source: "examples/cifar10/cifar10_train_leveldb_padding"
    batch_size: 100
    backend: LEVELDB
  }
}
layer {
  name: "conv1"
  type: "Convolution"
  bottom: "data"
  top: "conv1"
  param {
    lr_mult: 1
  }
  convolution_param {
    num_output: 20
    bias_term: true
    pad: 1
    kernel_size: 3
    stride: 1
    weight_filler {
      type: "xavier"
    }
  }
}
layer {
  name: "bn1"
  type: "BatchNorm"
  bottom: "conv1"
  top: "conv1"
  param {
    lr_mult: 0
    decay_mult: 0
  }
  param {
    lr_mult: 0
    decay_mult: 0
  }
  param {
    lr_mult: 0
    decay_mult: 0
  }
  include {
    phase: TRAIN
  }
  batch_norm_param {
    use_global_stats: false
    moving_average_fraction: 0.95
  }
}
layer {
  name: "scale1"
  type: "Scale"
  bottom: "conv1"
  top: "conv1"
  scale_param {
    bias_term: true
  }
}
layer {
  name: "relu1"
  type: "ReLU"
  bottom: "conv1"
  top: "conv1"
}
layer {
  name: "conv1_0"
  type: "Convolution"
  bottom: "conv1"
  top: "conv1_0"
  param {
    lr_mult: 1
  }
  convolution_param {
    num_output: 32
    bias_term: true
    pad: 1
    kernel_size: 3
    stride: 1
    weight_filler {
      type: "xavier"
    }
  }
}
layer {
  name: "bn1_0"
  type: "BatchNorm"
  bottom: "conv1_0"
  top: "conv1_0"
  param {
    lr_mult: 0
    decay_mult: 0
  }
  param {
    lr_mult: 0
    decay_mult: 0
  }
  param {
    lr_mult: 0
    decay_mult: 0
  }
  include {
    phase: TRAIN
  }
  batch_norm_param {
    use_global_stats: false
    moving_average_fraction: 0.95
  }
}
layer {
  name: "scale1_0"
  type: "Scale"
  bottom: "conv1_0"
  top: "conv1_0"
  scale_param {
    bias_term: true
  }
}
layer {
  name: "relu1_0"
  type: "ReLU"
  bottom: "conv1_0"
  top: "conv1_0"
}
layer {
  name: "conv2"
  type: "Convolution"
  bottom: "conv1_0"
  top: "conv2"
  param {
    lr_mult: 1
  }
  convolution_param {
    num_output: 33
    bias_term: true
    pad: 1
    kernel_size: 3
    stride: 1
    weight_filler {
      type: "gaussian"
      std: 0.01
    }
  }
}
layer {
  name: "bn2"
  type: "BatchNorm"
  bottom: "conv2"
  top: "conv2"
  param {
    lr_mult: 0
    decay_mult: 0
  }
  param {
    lr_mult: 0
    decay_mult: 0
  }
  param {
    lr_mult: 0
    decay_mult: 0
  }
  include {
    phase: TRAIN
  }
  batch_norm_param {
    use_global_stats: false
    moving_average_fraction: 0.95
  }
}
layer {
  name: "scale2"
  type: "Scale"
  bottom: "conv2"
  top: "conv2"
  scale_param {
    bias_term: true
  }
}
layer {
  name: "relu2"
  type: "ReLU"
  bottom: "conv2"
  top: "conv2"
}
layer {
  name: "conv2_1"
  type: "Convolution"
  bottom: "conv2"
  top: "conv2_1"
  param {
    lr_mult: 1
  }
  convolution_param {
    num_output: 41
    bias_term: true
    kernel_size: 2
    stride: 1
    weight_filler {
      type: "gaussian"
      std: 0.01
    }
  }
}
layer {
  name: "bn2_1"
  type: "BatchNorm"
  bottom: "conv2_1"
  top: "conv2_1"
  param {
    lr_mult: 0
    decay_mult: 0
  }
  param {
    lr_mult: 0
    decay_mult: 0
  }
  param {
    lr_mult: 0
    decay_mult: 0
  }
  include {
    phase: TRAIN
  }
  batch_norm_param {
    use_global_stats: false
    moving_average_fraction: 0.95
  }
}
layer {
  name: "scale2_1"
  type: "Scale"
  bottom: "conv2_1"
  top: "conv2_1"
  scale_param {
    bias_term: true
  }
}
layer {
  name: "relu2_1"
  type: "ReLU"
  bottom: "conv2_1"
  top: "conv2_1"
}
layer {
  name: "conv2_2"
  type: "Convolution"
  bottom: "conv2_1"
  top: "conv2_2"
  param {
    lr_mult: 1
  }
  convolution_param {
    num_output: 41
    bias_term: true
    kernel_size: 2
    stride: 1
    weight_filler {
      type: "gaussian"
      std: 0.01
    }
  }
}
layer {
  name: "bn2_2"
  type: "BatchNorm"
  bottom: "conv2_2"
  top: "conv2_2"
  param {
    lr_mult: 0
    decay_mult: 0
  }
  param {
    lr_mult: 0
    decay_mult: 0
  }
  param {
    lr_mult: 0
    decay_mult: 0
  }
  include {
    phase: TRAIN
  }
  batch_norm_param {
    use_global_stats: false
    moving_average_fraction: 0.95
  }
}
layer {
  name: "scale2_2"
  type: "Scale"
  bottom: "conv2_2"
  top: "conv2_2"
  scale_param {
    bias_term: true
  }
}
layer {
  name: "relu2_2"
  type: "ReLU"
  bottom: "conv2_2"
  top: "conv2_2"
}
layer {
  name: "pool2_1"
  type: "Pooling"
  bottom: "conv2_2"
  top: "pool2_1"
  pooling_param {
    pool: MAX
    kernel_size: 2
    stride: 2
  }
}
layer {
  name: "conv3"
  type: "Convolution"
  bottom: "pool2_1"
  top: "conv3"
  param {
    lr_mult: 1
  }
  convolution_param {
    num_output: 40
    bias_term: true
    kernel_size: 2
    stride: 1
    weight_filler {
      type: "xavier"
    }
  }
}
layer {
  name: "bn3"
  type: "BatchNorm"
  bottom: "conv3"
  top: "conv3"
  param {
    lr_mult: 0
    decay_mult: 0
  }
  param {
    lr_mult: 0
    decay_mult: 0
  }
  param {
    lr_mult: 0
    decay_mult: 0
  }
  include {
    phase: TRAIN
  }
  batch_norm_param {
    use_global_stats: false
    moving_average_fraction: 0.95
  }
}
layer {
  name: "scale3"
  type: "Scale"
  bottom: "conv3"
  top: "conv3"
  scale_param {
    bias_term: true
  }
}
layer {
  name: "relu3"
  type: "ReLU"
  bottom: "conv3"
  top: "conv3"
}
layer {
  name: "conv4"
  type: "Convolution"
  bottom: "conv3"
  top: "conv4"
  param {
    lr_mult: 1
  }
  convolution_param {
    num_output: 40
    bias_term: true
    kernel_size: 2
    stride: 1
    weight_filler {
      type: "xavier"
    }
  }
}
layer {
  name: "bn4"
  type: "BatchNorm"
  bottom: "conv4"
  top: "conv4"
  param {
    lr_mult: 0
    decay_mult: 0
  }
  param {
    lr_mult: 0
    decay_mult: 0
  }
  param {
    lr_mult: 0
    decay_mult: 0
  }
  include {
    phase: TRAIN
  }
  batch_norm_param {
    use_global_stats: false
    moving_average_fraction: 0.95
  }
}
layer {
  name: "scale4"
  type: "Scale"
  bottom: "conv4"
  top: "conv4"
  scale_param {
    bias_term: true
  }
}
layer {
  name: "relu4"
  type: "ReLU"
  bottom: "conv4"
  top: "conv4"
}
layer {
  name: "conv4_1"
  type: "Convolution"
  bottom: "conv4"
  top: "conv4_1"
  param {
    lr_mult: 1
  }
  convolution_param {
    num_output: 40
    bias_term: true
    kernel_size: 2
    stride: 1
    weight_filler {
      type: "xavier"
    }
  }
}
layer {
  name: "bn4_1"
  type: "BatchNorm"
  bottom: "conv4_1"
  top: "conv4_1"
  param {
    lr_mult: 0
    decay_mult: 0
  }
  param {
    lr_mult: 0
    decay_mult: 0
  }
  param {
    lr_mult: 0
    decay_mult: 0
  }
  include {
    phase: TRAIN
  }
  batch_norm_param {
    use_global_stats: false
    moving_average_fraction: 0.95
  }
}
layer {
  name: "scale4_1"
  type: "Scale"
  bottom: "conv4_1"
  top: "conv4_1"
  scale_param {
    bias_term: true
  }
}
layer {
  name: "relu4_1"
  type: "ReLU"
  bottom: "conv4_1"
  top: "conv4_1"
}
layer {
  name: "conv4_2"
  type: "Convolution"
  bottom: "conv4_1"
  top: "conv4_2"
  param {
    lr_mult: 1
  }
  convolution_param {
    num_output: 40
    bias_term: true
    pad: 1
    kernel_size: 3
    stride: 1
    weight_filler {
      type: "xavier"
    }
  }
}
layer {
  name: "bn4_2"
  type: "BatchNorm"
  bottom: "conv4_2"
  top: "conv4_2"
  param {
    lr_mult: 0
    decay_mult: 0
  }
  param {
    lr_mult: 0
    decay_mult: 0
  }
  param {
    lr_mult: 0
    decay_mult: 0
  }
  include {
    phase: TRAIN
  }
  batch_norm_param {
    use_global_stats: false
    moving_average_fraction: 0.95
  }
}
layer {
  name: "scale4_2"
  type: "Scale"
  bottom: "conv4_2"
  top: "conv4_2"
  scale_param {
    bias_term: true
  }
}
layer {
  name: "relu4_2"
  type: "ReLU"
  bottom: "conv4_2"
  top: "conv4_2"
}
layer {
  name: "pool4_12"
  type: "Pooling"
  bottom: "conv4_2"
  top: "pool4_12"
  pooling_param {
    pool: MAX
    kernel_size: 2
    stride: 2
  }
}
layer {
  name: "conv4_0"
  type: "Convolution"
  bottom: "pool4_12"
  top: "conv4_0"
  param {
    lr_mult: 1
  }
  convolution_param {
    num_output: 41
    bias_term: true
    pad: 1
    kernel_size: 3
    stride: 1
    weight_filler {
      type: "xavier"
    }
  }
}
layer {
  name: "bn4_0"
  type: "BatchNorm"
  bottom: "conv4_0"
  top: "conv4_0"
  param {
    lr_mult: 0
    decay_mult: 0
  }
  param {
    lr_mult: 0
    decay_mult: 0
  }
  param {
    lr_mult: 0
    decay_mult: 0
  }
  include {
    phase: TRAIN
  }
  batch_norm_param {
    use_global_stats: false
    moving_average_fraction: 0.95
  }
}
layer {
  name: "scale4_0"
  type: "Scale"
  bottom: "conv4_0"
  top: "conv4_0"
  scale_param {
    bias_term: true
  }
}
layer {
  name: "relu4_0"
  type: "ReLU"
  bottom: "conv4_0"
  top: "conv4_0"
}
layer {
  name: "cccp4"
  type: "Convolution"
  bottom: "conv4_0"
  top: "cccp4"
  param {
    lr_mult: 1
    decay_mult: 1
  }
  param {
    lr_mult: 2
    decay_mult: 0
  }
  convolution_param {
    num_output: 43
    pad: 1
    kernel_size: 3
    weight_filler {
      type: "xavier"
    }
    bias_filler {
      type: "constant"
      value: 0
    }
  }
}
layer {
  name: "bn_cccp4"
  type: "BatchNorm"
  bottom: "cccp4"
  top: "cccp4"
  param {
    lr_mult: 0
    decay_mult: 0
  }
  param {
    lr_mult: 0
    decay_mult: 0
  }
  param {
    lr_mult: 0
    decay_mult: 0
  }
  include {
    phase: TRAIN
  }
  batch_norm_param {
    use_global_stats: false
    moving_average_fraction: 0.95
  }
}
layer {
  name: "scale_cccp4"
  type: "Scale"
  bottom: "cccp4"
  top: "cccp4"
  scale_param {
    bias_term: true
  }
}
layer {
  name: "relu_cccp4"
  type: "ReLU"
  bottom: "cccp4"
  top: "cccp4"
}
layer {
  name: "cccp5"
  type: "Convolution"
  bottom: "cccp4"
  top: "cccp5"
  param {
    lr_mult: 1
    decay_mult: 1
  }
  param {
    lr_mult: 2
    decay_mult: 0
  }
  convolution_param {
    num_output: 44
    pad: 1
    kernel_size: 3
    weight_filler {
      type: "xavier"
    }
    bias_filler {
      type: "constant"
      value: 0
    }
  }
}
layer {
  name: "bn_cccp5"
  type: "BatchNorm"
  bottom: "cccp5"
  top: "cccp5"
  param {
    lr_mult: 0
    decay_mult: 0
  }
  param {
    lr_mult: 0
    decay_mult: 0
  }
  param {
    lr_mult: 0
    decay_mult: 0
  }
  include {
    phase: TRAIN
  }
  batch_norm_param {
    use_global_stats: false
    moving_average_fraction: 0.95
  }
}
layer {
  name: "scale_cccp5"
  type: "Scale"
  bottom: "cccp5"
  top: "cccp5"
  scale_param {
    bias_term: true
  }
}
layer {
  name: "relu_cccp5"
  type: "ReLU"
  bottom: "cccp5"
  top: "cccp5"
}
layer {
  name: "cccp6"
  type: "Convolution"
  bottom: "cccp5"
  top: "cccp6"
  param {
    lr_mult: 1
    decay_mult: 1
  }
  param {
    lr_mult: 2
    decay_mult: 0
  }
  convolution_param {
    num_output: 45
    pad: 1
    kernel_size: 3
    weight_filler {
      type: "xavier"
    }
    bias_filler {
      type: "constant"
      value: 0
    }
  }
}
layer {
  name: "bn_cccp6"
  type: "BatchNorm"
  bottom: "cccp6"
  top: "cccp6"
  param {
    lr_mult: 0
    decay_mult: 0
  }
  param {
    lr_mult: 0
    decay_mult: 0
  }
  param {
    lr_mult: 0
    decay_mult: 0
  }
  include {
    phase: TRAIN
  }
  batch_norm_param {
    use_global_stats: false
    moving_average_fraction: 0.95
  }
}
layer {
  name: "scale_cccp6"
  type: "Scale"
  bottom: "cccp6"
  top: "cccp6"
  scale_param {
    bias_term: true
  }
}
layer {
  name: "relu_cccp6"
  type: "ReLU"
  bottom: "cccp6"
  top: "cccp6"
}
layer {
  name: "poolcp6"
  type: "Pooling"
  bottom: "cccp6"
  top: "poolcp6"
  pooling_param {
    pool: MAX
    global_pooling: true
  }
}
layer {
  name: "ip1"
  type: "InnerProduct"
  bottom: "poolcp6"
  top: "ip1"
  param {
    lr_mult: 1
    decay_mult: 0
  }
  param {
    lr_mult: 2
    decay_mult: 0
  }
  inner_product_param {
    num_output: 10
    weight_filler {
      type: "xavier"
    }
    bias_filler {
      type: "constant"
    }
  }
}
layer {
  name: "accuracy_training"
  type: "Accuracy"
  bottom: "ip1"
  bottom: "label"
  top: "accuracy_training"
  include {
    phase: TRAIN
  }
}
layer {
  name: "loss"
  type: "SoftmaxWithLoss"
  bottom: "ip1"
  bottom: "label"
  top: "loss"
}
I0701 08:01:04.250335  6572 layer_factory.cpp:58] Creating layer cifar
I0701 08:01:04.260336  6572 db_leveldb.cpp:18] Opened leveldb examples/cifar10/cifar10_train_leveldb_padding
I0701 08:01:04.260336  6572 net.cpp:84] Creating Layer cifar
I0701 08:01:04.260336  6572 net.cpp:380] cifar -> data
I0701 08:01:04.260336  6572 net.cpp:380] cifar -> label
I0701 08:01:04.260336  6572 common.cpp:36] System entropy source not available, using fallback algorithm to generate seed instead.
I0701 08:01:04.260336  6572 data_layer.cpp:45] output data size: 100,3,32,32
I0701 08:01:04.270339  6572 net.cpp:122] Setting up cifar
I0701 08:01:04.270339  6572 net.cpp:129] Top shape: 100 3 32 32 (307200)
I0701 08:01:04.270339  6572 net.cpp:129] Top shape: 100 (100)
I0701 08:01:04.270339  6572 net.cpp:137] Memory required for data: 1229200
I0701 08:01:04.270339  6572 layer_factory.cpp:58] Creating layer label_cifar_1_split
I0701 08:01:04.270339  6572 net.cpp:84] Creating Layer label_cifar_1_split
I0701 08:01:04.270339  6572 net.cpp:406] label_cifar_1_split <- label
I0701 08:01:04.270339  6572 net.cpp:380] label_cifar_1_split -> label_cifar_1_split_0
I0701 08:01:04.270339  6572 net.cpp:380] label_cifar_1_split -> label_cifar_1_split_1
I0701 08:01:04.270339  6572 net.cpp:122] Setting up label_cifar_1_split
I0701 08:01:04.270339  6572 net.cpp:129] Top shape: 100 (100)
I0701 08:01:04.270339  6572 net.cpp:129] Top shape: 100 (100)
I0701 08:01:04.270339  6572 net.cpp:137] Memory required for data: 1230000
I0701 08:01:04.270339  6572 layer_factory.cpp:58] Creating layer conv1
I0701 08:01:04.270339  6572 net.cpp:84] Creating Layer conv1
I0701 08:01:04.270339  6572 net.cpp:406] conv1 <- data
I0701 08:01:04.270339  6572 net.cpp:380] conv1 -> conv1
I0701 08:01:04.270339 12612 common.cpp:36] System entropy source not available, using fallback algorithm to generate seed instead.
I0701 08:01:04.500778  6572 net.cpp:122] Setting up conv1
I0701 08:01:04.500778  6572 net.cpp:129] Top shape: 100 20 32 32 (2048000)
I0701 08:01:04.500778  6572 net.cpp:137] Memory required for data: 9422000
I0701 08:01:04.500778  6572 layer_factory.cpp:58] Creating layer bn1
I0701 08:01:04.500778  6572 net.cpp:84] Creating Layer bn1
I0701 08:01:04.500778  6572 net.cpp:406] bn1 <- conv1
I0701 08:01:04.500778  6572 net.cpp:367] bn1 -> conv1 (in-place)
I0701 08:01:04.500778  6572 net.cpp:122] Setting up bn1
I0701 08:01:04.500778  6572 net.cpp:129] Top shape: 100 20 32 32 (2048000)
I0701 08:01:04.500778  6572 net.cpp:137] Memory required for data: 17614000
I0701 08:01:04.500778  6572 layer_factory.cpp:58] Creating layer scale1
I0701 08:01:04.500778  6572 net.cpp:84] Creating Layer scale1
I0701 08:01:04.500778  6572 net.cpp:406] scale1 <- conv1
I0701 08:01:04.500778  6572 net.cpp:367] scale1 -> conv1 (in-place)
I0701 08:01:04.500778  6572 layer_factory.cpp:58] Creating layer scale1
I0701 08:01:04.500778  6572 net.cpp:122] Setting up scale1
I0701 08:01:04.500778  6572 net.cpp:129] Top shape: 100 20 32 32 (2048000)
I0701 08:01:04.500778  6572 net.cpp:137] Memory required for data: 25806000
I0701 08:01:04.500778  6572 layer_factory.cpp:58] Creating layer relu1
I0701 08:01:04.500778  6572 net.cpp:84] Creating Layer relu1
I0701 08:01:04.500778  6572 net.cpp:406] relu1 <- conv1
I0701 08:01:04.500778  6572 net.cpp:367] relu1 -> conv1 (in-place)
I0701 08:01:04.500778  6572 net.cpp:122] Setting up relu1
I0701 08:01:04.500778  6572 net.cpp:129] Top shape: 100 20 32 32 (2048000)
I0701 08:01:04.500778  6572 net.cpp:137] Memory required for data: 33998000
I0701 08:01:04.500778  6572 layer_factory.cpp:58] Creating layer conv1_0
I0701 08:01:04.500778  6572 net.cpp:84] Creating Layer conv1_0
I0701 08:01:04.500778  6572 net.cpp:406] conv1_0 <- conv1
I0701 08:01:04.500778  6572 net.cpp:380] conv1_0 -> conv1_0
I0701 08:01:04.510782  6572 net.cpp:122] Setting up conv1_0
I0701 08:01:04.510782  6572 net.cpp:129] Top shape: 100 32 32 32 (3276800)
I0701 08:01:04.510782  6572 net.cpp:137] Memory required for data: 47105200
I0701 08:01:04.510782  6572 layer_factory.cpp:58] Creating layer bn1_0
I0701 08:01:04.510782  6572 net.cpp:84] Creating Layer bn1_0
I0701 08:01:04.510782  6572 net.cpp:406] bn1_0 <- conv1_0
I0701 08:01:04.510782  6572 net.cpp:367] bn1_0 -> conv1_0 (in-place)
I0701 08:01:04.510782  6572 net.cpp:122] Setting up bn1_0
I0701 08:01:04.510782  6572 net.cpp:129] Top shape: 100 32 32 32 (3276800)
I0701 08:01:04.510782  6572 net.cpp:137] Memory required for data: 60212400
I0701 08:01:04.510782  6572 layer_factory.cpp:58] Creating layer scale1_0
I0701 08:01:04.510782  6572 net.cpp:84] Creating Layer scale1_0
I0701 08:01:04.510782  6572 net.cpp:406] scale1_0 <- conv1_0
I0701 08:01:04.510782  6572 net.cpp:367] scale1_0 -> conv1_0 (in-place)
I0701 08:01:04.510782  6572 layer_factory.cpp:58] Creating layer scale1_0
I0701 08:01:04.510782  6572 net.cpp:122] Setting up scale1_0
I0701 08:01:04.510782  6572 net.cpp:129] Top shape: 100 32 32 32 (3276800)
I0701 08:01:04.510782  6572 net.cpp:137] Memory required for data: 73319600
I0701 08:01:04.510782  6572 layer_factory.cpp:58] Creating layer relu1_0
I0701 08:01:04.510782  6572 net.cpp:84] Creating Layer relu1_0
I0701 08:01:04.510782  6572 net.cpp:406] relu1_0 <- conv1_0
I0701 08:01:04.510782  6572 net.cpp:367] relu1_0 -> conv1_0 (in-place)
I0701 08:01:04.510782  6572 net.cpp:122] Setting up relu1_0
I0701 08:01:04.510782  6572 net.cpp:129] Top shape: 100 32 32 32 (3276800)
I0701 08:01:04.510782  6572 net.cpp:137] Memory required for data: 86426800
I0701 08:01:04.510782  6572 layer_factory.cpp:58] Creating layer conv2
I0701 08:01:04.510782  6572 net.cpp:84] Creating Layer conv2
I0701 08:01:04.510782  6572 net.cpp:406] conv2 <- conv1_0
I0701 08:01:04.510782  6572 net.cpp:380] conv2 -> conv2
I0701 08:01:04.510782  6572 net.cpp:122] Setting up conv2
I0701 08:01:04.510782  6572 net.cpp:129] Top shape: 100 33 32 32 (3379200)
I0701 08:01:04.510782  6572 net.cpp:137] Memory required for data: 99943600
I0701 08:01:04.510782  6572 layer_factory.cpp:58] Creating layer bn2
I0701 08:01:04.510782  6572 net.cpp:84] Creating Layer bn2
I0701 08:01:04.510782  6572 net.cpp:406] bn2 <- conv2
I0701 08:01:04.510782  6572 net.cpp:367] bn2 -> conv2 (in-place)
I0701 08:01:04.510782  6572 net.cpp:122] Setting up bn2
I0701 08:01:04.510782  6572 net.cpp:129] Top shape: 100 33 32 32 (3379200)
I0701 08:01:04.510782  6572 net.cpp:137] Memory required for data: 113460400
I0701 08:01:04.510782  6572 layer_factory.cpp:58] Creating layer scale2
I0701 08:01:04.510782  6572 net.cpp:84] Creating Layer scale2
I0701 08:01:04.510782  6572 net.cpp:406] scale2 <- conv2
I0701 08:01:04.510782  6572 net.cpp:367] scale2 -> conv2 (in-place)
I0701 08:01:04.510782  6572 layer_factory.cpp:58] Creating layer scale2
I0701 08:01:04.510782  6572 net.cpp:122] Setting up scale2
I0701 08:01:04.510782  6572 net.cpp:129] Top shape: 100 33 32 32 (3379200)
I0701 08:01:04.510782  6572 net.cpp:137] Memory required for data: 126977200
I0701 08:01:04.510782  6572 layer_factory.cpp:58] Creating layer relu2
I0701 08:01:04.510782  6572 net.cpp:84] Creating Layer relu2
I0701 08:01:04.510782  6572 net.cpp:406] relu2 <- conv2
I0701 08:01:04.510782  6572 net.cpp:367] relu2 -> conv2 (in-place)
I0701 08:01:04.510782  6572 net.cpp:122] Setting up relu2
I0701 08:01:04.510782  6572 net.cpp:129] Top shape: 100 33 32 32 (3379200)
I0701 08:01:04.510782  6572 net.cpp:137] Memory required for data: 140494000
I0701 08:01:04.510782  6572 layer_factory.cpp:58] Creating layer conv2_1
I0701 08:01:04.510782  6572 net.cpp:84] Creating Layer conv2_1
I0701 08:01:04.510782  6572 net.cpp:406] conv2_1 <- conv2
I0701 08:01:04.510782  6572 net.cpp:380] conv2_1 -> conv2_1
I0701 08:01:04.510782  6572 net.cpp:122] Setting up conv2_1
I0701 08:01:04.510782  6572 net.cpp:129] Top shape: 100 41 31 31 (3940100)
I0701 08:01:04.510782  6572 net.cpp:137] Memory required for data: 156254400
I0701 08:01:04.510782  6572 layer_factory.cpp:58] Creating layer bn2_1
I0701 08:01:04.510782  6572 net.cpp:84] Creating Layer bn2_1
I0701 08:01:04.510782  6572 net.cpp:406] bn2_1 <- conv2_1
I0701 08:01:04.510782  6572 net.cpp:367] bn2_1 -> conv2_1 (in-place)
I0701 08:01:04.510782  6572 net.cpp:122] Setting up bn2_1
I0701 08:01:04.510782  6572 net.cpp:129] Top shape: 100 41 31 31 (3940100)
I0701 08:01:04.510782  6572 net.cpp:137] Memory required for data: 172014800
I0701 08:01:04.510782  6572 layer_factory.cpp:58] Creating layer scale2_1
I0701 08:01:04.510782  6572 net.cpp:84] Creating Layer scale2_1
I0701 08:01:04.510782  6572 net.cpp:406] scale2_1 <- conv2_1
I0701 08:01:04.510782  6572 net.cpp:367] scale2_1 -> conv2_1 (in-place)
I0701 08:01:04.510782  6572 layer_factory.cpp:58] Creating layer scale2_1
I0701 08:01:04.510782  6572 net.cpp:122] Setting up scale2_1
I0701 08:01:04.510782  6572 net.cpp:129] Top shape: 100 41 31 31 (3940100)
I0701 08:01:04.510782  6572 net.cpp:137] Memory required for data: 187775200
I0701 08:01:04.510782  6572 layer_factory.cpp:58] Creating layer relu2_1
I0701 08:01:04.510782  6572 net.cpp:84] Creating Layer relu2_1
I0701 08:01:04.510782  6572 net.cpp:406] relu2_1 <- conv2_1
I0701 08:01:04.510782  6572 net.cpp:367] relu2_1 -> conv2_1 (in-place)
I0701 08:01:04.510782  6572 net.cpp:122] Setting up relu2_1
I0701 08:01:04.510782  6572 net.cpp:129] Top shape: 100 41 31 31 (3940100)
I0701 08:01:04.510782  6572 net.cpp:137] Memory required for data: 203535600
I0701 08:01:04.510782  6572 layer_factory.cpp:58] Creating layer conv2_2
I0701 08:01:04.510782  6572 net.cpp:84] Creating Layer conv2_2
I0701 08:01:04.510782  6572 net.cpp:406] conv2_2 <- conv2_1
I0701 08:01:04.510782  6572 net.cpp:380] conv2_2 -> conv2_2
I0701 08:01:04.510782  6572 net.cpp:122] Setting up conv2_2
I0701 08:01:04.510782  6572 net.cpp:129] Top shape: 100 41 30 30 (3690000)
I0701 08:01:04.510782  6572 net.cpp:137] Memory required for data: 218295600
I0701 08:01:04.510782  6572 layer_factory.cpp:58] Creating layer bn2_2
I0701 08:01:04.510782  6572 net.cpp:84] Creating Layer bn2_2
I0701 08:01:04.510782  6572 net.cpp:406] bn2_2 <- conv2_2
I0701 08:01:04.510782  6572 net.cpp:367] bn2_2 -> conv2_2 (in-place)
I0701 08:01:04.510782  6572 net.cpp:122] Setting up bn2_2
I0701 08:01:04.510782  6572 net.cpp:129] Top shape: 100 41 30 30 (3690000)
I0701 08:01:04.510782  6572 net.cpp:137] Memory required for data: 233055600
I0701 08:01:04.510782  6572 layer_factory.cpp:58] Creating layer scale2_2
I0701 08:01:04.510782  6572 net.cpp:84] Creating Layer scale2_2
I0701 08:01:04.510782  6572 net.cpp:406] scale2_2 <- conv2_2
I0701 08:01:04.510782  6572 net.cpp:367] scale2_2 -> conv2_2 (in-place)
I0701 08:01:04.510782  6572 layer_factory.cpp:58] Creating layer scale2_2
I0701 08:01:04.510782  6572 net.cpp:122] Setting up scale2_2
I0701 08:01:04.510782  6572 net.cpp:129] Top shape: 100 41 30 30 (3690000)
I0701 08:01:04.510782  6572 net.cpp:137] Memory required for data: 247815600
I0701 08:01:04.510782  6572 layer_factory.cpp:58] Creating layer relu2_2
I0701 08:01:04.510782  6572 net.cpp:84] Creating Layer relu2_2
I0701 08:01:04.510782  6572 net.cpp:406] relu2_2 <- conv2_2
I0701 08:01:04.510782  6572 net.cpp:367] relu2_2 -> conv2_2 (in-place)
I0701 08:01:04.510782  6572 net.cpp:122] Setting up relu2_2
I0701 08:01:04.510782  6572 net.cpp:129] Top shape: 100 41 30 30 (3690000)
I0701 08:01:04.510782  6572 net.cpp:137] Memory required for data: 262575600
I0701 08:01:04.510782  6572 layer_factory.cpp:58] Creating layer pool2_1
I0701 08:01:04.510782  6572 net.cpp:84] Creating Layer pool2_1
I0701 08:01:04.510782  6572 net.cpp:406] pool2_1 <- conv2_2
I0701 08:01:04.510782  6572 net.cpp:380] pool2_1 -> pool2_1
I0701 08:01:04.510782  6572 net.cpp:122] Setting up pool2_1
I0701 08:01:04.510782  6572 net.cpp:129] Top shape: 100 41 15 15 (922500)
I0701 08:01:04.510782  6572 net.cpp:137] Memory required for data: 266265600
I0701 08:01:04.510782  6572 layer_factory.cpp:58] Creating layer conv3
I0701 08:01:04.510782  6572 net.cpp:84] Creating Layer conv3
I0701 08:01:04.510782  6572 net.cpp:406] conv3 <- pool2_1
I0701 08:01:04.510782  6572 net.cpp:380] conv3 -> conv3
I0701 08:01:04.510782  6572 net.cpp:122] Setting up conv3
I0701 08:01:04.510782  6572 net.cpp:129] Top shape: 100 40 14 14 (784000)
I0701 08:01:04.510782  6572 net.cpp:137] Memory required for data: 269401600
I0701 08:01:04.510782  6572 layer_factory.cpp:58] Creating layer bn3
I0701 08:01:04.510782  6572 net.cpp:84] Creating Layer bn3
I0701 08:01:04.510782  6572 net.cpp:406] bn3 <- conv3
I0701 08:01:04.510782  6572 net.cpp:367] bn3 -> conv3 (in-place)
I0701 08:01:04.510782  6572 net.cpp:122] Setting up bn3
I0701 08:01:04.510782  6572 net.cpp:129] Top shape: 100 40 14 14 (784000)
I0701 08:01:04.510782  6572 net.cpp:137] Memory required for data: 272537600
I0701 08:01:04.510782  6572 layer_factory.cpp:58] Creating layer scale3
I0701 08:01:04.510782  6572 net.cpp:84] Creating Layer scale3
I0701 08:01:04.510782  6572 net.cpp:406] scale3 <- conv3
I0701 08:01:04.510782  6572 net.cpp:367] scale3 -> conv3 (in-place)
I0701 08:01:04.510782  6572 layer_factory.cpp:58] Creating layer scale3
I0701 08:01:04.510782  6572 net.cpp:122] Setting up scale3
I0701 08:01:04.510782  6572 net.cpp:129] Top shape: 100 40 14 14 (784000)
I0701 08:01:04.510782  6572 net.cpp:137] Memory required for data: 275673600
I0701 08:01:04.510782  6572 layer_factory.cpp:58] Creating layer relu3
I0701 08:01:04.510782  6572 net.cpp:84] Creating Layer relu3
I0701 08:01:04.510782  6572 net.cpp:406] relu3 <- conv3
I0701 08:01:04.510782  6572 net.cpp:367] relu3 -> conv3 (in-place)
I0701 08:01:04.510782  6572 net.cpp:122] Setting up relu3
I0701 08:01:04.510782  6572 net.cpp:129] Top shape: 100 40 14 14 (784000)
I0701 08:01:04.510782  6572 net.cpp:137] Memory required for data: 278809600
I0701 08:01:04.510782  6572 layer_factory.cpp:58] Creating layer conv4
I0701 08:01:04.510782  6572 net.cpp:84] Creating Layer conv4
I0701 08:01:04.510782  6572 net.cpp:406] conv4 <- conv3
I0701 08:01:04.510782  6572 net.cpp:380] conv4 -> conv4
I0701 08:01:04.510782  6572 net.cpp:122] Setting up conv4
I0701 08:01:04.510782  6572 net.cpp:129] Top shape: 100 40 13 13 (676000)
I0701 08:01:04.510782  6572 net.cpp:137] Memory required for data: 281513600
I0701 08:01:04.510782  6572 layer_factory.cpp:58] Creating layer bn4
I0701 08:01:04.510782  6572 net.cpp:84] Creating Layer bn4
I0701 08:01:04.510782  6572 net.cpp:406] bn4 <- conv4
I0701 08:01:04.510782  6572 net.cpp:367] bn4 -> conv4 (in-place)
I0701 08:01:04.510782  6572 net.cpp:122] Setting up bn4
I0701 08:01:04.510782  6572 net.cpp:129] Top shape: 100 40 13 13 (676000)
I0701 08:01:04.510782  6572 net.cpp:137] Memory required for data: 284217600
I0701 08:01:04.510782  6572 layer_factory.cpp:58] Creating layer scale4
I0701 08:01:04.510782  6572 net.cpp:84] Creating Layer scale4
I0701 08:01:04.510782  6572 net.cpp:406] scale4 <- conv4
I0701 08:01:04.510782  6572 net.cpp:367] scale4 -> conv4 (in-place)
I0701 08:01:04.510782  6572 layer_factory.cpp:58] Creating layer scale4
I0701 08:01:04.510782  6572 net.cpp:122] Setting up scale4
I0701 08:01:04.510782  6572 net.cpp:129] Top shape: 100 40 13 13 (676000)
I0701 08:01:04.510782  6572 net.cpp:137] Memory required for data: 286921600
I0701 08:01:04.510782  6572 layer_factory.cpp:58] Creating layer relu4
I0701 08:01:04.510782  6572 net.cpp:84] Creating Layer relu4
I0701 08:01:04.510782  6572 net.cpp:406] relu4 <- conv4
I0701 08:01:04.510782  6572 net.cpp:367] relu4 -> conv4 (in-place)
I0701 08:01:04.510782  6572 net.cpp:122] Setting up relu4
I0701 08:01:04.510782  6572 net.cpp:129] Top shape: 100 40 13 13 (676000)
I0701 08:01:04.510782  6572 net.cpp:137] Memory required for data: 289625600
I0701 08:01:04.510782  6572 layer_factory.cpp:58] Creating layer conv4_1
I0701 08:01:04.510782  6572 net.cpp:84] Creating Layer conv4_1
I0701 08:01:04.510782  6572 net.cpp:406] conv4_1 <- conv4
I0701 08:01:04.520779  6572 net.cpp:380] conv4_1 -> conv4_1
I0701 08:01:04.520779  6572 net.cpp:122] Setting up conv4_1
I0701 08:01:04.520779  6572 net.cpp:129] Top shape: 100 40 12 12 (576000)
I0701 08:01:04.520779  6572 net.cpp:137] Memory required for data: 291929600
I0701 08:01:04.520779  6572 layer_factory.cpp:58] Creating layer bn4_1
I0701 08:01:04.520779  6572 net.cpp:84] Creating Layer bn4_1
I0701 08:01:04.520779  6572 net.cpp:406] bn4_1 <- conv4_1
I0701 08:01:04.520779  6572 net.cpp:367] bn4_1 -> conv4_1 (in-place)
I0701 08:01:04.520779  6572 net.cpp:122] Setting up bn4_1
I0701 08:01:04.520779  6572 net.cpp:129] Top shape: 100 40 12 12 (576000)
I0701 08:01:04.520779  6572 net.cpp:137] Memory required for data: 294233600
I0701 08:01:04.520779  6572 layer_factory.cpp:58] Creating layer scale4_1
I0701 08:01:04.520779  6572 net.cpp:84] Creating Layer scale4_1
I0701 08:01:04.520779  6572 net.cpp:406] scale4_1 <- conv4_1
I0701 08:01:04.520779  6572 net.cpp:367] scale4_1 -> conv4_1 (in-place)
I0701 08:01:04.520779  6572 layer_factory.cpp:58] Creating layer scale4_1
I0701 08:01:04.520779  6572 net.cpp:122] Setting up scale4_1
I0701 08:01:04.520779  6572 net.cpp:129] Top shape: 100 40 12 12 (576000)
I0701 08:01:04.520779  6572 net.cpp:137] Memory required for data: 296537600
I0701 08:01:04.520779  6572 layer_factory.cpp:58] Creating layer relu4_1
I0701 08:01:04.520779  6572 net.cpp:84] Creating Layer relu4_1
I0701 08:01:04.520779  6572 net.cpp:406] relu4_1 <- conv4_1
I0701 08:01:04.520779  6572 net.cpp:367] relu4_1 -> conv4_1 (in-place)
I0701 08:01:04.520779  6572 net.cpp:122] Setting up relu4_1
I0701 08:01:04.520779  6572 net.cpp:129] Top shape: 100 40 12 12 (576000)
I0701 08:01:04.520779  6572 net.cpp:137] Memory required for data: 298841600
I0701 08:01:04.520779  6572 layer_factory.cpp:58] Creating layer conv4_2
I0701 08:01:04.520779  6572 net.cpp:84] Creating Layer conv4_2
I0701 08:01:04.520779  6572 net.cpp:406] conv4_2 <- conv4_1
I0701 08:01:04.520779  6572 net.cpp:380] conv4_2 -> conv4_2
I0701 08:01:04.520779  6572 net.cpp:122] Setting up conv4_2
I0701 08:01:04.520779  6572 net.cpp:129] Top shape: 100 40 12 12 (576000)
I0701 08:01:04.520779  6572 net.cpp:137] Memory required for data: 301145600
I0701 08:01:04.520779  6572 layer_factory.cpp:58] Creating layer bn4_2
I0701 08:01:04.520779  6572 net.cpp:84] Creating Layer bn4_2
I0701 08:01:04.520779  6572 net.cpp:406] bn4_2 <- conv4_2
I0701 08:01:04.520779  6572 net.cpp:367] bn4_2 -> conv4_2 (in-place)
I0701 08:01:04.520779  6572 net.cpp:122] Setting up bn4_2
I0701 08:01:04.520779  6572 net.cpp:129] Top shape: 100 40 12 12 (576000)
I0701 08:01:04.520779  6572 net.cpp:137] Memory required for data: 303449600
I0701 08:01:04.520779  6572 layer_factory.cpp:58] Creating layer scale4_2
I0701 08:01:04.520779  6572 net.cpp:84] Creating Layer scale4_2
I0701 08:01:04.520779  6572 net.cpp:406] scale4_2 <- conv4_2
I0701 08:01:04.520779  6572 net.cpp:367] scale4_2 -> conv4_2 (in-place)
I0701 08:01:04.520779  6572 layer_factory.cpp:58] Creating layer scale4_2
I0701 08:01:04.520779  6572 net.cpp:122] Setting up scale4_2
I0701 08:01:04.520779  6572 net.cpp:129] Top shape: 100 40 12 12 (576000)
I0701 08:01:04.520779  6572 net.cpp:137] Memory required for data: 305753600
I0701 08:01:04.520779  6572 layer_factory.cpp:58] Creating layer relu4_2
I0701 08:01:04.520779  6572 net.cpp:84] Creating Layer relu4_2
I0701 08:01:04.520779  6572 net.cpp:406] relu4_2 <- conv4_2
I0701 08:01:04.520779  6572 net.cpp:367] relu4_2 -> conv4_2 (in-place)
I0701 08:01:04.520779  6572 net.cpp:122] Setting up relu4_2
I0701 08:01:04.520779  6572 net.cpp:129] Top shape: 100 40 12 12 (576000)
I0701 08:01:04.520779  6572 net.cpp:137] Memory required for data: 308057600
I0701 08:01:04.520779  6572 layer_factory.cpp:58] Creating layer pool4_12
I0701 08:01:04.520779  6572 net.cpp:84] Creating Layer pool4_12
I0701 08:01:04.520779  6572 net.cpp:406] pool4_12 <- conv4_2
I0701 08:01:04.520779  6572 net.cpp:380] pool4_12 -> pool4_12
I0701 08:01:04.520779  6572 net.cpp:122] Setting up pool4_12
I0701 08:01:04.520779  6572 net.cpp:129] Top shape: 100 40 6 6 (144000)
I0701 08:01:04.520779  6572 net.cpp:137] Memory required for data: 308633600
I0701 08:01:04.520779  6572 layer_factory.cpp:58] Creating layer conv4_0
I0701 08:01:04.520779  6572 net.cpp:84] Creating Layer conv4_0
I0701 08:01:04.520779  6572 net.cpp:406] conv4_0 <- pool4_12
I0701 08:01:04.520779  6572 net.cpp:380] conv4_0 -> conv4_0
I0701 08:01:04.520779  6572 net.cpp:122] Setting up conv4_0
I0701 08:01:04.520779  6572 net.cpp:129] Top shape: 100 41 6 6 (147600)
I0701 08:01:04.520779  6572 net.cpp:137] Memory required for data: 309224000
I0701 08:01:04.520779  6572 layer_factory.cpp:58] Creating layer bn4_0
I0701 08:01:04.520779  6572 net.cpp:84] Creating Layer bn4_0
I0701 08:01:04.520779  6572 net.cpp:406] bn4_0 <- conv4_0
I0701 08:01:04.520779  6572 net.cpp:367] bn4_0 -> conv4_0 (in-place)
I0701 08:01:04.520779  6572 net.cpp:122] Setting up bn4_0
I0701 08:01:04.520779  6572 net.cpp:129] Top shape: 100 41 6 6 (147600)
I0701 08:01:04.520779  6572 net.cpp:137] Memory required for data: 309814400
I0701 08:01:04.520779  6572 layer_factory.cpp:58] Creating layer scale4_0
I0701 08:01:04.520779  6572 net.cpp:84] Creating Layer scale4_0
I0701 08:01:04.520779  6572 net.cpp:406] scale4_0 <- conv4_0
I0701 08:01:04.520779  6572 net.cpp:367] scale4_0 -> conv4_0 (in-place)
I0701 08:01:04.520779  6572 layer_factory.cpp:58] Creating layer scale4_0
I0701 08:01:04.520779  6572 net.cpp:122] Setting up scale4_0
I0701 08:01:04.520779  6572 net.cpp:129] Top shape: 100 41 6 6 (147600)
I0701 08:01:04.520779  6572 net.cpp:137] Memory required for data: 310404800
I0701 08:01:04.520779  6572 layer_factory.cpp:58] Creating layer relu4_0
I0701 08:01:04.520779  6572 net.cpp:84] Creating Layer relu4_0
I0701 08:01:04.520779  6572 net.cpp:406] relu4_0 <- conv4_0
I0701 08:01:04.520779  6572 net.cpp:367] relu4_0 -> conv4_0 (in-place)
I0701 08:01:04.520779  6572 net.cpp:122] Setting up relu4_0
I0701 08:01:04.520779  6572 net.cpp:129] Top shape: 100 41 6 6 (147600)
I0701 08:01:04.520779  6572 net.cpp:137] Memory required for data: 310995200
I0701 08:01:04.520779  6572 layer_factory.cpp:58] Creating layer cccp4
I0701 08:01:04.520779  6572 net.cpp:84] Creating Layer cccp4
I0701 08:01:04.520779  6572 net.cpp:406] cccp4 <- conv4_0
I0701 08:01:04.520779  6572 net.cpp:380] cccp4 -> cccp4
I0701 08:01:04.520779  6572 net.cpp:122] Setting up cccp4
I0701 08:01:04.520779  6572 net.cpp:129] Top shape: 100 43 6 6 (154800)
I0701 08:01:04.520779  6572 net.cpp:137] Memory required for data: 311614400
I0701 08:01:04.520779  6572 layer_factory.cpp:58] Creating layer bn_cccp4
I0701 08:01:04.520779  6572 net.cpp:84] Creating Layer bn_cccp4
I0701 08:01:04.520779  6572 net.cpp:406] bn_cccp4 <- cccp4
I0701 08:01:04.520779  6572 net.cpp:367] bn_cccp4 -> cccp4 (in-place)
I0701 08:01:04.520779  6572 net.cpp:122] Setting up bn_cccp4
I0701 08:01:04.520779  6572 net.cpp:129] Top shape: 100 43 6 6 (154800)
I0701 08:01:04.520779  6572 net.cpp:137] Memory required for data: 312233600
I0701 08:01:04.520779  6572 layer_factory.cpp:58] Creating layer scale_cccp4
I0701 08:01:04.520779  6572 net.cpp:84] Creating Layer scale_cccp4
I0701 08:01:04.520779  6572 net.cpp:406] scale_cccp4 <- cccp4
I0701 08:01:04.520779  6572 net.cpp:367] scale_cccp4 -> cccp4 (in-place)
I0701 08:01:04.520779  6572 layer_factory.cpp:58] Creating layer scale_cccp4
I0701 08:01:04.520779  6572 net.cpp:122] Setting up scale_cccp4
I0701 08:01:04.520779  6572 net.cpp:129] Top shape: 100 43 6 6 (154800)
I0701 08:01:04.520779  6572 net.cpp:137] Memory required for data: 312852800
I0701 08:01:04.520779  6572 layer_factory.cpp:58] Creating layer relu_cccp4
I0701 08:01:04.520779  6572 net.cpp:84] Creating Layer relu_cccp4
I0701 08:01:04.520779  6572 net.cpp:406] relu_cccp4 <- cccp4
I0701 08:01:04.520779  6572 net.cpp:367] relu_cccp4 -> cccp4 (in-place)
I0701 08:01:04.520779  6572 net.cpp:122] Setting up relu_cccp4
I0701 08:01:04.520779  6572 net.cpp:129] Top shape: 100 43 6 6 (154800)
I0701 08:01:04.520779  6572 net.cpp:137] Memory required for data: 313472000
I0701 08:01:04.520779  6572 layer_factory.cpp:58] Creating layer cccp5
I0701 08:01:04.520779  6572 net.cpp:84] Creating Layer cccp5
I0701 08:01:04.520779  6572 net.cpp:406] cccp5 <- cccp4
I0701 08:01:04.520779  6572 net.cpp:380] cccp5 -> cccp5
I0701 08:01:04.520779  6572 net.cpp:122] Setting up cccp5
I0701 08:01:04.520779  6572 net.cpp:129] Top shape: 100 44 6 6 (158400)
I0701 08:01:04.520779  6572 net.cpp:137] Memory required for data: 314105600
I0701 08:01:04.520779  6572 layer_factory.cpp:58] Creating layer bn_cccp5
I0701 08:01:04.520779  6572 net.cpp:84] Creating Layer bn_cccp5
I0701 08:01:04.520779  6572 net.cpp:406] bn_cccp5 <- cccp5
I0701 08:01:04.520779  6572 net.cpp:367] bn_cccp5 -> cccp5 (in-place)
I0701 08:01:04.520779  6572 net.cpp:122] Setting up bn_cccp5
I0701 08:01:04.520779  6572 net.cpp:129] Top shape: 100 44 6 6 (158400)
I0701 08:01:04.520779  6572 net.cpp:137] Memory required for data: 314739200
I0701 08:01:04.520779  6572 layer_factory.cpp:58] Creating layer scale_cccp5
I0701 08:01:04.520779  6572 net.cpp:84] Creating Layer scale_cccp5
I0701 08:01:04.520779  6572 net.cpp:406] scale_cccp5 <- cccp5
I0701 08:01:04.520779  6572 net.cpp:367] scale_cccp5 -> cccp5 (in-place)
I0701 08:01:04.520779  6572 layer_factory.cpp:58] Creating layer scale_cccp5
I0701 08:01:04.520779  6572 net.cpp:122] Setting up scale_cccp5
I0701 08:01:04.520779  6572 net.cpp:129] Top shape: 100 44 6 6 (158400)
I0701 08:01:04.520779  6572 net.cpp:137] Memory required for data: 315372800
I0701 08:01:04.520779  6572 layer_factory.cpp:58] Creating layer relu_cccp5
I0701 08:01:04.520779  6572 net.cpp:84] Creating Layer relu_cccp5
I0701 08:01:04.520779  6572 net.cpp:406] relu_cccp5 <- cccp5
I0701 08:01:04.520779  6572 net.cpp:367] relu_cccp5 -> cccp5 (in-place)
I0701 08:01:04.520779  6572 net.cpp:122] Setting up relu_cccp5
I0701 08:01:04.520779  6572 net.cpp:129] Top shape: 100 44 6 6 (158400)
I0701 08:01:04.520779  6572 net.cpp:137] Memory required for data: 316006400
I0701 08:01:04.520779  6572 layer_factory.cpp:58] Creating layer cccp6
I0701 08:01:04.520779  6572 net.cpp:84] Creating Layer cccp6
I0701 08:01:04.520779  6572 net.cpp:406] cccp6 <- cccp5
I0701 08:01:04.520779  6572 net.cpp:380] cccp6 -> cccp6
I0701 08:01:04.530781  6572 net.cpp:122] Setting up cccp6
I0701 08:01:04.530781  6572 net.cpp:129] Top shape: 100 45 6 6 (162000)
I0701 08:01:04.530781  6572 net.cpp:137] Memory required for data: 316654400
I0701 08:01:04.530781  6572 layer_factory.cpp:58] Creating layer bn_cccp6
I0701 08:01:04.530781  6572 net.cpp:84] Creating Layer bn_cccp6
I0701 08:01:04.530781  6572 net.cpp:406] bn_cccp6 <- cccp6
I0701 08:01:04.530781  6572 net.cpp:367] bn_cccp6 -> cccp6 (in-place)
I0701 08:01:04.530781  6572 net.cpp:122] Setting up bn_cccp6
I0701 08:01:04.530781  6572 net.cpp:129] Top shape: 100 45 6 6 (162000)
I0701 08:01:04.530781  6572 net.cpp:137] Memory required for data: 317302400
I0701 08:01:04.530781  6572 layer_factory.cpp:58] Creating layer scale_cccp6
I0701 08:01:04.530781  6572 net.cpp:84] Creating Layer scale_cccp6
I0701 08:01:04.530781  6572 net.cpp:406] scale_cccp6 <- cccp6
I0701 08:01:04.530781  6572 net.cpp:367] scale_cccp6 -> cccp6 (in-place)
I0701 08:01:04.530781  6572 layer_factory.cpp:58] Creating layer scale_cccp6
I0701 08:01:04.530781  6572 net.cpp:122] Setting up scale_cccp6
I0701 08:01:04.530781  6572 net.cpp:129] Top shape: 100 45 6 6 (162000)
I0701 08:01:04.530781  6572 net.cpp:137] Memory required for data: 317950400
I0701 08:01:04.530781  6572 layer_factory.cpp:58] Creating layer relu_cccp6
I0701 08:01:04.530781  6572 net.cpp:84] Creating Layer relu_cccp6
I0701 08:01:04.530781  6572 net.cpp:406] relu_cccp6 <- cccp6
I0701 08:01:04.530781  6572 net.cpp:367] relu_cccp6 -> cccp6 (in-place)
I0701 08:01:04.530781  6572 net.cpp:122] Setting up relu_cccp6
I0701 08:01:04.530781  6572 net.cpp:129] Top shape: 100 45 6 6 (162000)
I0701 08:01:04.530781  6572 net.cpp:137] Memory required for data: 318598400
I0701 08:01:04.530781  6572 layer_factory.cpp:58] Creating layer poolcp6
I0701 08:01:04.530781  6572 net.cpp:84] Creating Layer poolcp6
I0701 08:01:04.530781  6572 net.cpp:406] poolcp6 <- cccp6
I0701 08:01:04.530781  6572 net.cpp:380] poolcp6 -> poolcp6
I0701 08:01:04.530781  6572 net.cpp:122] Setting up poolcp6
I0701 08:01:04.530781  6572 net.cpp:129] Top shape: 100 45 1 1 (4500)
I0701 08:01:04.530781  6572 net.cpp:137] Memory required for data: 318616400
I0701 08:01:04.530781  6572 layer_factory.cpp:58] Creating layer ip1
I0701 08:01:04.530781  6572 net.cpp:84] Creating Layer ip1
I0701 08:01:04.530781  6572 net.cpp:406] ip1 <- poolcp6
I0701 08:01:04.530781  6572 net.cpp:380] ip1 -> ip1
I0701 08:01:04.530781  6572 net.cpp:122] Setting up ip1
I0701 08:01:04.530781  6572 net.cpp:129] Top shape: 100 10 (1000)
I0701 08:01:04.530781  6572 net.cpp:137] Memory required for data: 318620400
I0701 08:01:04.530781  6572 layer_factory.cpp:58] Creating layer ip1_ip1_0_split
I0701 08:01:04.530781  6572 net.cpp:84] Creating Layer ip1_ip1_0_split
I0701 08:01:04.530781  6572 net.cpp:406] ip1_ip1_0_split <- ip1
I0701 08:01:04.530781  6572 net.cpp:380] ip1_ip1_0_split -> ip1_ip1_0_split_0
I0701 08:01:04.530781  6572 net.cpp:380] ip1_ip1_0_split -> ip1_ip1_0_split_1
I0701 08:01:04.530781  6572 net.cpp:122] Setting up ip1_ip1_0_split
I0701 08:01:04.530781  6572 net.cpp:129] Top shape: 100 10 (1000)
I0701 08:01:04.530781  6572 net.cpp:129] Top shape: 100 10 (1000)
I0701 08:01:04.530781  6572 net.cpp:137] Memory required for data: 318628400
I0701 08:01:04.530781  6572 layer_factory.cpp:58] Creating layer accuracy_training
I0701 08:01:04.530781  6572 net.cpp:84] Creating Layer accuracy_training
I0701 08:01:04.530781  6572 net.cpp:406] accuracy_training <- ip1_ip1_0_split_0
I0701 08:01:04.530781  6572 net.cpp:406] accuracy_training <- label_cifar_1_split_0
…
