…
I0626 09:37:21.983853  3628 net.cpp:294] The NetState phase (0) differed from the phase (1) specified by a rule in layer accuracy
I0626 09:37:21.983853  3628 net.cpp:51] Initializing net from parameters: 
name: "CIFAR10_SimpleNet"
state {
  phase: TRAIN
  level: 0
  stage: ""
}
layer {
  name: "cifar"
  type: "Data"
  top: "data"
  top: "label"
  include {
    phase: TRAIN
  }
  transform_param {
    mirror: true
    crop_size: 32
  }
  data_param {
    source: "examples/cifar10/cifar10_train_leveldb_padding"
    batch_size: 100
    backend: LEVELDB
  }
}
layer {
  name: "conv1"
  type: "Convolution"
  bottom: "data"
  top: "conv1"
  param {
    lr_mult: 1
  }
  convolution_param {
    num_output: 32
    bias_term: true
    pad: 1
    kernel_size: 3
    stride: 1
    weight_filler {
      type: "xavier"
    }
  }
}
layer {
  name: "bn1"
  type: "BatchNorm"
  bottom: "conv1"
  top: "bn1"
  param {
    lr_mult: 0
    decay_mult: 0
  }
  param {
    lr_mult: 0
    decay_mult: 0
  }
  param {
    lr_mult: 0
    decay_mult: 0
  }
  include {
    phase: TRAIN
  }
  batch_norm_param {
    use_global_stats: false
    moving_average_fraction: 0.95
  }
}
layer {
  name: "scale1"
  type: "Scale"
  bottom: "bn1"
  top: "scale1"
  scale_param {
    bias_term: true
  }
}
layer {
  name: "relu1"
  type: "ReLU"
  bottom: "scale1"
  top: "relu1"
}
layer {
  name: "conv1_0"
  type: "Convolution"
  bottom: "relu1"
  top: "conv1_0"
  param {
    lr_mult: 1
  }
  convolution_param {
    num_output: 48
    bias_term: true
    pad: 1
    kernel_size: 3
    stride: 1
    weight_filler {
      type: "xavier"
    }
  }
}
layer {
  name: "bn1_0"
  type: "BatchNorm"
  bottom: "conv1_0"
  top: "bn1_0"
  param {
    lr_mult: 0
    decay_mult: 0
  }
  param {
    lr_mult: 0
    decay_mult: 0
  }
  param {
    lr_mult: 0
    decay_mult: 0
  }
  include {
    phase: TRAIN
  }
  batch_norm_param {
    use_global_stats: false
    moving_average_fraction: 0.95
  }
}
layer {
  name: "scale1_0"
  type: "Scale"
  bottom: "bn1_0"
  top: "scale1_0"
  scale_param {
    bias_term: true
  }
}
layer {
  name: "relu1_0"
  type: "ReLU"
  bottom: "scale1_0"
  top: "relu1_0"
}
layer {
  name: "conv2"
  type: "Convolution"
  bottom: "relu1_0"
  top: "conv2"
  param {
    lr_mult: 1
  }
  convolution_param {
    num_output: 48
    bias_term: true
    pad: 1
    kernel_size: 3
    stride: 1
    weight_filler {
      type: "gaussian"
      std: 0.01
    }
  }
}
layer {
  name: "bn2"
  type: "BatchNorm"
  bottom: "conv2"
  top: "bn2"
  param {
    lr_mult: 0
    decay_mult: 0
  }
  param {
    lr_mult: 0
    decay_mult: 0
  }
  param {
    lr_mult: 0
    decay_mult: 0
  }
  include {
    phase: TRAIN
  }
  batch_norm_param {
    use_global_stats: false
    moving_average_fraction: 0.95
  }
}
layer {
  name: "scale2"
  type: "Scale"
  bottom: "bn2"
  top: "scale2"
  scale_param {
    bias_term: true
  }
}
layer {
  name: "relu2"
  type: "ReLU"
  bottom: "scale2"
  top: "relu2"
}
layer {
  name: "conv2_1"
  type: "Convolution"
  bottom: "relu2"
  top: "conv2_1"
  param {
    lr_mult: 1
  }
  convolution_param {
    num_output: 96
    bias_term: true
    pad: 1
    kernel_size: 3
    stride: 1
    weight_filler {
      type: "gaussian"
      std: 0.01
    }
  }
}
layer {
  name: "bn2_1"
  type: "BatchNorm"
  bottom: "conv2_1"
  top: "bn2_1"
  param {
    lr_mult: 0
    decay_mult: 0
  }
  param {
    lr_mult: 0
    decay_mult: 0
  }
  param {
    lr_mult: 0
    decay_mult: 0
  }
  include {
    phase: TRAIN
  }
  batch_norm_param {
    use_global_stats: false
    moving_average_fraction: 0.95
  }
}
layer {
  name: "scale2_1"
  type: "Scale"
  bottom: "bn2_1"
  top: "scale2_1"
  scale_param {
    bias_term: true
  }
}
layer {
  name: "relu2_1"
  type: "ReLU"
  bottom: "scale2_1"
  top: "relu2_1"
}
layer {
  name: "pool2_1"
  type: "Pooling"
  bottom: "relu2_1"
  top: "pool2_1"
  pooling_param {
    pool: MAX
    kernel_size: 2
    stride: 2
  }
}
layer {
  name: "conv2_2"
  type: "Convolution"
  bottom: "pool2_1"
  top: "conv2_2"
  param {
    lr_mult: 1
  }
  convolution_param {
    num_output: 96
    bias_term: true
    pad: 1
    kernel_size: 3
    stride: 1
    weight_filler {
      type: "gaussian"
      std: 0.01
    }
  }
}
layer {
  name: "bn2_2"
  type: "BatchNorm"
  bottom: "conv2_2"
  top: "bn2_2"
  param {
    lr_mult: 0
    decay_mult: 0
  }
  param {
    lr_mult: 0
    decay_mult: 0
  }
  param {
    lr_mult: 0
    decay_mult: 0
  }
  include {
    phase: TRAIN
  }
  batch_norm_param {
    use_global_stats: false
    moving_average_fraction: 0.95
  }
}
layer {
  name: "scale2_2"
  type: "Scale"
  bottom: "bn2_2"
  top: "scale2_2"
  scale_param {
    bias_term: true
  }
}
layer {
  name: "relu2_2"
  type: "ReLU"
  bottom: "scale2_2"
  top: "relu2_2"
}
layer {
  name: "conv3"
  type: "Convolution"
  bottom: "relu2_2"
  top: "conv3"
  param {
    lr_mult: 1
  }
  convolution_param {
    num_output: 96
    bias_term: true
    pad: 1
    kernel_size: 3
    stride: 1
    weight_filler {
      type: "xavier"
    }
  }
}
layer {
  name: "bn3"
  type: "BatchNorm"
  bottom: "conv3"
  top: "bn3"
  param {
    lr_mult: 0
    decay_mult: 0
  }
  param {
    lr_mult: 0
    decay_mult: 0
  }
  param {
    lr_mult: 0
    decay_mult: 0
  }
  include {
    phase: TRAIN
  }
  batch_norm_param {
    use_global_stats: false
    moving_average_fraction: 0.95
  }
}
layer {
  name: "scale3"
  type: "Scale"
  bottom: "bn3"
  top: "scale3"
  scale_param {
    bias_term: true
  }
}
layer {
  name: "relu3"
  type: "ReLU"
  bottom: "scale3"
  top: "relu3"
}
layer {
  name: "conv4"
  type: "Convolution"
  bottom: "relu3"
  top: "conv4"
  param {
    lr_mult: 1
  }
  convolution_param {
    num_output: 96
    bias_term: true
    pad: 1
    kernel_size: 3
    stride: 1
    weight_filler {
      type: "xavier"
    }
  }
}
layer {
  name: "pool4"
  type: "Pooling"
  bottom: "conv4"
  top: "pool4"
  pooling_param {
    pool: MAX
    kernel_size: 2
    stride: 2
  }
}
layer {
  name: "bn4"
  type: "BatchNorm"
  bottom: "pool4"
  top: "bn4"
  param {
    lr_mult: 0
    decay_mult: 0
  }
  param {
    lr_mult: 0
    decay_mult: 0
  }
  param {
    lr_mult: 0
    decay_mult: 0
  }
  include {
    phase: TRAIN
  }
  batch_norm_param {
    use_global_stats: false
    moving_average_fraction: 0.95
  }
}
layer {
  name: "scale4"
  type: "Scale"
  bottom: "bn4"
  top: "scale4"
  scale_param {
    bias_term: true
  }
}
layer {
  name: "relu4"
  type: "ReLU"
  bottom: "scale4"
  top: "relu4"
}
layer {
  name: "conv4_1"
  type: "Convolution"
  bottom: "relu4"
  top: "conv4_1"
  param {
    lr_mult: 1
  }
  convolution_param {
    num_output: 96
    bias_term: true
    pad: 1
    kernel_size: 3
    stride: 1
    weight_filler {
      type: "xavier"
    }
  }
}
layer {
  name: "bn4_1"
  type: "BatchNorm"
  bottom: "conv4_1"
  top: "bn4_1"
  param {
    lr_mult: 0
    decay_mult: 0
  }
  param {
    lr_mult: 0
    decay_mult: 0
  }
  param {
    lr_mult: 0
    decay_mult: 0
  }
  include {
    phase: TRAIN
  }
  batch_norm_param {
    use_global_stats: false
    moving_average_fraction: 0.95
  }
}
layer {
  name: "scale4_1"
  type: "Scale"
  bottom: "bn4_1"
  top: "scale4_1"
  scale_param {
    bias_term: true
  }
}
layer {
  name: "relu4_1"
  type: "ReLU"
  bottom: "scale4_1"
  top: "relu4_1"
}
layer {
  name: "conv4_2"
  type: "Convolution"
  bottom: "relu4_1"
  top: "conv4_2"
  param {
    lr_mult: 1
  }
  convolution_param {
    num_output: 96
    bias_term: true
    pad: 1
    kernel_size: 3
    stride: 1
    weight_filler {
      type: "xavier"
    }
  }
}
layer {
  name: "bn4_2"
  type: "BatchNorm"
  bottom: "conv4_2"
  top: "bn4_2"
  param {
    lr_mult: 0
    decay_mult: 0
  }
  param {
    lr_mult: 0
    decay_mult: 0
  }
  param {
    lr_mult: 0
    decay_mult: 0
  }
  include {
    phase: TRAIN
  }
  batch_norm_param {
    use_global_stats: false
    moving_average_fraction: 0.95
  }
}
layer {
  name: "scale4_2"
  type: "Scale"
  bottom: "bn4_2"
  top: "scale4_2"
  scale_param {
    bias_term: true
  }
}
layer {
  name: "relu4_2"
  type: "ReLU"
  bottom: "scale4_2"
  top: "relu4_2"
}
layer {
  name: "pool4_2"
  type: "Pooling"
  bottom: "relu4_2"
  top: "pool4_2"
  pooling_param {
    pool: MAX
    kernel_size: 2
    stride: 2
  }
}
layer {
  name: "conv4_0"
  type: "Convolution"
  bottom: "pool4_2"
  top: "conv4_0"
  param {
    lr_mult: 1
  }
  convolution_param {
    num_output: 96
    bias_term: true
    pad: 1
    kernel_size: 3
    stride: 1
    weight_filler {
      type: "xavier"
    }
  }
}
layer {
  name: "bn4_0"
  type: "BatchNorm"
  bottom: "conv4_0"
  top: "bn4_0"
  param {
    lr_mult: 0
    decay_mult: 0
  }
  param {
    lr_mult: 0
    decay_mult: 0
  }
  param {
    lr_mult: 0
    decay_mult: 0
  }
  include {
    phase: TRAIN
  }
  batch_norm_param {
    use_global_stats: false
    moving_average_fraction: 0.95
  }
}
layer {
  name: "scale4_0"
  type: "Scale"
  bottom: "bn4_0"
  top: "scale4_0"
  scale_param {
    bias_term: true
  }
}
layer {
  name: "relu4_0"
  type: "ReLU"
  bottom: "scale4_0"
  top: "relu4_0"
}
layer {
  name: "poolcp6"
  type: "Pooling"
  bottom: "relu4_0"
  top: "poolcp6"
  pooling_param {
    pool: MAX
    global_pooling: true
  }
}
layer {
  name: "ip1"
  type: "InnerProduct"
  bottom: "poolcp6"
  top: "ip1"
  param {
    lr_mult: 1
    decay_mult: 0
  }
  param {
    lr_mult: 2
    decay_mult: 0
  }
  inner_product_param {
    num_output: 10
    weight_filler {
      type: "xavier"
    }
    bias_filler {
      type: "constant"
    }
  }
}
layer {
  name: "accuracy_training"
  type: "Accuracy"
  bottom: "ip1"
  bottom: "label"
  top: "accuracy_training"
  include {
    phase: TRAIN
  }
}
layer {
  name: "loss"
  type: "SoftmaxWithLoss"
  bottom: "ip1"
  bottom: "label"
  top: "loss"
}
I0626 09:37:21.984853  3628 layer_factory.cpp:58] Creating layer cifar
I0626 09:37:21.993365  3628 db_leveldb.cpp:18] Opened leveldb examples/cifar10/cifar10_train_leveldb_padding
I0626 09:37:21.993866  3628 net.cpp:84] Creating Layer cifar
I0626 09:37:21.993866  3628 net.cpp:380] cifar -> data
I0626 09:37:21.993866  3628 net.cpp:380] cifar -> label
I0626 09:37:21.993866  3628 common.cpp:36] System entropy source not available, using fallback algorithm to generate seed instead.
I0626 09:37:21.994868  3628 data_layer.cpp:45] output data size: 100,3,32,32
I0626 09:37:22.000370  3628 net.cpp:122] Setting up cifar
I0626 09:37:22.000370  3628 net.cpp:129] Top shape: 100 3 32 32 (307200)
I0626 09:37:22.000370  3628 net.cpp:129] Top shape: 100 (100)
I0626 09:37:22.000370  3628 net.cpp:137] Memory required for data: 1229200
I0626 09:37:22.000370  3628 layer_factory.cpp:58] Creating layer label_cifar_1_split
I0626 09:37:22.000370  3628 net.cpp:84] Creating Layer label_cifar_1_split
I0626 09:37:22.000370  3628 net.cpp:406] label_cifar_1_split <- label
I0626 09:37:22.000370  3628 net.cpp:380] label_cifar_1_split -> label_cifar_1_split_0
I0626 09:37:22.000370  3628 net.cpp:380] label_cifar_1_split -> label_cifar_1_split_1
I0626 09:37:22.000370  3628 net.cpp:122] Setting up label_cifar_1_split
I0626 09:37:22.000370  3628 net.cpp:129] Top shape: 100 (100)
I0626 09:37:22.000370  3628 net.cpp:129] Top shape: 100 (100)
I0626 09:37:22.000370  3628 net.cpp:137] Memory required for data: 1230000
I0626 09:37:22.000370  3628 layer_factory.cpp:58] Creating layer conv1
I0626 09:37:22.000370  3628 net.cpp:84] Creating Layer conv1
I0626 09:37:22.000370  3628 net.cpp:406] conv1 <- data
I0626 09:37:22.000370  3628 net.cpp:380] conv1 -> conv1
I0626 09:37:22.001372 18376 common.cpp:36] System entropy source not available, using fallback algorithm to generate seed instead.
I0626 09:37:22.237277  3628 net.cpp:122] Setting up conv1
I0626 09:37:22.237277  3628 net.cpp:129] Top shape: 100 32 32 32 (3276800)
I0626 09:37:22.237277  3628 net.cpp:137] Memory required for data: 14337200
I0626 09:37:22.237277  3628 layer_factory.cpp:58] Creating layer bn1
I0626 09:37:22.237277  3628 net.cpp:84] Creating Layer bn1
I0626 09:37:22.237277  3628 net.cpp:406] bn1 <- conv1
I0626 09:37:22.237277  3628 net.cpp:380] bn1 -> bn1
I0626 09:37:22.237277  3628 net.cpp:122] Setting up bn1
I0626 09:37:22.237277  3628 net.cpp:129] Top shape: 100 32 32 32 (3276800)
I0626 09:37:22.238278  3628 net.cpp:137] Memory required for data: 27444400
I0626 09:37:22.238278  3628 layer_factory.cpp:58] Creating layer scale1
I0626 09:37:22.238278  3628 net.cpp:84] Creating Layer scale1
I0626 09:37:22.238278  3628 net.cpp:406] scale1 <- bn1
I0626 09:37:22.238278  3628 net.cpp:380] scale1 -> scale1
I0626 09:37:22.238278  3628 layer_factory.cpp:58] Creating layer scale1
I0626 09:37:22.238278  3628 net.cpp:122] Setting up scale1
I0626 09:37:22.238278  3628 net.cpp:129] Top shape: 100 32 32 32 (3276800)
I0626 09:37:22.238278  3628 net.cpp:137] Memory required for data: 40551600
I0626 09:37:22.238278  3628 layer_factory.cpp:58] Creating layer relu1
I0626 09:37:22.238278  3628 net.cpp:84] Creating Layer relu1
I0626 09:37:22.238278  3628 net.cpp:406] relu1 <- scale1
I0626 09:37:22.238278  3628 net.cpp:380] relu1 -> relu1
I0626 09:37:22.238278  3628 net.cpp:122] Setting up relu1
I0626 09:37:22.238278  3628 net.cpp:129] Top shape: 100 32 32 32 (3276800)
I0626 09:37:22.238278  3628 net.cpp:137] Memory required for data: 53658800
I0626 09:37:22.238278  3628 layer_factory.cpp:58] Creating layer conv1_0
I0626 09:37:22.238278  3628 net.cpp:84] Creating Layer conv1_0
I0626 09:37:22.238278  3628 net.cpp:406] conv1_0 <- relu1
I0626 09:37:22.238278  3628 net.cpp:380] conv1_0 -> conv1_0
I0626 09:37:22.268539  3628 net.cpp:122] Setting up conv1_0
I0626 09:37:22.268539  3628 net.cpp:129] Top shape: 100 48 32 32 (4915200)
I0626 09:37:22.268539  3628 net.cpp:137] Memory required for data: 73319600
I0626 09:37:22.268539  3628 layer_factory.cpp:58] Creating layer bn1_0
I0626 09:37:22.269542  3628 net.cpp:84] Creating Layer bn1_0
I0626 09:37:22.269542  3628 net.cpp:406] bn1_0 <- conv1_0
I0626 09:37:22.269542  3628 net.cpp:380] bn1_0 -> bn1_0
I0626 09:37:22.269542  3628 net.cpp:122] Setting up bn1_0
I0626 09:37:22.269542  3628 net.cpp:129] Top shape: 100 48 32 32 (4915200)
I0626 09:37:22.269542  3628 net.cpp:137] Memory required for data: 92980400
I0626 09:37:22.269542  3628 layer_factory.cpp:58] Creating layer scale1_0
I0626 09:37:22.269542  3628 net.cpp:84] Creating Layer scale1_0
I0626 09:37:22.269542  3628 net.cpp:406] scale1_0 <- bn1_0
I0626 09:37:22.269542  3628 net.cpp:380] scale1_0 -> scale1_0
I0626 09:37:22.269542  3628 layer_factory.cpp:58] Creating layer scale1_0
I0626 09:37:22.269542  3628 net.cpp:122] Setting up scale1_0
I0626 09:37:22.269542  3628 net.cpp:129] Top shape: 100 48 32 32 (4915200)
I0626 09:37:22.269542  3628 net.cpp:137] Memory required for data: 112641200
I0626 09:37:22.269542  3628 layer_factory.cpp:58] Creating layer relu1_0
I0626 09:37:22.269542  3628 net.cpp:84] Creating Layer relu1_0
I0626 09:37:22.269542  3628 net.cpp:406] relu1_0 <- scale1_0
I0626 09:37:22.269542  3628 net.cpp:380] relu1_0 -> relu1_0
I0626 09:37:22.275545  3628 net.cpp:122] Setting up relu1_0
I0626 09:37:22.276546  3628 net.cpp:129] Top shape: 100 48 32 32 (4915200)
I0626 09:37:22.276546  3628 net.cpp:137] Memory required for data: 132302000
I0626 09:37:22.276546  3628 layer_factory.cpp:58] Creating layer conv2
I0626 09:37:22.276546  3628 net.cpp:84] Creating Layer conv2
I0626 09:37:22.276546  3628 net.cpp:406] conv2 <- relu1_0
I0626 09:37:22.276546  3628 net.cpp:380] conv2 -> conv2
I0626 09:37:22.278548  3628 net.cpp:122] Setting up conv2
I0626 09:37:22.278548  3628 net.cpp:129] Top shape: 100 48 32 32 (4915200)
I0626 09:37:22.278548  3628 net.cpp:137] Memory required for data: 151962800
I0626 09:37:22.278548  3628 layer_factory.cpp:58] Creating layer bn2
I0626 09:37:22.278548  3628 net.cpp:84] Creating Layer bn2
I0626 09:37:22.278548  3628 net.cpp:406] bn2 <- conv2
I0626 09:37:22.279547  3628 net.cpp:380] bn2 -> bn2
I0626 09:37:22.279547  3628 net.cpp:122] Setting up bn2
I0626 09:37:22.279547  3628 net.cpp:129] Top shape: 100 48 32 32 (4915200)
I0626 09:37:22.279547  3628 net.cpp:137] Memory required for data: 171623600
I0626 09:37:22.279547  3628 layer_factory.cpp:58] Creating layer scale2
I0626 09:37:22.279547  3628 net.cpp:84] Creating Layer scale2
I0626 09:37:22.279547  3628 net.cpp:406] scale2 <- bn2
I0626 09:37:22.279547  3628 net.cpp:380] scale2 -> scale2
I0626 09:37:22.279547  3628 layer_factory.cpp:58] Creating layer scale2
I0626 09:37:22.279547  3628 net.cpp:122] Setting up scale2
I0626 09:37:22.279547  3628 net.cpp:129] Top shape: 100 48 32 32 (4915200)
I0626 09:37:22.279547  3628 net.cpp:137] Memory required for data: 191284400
I0626 09:37:22.279547  3628 layer_factory.cpp:58] Creating layer relu2
I0626 09:37:22.279547  3628 net.cpp:84] Creating Layer relu2
I0626 09:37:22.279547  3628 net.cpp:406] relu2 <- scale2
I0626 09:37:22.279547  3628 net.cpp:380] relu2 -> relu2
I0626 09:37:22.280549  3628 net.cpp:122] Setting up relu2
I0626 09:37:22.280549  3628 net.cpp:129] Top shape: 100 48 32 32 (4915200)
I0626 09:37:22.280549  3628 net.cpp:137] Memory required for data: 210945200
I0626 09:37:22.280549  3628 layer_factory.cpp:58] Creating layer conv2_1
I0626 09:37:22.280549  3628 net.cpp:84] Creating Layer conv2_1
I0626 09:37:22.280549  3628 net.cpp:406] conv2_1 <- relu2
I0626 09:37:22.280549  3628 net.cpp:380] conv2_1 -> conv2_1
I0626 09:37:22.283550  3628 net.cpp:122] Setting up conv2_1
I0626 09:37:22.283550  3628 net.cpp:129] Top shape: 100 96 32 32 (9830400)
I0626 09:37:22.283550  3628 net.cpp:137] Memory required for data: 250266800
I0626 09:37:22.283550  3628 layer_factory.cpp:58] Creating layer bn2_1
I0626 09:37:22.283550  3628 net.cpp:84] Creating Layer bn2_1
I0626 09:37:22.283550  3628 net.cpp:406] bn2_1 <- conv2_1
I0626 09:37:22.283550  3628 net.cpp:380] bn2_1 -> bn2_1
I0626 09:37:22.283550  3628 net.cpp:122] Setting up bn2_1
I0626 09:37:22.283550  3628 net.cpp:129] Top shape: 100 96 32 32 (9830400)
I0626 09:37:22.283550  3628 net.cpp:137] Memory required for data: 289588400
I0626 09:37:22.283550  3628 layer_factory.cpp:58] Creating layer scale2_1
I0626 09:37:22.284554  3628 net.cpp:84] Creating Layer scale2_1
I0626 09:37:22.284554  3628 net.cpp:406] scale2_1 <- bn2_1
I0626 09:37:22.284554  3628 net.cpp:380] scale2_1 -> scale2_1
I0626 09:37:22.284554  3628 layer_factory.cpp:58] Creating layer scale2_1
I0626 09:37:22.284554  3628 net.cpp:122] Setting up scale2_1
I0626 09:37:22.284554  3628 net.cpp:129] Top shape: 100 96 32 32 (9830400)
I0626 09:37:22.284554  3628 net.cpp:137] Memory required for data: 328910000
I0626 09:37:22.284554  3628 layer_factory.cpp:58] Creating layer relu2_1
I0626 09:37:22.284554  3628 net.cpp:84] Creating Layer relu2_1
I0626 09:37:22.284554  3628 net.cpp:406] relu2_1 <- scale2_1
I0626 09:37:22.284554  3628 net.cpp:380] relu2_1 -> relu2_1
I0626 09:37:22.284554  3628 net.cpp:122] Setting up relu2_1
I0626 09:37:22.285552  3628 net.cpp:129] Top shape: 100 96 32 32 (9830400)
I0626 09:37:22.285552  3628 net.cpp:137] Memory required for data: 368231600
I0626 09:37:22.285552  3628 layer_factory.cpp:58] Creating layer pool2_1
I0626 09:37:22.285552  3628 net.cpp:84] Creating Layer pool2_1
I0626 09:37:22.285552  3628 net.cpp:406] pool2_1 <- relu2_1
I0626 09:37:22.285552  3628 net.cpp:380] pool2_1 -> pool2_1
I0626 09:37:22.285552  3628 net.cpp:122] Setting up pool2_1
I0626 09:37:22.285552  3628 net.cpp:129] Top shape: 100 96 16 16 (2457600)
I0626 09:37:22.285552  3628 net.cpp:137] Memory required for data: 378062000
I0626 09:37:22.285552  3628 layer_factory.cpp:58] Creating layer conv2_2
I0626 09:37:22.285552  3628 net.cpp:84] Creating Layer conv2_2
I0626 09:37:22.285552  3628 net.cpp:406] conv2_2 <- pool2_1
I0626 09:37:22.285552  3628 net.cpp:380] conv2_2 -> conv2_2
I0626 09:37:22.289554  3628 net.cpp:122] Setting up conv2_2
I0626 09:37:22.289554  3628 net.cpp:129] Top shape: 100 96 16 16 (2457600)
I0626 09:37:22.289554  3628 net.cpp:137] Memory required for data: 387892400
I0626 09:37:22.289554  3628 layer_factory.cpp:58] Creating layer bn2_2
I0626 09:37:22.289554  3628 net.cpp:84] Creating Layer bn2_2
I0626 09:37:22.289554  3628 net.cpp:406] bn2_2 <- conv2_2
I0626 09:37:22.289554  3628 net.cpp:380] bn2_2 -> bn2_2
I0626 09:37:22.289554  3628 net.cpp:122] Setting up bn2_2
I0626 09:37:22.289554  3628 net.cpp:129] Top shape: 100 96 16 16 (2457600)
I0626 09:37:22.289554  3628 net.cpp:137] Memory required for data: 397722800
I0626 09:37:22.289554  3628 layer_factory.cpp:58] Creating layer scale2_2
I0626 09:37:22.289554  3628 net.cpp:84] Creating Layer scale2_2
I0626 09:37:22.289554  3628 net.cpp:406] scale2_2 <- bn2_2
I0626 09:37:22.289554  3628 net.cpp:380] scale2_2 -> scale2_2
I0626 09:37:22.289554  3628 layer_factory.cpp:58] Creating layer scale2_2
I0626 09:37:22.289554  3628 net.cpp:122] Setting up scale2_2
I0626 09:37:22.289554  3628 net.cpp:129] Top shape: 100 96 16 16 (2457600)
I0626 09:37:22.289554  3628 net.cpp:137] Memory required for data: 407553200
I0626 09:37:22.289554  3628 layer_factory.cpp:58] Creating layer relu2_2
I0626 09:37:22.290556  3628 net.cpp:84] Creating Layer relu2_2
I0626 09:37:22.290556  3628 net.cpp:406] relu2_2 <- scale2_2
I0626 09:37:22.290556  3628 net.cpp:380] relu2_2 -> relu2_2
I0626 09:37:22.290556  3628 net.cpp:122] Setting up relu2_2
I0626 09:37:22.290556  3628 net.cpp:129] Top shape: 100 96 16 16 (2457600)
I0626 09:37:22.290556  3628 net.cpp:137] Memory required for data: 417383600
I0626 09:37:22.290556  3628 layer_factory.cpp:58] Creating layer conv3
I0626 09:37:22.291059  3628 net.cpp:84] Creating Layer conv3
I0626 09:37:22.291059  3628 net.cpp:406] conv3 <- relu2_2
I0626 09:37:22.291059  3628 net.cpp:380] conv3 -> conv3
I0626 09:37:22.293561  3628 net.cpp:122] Setting up conv3
I0626 09:37:22.293561  3628 net.cpp:129] Top shape: 100 96 16 16 (2457600)
I0626 09:37:22.293561  3628 net.cpp:137] Memory required for data: 427214000
I0626 09:37:22.293561  3628 layer_factory.cpp:58] Creating layer bn3
I0626 09:37:22.293561  3628 net.cpp:84] Creating Layer bn3
I0626 09:37:22.293561  3628 net.cpp:406] bn3 <- conv3
I0626 09:37:22.293561  3628 net.cpp:380] bn3 -> bn3
I0626 09:37:22.293561  3628 net.cpp:122] Setting up bn3
I0626 09:37:22.293561  3628 net.cpp:129] Top shape: 100 96 16 16 (2457600)
I0626 09:37:22.293561  3628 net.cpp:137] Memory required for data: 437044400
I0626 09:37:22.293561  3628 layer_factory.cpp:58] Creating layer scale3
I0626 09:37:22.293561  3628 net.cpp:84] Creating Layer scale3
I0626 09:37:22.293561  3628 net.cpp:406] scale3 <- bn3
I0626 09:37:22.293561  3628 net.cpp:380] scale3 -> scale3
I0626 09:37:22.294061  3628 layer_factory.cpp:58] Creating layer scale3
I0626 09:37:22.294061  3628 net.cpp:122] Setting up scale3
I0626 09:37:22.294061  3628 net.cpp:129] Top shape: 100 96 16 16 (2457600)
I0626 09:37:22.294061  3628 net.cpp:137] Memory required for data: 446874800
I0626 09:37:22.294061  3628 layer_factory.cpp:58] Creating layer relu3
I0626 09:37:22.294061  3628 net.cpp:84] Creating Layer relu3
I0626 09:37:22.294061  3628 net.cpp:406] relu3 <- scale3
I0626 09:37:22.294061  3628 net.cpp:380] relu3 -> relu3
I0626 09:37:22.294561  3628 net.cpp:122] Setting up relu3
I0626 09:37:22.294561  3628 net.cpp:129] Top shape: 100 96 16 16 (2457600)
I0626 09:37:22.294561  3628 net.cpp:137] Memory required for data: 456705200
I0626 09:37:22.294561  3628 layer_factory.cpp:58] Creating layer conv4
I0626 09:37:22.294561  3628 net.cpp:84] Creating Layer conv4
I0626 09:37:22.294561  3628 net.cpp:406] conv4 <- relu3
I0626 09:37:22.294561  3628 net.cpp:380] conv4 -> conv4
I0626 09:37:22.296564  3628 net.cpp:122] Setting up conv4
I0626 09:37:22.296564  3628 net.cpp:129] Top shape: 100 96 16 16 (2457600)
I0626 09:37:22.296564  3628 net.cpp:137] Memory required for data: 466535600
I0626 09:37:22.296564  3628 layer_factory.cpp:58] Creating layer pool4
I0626 09:37:22.296564  3628 net.cpp:84] Creating Layer pool4
I0626 09:37:22.296564  3628 net.cpp:406] pool4 <- conv4
I0626 09:37:22.296564  3628 net.cpp:380] pool4 -> pool4
I0626 09:37:22.296564  3628 net.cpp:122] Setting up pool4
I0626 09:37:22.296564  3628 net.cpp:129] Top shape: 100 96 8 8 (614400)
I0626 09:37:22.296564  3628 net.cpp:137] Memory required for data: 468993200
I0626 09:37:22.297081  3628 layer_factory.cpp:58] Creating layer bn4
I0626 09:37:22.297081  3628 net.cpp:84] Creating Layer bn4
I0626 09:37:22.297081  3628 net.cpp:406] bn4 <- pool4
I0626 09:37:22.297081  3628 net.cpp:380] bn4 -> bn4
I0626 09:37:22.297081  3628 net.cpp:122] Setting up bn4
I0626 09:37:22.297081  3628 net.cpp:129] Top shape: 100 96 8 8 (614400)
I0626 09:37:22.297081  3628 net.cpp:137] Memory required for data: 471450800
I0626 09:37:22.297081  3628 layer_factory.cpp:58] Creating layer scale4
I0626 09:37:22.297081  3628 net.cpp:84] Creating Layer scale4
I0626 09:37:22.297081  3628 net.cpp:406] scale4 <- bn4
I0626 09:37:22.297081  3628 net.cpp:380] scale4 -> scale4
I0626 09:37:22.297081  3628 layer_factory.cpp:58] Creating layer scale4
I0626 09:37:22.297081  3628 net.cpp:122] Setting up scale4
I0626 09:37:22.297081  3628 net.cpp:129] Top shape: 100 96 8 8 (614400)
I0626 09:37:22.297081  3628 net.cpp:137] Memory required for data: 473908400
I0626 09:37:22.297081  3628 layer_factory.cpp:58] Creating layer relu4
I0626 09:37:22.297081  3628 net.cpp:84] Creating Layer relu4
I0626 09:37:22.297081  3628 net.cpp:406] relu4 <- scale4
I0626 09:37:22.297081  3628 net.cpp:380] relu4 -> relu4
I0626 09:37:22.297581  3628 net.cpp:122] Setting up relu4
I0626 09:37:22.297581  3628 net.cpp:129] Top shape: 100 96 8 8 (614400)
I0626 09:37:22.297581  3628 net.cpp:137] Memory required for data: 476366000
I0626 09:37:22.297581  3628 layer_factory.cpp:58] Creating layer conv4_1
I0626 09:37:22.297581  3628 net.cpp:84] Creating Layer conv4_1
I0626 09:37:22.297581  3628 net.cpp:406] conv4_1 <- relu4
I0626 09:37:22.297581  3628 net.cpp:380] conv4_1 -> conv4_1
I0626 09:37:22.299567  3628 net.cpp:122] Setting up conv4_1
I0626 09:37:22.299567  3628 net.cpp:129] Top shape: 100 96 8 8 (614400)
I0626 09:37:22.299567  3628 net.cpp:137] Memory required for data: 478823600
I0626 09:37:22.299567  3628 layer_factory.cpp:58] Creating layer bn4_1
I0626 09:37:22.299567  3628 net.cpp:84] Creating Layer bn4_1
I0626 09:37:22.299567  3628 net.cpp:406] bn4_1 <- conv4_1
I0626 09:37:22.299567  3628 net.cpp:380] bn4_1 -> bn4_1
I0626 09:37:22.299567  3628 net.cpp:122] Setting up bn4_1
I0626 09:37:22.299567  3628 net.cpp:129] Top shape: 100 96 8 8 (614400)
I0626 09:37:22.300065  3628 net.cpp:137] Memory required for data: 481281200
I0626 09:37:22.300065  3628 layer_factory.cpp:58] Creating layer scale4_1
I0626 09:37:22.300065  3628 net.cpp:84] Creating Layer scale4_1
I0626 09:37:22.300065  3628 net.cpp:406] scale4_1 <- bn4_1
I0626 09:37:22.300065  3628 net.cpp:380] scale4_1 -> scale4_1
I0626 09:37:22.300065  3628 layer_factory.cpp:58] Creating layer scale4_1
I0626 09:37:22.300065  3628 net.cpp:122] Setting up scale4_1
I0626 09:37:22.300065  3628 net.cpp:129] Top shape: 100 96 8 8 (614400)
I0626 09:37:22.300065  3628 net.cpp:137] Memory required for data: 483738800
I0626 09:37:22.300065  3628 layer_factory.cpp:58] Creating layer relu4_1
I0626 09:37:22.300065  3628 net.cpp:84] Creating Layer relu4_1
I0626 09:37:22.300065  3628 net.cpp:406] relu4_1 <- scale4_1
I0626 09:37:22.300065  3628 net.cpp:380] relu4_1 -> relu4_1
I0626 09:37:22.300568  3628 net.cpp:122] Setting up relu4_1
I0626 09:37:22.300568  3628 net.cpp:129] Top shape: 100 96 8 8 (614400)
I0626 09:37:22.300568  3628 net.cpp:137] Memory required for data: 486196400
I0626 09:37:22.300568  3628 layer_factory.cpp:58] Creating layer conv4_2
I0626 09:37:22.300568  3628 net.cpp:84] Creating Layer conv4_2
I0626 09:37:22.300568  3628 net.cpp:406] conv4_2 <- relu4_1
I0626 09:37:22.300568  3628 net.cpp:380] conv4_2 -> conv4_2
I0626 09:37:22.302083  3628 net.cpp:122] Setting up conv4_2
I0626 09:37:22.302583  3628 net.cpp:129] Top shape: 100 96 8 8 (614400)
I0626 09:37:22.302583  3628 net.cpp:137] Memory required for data: 488654000
I0626 09:37:22.302583  3628 layer_factory.cpp:58] Creating layer bn4_2
I0626 09:37:22.302583  3628 net.cpp:84] Creating Layer bn4_2
I0626 09:37:22.302583  3628 net.cpp:406] bn4_2 <- conv4_2
I0626 09:37:22.302583  3628 net.cpp:380] bn4_2 -> bn4_2
I0626 09:37:22.302583  3628 net.cpp:122] Setting up bn4_2
I0626 09:37:22.302583  3628 net.cpp:129] Top shape: 100 96 8 8 (614400)
I0626 09:37:22.302583  3628 net.cpp:137] Memory required for data: 491111600
I0626 09:37:22.302583  3628 layer_factory.cpp:58] Creating layer scale4_2
I0626 09:37:22.302583  3628 net.cpp:84] Creating Layer scale4_2
I0626 09:37:22.302583  3628 net.cpp:406] scale4_2 <- bn4_2
I0626 09:37:22.302583  3628 net.cpp:380] scale4_2 -> scale4_2
I0626 09:37:22.302583  3628 layer_factory.cpp:58] Creating layer scale4_2
I0626 09:37:22.302583  3628 net.cpp:122] Setting up scale4_2
I0626 09:37:22.302583  3628 net.cpp:129] Top shape: 100 96 8 8 (614400)
I0626 09:37:22.302583  3628 net.cpp:137] Memory required for data: 493569200
I0626 09:37:22.302583  3628 layer_factory.cpp:58] Creating layer relu4_2
I0626 09:37:22.302583  3628 net.cpp:84] Creating Layer relu4_2
I0626 09:37:22.302583  3628 net.cpp:406] relu4_2 <- scale4_2
I0626 09:37:22.302583  3628 net.cpp:380] relu4_2 -> relu4_2
I0626 09:37:22.303082  3628 net.cpp:122] Setting up relu4_2
I0626 09:37:22.303583  3628 net.cpp:129] Top shape: 100 96 8 8 (614400)
I0626 09:37:22.303583  3628 net.cpp:137] Memory required for data: 496026800
I0626 09:37:22.303583  3628 layer_factory.cpp:58] Creating layer pool4_2
I0626 09:37:22.303583  3628 net.cpp:84] Creating Layer pool4_2
I0626 09:37:22.303583  3628 net.cpp:406] pool4_2 <- relu4_2
I0626 09:37:22.303583  3628 net.cpp:380] pool4_2 -> pool4_2
I0626 09:37:22.303583  3628 net.cpp:122] Setting up pool4_2
I0626 09:37:22.303583  3628 net.cpp:129] Top shape: 100 96 4 4 (153600)
I0626 09:37:22.303583  3628 net.cpp:137] Memory required for data: 496641200
I0626 09:37:22.303583  3628 layer_factory.cpp:58] Creating layer conv4_0
I0626 09:37:22.303583  3628 net.cpp:84] Creating Layer conv4_0
I0626 09:37:22.303583  3628 net.cpp:406] conv4_0 <- pool4_2
I0626 09:37:22.303583  3628 net.cpp:380] conv4_0 -> conv4_0
I0626 09:37:22.305584  3628 net.cpp:122] Setting up conv4_0
I0626 09:37:22.305584  3628 net.cpp:129] Top shape: 100 96 4 4 (153600)
I0626 09:37:22.305584  3628 net.cpp:137] Memory required for data: 497255600
I0626 09:37:22.305584  3628 layer_factory.cpp:58] Creating layer bn4_0
I0626 09:37:22.305584  3628 net.cpp:84] Creating Layer bn4_0
I0626 09:37:22.305584  3628 net.cpp:406] bn4_0 <- conv4_0
I0626 09:37:22.305584  3628 net.cpp:380] bn4_0 -> bn4_0
I0626 09:37:22.306085  3628 net.cpp:122] Setting up bn4_0
I0626 09:37:22.306085  3628 net.cpp:129] Top shape: 100 96 4 4 (153600)
I0626 09:37:22.306085  3628 net.cpp:137] Memory required for data: 497870000
I0626 09:37:22.306085  3628 layer_factory.cpp:58] Creating layer scale4_0
I0626 09:37:22.306085  3628 net.cpp:84] Creating Layer scale4_0
I0626 09:37:22.306085  3628 net.cpp:406] scale4_0 <- bn4_0
I0626 09:37:22.306085  3628 net.cpp:380] scale4_0 -> scale4_0
I0626 09:37:22.306085  3628 layer_factory.cpp:58] Creating layer scale4_0
I0626 09:37:22.306085  3628 net.cpp:122] Setting up scale4_0
I0626 09:37:22.306085  3628 net.cpp:129] Top shape: 100 96 4 4 (153600)
I0626 09:37:22.306085  3628 net.cpp:137] Memory required for data: 498484400
I0626 09:37:22.306085  3628 layer_factory.cpp:58] Creating layer relu4_0
I0626 09:37:22.306085  3628 net.cpp:84] Creating Layer relu4_0
I0626 09:37:22.306085  3628 net.cpp:406] relu4_0 <- scale4_0
I0626 09:37:22.306085  3628 net.cpp:380] relu4_0 -> relu4_0
I0626 09:37:22.306085  3628 net.cpp:122] Setting up relu4_0
I0626 09:37:22.306085  3628 net.cpp:129] Top shape: 100 96 4 4 (153600)
I0626 09:37:22.306085  3628 net.cpp:137] Memory required for data: 499098800
I0626 09:37:22.306085  3628 layer_factory.cpp:58] Creating layer poolcp6
I0626 09:37:22.306085  3628 net.cpp:84] Creating Layer poolcp6
I0626 09:37:22.306085  3628 net.cpp:406] poolcp6 <- relu4_0
I0626 09:37:22.306085  3628 net.cpp:380] poolcp6 -> poolcp6
I0626 09:37:22.306085  3628 net.cpp:122] Setting up poolcp6
I0626 09:37:22.306085  3628 net.cpp:129] Top shape: 100 96 1 1 (9600)
I0626 09:37:22.306085  3628 net.cpp:137] Memory required for data: 499137200
I0626 09:37:22.306085  3628 layer_factory.cpp:58] Creating layer ip1
I0626 09:37:22.306085  3628 net.cpp:84] Creating Layer ip1
I0626 09:37:22.306085  3628 net.cpp:406] ip1 <- poolcp6
I0626 09:37:22.306085  3628 net.cpp:380] ip1 -> ip1
I0626 09:37:22.306085  3628 net.cpp:122] Setting up ip1
I0626 09:37:22.306085  3628 net.cpp:129] Top shape: 100 10 (1000)
I0626 09:37:22.306085  3628 net.cpp:137] Memory required for data: 499141200
I0626 09:37:22.306085  3628 layer_factory.cpp:58] Creating layer ip1_ip1_0_split
I0626 09:37:22.306085  3628 net.cpp:84] Creating Layer ip1_ip1_0_split
I0626 09:37:22.306085  3628 net.cpp:406] ip1_ip1_0_split <- ip1
I0626 09:37:22.306085  3628 net.cpp:380] ip1_ip1_0_split -> ip1_ip1_0_split_0
I0626 09:37:22.306085  3628 net.cpp:380] ip1_ip1_0_split -> ip1_ip1_0_split_1
I0626 09:37:22.306085  3628 net.cpp:122] Setting up ip1_ip1_0_split
I0626 09:37:22.306085  3628 net.cpp:129] Top shape: 100 10 (1000)
I0626 09:37:22.306085  3628 net.cpp:129] Top shape: 100 10 (1000)
I0626 09:37:22.306085  3628 net.cpp:137] Memory required for data: 499149200
I0626 09:37:22.306085  3628 layer_factory.cpp:58] Creating layer accuracy_training
I0626 09:37:22.306085  3628 net.cpp:84] Creating Layer accuracy_training
I0626 09:37:22.306085  3628 net.cpp:406] accuracy_training <- ip1_ip1_0_split_0
I0626 09:37:22.306085  3628 net.cpp:406] accuracy_training <- label_cifar_1_split_0
…
