…
I1021 16:54:26.079895 14900 net.cpp:294] The NetState phase (0) differed from the phase (1) specified by a rule in layer bn_conv12
I1021 16:54:26.079895 14900 net.cpp:294] The NetState phase (0) differed from the phase (1) specified by a rule in layer accuracy
I1021 16:54:26.080895 14900 net.cpp:51] Initializing net from parameters: 
name: "MNIST_SimpleNet_GP_13L_Simple_NoGrpCon_NoDrp_maxdrp_300k"
state {
  phase: TRAIN
  level: 0
  stage: ""
}
layer {
  name: "mnist"
  type: "Data"
  top: "data"
  top: "label"
  include {
    phase: TRAIN
  }
  data_param {
    source: "examples/mnist/mnist_train_lmdb_norm2"
    batch_size: 100
    backend: LMDB
  }
}
layer {
  name: "conv1"
  type: "Convolution"
  bottom: "data"
  top: "conv1"
  param {
    lr_mult: 1
  }
  convolution_param {
    num_output: 30
    bias_term: true
    pad: 1
    kernel_size: 3
    stride: 1
    weight_filler {
      type: "xavier"
    }
  }
}
layer {
  name: "bn1"
  type: "BatchNorm"
  bottom: "conv1"
  top: "conv1"
  param {
    lr_mult: 0
    decay_mult: 0
  }
  param {
    lr_mult: 0
    decay_mult: 0
  }
  param {
    lr_mult: 0
    decay_mult: 0
  }
  include {
    phase: TRAIN
  }
  batch_norm_param {
    use_global_stats: false
    moving_average_fraction: 0.99
  }
}
layer {
  name: "scale1"
  type: "Scale"
  bottom: "conv1"
  top: "conv1"
  scale_param {
    bias_term: true
  }
}
layer {
  name: "relu1"
  type: "ReLU"
  bottom: "conv1"
  top: "conv1"
}
layer {
  name: "conv1_0"
  type: "Convolution"
  bottom: "conv1"
  top: "conv1_0"
  param {
    lr_mult: 1
  }
  convolution_param {
    num_output: 40
    bias_term: true
    pad: 1
    kernel_size: 3
    stride: 1
    weight_filler {
      type: "xavier"
    }
  }
}
layer {
  name: "bn1_0"
  type: "BatchNorm"
  bottom: "conv1_0"
  top: "conv1_0"
  param {
    lr_mult: 0
    decay_mult: 0
  }
  param {
    lr_mult: 0
    decay_mult: 0
  }
  param {
    lr_mult: 0
    decay_mult: 0
  }
  include {
    phase: TRAIN
  }
  batch_norm_param {
    use_global_stats: false
    moving_average_fraction: 0.99
  }
}
layer {
  name: "scale1_0"
  type: "Scale"
  bottom: "conv1_0"
  top: "conv1_0"
  scale_param {
    bias_term: true
  }
}
layer {
  name: "relu1_0"
  type: "ReLU"
  bottom: "conv1_0"
  top: "conv1_0"
}
layer {
  name: "conv2"
  type: "Convolution"
  bottom: "conv1_0"
  top: "conv2"
  param {
    lr_mult: 1
  }
  convolution_param {
    num_output: 40
    bias_term: true
    pad: 1
    kernel_size: 3
    stride: 1
    weight_filler {
      type: "xavier"
    }
  }
}
layer {
  name: "bn2"
  type: "BatchNorm"
  bottom: "conv2"
  top: "conv2"
  param {
    lr_mult: 0
    decay_mult: 0
  }
  param {
    lr_mult: 0
    decay_mult: 0
  }
  param {
    lr_mult: 0
    decay_mult: 0
  }
  include {
    phase: TRAIN
  }
  batch_norm_param {
    use_global_stats: false
    moving_average_fraction: 0.99
  }
}
layer {
  name: "scale2"
  type: "Scale"
  bottom: "conv2"
  top: "conv2"
  scale_param {
    bias_term: true
  }
}
layer {
  name: "relu2"
  type: "ReLU"
  bottom: "conv2"
  top: "conv2"
}
layer {
  name: "conv2_1"
  type: "Convolution"
  bottom: "conv2"
  top: "conv2_1"
  param {
    lr_mult: 1
  }
  convolution_param {
    num_output: 40
    bias_term: true
    pad: 1
    kernel_size: 3
    stride: 1
    weight_filler {
      type: "xavier"
    }
  }
}
layer {
  name: "bn2_1"
  type: "BatchNorm"
  bottom: "conv2_1"
  top: "conv2_1"
  param {
    lr_mult: 0
    decay_mult: 0
  }
  param {
    lr_mult: 0
    decay_mult: 0
  }
  param {
    lr_mult: 0
    decay_mult: 0
  }
  include {
    phase: TRAIN
  }
  batch_norm_param {
    use_global_stats: false
    moving_average_fraction: 0.99
  }
}
layer {
  name: "scale2_1"
  type: "Scale"
  bottom: "conv2_1"
  top: "conv2_1"
  scale_param {
    bias_term: true
  }
}
layer {
  name: "relu2_1"
  type: "ReLU"
  bottom: "conv2_1"
  top: "conv2_1"
}
layer {
  name: "conv2_2"
  type: "Convolution"
  bottom: "conv2_1"
  top: "conv2_2"
  param {
    lr_mult: 1
  }
  convolution_param {
    num_output: 50
    bias_term: true
    pad: 1
    kernel_size: 3
    stride: 1
    weight_filler {
      type: "xavier"
    }
  }
}
layer {
  name: "bn2_2"
  type: "BatchNorm"
  bottom: "conv2_2"
  top: "conv2_2"
  param {
    lr_mult: 0
    decay_mult: 0
  }
  param {
    lr_mult: 0
    decay_mult: 0
  }
  param {
    lr_mult: 0
    decay_mult: 0
  }
  include {
    phase: TRAIN
  }
  batch_norm_param {
    use_global_stats: false
    moving_average_fraction: 0.99
  }
}
layer {
  name: "scale2_2"
  type: "Scale"
  bottom: "conv2_2"
  top: "conv2_2"
  scale_param {
    bias_term: true
  }
}
layer {
  name: "relu2_2"
  type: "ReLU"
  bottom: "conv2_2"
  top: "conv2_2"
}
layer {
  name: "pool2_1"
  type: "Pooling"
  bottom: "conv2_2"
  top: "pool2_1"
  pooling_param {
    pool: MAX
    kernel_size: 2
    stride: 2
  }
}
layer {
  name: "drop5"
  type: "Dropout"
  bottom: "pool2_1"
  top: "pool2_1"
  dropout_param {
    dropout_ratio: 0.1
  }
}
layer {
  name: "conv3"
  type: "Convolution"
  bottom: "pool2_1"
  top: "conv3"
  param {
    lr_mult: 1
  }
  convolution_param {
    num_output: 50
    bias_term: true
    pad: 1
    kernel_size: 3
    stride: 1
    weight_filler {
      type: "xavier"
    }
  }
}
layer {
  name: "bn3"
  type: "BatchNorm"
  bottom: "conv3"
  top: "conv3"
  param {
    lr_mult: 0
    decay_mult: 0
  }
  param {
    lr_mult: 0
    decay_mult: 0
  }
  param {
    lr_mult: 0
    decay_mult: 0
  }
  include {
    phase: TRAIN
  }
  batch_norm_param {
    use_global_stats: false
    moving_average_fraction: 0.99
  }
}
layer {
  name: "scale3"
  type: "Scale"
  bottom: "conv3"
  top: "conv3"
  scale_param {
    bias_term: true
  }
}
layer {
  name: "relu3"
  type: "ReLU"
  bottom: "conv3"
  top: "conv3"
}
layer {
  name: "conv3_1"
  type: "Convolution"
  bottom: "conv3"
  top: "conv3_1"
  param {
    lr_mult: 1
  }
  convolution_param {
    num_output: 50
    bias_term: true
    pad: 1
    kernel_size: 3
    stride: 1
    weight_filler {
      type: "xavier"
    }
  }
}
layer {
  name: "bn3_1"
  type: "BatchNorm"
  bottom: "conv3_1"
  top: "conv3_1"
  param {
    lr_mult: 0
    decay_mult: 0
  }
  param {
    lr_mult: 0
    decay_mult: 0
  }
  param {
    lr_mult: 0
    decay_mult: 0
  }
  include {
    phase: TRAIN
  }
  batch_norm_param {
    use_global_stats: false
    moving_average_fraction: 0.99
  }
}
layer {
  name: "scale3_1"
  type: "Scale"
  bottom: "conv3_1"
  top: "conv3_1"
  scale_param {
    bias_term: true
  }
}
layer {
  name: "relu3_1"
  type: "ReLU"
  bottom: "conv3_1"
  top: "conv3_1"
}
layer {
  name: "conv4"
  type: "Convolution"
  bottom: "conv3_1"
  top: "conv4"
  param {
    lr_mult: 1
  }
  convolution_param {
    num_output: 50
    bias_term: true
    pad: 1
    kernel_size: 3
    stride: 1
    weight_filler {
      type: "xavier"
    }
  }
}
layer {
  name: "bn4"
  type: "BatchNorm"
  bottom: "conv4"
  top: "conv4"
  param {
    lr_mult: 0
    decay_mult: 0
  }
  param {
    lr_mult: 0
    decay_mult: 0
  }
  param {
    lr_mult: 0
    decay_mult: 0
  }
  include {
    phase: TRAIN
  }
  batch_norm_param {
    use_global_stats: false
    moving_average_fraction: 0.99
  }
}
layer {
  name: "scale4"
  type: "Scale"
  bottom: "conv4"
  top: "conv4"
  scale_param {
    bias_term: true
  }
}
layer {
  name: "relu4"
  type: "ReLU"
  bottom: "conv4"
  top: "conv4"
}
layer {
  name: "conv4_1"
  type: "Convolution"
  bottom: "conv4"
  top: "conv4_1"
  param {
    lr_mult: 1
  }
  convolution_param {
    num_output: 50
    bias_term: true
    pad: 1
    kernel_size: 3
    stride: 1
    weight_filler {
      type: "xavier"
    }
  }
}
layer {
  name: "bn4_1"
  type: "BatchNorm"
  bottom: "conv4_1"
  top: "conv4_1"
  param {
    lr_mult: 0
    decay_mult: 0
  }
  param {
    lr_mult: 0
    decay_mult: 0
  }
  param {
    lr_mult: 0
    decay_mult: 0
  }
  include {
    phase: TRAIN
  }
  batch_norm_param {
    use_global_stats: false
    moving_average_fraction: 0.99
  }
}
layer {
  name: "scale4_1"
  type: "Scale"
  bottom: "conv4_1"
  top: "conv4_1"
  scale_param {
    bias_term: true
  }
}
layer {
  name: "relu4_1"
  type: "ReLU"
  bottom: "conv4_1"
  top: "conv4_1"
}
layer {
  name: "conv4_2"
  type: "Convolution"
  bottom: "conv4_1"
  top: "conv4_2"
  param {
    lr_mult: 1
  }
  convolution_param {
    num_output: 58
    bias_term: true
    pad: 1
    kernel_size: 3
    stride: 1
    weight_filler {
      type: "xavier"
    }
  }
}
layer {
  name: "bn4_2"
  type: "BatchNorm"
  bottom: "conv4_2"
  top: "conv4_2"
  param {
    lr_mult: 0
    decay_mult: 0
  }
  param {
    lr_mult: 0
    decay_mult: 0
  }
  param {
    lr_mult: 0
    decay_mult: 0
  }
  include {
    phase: TRAIN
  }
  batch_norm_param {
    use_global_stats: false
    moving_average_fraction: 0.99
  }
}
layer {
  name: "scale4_2"
  type: "Scale"
  bottom: "conv4_2"
  top: "conv4_2"
  scale_param {
    bias_term: true
  }
}
layer {
  name: "relu4_2"
  type: "ReLU"
  bottom: "conv4_2"
  top: "conv4_2"
}
layer {
  name: "pool4_2"
  type: "Pooling"
  bottom: "conv4_2"
  top: "pool4_2"
  pooling_param {
    pool: MAX
    kernel_size: 2
    stride: 2
  }
}
layer {
  name: "drop9"
  type: "Dropout"
  bottom: "pool4_2"
  top: "pool4_2"
  dropout_param {
    dropout_ratio: 0.2
  }
}
layer {
  name: "conv4_0"
  type: "Convolution"
  bottom: "pool4_2"
  top: "conv4_0"
  param {
    lr_mult: 1
  }
  convolution_param {
    num_output: 58
    bias_term: true
    pad: 1
    kernel_size: 3
    stride: 1
    weight_filler {
      type: "xavier"
    }
  }
}
layer {
  name: "bn4_0"
  type: "BatchNorm"
  bottom: "conv4_0"
  top: "conv4_0"
  param {
    lr_mult: 0
    decay_mult: 0
  }
  param {
    lr_mult: 0
    decay_mult: 0
  }
  param {
    lr_mult: 0
    decay_mult: 0
  }
  include {
    phase: TRAIN
  }
  batch_norm_param {
    use_global_stats: false
    moving_average_fraction: 0.99
  }
}
layer {
  name: "scale4_0"
  type: "Scale"
  bottom: "conv4_0"
  top: "conv4_0"
  scale_param {
    bias_term: true
  }
}
layer {
  name: "relu4_0"
  type: "ReLU"
  bottom: "conv4_0"
  top: "conv4_0"
}
layer {
  name: "conv11"
  type: "Convolution"
  bottom: "conv4_0"
  top: "conv11"
  param {
    lr_mult: 1
    decay_mult: 1
  }
  param {
    lr_mult: 2
    decay_mult: 0
  }
  convolution_param {
    num_output: 70
    pad: 1
    kernel_size: 3
    weight_filler {
      type: "xavier"
    }
    bias_filler {
      type: "constant"
      value: 0
    }
  }
}
layer {
  name: "bn_conv11"
  type: "BatchNorm"
  bottom: "conv11"
  top: "conv11"
  param {
    lr_mult: 0
    decay_mult: 0
  }
  param {
    lr_mult: 0
    decay_mult: 0
  }
  param {
    lr_mult: 0
    decay_mult: 0
  }
  include {
    phase: TRAIN
  }
  batch_norm_param {
    use_global_stats: false
    moving_average_fraction: 0.99
  }
}
layer {
  name: "scale_conv11"
  type: "Scale"
  bottom: "conv11"
  top: "conv11"
  scale_param {
    bias_term: true
  }
}
layer {
  name: "relu_conv11"
  type: "ReLU"
  bottom: "conv11"
  top: "conv11"
}
layer {
  name: "conv12"
  type: "Convolution"
  bottom: "conv11"
  top: "conv12"
  param {
    lr_mult: 1
    decay_mult: 1
  }
  param {
    lr_mult: 2
    decay_mult: 0
  }
  convolution_param {
    num_output: 90
    pad: 1
    kernel_size: 3
    weight_filler {
      type: "xavier"
    }
    bias_filler {
      type: "constant"
      value: 0
    }
  }
}
layer {
  name: "bn_conv12"
  type: "BatchNorm"
  bottom: "conv12"
  top: "conv12"
  param {
    lr_mult: 0
    decay_mult: 0
  }
  param {
    lr_mult: 0
    decay_mult: 0
  }
  param {
    lr_mult: 0
    decay_mult: 0
  }
  include {
    phase: TRAIN
  }
  batch_norm_param {
    use_global_stats: false
    moving_average_fraction: 0.99
  }
}
layer {
  name: "scale_conv12"
  type: "Scale"
  bottom: "conv12"
  top: "conv12"
  scale_param {
    bias_term: true
  }
}
layer {
  name: "relu_conv12"
  type: "ReLU"
  bottom: "conv12"
  top: "conv12"
}
layer {
  name: "poolcp6"
  type: "Pooling"
  bottom: "conv12"
  top: "poolcp6"
  pooling_param {
    pool: MAX
    global_pooling: true
  }
}
layer {
  name: "drop12"
  type: "Dropout"
  bottom: "poolcp6"
  top: "poolcp6"
  dropout_param {
    dropout_ratio: 0.2
  }
}
layer {
  name: "ip1"
  type: "InnerProduct"
  bottom: "poolcp6"
  top: "ip1"
  param {
    lr_mult: 1
    decay_mult: 0
  }
  param {
    lr_mult: 2
    decay_mult: 0
  }
  inner_product_param {
    num_output: 10
    weight_filler {
      type: "xavier"
    }
    bias_filler {
      type: "constant"
    }
  }
}
layer {
  name: "accuracy_training"
  type: "Accuracy"
  bottom: "ip1"
  bottom: "label"
  top: "accuracy_training"
  include {
    phase: TRAIN
  }
}
layer {
  name: "loss"
  type: "SoftmaxWithLoss"
  bottom: "ip1"
  bottom: "label"
  top: "loss"
}
I1021 16:54:26.100930 14900 layer_factory.cpp:58] Creating layer mnist
I1021 16:54:26.106909 14900 db_lmdb.cpp:40] Opened lmdb examples/mnist/mnist_train_lmdb_norm2
I1021 16:54:26.106909 14900 net.cpp:84] Creating Layer mnist
I1021 16:54:26.106909 14900 net.cpp:380] mnist -> data
I1021 16:54:26.106909 14900 net.cpp:380] mnist -> label
I1021 16:54:26.107909 14900 data_layer.cpp:45] output data size: 100,1,28,28
I1021 16:54:26.110905 14900 net.cpp:122] Setting up mnist
I1021 16:54:26.110905 14900 net.cpp:129] Top shape: 100 1 28 28 (78400)
I1021 16:54:26.110905 14900 net.cpp:129] Top shape: 100 (100)
I1021 16:54:26.110905 14900 net.cpp:137] Memory required for data: 314000
I1021 16:54:26.110905 14900 layer_factory.cpp:58] Creating layer label_mnist_1_split
I1021 16:54:26.110905 14900 net.cpp:84] Creating Layer label_mnist_1_split
I1021 16:54:26.110905 14900 net.cpp:406] label_mnist_1_split <- label
I1021 16:54:26.110905 14900 net.cpp:380] label_mnist_1_split -> label_mnist_1_split_0
I1021 16:54:26.110905 14900 net.cpp:380] label_mnist_1_split -> label_mnist_1_split_1
I1021 16:54:26.110905 14900 net.cpp:122] Setting up label_mnist_1_split
I1021 16:54:26.110905 14900 net.cpp:129] Top shape: 100 (100)
I1021 16:54:26.110905 14900 net.cpp:129] Top shape: 100 (100)
I1021 16:54:26.110905 14900 net.cpp:137] Memory required for data: 314800
I1021 16:54:26.110905 14900 layer_factory.cpp:58] Creating layer conv1
I1021 16:54:26.110905 14900 net.cpp:84] Creating Layer conv1
I1021 16:54:26.110905 14900 net.cpp:406] conv1 <- data
I1021 16:54:26.110905 14900 net.cpp:380] conv1 -> conv1
I1021 16:54:26.111899  2868 common.cpp:36] System entropy source not available, using fallback algorithm to generate seed instead.
I1021 16:54:26.361517 14900 net.cpp:122] Setting up conv1
I1021 16:54:26.361517 14900 net.cpp:129] Top shape: 100 30 28 28 (2352000)
I1021 16:54:26.361517 14900 net.cpp:137] Memory required for data: 9722800
I1021 16:54:26.361517 14900 layer_factory.cpp:58] Creating layer bn1
I1021 16:54:26.361517 14900 net.cpp:84] Creating Layer bn1
I1021 16:54:26.361517 14900 net.cpp:406] bn1 <- conv1
I1021 16:54:26.361517 14900 net.cpp:367] bn1 -> conv1 (in-place)
I1021 16:54:26.362016 14900 net.cpp:122] Setting up bn1
I1021 16:54:26.362016 14900 net.cpp:129] Top shape: 100 30 28 28 (2352000)
I1021 16:54:26.362016 14900 net.cpp:137] Memory required for data: 19130800
I1021 16:54:26.362016 14900 layer_factory.cpp:58] Creating layer scale1
I1021 16:54:26.362016 14900 net.cpp:84] Creating Layer scale1
I1021 16:54:26.362016 14900 net.cpp:406] scale1 <- conv1
I1021 16:54:26.362016 14900 net.cpp:367] scale1 -> conv1 (in-place)
I1021 16:54:26.362016 14900 layer_factory.cpp:58] Creating layer scale1
I1021 16:54:26.362016 14900 net.cpp:122] Setting up scale1
I1021 16:54:26.362016 14900 net.cpp:129] Top shape: 100 30 28 28 (2352000)
I1021 16:54:26.362016 14900 net.cpp:137] Memory required for data: 28538800
I1021 16:54:26.362016 14900 layer_factory.cpp:58] Creating layer relu1
I1021 16:54:26.362016 14900 net.cpp:84] Creating Layer relu1
I1021 16:54:26.362016 14900 net.cpp:406] relu1 <- conv1
I1021 16:54:26.362016 14900 net.cpp:367] relu1 -> conv1 (in-place)
I1021 16:54:26.362016 14900 net.cpp:122] Setting up relu1
I1021 16:54:26.362016 14900 net.cpp:129] Top shape: 100 30 28 28 (2352000)
I1021 16:54:26.362016 14900 net.cpp:137] Memory required for data: 37946800
I1021 16:54:26.362016 14900 layer_factory.cpp:58] Creating layer conv1_0
I1021 16:54:26.362016 14900 net.cpp:84] Creating Layer conv1_0
I1021 16:54:26.362016 14900 net.cpp:406] conv1_0 <- conv1
I1021 16:54:26.362516 14900 net.cpp:380] conv1_0 -> conv1_0
I1021 16:54:26.364019 14900 net.cpp:122] Setting up conv1_0
I1021 16:54:26.364019 14900 net.cpp:129] Top shape: 100 40 28 28 (3136000)
I1021 16:54:26.364019 14900 net.cpp:137] Memory required for data: 50490800
I1021 16:54:26.364019 14900 layer_factory.cpp:58] Creating layer bn1_0
I1021 16:54:26.364019 14900 net.cpp:84] Creating Layer bn1_0
I1021 16:54:26.364019 14900 net.cpp:406] bn1_0 <- conv1_0
I1021 16:54:26.364019 14900 net.cpp:367] bn1_0 -> conv1_0 (in-place)
I1021 16:54:26.364019 14900 net.cpp:122] Setting up bn1_0
I1021 16:54:26.364019 14900 net.cpp:129] Top shape: 100 40 28 28 (3136000)
I1021 16:54:26.364019 14900 net.cpp:137] Memory required for data: 63034800
I1021 16:54:26.364019 14900 layer_factory.cpp:58] Creating layer scale1_0
I1021 16:54:26.364019 14900 net.cpp:84] Creating Layer scale1_0
I1021 16:54:26.364019 14900 net.cpp:406] scale1_0 <- conv1_0
I1021 16:54:26.364019 14900 net.cpp:367] scale1_0 -> conv1_0 (in-place)
I1021 16:54:26.364019 14900 layer_factory.cpp:58] Creating layer scale1_0
I1021 16:54:26.364019 14900 net.cpp:122] Setting up scale1_0
I1021 16:54:26.364019 14900 net.cpp:129] Top shape: 100 40 28 28 (3136000)
I1021 16:54:26.364019 14900 net.cpp:137] Memory required for data: 75578800
I1021 16:54:26.364019 14900 layer_factory.cpp:58] Creating layer relu1_0
I1021 16:54:26.364019 14900 net.cpp:84] Creating Layer relu1_0
I1021 16:54:26.364019 14900 net.cpp:406] relu1_0 <- conv1_0
I1021 16:54:26.364019 14900 net.cpp:367] relu1_0 -> conv1_0 (in-place)
I1021 16:54:26.365020 14900 net.cpp:122] Setting up relu1_0
I1021 16:54:26.365020 14900 net.cpp:129] Top shape: 100 40 28 28 (3136000)
I1021 16:54:26.365020 14900 net.cpp:137] Memory required for data: 88122800
I1021 16:54:26.365020 14900 layer_factory.cpp:58] Creating layer conv2
I1021 16:54:26.365020 14900 net.cpp:84] Creating Layer conv2
I1021 16:54:26.365020 14900 net.cpp:406] conv2 <- conv1_0
I1021 16:54:26.365020 14900 net.cpp:380] conv2 -> conv2
I1021 16:54:26.365020 14900 net.cpp:122] Setting up conv2
I1021 16:54:26.366019 14900 net.cpp:129] Top shape: 100 40 28 28 (3136000)
I1021 16:54:26.366019 14900 net.cpp:137] Memory required for data: 100666800
I1021 16:54:26.366019 14900 layer_factory.cpp:58] Creating layer bn2
I1021 16:54:26.366019 14900 net.cpp:84] Creating Layer bn2
I1021 16:54:26.366019 14900 net.cpp:406] bn2 <- conv2
I1021 16:54:26.366019 14900 net.cpp:367] bn2 -> conv2 (in-place)
I1021 16:54:26.366019 14900 net.cpp:122] Setting up bn2
I1021 16:54:26.366019 14900 net.cpp:129] Top shape: 100 40 28 28 (3136000)
I1021 16:54:26.366019 14900 net.cpp:137] Memory required for data: 113210800
I1021 16:54:26.366019 14900 layer_factory.cpp:58] Creating layer scale2
I1021 16:54:26.366019 14900 net.cpp:84] Creating Layer scale2
I1021 16:54:26.366019 14900 net.cpp:406] scale2 <- conv2
I1021 16:54:26.366019 14900 net.cpp:367] scale2 -> conv2 (in-place)
I1021 16:54:26.366019 14900 layer_factory.cpp:58] Creating layer scale2
I1021 16:54:26.366019 14900 net.cpp:122] Setting up scale2
I1021 16:54:26.366019 14900 net.cpp:129] Top shape: 100 40 28 28 (3136000)
I1021 16:54:26.366019 14900 net.cpp:137] Memory required for data: 125754800
I1021 16:54:26.366019 14900 layer_factory.cpp:58] Creating layer relu2
I1021 16:54:26.366019 14900 net.cpp:84] Creating Layer relu2
I1021 16:54:26.366019 14900 net.cpp:406] relu2 <- conv2
I1021 16:54:26.366019 14900 net.cpp:367] relu2 -> conv2 (in-place)
I1021 16:54:26.366019 14900 net.cpp:122] Setting up relu2
I1021 16:54:26.366019 14900 net.cpp:129] Top shape: 100 40 28 28 (3136000)
I1021 16:54:26.366019 14900 net.cpp:137] Memory required for data: 138298800
I1021 16:54:26.366019 14900 layer_factory.cpp:58] Creating layer conv2_1
I1021 16:54:26.366019 14900 net.cpp:84] Creating Layer conv2_1
I1021 16:54:26.366019 14900 net.cpp:406] conv2_1 <- conv2
I1021 16:54:26.366019 14900 net.cpp:380] conv2_1 -> conv2_1
I1021 16:54:26.368021 14900 net.cpp:122] Setting up conv2_1
I1021 16:54:26.368021 14900 net.cpp:129] Top shape: 100 40 28 28 (3136000)
I1021 16:54:26.368021 14900 net.cpp:137] Memory required for data: 150842800
I1021 16:54:26.368021 14900 layer_factory.cpp:58] Creating layer bn2_1
I1021 16:54:26.368021 14900 net.cpp:84] Creating Layer bn2_1
I1021 16:54:26.368021 14900 net.cpp:406] bn2_1 <- conv2_1
I1021 16:54:26.368021 14900 net.cpp:367] bn2_1 -> conv2_1 (in-place)
I1021 16:54:26.368021 14900 net.cpp:122] Setting up bn2_1
I1021 16:54:26.368021 14900 net.cpp:129] Top shape: 100 40 28 28 (3136000)
I1021 16:54:26.368021 14900 net.cpp:137] Memory required for data: 163386800
I1021 16:54:26.368021 14900 layer_factory.cpp:58] Creating layer scale2_1
I1021 16:54:26.368021 14900 net.cpp:84] Creating Layer scale2_1
I1021 16:54:26.368021 14900 net.cpp:406] scale2_1 <- conv2_1
I1021 16:54:26.368021 14900 net.cpp:367] scale2_1 -> conv2_1 (in-place)
I1021 16:54:26.368021 14900 layer_factory.cpp:58] Creating layer scale2_1
I1021 16:54:26.368021 14900 net.cpp:122] Setting up scale2_1
I1021 16:54:26.368021 14900 net.cpp:129] Top shape: 100 40 28 28 (3136000)
I1021 16:54:26.368021 14900 net.cpp:137] Memory required for data: 175930800
I1021 16:54:26.368021 14900 layer_factory.cpp:58] Creating layer relu2_1
I1021 16:54:26.368021 14900 net.cpp:84] Creating Layer relu2_1
I1021 16:54:26.368021 14900 net.cpp:406] relu2_1 <- conv2_1
I1021 16:54:26.368021 14900 net.cpp:367] relu2_1 -> conv2_1 (in-place)
I1021 16:54:26.368021 14900 net.cpp:122] Setting up relu2_1
I1021 16:54:26.368021 14900 net.cpp:129] Top shape: 100 40 28 28 (3136000)
I1021 16:54:26.368021 14900 net.cpp:137] Memory required for data: 188474800
I1021 16:54:26.368021 14900 layer_factory.cpp:58] Creating layer conv2_2
I1021 16:54:26.368021 14900 net.cpp:84] Creating Layer conv2_2
I1021 16:54:26.368021 14900 net.cpp:406] conv2_2 <- conv2_1
I1021 16:54:26.368021 14900 net.cpp:380] conv2_2 -> conv2_2
I1021 16:54:26.370020 14900 net.cpp:122] Setting up conv2_2
I1021 16:54:26.370020 14900 net.cpp:129] Top shape: 100 50 28 28 (3920000)
I1021 16:54:26.370020 14900 net.cpp:137] Memory required for data: 204154800
I1021 16:54:26.370020 14900 layer_factory.cpp:58] Creating layer bn2_2
I1021 16:54:26.370020 14900 net.cpp:84] Creating Layer bn2_2
I1021 16:54:26.370020 14900 net.cpp:406] bn2_2 <- conv2_2
I1021 16:54:26.370020 14900 net.cpp:367] bn2_2 -> conv2_2 (in-place)
I1021 16:54:26.370020 14900 net.cpp:122] Setting up bn2_2
I1021 16:54:26.370020 14900 net.cpp:129] Top shape: 100 50 28 28 (3920000)
I1021 16:54:26.370020 14900 net.cpp:137] Memory required for data: 219834800
I1021 16:54:26.370020 14900 layer_factory.cpp:58] Creating layer scale2_2
I1021 16:54:26.370020 14900 net.cpp:84] Creating Layer scale2_2
I1021 16:54:26.370020 14900 net.cpp:406] scale2_2 <- conv2_2
I1021 16:54:26.370020 14900 net.cpp:367] scale2_2 -> conv2_2 (in-place)
I1021 16:54:26.370020 14900 layer_factory.cpp:58] Creating layer scale2_2
I1021 16:54:26.370020 14900 net.cpp:122] Setting up scale2_2
I1021 16:54:26.370020 14900 net.cpp:129] Top shape: 100 50 28 28 (3920000)
I1021 16:54:26.370020 14900 net.cpp:137] Memory required for data: 235514800
I1021 16:54:26.370020 14900 layer_factory.cpp:58] Creating layer relu2_2
I1021 16:54:26.370020 14900 net.cpp:84] Creating Layer relu2_2
I1021 16:54:26.370020 14900 net.cpp:406] relu2_2 <- conv2_2
I1021 16:54:26.371021 14900 net.cpp:367] relu2_2 -> conv2_2 (in-place)
I1021 16:54:26.371021 14900 net.cpp:122] Setting up relu2_2
I1021 16:54:26.371021 14900 net.cpp:129] Top shape: 100 50 28 28 (3920000)
I1021 16:54:26.371021 14900 net.cpp:137] Memory required for data: 251194800
I1021 16:54:26.371021 14900 layer_factory.cpp:58] Creating layer pool2_1
I1021 16:54:26.371021 14900 net.cpp:84] Creating Layer pool2_1
I1021 16:54:26.371021 14900 net.cpp:406] pool2_1 <- conv2_2
I1021 16:54:26.371021 14900 net.cpp:380] pool2_1 -> pool2_1
I1021 16:54:26.371021 14900 net.cpp:122] Setting up pool2_1
I1021 16:54:26.371021 14900 net.cpp:129] Top shape: 100 50 14 14 (980000)
I1021 16:54:26.371021 14900 net.cpp:137] Memory required for data: 255114800
I1021 16:54:26.371021 14900 layer_factory.cpp:58] Creating layer drop5
I1021 16:54:26.371021 14900 net.cpp:84] Creating Layer drop5
I1021 16:54:26.371021 14900 net.cpp:406] drop5 <- pool2_1
I1021 16:54:26.371021 14900 net.cpp:367] drop5 -> pool2_1 (in-place)
I1021 16:54:26.371021 14900 net.cpp:122] Setting up drop5
I1021 16:54:26.371021 14900 net.cpp:129] Top shape: 100 50 14 14 (980000)
I1021 16:54:26.371021 14900 net.cpp:137] Memory required for data: 259034800
I1021 16:54:26.371021 14900 layer_factory.cpp:58] Creating layer conv3
I1021 16:54:26.371021 14900 net.cpp:84] Creating Layer conv3
I1021 16:54:26.371021 14900 net.cpp:406] conv3 <- pool2_1
I1021 16:54:26.371021 14900 net.cpp:380] conv3 -> conv3
I1021 16:54:26.372020 14900 net.cpp:122] Setting up conv3
I1021 16:54:26.372020 14900 net.cpp:129] Top shape: 100 50 14 14 (980000)
I1021 16:54:26.372020 14900 net.cpp:137] Memory required for data: 262954800
I1021 16:54:26.372020 14900 layer_factory.cpp:58] Creating layer bn3
I1021 16:54:26.372020 14900 net.cpp:84] Creating Layer bn3
I1021 16:54:26.372020 14900 net.cpp:406] bn3 <- conv3
I1021 16:54:26.372020 14900 net.cpp:367] bn3 -> conv3 (in-place)
I1021 16:54:26.372020 14900 net.cpp:122] Setting up bn3
I1021 16:54:26.372020 14900 net.cpp:129] Top shape: 100 50 14 14 (980000)
I1021 16:54:26.372020 14900 net.cpp:137] Memory required for data: 266874800
I1021 16:54:26.372020 14900 layer_factory.cpp:58] Creating layer scale3
I1021 16:54:26.372020 14900 net.cpp:84] Creating Layer scale3
I1021 16:54:26.372020 14900 net.cpp:406] scale3 <- conv3
I1021 16:54:26.372020 14900 net.cpp:367] scale3 -> conv3 (in-place)
I1021 16:54:26.372020 14900 layer_factory.cpp:58] Creating layer scale3
I1021 16:54:26.372020 14900 net.cpp:122] Setting up scale3
I1021 16:54:26.372020 14900 net.cpp:129] Top shape: 100 50 14 14 (980000)
I1021 16:54:26.372020 14900 net.cpp:137] Memory required for data: 270794800
I1021 16:54:26.372020 14900 layer_factory.cpp:58] Creating layer relu3
I1021 16:54:26.372020 14900 net.cpp:84] Creating Layer relu3
I1021 16:54:26.372020 14900 net.cpp:406] relu3 <- conv3
I1021 16:54:26.372020 14900 net.cpp:367] relu3 -> conv3 (in-place)
I1021 16:54:26.373019 14900 net.cpp:122] Setting up relu3
I1021 16:54:26.373019 14900 net.cpp:129] Top shape: 100 50 14 14 (980000)
I1021 16:54:26.373019 14900 net.cpp:137] Memory required for data: 274714800
I1021 16:54:26.373019 14900 layer_factory.cpp:58] Creating layer conv3_1
I1021 16:54:26.373019 14900 net.cpp:84] Creating Layer conv3_1
I1021 16:54:26.373019 14900 net.cpp:406] conv3_1 <- conv3
I1021 16:54:26.373019 14900 net.cpp:380] conv3_1 -> conv3_1
I1021 16:54:26.374019 14900 net.cpp:122] Setting up conv3_1
I1021 16:54:26.374019 14900 net.cpp:129] Top shape: 100 50 14 14 (980000)
I1021 16:54:26.374019 14900 net.cpp:137] Memory required for data: 278634800
I1021 16:54:26.374019 14900 layer_factory.cpp:58] Creating layer bn3_1
I1021 16:54:26.374019 14900 net.cpp:84] Creating Layer bn3_1
I1021 16:54:26.374019 14900 net.cpp:406] bn3_1 <- conv3_1
I1021 16:54:26.374019 14900 net.cpp:367] bn3_1 -> conv3_1 (in-place)
I1021 16:54:26.374019 14900 net.cpp:122] Setting up bn3_1
I1021 16:54:26.374019 14900 net.cpp:129] Top shape: 100 50 14 14 (980000)
I1021 16:54:26.374019 14900 net.cpp:137] Memory required for data: 282554800
I1021 16:54:26.374019 14900 layer_factory.cpp:58] Creating layer scale3_1
I1021 16:54:26.374019 14900 net.cpp:84] Creating Layer scale3_1
I1021 16:54:26.374019 14900 net.cpp:406] scale3_1 <- conv3_1
I1021 16:54:26.374019 14900 net.cpp:367] scale3_1 -> conv3_1 (in-place)
I1021 16:54:26.374019 14900 layer_factory.cpp:58] Creating layer scale3_1
I1021 16:54:26.375020 14900 net.cpp:122] Setting up scale3_1
I1021 16:54:26.375020 14900 net.cpp:129] Top shape: 100 50 14 14 (980000)
I1021 16:54:26.375020 14900 net.cpp:137] Memory required for data: 286474800
I1021 16:54:26.375020 14900 layer_factory.cpp:58] Creating layer relu3_1
I1021 16:54:26.375020 14900 net.cpp:84] Creating Layer relu3_1
I1021 16:54:26.375020 14900 net.cpp:406] relu3_1 <- conv3_1
I1021 16:54:26.375020 14900 net.cpp:367] relu3_1 -> conv3_1 (in-place)
I1021 16:54:26.375020 14900 net.cpp:122] Setting up relu3_1
I1021 16:54:26.375020 14900 net.cpp:129] Top shape: 100 50 14 14 (980000)
I1021 16:54:26.375020 14900 net.cpp:137] Memory required for data: 290394800
I1021 16:54:26.375020 14900 layer_factory.cpp:58] Creating layer conv4
I1021 16:54:26.375020 14900 net.cpp:84] Creating Layer conv4
I1021 16:54:26.375020 14900 net.cpp:406] conv4 <- conv3_1
I1021 16:54:26.375020 14900 net.cpp:380] conv4 -> conv4
I1021 16:54:26.376020 14900 net.cpp:122] Setting up conv4
I1021 16:54:26.376020 14900 net.cpp:129] Top shape: 100 50 14 14 (980000)
I1021 16:54:26.376020 14900 net.cpp:137] Memory required for data: 294314800
I1021 16:54:26.376020 14900 layer_factory.cpp:58] Creating layer bn4
I1021 16:54:26.376020 14900 net.cpp:84] Creating Layer bn4
I1021 16:54:26.376020 14900 net.cpp:406] bn4 <- conv4
I1021 16:54:26.376020 14900 net.cpp:367] bn4 -> conv4 (in-place)
I1021 16:54:26.376020 14900 net.cpp:122] Setting up bn4
I1021 16:54:26.376020 14900 net.cpp:129] Top shape: 100 50 14 14 (980000)
I1021 16:54:26.376020 14900 net.cpp:137] Memory required for data: 298234800
I1021 16:54:26.376020 14900 layer_factory.cpp:58] Creating layer scale4
I1021 16:54:26.376020 14900 net.cpp:84] Creating Layer scale4
I1021 16:54:26.376020 14900 net.cpp:406] scale4 <- conv4
I1021 16:54:26.376020 14900 net.cpp:367] scale4 -> conv4 (in-place)
I1021 16:54:26.376020 14900 layer_factory.cpp:58] Creating layer scale4
I1021 16:54:26.376020 14900 net.cpp:122] Setting up scale4
I1021 16:54:26.376020 14900 net.cpp:129] Top shape: 100 50 14 14 (980000)
I1021 16:54:26.376020 14900 net.cpp:137] Memory required for data: 302154800
I1021 16:54:26.376020 14900 layer_factory.cpp:58] Creating layer relu4
I1021 16:54:26.376020 14900 net.cpp:84] Creating Layer relu4
I1021 16:54:26.376020 14900 net.cpp:406] relu4 <- conv4
I1021 16:54:26.376020 14900 net.cpp:367] relu4 -> conv4 (in-place)
I1021 16:54:26.377020 14900 net.cpp:122] Setting up relu4
I1021 16:54:26.377020 14900 net.cpp:129] Top shape: 100 50 14 14 (980000)
I1021 16:54:26.377020 14900 net.cpp:137] Memory required for data: 306074800
I1021 16:54:26.377020 14900 layer_factory.cpp:58] Creating layer conv4_1
I1021 16:54:26.377020 14900 net.cpp:84] Creating Layer conv4_1
I1021 16:54:26.377020 14900 net.cpp:406] conv4_1 <- conv4
I1021 16:54:26.377020 14900 net.cpp:380] conv4_1 -> conv4_1
I1021 16:54:26.378020 14900 net.cpp:122] Setting up conv4_1
I1021 16:54:26.378020 14900 net.cpp:129] Top shape: 100 50 14 14 (980000)
I1021 16:54:26.378020 14900 net.cpp:137] Memory required for data: 309994800
I1021 16:54:26.378020 14900 layer_factory.cpp:58] Creating layer bn4_1
I1021 16:54:26.378020 14900 net.cpp:84] Creating Layer bn4_1
I1021 16:54:26.378020 14900 net.cpp:406] bn4_1 <- conv4_1
I1021 16:54:26.378020 14900 net.cpp:367] bn4_1 -> conv4_1 (in-place)
I1021 16:54:26.378020 14900 net.cpp:122] Setting up bn4_1
I1021 16:54:26.378020 14900 net.cpp:129] Top shape: 100 50 14 14 (980000)
I1021 16:54:26.378020 14900 net.cpp:137] Memory required for data: 313914800
I1021 16:54:26.378020 14900 layer_factory.cpp:58] Creating layer scale4_1
I1021 16:54:26.378020 14900 net.cpp:84] Creating Layer scale4_1
I1021 16:54:26.378020 14900 net.cpp:406] scale4_1 <- conv4_1
I1021 16:54:26.378020 14900 net.cpp:367] scale4_1 -> conv4_1 (in-place)
I1021 16:54:26.378020 14900 layer_factory.cpp:58] Creating layer scale4_1
I1021 16:54:26.378020 14900 net.cpp:122] Setting up scale4_1
I1021 16:54:26.378020 14900 net.cpp:129] Top shape: 100 50 14 14 (980000)
I1021 16:54:26.378020 14900 net.cpp:137] Memory required for data: 317834800
I1021 16:54:26.378020 14900 layer_factory.cpp:58] Creating layer relu4_1
I1021 16:54:26.378020 14900 net.cpp:84] Creating Layer relu4_1
I1021 16:54:26.378020 14900 net.cpp:406] relu4_1 <- conv4_1
I1021 16:54:26.378020 14900 net.cpp:367] relu4_1 -> conv4_1 (in-place)
I1021 16:54:26.379019 14900 net.cpp:122] Setting up relu4_1
I1021 16:54:26.379019 14900 net.cpp:129] Top shape: 100 50 14 14 (980000)
I1021 16:54:26.379019 14900 net.cpp:137] Memory required for data: 321754800
I1021 16:54:26.379019 14900 layer_factory.cpp:58] Creating layer conv4_2
I1021 16:54:26.379019 14900 net.cpp:84] Creating Layer conv4_2
I1021 16:54:26.379019 14900 net.cpp:406] conv4_2 <- conv4_1
I1021 16:54:26.379019 14900 net.cpp:380] conv4_2 -> conv4_2
I1021 16:54:26.380020 14900 net.cpp:122] Setting up conv4_2
I1021 16:54:26.380020 14900 net.cpp:129] Top shape: 100 58 14 14 (1136800)
I1021 16:54:26.380020 14900 net.cpp:137] Memory required for data: 326302000
I1021 16:54:26.380020 14900 layer_factory.cpp:58] Creating layer bn4_2
I1021 16:54:26.380020 14900 net.cpp:84] Creating Layer bn4_2
I1021 16:54:26.380020 14900 net.cpp:406] bn4_2 <- conv4_2
I1021 16:54:26.380020 14900 net.cpp:367] bn4_2 -> conv4_2 (in-place)
I1021 16:54:26.380020 14900 net.cpp:122] Setting up bn4_2
I1021 16:54:26.380020 14900 net.cpp:129] Top shape: 100 58 14 14 (1136800)
I1021 16:54:26.380020 14900 net.cpp:137] Memory required for data: 330849200
I1021 16:54:26.380020 14900 layer_factory.cpp:58] Creating layer scale4_2
I1021 16:54:26.380020 14900 net.cpp:84] Creating Layer scale4_2
I1021 16:54:26.380020 14900 net.cpp:406] scale4_2 <- conv4_2
I1021 16:54:26.380020 14900 net.cpp:367] scale4_2 -> conv4_2 (in-place)
I1021 16:54:26.380020 14900 layer_factory.cpp:58] Creating layer scale4_2
I1021 16:54:26.380020 14900 net.cpp:122] Setting up scale4_2
I1021 16:54:26.380020 14900 net.cpp:129] Top shape: 100 58 14 14 (1136800)
I1021 16:54:26.381021 14900 net.cpp:137] Memory required for data: 335396400
I1021 16:54:26.381021 14900 layer_factory.cpp:58] Creating layer relu4_2
I1021 16:54:26.381021 14900 net.cpp:84] Creating Layer relu4_2
I1021 16:54:26.381021 14900 net.cpp:406] relu4_2 <- conv4_2
I1021 16:54:26.381021 14900 net.cpp:367] relu4_2 -> conv4_2 (in-place)
I1021 16:54:26.381021 14900 net.cpp:122] Setting up relu4_2
I1021 16:54:26.381021 14900 net.cpp:129] Top shape: 100 58 14 14 (1136800)
I1021 16:54:26.381021 14900 net.cpp:137] Memory required for data: 339943600
I1021 16:54:26.381021 14900 layer_factory.cpp:58] Creating layer pool4_2
I1021 16:54:26.381021 14900 net.cpp:84] Creating Layer pool4_2
I1021 16:54:26.381021 14900 net.cpp:406] pool4_2 <- conv4_2
I1021 16:54:26.381021 14900 net.cpp:380] pool4_2 -> pool4_2
I1021 16:54:26.381021 14900 net.cpp:122] Setting up pool4_2
I1021 16:54:26.381021 14900 net.cpp:129] Top shape: 100 58 7 7 (284200)
I1021 16:54:26.381021 14900 net.cpp:137] Memory required for data: 341080400
I1021 16:54:26.381021 14900 layer_factory.cpp:58] Creating layer drop9
I1021 16:54:26.381021 14900 net.cpp:84] Creating Layer drop9
I1021 16:54:26.381021 14900 net.cpp:406] drop9 <- pool4_2
I1021 16:54:26.381021 14900 net.cpp:367] drop9 -> pool4_2 (in-place)
I1021 16:54:26.381021 14900 net.cpp:122] Setting up drop9
I1021 16:54:26.381021 14900 net.cpp:129] Top shape: 100 58 7 7 (284200)
I1021 16:54:26.381021 14900 net.cpp:137] Memory required for data: 342217200
I1021 16:54:26.381021 14900 layer_factory.cpp:58] Creating layer conv4_0
I1021 16:54:26.381021 14900 net.cpp:84] Creating Layer conv4_0
I1021 16:54:26.381021 14900 net.cpp:406] conv4_0 <- pool4_2
I1021 16:54:26.381021 14900 net.cpp:380] conv4_0 -> conv4_0
I1021 16:54:26.382019 14900 net.cpp:122] Setting up conv4_0
I1021 16:54:26.382019 14900 net.cpp:129] Top shape: 100 58 7 7 (284200)
I1021 16:54:26.382019 14900 net.cpp:137] Memory required for data: 343354000
I1021 16:54:26.382019 14900 layer_factory.cpp:58] Creating layer bn4_0
I1021 16:54:26.382019 14900 net.cpp:84] Creating Layer bn4_0
I1021 16:54:26.382019 14900 net.cpp:406] bn4_0 <- conv4_0
I1021 16:54:26.382019 14900 net.cpp:367] bn4_0 -> conv4_0 (in-place)
I1021 16:54:26.382019 14900 net.cpp:122] Setting up bn4_0
I1021 16:54:26.382019 14900 net.cpp:129] Top shape: 100 58 7 7 (284200)
I1021 16:54:26.382019 14900 net.cpp:137] Memory required for data: 344490800
I1021 16:54:26.382019 14900 layer_factory.cpp:58] Creating layer scale4_0
I1021 16:54:26.382019 14900 net.cpp:84] Creating Layer scale4_0
I1021 16:54:26.382019 14900 net.cpp:406] scale4_0 <- conv4_0
I1021 16:54:26.382019 14900 net.cpp:367] scale4_0 -> conv4_0 (in-place)
I1021 16:54:26.382019 14900 layer_factory.cpp:58] Creating layer scale4_0
I1021 16:54:26.382019 14900 net.cpp:122] Setting up scale4_0
I1021 16:54:26.382019 14900 net.cpp:129] Top shape: 100 58 7 7 (284200)
I1021 16:54:26.382019 14900 net.cpp:137] Memory required for data: 345627600
I1021 16:54:26.382019 14900 layer_factory.cpp:58] Creating layer relu4_0
I1021 16:54:26.382019 14900 net.cpp:84] Creating Layer relu4_0
I1021 16:54:26.382019 14900 net.cpp:406] relu4_0 <- conv4_0
I1021 16:54:26.382019 14900 net.cpp:367] relu4_0 -> conv4_0 (in-place)
I1021 16:54:26.383019 14900 net.cpp:122] Setting up relu4_0
I1021 16:54:26.383019 14900 net.cpp:129] Top shape: 100 58 7 7 (284200)
I1021 16:54:26.383019 14900 net.cpp:137] Memory required for data: 346764400
I1021 16:54:26.383019 14900 layer_factory.cpp:58] Creating layer conv11
I1021 16:54:26.383019 14900 net.cpp:84] Creating Layer conv11
I1021 16:54:26.383019 14900 net.cpp:406] conv11 <- conv4_0
I1021 16:54:26.383019 14900 net.cpp:380] conv11 -> conv11
I1021 16:54:26.384019 14900 net.cpp:122] Setting up conv11
I1021 16:54:26.384019 14900 net.cpp:129] Top shape: 100 70 7 7 (343000)
I1021 16:54:26.384019 14900 net.cpp:137] Memory required for data: 348136400
I1021 16:54:26.384019 14900 layer_factory.cpp:58] Creating layer bn_conv11
I1021 16:54:26.384019 14900 net.cpp:84] Creating Layer bn_conv11
I1021 16:54:26.384019 14900 net.cpp:406] bn_conv11 <- conv11
I1021 16:54:26.384019 14900 net.cpp:367] bn_conv11 -> conv11 (in-place)
I1021 16:54:26.385020 14900 net.cpp:122] Setting up bn_conv11
I1021 16:54:26.385020 14900 net.cpp:129] Top shape: 100 70 7 7 (343000)
I1021 16:54:26.385020 14900 net.cpp:137] Memory required for data: 349508400
I1021 16:54:26.385020 14900 layer_factory.cpp:58] Creating layer scale_conv11
I1021 16:54:26.385020 14900 net.cpp:84] Creating Layer scale_conv11
I1021 16:54:26.385020 14900 net.cpp:406] scale_conv11 <- conv11
I1021 16:54:26.385020 14900 net.cpp:367] scale_conv11 -> conv11 (in-place)
I1021 16:54:26.385020 14900 layer_factory.cpp:58] Creating layer scale_conv11
I1021 16:54:26.385020 14900 net.cpp:122] Setting up scale_conv11
I1021 16:54:26.385020 14900 net.cpp:129] Top shape: 100 70 7 7 (343000)
I1021 16:54:26.385020 14900 net.cpp:137] Memory required for data: 350880400
I1021 16:54:26.385020 14900 layer_factory.cpp:58] Creating layer relu_conv11
I1021 16:54:26.385020 14900 net.cpp:84] Creating Layer relu_conv11
I1021 16:54:26.385020 14900 net.cpp:406] relu_conv11 <- conv11
I1021 16:54:26.385020 14900 net.cpp:367] relu_conv11 -> conv11 (in-place)
I1021 16:54:26.385020 14900 net.cpp:122] Setting up relu_conv11
I1021 16:54:26.385020 14900 net.cpp:129] Top shape: 100 70 7 7 (343000)
I1021 16:54:26.385020 14900 net.cpp:137] Memory required for data: 352252400
I1021 16:54:26.385020 14900 layer_factory.cpp:58] Creating layer conv12
I1021 16:54:26.385020 14900 net.cpp:84] Creating Layer conv12
I1021 16:54:26.385020 14900 net.cpp:406] conv12 <- conv11
I1021 16:54:26.385020 14900 net.cpp:380] conv12 -> conv12
I1021 16:54:26.387023 14900 net.cpp:122] Setting up conv12
I1021 16:54:26.387023 14900 net.cpp:129] Top shape: 100 90 7 7 (441000)
I1021 16:54:26.387023 14900 net.cpp:137] Memory required for data: 354016400
I1021 16:54:26.387023 14900 layer_factory.cpp:58] Creating layer bn_conv12
I1021 16:54:26.387023 14900 net.cpp:84] Creating Layer bn_conv12
I1021 16:54:26.387023 14900 net.cpp:406] bn_conv12 <- conv12
I1021 16:54:26.387023 14900 net.cpp:367] bn_conv12 -> conv12 (in-place)
I1021 16:54:26.387023 14900 net.cpp:122] Setting up bn_conv12
I1021 16:54:26.387023 14900 net.cpp:129] Top shape: 100 90 7 7 (441000)
I1021 16:54:26.387023 14900 net.cpp:137] Memory required for data: 355780400
I1021 16:54:26.387023 14900 layer_factory.cpp:58] Creating layer scale_conv12
I1021 16:54:26.387023 14900 net.cpp:84] Creating Layer scale_conv12
I1021 16:54:26.387023 14900 net.cpp:406] scale_conv12 <- conv12
I1021 16:54:26.387023 14900 net.cpp:367] scale_conv12 -> conv12 (in-place)
I1021 16:54:26.387023 14900 layer_factory.cpp:58] Creating layer scale_conv12
I1021 16:54:26.387023 14900 net.cpp:122] Setting up scale_conv12
I1021 16:54:26.387023 14900 net.cpp:129] Top shape: 100 90 7 7 (441000)
I1021 16:54:26.387023 14900 net.cpp:137] Memory required for data: 357544400
I1021 16:54:26.387023 14900 layer_factory.cpp:58] Creating layer relu_conv12
I1021 16:54:26.387023 14900 net.cpp:84] Creating Layer relu_conv12
I1021 16:54:26.387023 14900 net.cpp:406] relu_conv12 <- conv12
I1021 16:54:26.387023 14900 net.cpp:367] relu_conv12 -> conv12 (in-place)
I1021 16:54:26.387023 14900 net.cpp:122] Setting up relu_conv12
I1021 16:54:26.387023 14900 net.cpp:129] Top shape: 100 90 7 7 (441000)
I1021 16:54:26.387023 14900 net.cpp:137] Memory required for data: 359308400
I1021 16:54:26.387023 14900 layer_factory.cpp:58] Creating layer poolcp6
I1021 16:54:26.387023 14900 net.cpp:84] Creating Layer poolcp6
I1021 16:54:26.387023 14900 net.cpp:406] poolcp6 <- conv12
I1021 16:54:26.387023 14900 net.cpp:380] poolcp6 -> poolcp6
I1021 16:54:26.387023 14900 net.cpp:122] Setting up poolcp6
I1021 16:54:26.387023 14900 net.cpp:129] Top shape: 100 90 1 1 (9000)
I1021 16:54:26.387023 14900 net.cpp:137] Memory required for data: 359344400
I1021 16:54:26.387023 14900 layer_factory.cpp:58] Creating layer drop12
I1021 16:54:26.387023 14900 net.cpp:84] Creating Layer drop12
I1021 16:54:26.387023 14900 net.cpp:406] drop12 <- poolcp6
I1021 16:54:26.387023 14900 net.cpp:367] drop12 -> poolcp6 (in-place)
I1021 16:54:26.387023 14900 net.cpp:122] Setting up drop12
I1021 16:54:26.387023 14900 net.cpp:129] Top shape: 100 90 1 1 (9000)
I1021 16:54:26.387023 14900 net.cpp:137] Memory required for data: 359380400
I1021 16:54:26.387023 14900 layer_factory.cpp:58] Creating layer ip1
I1021 16:54:26.387023 14900 net.cpp:84] Creating Layer ip1
I1021 16:54:26.387023 14900 net.cpp:406] ip1 <- poolcp6
I1021 16:54:26.387023 14900 net.cpp:380] ip1 -> ip1
I1021 16:54:26.388020 14900 net.cpp:122] Setting up ip1
I1021 16:54:26.388020 14900 net.cpp:129] Top shape: 100 10 (1000)
I1021 16:54:26.388020 14900 net.cpp:137] Memory required for data: 359384400
I1021 16:54:26.388020 14900 layer_factory.cpp:58] Creating layer ip1_ip1_0_split
I1021 16:54:26.388020 14900 net.cpp:84] Creating Layer ip1_ip1_0_split
I1021 16:54:26.388020 14900 net.cpp:406] ip1_ip1_0_split <- ip1
I1021 16:54:26.388020 14900 net.cpp:380] ip1_ip1_0_split -> ip1_ip1_0_split_0
I1021 16:54:26.388020 14900 net.cpp:380] ip1_ip1_0_split -> ip1_ip1_0_split_1
I1021 16:54:26.388020 14900 net.cpp:122] Setting up ip1_ip1_0_split
I1021 16:54:26.388020 14900 net.cpp:129] Top shape: 100 10 (1000)
I1021 16:54:26.388020 14900 net.cpp:129] Top shape: 100 10 (1000)
I1021 16:54:26.388020 14900 net.cpp:137] Memory required for data: 359392400
I1021 16:54:26.388020 14900 layer_factory.cpp:58] Creating layer accuracy_training
I1021 16:54:26.388020 14900 net.cpp:84] Creating Layer accuracy_training
I1021 16:54:26.388020 14900 net.cpp:406] accuracy_training <- ip1_ip1_0_split_0
I1021 16:54:26.388020 14900 net.cpp:406] accuracy_training <- label_mnist_1_split_0
…
