…
I0630 20:12:13.369079  4668 net.cpp:294] The NetState phase (0) differed from the phase (1) specified by a rule in layer accuracy
I0630 20:12:13.369079  4668 net.cpp:51] Initializing net from parameters: 
name: "CIFAR10_SimpleNet_13_128k_first_1x1"
state {
  phase: TRAIN
  level: 0
  stage: ""
}
layer {
  name: "cifar"
  type: "Data"
  top: "data"
  top: "label"
  include {
    phase: TRAIN
  }
  transform_param {
    mirror: true
    crop_size: 32
  }
  data_param {
    source: "examples/cifar10/cifar10_train_leveldb_padding"
    batch_size: 100
    backend: LEVELDB
  }
}
layer {
  name: "conv1"
  type: "Convolution"
  bottom: "data"
  top: "conv1"
  param {
    lr_mult: 1
  }
  convolution_param {
    num_output: 20
    bias_term: true
    kernel_size: 1
    stride: 1
    weight_filler {
      type: "xavier"
    }
  }
}
layer {
  name: "bn1"
  type: "BatchNorm"
  bottom: "conv1"
  top: "conv1"
  param {
    lr_mult: 0
    decay_mult: 0
  }
  param {
    lr_mult: 0
    decay_mult: 0
  }
  param {
    lr_mult: 0
    decay_mult: 0
  }
  include {
    phase: TRAIN
  }
  batch_norm_param {
    use_global_stats: false
    moving_average_fraction: 0.95
  }
}
layer {
  name: "scale1"
  type: "Scale"
  bottom: "conv1"
  top: "conv1"
  scale_param {
    bias_term: true
  }
}
layer {
  name: "relu1"
  type: "ReLU"
  bottom: "conv1"
  top: "conv1"
}
layer {
  name: "conv1_0"
  type: "Convolution"
  bottom: "conv1"
  top: "conv1_0"
  param {
    lr_mult: 1
  }
  convolution_param {
    num_output: 32
    bias_term: true
    kernel_size: 1
    stride: 1
    weight_filler {
      type: "xavier"
    }
  }
}
layer {
  name: "bn1_0"
  type: "BatchNorm"
  bottom: "conv1_0"
  top: "conv1_0"
  param {
    lr_mult: 0
    decay_mult: 0
  }
  param {
    lr_mult: 0
    decay_mult: 0
  }
  param {
    lr_mult: 0
    decay_mult: 0
  }
  include {
    phase: TRAIN
  }
  batch_norm_param {
    use_global_stats: false
    moving_average_fraction: 0.95
  }
}
layer {
  name: "scale1_0"
  type: "Scale"
  bottom: "conv1_0"
  top: "conv1_0"
  scale_param {
    bias_term: true
  }
}
layer {
  name: "relu1_0"
  type: "ReLU"
  bottom: "conv1_0"
  top: "conv1_0"
}
layer {
  name: "conv2"
  type: "Convolution"
  bottom: "conv1_0"
  top: "conv2"
  param {
    lr_mult: 1
  }
  convolution_param {
    num_output: 32
    bias_term: true
    kernel_size: 1
    stride: 1
    weight_filler {
      type: "gaussian"
      std: 0.01
    }
  }
}
layer {
  name: "bn2"
  type: "BatchNorm"
  bottom: "conv2"
  top: "conv2"
  param {
    lr_mult: 0
    decay_mult: 0
  }
  param {
    lr_mult: 0
    decay_mult: 0
  }
  param {
    lr_mult: 0
    decay_mult: 0
  }
  include {
    phase: TRAIN
  }
  batch_norm_param {
    use_global_stats: false
    moving_average_fraction: 0.95
  }
}
layer {
  name: "scale2"
  type: "Scale"
  bottom: "conv2"
  top: "conv2"
  scale_param {
    bias_term: true
  }
}
layer {
  name: "relu2"
  type: "ReLU"
  bottom: "conv2"
  top: "conv2"
}
layer {
  name: "conv2_1"
  type: "Convolution"
  bottom: "conv2"
  top: "conv2_1"
  param {
    lr_mult: 1
  }
  convolution_param {
    num_output: 32
    bias_term: true
    pad: 1
    kernel_size: 3
    stride: 1
    weight_filler {
      type: "gaussian"
      std: 0.01
    }
  }
}
layer {
  name: "bn2_1"
  type: "BatchNorm"
  bottom: "conv2_1"
  top: "conv2_1"
  param {
    lr_mult: 0
    decay_mult: 0
  }
  param {
    lr_mult: 0
    decay_mult: 0
  }
  param {
    lr_mult: 0
    decay_mult: 0
  }
  include {
    phase: TRAIN
  }
  batch_norm_param {
    use_global_stats: false
    moving_average_fraction: 0.95
  }
}
layer {
  name: "scale2_1"
  type: "Scale"
  bottom: "conv2_1"
  top: "conv2_1"
  scale_param {
    bias_term: true
  }
}
layer {
  name: "relu2_1"
  type: "ReLU"
  bottom: "conv2_1"
  top: "conv2_1"
}
layer {
  name: "conv2_2"
  type: "Convolution"
  bottom: "conv2_1"
  top: "conv2_2"
  param {
    lr_mult: 1
  }
  convolution_param {
    num_output: 32
    bias_term: true
    pad: 1
    kernel_size: 3
    stride: 1
    weight_filler {
      type: "gaussian"
      std: 0.01
    }
  }
}
layer {
  name: "bn2_2"
  type: "BatchNorm"
  bottom: "conv2_2"
  top: "conv2_2"
  param {
    lr_mult: 0
    decay_mult: 0
  }
  param {
    lr_mult: 0
    decay_mult: 0
  }
  param {
    lr_mult: 0
    decay_mult: 0
  }
  include {
    phase: TRAIN
  }
  batch_norm_param {
    use_global_stats: false
    moving_average_fraction: 0.95
  }
}
layer {
  name: "scale2_2"
  type: "Scale"
  bottom: "conv2_2"
  top: "conv2_2"
  scale_param {
    bias_term: true
  }
}
layer {
  name: "relu2_2"
  type: "ReLU"
  bottom: "conv2_2"
  top: "conv2_2"
}
layer {
  name: "pool2_1"
  type: "Pooling"
  bottom: "conv2_2"
  top: "pool2_1"
  pooling_param {
    pool: MAX
    kernel_size: 2
    stride: 2
  }
}
layer {
  name: "conv3"
  type: "Convolution"
  bottom: "pool2_1"
  top: "conv3"
  param {
    lr_mult: 1
  }
  convolution_param {
    num_output: 32
    bias_term: true
    pad: 1
    kernel_size: 3
    stride: 1
    weight_filler {
      type: "xavier"
    }
  }
}
layer {
  name: "bn3"
  type: "BatchNorm"
  bottom: "conv3"
  top: "conv3"
  param {
    lr_mult: 0
    decay_mult: 0
  }
  param {
    lr_mult: 0
    decay_mult: 0
  }
  param {
    lr_mult: 0
    decay_mult: 0
  }
  include {
    phase: TRAIN
  }
  batch_norm_param {
    use_global_stats: false
    moving_average_fraction: 0.95
  }
}
layer {
  name: "scale3"
  type: "Scale"
  bottom: "conv3"
  top: "conv3"
  scale_param {
    bias_term: true
  }
}
layer {
  name: "relu3"
  type: "ReLU"
  bottom: "conv3"
  top: "conv3"
}
layer {
  name: "conv4"
  type: "Convolution"
  bottom: "conv3"
  top: "conv4"
  param {
    lr_mult: 1
  }
  convolution_param {
    num_output: 32
    bias_term: true
    pad: 1
    kernel_size: 3
    stride: 1
    weight_filler {
      type: "xavier"
    }
  }
}
layer {
  name: "bn4"
  type: "BatchNorm"
  bottom: "conv4"
  top: "conv4"
  param {
    lr_mult: 0
    decay_mult: 0
  }
  param {
    lr_mult: 0
    decay_mult: 0
  }
  param {
    lr_mult: 0
    decay_mult: 0
  }
  include {
    phase: TRAIN
  }
  batch_norm_param {
    use_global_stats: false
    moving_average_fraction: 0.95
  }
}
layer {
  name: "scale4"
  type: "Scale"
  bottom: "conv4"
  top: "conv4"
  scale_param {
    bias_term: true
  }
}
layer {
  name: "relu4"
  type: "ReLU"
  bottom: "conv4"
  top: "conv4"
}
layer {
  name: "conv4_1"
  type: "Convolution"
  bottom: "conv4"
  top: "conv4_1"
  param {
    lr_mult: 1
  }
  convolution_param {
    num_output: 32
    bias_term: true
    pad: 1
    kernel_size: 3
    stride: 1
    weight_filler {
      type: "xavier"
    }
  }
}
layer {
  name: "bn4_1"
  type: "BatchNorm"
  bottom: "conv4_1"
  top: "conv4_1"
  param {
    lr_mult: 0
    decay_mult: 0
  }
  param {
    lr_mult: 0
    decay_mult: 0
  }
  param {
    lr_mult: 0
    decay_mult: 0
  }
  include {
    phase: TRAIN
  }
  batch_norm_param {
    use_global_stats: false
    moving_average_fraction: 0.95
  }
}
layer {
  name: "scale4_1"
  type: "Scale"
  bottom: "conv4_1"
  top: "conv4_1"
  scale_param {
    bias_term: true
  }
}
layer {
  name: "relu4_1"
  type: "ReLU"
  bottom: "conv4_1"
  top: "conv4_1"
}
layer {
  name: "conv4_2"
  type: "Convolution"
  bottom: "conv4_1"
  top: "conv4_2"
  param {
    lr_mult: 1
  }
  convolution_param {
    num_output: 32
    bias_term: true
    pad: 1
    kernel_size: 3
    stride: 1
    weight_filler {
      type: "xavier"
    }
  }
}
layer {
  name: "bn4_2"
  type: "BatchNorm"
  bottom: "conv4_2"
  top: "conv4_2"
  param {
    lr_mult: 0
    decay_mult: 0
  }
  param {
    lr_mult: 0
    decay_mult: 0
  }
  param {
    lr_mult: 0
    decay_mult: 0
  }
  include {
    phase: TRAIN
  }
  batch_norm_param {
    use_global_stats: false
    moving_average_fraction: 0.95
  }
}
layer {
  name: "scale4_2"
  type: "Scale"
  bottom: "conv4_2"
  top: "conv4_2"
  scale_param {
    bias_term: true
  }
}
layer {
  name: "relu4_2"
  type: "ReLU"
  bottom: "conv4_2"
  top: "conv4_2"
}
layer {
  name: "pool4_12"
  type: "Pooling"
  bottom: "conv4_2"
  top: "pool4_12"
  pooling_param {
    pool: MAX
    kernel_size: 2
    stride: 2
  }
}
layer {
  name: "conv4_0"
  type: "Convolution"
  bottom: "pool4_12"
  top: "conv4_0"
  param {
    lr_mult: 1
  }
  convolution_param {
    num_output: 37
    bias_term: true
    pad: 1
    kernel_size: 3
    stride: 1
    weight_filler {
      type: "xavier"
    }
  }
}
layer {
  name: "bn4_0"
  type: "BatchNorm"
  bottom: "conv4_0"
  top: "conv4_0"
  param {
    lr_mult: 0
    decay_mult: 0
  }
  param {
    lr_mult: 0
    decay_mult: 0
  }
  param {
    lr_mult: 0
    decay_mult: 0
  }
  include {
    phase: TRAIN
  }
  batch_norm_param {
    use_global_stats: false
    moving_average_fraction: 0.95
  }
}
layer {
  name: "scale4_0"
  type: "Scale"
  bottom: "conv4_0"
  top: "conv4_0"
  scale_param {
    bias_term: true
  }
}
layer {
  name: "relu4_0"
  type: "ReLU"
  bottom: "conv4_0"
  top: "conv4_0"
}
layer {
  name: "cccp4"
  type: "Convolution"
  bottom: "conv4_0"
  top: "cccp4"
  param {
    lr_mult: 1
    decay_mult: 1
  }
  param {
    lr_mult: 2
    decay_mult: 0
  }
  convolution_param {
    num_output: 48
    pad: 1
    kernel_size: 3
    weight_filler {
      type: "xavier"
    }
    bias_filler {
      type: "constant"
      value: 0
    }
  }
}
layer {
  name: "bn_cccp4"
  type: "BatchNorm"
  bottom: "cccp4"
  top: "cccp4"
  param {
    lr_mult: 0
    decay_mult: 0
  }
  param {
    lr_mult: 0
    decay_mult: 0
  }
  param {
    lr_mult: 0
    decay_mult: 0
  }
  include {
    phase: TRAIN
  }
  batch_norm_param {
    use_global_stats: false
    moving_average_fraction: 0.95
  }
}
layer {
  name: "scale_cccp4"
  type: "Scale"
  bottom: "cccp4"
  top: "cccp4"
  scale_param {
    bias_term: true
  }
}
layer {
  name: "relu_cccp4"
  type: "ReLU"
  bottom: "cccp4"
  top: "cccp4"
}
layer {
  name: "cccp5"
  type: "Convolution"
  bottom: "cccp4"
  top: "cccp5"
  param {
    lr_mult: 1
    decay_mult: 1
  }
  param {
    lr_mult: 2
    decay_mult: 0
  }
  convolution_param {
    num_output: 49
    pad: 1
    kernel_size: 3
    weight_filler {
      type: "xavier"
    }
    bias_filler {
      type: "constant"
      value: 0
    }
  }
}
layer {
  name: "bn_cccp5"
  type: "BatchNorm"
  bottom: "cccp5"
  top: "cccp5"
  param {
    lr_mult: 0
    decay_mult: 0
  }
  param {
    lr_mult: 0
    decay_mult: 0
  }
  param {
    lr_mult: 0
    decay_mult: 0
  }
  include {
    phase: TRAIN
  }
  batch_norm_param {
    use_global_stats: false
    moving_average_fraction: 0.95
  }
}
layer {
  name: "scale_cccp5"
  type: "Scale"
  bottom: "cccp5"
  top: "cccp5"
  scale_param {
    bias_term: true
  }
}
layer {
  name: "relu_cccp5"
  type: "ReLU"
  bottom: "cccp5"
  top: "cccp5"
}
layer {
  name: "cccp6"
  type: "Convolution"
  bottom: "cccp5"
  top: "cccp6"
  param {
    lr_mult: 1
    decay_mult: 1
  }
  param {
    lr_mult: 2
    decay_mult: 0
  }
  convolution_param {
    num_output: 50
    pad: 1
    kernel_size: 3
    weight_filler {
      type: "xavier"
    }
    bias_filler {
      type: "constant"
      value: 0
    }
  }
}
layer {
  name: "bn_cccp6"
  type: "BatchNorm"
  bottom: "cccp6"
  top: "cccp6"
  param {
    lr_mult: 0
    decay_mult: 0
  }
  param {
    lr_mult: 0
    decay_mult: 0
  }
  param {
    lr_mult: 0
    decay_mult: 0
  }
  include {
    phase: TRAIN
  }
  batch_norm_param {
    use_global_stats: false
    moving_average_fraction: 0.95
  }
}
layer {
  name: "scale_cccp6"
  type: "Scale"
  bottom: "cccp6"
  top: "cccp6"
  scale_param {
    bias_term: true
  }
}
layer {
  name: "relu_cccp6"
  type: "ReLU"
  bottom: "cccp6"
  top: "cccp6"
}
layer {
  name: "poolcp6"
  type: "Pooling"
  bottom: "cccp6"
  top: "poolcp6"
  pooling_param {
    pool: MAX
    global_pooling: true
  }
}
layer {
  name: "ip1"
  type: "InnerProduct"
  bottom: "poolcp6"
  top: "ip1"
  param {
    lr_mult: 1
    decay_mult: 0
  }
  param {
    lr_mult: 2
    decay_mult: 0
  }
  inner_product_param {
    num_output: 10
    weight_filler {
      type: "xavier"
    }
    bias_filler {
      type: "constant"
    }
  }
}
layer {
  name: "accuracy_training"
  type: "Accuracy"
  bottom: "ip1"
  bottom: "label"
  top: "accuracy_training"
  include {
    phase: TRAIN
  }
}
layer {
  name: "loss"
  type: "SoftmaxWithLoss"
  bottom: "ip1"
  bottom: "label"
  top: "loss"
}
I0630 20:12:13.369079  4668 layer_factory.cpp:58] Creating layer cifar
I0630 20:12:13.401542  4668 db_leveldb.cpp:18] Opened leveldb examples/cifar10/cifar10_train_leveldb_padding
I0630 20:12:13.401542  4668 net.cpp:84] Creating Layer cifar
I0630 20:12:13.401542  4668 net.cpp:380] cifar -> data
I0630 20:12:13.401542  4668 net.cpp:380] cifar -> label
I0630 20:12:13.401542  4668 common.cpp:36] System entropy source not available, using fallback algorithm to generate seed instead.
I0630 20:12:13.401542  4668 data_layer.cpp:45] output data size: 100,3,32,32
I0630 20:12:13.411571  4668 net.cpp:122] Setting up cifar
I0630 20:12:13.411571  4668 net.cpp:129] Top shape: 100 3 32 32 (307200)
I0630 20:12:13.411571  4668 net.cpp:129] Top shape: 100 (100)
I0630 20:12:13.411571  4668 net.cpp:137] Memory required for data: 1229200
I0630 20:12:13.411571  4668 layer_factory.cpp:58] Creating layer label_cifar_1_split
I0630 20:12:13.411571  4668 net.cpp:84] Creating Layer label_cifar_1_split
I0630 20:12:13.411571  4668 net.cpp:406] label_cifar_1_split <- label
I0630 20:12:13.411571  4668 net.cpp:380] label_cifar_1_split -> label_cifar_1_split_0
I0630 20:12:13.411571  4668 net.cpp:380] label_cifar_1_split -> label_cifar_1_split_1
I0630 20:12:13.411571  4668 net.cpp:122] Setting up label_cifar_1_split
I0630 20:12:13.411571  4668 net.cpp:129] Top shape: 100 (100)
I0630 20:12:13.411571  4668 net.cpp:129] Top shape: 100 (100)
I0630 20:12:13.411571  4668 net.cpp:137] Memory required for data: 1230000
I0630 20:12:13.411571  4668 layer_factory.cpp:58] Creating layer conv1
I0630 20:12:13.411571  4668 net.cpp:84] Creating Layer conv1
I0630 20:12:13.411571  4668 net.cpp:406] conv1 <- data
I0630 20:12:13.411571  4668 net.cpp:380] conv1 -> conv1
I0630 20:12:13.411571 16944 common.cpp:36] System entropy source not available, using fallback algorithm to generate seed instead.
I0630 20:12:13.642262  4668 net.cpp:122] Setting up conv1
I0630 20:12:13.642262  4668 net.cpp:129] Top shape: 100 20 32 32 (2048000)
I0630 20:12:13.642262  4668 net.cpp:137] Memory required for data: 9422000
I0630 20:12:13.642262  4668 layer_factory.cpp:58] Creating layer bn1
I0630 20:12:13.642262  4668 net.cpp:84] Creating Layer bn1
I0630 20:12:13.642262  4668 net.cpp:406] bn1 <- conv1
I0630 20:12:13.642262  4668 net.cpp:367] bn1 -> conv1 (in-place)
I0630 20:12:13.642262  4668 net.cpp:122] Setting up bn1
I0630 20:12:13.642262  4668 net.cpp:129] Top shape: 100 20 32 32 (2048000)
I0630 20:12:13.642262  4668 net.cpp:137] Memory required for data: 17614000
I0630 20:12:13.642262  4668 layer_factory.cpp:58] Creating layer scale1
I0630 20:12:13.642262  4668 net.cpp:84] Creating Layer scale1
I0630 20:12:13.642262  4668 net.cpp:406] scale1 <- conv1
I0630 20:12:13.642262  4668 net.cpp:367] scale1 -> conv1 (in-place)
I0630 20:12:13.642262  4668 layer_factory.cpp:58] Creating layer scale1
I0630 20:12:13.642262  4668 net.cpp:122] Setting up scale1
I0630 20:12:13.642262  4668 net.cpp:129] Top shape: 100 20 32 32 (2048000)
I0630 20:12:13.642262  4668 net.cpp:137] Memory required for data: 25806000
I0630 20:12:13.642262  4668 layer_factory.cpp:58] Creating layer relu1
I0630 20:12:13.642262  4668 net.cpp:84] Creating Layer relu1
I0630 20:12:13.642262  4668 net.cpp:406] relu1 <- conv1
I0630 20:12:13.642262  4668 net.cpp:367] relu1 -> conv1 (in-place)
I0630 20:12:13.642262  4668 net.cpp:122] Setting up relu1
I0630 20:12:13.642262  4668 net.cpp:129] Top shape: 100 20 32 32 (2048000)
I0630 20:12:13.642262  4668 net.cpp:137] Memory required for data: 33998000
I0630 20:12:13.642262  4668 layer_factory.cpp:58] Creating layer conv1_0
I0630 20:12:13.642262  4668 net.cpp:84] Creating Layer conv1_0
I0630 20:12:13.642262  4668 net.cpp:406] conv1_0 <- conv1
I0630 20:12:13.642262  4668 net.cpp:380] conv1_0 -> conv1_0
I0630 20:12:13.642262  4668 net.cpp:122] Setting up conv1_0
I0630 20:12:13.642262  4668 net.cpp:129] Top shape: 100 32 32 32 (3276800)
I0630 20:12:13.642262  4668 net.cpp:137] Memory required for data: 47105200
I0630 20:12:13.642262  4668 layer_factory.cpp:58] Creating layer bn1_0
I0630 20:12:13.642262  4668 net.cpp:84] Creating Layer bn1_0
I0630 20:12:13.642262  4668 net.cpp:406] bn1_0 <- conv1_0
I0630 20:12:13.642262  4668 net.cpp:367] bn1_0 -> conv1_0 (in-place)
I0630 20:12:13.642262  4668 net.cpp:122] Setting up bn1_0
I0630 20:12:13.642262  4668 net.cpp:129] Top shape: 100 32 32 32 (3276800)
I0630 20:12:13.642262  4668 net.cpp:137] Memory required for data: 60212400
I0630 20:12:13.642262  4668 layer_factory.cpp:58] Creating layer scale1_0
I0630 20:12:13.642262  4668 net.cpp:84] Creating Layer scale1_0
I0630 20:12:13.642262  4668 net.cpp:406] scale1_0 <- conv1_0
I0630 20:12:13.642262  4668 net.cpp:367] scale1_0 -> conv1_0 (in-place)
I0630 20:12:13.642262  4668 layer_factory.cpp:58] Creating layer scale1_0
I0630 20:12:13.642262  4668 net.cpp:122] Setting up scale1_0
I0630 20:12:13.642262  4668 net.cpp:129] Top shape: 100 32 32 32 (3276800)
I0630 20:12:13.642262  4668 net.cpp:137] Memory required for data: 73319600
I0630 20:12:13.642262  4668 layer_factory.cpp:58] Creating layer relu1_0
I0630 20:12:13.642262  4668 net.cpp:84] Creating Layer relu1_0
I0630 20:12:13.642262  4668 net.cpp:406] relu1_0 <- conv1_0
I0630 20:12:13.642262  4668 net.cpp:367] relu1_0 -> conv1_0 (in-place)
I0630 20:12:13.642262  4668 net.cpp:122] Setting up relu1_0
I0630 20:12:13.642262  4668 net.cpp:129] Top shape: 100 32 32 32 (3276800)
I0630 20:12:13.642262  4668 net.cpp:137] Memory required for data: 86426800
I0630 20:12:13.642262  4668 layer_factory.cpp:58] Creating layer conv2
I0630 20:12:13.642262  4668 net.cpp:84] Creating Layer conv2
I0630 20:12:13.642262  4668 net.cpp:406] conv2 <- conv1_0
I0630 20:12:13.642262  4668 net.cpp:380] conv2 -> conv2
I0630 20:12:13.642262  4668 net.cpp:122] Setting up conv2
I0630 20:12:13.642262  4668 net.cpp:129] Top shape: 100 32 32 32 (3276800)
I0630 20:12:13.642262  4668 net.cpp:137] Memory required for data: 99534000
I0630 20:12:13.642262  4668 layer_factory.cpp:58] Creating layer bn2
I0630 20:12:13.642262  4668 net.cpp:84] Creating Layer bn2
I0630 20:12:13.642262  4668 net.cpp:406] bn2 <- conv2
I0630 20:12:13.642262  4668 net.cpp:367] bn2 -> conv2 (in-place)
I0630 20:12:13.642262  4668 net.cpp:122] Setting up bn2
I0630 20:12:13.642262  4668 net.cpp:129] Top shape: 100 32 32 32 (3276800)
I0630 20:12:13.642262  4668 net.cpp:137] Memory required for data: 112641200
I0630 20:12:13.642262  4668 layer_factory.cpp:58] Creating layer scale2
I0630 20:12:13.642262  4668 net.cpp:84] Creating Layer scale2
I0630 20:12:13.642262  4668 net.cpp:406] scale2 <- conv2
I0630 20:12:13.642262  4668 net.cpp:367] scale2 -> conv2 (in-place)
I0630 20:12:13.642262  4668 layer_factory.cpp:58] Creating layer scale2
I0630 20:12:13.642262  4668 net.cpp:122] Setting up scale2
I0630 20:12:13.642262  4668 net.cpp:129] Top shape: 100 32 32 32 (3276800)
I0630 20:12:13.642262  4668 net.cpp:137] Memory required for data: 125748400
I0630 20:12:13.642262  4668 layer_factory.cpp:58] Creating layer relu2
I0630 20:12:13.642262  4668 net.cpp:84] Creating Layer relu2
I0630 20:12:13.642262  4668 net.cpp:406] relu2 <- conv2
I0630 20:12:13.642262  4668 net.cpp:367] relu2 -> conv2 (in-place)
I0630 20:12:13.642262  4668 net.cpp:122] Setting up relu2
I0630 20:12:13.642262  4668 net.cpp:129] Top shape: 100 32 32 32 (3276800)
I0630 20:12:13.642262  4668 net.cpp:137] Memory required for data: 138855600
I0630 20:12:13.642262  4668 layer_factory.cpp:58] Creating layer conv2_1
I0630 20:12:13.642262  4668 net.cpp:84] Creating Layer conv2_1
I0630 20:12:13.642262  4668 net.cpp:406] conv2_1 <- conv2
I0630 20:12:13.642262  4668 net.cpp:380] conv2_1 -> conv2_1
I0630 20:12:13.642262  4668 net.cpp:122] Setting up conv2_1
I0630 20:12:13.642262  4668 net.cpp:129] Top shape: 100 32 32 32 (3276800)
I0630 20:12:13.642262  4668 net.cpp:137] Memory required for data: 151962800
I0630 20:12:13.642262  4668 layer_factory.cpp:58] Creating layer bn2_1
I0630 20:12:13.642262  4668 net.cpp:84] Creating Layer bn2_1
I0630 20:12:13.642262  4668 net.cpp:406] bn2_1 <- conv2_1
I0630 20:12:13.642262  4668 net.cpp:367] bn2_1 -> conv2_1 (in-place)
I0630 20:12:13.642262  4668 net.cpp:122] Setting up bn2_1
I0630 20:12:13.642262  4668 net.cpp:129] Top shape: 100 32 32 32 (3276800)
I0630 20:12:13.642262  4668 net.cpp:137] Memory required for data: 165070000
I0630 20:12:13.642262  4668 layer_factory.cpp:58] Creating layer scale2_1
I0630 20:12:13.642262  4668 net.cpp:84] Creating Layer scale2_1
I0630 20:12:13.642262  4668 net.cpp:406] scale2_1 <- conv2_1
I0630 20:12:13.642262  4668 net.cpp:367] scale2_1 -> conv2_1 (in-place)
I0630 20:12:13.642262  4668 layer_factory.cpp:58] Creating layer scale2_1
I0630 20:12:13.642262  4668 net.cpp:122] Setting up scale2_1
I0630 20:12:13.642262  4668 net.cpp:129] Top shape: 100 32 32 32 (3276800)
I0630 20:12:13.642262  4668 net.cpp:137] Memory required for data: 178177200
I0630 20:12:13.642262  4668 layer_factory.cpp:58] Creating layer relu2_1
I0630 20:12:13.642262  4668 net.cpp:84] Creating Layer relu2_1
I0630 20:12:13.642262  4668 net.cpp:406] relu2_1 <- conv2_1
I0630 20:12:13.642262  4668 net.cpp:367] relu2_1 -> conv2_1 (in-place)
I0630 20:12:13.642262  4668 net.cpp:122] Setting up relu2_1
I0630 20:12:13.642262  4668 net.cpp:129] Top shape: 100 32 32 32 (3276800)
I0630 20:12:13.642262  4668 net.cpp:137] Memory required for data: 191284400
I0630 20:12:13.642262  4668 layer_factory.cpp:58] Creating layer conv2_2
I0630 20:12:13.642262  4668 net.cpp:84] Creating Layer conv2_2
I0630 20:12:13.642262  4668 net.cpp:406] conv2_2 <- conv2_1
I0630 20:12:13.642262  4668 net.cpp:380] conv2_2 -> conv2_2
I0630 20:12:13.652281  4668 net.cpp:122] Setting up conv2_2
I0630 20:12:13.652281  4668 net.cpp:129] Top shape: 100 32 32 32 (3276800)
I0630 20:12:13.652281  4668 net.cpp:137] Memory required for data: 204391600
I0630 20:12:13.652281  4668 layer_factory.cpp:58] Creating layer bn2_2
I0630 20:12:13.652281  4668 net.cpp:84] Creating Layer bn2_2
I0630 20:12:13.652281  4668 net.cpp:406] bn2_2 <- conv2_2
I0630 20:12:13.652281  4668 net.cpp:367] bn2_2 -> conv2_2 (in-place)
I0630 20:12:13.652281  4668 net.cpp:122] Setting up bn2_2
I0630 20:12:13.652281  4668 net.cpp:129] Top shape: 100 32 32 32 (3276800)
I0630 20:12:13.652281  4668 net.cpp:137] Memory required for data: 217498800
I0630 20:12:13.652281  4668 layer_factory.cpp:58] Creating layer scale2_2
I0630 20:12:13.652281  4668 net.cpp:84] Creating Layer scale2_2
I0630 20:12:13.652281  4668 net.cpp:406] scale2_2 <- conv2_2
I0630 20:12:13.652281  4668 net.cpp:367] scale2_2 -> conv2_2 (in-place)
I0630 20:12:13.652281  4668 layer_factory.cpp:58] Creating layer scale2_2
I0630 20:12:13.652281  4668 net.cpp:122] Setting up scale2_2
I0630 20:12:13.652281  4668 net.cpp:129] Top shape: 100 32 32 32 (3276800)
I0630 20:12:13.652281  4668 net.cpp:137] Memory required for data: 230606000
I0630 20:12:13.652281  4668 layer_factory.cpp:58] Creating layer relu2_2
I0630 20:12:13.652281  4668 net.cpp:84] Creating Layer relu2_2
I0630 20:12:13.652281  4668 net.cpp:406] relu2_2 <- conv2_2
I0630 20:12:13.652281  4668 net.cpp:367] relu2_2 -> conv2_2 (in-place)
I0630 20:12:13.652281  4668 net.cpp:122] Setting up relu2_2
I0630 20:12:13.652281  4668 net.cpp:129] Top shape: 100 32 32 32 (3276800)
I0630 20:12:13.652281  4668 net.cpp:137] Memory required for data: 243713200
I0630 20:12:13.652281  4668 layer_factory.cpp:58] Creating layer pool2_1
I0630 20:12:13.652281  4668 net.cpp:84] Creating Layer pool2_1
I0630 20:12:13.652281  4668 net.cpp:406] pool2_1 <- conv2_2
I0630 20:12:13.652281  4668 net.cpp:380] pool2_1 -> pool2_1
I0630 20:12:13.652281  4668 net.cpp:122] Setting up pool2_1
I0630 20:12:13.652281  4668 net.cpp:129] Top shape: 100 32 16 16 (819200)
I0630 20:12:13.652281  4668 net.cpp:137] Memory required for data: 246990000
I0630 20:12:13.652281  4668 layer_factory.cpp:58] Creating layer conv3
I0630 20:12:13.652281  4668 net.cpp:84] Creating Layer conv3
I0630 20:12:13.652281  4668 net.cpp:406] conv3 <- pool2_1
I0630 20:12:13.652281  4668 net.cpp:380] conv3 -> conv3
I0630 20:12:13.652281  4668 net.cpp:122] Setting up conv3
I0630 20:12:13.652281  4668 net.cpp:129] Top shape: 100 32 16 16 (819200)
I0630 20:12:13.652281  4668 net.cpp:137] Memory required for data: 250266800
I0630 20:12:13.652281  4668 layer_factory.cpp:58] Creating layer bn3
I0630 20:12:13.652281  4668 net.cpp:84] Creating Layer bn3
I0630 20:12:13.652281  4668 net.cpp:406] bn3 <- conv3
I0630 20:12:13.652281  4668 net.cpp:367] bn3 -> conv3 (in-place)
I0630 20:12:13.652281  4668 net.cpp:122] Setting up bn3
I0630 20:12:13.652281  4668 net.cpp:129] Top shape: 100 32 16 16 (819200)
I0630 20:12:13.652281  4668 net.cpp:137] Memory required for data: 253543600
I0630 20:12:13.652281  4668 layer_factory.cpp:58] Creating layer scale3
I0630 20:12:13.652281  4668 net.cpp:84] Creating Layer scale3
I0630 20:12:13.652281  4668 net.cpp:406] scale3 <- conv3
I0630 20:12:13.652281  4668 net.cpp:367] scale3 -> conv3 (in-place)
I0630 20:12:13.652281  4668 layer_factory.cpp:58] Creating layer scale3
I0630 20:12:13.652281  4668 net.cpp:122] Setting up scale3
I0630 20:12:13.652281  4668 net.cpp:129] Top shape: 100 32 16 16 (819200)
I0630 20:12:13.652281  4668 net.cpp:137] Memory required for data: 256820400
I0630 20:12:13.652281  4668 layer_factory.cpp:58] Creating layer relu3
I0630 20:12:13.652281  4668 net.cpp:84] Creating Layer relu3
I0630 20:12:13.652281  4668 net.cpp:406] relu3 <- conv3
I0630 20:12:13.652281  4668 net.cpp:367] relu3 -> conv3 (in-place)
I0630 20:12:13.652281  4668 net.cpp:122] Setting up relu3
I0630 20:12:13.652281  4668 net.cpp:129] Top shape: 100 32 16 16 (819200)
I0630 20:12:13.652281  4668 net.cpp:137] Memory required for data: 260097200
I0630 20:12:13.652281  4668 layer_factory.cpp:58] Creating layer conv4
I0630 20:12:13.652281  4668 net.cpp:84] Creating Layer conv4
I0630 20:12:13.652281  4668 net.cpp:406] conv4 <- conv3
I0630 20:12:13.652281  4668 net.cpp:380] conv4 -> conv4
I0630 20:12:13.652281  4668 net.cpp:122] Setting up conv4
I0630 20:12:13.652281  4668 net.cpp:129] Top shape: 100 32 16 16 (819200)
I0630 20:12:13.652281  4668 net.cpp:137] Memory required for data: 263374000
I0630 20:12:13.652281  4668 layer_factory.cpp:58] Creating layer bn4
I0630 20:12:13.652281  4668 net.cpp:84] Creating Layer bn4
I0630 20:12:13.652281  4668 net.cpp:406] bn4 <- conv4
I0630 20:12:13.652281  4668 net.cpp:367] bn4 -> conv4 (in-place)
I0630 20:12:13.652281  4668 net.cpp:122] Setting up bn4
I0630 20:12:13.652281  4668 net.cpp:129] Top shape: 100 32 16 16 (819200)
I0630 20:12:13.652281  4668 net.cpp:137] Memory required for data: 266650800
I0630 20:12:13.652281  4668 layer_factory.cpp:58] Creating layer scale4
I0630 20:12:13.652281  4668 net.cpp:84] Creating Layer scale4
I0630 20:12:13.652281  4668 net.cpp:406] scale4 <- conv4
I0630 20:12:13.652281  4668 net.cpp:367] scale4 -> conv4 (in-place)
I0630 20:12:13.652281  4668 layer_factory.cpp:58] Creating layer scale4
I0630 20:12:13.652281  4668 net.cpp:122] Setting up scale4
I0630 20:12:13.652281  4668 net.cpp:129] Top shape: 100 32 16 16 (819200)
I0630 20:12:13.652281  4668 net.cpp:137] Memory required for data: 269927600
I0630 20:12:13.652281  4668 layer_factory.cpp:58] Creating layer relu4
I0630 20:12:13.652281  4668 net.cpp:84] Creating Layer relu4
I0630 20:12:13.652281  4668 net.cpp:406] relu4 <- conv4
I0630 20:12:13.652281  4668 net.cpp:367] relu4 -> conv4 (in-place)
I0630 20:12:13.652281  4668 net.cpp:122] Setting up relu4
I0630 20:12:13.652281  4668 net.cpp:129] Top shape: 100 32 16 16 (819200)
I0630 20:12:13.652281  4668 net.cpp:137] Memory required for data: 273204400
I0630 20:12:13.652281  4668 layer_factory.cpp:58] Creating layer conv4_1
I0630 20:12:13.652281  4668 net.cpp:84] Creating Layer conv4_1
I0630 20:12:13.652281  4668 net.cpp:406] conv4_1 <- conv4
I0630 20:12:13.652281  4668 net.cpp:380] conv4_1 -> conv4_1
I0630 20:12:13.652281  4668 net.cpp:122] Setting up conv4_1
I0630 20:12:13.652281  4668 net.cpp:129] Top shape: 100 32 16 16 (819200)
I0630 20:12:13.652281  4668 net.cpp:137] Memory required for data: 276481200
I0630 20:12:13.652281  4668 layer_factory.cpp:58] Creating layer bn4_1
I0630 20:12:13.652281  4668 net.cpp:84] Creating Layer bn4_1
I0630 20:12:13.652281  4668 net.cpp:406] bn4_1 <- conv4_1
I0630 20:12:13.652281  4668 net.cpp:367] bn4_1 -> conv4_1 (in-place)
I0630 20:12:13.652281  4668 net.cpp:122] Setting up bn4_1
I0630 20:12:13.652281  4668 net.cpp:129] Top shape: 100 32 16 16 (819200)
I0630 20:12:13.652281  4668 net.cpp:137] Memory required for data: 279758000
I0630 20:12:13.652281  4668 layer_factory.cpp:58] Creating layer scale4_1
I0630 20:12:13.652281  4668 net.cpp:84] Creating Layer scale4_1
I0630 20:12:13.652281  4668 net.cpp:406] scale4_1 <- conv4_1
I0630 20:12:13.652281  4668 net.cpp:367] scale4_1 -> conv4_1 (in-place)
I0630 20:12:13.652281  4668 layer_factory.cpp:58] Creating layer scale4_1
I0630 20:12:13.652281  4668 net.cpp:122] Setting up scale4_1
I0630 20:12:13.652281  4668 net.cpp:129] Top shape: 100 32 16 16 (819200)
I0630 20:12:13.652281  4668 net.cpp:137] Memory required for data: 283034800
I0630 20:12:13.652281  4668 layer_factory.cpp:58] Creating layer relu4_1
I0630 20:12:13.652281  4668 net.cpp:84] Creating Layer relu4_1
I0630 20:12:13.652281  4668 net.cpp:406] relu4_1 <- conv4_1
I0630 20:12:13.652281  4668 net.cpp:367] relu4_1 -> conv4_1 (in-place)
I0630 20:12:13.652281  4668 net.cpp:122] Setting up relu4_1
I0630 20:12:13.652281  4668 net.cpp:129] Top shape: 100 32 16 16 (819200)
I0630 20:12:13.652281  4668 net.cpp:137] Memory required for data: 286311600
I0630 20:12:13.652281  4668 layer_factory.cpp:58] Creating layer conv4_2
I0630 20:12:13.652281  4668 net.cpp:84] Creating Layer conv4_2
I0630 20:12:13.652281  4668 net.cpp:406] conv4_2 <- conv4_1
I0630 20:12:13.652281  4668 net.cpp:380] conv4_2 -> conv4_2
I0630 20:12:13.652281  4668 net.cpp:122] Setting up conv4_2
I0630 20:12:13.652281  4668 net.cpp:129] Top shape: 100 32 16 16 (819200)
I0630 20:12:13.652281  4668 net.cpp:137] Memory required for data: 289588400
I0630 20:12:13.652281  4668 layer_factory.cpp:58] Creating layer bn4_2
I0630 20:12:13.652281  4668 net.cpp:84] Creating Layer bn4_2
I0630 20:12:13.652281  4668 net.cpp:406] bn4_2 <- conv4_2
I0630 20:12:13.652281  4668 net.cpp:367] bn4_2 -> conv4_2 (in-place)
I0630 20:12:13.652281  4668 net.cpp:122] Setting up bn4_2
I0630 20:12:13.652281  4668 net.cpp:129] Top shape: 100 32 16 16 (819200)
I0630 20:12:13.652281  4668 net.cpp:137] Memory required for data: 292865200
I0630 20:12:13.652281  4668 layer_factory.cpp:58] Creating layer scale4_2
I0630 20:12:13.652281  4668 net.cpp:84] Creating Layer scale4_2
I0630 20:12:13.652281  4668 net.cpp:406] scale4_2 <- conv4_2
I0630 20:12:13.652281  4668 net.cpp:367] scale4_2 -> conv4_2 (in-place)
I0630 20:12:13.652281  4668 layer_factory.cpp:58] Creating layer scale4_2
I0630 20:12:13.652281  4668 net.cpp:122] Setting up scale4_2
I0630 20:12:13.652281  4668 net.cpp:129] Top shape: 100 32 16 16 (819200)
I0630 20:12:13.652281  4668 net.cpp:137] Memory required for data: 296142000
I0630 20:12:13.652281  4668 layer_factory.cpp:58] Creating layer relu4_2
I0630 20:12:13.652281  4668 net.cpp:84] Creating Layer relu4_2
I0630 20:12:13.652281  4668 net.cpp:406] relu4_2 <- conv4_2
I0630 20:12:13.652281  4668 net.cpp:367] relu4_2 -> conv4_2 (in-place)
I0630 20:12:13.652281  4668 net.cpp:122] Setting up relu4_2
I0630 20:12:13.652281  4668 net.cpp:129] Top shape: 100 32 16 16 (819200)
I0630 20:12:13.652281  4668 net.cpp:137] Memory required for data: 299418800
I0630 20:12:13.652281  4668 layer_factory.cpp:58] Creating layer pool4_12
I0630 20:12:13.652281  4668 net.cpp:84] Creating Layer pool4_12
I0630 20:12:13.652281  4668 net.cpp:406] pool4_12 <- conv4_2
I0630 20:12:13.652281  4668 net.cpp:380] pool4_12 -> pool4_12
I0630 20:12:13.652281  4668 net.cpp:122] Setting up pool4_12
I0630 20:12:13.652281  4668 net.cpp:129] Top shape: 100 32 8 8 (204800)
I0630 20:12:13.652281  4668 net.cpp:137] Memory required for data: 300238000
I0630 20:12:13.652281  4668 layer_factory.cpp:58] Creating layer conv4_0
I0630 20:12:13.652281  4668 net.cpp:84] Creating Layer conv4_0
I0630 20:12:13.652281  4668 net.cpp:406] conv4_0 <- pool4_12
I0630 20:12:13.652281  4668 net.cpp:380] conv4_0 -> conv4_0
I0630 20:12:13.652281  4668 net.cpp:122] Setting up conv4_0
I0630 20:12:13.652281  4668 net.cpp:129] Top shape: 100 37 8 8 (236800)
I0630 20:12:13.652281  4668 net.cpp:137] Memory required for data: 301185200
I0630 20:12:13.652281  4668 layer_factory.cpp:58] Creating layer bn4_0
I0630 20:12:13.652281  4668 net.cpp:84] Creating Layer bn4_0
I0630 20:12:13.652281  4668 net.cpp:406] bn4_0 <- conv4_0
I0630 20:12:13.652281  4668 net.cpp:367] bn4_0 -> conv4_0 (in-place)
I0630 20:12:13.652281  4668 net.cpp:122] Setting up bn4_0
I0630 20:12:13.652281  4668 net.cpp:129] Top shape: 100 37 8 8 (236800)
I0630 20:12:13.652281  4668 net.cpp:137] Memory required for data: 302132400
I0630 20:12:13.652281  4668 layer_factory.cpp:58] Creating layer scale4_0
I0630 20:12:13.652281  4668 net.cpp:84] Creating Layer scale4_0
I0630 20:12:13.652281  4668 net.cpp:406] scale4_0 <- conv4_0
I0630 20:12:13.652281  4668 net.cpp:367] scale4_0 -> conv4_0 (in-place)
I0630 20:12:13.652281  4668 layer_factory.cpp:58] Creating layer scale4_0
I0630 20:12:13.652281  4668 net.cpp:122] Setting up scale4_0
I0630 20:12:13.652281  4668 net.cpp:129] Top shape: 100 37 8 8 (236800)
I0630 20:12:13.652281  4668 net.cpp:137] Memory required for data: 303079600
I0630 20:12:13.652281  4668 layer_factory.cpp:58] Creating layer relu4_0
I0630 20:12:13.652281  4668 net.cpp:84] Creating Layer relu4_0
I0630 20:12:13.652281  4668 net.cpp:406] relu4_0 <- conv4_0
I0630 20:12:13.652281  4668 net.cpp:367] relu4_0 -> conv4_0 (in-place)
I0630 20:12:13.652281  4668 net.cpp:122] Setting up relu4_0
I0630 20:12:13.652281  4668 net.cpp:129] Top shape: 100 37 8 8 (236800)
I0630 20:12:13.652281  4668 net.cpp:137] Memory required for data: 304026800
I0630 20:12:13.652281  4668 layer_factory.cpp:58] Creating layer cccp4
I0630 20:12:13.652281  4668 net.cpp:84] Creating Layer cccp4
I0630 20:12:13.652281  4668 net.cpp:406] cccp4 <- conv4_0
I0630 20:12:13.652281  4668 net.cpp:380] cccp4 -> cccp4
I0630 20:12:13.662263  4668 net.cpp:122] Setting up cccp4
I0630 20:12:13.662263  4668 net.cpp:129] Top shape: 100 48 8 8 (307200)
I0630 20:12:13.662263  4668 net.cpp:137] Memory required for data: 305255600
I0630 20:12:13.662263  4668 layer_factory.cpp:58] Creating layer bn_cccp4
I0630 20:12:13.662263  4668 net.cpp:84] Creating Layer bn_cccp4
I0630 20:12:13.662263  4668 net.cpp:406] bn_cccp4 <- cccp4
I0630 20:12:13.662263  4668 net.cpp:367] bn_cccp4 -> cccp4 (in-place)
I0630 20:12:13.662263  4668 net.cpp:122] Setting up bn_cccp4
I0630 20:12:13.662263  4668 net.cpp:129] Top shape: 100 48 8 8 (307200)
I0630 20:12:13.662263  4668 net.cpp:137] Memory required for data: 306484400
I0630 20:12:13.662263  4668 layer_factory.cpp:58] Creating layer scale_cccp4
I0630 20:12:13.662263  4668 net.cpp:84] Creating Layer scale_cccp4
I0630 20:12:13.662263  4668 net.cpp:406] scale_cccp4 <- cccp4
I0630 20:12:13.662263  4668 net.cpp:367] scale_cccp4 -> cccp4 (in-place)
I0630 20:12:13.662263  4668 layer_factory.cpp:58] Creating layer scale_cccp4
I0630 20:12:13.662263  4668 net.cpp:122] Setting up scale_cccp4
I0630 20:12:13.662263  4668 net.cpp:129] Top shape: 100 48 8 8 (307200)
I0630 20:12:13.662263  4668 net.cpp:137] Memory required for data: 307713200
I0630 20:12:13.662263  4668 layer_factory.cpp:58] Creating layer relu_cccp4
I0630 20:12:13.662263  4668 net.cpp:84] Creating Layer relu_cccp4
I0630 20:12:13.662263  4668 net.cpp:406] relu_cccp4 <- cccp4
I0630 20:12:13.662263  4668 net.cpp:367] relu_cccp4 -> cccp4 (in-place)
I0630 20:12:13.662263  4668 net.cpp:122] Setting up relu_cccp4
I0630 20:12:13.662263  4668 net.cpp:129] Top shape: 100 48 8 8 (307200)
I0630 20:12:13.662263  4668 net.cpp:137] Memory required for data: 308942000
I0630 20:12:13.662263  4668 layer_factory.cpp:58] Creating layer cccp5
I0630 20:12:13.662263  4668 net.cpp:84] Creating Layer cccp5
I0630 20:12:13.662263  4668 net.cpp:406] cccp5 <- cccp4
I0630 20:12:13.662263  4668 net.cpp:380] cccp5 -> cccp5
I0630 20:12:13.662263  4668 net.cpp:122] Setting up cccp5
I0630 20:12:13.662263  4668 net.cpp:129] Top shape: 100 49 8 8 (313600)
I0630 20:12:13.662263  4668 net.cpp:137] Memory required for data: 310196400
I0630 20:12:13.662263  4668 layer_factory.cpp:58] Creating layer bn_cccp5
I0630 20:12:13.662263  4668 net.cpp:84] Creating Layer bn_cccp5
I0630 20:12:13.662263  4668 net.cpp:406] bn_cccp5 <- cccp5
I0630 20:12:13.662263  4668 net.cpp:367] bn_cccp5 -> cccp5 (in-place)
I0630 20:12:13.662263  4668 net.cpp:122] Setting up bn_cccp5
I0630 20:12:13.662263  4668 net.cpp:129] Top shape: 100 49 8 8 (313600)
I0630 20:12:13.662263  4668 net.cpp:137] Memory required for data: 311450800
I0630 20:12:13.662263  4668 layer_factory.cpp:58] Creating layer scale_cccp5
I0630 20:12:13.662263  4668 net.cpp:84] Creating Layer scale_cccp5
I0630 20:12:13.662263  4668 net.cpp:406] scale_cccp5 <- cccp5
I0630 20:12:13.662263  4668 net.cpp:367] scale_cccp5 -> cccp5 (in-place)
I0630 20:12:13.662263  4668 layer_factory.cpp:58] Creating layer scale_cccp5
I0630 20:12:13.662263  4668 net.cpp:122] Setting up scale_cccp5
I0630 20:12:13.662263  4668 net.cpp:129] Top shape: 100 49 8 8 (313600)
I0630 20:12:13.662263  4668 net.cpp:137] Memory required for data: 312705200
I0630 20:12:13.662263  4668 layer_factory.cpp:58] Creating layer relu_cccp5
I0630 20:12:13.662263  4668 net.cpp:84] Creating Layer relu_cccp5
I0630 20:12:13.662263  4668 net.cpp:406] relu_cccp5 <- cccp5
I0630 20:12:13.662263  4668 net.cpp:367] relu_cccp5 -> cccp5 (in-place)
I0630 20:12:13.662263  4668 net.cpp:122] Setting up relu_cccp5
I0630 20:12:13.662263  4668 net.cpp:129] Top shape: 100 49 8 8 (313600)
I0630 20:12:13.662263  4668 net.cpp:137] Memory required for data: 313959600
I0630 20:12:13.662263  4668 layer_factory.cpp:58] Creating layer cccp6
I0630 20:12:13.662263  4668 net.cpp:84] Creating Layer cccp6
I0630 20:12:13.662263  4668 net.cpp:406] cccp6 <- cccp5
I0630 20:12:13.662263  4668 net.cpp:380] cccp6 -> cccp6
I0630 20:12:13.662263  4668 net.cpp:122] Setting up cccp6
I0630 20:12:13.662263  4668 net.cpp:129] Top shape: 100 50 8 8 (320000)
I0630 20:12:13.662263  4668 net.cpp:137] Memory required for data: 315239600
I0630 20:12:13.662263  4668 layer_factory.cpp:58] Creating layer bn_cccp6
I0630 20:12:13.662263  4668 net.cpp:84] Creating Layer bn_cccp6
I0630 20:12:13.662263  4668 net.cpp:406] bn_cccp6 <- cccp6
I0630 20:12:13.662263  4668 net.cpp:367] bn_cccp6 -> cccp6 (in-place)
I0630 20:12:13.662263  4668 net.cpp:122] Setting up bn_cccp6
I0630 20:12:13.662263  4668 net.cpp:129] Top shape: 100 50 8 8 (320000)
I0630 20:12:13.662263  4668 net.cpp:137] Memory required for data: 316519600
I0630 20:12:13.662263  4668 layer_factory.cpp:58] Creating layer scale_cccp6
I0630 20:12:13.662263  4668 net.cpp:84] Creating Layer scale_cccp6
I0630 20:12:13.662263  4668 net.cpp:406] scale_cccp6 <- cccp6
I0630 20:12:13.662263  4668 net.cpp:367] scale_cccp6 -> cccp6 (in-place)
I0630 20:12:13.662263  4668 layer_factory.cpp:58] Creating layer scale_cccp6
I0630 20:12:13.662263  4668 net.cpp:122] Setting up scale_cccp6
I0630 20:12:13.662263  4668 net.cpp:129] Top shape: 100 50 8 8 (320000)
I0630 20:12:13.662263  4668 net.cpp:137] Memory required for data: 317799600
I0630 20:12:13.662263  4668 layer_factory.cpp:58] Creating layer relu_cccp6
I0630 20:12:13.662263  4668 net.cpp:84] Creating Layer relu_cccp6
I0630 20:12:13.662263  4668 net.cpp:406] relu_cccp6 <- cccp6
I0630 20:12:13.662263  4668 net.cpp:367] relu_cccp6 -> cccp6 (in-place)
I0630 20:12:13.662263  4668 net.cpp:122] Setting up relu_cccp6
I0630 20:12:13.662263  4668 net.cpp:129] Top shape: 100 50 8 8 (320000)
I0630 20:12:13.662263  4668 net.cpp:137] Memory required for data: 319079600
I0630 20:12:13.662263  4668 layer_factory.cpp:58] Creating layer poolcp6
I0630 20:12:13.662263  4668 net.cpp:84] Creating Layer poolcp6
I0630 20:12:13.662263  4668 net.cpp:406] poolcp6 <- cccp6
I0630 20:12:13.662263  4668 net.cpp:380] poolcp6 -> poolcp6
I0630 20:12:13.662263  4668 net.cpp:122] Setting up poolcp6
I0630 20:12:13.662263  4668 net.cpp:129] Top shape: 100 50 1 1 (5000)
I0630 20:12:13.662263  4668 net.cpp:137] Memory required for data: 319099600
I0630 20:12:13.662263  4668 layer_factory.cpp:58] Creating layer ip1
I0630 20:12:13.662263  4668 net.cpp:84] Creating Layer ip1
I0630 20:12:13.662263  4668 net.cpp:406] ip1 <- poolcp6
I0630 20:12:13.662263  4668 net.cpp:380] ip1 -> ip1
I0630 20:12:13.662263  4668 net.cpp:122] Setting up ip1
I0630 20:12:13.662263  4668 net.cpp:129] Top shape: 100 10 (1000)
I0630 20:12:13.662263  4668 net.cpp:137] Memory required for data: 319103600
I0630 20:12:13.662263  4668 layer_factory.cpp:58] Creating layer ip1_ip1_0_split
I0630 20:12:13.662263  4668 net.cpp:84] Creating Layer ip1_ip1_0_split
I0630 20:12:13.662263  4668 net.cpp:406] ip1_ip1_0_split <- ip1
I0630 20:12:13.662263  4668 net.cpp:380] ip1_ip1_0_split -> ip1_ip1_0_split_0
I0630 20:12:13.662263  4668 net.cpp:380] ip1_ip1_0_split -> ip1_ip1_0_split_1
I0630 20:12:13.662263  4668 net.cpp:122] Setting up ip1_ip1_0_split
I0630 20:12:13.662263  4668 net.cpp:129] Top shape: 100 10 (1000)
I0630 20:12:13.662263  4668 net.cpp:129] Top shape: 100 10 (1000)
I0630 20:12:13.662263  4668 net.cpp:137] Memory required for data: 319111600
I0630 20:12:13.662263  4668 layer_factory.cpp:58] Creating layer accuracy_training
I0630 20:12:13.662263  4668 net.cpp:84] Creating Layer accuracy_training
I0630 20:12:13.662263  4668 net.cpp:406] accuracy_training <- ip1_ip1_0_split_0
I0630 20:12:13.662263  4668 net.cpp:406] accuracy_training <- label_cifar_1_split_0
…
