…
I1203 16:39:44.619573 12164 net.cpp:294] The NetState phase (0) differed from the phase (1) specified by a rule in layer accuracy
I1203 16:39:44.620560 12164 net.cpp:51] Initializing net from parameters: 
name: "CIFAR10_resnet_32_with 3pooling"
state {
  phase: TRAIN
  level: 0
  stage: ""
}
layer {
  name: "cifar"
  type: "Data"
  top: "data"
  top: "label"
  include {
    phase: TRAIN
  }
  transform_param {
    mirror: true
    crop_size: 32
  }
  data_param {
    source: "examples/cifar10/cifar10_train_leveldb_padding"
    batch_size: 100
    backend: LEVELDB
  }
}
layer {
  name: "first_conv"
  type: "Convolution"
  bottom: "data"
  top: "first_conv"
  param {
    lr_mult: 1
    decay_mult: 1
  }
  convolution_param {
    num_output: 16
    pad: 1
    kernel_size: 3
    stride: 1
    weight_filler {
      type: "msra"
    }
  }
}
layer {
  name: "first_conv_bn"
  type: "BatchNorm"
  bottom: "first_conv"
  top: "first_conv"
  param {
    lr_mult: 0
    decay_mult: 0
  }
  param {
    lr_mult: 0
    decay_mult: 0
  }
  param {
    lr_mult: 0
    decay_mult: 0
  }
}
layer {
  name: "first_conv_scale"
  type: "Scale"
  bottom: "first_conv"
  top: "first_conv"
  scale_param {
    bias_term: true
  }
}
layer {
  name: "first_conv_relu"
  type: "ReLU"
  bottom: "first_conv"
  top: "first_conv"
}
layer {
  name: "group0_block0_conv0"
  type: "Convolution"
  bottom: "first_conv"
  top: "group0_block0_conv0"
  param {
    lr_mult: 1
    decay_mult: 1
  }
  convolution_param {
    num_output: 16
    pad: 1
    kernel_size: 3
    stride: 1
    weight_filler {
      type: "msra"
    }
  }
}
layer {
  name: "group0_block0_conv0_bn"
  type: "BatchNorm"
  bottom: "group0_block0_conv0"
  top: "group0_block0_conv0"
  param {
    lr_mult: 0
    decay_mult: 0
  }
  param {
    lr_mult: 0
    decay_mult: 0
  }
  param {
    lr_mult: 0
    decay_mult: 0
  }
}
layer {
  name: "group0_block0_conv0_scale"
  type: "Scale"
  bottom: "group0_block0_conv0"
  top: "group0_block0_conv0"
  scale_param {
    bias_term: true
  }
}
layer {
  name: "group0_block0_conv0_relu"
  type: "ReLU"
  bottom: "group0_block0_conv0"
  top: "group0_block0_conv0"
}
layer {
  name: "group0_block0_conv1"
  type: "Convolution"
  bottom: "group0_block0_conv0"
  top: "group0_block0_conv1"
  param {
    lr_mult: 1
    decay_mult: 1
  }
  convolution_param {
    num_output: 16
    pad: 1
    kernel_size: 3
    stride: 1
    weight_filler {
      type: "msra"
    }
  }
}
layer {
  name: "group0_block0_conv1_bn"
  type: "BatchNorm"
  bottom: "group0_block0_conv1"
  top: "group0_block0_conv1"
  param {
    lr_mult: 0
    decay_mult: 0
  }
  param {
    lr_mult: 0
    decay_mult: 0
  }
  param {
    lr_mult: 0
    decay_mult: 0
  }
}
layer {
  name: "group0_block0_conv1_scale"
  type: "Scale"
  bottom: "group0_block0_conv1"
  top: "group0_block0_conv1"
  scale_param {
    bias_term: true
  }
}
layer {
  name: "group0_block0_sum"
  type: "Eltwise"
  bottom: "group0_block0_conv1"
  bottom: "first_conv"
  top: "group0_block0_sum"
  eltwise_param {
    operation: SUM
  }
}
layer {
  name: "group0_block1_conv0"
  type: "Convolution"
  bottom: "group0_block0_sum"
  top: "group0_block1_conv0"
  param {
    lr_mult: 1
    decay_mult: 1
  }
  convolution_param {
    num_output: 16
    pad: 1
    kernel_size: 3
    stride: 1
    weight_filler {
      type: "msra"
    }
  }
}
layer {
  name: "group0_block1_conv0_bn"
  type: "BatchNorm"
  bottom: "group0_block1_conv0"
  top: "group0_block1_conv0"
  param {
    lr_mult: 0
    decay_mult: 0
  }
  param {
    lr_mult: 0
    decay_mult: 0
  }
  param {
    lr_mult: 0
    decay_mult: 0
  }
}
layer {
  name: "group0_block1_conv0_scale"
  type: "Scale"
  bottom: "group0_block1_conv0"
  top: "group0_block1_conv0"
  scale_param {
    bias_term: true
  }
}
layer {
  name: "group0_block1_conv0_relu"
  type: "ReLU"
  bottom: "group0_block1_conv0"
  top: "group0_block1_conv0"
}
layer {
  name: "group0_block1_conv1"
  type: "Convolution"
  bottom: "group0_block1_conv0"
  top: "group0_block1_conv1"
  param {
    lr_mult: 1
    decay_mult: 1
  }
  convolution_param {
    num_output: 16
    pad: 1
    kernel_size: 3
    stride: 1
    weight_filler {
      type: "msra"
    }
  }
}
layer {
  name: "group0_block1_conv1_bn"
  type: "BatchNorm"
  bottom: "group0_block1_conv1"
  top: "group0_block1_conv1"
  param {
    lr_mult: 0
    decay_mult: 0
  }
  param {
    lr_mult: 0
    decay_mult: 0
  }
  param {
    lr_mult: 0
    decay_mult: 0
  }
}
layer {
  name: "group0_block1_conv1_scale"
  type: "Scale"
  bottom: "group0_block1_conv1"
  top: "group0_block1_conv1"
  scale_param {
    bias_term: true
  }
}
layer {
  name: "group0_block1_sum"
  type: "Eltwise"
  bottom: "group0_block1_conv1"
  bottom: "group0_block0_sum"
  top: "group0_block1_sum"
  eltwise_param {
    operation: SUM
  }
}
layer {
  name: "group0_block2_conv0"
  type: "Convolution"
  bottom: "group0_block1_sum"
  top: "group0_block2_conv0"
  param {
    lr_mult: 1
    decay_mult: 1
  }
  convolution_param {
    num_output: 16
    pad: 1
    kernel_size: 3
    stride: 1
    weight_filler {
      type: "msra"
    }
  }
}
layer {
  name: "group0_block2_conv0_bn"
  type: "BatchNorm"
  bottom: "group0_block2_conv0"
  top: "group0_block2_conv0"
  param {
    lr_mult: 0
    decay_mult: 0
  }
  param {
    lr_mult: 0
    decay_mult: 0
  }
  param {
    lr_mult: 0
    decay_mult: 0
  }
}
layer {
  name: "group0_block2_conv0_scale"
  type: "Scale"
  bottom: "group0_block2_conv0"
  top: "group0_block2_conv0"
  scale_param {
    bias_term: true
  }
}
layer {
  name: "group0_block2_conv0_relu"
  type: "ReLU"
  bottom: "group0_block2_conv0"
  top: "group0_block2_conv0"
}
layer {
  name: "group0_block2_conv1"
  type: "Convolution"
  bottom: "group0_block2_conv0"
  top: "group0_block2_conv1"
  param {
    lr_mult: 1
    decay_mult: 1
  }
  convolution_param {
    num_output: 16
    pad: 1
    kernel_size: 3
    stride: 1
    weight_filler {
      type: "msra"
    }
  }
}
layer {
  name: "group0_block2_conv1_bn"
  type: "BatchNorm"
  bottom: "group0_block2_conv1"
  top: "group0_block2_conv1"
  param {
    lr_mult: 0
    decay_mult: 0
  }
  param {
    lr_mult: 0
    decay_mult: 0
  }
  param {
    lr_mult: 0
    decay_mult: 0
  }
}
layer {
  name: "group0_block2_conv1_scale"
  type: "Scale"
  bottom: "group0_block2_conv1"
  top: "group0_block2_conv1"
  scale_param {
    bias_term: true
  }
}
layer {
  name: "group0_block2_sum"
  type: "Eltwise"
  bottom: "group0_block2_conv1"
  bottom: "group0_block1_sum"
  top: "group0_block2_sum"
  eltwise_param {
    operation: SUM
  }
}
layer {
  name: "group0_block3_conv0"
  type: "Convolution"
  bottom: "group0_block2_sum"
  top: "group0_block3_conv0"
  param {
    lr_mult: 1
    decay_mult: 1
  }
  convolution_param {
    num_output: 16
    pad: 1
    kernel_size: 3
    stride: 1
    weight_filler {
      type: "msra"
    }
  }
}
layer {
  name: "group0_block3_conv0_bn"
  type: "BatchNorm"
  bottom: "group0_block3_conv0"
  top: "group0_block3_conv0"
  param {
    lr_mult: 0
    decay_mult: 0
  }
  param {
    lr_mult: 0
    decay_mult: 0
  }
  param {
    lr_mult: 0
    decay_mult: 0
  }
}
layer {
  name: "group0_block3_conv0_scale"
  type: "Scale"
  bottom: "group0_block3_conv0"
  top: "group0_block3_conv0"
  scale_param {
    bias_term: true
  }
}
layer {
  name: "group0_block3_conv0_relu"
  type: "ReLU"
  bottom: "group0_block3_conv0"
  top: "group0_block3_conv0"
}
layer {
  name: "group0_block3_conv1"
  type: "Convolution"
  bottom: "group0_block3_conv0"
  top: "group0_block3_conv1"
  param {
    lr_mult: 1
    decay_mult: 1
  }
  convolution_param {
    num_output: 16
    pad: 1
    kernel_size: 3
    stride: 1
    weight_filler {
      type: "msra"
    }
  }
}
layer {
  name: "group0_block3_conv1_bn"
  type: "BatchNorm"
  bottom: "group0_block3_conv1"
  top: "group0_block3_conv1"
  param {
    lr_mult: 0
    decay_mult: 0
  }
  param {
    lr_mult: 0
    decay_mult: 0
  }
  param {
    lr_mult: 0
    decay_mult: 0
  }
}
layer {
  name: "group0_block3_conv1_scale"
  type: "Scale"
  bottom: "group0_block3_conv1"
  top: "group0_block3_conv1"
  scale_param {
    bias_term: true
  }
}
layer {
  name: "group0_block3_sum"
  type: "Eltwise"
  bottom: "group0_block3_conv1"
  bottom: "group0_block2_sum"
  top: "group0_block3_sum"
  eltwise_param {
    operation: SUM
  }
}
layer {
  name: "group0_block4_conv0"
  type: "Convolution"
  bottom: "group0_block3_sum"
  top: "group0_block4_conv0"
  param {
    lr_mult: 1
    decay_mult: 1
  }
  convolution_param {
    num_output: 16
    pad: 1
    kernel_size: 3
    stride: 1
    weight_filler {
      type: "msra"
    }
  }
}
layer {
  name: "group0_block4_conv0_bn"
  type: "BatchNorm"
  bottom: "group0_block4_conv0"
  top: "group0_block4_conv0"
  param {
    lr_mult: 0
    decay_mult: 0
  }
  param {
    lr_mult: 0
    decay_mult: 0
  }
  param {
    lr_mult: 0
    decay_mult: 0
  }
}
layer {
  name: "group0_block4_conv0_scale"
  type: "Scale"
  bottom: "group0_block4_conv0"
  top: "group0_block4_conv0"
  scale_param {
    bias_term: true
  }
}
layer {
  name: "group0_block4_conv0_relu"
  type: "ReLU"
  bottom: "group0_block4_conv0"
  top: "group0_block4_conv0"
}
layer {
  name: "group0_block4_conv1"
  type: "Convolution"
  bottom: "group0_block4_conv0"
  top: "group0_block4_conv1"
  param {
    lr_mult: 1
    decay_mult: 1
  }
  convolution_param {
    num_output: 16
    pad: 1
    kernel_size: 3
    stride: 1
    weight_filler {
      type: "msra"
    }
  }
}
layer {
  name: "group0_block4_conv1_bn"
  type: "BatchNorm"
  bottom: "group0_block4_conv1"
  top: "group0_block4_conv1"
  param {
    lr_mult: 0
    decay_mult: 0
  }
  param {
    lr_mult: 0
    decay_mult: 0
  }
  param {
    lr_mult: 0
    decay_mult: 0
  }
}
layer {
  name: "group0_block4_conv1_scale"
  type: "Scale"
  bottom: "group0_block4_conv1"
  top: "group0_block4_conv1"
  scale_param {
    bias_term: true
  }
}
layer {
  name: "group0_block4_sum"
  type: "Eltwise"
  bottom: "group0_block4_conv1"
  bottom: "group0_block3_sum"
  top: "group0_block4_sum"
  eltwise_param {
    operation: SUM
  }
}
layer {
  name: "group1_block0_conv0"
  type: "Convolution"
  bottom: "group0_block4_sum"
  top: "group1_block0_conv0"
  param {
    lr_mult: 1
    decay_mult: 1
  }
  convolution_param {
    num_output: 32
    pad: 1
    kernel_size: 3
    stride: 1
    weight_filler {
      type: "msra"
    }
  }
}
layer {
  name: "pool1"
  type: "Pooling"
  bottom: "group1_block0_conv0"
  top: "pool1"
  pooling_param {
    pool: MAX
    kernel_size: 2
    stride: 2
  }
}
layer {
  name: "group1_block0_conv0_bn"
  type: "BatchNorm"
  bottom: "pool1"
  top: "pool1"
  param {
    lr_mult: 0
    decay_mult: 0
  }
  param {
    lr_mult: 0
    decay_mult: 0
  }
  param {
    lr_mult: 0
    decay_mult: 0
  }
}
layer {
  name: "group1_block0_conv0_scale"
  type: "Scale"
  bottom: "pool1"
  top: "pool1"
  scale_param {
    bias_term: true
  }
}
layer {
  name: "group1_block0_conv0_relu"
  type: "ReLU"
  bottom: "pool1"
  top: "pool1"
}
layer {
  name: "group1_block0_conv1"
  type: "Convolution"
  bottom: "pool1"
  top: "group1_block0_conv1"
  param {
    lr_mult: 1
    decay_mult: 1
  }
  convolution_param {
    num_output: 32
    pad: 1
    kernel_size: 3
    stride: 1
    weight_filler {
      type: "msra"
    }
  }
}
layer {
  name: "group1_block0_conv1_bn"
  type: "BatchNorm"
  bottom: "group1_block0_conv1"
  top: "group1_block0_conv1"
  param {
    lr_mult: 0
    decay_mult: 0
  }
  param {
    lr_mult: 0
    decay_mult: 0
  }
  param {
    lr_mult: 0
    decay_mult: 0
  }
}
layer {
  name: "group1_block0_conv1_scale"
  type: "Scale"
  bottom: "group1_block0_conv1"
  top: "group1_block0_conv1"
  scale_param {
    bias_term: true
  }
}
layer {
  name: "group1_block0_proj"
  type: "Convolution"
  bottom: "group0_block4_sum"
  top: "group1_block0_proj"
  param {
    lr_mult: 1
    decay_mult: 1
  }
  convolution_param {
    num_output: 32
    pad: 0
    kernel_size: 2
    stride: 1
    weight_filler {
      type: "msra"
    }
  }
}
layer {
  name: "pool2"
  type: "Pooling"
  bottom: "group1_block0_proj"
  top: "pool2"
  pooling_param {
    pool: MAX
    kernel_size: 2
    stride: 2
  }
}
layer {
  name: "group1_block0_proj_bn"
  type: "BatchNorm"
  bottom: "pool2"
  top: "pool2"
  param {
    lr_mult: 0
    decay_mult: 0
  }
  param {
    lr_mult: 0
    decay_mult: 0
  }
  param {
    lr_mult: 0
    decay_mult: 0
  }
}
layer {
  name: "group1_block0_proj_scale"
  type: "Scale"
  bottom: "pool2"
  top: "pool2"
  scale_param {
    bias_term: true
  }
}
layer {
  name: "group1_block0_sum"
  type: "Eltwise"
  bottom: "pool2"
  bottom: "group1_block0_conv1"
  top: "group1_block0_sum"
  eltwise_param {
    operation: SUM
  }
}
layer {
  name: "group1_block1_conv0"
  type: "Convolution"
  bottom: "group1_block0_sum"
  top: "group1_block1_conv0"
  param {
    lr_mult: 1
    decay_mult: 1
  }
  convolution_param {
    num_output: 32
    pad: 1
    kernel_size: 3
    stride: 1
    weight_filler {
      type: "msra"
    }
  }
}
layer {
  name: "group1_block1_conv0_bn"
  type: "BatchNorm"
  bottom: "group1_block1_conv0"
  top: "group1_block1_conv0"
  param {
    lr_mult: 0
    decay_mult: 0
  }
  param {
    lr_mult: 0
    decay_mult: 0
  }
  param {
    lr_mult: 0
    decay_mult: 0
  }
}
layer {
  name: "group1_block1_conv0_scale"
  type: "Scale"
  bottom: "group1_block1_conv0"
  top: "group1_block1_conv0"
  scale_param {
    bias_term: true
  }
}
layer {
  name: "group1_block1_conv0_relu"
  type: "ReLU"
  bottom: "group1_block1_conv0"
  top: "group1_block1_conv0"
}
layer {
  name: "group1_block1_conv1"
  type: "Convolution"
  bottom: "group1_block1_conv0"
  top: "group1_block1_conv1"
  param {
    lr_mult: 1
    decay_mult: 1
  }
  convolution_param {
    num_output: 32
    pad: 1
    kernel_size: 3
    stride: 1
    weight_filler {
      type: "msra"
    }
  }
}
layer {
  name: "group1_block1_conv1_bn"
  type: "BatchNorm"
  bottom: "group1_block1_conv1"
  top: "group1_block1_conv1"
  param {
    lr_mult: 0
    decay_mult: 0
  }
  param {
    lr_mult: 0
    decay_mult: 0
  }
  param {
    lr_mult: 0
    decay_mult: 0
  }
}
layer {
  name: "group1_block1_conv1_scale"
  type: "Scale"
  bottom: "group1_block1_conv1"
  top: "group1_block1_conv1"
  scale_param {
    bias_term: true
  }
}
layer {
  name: "group1_block1_sum"
  type: "Eltwise"
  bottom: "group1_block1_conv1"
  bottom: "group1_block0_sum"
  top: "group1_block1_sum"
  eltwise_param {
    operation: SUM
  }
}
layer {
  name: "group1_block2_conv0"
  type: "Convolution"
  bottom: "group1_block1_sum"
  top: "group1_block2_conv0"
  param {
    lr_mult: 1
    decay_mult: 1
  }
  convolution_param {
    num_output: 32
    pad: 1
    kernel_size: 3
    stride: 1
    weight_filler {
      type: "msra"
    }
  }
}
layer {
  name: "group1_block2_conv0_bn"
  type: "BatchNorm"
  bottom: "group1_block2_conv0"
  top: "group1_block2_conv0"
  param {
    lr_mult: 0
    decay_mult: 0
  }
  param {
    lr_mult: 0
    decay_mult: 0
  }
  param {
    lr_mult: 0
    decay_mult: 0
  }
}
layer {
  name: "group1_block2_conv0_scale"
  type: "Scale"
  bottom: "group1_block2_conv0"
  top: "group1_block2_conv0"
  scale_param {
    bias_term: true
  }
}
layer {
  name: "group1_block2_conv0_relu"
  type: "ReLU"
  bottom: "group1_block2_conv0"
  top: "group1_block2_conv0"
}
layer {
  name: "group1_block2_conv1"
  type: "Convolution"
  bottom: "group1_block2_conv0"
  top: "group1_block2_conv1"
  param {
    lr_mult: 1
    decay_mult: 1
  }
  convolution_param {
    num_output: 32
    pad: 1
    kernel_size: 3
    stride: 1
    weight_filler {
      type: "msra"
    }
  }
}
layer {
  name: "group1_block2_conv1_bn"
  type: "BatchNorm"
  bottom: "group1_block2_conv1"
  top: "group1_block2_conv1"
  param {
    lr_mult: 0
    decay_mult: 0
  }
  param {
    lr_mult: 0
    decay_mult: 0
  }
  param {
    lr_mult: 0
    decay_mult: 0
  }
}
layer {
  name: "group1_block2_conv1_scale"
  type: "Scale"
  bottom: "group1_block2_conv1"
  top: "group1_block2_conv1"
  scale_param {
    bias_term: true
  }
}
layer {
  name: "group1_block2_sum"
  type: "Eltwise"
  bottom: "group1_block2_conv1"
  bottom: "group1_block1_sum"
  top: "group1_block2_sum"
  eltwise_param {
    operation: SUM
  }
}
layer {
  name: "group1_block3_conv0"
  type: "Convolution"
  bottom: "group1_block2_sum"
  top: "group1_block3_conv0"
  param {
    lr_mult: 1
    decay_mult: 1
  }
  convolution_param {
    num_output: 32
    pad: 1
    kernel_size: 3
    stride: 1
    weight_filler {
      type: "msra"
    }
  }
}
layer {
  name: "group1_block3_conv0_bn"
  type: "BatchNorm"
  bottom: "group1_block3_conv0"
  top: "group1_block3_conv0"
  param {
    lr_mult: 0
    decay_mult: 0
  }
  param {
    lr_mult: 0
    decay_mult: 0
  }
  param {
    lr_mult: 0
    decay_mult: 0
  }
}
layer {
  name: "group1_block3_conv0_scale"
  type: "Scale"
  bottom: "group1_block3_conv0"
  top: "group1_block3_conv0"
  scale_param {
    bias_term: true
  }
}
layer {
  name: "group1_block3_conv0_relu"
  type: "ReLU"
  bottom: "group1_block3_conv0"
  top: "group1_block3_conv0"
}
layer {
  name: "group1_block3_conv1"
  type: "Convolution"
  bottom: "group1_block3_conv0"
  top: "group1_block3_conv1"
  param {
    lr_mult: 1
    decay_mult: 1
  }
  convolution_param {
    num_output: 32
    pad: 1
    kernel_size: 3
    stride: 1
    weight_filler {
      type: "msra"
    }
  }
}
layer {
  name: "group1_block3_conv1_bn"
  type: "BatchNorm"
  bottom: "group1_block3_conv1"
  top: "group1_block3_conv1"
  param {
    lr_mult: 0
    decay_mult: 0
  }
  param {
    lr_mult: 0
    decay_mult: 0
  }
  param {
    lr_mult: 0
    decay_mult: 0
  }
}
layer {
  name: "group1_block3_conv1_scale"
  type: "Scale"
  bottom: "group1_block3_conv1"
  top: "group1_block3_conv1"
  scale_param {
    bias_term: true
  }
}
layer {
  name: "group1_block3_sum"
  type: "Eltwise"
  bottom: "group1_block3_conv1"
  bottom: "group1_block2_sum"
  top: "group1_block3_sum"
  eltwise_param {
    operation: SUM
  }
}
layer {
  name: "group1_block4_conv0"
  type: "Convolution"
  bottom: "group1_block3_sum"
  top: "group1_block4_conv0"
  param {
    lr_mult: 1
    decay_mult: 1
  }
  convolution_param {
    num_output: 32
    pad: 1
    kernel_size: 3
    stride: 1
    weight_filler {
      type: "msra"
    }
  }
}
layer {
  name: "group1_block4_conv0_bn"
  type: "BatchNorm"
  bottom: "group1_block4_conv0"
  top: "group1_block4_conv0"
  param {
    lr_mult: 0
    decay_mult: 0
  }
  param {
    lr_mult: 0
    decay_mult: 0
  }
  param {
    lr_mult: 0
    decay_mult: 0
  }
}
layer {
  name: "group1_block4_conv0_scale"
  type: "Scale"
  bottom: "group1_block4_conv0"
  top: "group1_block4_conv0"
  scale_param {
    bias_term: true
  }
}
layer {
  name: "group1_block4_conv0_relu"
  type: "ReLU"
  bottom: "group1_block4_conv0"
  top: "group1_block4_conv0"
}
layer {
  name: "group1_block4_conv1"
  type: "Convolution"
  bottom: "group1_block4_conv0"
  top: "group1_block4_conv1"
  param {
    lr_mult: 1
    decay_mult: 1
  }
  convolution_param {
    num_output: 32
    pad: 1
    kernel_size: 3
    stride: 1
    weight_filler {
      type: "msra"
    }
  }
}
layer {
  name: "group1_block4_conv1_bn"
  type: "BatchNorm"
  bottom: "group1_block4_conv1"
  top: "group1_block4_conv1"
  param {
    lr_mult: 0
    decay_mult: 0
  }
  param {
    lr_mult: 0
    decay_mult: 0
  }
  param {
    lr_mult: 0
    decay_mult: 0
  }
}
layer {
  name: "group1_block4_conv1_scale"
  type: "Scale"
  bottom: "group1_block4_conv1"
  top: "group1_block4_conv1"
  scale_param {
    bias_term: true
  }
}
layer {
  name: "group1_block4_sum"
  type: "Eltwise"
  bottom: "group1_block4_conv1"
  bottom: "group1_block3_sum"
  top: "group1_block4_sum"
  eltwise_param {
    operation: SUM
  }
}
layer {
  name: "group2_block0_conv0"
  type: "Convolution"
  bottom: "group1_block4_sum"
  top: "group2_block0_conv0"
  param {
    lr_mult: 1
    decay_mult: 1
  }
  convolution_param {
    num_output: 64
    pad: 1
    kernel_size: 3
    stride: 1
    weight_filler {
      type: "msra"
    }
  }
}
layer {
  name: "pool3"
  type: "Pooling"
  bottom: "group2_block0_conv0"
  top: "pool3"
  pooling_param {
    pool: MAX
    kernel_size: 2
    stride: 2
  }
}
layer {
  name: "group2_block0_conv0_bn"
  type: "BatchNorm"
  bottom: "pool3"
  top: "pool3"
  param {
    lr_mult: 0
    decay_mult: 0
  }
  param {
    lr_mult: 0
    decay_mult: 0
  }
  param {
    lr_mult: 0
    decay_mult: 0
  }
}
layer {
  name: "group2_block0_conv0_scale"
  type: "Scale"
  bottom: "pool3"
  top: "pool3"
  scale_param {
    bias_term: true
  }
}
layer {
  name: "group2_block0_conv0_relu"
  type: "ReLU"
  bottom: "pool3"
  top: "pool3"
}
layer {
  name: "group2_block0_conv1"
  type: "Convolution"
  bottom: "pool3"
  top: "group2_block0_conv1"
  param {
    lr_mult: 1
    decay_mult: 1
  }
  convolution_param {
    num_output: 64
    pad: 1
    kernel_size: 3
    stride: 1
    weight_filler {
      type: "msra"
    }
  }
}
layer {
  name: "group2_block0_conv1_bn"
  type: "BatchNorm"
  bottom: "group2_block0_conv1"
  top: "group2_block0_conv1"
  param {
    lr_mult: 0
    decay_mult: 0
  }
  param {
    lr_mult: 0
    decay_mult: 0
  }
  param {
    lr_mult: 0
    decay_mult: 0
  }
}
layer {
  name: "group2_block0_conv1_scale"
  type: "Scale"
  bottom: "group2_block0_conv1"
  top: "group2_block0_conv1"
  scale_param {
    bias_term: true
  }
}
layer {
  name: "group2_block0_proj"
  type: "Convolution"
  bottom: "group1_block4_sum"
  top: "group2_block0_proj"
  param {
    lr_mult: 1
    decay_mult: 1
  }
  convolution_param {
    num_output: 64
    pad: 0
    kernel_size: 2
    stride: 2
    weight_filler {
      type: "msra"
    }
  }
}
layer {
  name: "group2_block0_proj_bn"
  type: "BatchNorm"
  bottom: "group2_block0_proj"
  top: "group2_block0_proj"
  param {
    lr_mult: 0
    decay_mult: 0
  }
  param {
    lr_mult: 0
    decay_mult: 0
  }
  param {
    lr_mult: 0
    decay_mult: 0
  }
}
layer {
  name: "group2_block0_proj_scale"
  type: "Scale"
  bottom: "group2_block0_proj"
  top: "group2_block0_proj"
  scale_param {
    bias_term: true
  }
}
layer {
  name: "group2_block0_sum"
  type: "Eltwise"
  bottom: "group2_block0_proj"
  bottom: "group2_block0_conv1"
  top: "group2_block0_sum"
  eltwise_param {
    operation: SUM
  }
}
layer {
  name: "group2_block1_conv0"
  type: "Convolution"
  bottom: "group2_block0_sum"
  top: "group2_block1_conv0"
  param {
    lr_mult: 1
    decay_mult: 1
  }
  convolution_param {
    num_output: 64
    pad: 1
    kernel_size: 3
    stride: 1
    weight_filler {
      type: "msra"
    }
  }
}
layer {
  name: "group2_block1_conv0_bn"
  type: "BatchNorm"
  bottom: "group2_block1_conv0"
  top: "group2_block1_conv0"
  param {
    lr_mult: 0
    decay_mult: 0
  }
  param {
    lr_mult: 0
    decay_mult: 0
  }
  param {
    lr_mult: 0
    decay_mult: 0
  }
}
layer {
  name: "group2_block1_conv0_scale"
  type: "Scale"
  bottom: "group2_block1_conv0"
  top: "group2_block1_conv0"
  scale_param {
    bias_term: true
  }
}
layer {
  name: "group2_block1_conv0_relu"
  type: "ReLU"
  bottom: "group2_block1_conv0"
  top: "group2_block1_conv0"
}
layer {
  name: "group2_block1_conv1"
  type: "Convolution"
  bottom: "group2_block1_conv0"
  top: "group2_block1_conv1"
  param {
    lr_mult: 1
    decay_mult: 1
  }
  convolution_param {
    num_output: 64
    pad: 1
    kernel_size: 3
    stride: 1
    weight_filler {
      type: "msra"
    }
  }
}
layer {
  name: "group2_block1_conv1_bn"
  type: "BatchNorm"
  bottom: "group2_block1_conv1"
  top: "group2_block1_conv1"
  param {
    lr_mult: 0
    decay_mult: 0
  }
  param {
    lr_mult: 0
    decay_mult: 0
  }
  param {
    lr_mult: 0
    decay_mult: 0
  }
}
layer {
  name: "group2_block1_conv1_scale"
  type: "Scale"
  bottom: "group2_block1_conv1"
  top: "group2_block1_conv1"
  scale_param {
    bias_term: true
  }
}
layer {
  name: "group2_block1_sum"
  type: "Eltwise"
  bottom: "group2_block1_conv1"
  bottom: "group2_block0_sum"
  top: "group2_block1_sum"
  eltwise_param {
    operation: SUM
  }
}
layer {
  name: "group2_block2_conv0"
  type: "Convolution"
  bottom: "group2_block1_sum"
  top: "group2_block2_conv0"
  param {
    lr_mult: 1
    decay_mult: 1
  }
  convolution_param {
    num_output: 64
    pad: 1
    kernel_size: 3
    stride: 1
    weight_filler {
      type: "msra"
    }
  }
}
layer {
  name: "group2_block2_conv0_bn"
  type: "BatchNorm"
  bottom: "group2_block2_conv0"
  top: "group2_block2_conv0"
  param {
    lr_mult: 0
    decay_mult: 0
  }
  param {
    lr_mult: 0
    decay_mult: 0
  }
  param {
    lr_mult: 0
    decay_mult: 0
  }
}
layer {
  name: "group2_block2_conv0_scale"
  type: "Scale"
  bottom: "group2_block2_conv0"
  top: "group2_block2_conv0"
  scale_param {
    bias_term: true
  }
}
layer {
  name: "group2_block2_conv0_relu"
  type: "ReLU"
  bottom: "group2_block2_conv0"
  top: "group2_block2_conv0"
}
layer {
  name: "group2_block2_conv1"
  type: "Convolution"
  bottom: "group2_block2_conv0"
  top: "group2_block2_conv1"
  param {
    lr_mult: 1
    decay_mult: 1
  }
  convolution_param {
    num_output: 64
    pad: 1
    kernel_size: 3
    stride: 1
    weight_filler {
      type: "msra"
    }
  }
}
layer {
  name: "group2_block2_conv1_bn"
  type: "BatchNorm"
  bottom: "group2_block2_conv1"
  top: "group2_block2_conv1"
  param {
    lr_mult: 0
    decay_mult: 0
  }
  param {
    lr_mult: 0
    decay_mult: 0
  }
  param {
    lr_mult: 0
    decay_mult: 0
  }
}
layer {
  name: "group2_block2_conv1_scale"
  type: "Scale"
  bottom: "group2_block2_conv1"
  top: "group2_block2_conv1"
  scale_param {
    bias_term: true
  }
}
layer {
  name: "group2_block2_sum"
  type: "Eltwise"
  bottom: "group2_block2_conv1"
  bottom: "group2_block1_sum"
  top: "group2_block2_sum"
  eltwise_param {
    operation: SUM
  }
}
layer {
  name: "group2_block3_conv0"
  type: "Convolution"
  bottom: "group2_block2_sum"
  top: "group2_block3_conv0"
  param {
    lr_mult: 1
    decay_mult: 1
  }
  convolution_param {
    num_output: 64
    pad: 1
    kernel_size: 3
    stride: 1
    weight_filler {
      type: "msra"
    }
  }
}
layer {
  name: "group2_block3_conv0_bn"
  type: "BatchNorm"
  bottom: "group2_block3_conv0"
  top: "group2_block3_conv0"
  param {
    lr_mult: 0
    decay_mult: 0
  }
  param {
    lr_mult: 0
    decay_mult: 0
  }
  param {
    lr_mult: 0
    decay_mult: 0
  }
}
layer {
  name: "group2_block3_conv0_scale"
  type: "Scale"
  bottom: "group2_block3_conv0"
  top: "group2_block3_conv0"
  scale_param {
    bias_term: true
  }
}
layer {
  name: "group2_block3_conv0_relu"
  type: "ReLU"
  bottom: "group2_block3_conv0"
  top: "group2_block3_conv0"
}
layer {
  name: "group2_block3_conv1"
  type: "Convolution"
  bottom: "group2_block3_conv0"
  top: "group2_block3_conv1"
  param {
    lr_mult: 1
    decay_mult: 1
  }
  convolution_param {
    num_output: 64
    pad: 1
    kernel_size: 3
    stride: 1
    weight_filler {
      type: "msra"
    }
  }
}
layer {
  name: "group2_block3_conv1_bn"
  type: "BatchNorm"
  bottom: "group2_block3_conv1"
  top: "group2_block3_conv1"
  param {
    lr_mult: 0
    decay_mult: 0
  }
  param {
    lr_mult: 0
    decay_mult: 0
  }
  param {
    lr_mult: 0
    decay_mult: 0
  }
}
layer {
  name: "group2_block3_conv1_scale"
  type: "Scale"
  bottom: "group2_block3_conv1"
  top: "group2_block3_conv1"
  scale_param {
    bias_term: true
  }
}
layer {
  name: "group2_block3_sum"
  type: "Eltwise"
  bottom: "group2_block3_conv1"
  bottom: "group2_block2_sum"
  top: "group2_block3_sum"
  eltwise_param {
    operation: SUM
  }
}
layer {
  name: "group2_block4_conv0"
  type: "Convolution"
  bottom: "group2_block3_sum"
  top: "group2_block4_conv0"
  param {
    lr_mult: 1
    decay_mult: 1
  }
  convolution_param {
    num_output: 64
    pad: 1
    kernel_size: 3
    stride: 1
    weight_filler {
      type: "msra"
    }
  }
}
layer {
  name: "group2_block4_conv0_bn"
  type: "BatchNorm"
  bottom: "group2_block4_conv0"
  top: "group2_block4_conv0"
  param {
    lr_mult: 0
    decay_mult: 0
  }
  param {
    lr_mult: 0
    decay_mult: 0
  }
  param {
    lr_mult: 0
    decay_mult: 0
  }
}
layer {
  name: "group2_block4_conv0_scale"
  type: "Scale"
  bottom: "group2_block4_conv0"
  top: "group2_block4_conv0"
  scale_param {
    bias_term: true
  }
}
layer {
  name: "group2_block4_conv0_relu"
  type: "ReLU"
  bottom: "group2_block4_conv0"
  top: "group2_block4_conv0"
}
layer {
  name: "group2_block4_conv1"
  type: "Convolution"
  bottom: "group2_block4_conv0"
  top: "group2_block4_conv1"
  param {
    lr_mult: 1
    decay_mult: 1
  }
  convolution_param {
    num_output: 64
    pad: 1
    kernel_size: 3
    stride: 1
    weight_filler {
      type: "msra"
    }
  }
}
layer {
  name: "group2_block4_conv1_bn"
  type: "BatchNorm"
  bottom: "group2_block4_conv1"
  top: "group2_block4_conv1"
  param {
    lr_mult: 0
    decay_mult: 0
  }
  param {
    lr_mult: 0
    decay_mult: 0
  }
  param {
    lr_mult: 0
    decay_mult: 0
  }
}
layer {
  name: "group2_block4_conv1_scale"
  type: "Scale"
  bottom: "group2_block4_conv1"
  top: "group2_block4_conv1"
  scale_param {
    bias_term: true
  }
}
layer {
  name: "group2_block4_sum"
  type: "Eltwise"
  bottom: "group2_block4_conv1"
  bottom: "group2_block3_sum"
  top: "group2_block4_sum"
  eltwise_param {
    operation: SUM
  }
}
layer {
  name: "global_avg_pool"
  type: "Pooling"
  bottom: "group2_block4_sum"
  top: "global_avg_pool"
  pooling_param {
    pool: AVE
    global_pooling: true
  }
}
layer {
  name: "fc"
  type: "InnerProduct"
  bottom: "global_avg_pool"
  top: "fc"
  param {
    lr_mult: 1
    decay_mult: 1
  }
  param {
    lr_mult: 2
    decay_mult: 0
  }
  inner_product_param {
    num_output: 10
    weight_filler {
      type: "msra"
    }
    bias_filler {
      type: "constant"
      value: 0
    }
  }
}
layer {
  name: "accuracy_training"
  type: "Accuracy"
  bottom: "fc"
  bottom: "label"
  top: "accuracy_training"
  include
I1203 16:39:44.623579 12164 layer_factory.cpp:58] Creating layer cifar
I1203 16:39:44.628571 12164 db_leveldb.cpp:18] Opened leveldb examples/cifar10/cifar10_train_leveldb_padding
I1203 16:39:44.628571 12164 net.cpp:84] Creating Layer cifar
I1203 16:39:44.628571 12164 net.cpp:380] cifar -> data
I1203 16:39:44.628571 12164 net.cpp:380] cifar -> label
I1203 16:39:44.629570 12164 data_layer.cpp:45] output data size: 100,3,32,32
I1203 16:39:44.637563 12164 net.cpp:122] Setting up cifar
I1203 16:39:44.637563 12164 net.cpp:129] Top shape: 100 3 32 32 (307200)
I1203 16:39:44.637563 12164 net.cpp:129] Top shape: 100 (100)
I1203 16:39:44.637563 12164 net.cpp:137] Memory required for data: 1229200
I1203 16:39:44.637563 12164 layer_factory.cpp:58] Creating layer label_cifar_1_split
I1203 16:39:44.637563 12164 net.cpp:84] Creating Layer label_cifar_1_split
I1203 16:39:44.637563 12164 net.cpp:406] label_cifar_1_split <- label
I1203 16:39:44.637563 12164 net.cpp:380] label_cifar_1_split -> label_cifar_1_split_0
I1203 16:39:44.637563 12164 net.cpp:380] label_cifar_1_split -> label_cifar_1_split_1
I1203 16:39:44.637563 12164 net.cpp:122] Setting up label_cifar_1_split
I1203 16:39:44.637563 12164 net.cpp:129] Top shape: 100 (100)
I1203 16:39:44.637563 12164 net.cpp:129] Top shape: 100 (100)
I1203 16:39:44.637563 12164 net.cpp:137] Memory required for data: 1230000
I1203 16:39:44.637563 12164 layer_factory.cpp:58] Creating layer first_conv
I1203 16:39:44.637563 12164 net.cpp:84] Creating Layer first_conv
I1203 16:39:44.637563 12164 net.cpp:406] first_conv <- data
I1203 16:39:44.637563 12164 net.cpp:380] first_conv -> first_conv
I1203 16:39:44.638573  6116 common.cpp:36] System entropy source not available, using fallback algorithm to generate seed instead.
I1203 16:39:44.882073 12164 net.cpp:122] Setting up first_conv
I1203 16:39:44.882073 12164 net.cpp:129] Top shape: 100 16 32 32 (1638400)
I1203 16:39:44.883090 12164 net.cpp:137] Memory required for data: 7783600
I1203 16:39:44.883090 12164 layer_factory.cpp:58] Creating layer first_conv_bn
I1203 16:39:44.883090 12164 net.cpp:84] Creating Layer first_conv_bn
I1203 16:39:44.883090 12164 net.cpp:406] first_conv_bn <- first_conv
I1203 16:39:44.883090 12164 net.cpp:367] first_conv_bn -> first_conv (in-place)
I1203 16:39:44.883090 12164 net.cpp:122] Setting up first_conv_bn
I1203 16:39:44.883090 12164 net.cpp:129] Top shape: 100 16 32 32 (1638400)
I1203 16:39:44.883090 12164 net.cpp:137] Memory required for data: 14337200
I1203 16:39:44.883090 12164 layer_factory.cpp:58] Creating layer first_conv_scale
I1203 16:39:44.883090 12164 net.cpp:84] Creating Layer first_conv_scale
I1203 16:39:44.883090 12164 net.cpp:406] first_conv_scale <- first_conv
I1203 16:39:44.883090 12164 net.cpp:367] first_conv_scale -> first_conv (in-place)
I1203 16:39:44.883090 12164 layer_factory.cpp:58] Creating layer first_conv_scale
I1203 16:39:44.883090 12164 net.cpp:122] Setting up first_conv_scale
I1203 16:39:44.883090 12164 net.cpp:129] Top shape: 100 16 32 32 (1638400)
I1203 16:39:44.883090 12164 net.cpp:137] Memory required for data: 20890800
I1203 16:39:44.883090 12164 layer_factory.cpp:58] Creating layer first_conv_relu
I1203 16:39:44.883090 12164 net.cpp:84] Creating Layer first_conv_relu
I1203 16:39:44.883090 12164 net.cpp:406] first_conv_relu <- first_conv
I1203 16:39:44.883090 12164 net.cpp:367] first_conv_relu -> first_conv (in-place)
I1203 16:39:44.883090 12164 net.cpp:122] Setting up first_conv_relu
I1203 16:39:44.883090 12164 net.cpp:129] Top shape: 100 16 32 32 (1638400)
I1203 16:39:44.883090 12164 net.cpp:137] Memory required for data: 27444400
I1203 16:39:44.883090 12164 layer_factory.cpp:58] Creating layer first_conv_first_conv_relu_0_split
I1203 16:39:44.883090 12164 net.cpp:84] Creating Layer first_conv_first_conv_relu_0_split
I1203 16:39:44.883090 12164 net.cpp:406] first_conv_first_conv_relu_0_split <- first_conv
I1203 16:39:44.883090 12164 net.cpp:380] first_conv_first_conv_relu_0_split -> first_conv_first_conv_relu_0_split_0
I1203 16:39:44.883090 12164 net.cpp:380] first_conv_first_conv_relu_0_split -> first_conv_first_conv_relu_0_split_1
I1203 16:39:44.883090 12164 net.cpp:122] Setting up first_conv_first_conv_relu_0_split
I1203 16:39:44.883090 12164 net.cpp:129] Top shape: 100 16 32 32 (1638400)
I1203 16:39:44.883090 12164 net.cpp:129] Top shape: 100 16 32 32 (1638400)
I1203 16:39:44.883090 12164 net.cpp:137] Memory required for data: 40551600
I1203 16:39:44.883090 12164 layer_factory.cpp:58] Creating layer group0_block0_conv0
I1203 16:39:44.883090 12164 net.cpp:84] Creating Layer group0_block0_conv0
I1203 16:39:44.883090 12164 net.cpp:406] group0_block0_conv0 <- first_conv_first_conv_relu_0_split_0
I1203 16:39:44.883090 12164 net.cpp:380] group0_block0_conv0 -> group0_block0_conv0
I1203 16:39:44.885614 12164 net.cpp:122] Setting up group0_block0_conv0
I1203 16:39:44.885614 12164 net.cpp:129] Top shape: 100 16 32 32 (1638400)
I1203 16:39:44.885614 12164 net.cpp:137] Memory required for data: 47105200
I1203 16:39:44.885614 12164 layer_factory.cpp:58] Creating layer group0_block0_conv0_bn
I1203 16:39:44.885614 12164 net.cpp:84] Creating Layer group0_block0_conv0_bn
I1203 16:39:44.885614 12164 net.cpp:406] group0_block0_conv0_bn <- group0_block0_conv0
I1203 16:39:44.885614 12164 net.cpp:367] group0_block0_conv0_bn -> group0_block0_conv0 (in-place)
I1203 16:39:44.885614 12164 net.cpp:122] Setting up group0_block0_conv0_bn
I1203 16:39:44.885614 12164 net.cpp:129] Top shape: 100 16 32 32 (1638400)
I1203 16:39:44.885614 12164 net.cpp:137] Memory required for data: 53658800
I1203 16:39:44.886107 12164 layer_factory.cpp:58] Creating layer group0_block0_conv0_scale
I1203 16:39:44.886107 12164 net.cpp:84] Creating Layer group0_block0_conv0_scale
I1203 16:39:44.886107 12164 net.cpp:406] group0_block0_conv0_scale <- group0_block0_conv0
I1203 16:39:44.886107 12164 net.cpp:367] group0_block0_conv0_scale -> group0_block0_conv0 (in-place)
I1203 16:39:44.886107 12164 layer_factory.cpp:58] Creating layer group0_block0_conv0_scale
I1203 16:39:44.886107 12164 net.cpp:122] Setting up group0_block0_conv0_scale
I1203 16:39:44.886107 12164 net.cpp:129] Top shape: 100 16 32 32 (1638400)
I1203 16:39:44.886107 12164 net.cpp:137] Memory required for data: 60212400
I1203 16:39:44.886107 12164 layer_factory.cpp:58] Creating layer group0_block0_conv0_relu
I1203 16:39:44.886107 12164 net.cpp:84] Creating Layer group0_block0_conv0_relu
I1203 16:39:44.886107 12164 net.cpp:406] group0_block0_conv0_relu <- group0_block0_conv0
I1203 16:39:44.886107 12164 net.cpp:367] group0_block0_conv0_relu -> group0_block0_conv0 (in-place)
I1203 16:39:44.886107 12164 net.cpp:122] Setting up group0_block0_conv0_relu
I1203 16:39:44.886615 12164 net.cpp:129] Top shape: 100 16 32 32 (1638400)
I1203 16:39:44.886615 12164 net.cpp:137] Memory required for data: 66766000
I1203 16:39:44.886615 12164 layer_factory.cpp:58] Creating layer group0_block0_conv1
I1203 16:39:44.886615 12164 net.cpp:84] Creating Layer group0_block0_conv1
I1203 16:39:44.886615 12164 net.cpp:406] group0_block0_conv1 <- group0_block0_conv0
I1203 16:39:44.886615 12164 net.cpp:380] group0_block0_conv1 -> group0_block0_conv1
I1203 16:39:44.887614 12164 net.cpp:122] Setting up group0_block0_conv1
I1203 16:39:44.887614 12164 net.cpp:129] Top shape: 100 16 32 32 (1638400)
I1203 16:39:44.887614 12164 net.cpp:137] Memory required for data: 73319600
I1203 16:39:44.887614 12164 layer_factory.cpp:58] Creating layer group0_block0_conv1_bn
I1203 16:39:44.887614 12164 net.cpp:84] Creating Layer group0_block0_conv1_bn
I1203 16:39:44.887614 12164 net.cpp:406] group0_block0_conv1_bn <- group0_block0_conv1
I1203 16:39:44.887614 12164 net.cpp:367] group0_block0_conv1_bn -> group0_block0_conv1 (in-place)
I1203 16:39:44.887614 12164 net.cpp:122] Setting up group0_block0_conv1_bn
I1203 16:39:44.887614 12164 net.cpp:129] Top shape: 100 16 32 32 (1638400)
I1203 16:39:44.887614 12164 net.cpp:137] Memory required for data: 79873200
I1203 16:39:44.887614 12164 layer_factory.cpp:58] Creating layer group0_block0_conv1_scale
I1203 16:39:44.887614 12164 net.cpp:84] Creating Layer group0_block0_conv1_scale
I1203 16:39:44.887614 12164 net.cpp:406] group0_block0_conv1_scale <- group0_block0_conv1
I1203 16:39:44.887614 12164 net.cpp:367] group0_block0_conv1_scale -> group0_block0_conv1 (in-place)
I1203 16:39:44.887614 12164 layer_factory.cpp:58] Creating layer group0_block0_conv1_scale
I1203 16:39:44.887614 12164 net.cpp:122] Setting up group0_block0_conv1_scale
I1203 16:39:44.887614 12164 net.cpp:129] Top shape: 100 16 32 32 (1638400)
I1203 16:39:44.887614 12164 net.cpp:137] Memory required for data: 86426800
I1203 16:39:44.887614 12164 layer_factory.cpp:58] Creating layer group0_block0_sum
I1203 16:39:44.887614 12164 net.cpp:84] Creating Layer group0_block0_sum
I1203 16:39:44.887614 12164 net.cpp:406] group0_block0_sum <- group0_block0_conv1
I1203 16:39:44.888113 12164 net.cpp:406] group0_block0_sum <- first_conv_first_conv_relu_0_split_1
I1203 16:39:44.888113 12164 net.cpp:380] group0_block0_sum -> group0_block0_sum
I1203 16:39:44.888113 12164 net.cpp:122] Setting up group0_block0_sum
I1203 16:39:44.888113 12164 net.cpp:129] Top shape: 100 16 32 32 (1638400)
I1203 16:39:44.888113 12164 net.cpp:137] Memory required for data: 92980400
I1203 16:39:44.888113 12164 layer_factory.cpp:58] Creating layer group0_block0_sum_group0_block0_sum_0_split
I1203 16:39:44.888113 12164 net.cpp:84] Creating Layer group0_block0_sum_group0_block0_sum_0_split
I1203 16:39:44.888113 12164 net.cpp:406] group0_block0_sum_group0_block0_sum_0_split <- group0_block0_sum
I1203 16:39:44.888113 12164 net.cpp:380] group0_block0_sum_group0_block0_sum_0_split -> group0_block0_sum_group0_block0_sum_0_split_0
I1203 16:39:44.888113 12164 net.cpp:380] group0_block0_sum_group0_block0_sum_0_split -> group0_block0_sum_group0_block0_sum_0_split_1
I1203 16:39:44.888113 12164 net.cpp:122] Setting up group0_block0_sum_group0_block0_sum_0_split
I1203 16:39:44.888113 12164 net.cpp:129] Top shape: 100 16 32 32 (1638400)
I1203 16:39:44.888113 12164 net.cpp:129] Top shape: 100 16 32 32 (1638400)
I1203 16:39:44.888113 12164 net.cpp:137] Memory required for data: 106087600
I1203 16:39:44.888113 12164 layer_factory.cpp:58] Creating layer group0_block1_conv0
I1203 16:39:44.888113 12164 net.cpp:84] Creating Layer group0_block1_conv0
I1203 16:39:44.888113 12164 net.cpp:406] group0_block1_conv0 <- group0_block0_sum_group0_block0_sum_0_split_0
I1203 16:39:44.888113 12164 net.cpp:380] group0_block1_conv0 -> group0_block1_conv0
I1203 16:39:44.889114 12164 net.cpp:122] Setting up group0_block1_conv0
I1203 16:39:44.889114 12164 net.cpp:129] Top shape: 100 16 32 32 (1638400)
I1203 16:39:44.889114 12164 net.cpp:137] Memory required for data: 112641200
I1203 16:39:44.889114 12164 layer_factory.cpp:58] Creating layer group0_block1_conv0_bn
I1203 16:39:44.889114 12164 net.cpp:84] Creating Layer group0_block1_conv0_bn
I1203 16:39:44.889114 12164 net.cpp:406] group0_block1_conv0_bn <- group0_block1_conv0
I1203 16:39:44.889114 12164 net.cpp:367] group0_block1_conv0_bn -> group0_block1_conv0 (in-place)
I1203 16:39:44.889614 12164 net.cpp:122] Setting up group0_block1_conv0_bn
I1203 16:39:44.889614 12164 net.cpp:129] Top shape: 100 16 32 32 (1638400)
I1203 16:39:44.889614 12164 net.cpp:137] Memory required for data: 119194800
I1203 16:39:44.889614 12164 layer_factory.cpp:58] Creating layer group0_block1_conv0_scale
I1203 16:39:44.889614 12164 net.cpp:84] Creating Layer group0_block1_conv0_scale
I1203 16:39:44.889614 12164 net.cpp:406] group0_block1_conv0_scale <- group0_block1_conv0
I1203 16:39:44.889614 12164 net.cpp:367] group0_block1_conv0_scale -> group0_block1_conv0 (in-place)
I1203 16:39:44.889614 12164 layer_factory.cpp:58] Creating layer group0_block1_conv0_scale
I1203 16:39:44.889614 12164 net.cpp:122] Setting up group0_block1_conv0_scale
I1203 16:39:44.889614 12164 net.cpp:129] Top shape: 100 16 32 32 (1638400)
I1203 16:39:44.889614 12164 net.cpp:137] Memory required for data: 125748400
I1203 16:39:44.889614 12164 layer_factory.cpp:58] Creating layer group0_block1_conv0_relu
I1203 16:39:44.889614 12164 net.cpp:84] Creating Layer group0_block1_conv0_relu
I1203 16:39:44.889614 12164 net.cpp:406] group0_block1_conv0_relu <- group0_block1_conv0
I1203 16:39:44.889614 12164 net.cpp:367] group0_block1_conv0_relu -> group0_block1_conv0 (in-place)
I1203 16:39:44.889614 12164 net.cpp:122] Setting up group0_block1_conv0_relu
I1203 16:39:44.889614 12164 net.cpp:129] Top shape: 100 16 32 32 (1638400)
I1203 16:39:44.889614 12164 net.cpp:137] Memory required for data: 132302000
I1203 16:39:44.889614 12164 layer_factory.cpp:58] Creating layer group0_block1_conv1
I1203 16:39:44.890115 12164 net.cpp:84] Creating Layer group0_block1_conv1
I1203 16:39:44.890115 12164 net.cpp:406] group0_block1_conv1 <- group0_block1_conv0
I1203 16:39:44.890115 12164 net.cpp:380] group0_block1_conv1 -> group0_block1_conv1
I1203 16:39:44.891113 12164 net.cpp:122] Setting up group0_block1_conv1
I1203 16:39:44.891113 12164 net.cpp:129] Top shape: 100 16 32 32 (1638400)
I1203 16:39:44.891113 12164 net.cpp:137] Memory required for data: 138855600
I1203 16:39:44.891113 12164 layer_factory.cpp:58] Creating layer group0_block1_conv1_bn
I1203 16:39:44.891113 12164 net.cpp:84] Creating Layer group0_block1_conv1_bn
I1203 16:39:44.891113 12164 net.cpp:406] group0_block1_conv1_bn <- group0_block1_conv1
I1203 16:39:44.891113 12164 net.cpp:367] group0_block1_conv1_bn -> group0_block1_conv1 (in-place)
I1203 16:39:44.891113 12164 net.cpp:122] Setting up group0_block1_conv1_bn
I1203 16:39:44.891113 12164 net.cpp:129] Top shape: 100 16 32 32 (1638400)
I1203 16:39:44.891113 12164 net.cpp:137] Memory required for data: 145409200
I1203 16:39:44.891113 12164 layer_factory.cpp:58] Creating layer group0_block1_conv1_scale
I1203 16:39:44.891113 12164 net.cpp:84] Creating Layer group0_block1_conv1_scale
I1203 16:39:44.891113 12164 net.cpp:406] group0_block1_conv1_scale <- group0_block1_conv1
I1203 16:39:44.891113 12164 net.cpp:367] group0_block1_conv1_scale -> group0_block1_conv1 (in-place)
I1203 16:39:44.891113 12164 layer_factory.cpp:58] Creating layer group0_block1_conv1_scale
I1203 16:39:44.891113 12164 net.cpp:122] Setting up group0_block1_conv1_scale
I1203 16:39:44.891113 12164 net.cpp:129] Top shape: 100 16 32 32 (1638400)
I1203 16:39:44.891113 12164 net.cpp:137] Memory required for data: 151962800
I1203 16:39:44.891113 12164 layer_factory.cpp:58] Creating layer group0_block1_sum
I1203 16:39:44.891613 12164 net.cpp:84] Creating Layer group0_block1_sum
I1203 16:39:44.891613 12164 net.cpp:406] group0_block1_sum <- group0_block1_conv1
I1203 16:39:44.891613 12164 net.cpp:406] group0_block1_sum <- group0_block0_sum_group0_block0_sum_0_split_1
I1203 16:39:44.891613 12164 net.cpp:380] group0_block1_sum -> group0_block1_sum
I1203 16:39:44.891613 12164 net.cpp:122] Setting up group0_block1_sum
I1203 16:39:44.891613 12164 net.cpp:129] Top shape: 100 16 32 32 (1638400)
I1203 16:39:44.891613 12164 net.cpp:137] Memory required for data: 158516400
I1203 16:39:44.891613 12164 layer_factory.cpp:58] Creating layer group0_block1_sum_group0_block1_sum_0_split
I1203 16:39:44.891613 12164 net.cpp:84] Creating Layer group0_block1_sum_group0_block1_sum_0_split
I1203 16:39:44.891613 12164 net.cpp:406] group0_block1_sum_group0_block1_sum_0_split <- group0_block1_sum
I1203 16:39:44.891613 12164 net.cpp:380] group0_block1_sum_group0_block1_sum_0_split -> group0_block1_sum_group0_block1_sum_0_split_0
I1203 16:39:44.891613 12164 net.cpp:380] group0_block1_sum_group0_block1_sum_0_split -> group0_block1_sum_group0_block1_sum_0_split_1
I1203 16:39:44.891613 12164 net.cpp:122] Setting up group0_block1_sum_group0_block1_sum_0_split
I1203 16:39:44.891613 12164 net.cpp:129] Top shape: 100 16 32 32 (1638400)
I1203 16:39:44.891613 12164 net.cpp:129] Top shape: 100 16 32 32 (1638400)
I1203 16:39:44.891613 12164 net.cpp:137] Memory required for data: 171623600
I1203 16:39:44.891613 12164 layer_factory.cpp:58] Creating layer group0_block2_conv0
I1203 16:39:44.891613 12164 net.cpp:84] Creating Layer group0_block2_conv0
I1203 16:39:44.891613 12164 net.cpp:406] group0_block2_conv0 <- group0_block1_sum_group0_block1_sum_0_split_0
I1203 16:39:44.891613 12164 net.cpp:380] group0_block2_conv0 -> group0_block2_conv0
I1203 16:39:44.892614 12164 net.cpp:122] Setting up group0_block2_conv0
I1203 16:39:44.892614 12164 net.cpp:129] Top shape: 100 16 32 32 (1638400)
I1203 16:39:44.892614 12164 net.cpp:137] Memory required for data: 178177200
I1203 16:39:44.892614 12164 layer_factory.cpp:58] Creating layer group0_block2_conv0_bn
I1203 16:39:44.892614 12164 net.cpp:84] Creating Layer group0_block2_conv0_bn
I1203 16:39:44.892614 12164 net.cpp:406] group0_block2_conv0_bn <- group0_block2_conv0
I1203 16:39:44.892614 12164 net.cpp:367] group0_block2_conv0_bn -> group0_block2_conv0 (in-place)
I1203 16:39:44.892614 12164 net.cpp:122] Setting up group0_block2_conv0_bn
I1203 16:39:44.892614 12164 net.cpp:129] Top shape: 100 16 32 32 (1638400)
I1203 16:39:44.892614 12164 net.cpp:137] Memory required for data: 184730800
I1203 16:39:44.892614 12164 layer_factory.cpp:58] Creating layer group0_block2_conv0_scale
I1203 16:39:44.893115 12164 net.cpp:84] Creating Layer group0_block2_conv0_scale
I1203 16:39:44.893115 12164 net.cpp:406] group0_block2_conv0_scale <- group0_block2_conv0
I1203 16:39:44.893115 12164 net.cpp:367] group0_block2_conv0_scale -> group0_block2_conv0 (in-place)
I1203 16:39:44.893115 12164 layer_factory.cpp:58] Creating layer group0_block2_conv0_scale
I1203 16:39:44.893115 12164 net.cpp:122] Setting up group0_block2_conv0_scale
I1203 16:39:44.893115 12164 net.cpp:129] Top shape: 100 16 32 32 (1638400)
I1203 16:39:44.893115 12164 net.cpp:137] Memory required for data: 191284400
I1203 16:39:44.893115 12164 layer_factory.cpp:58] Creating layer group0_block2_conv0_relu
I1203 16:39:44.893115 12164 net.cpp:84] Creating Layer group0_block2_conv0_relu
I1203 16:39:44.893115 12164 net.cpp:406] group0_block2_conv0_relu <- group0_block2_conv0
I1203 16:39:44.893115 12164 net.cpp:367] group0_block2_conv0_relu -> group0_block2_conv0 (in-place)
I1203 16:39:44.893615 12164 net.cpp:122] Setting up group0_block2_conv0_relu
I1203 16:39:44.893615 12164 net.cpp:129] Top shape: 100 16 32 32 (1638400)
I1203 16:39:44.893615 12164 net.cpp:137] Memory required for data: 197838000
I1203 16:39:44.893615 12164 layer_factory.cpp:58] Creating layer group0_block2_conv1
I1203 16:39:44.893615 12164 net.cpp:84] Creating Layer group0_block2_conv1
I1203 16:39:44.893615 12164 net.cpp:406] group0_block2_conv1 <- group0_block2_conv0
I1203 16:39:44.893615 12164 net.cpp:380] group0_block2_conv1 -> group0_block2_conv1
I1203 16:39:44.894608 12164 net.cpp:122] Setting up group0_block2_conv1
I1203 16:39:44.894608 12164 net.cpp:129] Top shape: 100 16 32 32 (1638400)
I1203 16:39:44.894608 12164 net.cpp:137] Memory required for data: 204391600
I1203 16:39:44.894608 12164 layer_factory.cpp:58] Creating layer group0_block2_conv1_bn
I1203 16:39:44.894608 12164 net.cpp:84] Creating Layer group0_block2_conv1_bn
I1203 16:39:44.894608 12164 net.cpp:406] group0_block2_conv1_bn <- group0_block2_conv1
I1203 16:39:44.894608 12164 net.cpp:367] group0_block2_conv1_bn -> group0_block2_conv1 (in-place)
I1203 16:39:44.895112 12164 net.cpp:122] Setting up group0_block2_conv1_bn
I1203 16:39:44.895112 12164 net.cpp:129] Top shape: 100 16 32 32 (1638400)
I1203 16:39:44.895112 12164 net.cpp:137] Memory required for data: 210945200
I1203 16:39:44.895112 12164 layer_factory.cpp:58] Creating layer group0_block2_conv1_scale
I1203 16:39:44.895112 12164 net.cpp:84] Creating Layer group0_block2_conv1_scale
I1203 16:39:44.895112 12164 net.cpp:406] group0_block2_conv1_scale <- group0_block2_conv1
I1203 16:39:44.895112 12164 net.cpp:367] group0_block2_conv1_scale -> group0_block2_conv1 (in-place)
I1203 16:39:44.895112 12164 layer_factory.cpp:58] Creating layer group0_block2_conv1_scale
I1203 16:39:44.895112 12164 net.cpp:122] Setting up group0_block2_conv1_scale
I1203 16:39:44.895112 12164 net.cpp:129] Top shape: 100 16 32 32 (1638400)
I1203 16:39:44.895112 12164 net.cpp:137] Memory required for data: 217498800
I1203 16:39:44.895112 12164 layer_factory.cpp:58] Creating layer group0_block2_sum
I1203 16:39:44.895112 12164 net.cpp:84] Creating Layer group0_block2_sum
I1203 16:39:44.895112 12164 net.cpp:406] group0_block2_sum <- group0_block2_conv1
I1203 16:39:44.895112 12164 net.cpp:406] group0_block2_sum <- group0_block1_sum_group0_block1_sum_0_split_1
I1203 16:39:44.895112 12164 net.cpp:380] group0_block2_sum -> group0_block2_sum
I1203 16:39:44.895112 12164 net.cpp:122] Setting up group0_block2_sum
I1203 16:39:44.895112 12164 net.cpp:129] Top shape: 100 16 32 32 (1638400)
I1203 16:39:44.895112 12164 net.cpp:137] Memory required for data: 224052400
I1203 16:39:44.895112 12164 layer_factory.cpp:58] Creating layer group0_block2_sum_group0_block2_sum_0_split
I1203 16:39:44.895112 12164 net.cpp:84] Creating Layer group0_block2_sum_group0_block2_sum_0_split
I1203 16:39:44.895112 12164 net.cpp:406] group0_block2_sum_group0_block2_sum_0_split <- group0_block2_sum
I1203 16:39:44.895112 12164 net.cpp:380] group0_block2_sum_group0_block2_sum_0_split -> group0_block2_sum_group0_block2_sum_0_split_0
I1203 16:39:44.895112 12164 net.cpp:380] group0_block2_sum_group0_block2_sum_0_split -> group0_block2_sum_group0_block2_sum_0_split_1
I1203 16:39:44.895112 12164 net.cpp:122] Setting up group0_block2_sum_group0_block2_sum_0_split
I1203 16:39:44.895112 12164 net.cpp:129] Top shape: 100 16 32 32 (1638400)
I1203 16:39:44.895112 12164 net.cpp:129] Top shape: 100 16 32 32 (1638400)
I1203 16:39:44.895112 12164 net.cpp:137] Memory required for data: 237159600
I1203 16:39:44.895112 12164 layer_factory.cpp:58] Creating layer group0_block3_conv0
I1203 16:39:44.895611 12164 net.cpp:84] Creating Layer group0_block3_conv0
I1203 16:39:44.895611 12164 net.cpp:406] group0_block3_conv0 <- group0_block2_sum_group0_block2_sum_0_split_0
I1203 16:39:44.895611 12164 net.cpp:380] group0_block3_conv0 -> group0_block3_conv0
I1203 16:39:44.896610 12164 net.cpp:122] Setting up group0_block3_conv0
I1203 16:39:44.896610 12164 net.cpp:129] Top shape: 100 16 32 32 (1638400)
I1203 16:39:44.896610 12164 net.cpp:137] Memory required for data: 243713200
I1203 16:39:44.896610 12164 layer_factory.cpp:58] Creating layer group0_block3_conv0_bn
I1203 16:39:44.896610 12164 net.cpp:84] Creating Layer group0_block3_conv0_bn
I1203 16:39:44.896610 12164 net.cpp:406] group0_block3_conv0_bn <- group0_block3_conv0
I1203 16:39:44.896610 12164 net.cpp:367] group0_block3_conv0_bn -> group0_block3_conv0 (in-place)
I1203 16:39:44.896610 12164 net.cpp:122] Setting up group0_block3_conv0_bn
I1203 16:39:44.896610 12164 net.cpp:129] Top shape: 100 16 32 32 (1638400)
I1203 16:39:44.896610 12164 net.cpp:137] Memory required for data: 250266800
I1203 16:39:44.896610 12164 layer_factory.cpp:58] Creating layer group0_block3_conv0_scale
I1203 16:39:44.896610 12164 net.cpp:84] Creating Layer group0_block3_conv0_scale
I1203 16:39:44.896610 12164 net.cpp:406] group0_block3_conv0_scale <- group0_block3_conv0
I1203 16:39:44.896610 12164 net.cpp:367] group0_block3_conv0_scale -> group0_block3_conv0 (in-place)
I1203 16:39:44.896610 12164 layer_factory.cpp:58] Creating layer group0_block3_conv0_scale
I1203 16:39:44.896610 12164 net.cpp:122] Setting up group0_block3_conv0_scale
I1203 16:39:44.896610 12164 net.cpp:129] Top shape: 100 16 32 32 (1638400)
I1203 16:39:44.896610 12164 net.cpp:137] Memory required for data: 256820400
I1203 16:39:44.896610 12164 layer_factory.cpp:58] Creating layer group0_block3_conv0_relu
I1203 16:39:44.896610 12164 net.cpp:84] Creating Layer group0_block3_conv0_relu
I1203 16:39:44.896610 12164 net.cpp:406] group0_block3_conv0_relu <- group0_block3_conv0
I1203 16:39:44.896610 12164 net.cpp:367] group0_block3_conv0_relu -> group0_block3_conv0 (in-place)
I1203 16:39:44.897110 12164 net.cpp:122] Setting up group0_block3_conv0_relu
I1203 16:39:44.897110 12164 net.cpp:129] Top shape: 100 16 32 32 (1638400)
I1203 16:39:44.897110 12164 net.cpp:137] Memory required for data: 263374000
I1203 16:39:44.897110 12164 layer_factory.cpp:58] Creating layer group0_block3_conv1
I1203 16:39:44.897110 12164 net.cpp:84] Creating Layer group0_block3_conv1
I1203 16:39:44.897110 12164 net.cpp:406] group0_block3_conv1 <- group0_block3_conv0
I1203 16:39:44.897110 12164 net.cpp:380] group0_block3_conv1 -> group0_block3_conv1
I1203 16:39:44.898110 12164 net.cpp:122] Setting up group0_block3_conv1
I1203 16:39:44.898110 12164 net.cpp:129] Top shape: 100 16 32 32 (1638400)
I1203 16:39:44.898110 12164 net.cpp:137] Memory required for data: 269927600
I1203 16:39:44.898110 12164 layer_factory.cpp:58] Creating layer group0_block3_conv1_bn
I1203 16:39:44.898110 12164 net.cpp:84] Creating Layer group0_block3_conv1_bn
I1203 16:39:44.898110 12164 net.cpp:406] group0_block3_conv1_bn <- group0_block3_conv1
I1203 16:39:44.898110 12164 net.cpp:367] group0_block3_conv1_bn -> group0_block3_conv1 (in-place)
I1203 16:39:44.898612 12164 net.cpp:122] Setting up group0_block3_conv1_bn
I1203 16:39:44.898612 12164 net.cpp:129] Top shape: 100 16 32 32 (1638400)
I1203 16:39:44.898612 12164 net.cpp:137] Memory required for data: 276481200
I1203 16:39:44.898612 12164 layer_factory.cpp:58] Creating layer group0_block3_conv1_scale
I1203 16:39:44.898612 12164 net.cpp:84] Creating Layer group0_block3_conv1_scale
I1203 16:39:44.898612 12164 net.cpp:406] group0_block3_conv1_scale <- group0_block3_conv1
I1203 16:39:44.898612 12164 net.cpp:367] group0_block3_conv1_scale -> group0_block3_conv1 (in-place)
I1203 16:39:44.898612 12164 layer_factory.cpp:58] Creating layer group0_block3_conv1_scale
I1203 16:39:44.898612 12164 net.cpp:122] Setting up group0_block3_conv1_scale
I1203 16:39:44.898612 12164 net.cpp:129] Top shape: 100 16 32 32 (1638400)
I1203 16:39:44.898612 12164 net.cpp:137] Memory required for data: 283034800
I1203 16:39:44.898612 12164 layer_factory.cpp:58] Creating layer group0_block3_sum
I1203 16:39:44.898612 12164 net.cpp:84] Creating Layer group0_block3_sum
I1203 16:39:44.898612 12164 net.cpp:406] group0_block3_sum <- group0_block3_conv1
I1203 16:39:44.898612 12164 net.cpp:406] group0_block3_sum <- group0_block2_sum_group0_block2_sum_0_split_1
I1203 16:39:44.898612 12164 net.cpp:380] group0_block3_sum -> group0_block3_sum
I1203 16:39:44.898612 12164 net.cpp:122] Setting up group0_block3_sum
I1203 16:39:44.898612 12164 net.cpp:129] Top shape: 100 16 32 32 (1638400)
I1203 16:39:44.898612 12164 net.cpp:137] Memory required for data: 289588400
I1203 16:39:44.898612 12164 layer_factory.cpp:58] Creating layer group0_block3_sum_group0_block3_sum_0_split
I1203 16:39:44.898612 12164 net.cpp:84] Creating Layer group0_block3_sum_group0_block3_sum_0_split
I1203 16:39:44.898612 12164 net.cpp:406] group0_block3_sum_group0_block3_sum_0_split <- group0_block3_sum
I1203 16:39:44.898612 12164 net.cpp:380] group0_block3_sum_group0_block3_sum_0_split -> group0_block3_sum_group0_block3_sum_0_split_0
I1203 16:39:44.898612 12164 net.cpp:380] group0_block3_sum_group0_block3_sum_0_split -> group0_block3_sum_group0_block3_sum_0_split_1
I1203 16:39:44.898612 12164 net.cpp:122] Setting up group0_block3_sum_group0_block3_sum_0_split
I1203 16:39:44.898612 12164 net.cpp:129] Top shape: 100 16 32 32 (1638400)
I1203 16:39:44.898612 12164 net.cpp:129] Top shape: 100 16 32 32 (1638400)
I1203 16:39:44.898612 12164 net.cpp:137] Memory required for data: 302695600
I1203 16:39:44.898612 12164 layer_factory.cpp:58] Creating layer group0_block4_conv0
I1203 16:39:44.899111 12164 net.cpp:84] Creating Layer group0_block4_conv0
I1203 16:39:44.899111 12164 net.cpp:406] group0_block4_conv0 <- group0_block3_sum_group0_block3_sum_0_split_0
I1203 16:39:44.899111 12164 net.cpp:380] group0_block4_conv0 -> group0_block4_conv0
I1203 16:39:44.900112 12164 net.cpp:122] Setting up group0_block4_conv0
I1203 16:39:44.900112 12164 net.cpp:129] Top shape: 100 16 32 32 (1638400)
I1203 16:39:44.900112 12164 net.cpp:137] Memory required for data: 309249200
I1203 16:39:44.900112 12164 layer_factory.cpp:58] Creating layer group0_block4_conv0_bn
I1203 16:39:44.900112 12164 net.cpp:84] Creating Layer group0_block4_conv0_bn
I1203 16:39:44.900112 12164 net.cpp:406] group0_block4_conv0_bn <- group0_block4_conv0
I1203 16:39:44.900112 12164 net.cpp:367] group0_block4_conv0_bn -> group0_block4_conv0 (in-place)
I1203 16:39:44.900112 12164 net.cpp:122] Setting up group0_block4_conv0_bn
I1203 16:39:44.900112 12164 net.cpp:129] Top shape: 100 16 32 32 (1638400)
I1203 16:39:44.900112 12164 net.cpp:137] Memory required for data: 315802800
I1203 16:39:44.900112 12164 layer_factory.cpp:58] Creating layer group0_block4_conv0_scale
I1203 16:39:44.900112 12164 net.cpp:84] Creating Layer group0_block4_conv0_scale
I1203 16:39:44.900112 12164 net.cpp:406] group0_block4_conv0_scale <- group0_block4_conv0
I1203 16:39:44.900112 12164 net.cpp:367] group0_block4_conv0_scale -> group0_block4_conv0 (in-place)
I1203 16:39:44.900112 12164 layer_factory.cpp:58] Creating layer group0_block4_conv0_scale
I1203 16:39:44.900112 12164 net.cpp:122] Setting up group0_block4_conv0_scale
I1203 16:39:44.900112 12164 net.cpp:129] Top shape: 100 16 32 32 (1638400)
I1203 16:39:44.900112 12164 net.cpp:137] Memory required for data: 322356400
I1203 16:39:44.900112 12164 layer_factory.cpp:58] Creating layer group0_block4_conv0_relu
I1203 16:39:44.900112 12164 net.cpp:84] Creating Layer group0_block4_conv0_relu
I1203 16:39:44.900112 12164 net.cpp:406] group0_block4_conv0_relu <- group0_block4_conv0
I1203 16:39:44.900112 12164 net.cpp:367] group0_block4_conv0_relu -> group0_block4_conv0 (in-place)
I1203 16:39:44.900112 12164 net.cpp:122] Setting up group0_block4_conv0_relu
I1203 16:39:44.900112 12164 net.cpp:129] Top shape: 100 16 32 32 (1638400)
I1203 16:39:44.900112 12164 net.cpp:137] Memory required for data: 328910000
I1203 16:39:44.900112 12164 layer_factory.cpp:58] Creating layer group0_block4_conv1
I1203 16:39:44.900112 12164 net.cpp:84] Creating Layer group0_block4_conv1
I1203 16:39:44.900112 12164 net.cpp:406] group0_block4_conv1 <- group0_block4_conv0
I1203 16:39:44.900112 12164 net.cpp:380] group0_block4_conv1 -> group0_block4_conv1
I1203 16:39:44.901127 12164 net.cpp:122] Setting up group0_block4_conv1
I1203 16:39:44.902115 12164 net.cpp:129] Top shape: 100 16 32 32 (1638400)
I1203 16:39:44.902115 12164 net.cpp:137] Memory required for data: 335463600
I1203 16:39:44.902115 12164 layer_factory.cpp:58] Creating layer group0_block4_conv1_bn
I1203 16:39:44.902115 12164 net.cpp:84] Creating Layer group0_block4_conv1_bn
I1203 16:39:44.902115 12164 net.cpp:406] group0_block4_conv1_bn <- group0_block4_conv1
I1203 16:39:44.902115 12164 net.cpp:367] group0_block4_conv1_bn -> group0_block4_conv1 (in-place)
I1203 16:39:44.902115 12164 net.cpp:122] Setting up group0_block4_conv1_bn
I1203 16:39:44.902115 12164 net.cpp:129] Top shape: 100 16 32 32 (1638400)
I1203 16:39:44.902115 12164 net.cpp:137] Memory required for data: 342017200
I1203 16:39:44.902115 12164 layer_factory.cpp:58] Creating layer group0_block4_conv1_scale
I1203 16:39:44.902115 12164 net.cpp:84] Creating Layer group0_block4_conv1_scale
I1203 16:39:44.902115 12164 net.cpp:406] group0_block4_conv1_scale <- group0_block4_conv1
I1203 16:39:44.902115 12164 net.cpp:367] group0_block4_conv1_scale -> group0_block4_conv1 (in-place)
I1203 16:39:44.902115 12164 layer_factory.cpp:58] Creating layer group0_block4_conv1_scale
I1203 16:39:44.902115 12164 net.cpp:122] Setting up group0_block4_conv1_scale
I1203 16:39:44.902115 12164 net.cpp:129] Top shape: 100 16 32 32 (1638400)
I1203 16:39:44.902115 12164 net.cpp:137] Memory required for data: 348570800
I1203 16:39:44.902115 12164 layer_factory.cpp:58] Creating layer group0_block4_sum
I1203 16:39:44.902115 12164 net.cpp:84] Creating Layer group0_block4_sum
I1203 16:39:44.902115 12164 net.cpp:406] group0_block4_sum <- group0_block4_conv1
I1203 16:39:44.902115 12164 net.cpp:406] group0_block4_sum <- group0_block3_sum_group0_block3_sum_0_split_1
I1203 16:39:44.902115 12164 net.cpp:380] group0_block4_sum -> group0_block4_sum
I1203 16:39:44.902115 12164 net.cpp:122] Setting up group0_block4_sum
I1203 16:39:44.902115 12164 net.cpp:129] Top shape: 100 16 32 32 (1638400)
I1203 16:39:44.902115 12164 net.cpp:137] Memory required for data: 355124400
I1203 16:39:44.902115 12164 layer_factory.cpp:58] Creating layer group0_block4_sum_group0_block4_sum_0_split
I1203 16:39:44.902115 12164 net.cpp:84] Creating Layer group0_block4_sum_group0_block4_sum_0_split
I1203 16:39:44.902115 12164 net.cpp:406] group0_block4_sum_group0_block4_sum_0_split <- group0_block4_sum
I1203 16:39:44.902115 12164 net.cpp:380] group0_block4_sum_group0_block4_sum_0_split -> group0_block4_sum_group0_block4_sum_0_split_0
I1203 16:39:44.902115 12164 net.cpp:380] group0_block4_sum_group0_block4_sum_0_split -> group0_block4_sum_group0_block4_sum_0_split_1
I1203 16:39:44.902115 12164 net.cpp:122] Setting up group0_block4_sum_group0_block4_sum_0_split
I1203 16:39:44.902115 12164 net.cpp:129] Top shape: 100 16 32 32 (1638400)
I1203 16:39:44.902115 12164 net.cpp:129] Top shape: 100 16 32 32 (1638400)
I1203 16:39:44.902115 12164 net.cpp:137] Memory required for data: 368231600
I1203 16:39:44.902115 12164 layer_factory.cpp:58] Creating layer group1_block0_conv0
I1203 16:39:44.902115 12164 net.cpp:84] Creating Layer group1_block0_conv0
I1203 16:39:44.902115 12164 net.cpp:406] group1_block0_conv0 <- group0_block4_sum_group0_block4_sum_0_split_0
I1203 16:39:44.902115 12164 net.cpp:380] group1_block0_conv0 -> group1_block0_conv0
I1203 16:39:44.904131 12164 net.cpp:122] Setting up group1_block0_conv0
I1203 16:39:44.904131 12164 net.cpp:129] Top shape: 100 32 32 32 (3276800)
I1203 16:39:44.904131 12164 net.cpp:137] Memory required for data: 381338800
I1203 16:39:44.904131 12164 layer_factory.cpp:58] Creating layer pool1
I1203 16:39:44.904131 12164 net.cpp:84] Creating Layer pool1
I1203 16:39:44.904131 12164 net.cpp:406] pool1 <- group1_block0_conv0
I1203 16:39:44.904131 12164 net.cpp:380] pool1 -> pool1
I1203 16:39:44.904131 12164 net.cpp:122] Setting up pool1
I1203 16:39:44.904131 12164 net.cpp:129] Top shape: 100 32 16 16 (819200)
I1203 16:39:44.904131 12164 net.cpp:137] Memory required for data: 384615600
I1203 16:39:44.904131 12164 layer_factory.cpp:58] Creating layer group1_block0_conv0_bn
I1203 16:39:44.904131 12164 net.cpp:84] Creating Layer group1_block0_conv0_bn
I1203 16:39:44.904131 12164 net.cpp:406] group1_block0_conv0_bn <- pool1
I1203 16:39:44.904131 12164 net.cpp:367] group1_block0_conv0_bn -> pool1 (in-place)
I1203 16:39:44.904131 12164 net.cpp:122] Setting up group1_block0_conv0_bn
I1203 16:39:44.904131 12164 net.cpp:129] Top shape: 100 32 16 16 (819200)
I1203 16:39:44.904131 12164 net.cpp:137] Memory required for data: 387892400
I1203 16:39:44.904131 12164 layer_factory.cpp:58] Creating layer group1_block0_conv0_scale
I1203 16:39:44.904131 12164 net.cpp:84] Creating Layer group1_block0_conv0_scale
I1203 16:39:44.904131 12164 net.cpp:406] group1_block0_conv0_scale <- pool1
I1203 16:39:44.904131 12164 net.cpp:367] group1_block0_conv0_scale -> pool1 (in-place)
I1203 16:39:44.904131 12164 layer_factory.cpp:58] Creating layer group1_block0_conv0_scale
I1203 16:39:44.904131 12164 net.cpp:122] Setting up group1_block0_conv0_scale
I1203 16:39:44.904131 12164 net.cpp:129] Top shape: 100 32 16 16 (819200)
I1203 16:39:44.904131 12164 net.cpp:137] Memory required for data: 391169200
I1203 16:39:44.904131 12164 layer_factory.cpp:58] Creating layer group1_block0_conv0_relu
I1203 16:39:44.904131 12164 net.cpp:84] Creating Layer group1_block0_conv0_relu
I1203 16:39:44.904131 12164 net.cpp:406] group1_block0_conv0_relu <- pool1
I1203 16:39:44.904131 12164 net.cpp:367] group1_block0_conv0_relu -> pool1 (in-place)
I1203 16:39:44.905128 12164 net.cpp:122] Setting up group1_block0_conv0_relu
I1203 16:39:44.905128 12164 net.cpp:129] Top shape: 100 32 16 16 (819200)
I1203 16:39:44.905128 12164 net.cpp:137] Memory required for data: 394446000
I1203 16:39:44.905128 12164 layer_factory.cpp:58] Creating layer group1_block0_conv1
I1203 16:39:44.905128 12164 net.cpp:84] Creating Layer group1_block0_conv1
I1203 16:39:44.905128 12164 net.cpp:406] group1_block0_conv1 <- pool1
I1203 16:39:44.905128 12164 net.cpp:380] group1_block0_conv1 -> group1_block0_conv1
I1203 16:39:44.906131 12164 net.cpp:122] Setting up group1_block0_conv1
I1203 16:39:44.906131 12164 net.cpp:129] Top shape: 100 32 16 16 (819200)
I1203 16:39:44.906131 12164 net.cpp:137] Memory required for data: 397722800
I1203 16:39:44.906131 12164 layer_factory.cpp:58] Creating layer group1_block0_conv1_bn
I1203 16:39:44.906131 12164 net.cpp:84] Creating Layer group1_block0_conv1_bn
I1203 16:39:44.906131 12164 net.cpp:406] group1_block0_conv1_bn <- group1_block0_conv1
I1203 16:39:44.906131 12164 net.cpp:367] group1_block0_conv1_bn -> group1_block0_conv1 (in-place)
I1203 16:39:44.906131 12164 net.cpp:122] Setting up group1_block0_conv1_bn
I1203 16:39:44.906131 12164 net.cpp:129] Top shape: 100 32 16 16 (819200)
I1203 16:39:44.906131 12164 net.cpp:137] Memory required for data: 400999600
I1203 16:39:44.906131 12164 layer_factory.cpp:58] Creating layer group1_block0_conv1_scale
I1203 16:39:44.906131 12164 net.cpp:84] Creating Layer group1_block0_conv1_scale
I1203 16:39:44.906131 12164 net.cpp:406] group1_block0_conv1_scale <- group1_block0_conv1
I1203 16:39:44.906131 12164 net.cpp:367] group1_block0_conv1_scale -> group1_block0_conv1 (in-place)
I1203 16:39:44.906131 12164 layer_factory.cpp:58] Creating layer group1_block0_conv1_scale
I1203 16:39:44.906131 12164 net.cpp:122] Setting up group1_block0_conv1_scale
I1203 16:39:44.906131 12164 net.cpp:129] Top shape: 100 32 16 16 (819200)
I1203 16:39:44.906131 12164 net.cpp:137] Memory required for data: 404276400
I1203 16:39:44.906131 12164 layer_factory.cpp:58] Creating layer group1_block0_proj
I1203 16:39:44.906131 12164 net.cpp:84] Creating Layer group1_block0_proj
I1203 16:39:44.906131 12164 net.cpp:406] group1_block0_proj <- group0_block4_sum_group0_block4_sum_0_split_1
I1203 16:39:44.906131 12164 net.cpp:380] group1_block0_proj -> group1_block0_proj
I1203 16:39:44.907131 12164 net.cpp:122] Setting up group1_block0_proj
I1203 16:39:44.907131 12164 net.cpp:129] Top shape: 100 32 31 31 (3075200)
I1203 16:39:44.907131 12164 net.cpp:137] Memory required for data: 416577200
I1203 16:39:44.907131 12164 layer_factory.cpp:58] Creating layer pool2
I1203 16:39:44.907131 12164 net.cpp:84] Creating Layer pool2
I1203 16:39:44.907131 12164 net.cpp:406] pool2 <- group1_block0_proj
I1203 16:39:44.907131 12164 net.cpp:380] pool2 -> pool2
I1203 16:39:44.907131 12164 net.cpp:122] Setting up pool2
I1203 16:39:44.907131 12164 net.cpp:129] Top shape: 100 32 16 16 (819200)
I1203 16:39:44.907131 12164 net.cpp:137] Memory required for data: 419854000
I1203 16:39:44.908131 12164 layer_factory.cpp:58] Creating layer group1_block0_proj_bn
I1203 16:39:44.908131 12164 net.cpp:84] Creating Layer group1_block0_proj_bn
I1203 16:39:44.908131 12164 net.cpp:406] group1_block0_proj_bn <- pool2
I1203 16:39:44.908131 12164 net.cpp:367] group1_block0_proj_bn -> pool2 (in-place)
I1203 16:39:44.908131 12164 net.cpp:122] Setting up group1_block0_proj_bn
I1203 16:39:44.908131 12164 net.cpp:129] Top shape: 100 32 16 16 (819200)
I1203 16:39:44.908131 12164 net.cpp:137] Memory required for data: 423130800
I1203 16:39:44.908131 12164 layer_factory.cpp:58] Creating layer group1_block0_proj_scale
I1203 16:39:44.908131 12164 net.cpp:84] Creating Layer group1_block0_proj_scale
I1203 16:39:44.908131 12164 net.cpp:406] group1_block0_proj_scale <- pool2
I1203 16:39:44.908131 12164 net.cpp:367] group1_block0_proj_scale -> pool2 (in-place)
I1203 16:39:44.908131 12164 layer_factory.cpp:58] Creating layer group1_block0_proj_scale
I1203 16:39:44.908131 12164 net.cpp:122] Setting up group1_block0_proj_scale
I1203 16:39:44.908131 12164 net.cpp:129] Top shape: 100 32 16 16 (819200)
I1203 16:39:44.908131 12164 net.cpp:137] Memory required for data: 426407600
I1203 16:39:44.908131 12164 layer_factory.cpp:58] Creating layer group1_block0_sum
I1203 16:39:44.908131 12164 net.cpp:84] Creating Layer group1_block0_sum
I1203 16:39:44.908131 12164 net.cpp:406] group1_block0_sum <- pool2
I1203 16:39:44.908131 12164 net.cpp:406] group1_block0_sum <- group1_block0_conv1
I1203 16:39:44.908131 12164 net.cpp:380] group1_block0_sum -> group1_block0_sum
I1203 16:39:44.908131 12164 net.cpp:122] Setting up group1_block0_sum
I1203 16:39:44.908131 12164 net.cpp:129] Top shape: 100 32 16 16 (819200)
I1203 16:39:44.908131 12164 net.cpp:137] Memory required for data: 429684400
I1203 16:39:44.908131 12164 layer_factory.cpp:58] Creating layer group1_block0_sum_group1_block0_sum_0_split
I1203 16:39:44.908131 12164 net.cpp:84] Creating Layer group1_block0_sum_group1_block0_sum_0_split
I1203 16:39:44.908131 12164 net.cpp:406] group1_block0_sum_group1_block0_sum_0_split <- group1_block0_sum
I1203 16:39:44.908131 12164 net.cpp:380] group1_block0_sum_group1_block0_sum_0_split -> group1_block0_sum_group1_block0_sum_0_split_0
I1203 16:39:44.908131 12164 net.cpp:380] group1_block0_sum_group1_block0_sum_0_split -> group1_block0_sum_group1_block0_sum_0_split_1
I1203 16:39:44.908131 12164 net.cpp:122] Setting up group1_block0_sum_group1_block0_sum_0_split
I1203 16:39:44.908131 12164 net.cpp:129] Top shape: 100 32 16 16 (819200)
I1203 16:39:44.908131 12164 net.cpp:129] Top shape: 100 32 16 16 (819200)
I1203 16:39:44.908131 12164 net.cpp:137] Memory required for data: 436238000
I1203 16:39:44.908131 12164 layer_factory.cpp:58] Creating layer group1_block1_conv0
I1203 16:39:44.908131 12164 net.cpp:84] Creating Layer group1_block1_conv0
I1203 16:39:44.908131 12164 net.cpp:406] group1_block1_conv0 <- group1_block0_sum_group1_block0_sum_0_split_0
I1203 16:39:44.908131 12164 net.cpp:380] group1_block1_conv0 -> group1_block1_conv0
I1203 16:39:44.909132 12164 net.cpp:122] Setting up group1_block1_conv0
I1203 16:39:44.909132 12164 net.cpp:129] Top shape: 100 32 16 16 (819200)
I1203 16:39:44.909132 12164 net.cpp:137] Memory required for data: 439514800
I1203 16:39:44.909132 12164 layer_factory.cpp:58] Creating layer group1_block1_conv0_bn
I1203 16:39:44.909132 12164 net.cpp:84] Creating Layer group1_block1_conv0_bn
I1203 16:39:44.909132 12164 net.cpp:406] group1_block1_conv0_bn <- group1_block1_conv0
I1203 16:39:44.909132 12164 net.cpp:367] group1_block1_conv0_bn -> group1_block1_conv0 (in-place)
I1203 16:39:44.910117 12164 net.cpp:122] Setting up group1_block1_conv0_bn
I1203 16:39:44.910117 12164 net.cpp:129] Top shape: 100 32 16 16 (819200)
I1203 16:39:44.910117 12164 net.cpp:137] Memory required for data: 442791600
I1203 16:39:44.910117 12164 layer_factory.cpp:58] Creating layer group1_block1_conv0_scale
I1203 16:39:44.910117 12164 net.cpp:84] Creating Layer group1_block1_conv0_scale
I1203 16:39:44.910117 12164 net.cpp:406] group1_block1_conv0_scale <- group1_block1_conv0
I1203 16:39:44.910117 12164 net.cpp:367] group1_block1_conv0_scale -> group1_block1_conv0 (in-place)
I1203 16:39:44.910117 12164 layer_factory.cpp:58] Creating layer group1_block1_conv0_scale
I1203 16:39:44.910117 12164 net.cpp:122] Setting up group1_block1_conv0_scale
I1203 16:39:44.910117 12164 net.cpp:129] Top shape: 100 32 16 16 (819200)
I1203 16:39:44.910117 12164 net.cpp:137] Memory required for data: 446068400
I1203 16:39:44.910117 12164 layer_factory.cpp:58] Creating layer group1_block1_conv0_relu
I1203 16:39:44.910117 12164 net.cpp:84] Creating Layer group1_block1_conv0_relu
I1203 16:39:44.910117 12164 net.cpp:406] group1_block1_conv0_relu <- group1_block1_conv0
I1203 16:39:44.910117 12164 net.cpp:367] group1_block1_conv0_relu -> group1_block1_conv0 (in-place)
I1203 16:39:44.910117 12164 net.cpp:122] Setting up group1_block1_conv0_relu
I1203 16:39:44.910117 12164 net.cpp:129] Top shape: 100 32 16 16 (819200)
I1203 16:39:44.910117 12164 net.cpp:137] Memory required for data: 449345200
I1203 16:39:44.910117 12164 layer_factory.cpp:58] Creating layer group1_block1_conv1
I1203 16:39:44.910117 12164 net.cpp:84] Creating Layer group1_block1_conv1
I1203 16:39:44.910117 12164 net.cpp:406] group1_block1_conv1 <- group1_block1_conv0
I1203 16:39:44.910117 12164 net.cpp:380] group1_block1_conv1 -> group1_block1_conv1
I1203 16:39:44.911115 12164 net.cpp:122] Setting up group1_block1_conv1
I1203 16:39:44.911115 12164 net.cpp:129] Top shape: 100 32 16 16 (819200)
I1203 16:39:44.911115 12164 net.cpp:137] Memory required for data: 452622000
I1203 16:39:44.911115 12164 layer_factory.cpp:58] Creating layer group1_block1_conv1_bn
I1203 16:39:44.911115 12164 net.cpp:84] Creating Layer group1_block1_conv1_bn
I1203 16:39:44.911115 12164 net.cpp:406] group1_block1_conv1_bn <- group1_block1_conv1
I1203 16:39:44.911115 12164 net.cpp:367] group1_block1_conv1_bn -> group1_block1_conv1 (in-place)
I1203 16:39:44.911115 12164 net.cpp:122] Setting up group1_block1_conv1_bn
I1203 16:39:44.911115 12164 net.cpp:129] Top shape: 100 32 16 16 (819200)
I1203 16:39:44.911115 12164 net.cpp:137] Memory required for data: 455898800
I1203 16:39:44.911115 12164 layer_factory.cpp:58] Creating layer group1_block1_conv1_scale
I1203 16:39:44.911115 12164 net.cpp:84] Creating Layer group1_block1_conv1_scale
I1203 16:39:44.911115 12164 net.cpp:406] group1_block1_conv1_scale <- group1_block1_conv1
I1203 16:39:44.911115 12164 net.cpp:367] group1_block1_conv1_scale -> group1_block1_conv1 (in-place)
I1203 16:39:44.911115 12164 layer_factory.cpp:58] Creating layer group1_block1_conv1_scale
I1203 16:39:44.912132 12164 net.cpp:122] Setting up group1_block1_conv1_scale
I1203 16:39:44.912132 12164 net.cpp:129] Top shape: 100 32 16 16 (819200)
I1203 16:39:44.912132 12164 net.cpp:137] Memory required for data: 459175600
I1203 16:39:44.912132 12164 layer_factory.cpp:58] Creating layer group1_block1_sum
I1203 16:39:44.912132 12164 net.cpp:84] Creating Layer group1_block1_sum
I1203 16:39:44.912132 12164 net.cpp:406] group1_block1_sum <- group1_block1_conv1
I1203 16:39:44.912132 12164 net.cpp:406] group1_block1_sum <- group1_block0_sum_group1_block0_sum_0_split_1
I1203 16:39:44.912132 12164 net.cpp:380] group1_block1_sum -> group1_block1_sum
I1203 16:39:44.912132 12164 net.cpp:122] Setting up group1_block1_sum
I1203 16:39:44.912132 12164 net.cpp:129] Top shape: 100 32 16 16 (819200)
I1203 16:39:44.912132 12164 net.cpp:137] Memory required for data: 462452400
I1203 16:39:44.912132 12164 layer_factory.cpp:58] Creating layer group1_block1_sum_group1_block1_sum_0_split
I1203 16:39:44.912132 12164 net.cpp:84] Creating Layer group1_block1_sum_group1_block1_sum_0_split
I1203 16:39:44.912132 12164 net.cpp:406] group1_block1_sum_group1_block1_sum_0_split <- group1_block1_sum
I1203 16:39:44.912132 12164 net.cpp:380] group1_block1_sum_group1_block1_sum_0_split -> group1_block1_sum_group1_block1_sum_0_split_0
I1203 16:39:44.912132 12164 net.cpp:380] group1_block1_sum_group1_block1_sum_0_split -> group1_block1_sum_group1_block1_sum_0_split_1
I1203 16:39:44.912132 12164 net.cpp:122] Setting up group1_block1_sum_group1_block1_sum_0_split
I1203 16:39:44.912132 12164 net.cpp:129] Top shape: 100 32 16 16 (819200)
I1203 16:39:44.912132 12164 net.cpp:129] Top shape: 100 32 16 16 (819200)
I1203 16:39:44.912132 12164 net.cpp:137] Memory required for data: 469006000
I1203 16:39:44.912132 12164 layer_factory.cpp:58] Creating layer group1_block2_conv0
I1203 16:39:44.912132 12164 net.cpp:84] Creating Layer group1_block2_conv0
I1203 16:39:44.912132 12164 net.cpp:406] group1_block2_conv0 <- group1_block1_sum_group1_block1_sum_0_split_0
I1203 16:39:44.912132 12164 net.cpp:380] group1_block2_conv0 -> group1_block2_conv0
I1203 16:39:44.913132 12164 net.cpp:122] Setting up group1_block2_conv0
I1203 16:39:44.913132 12164 net.cpp:129] Top shape: 100 32 16 16 (819200)
I1203 16:39:44.913132 12164 net.cpp:137] Memory required for data: 472282800
I1203 16:39:44.913132 12164 layer_factory.cpp:58] Creating layer group1_block2_conv0_bn
I1203 16:39:44.913132 12164 net.cpp:84] Creating Layer group1_block2_conv0_bn
I1203 16:39:44.913132 12164 net.cpp:406] group1_block2_conv0_bn <- group1_block2_conv0
I1203 16:39:44.913132 12164 net.cpp:367] group1_block2_conv0_bn -> group1_block2_conv0 (in-place)
I1203 16:39:44.913132 12164 net.cpp:122] Setting up group1_block2_conv0_bn
I1203 16:39:44.913132 12164 net.cpp:129] Top shape: 100 32 16 16 (819200)
I1203 16:39:44.913132 12164 net.cpp:137] Memory required for data: 475559600
I1203 16:39:44.913132 12164 layer_factory.cpp:58] Creating layer group1_block2_conv0_scale
I1203 16:39:44.913132 12164 net.cpp:84] Creating Layer group1_block2_conv0_scale
I1203 16:39:44.913132 12164 net.cpp:406] group1_block2_conv0_scale <- group1_block2_conv0
I1203 16:39:44.913132 12164 net.cpp:367] group1_block2_conv0_scale -> group1_block2_conv0 (in-place)
I1203 16:39:44.913132 12164 layer_factory.cpp:58] Creating layer group1_block2_conv0_scale
I1203 16:39:44.913132 12164 net.cpp:122] Setting up group1_block2_conv0_scale
I1203 16:39:44.913132 12164 net.cpp:129] Top shape: 100 32 16 16 (819200)
I1203 16:39:44.913132 12164 net.cpp:137] Memory required for data: 478836400
I1203 16:39:44.913132 12164 layer_factory.cpp:58] Creating layer group1_block2_conv0_relu
I1203 16:39:44.913132 12164 net.cpp:84] Creating Layer group1_block2_conv0_relu
I1203 16:39:44.913132 12164 net.cpp:406] group1_block2_conv0_relu <- group1_block2_conv0
I1203 16:39:44.913132 12164 net.cpp:367] group1_block2_conv0_relu -> group1_block2_conv0 (in-place)
I1203 16:39:44.914131 12164 net.cpp:122] Setting up group1_block2_conv0_relu
I1203 16:39:44.914131 12164 net.cpp:129] Top shape: 100 32 16 16 (819200)
I1203 16:39:44.914131 12164 net.cpp:137] Memory required for data: 482113200
I1203 16:39:44.914131 12164 layer_factory.cpp:58] Creating layer group1_block2_conv1
I1203 16:39:44.914131 12164 net.cpp:84] Creating Layer group1_block2_conv1
I1203 16:39:44.914131 12164 net.cpp:406] group1_block2_conv1 <- group1_block2_conv0
I1203 16:39:44.914131 12164 net.cpp:380] group1_block2_conv1 -> group1_block2_conv1
I1203 16:39:44.916115 12164 net.cpp:122] Setting up group1_block2_conv1
I1203 16:39:44.916115 12164 net.cpp:129] Top shape: 100 32 16 16 (819200)
I1203 16:39:44.916115 12164 net.cpp:137] Memory required for data: 485390000
I1203 16:39:44.916115 12164 layer_factory.cpp:58] Creating layer group1_block2_conv1_bn
I1203 16:39:44.916115 12164 net.cpp:84] Creating Layer group1_block2_conv1_bn
I1203 16:39:44.916115 12164 net.cpp:406] group1_block2_conv1_bn <- group1_block2_conv1
I1203 16:39:44.916115 12164 net.cpp:367] group1_block2_conv1_bn -> group1_block2_conv1 (in-place)
I1203 16:39:44.916115 12164 net.cpp:122] Setting up group1_block2_conv1_bn
I1203 16:39:44.916115 12164 net.cpp:129] Top shape: 100 32 16 16 (819200)
I1203 16:39:44.916115 12164 net.cpp:137] Memory required for data: 488666800
I1203 16:39:44.916115 12164 layer_factory.cpp:58] Creating layer group1_block2_conv1_scale
I1203 16:39:44.916115 12164 net.cpp:84] Creating Layer group1_block2_conv1_scale
I1203 16:39:44.916115 12164 net.cpp:406] group1_block2_conv1_scale <- group1_block2_conv1
I1203 16:39:44.916115 12164 net.cpp:367] group1_block2_conv1_scale -> group1_block2_conv1 (in-place)
I1203 16:39:44.916115 12164 layer_factory.cpp:58] Creating layer group1_block2_conv1_scale
I1203 16:39:44.916115 12164 net.cpp:122] Setting up group1_block2_conv1_scale
I1203 16:39:44.916115 12164 net.cpp:129] Top shape: 100 32 16 16 (819200)
I1203 16:39:44.916115 12164 net.cpp:137] Memory required for data: 491943600
I1203 16:39:44.916115 12164 layer_factory.cpp:58] Creating layer group1_block2_sum
I1203 16:39:44.916115 12164 net.cpp:84] Creating Layer group1_block2_sum
I1203 16:39:44.916115 12164 net.cpp:406] group1_block2_sum <- group1_block2_conv1
I1203 16:39:44.916115 12164 net.cpp:406] group1_block2_sum <- group1_block1_sum_group1_block1_sum_0_split_1
I1203 16:39:44.916115 12164 net.cpp:380] group1_block2_sum -> group1_block2_sum
I1203 16:39:44.916115 12164 net.cpp:122] Setting up group1_block2_sum
I1203 16:39:44.917114 12164 net.cpp:129] Top shape: 100 32 16 16 (819200)
I1203 16:39:44.917114 12164 net.cpp:137] Memory required for data: 495220400
I1203 16:39:44.917114 12164 layer_factory.cpp:58] Creating layer group1_block2_sum_group1_block2_sum_0_split
I1203 16:39:44.917114 12164 net.cpp:84] Creating Layer group1_block2_sum_group1_block2_sum_0_split
I1203 16:39:44.917114 12164 net.cpp:406] group1_block2_sum_group1_block2_sum_0_split <- group1_block2_sum
I1203 16:39:44.917114 12164 net.cpp:380] group1_block2_sum_group1_block2_sum_0_split -> group1_block2_sum_group1_block2_sum_0_split_0
I1203 16:39:44.917114 12164 net.cpp:380] group1_block2_sum_group1_block2_sum_0_split -> group1_block2_sum_group1_block2_sum_0_split_1
I1203 16:39:44.917114 12164 net.cpp:122] Setting up group1_block2_sum_group1_block2_sum_0_split
I1203 16:39:44.917114 12164 net.cpp:129] Top shape: 100 32 16 16 (819200)
I1203 16:39:44.917114 12164 net.cpp:129] Top shape: 100 32 16 16 (819200)
I1203 16:39:44.917114 12164 net.cpp:137] Memory required for data: 501774000
I1203 16:39:44.917114 12164 layer_factory.cpp:58] Creating layer group1_block3_conv0
I1203 16:39:44.917114 12164 net.cpp:84] Creating Layer group1_block3_conv0
I1203 16:39:44.917114 12164 net.cpp:406] group1_block3_conv0 <- group1_block2_sum_group1_block2_sum_0_split_0
I1203 16:39:44.917114 12164 net.cpp:380] group1_block3_conv0 -> group1_block3_conv0
I1203 16:39:44.918128 12164 net.cpp:122] Setting up group1_block3_conv0
I1203 16:39:44.918128 12164 net.cpp:129] Top shape: 100 32 16 16 (819200)
I1203 16:39:44.918128 12164 net.cpp:137] Memory required for data: 505050800
I1203 16:39:44.918128 12164 layer_factory.cpp:58] Creating layer group1_block3_conv0_bn
I1203 16:39:44.918128 12164 net.cpp:84] Creating Layer group1_block3_conv0_bn
I1203 16:39:44.918128 12164 net.cpp:406] group1_block3_conv0_bn <- group1_block3_conv0
I1203 16:39:44.918128 12164 net.cpp:367] group1_block3_conv0_bn -> group1_block3_conv0 (in-place)
I1203 16:39:44.918128 12164 net.cpp:122] Setting up group1_block3_conv0_bn
I1203 16:39:44.918128 12164 net.cpp:129] Top shape: 100 32 16 16 (819200)
I1203 16:39:44.918128 12164 net.cpp:137] Memory required for data: 508327600
I1203 16:39:44.918128 12164 layer_factory.cpp:58] Creating layer group1_block3_conv0_scale
I1203 16:39:44.918128 12164 net.cpp:84] Creating Layer group1_block3_conv0_scale
I1203 16:39:44.918128 12164 net.cpp:406] group1_block3_conv0_scale <- group1_block3_conv0
I1203 16:39:44.918128 12164 net.cpp:367] group1_block3_conv0_scale -> group1_block3_conv0 (in-place)
I1203 16:39:44.918128 12164 layer_factory.cpp:58] Creating layer group1_block3_conv0_scale
I1203 16:39:44.918128 12164 net.cpp:122] Setting up group1_block3_conv0_scale
I1203 16:39:44.918128 12164 net.cpp:129] Top shape: 100 32 16 16 (819200)
I1203 16:39:44.919127 12164 net.cpp:137] Memory required for data: 511604400
I1203 16:39:44.919127 12164 layer_factory.cpp:58] Creating layer group1_block3_conv0_relu
I1203 16:39:44.919127 12164 net.cpp:84] Creating Layer group1_block3_conv0_relu
I1203 16:39:44.919127 12164 net.cpp:406] group1_block3_conv0_relu <- group1_block3_conv0
I1203 16:39:44.919127 12164 net.cpp:367] group1_block3_conv0_relu -> group1_block3_conv0 (in-place)
I1203 16:39:44.919127 12164 net.cpp:122] Setting up group1_block3_conv0_relu
I1203 16:39:44.919127 12164 net.cpp:129] Top shape: 100 32 16 16 (819200)
I1203 16:39:44.919127 12164 net.cpp:137] Memory required for data: 514881200
I1203 16:39:44.919127 12164 layer_factory.cpp:58] Creating layer group1_block3_conv1
I1203 16:39:44.919127 12164 net.cpp:84] Creating Layer group1_block3_conv1
I1203 16:39:44.919127 12164 net.cpp:406] group1_block3_conv1 <- group1_block3_conv0
I1203 16:39:44.919127 12164 net.cpp:380] group1_block3_conv1 -> group1_block3_conv1
I1203 16:39:44.920115 12164 net.cpp:122] Setting up group1_block3_conv1
I1203 16:39:44.920115 12164 net.cpp:129] Top shape: 100 32 16 16 (819200)
I1203 16:39:44.920115 12164 net.cpp:137] Memory required for data: 518158000
I1203 16:39:44.920115 12164 layer_factory.cpp:58] Creating layer group1_block3_conv1_bn
I1203 16:39:44.920115 12164 net.cpp:84] Creating Layer group1_block3_conv1_bn
I1203 16:39:44.920115 12164 net.cpp:406] group1_block3_conv1_bn <- group1_block3_conv1
I1203 16:39:44.920115 12164 net.cpp:367] group1_block3_conv1_bn -> group1_block3_conv1 (in-place)
I1203 16:39:44.920115 12164 net.cpp:122] Setting up group1_block3_conv1_bn
I1203 16:39:44.920115 12164 net.cpp:129] Top shape: 100 32 16 16 (819200)
I1203 16:39:44.920115 12164 net.cpp:137] Memory required for data: 521434800
I1203 16:39:44.920115 12164 layer_factory.cpp:58] Creating layer group1_block3_conv1_scale
I1203 16:39:44.920115 12164 net.cpp:84] Creating Layer group1_block3_conv1_scale
I1203 16:39:44.920115 12164 net.cpp:406] group1_block3_conv1_scale <- group1_block3_conv1
I1203 16:39:44.920115 12164 net.cpp:367] group1_block3_conv1_scale -> group1_block3_conv1 (in-place)
I1203 16:39:44.920115 12164 layer_factory.cpp:58] Creating layer group1_block3_conv1_scale
I1203 16:39:44.921113 12164 net.cpp:122] Setting up group1_block3_conv1_scale
I1203 16:39:44.921113 12164 net.cpp:129] Top shape: 100 32 16 16 (819200)
I1203 16:39:44.921113 12164 net.cpp:137] Memory required for data: 524711600
I1203 16:39:44.921113 12164 layer_factory.cpp:58] Creating layer group1_block3_sum
I1203 16:39:44.921113 12164 net.cpp:84] Creating Layer group1_block3_sum
I1203 16:39:44.921113 12164 net.cpp:406] group1_block3_sum <- group1_block3_conv1
I1203 16:39:44.921113 12164 net.cpp:406] group1_block3_sum <- group1_block2_sum_group1_block2_sum_0_split_1
I1203 16:39:44.921113 12164 net.cpp:380] group1_block3_sum -> group1_block3_sum
I1203 16:39:44.921113 12164 net.cpp:122] Setting up group1_block3_sum
I1203 16:39:44.921113 12164 net.cpp:129] Top shape: 100 32 16 16 (819200)
I1203 16:39:44.921113 12164 net.cpp:137] Memory required for data: 527988400
I1203 16:39:44.921113 12164 layer_factory.cpp:58] Creating layer group1_block3_sum_group1_block3_sum_0_split
I1203 16:39:44.921113 12164 net.cpp:84] Creating Layer group1_block3_sum_group1_block3_sum_0_split
I1203 16:39:44.921113 12164 net.cpp:406] group1_block3_sum_group1_block3_sum_0_split <- group1_block3_sum
I1203 16:39:44.921113 12164 net.cpp:380] group1_block3_sum_group1_block3_sum_0_split -> group1_block3_sum_group1_block3_sum_0_split_0
I1203 16:39:44.921113 12164 net.cpp:380] group1_block3_sum_group1_block3_sum_0_split -> group1_block3_sum_group1_block3_sum_0_split_1
I1203 16:39:44.921113 12164 net.cpp:122] Setting up group1_block3_sum_group1_block3_sum_0_split
I1203 16:39:44.921113 12164 net.cpp:129] Top shape: 100 32 16 16 (819200)
I1203 16:39:44.921113 12164 net.cpp:129] Top shape: 100 32 16 16 (819200)
I1203 16:39:44.921113 12164 net.cpp:137] Memory required for data: 534542000
I1203 16:39:44.921113 12164 layer_factory.cpp:58] Creating layer group1_block4_conv0
I1203 16:39:44.921113 12164 net.cpp:84] Creating Layer group1_block4_conv0
I1203 16:39:44.921113 12164 net.cpp:406] group1_block4_conv0 <- group1_block3_sum_group1_block3_sum_0_split_0
I1203 16:39:44.921113 12164 net.cpp:380] group1_block4_conv0 -> group1_block4_conv0
I1203 16:39:44.922113 12164 net.cpp:122] Setting up group1_block4_conv0
I1203 16:39:44.922113 12164 net.cpp:129] Top shape: 100 32 16 16 (819200)
I1203 16:39:44.922113 12164 net.cpp:137] Memory required for data: 537818800
I1203 16:39:44.922113 12164 layer_factory.cpp:58] Creating layer group1_block4_conv0_bn
I1203 16:39:44.922113 12164 net.cpp:84] Creating Layer group1_block4_conv0_bn
I1203 16:39:44.922113 12164 net.cpp:406] group1_block4_conv0_bn <- group1_block4_conv0
I1203 16:39:44.922113 12164 net.cpp:367] group1_block4_conv0_bn -> group1_block4_conv0 (in-place)
I1203 16:39:44.922113 12164 net.cpp:122] Setting up group1_block4_conv0_bn
I1203 16:39:44.922113 12164 net.cpp:129] Top shape: 100 32 16 16 (819200)
I1203 16:39:44.922113 12164 net.cpp:137] Memory required for data: 541095600
I1203 16:39:44.922113 12164 layer_factory.cpp:58] Creating layer group1_block4_conv0_scale
I1203 16:39:44.922113 12164 net.cpp:84] Creating Layer group1_block4_conv0_scale
I1203 16:39:44.922113 12164 net.cpp:406] group1_block4_conv0_scale <- group1_block4_conv0
I1203 16:39:44.922113 12164 net.cpp:367] group1_block4_conv0_scale -> group1_block4_conv0 (in-place)
I1203 16:39:44.922113 12164 layer_factory.cpp:58] Creating layer group1_block4_conv0_scale
I1203 16:39:44.922113 12164 net.cpp:122] Setting up group1_block4_conv0_scale
I1203 16:39:44.923113 12164 net.cpp:129] Top shape: 100 32 16 16 (819200)
I1203 16:39:44.923113 12164 net.cpp:137] Memory required for data: 544372400
I1203 16:39:44.923113 12164 layer_factory.cpp:58] Creating layer group1_block4_conv0_relu
I1203 16:39:44.923113 12164 net.cpp:84] Creating Layer group1_block4_conv0_relu
I1203 16:39:44.923113 12164 net.cpp:406] group1_block4_conv0_relu <- group1_block4_conv0
I1203 16:39:44.923113 12164 net.cpp:367] group1_block4_conv0_relu -> group1_block4_conv0 (in-place)
I1203 16:39:44.923113 12164 net.cpp:122] Setting up group1_block4_conv0_relu
I1203 16:39:44.923113 12164 net.cpp:129] Top shape: 100 32 16 16 (819200)
I1203 16:39:44.923113 12164 net.cpp:137] Memory required for data: 547649200
I1203 16:39:44.923113 12164 layer_factory.cpp:58] Creating layer group1_block4_conv1
I1203 16:39:44.923113 12164 net.cpp:84] Creating Layer group1_block4_conv1
I1203 16:39:44.923113 12164 net.cpp:406] group1_block4_conv1 <- group1_block4_conv0
I1203 16:39:44.923113 12164 net.cpp:380] group1_block4_conv1 -> group1_block4_conv1
I1203 16:39:44.924113 12164 net.cpp:122] Setting up group1_block4_conv1
I1203 16:39:44.924113 12164 net.cpp:129] Top shape: 100 32 16 16 (819200)
I1203 16:39:44.924113 12164 net.cpp:137] Memory required for data: 550926000
I1203 16:39:44.924113 12164 layer_factory.cpp:58] Creating layer group1_block4_conv1_bn
I1203 16:39:44.924113 12164 net.cpp:84] Creating Layer group1_block4_conv1_bn
I1203 16:39:44.924113 12164 net.cpp:406] group1_block4_conv1_bn <- group1_block4_conv1
I1203 16:39:44.924113 12164 net.cpp:367] group1_block4_conv1_bn -> group1_block4_conv1 (in-place)
I1203 16:39:44.925117 12164 net.cpp:122] Setting up group1_block4_conv1_bn
I1203 16:39:44.925117 12164 net.cpp:129] Top shape: 100 32 16 16 (819200)
I1203 16:39:44.925117 12164 net.cpp:137] Memory required for data: 554202800
I1203 16:39:44.925117 12164 layer_factory.cpp:58] Creating layer group1_block4_conv1_scale
I1203 16:39:44.925117 12164 net.cpp:84] Creating Layer group1_block4_conv1_scale
I1203 16:39:44.925117 12164 net.cpp:406] group1_block4_conv1_scale <- group1_block4_conv1
I1203 16:39:44.925117 12164 net.cpp:367] group1_block4_conv1_scale -> group1_block4_conv1 (in-place)
I1203 16:39:44.925117 12164 layer_factory.cpp:58] Creating layer group1_block4_conv1_scale
I1203 16:39:44.925117 12164 net.cpp:122] Setting up group1_block4_conv1_scale
I1203 16:39:44.925117 12164 net.cpp:129] Top shape: 100 32 16 16 (819200)
I1203 16:39:44.925117 12164 net.cpp:137] Memory required for data: 557479600
I1203 16:39:44.925117 12164 layer_factory.cpp:58] Creating layer group1_block4_sum
I1203 16:39:44.925117 12164 net.cpp:84] Creating Layer group1_block4_sum
I1203 16:39:44.925117 12164 net.cpp:406] group1_block4_sum <- group1_block4_conv1
I1203 16:39:44.925117 12164 net.cpp:406] group1_block4_sum <- group1_block3_sum_group1_block3_sum_0_split_1
I1203 16:39:44.925117 12164 net.cpp:380] group1_block4_sum -> group1_block4_sum
I1203 16:39:44.925117 12164 net.cpp:122] Setting up group1_block4_sum
I1203 16:39:44.925117 12164 net.cpp:129] Top shape: 100 32 16 16 (819200)
I1203 16:39:44.925117 12164 net.cpp:137] Memory required for data: 560756400
I1203 16:39:44.925117 12164 layer_factory.cpp:58] Creating layer group1_block4_sum_group1_block4_sum_0_split
I1203 16:39:44.925117 12164 net.cpp:84] Creating Layer group1_block4_sum_group1_block4_sum_0_split
I1203 16:39:44.925117 12164 net.cpp:406] group1_block4_sum_group1_block4_sum_0_split <- group1_block4_sum
I1203 16:39:44.925117 12164 net.cpp:380] group1_block4_sum_group1_block4_sum_0_split -> group1_block4_sum_group1_block4_sum_0_split_0
I1203 16:39:44.925117 12164 net.cpp:380] group1_block4_sum_group1_block4_sum_0_split -> group1_block4_sum_group1_block4_sum_0_split_1
I1203 16:39:44.925117 12164 net.cpp:122] Setting up group1_block4_sum_group1_block4_sum_0_split
I1203 16:39:44.926116 12164 net.cpp:129] Top shape: 100 32 16 16 (819200)
I1203 16:39:44.926116 12164 net.cpp:129] Top shape: 100 32 16 16 (819200)
I1203 16:39:44.926116 12164 net.cpp:137] Memory required for data: 567310000
I1203 16:39:44.926116 12164 layer_factory.cpp:58] Creating layer group2_block0_conv0
I1203 16:39:44.926116 12164 net.cpp:84] Creating Layer group2_block0_conv0
I1203 16:39:44.926116 12164 net.cpp:406] group2_block0_conv0 <- group1_block4_sum_group1_block4_sum_0_split_0
I1203 16:39:44.926116 12164 net.cpp:380] group2_block0_conv0 -> group2_block0_conv0
I1203 16:39:44.929113 12164 net.cpp:122] Setting up group2_block0_conv0
I1203 16:39:44.929113 12164 net.cpp:129] Top shape: 100 64 16 16 (1638400)
I1203 16:39:44.929113 12164 net.cpp:137] Memory required for data: 573863600
I1203 16:39:44.929113 12164 layer_factory.cpp:58] Creating layer pool3
I1203 16:39:44.929113 12164 net.cpp:84] Creating Layer pool3
I1203 16:39:44.929113 12164 net.cpp:406] pool3 <- group2_block0_conv0
I1203 16:39:44.929113 12164 net.cpp:380] pool3 -> pool3
I1203 16:39:44.929113 12164 net.cpp:122] Setting up pool3
I1203 16:39:44.929113 12164 net.cpp:129] Top shape: 100 64 8 8 (409600)
I1203 16:39:44.929113 12164 net.cpp:137] Memory required for data: 575502000
I1203 16:39:44.929113 12164 layer_factory.cpp:58] Creating layer group2_block0_conv0_bn
I1203 16:39:44.929113 12164 net.cpp:84] Creating Layer group2_block0_conv0_bn
I1203 16:39:44.929113 12164 net.cpp:406] group2_block0_conv0_bn <- pool3
I1203 16:39:44.929113 12164 net.cpp:367] group2_block0_conv0_bn -> pool3 (in-place)
I1203 16:39:44.929113 12164 net.cpp:122] Setting up group2_block0_conv0_bn
I1203 16:39:44.929113 12164 net.cpp:129] Top shape: 100 64 8 8 (409600)
I1203 16:39:44.929113 12164 net.cpp:137] Memory required for data: 577140400
I1203 16:39:44.929113 12164 layer_factory.cpp:58] Creating layer group2_block0_conv0_scale
I1203 16:39:44.929113 12164 net.cpp:84] Creating Layer group2_block0_conv0_scale
I1203 16:39:44.929113 12164 net.cpp:406] group2_block0_conv0_scale <- pool3
I1203 16:39:44.929113 12164 net.cpp:367] group2_block0_conv0_scale -> pool3 (in-place)
I1203 16:39:44.929113 12164 layer_factory.cpp:58] Creating layer group2_block0_conv0_scale
I1203 16:39:44.929113 12164 net.cpp:122] Setting up group2_block0_conv0_scale
I1203 16:39:44.929113 12164 net.cpp:129] Top shape: 100 64 8 8 (409600)
I1203 16:39:44.929113 12164 net.cpp:137] Memory required for data: 578778800
I1203 16:39:44.929113 12164 layer_factory.cpp:58] Creating layer group2_block0_conv0_relu
I1203 16:39:44.929113 12164 net.cpp:84] Creating Layer group2_block0_conv0_relu
I1203 16:39:44.929113 12164 net.cpp:406] group2_block0_conv0_relu <- pool3
I1203 16:39:44.929113 12164 net.cpp:367] group2_block0_conv0_relu -> pool3 (in-place)
I1203 16:39:44.930117 12164 net.cpp:122] Setting up group2_block0_conv0_relu
I1203 16:39:44.930117 12164 net.cpp:129] Top shape: 100 64 8 8 (409600)
I1203 16:39:44.930117 12164 net.cpp:137] Memory required for data: 580417200
I1203 16:39:44.930117 12164 layer_factory.cpp:58] Creating layer group2_block0_conv1
I1203 16:39:44.930117 12164 net.cpp:84] Creating Layer group2_block0_conv1
I1203 16:39:44.930117 12164 net.cpp:406] group2_block0_conv1 <- pool3
I1203 16:39:44.930117 12164 net.cpp:380] group2_block0_conv1 -> group2_block0_conv1
I1203 16:39:44.932114 12164 net.cpp:122] Setting up group2_block0_conv1
I1203 16:39:44.932114 12164 net.cpp:129] Top shape: 100 64 8 8 (409600)
I1203 16:39:44.932114 12164 net.cpp:137] Memory required for data: 582055600
I1203 16:39:44.932114 12164 layer_factory.cpp:58] Creating layer group2_block0_conv1_bn
I1203 16:39:44.932114 12164 net.cpp:84] Creating Layer group2_block0_conv1_bn
I1203 16:39:44.932114 12164 net.cpp:406] group2_block0_conv1_bn <- group2_block0_conv1
I1203 16:39:44.932114 12164 net.cpp:367] group2_block0_conv1_bn -> group2_block0_conv1 (in-place)
I1203 16:39:44.932114 12164 net.cpp:122] Setting up group2_block0_conv1_bn
I1203 16:39:44.932114 12164 net.cpp:129] Top shape: 100 64 8 8 (409600)
I1203 16:39:44.933116 12164 net.cpp:137] Memory required for data: 583694000
I1203 16:39:44.933116 12164 layer_factory.cpp:58] Creating layer group2_block0_conv1_scale
I1203 16:39:44.933116 12164 net.cpp:84] Creating Layer group2_block0_conv1_scale
I1203 16:39:44.933116 12164 net.cpp:406] group2_block0_conv1_scale <- group2_block0_conv1
I1203 16:39:44.933116 12164 net.cpp:367] group2_block0_conv1_scale -> group2_block0_conv1 (in-place)
I1203 16:39:44.933116 12164 layer_factory.cpp:58] Creating layer group2_block0_conv1_scale
I1203 16:39:44.933116 12164 net.cpp:122] Setting up group2_block0_conv1_scale
I1203 16:39:44.933116 12164 net.cpp:129] Top shape: 100 64 8 8 (409600)
I1203 16:39:44.933116 12164 net.cpp:137] Memory required for data: 585332400
I1203 16:39:44.933116 12164 layer_factory.cpp:58] Creating layer group2_block0_proj
I1203 16:39:44.933116 12164 net.cpp:84] Creating Layer group2_block0_proj
I1203 16:39:44.933116 12164 net.cpp:406] group2_block0_proj <- group1_block4_sum_group1_block4_sum_0_split_1
I1203 16:39:44.933116 12164 net.cpp:380] group2_block0_proj -> group2_block0_proj
I1203 16:39:44.935117 12164 net.cpp:122] Setting up group2_block0_proj
I1203 16:39:44.935117 12164 net.cpp:129] Top shape: 100 64 8 8 (409600)
I1203 16:39:44.935117 12164 net.cpp:137] Memory required for data: 586970800
I1203 16:39:44.935117 12164 layer_factory.cpp:58] Creating layer group2_block0_proj_bn
I1203 16:39:44.935117 12164 net.cpp:84] Creating Layer group2_block0_proj_bn
I1203 16:39:44.935117 12164 net.cpp:406] group2_block0_proj_bn <- group2_block0_proj
I1203 16:39:44.935117 12164 net.cpp:367] group2_block0_proj_bn -> group2_block0_proj (in-place)
I1203 16:39:44.935117 12164 net.cpp:122] Setting up group2_block0_proj_bn
I1203 16:39:44.935117 12164 net.cpp:129] Top shape: 100 64 8 8 (409600)
I1203 16:39:44.935117 12164 net.cpp:137] Memory required for data: 588609200
I1203 16:39:44.935117 12164 layer_factory.cpp:58] Creating layer group2_block0_proj_scale
I1203 16:39:44.935117 12164 net.cpp:84] Creating Layer group2_block0_proj_scale
I1203 16:39:44.935117 12164 net.cpp:406] group2_block0_proj_scale <- group2_block0_proj
I1203 16:39:44.935117 12164 net.cpp:367] group2_block0_proj_scale -> group2_block0_proj (in-place)
I1203 16:39:44.935117 12164 layer_factory.cpp:58] Creating layer group2_block0_proj_scale
I1203 16:39:44.935117 12164 net.cpp:122] Setting up group2_block0_proj_scale
I1203 16:39:44.935117 12164 net.cpp:129] Top shape: 100 64 8 8 (409600)
I1203 16:39:44.935117 12164 net.cpp:137] Memory required for data: 590247600
I1203 16:39:44.935117 12164 layer_factory.cpp:58] Creating layer group2_block0_sum
I1203 16:39:44.935117 12164 net.cpp:84] Creating Layer group2_block0_sum
I1203 16:39:44.935117 12164 net.cpp:406] group2_block0_sum <- group2_block0_proj
I1203 16:39:44.935117 12164 net.cpp:406] group2_block0_sum <- group2_block0_conv1
I1203 16:39:44.935117 12164 net.cpp:380] group2_block0_sum -> group2_block0_sum
I1203 16:39:44.935117 12164 net.cpp:122] Setting up group2_block0_sum
I1203 16:39:44.935117 12164 net.cpp:129] Top shape: 100 64 8 8 (409600)
I1203 16:39:44.935117 12164 net.cpp:137] Memory required for data: 591886000
I1203 16:39:44.935117 12164 layer_factory.cpp:58] Creating layer group2_block0_sum_group2_block0_sum_0_split
I1203 16:39:44.935117 12164 net.cpp:84] Creating Layer group2_block0_sum_group2_block0_sum_0_split
I1203 16:39:44.935117 12164 net.cpp:406] group2_block0_sum_group2_block0_sum_0_split <- group2_block0_sum
I1203 16:39:44.936113 12164 net.cpp:380] group2_block0_sum_group2_block0_sum_0_split -> group2_block0_sum_group2_block0_sum_0_split_0
I1203 16:39:44.936113 12164 net.cpp:380] group2_block0_sum_group2_block0_sum_0_split -> group2_block0_sum_group2_block0_sum_0_split_1
I1203 16:39:44.936113 12164 net.cpp:122] Setting up group2_block0_sum_group2_block0_sum_0_split
I1203 16:39:44.936113 12164 net.cpp:129] Top shape: 100 64 8 8 (409600)
I1203 16:39:44.936113 12164 net.cpp:129] Top shape: 100 64 8 8 (409600)
I1203 16:39:44.936113 12164 net.cpp:137] Memory required for data: 595162800
I1203 16:39:44.936113 12164 layer_factory.cpp:58] Creating layer group2_block1_conv0
I1203 16:39:44.936113 12164 net.cpp:84] Creating Layer group2_block1_conv0
I1203 16:39:44.936113 12164 net.cpp:406] group2_block1_conv0 <- group2_block0_sum_group2_block0_sum_0_split_0
I1203 16:39:44.936113 12164 net.cpp:380] group2_block1_conv0 -> group2_block1_conv0
I1203 16:39:44.941118 12164 net.cpp:122] Setting up group2_block1_conv0
I1203 16:39:44.941118 12164 net.cpp:129] Top shape: 100 64 8 8 (409600)
I1203 16:39:44.941118 12164 net.cpp:137] Memory required for data: 596801200
I1203 16:39:44.941118 12164 layer_factory.cpp:58] Creating layer group2_block1_conv0_bn
I1203 16:39:44.941118 12164 net.cpp:84] Creating Layer group2_block1_conv0_bn
I1203 16:39:44.941118 12164 net.cpp:406] group2_block1_conv0_bn <- group2_block1_conv0
I1203 16:39:44.941118 12164 net.cpp:367] group2_block1_conv0_bn -> group2_block1_conv0 (in-place)
I1203 16:39:44.941118 12164 net.cpp:122] Setting up group2_block1_conv0_bn
I1203 16:39:44.941118 12164 net.cpp:129] Top shape: 100 64 8 8 (409600)
I1203 16:39:44.941118 12164 net.cpp:137] Memory required for data: 598439600
I1203 16:39:44.941118 12164 layer_factory.cpp:58] Creating layer group2_block1_conv0_scale
I1203 16:39:44.941118 12164 net.cpp:84] Creating Layer group2_block1_conv0_scale
I1203 16:39:44.941118 12164 net.cpp:406] group2_block1_conv0_scale <- group2_block1_conv0
I1203 16:39:44.941118 12164 net.cpp:367] group2_block1_conv0_scale -> group2_block1_conv0 (in-place)
I1203 16:39:44.941118 12164 layer_factory.cpp:58] Creating layer group2_block1_conv0_scale
I1203 16:39:44.942121 12164 net.cpp:122] Setting up group2_block1_conv0_scale
I1203 16:39:44.942121 12164 net.cpp:129] Top shape: 100 64 8 8 (409600)
I1203 16:39:44.942121 12164 net.cpp:137] Memory required for data: 600078000
I1203 16:39:44.942121 12164 layer_factory.cpp:58] Creating layer group2_block1_conv0_relu
I1203 16:39:44.942121 12164 net.cpp:84] Creating Layer group2_block1_conv0_relu
I1203 16:39:44.942121 12164 net.cpp:406] group2_block1_conv0_relu <- group2_block1_conv0
I1203 16:39:44.942121 12164 net.cpp:367] group2_block1_conv0_relu -> group2_block1_conv0 (in-place)
I1203 16:39:44.943116 12164 net.cpp:122] Setting up group2_block1_conv0_relu
I1203 16:39:44.943116 12164 net.cpp:129] Top shape: 100 64 8 8 (409600)
I1203 16:39:44.943116 12164 net.cpp:137] Memory required for data: 601716400
I1203 16:39:44.943116 12164 layer_factory.cpp:58] Creating layer group2_block1_conv1
I1203 16:39:44.943116 12164 net.cpp:84] Creating Layer group2_block1_conv1
I1203 16:39:44.943116 12164 net.cpp:406] group2_block1_conv1 <- group2_block1_conv0
I1203 16:39:44.943116 12164 net.cpp:380] group2_block1_conv1 -> group2_block1_conv1
I1203 16:39:44.946120 12164 net.cpp:122] Setting up group2_block1_conv1
I1203 16:39:44.946120 12164 net.cpp:129] Top shape: 100 64 8 8 (409600)
I1203 16:39:44.946120 12164 net.cpp:137] Memory required for data: 603354800
I1203 16:39:44.946120 12164 layer_factory.cpp:58] Creating layer group2_block1_conv1_bn
I1203 16:39:44.946120 12164 net.cpp:84] Creating Layer group2_block1_conv1_bn
I1203 16:39:44.946120 12164 net.cpp:406] group2_block1_conv1_bn <- group2_block1_conv1
I1203 16:39:44.946120 12164 net.cpp:367] group2_block1_conv1_bn -> group2_block1_conv1 (in-place)
I1203 16:39:44.946120 12164 net.cpp:122] Setting up group2_block1_conv1_bn
I1203 16:39:44.946120 12164 net.cpp:129] Top shape: 100 64 8 8 (409600)
I1203 16:39:44.946120 12164 net.cpp:137] Memory required for data: 604993200
I1203 16:39:44.946120 12164 layer_factory.cpp:58] Creating layer group2_block1_conv1_scale
I1203 16:39:44.946120 12164 net.cpp:84] Creating Layer group2_block1_conv1_scale
I1203 16:39:44.946120 12164 net.cpp:406] group2_block1_conv1_scale <- group2_block1_conv1
I1203 16:39:44.946120 12164 net.cpp:367] group2_block1_conv1_scale -> group2_block1_conv1 (in-place)
I1203 16:39:44.946120 12164 layer_factory.cpp:58] Creating layer group2_block1_conv1_scale
I1203 16:39:44.946120 12164 net.cpp:122] Setting up group2_block1_conv1_scale
I1203 16:39:44.946120 12164 net.cpp:129] Top shape: 100 64 8 8 (409600)
I1203 16:39:44.946120 12164 net.cpp:137] Memory required for data: 606631600
I1203 16:39:44.947114 12164 layer_factory.cpp:58] Creating layer group2_block1_sum
I1203 16:39:44.947114 12164 net.cpp:84] Creating Layer group2_block1_sum
I1203 16:39:44.947114 12164 net.cpp:406] group2_block1_sum <- group2_block1_conv1
I1203 16:39:44.947114 12164 net.cpp:406] group2_block1_sum <- group2_block0_sum_group2_block0_sum_0_split_1
I1203 16:39:44.947114 12164 net.cpp:380] group2_block1_sum -> group2_block1_sum
I1203 16:39:44.947114 12164 net.cpp:122] Setting up group2_block1_sum
I1203 16:39:44.947114 12164 net.cpp:129] Top shape: 100 64 8 8 (409600)
I1203 16:39:44.947114 12164 net.cpp:137] Memory required for data: 608270000
I1203 16:39:44.947114 12164 layer_factory.cpp:58] Creating layer group2_block1_sum_group2_block1_sum_0_split
I1203 16:39:44.947114 12164 net.cpp:84] Creating Layer group2_block1_sum_group2_block1_sum_0_split
I1203 16:39:44.947114 12164 net.cpp:406] group2_block1_sum_group2_block1_sum_0_split <- group2_block1_sum
I1203 16:39:44.947114 12164 net.cpp:380] group2_block1_sum_group2_block1_sum_0_split -> group2_block1_sum_group2_block1_sum_0_split_0
I1203 16:39:44.947114 12164 net.cpp:380] group2_block1_sum_group2_block1_sum_0_split -> group2_block1_sum_group2_block1_sum_0_split_1
I1203 16:39:44.947114 12164 net.cpp:122] Setting up group2_block1_sum_group2_block1_sum_0_split
I1203 16:39:44.947114 12164 net.cpp:129] Top shape: 100 64 8 8 (409600)
I1203 16:39:44.947114 12164 net.cpp:129] Top shape: 100 64 8 8 (409600)
I1203 16:39:44.947114 12164 net.cpp:137] Memory required for data: 611546800
I1203 16:39:44.947114 12164 layer_factory.cpp:58] Creating layer group2_block2_conv0
I1203 16:39:44.947114 12164 net.cpp:84] Creating Layer group2_block2_conv0
I1203 16:39:44.947114 12164 net.cpp:406] group2_block2_conv0 <- group2_block1_sum_group2_block1_sum_0_split_0
I1203 16:39:44.947114 12164 net.cpp:380] group2_block2_conv0 -> group2_block2_conv0
I1203 16:39:44.949112 12164 net.cpp:122] Setting up group2_block2_conv0
I1203 16:39:44.949112 12164 net.cpp:129] Top shape: 100 64 8 8 (409600)
I1203 16:39:44.949112 12164 net.cpp:137] Memory required for data: 613185200
I1203 16:39:44.949112 12164 layer_factory.cpp:58] Creating layer group2_block2_conv0_bn
I1203 16:39:44.949112 12164 net.cpp:84] Creating Layer group2_block2_conv0_bn
I1203 16:39:44.949112 12164 net.cpp:406] group2_block2_conv0_bn <- group2_block2_conv0
I1203 16:39:44.949112 12164 net.cpp:367] group2_block2_conv0_bn -> group2_block2_conv0 (in-place)
I1203 16:39:44.949112 12164 net.cpp:122] Setting up group2_block2_conv0_bn
I1203 16:39:44.949112 12164 net.cpp:129] Top shape: 100 64 8 8 (409600)
I1203 16:39:44.949112 12164 net.cpp:137] Memory required for data: 614823600
I1203 16:39:44.949112 12164 layer_factory.cpp:58] Creating layer group2_block2_conv0_scale
I1203 16:39:44.949112 12164 net.cpp:84] Creating Layer group2_block2_conv0_scale
I1203 16:39:44.949112 12164 net.cpp:406] group2_block2_conv0_scale <- group2_block2_conv0
I1203 16:39:44.949112 12164 net.cpp:367] group2_block2_conv0_scale -> group2_block2_conv0 (in-place)
I1203 16:39:44.949112 12164 layer_factory.cpp:58] Creating layer group2_block2_conv0_scale
I1203 16:39:44.949112 12164 net.cpp:122] Setting up group2_block2_conv0_scale
I1203 16:39:44.949112 12164 net.cpp:129] Top shape: 100 64 8 8 (409600)
I1203 16:39:44.949112 12164 net.cpp:137] Memory required for data: 616462000
I1203 16:39:44.949112 12164 layer_factory.cpp:58] Creating layer group2_block2_conv0_relu
I1203 16:39:44.949112 12164 net.cpp:84] Creating Layer group2_block2_conv0_relu
I1203 16:39:44.949112 12164 net.cpp:406] group2_block2_conv0_relu <- group2_block2_conv0
I1203 16:39:44.949112 12164 net.cpp:367] group2_block2_conv0_relu -> group2_block2_conv0 (in-place)
I1203 16:39:44.950131 12164 net.cpp:122] Setting up group2_block2_conv0_relu
I1203 16:39:44.950131 12164 net.cpp:129] Top shape: 100 64 8 8 (409600)
I1203 16:39:44.950131 12164 net.cpp:137] Memory required for data: 618100400
I1203 16:39:44.950131 12164 layer_factory.cpp:58] Creating layer group2_block2_conv1
I1203 16:39:44.950131 12164 net.cpp:84] Creating Layer group2_block2_conv1
I1203 16:39:44.950131 12164 net.cpp:406] group2_block2_conv1 <- group2_block2_conv0
I1203 16:39:44.950131 12164 net.cpp:380] group2_block2_conv1 -> group2_block2_conv1
I1203 16:39:44.952112 12164 net.cpp:122] Setting up group2_block2_conv1
I1203 16:39:44.952112 12164 net.cpp:129] Top shape: 100 64 8 8 (409600)
I1203 16:39:44.952112 12164 net.cpp:137] Memory required for data: 619738800
I1203 16:39:44.952112 12164 layer_factory.cpp:58] Creating layer group2_block2_conv1_bn
I1203 16:39:44.952112 12164 net.cpp:84] Creating Layer group2_block2_conv1_bn
I1203 16:39:44.952112 12164 net.cpp:406] group2_block2_conv1_bn <- group2_block2_conv1
I1203 16:39:44.952112 12164 net.cpp:367] group2_block2_conv1_bn -> group2_block2_conv1 (in-place)
I1203 16:39:44.952112 12164 net.cpp:122] Setting up group2_block2_conv1_bn
I1203 16:39:44.952112 12164 net.cpp:129] Top shape: 100 64 8 8 (409600)
I1203 16:39:44.952112 12164 net.cpp:137] Memory required for data: 621377200
I1203 16:39:44.952112 12164 layer_factory.cpp:58] Creating layer group2_block2_conv1_scale
I1203 16:39:44.952112 12164 net.cpp:84] Creating Layer group2_block2_conv1_scale
I1203 16:39:44.952112 12164 net.cpp:406] group2_block2_conv1_scale <- group2_block2_conv1
I1203 16:39:44.952112 12164 net.cpp:367] group2_block2_conv1_scale -> group2_block2_conv1 (in-place)
I1203 16:39:44.952112 12164 layer_factory.cpp:58] Creating layer group2_block2_conv1_scale
I1203 16:39:44.952112 12164 net.cpp:122] Setting up group2_block2_conv1_scale
I1203 16:39:44.952112 12164 net.cpp:129] Top shape: 100 64 8 8 (409600)
I1203 16:39:44.952112 12164 net.cpp:137] Memory required for data: 623015600
I1203 16:39:44.952112 12164 layer_factory.cpp:58] Creating layer group2_block2_sum
I1203 16:39:44.952112 12164 net.cpp:84] Creating Layer group2_block2_sum
I1203 16:39:44.952112 12164 net.cpp:406] group2_block2_sum <- group2_block2_conv1
I1203 16:39:44.952112 12164 net.cpp:406] group2_block2_sum <- group2_block1_sum_group2_block1_sum_0_split_1
I1203 16:39:44.953128 12164 net.cpp:380] group2_block2_sum -> group2_block2_sum
I1203 16:39:44.953128 12164 net.cpp:122] Setting up group2_block2_sum
I1203 16:39:44.953128 12164 net.cpp:129] Top shape: 100 64 8 8 (409600)
I1203 16:39:44.953128 12164 net.cpp:137] Memory required for data: 624654000
I1203 16:39:44.953128 12164 layer_factory.cpp:58] Creating layer group2_block2_sum_group2_block2_sum_0_split
I1203 16:39:44.953128 12164 net.cpp:84] Creating Layer group2_block2_sum_group2_block2_sum_0_split
I1203 16:39:44.953128 12164 net.cpp:406] group2_block2_sum_group2_block2_sum_0_split <- group2_block2_sum
I1203 16:39:44.953128 12164 net.cpp:380] group2_block2_sum_group2_block2_sum_0_split -> group2_block2_sum_group2_block2_sum_0_split_0
I1203 16:39:44.953128 12164 net.cpp:380] group2_block2_sum_group2_block2_sum_0_split -> group2_block2_sum_group2_block2_sum_0_split_1
I1203 16:39:44.953128 12164 net.cpp:122] Setting up group2_block2_sum_group2_block2_sum_0_split
I1203 16:39:44.953128 12164 net.cpp:129] Top shape: 100 64 8 8 (409600)
I1203 16:39:44.953128 12164 net.cpp:129] Top shape: 100 64 8 8 (409600)
I1203 16:39:44.953128 12164 net.cpp:137] Memory required for data: 627930800
I1203 16:39:44.953128 12164 layer_factory.cpp:58] Creating layer group2_block3_conv0
I1203 16:39:44.953128 12164 net.cpp:84] Creating Layer group2_block3_conv0
I1203 16:39:44.953128 12164 net.cpp:406] group2_block3_conv0 <- group2_block2_sum_group2_block2_sum_0_split_0
I1203 16:39:44.953128 12164 net.cpp:380] group2_block3_conv0 -> group2_block3_conv0
I1203 16:39:44.954114 12164 net.cpp:122] Setting up group2_block3_conv0
I1203 16:39:44.954114 12164 net.cpp:129] Top shape: 100 64 8 8 (409600)
I1203 16:39:44.954114 12164 net.cpp:137] Memory required for data: 629569200
I1203 16:39:44.955128 12164 layer_factory.cpp:58] Creating layer group2_block3_conv0_bn
I1203 16:39:44.955128 12164 net.cpp:84] Creating Layer group2_block3_conv0_bn
I1203 16:39:44.955128 12164 net.cpp:406] group2_block3_conv0_bn <- group2_block3_conv0
I1203 16:39:44.955128 12164 net.cpp:367] group2_block3_conv0_bn -> group2_block3_conv0 (in-place)
I1203 16:39:44.955128 12164 net.cpp:122] Setting up group2_block3_conv0_bn
I1203 16:39:44.955128 12164 net.cpp:129] Top shape: 100 64 8 8 (409600)
I1203 16:39:44.955128 12164 net.cpp:137] Memory required for data: 631207600
I1203 16:39:44.955128 12164 layer_factory.cpp:58] Creating layer group2_block3_conv0_scale
I1203 16:39:44.955128 12164 net.cpp:84] Creating Layer group2_block3_conv0_scale
I1203 16:39:44.955128 12164 net.cpp:406] group2_block3_conv0_scale <- group2_block3_conv0
I1203 16:39:44.955128 12164 net.cpp:367] group2_block3_conv0_scale -> group2_block3_conv0 (in-place)
I1203 16:39:44.955128 12164 layer_factory.cpp:58] Creating layer group2_block3_conv0_scale
I1203 16:39:44.955128 12164 net.cpp:122] Setting up group2_block3_conv0_scale
I1203 16:39:44.955128 12164 net.cpp:129] Top shape: 100 64 8 8 (409600)
I1203 16:39:44.955128 12164 net.cpp:137] Memory required for data: 632846000
I1203 16:39:44.955128 12164 layer_factory.cpp:58] Creating layer group2_block3_conv0_relu
I1203 16:39:44.955128 12164 net.cpp:84] Creating Layer group2_block3_conv0_relu
I1203 16:39:44.955128 12164 net.cpp:406] group2_block3_conv0_relu <- group2_block3_conv0
I1203 16:39:44.955128 12164 net.cpp:367] group2_block3_conv0_relu -> group2_block3_conv0 (in-place)
I1203 16:39:44.956115 12164 net.cpp:122] Setting up group2_block3_conv0_relu
I1203 16:39:44.956115 12164 net.cpp:129] Top shape: 100 64 8 8 (409600)
I1203 16:39:44.956115 12164 net.cpp:137] Memory required for data: 634484400
I1203 16:39:44.956115 12164 layer_factory.cpp:58] Creating layer group2_block3_conv1
I1203 16:39:44.956115 12164 net.cpp:84] Creating Layer group2_block3_conv1
I1203 16:39:44.956115 12164 net.cpp:406] group2_block3_conv1 <- group2_block3_conv0
I1203 16:39:44.956115 12164 net.cpp:380] group2_block3_conv1 -> group2_block3_conv1
I1203 16:39:44.957113 12164 net.cpp:122] Setting up group2_block3_conv1
I1203 16:39:44.957113 12164 net.cpp:129] Top shape: 100 64 8 8 (409600)
I1203 16:39:44.957113 12164 net.cpp:137] Memory required for data: 636122800
I1203 16:39:44.957113 12164 layer_factory.cpp:58] Creating layer group2_block3_conv1_bn
I1203 16:39:44.957113 12164 net.cpp:84] Creating Layer group2_block3_conv1_bn
I1203 16:39:44.957113 12164 net.cpp:406] group2_block3_conv1_bn <- group2_block3_conv1
I1203 16:39:44.957113 12164 net.cpp:367] group2_block3_conv1_bn -> group2_block3_conv1 (in-place)
I1203 16:39:44.958127 12164 net.cpp:122] Setting up group2_block3_conv1_bn
I1203 16:39:44.958127 12164 net.cpp:129] Top shape: 100 64 8 8 (409600)
I1203 16:39:44.958127 12164 net.cpp:137] Memory required for data: 637761200
I1203 16:39:44.958127 12164 layer_factory.cpp:58] Creating layer group2_block3_conv1_scale
I1203 16:39:44.958127 12164 net.cpp:84] Creating Layer group2_block3_conv1_scale
I1203 16:39:44.958127 12164 net.cpp:406] group2_block3_conv1_scale <- group2_block3_conv1
I1203 16:39:44.958127 12164 net.cpp:367] group2_block3_conv1_scale -> group2_block3_conv1 (in-place)
I1203 16:39:44.958127 12164 layer_factory.cpp:58] Creating layer group2_block3_conv1_scale
I1203 16:39:44.958127 12164 net.cpp:122] Setting up group2_block3_conv1_scale
I1203 16:39:44.958127 12164 net.cpp:129] Top shape: 100 64 8 8 (409600)
I1203 16:39:44.958127 12164 net.cpp:137] Memory required for data: 639399600
I1203 16:39:44.958127 12164 layer_factory.cpp:58] Creating layer group2_block3_sum
I1203 16:39:44.958127 12164 net.cpp:84] Creating Layer group2_block3_sum
I1203 16:39:44.958127 12164 net.cpp:406] group2_block3_sum <- group2_block3_conv1
I1203 16:39:44.958127 12164 net.cpp:406] group2_block3_sum <- group2_block2_sum_group2_block2_sum_0_split_1
I1203 16:39:44.958127 12164 net.cpp:380] group2_block3_sum -> group2_block3_sum
I1203 16:39:44.958127 12164 net.cpp:122] Setting up group2_block3_sum
I1203 16:39:44.958127 12164 net.cpp:129] Top shape: 100 64 8 8 (409600)
I1203 16:39:44.958127 12164 net.cpp:137] Memory required for data: 641038000
I1203 16:39:44.958127 12164 layer_factory.cpp:58] Creating layer group2_block3_sum_group2_block3_sum_0_split
I1203 16:39:44.958127 12164 net.cpp:84] Creating Layer group2_block3_sum_group2_block3_sum_0_split
I1203 16:39:44.958127 12164 net.cpp:406] group2_block3_sum_group2_block3_sum_0_split <- group2_block3_sum
I1203 16:39:44.958127 12164 net.cpp:380] group2_block3_sum_group2_block3_sum_0_split -> group2_block3_sum_group2_block3_sum_0_split_0
I1203 16:39:44.958127 12164 net.cpp:380] group2_block3_sum_group2_block3_sum_0_split -> group2_block3_sum_group2_block3_sum_0_split_1
I1203 16:39:44.958127 12164 net.cpp:122] Setting up group2_block3_sum_group2_block3_sum_0_split
I1203 16:39:44.958127 12164 net.cpp:129] Top shape: 100 64 8 8 (409600)
I1203 16:39:44.958127 12164 net.cpp:129] Top shape: 100 64 8 8 (409600)
I1203 16:39:44.958127 12164 net.cpp:137] Memory required for data: 644314800
I1203 16:39:44.958127 12164 layer_factory.cpp:58] Creating layer group2_block4_conv0
I1203 16:39:44.958127 12164 net.cpp:84] Creating Layer group2_block4_conv0
I1203 16:39:44.958127 12164 net.cpp:406] group2_block4_conv0 <- group2_block3_sum_group2_block3_sum_0_split_0
I1203 16:39:44.958127 12164 net.cpp:380] group2_block4_conv0 -> group2_block4_conv0
I1203 16:39:44.960111 12164 net.cpp:122] Setting up group2_block4_conv0
I1203 16:39:44.960111 12164 net.cpp:129] Top shape: 100 64 8 8 (409600)
I1203 16:39:44.960111 12164 net.cpp:137] Memory required for data: 645953200
I1203 16:39:44.960111 12164 layer_factory.cpp:58] Creating layer group2_block4_conv0_bn
I1203 16:39:44.960111 12164 net.cpp:84] Creating Layer group2_block4_conv0_bn
I1203 16:39:44.960111 12164 net.cpp:406] group2_block4_conv0_bn <- group2_block4_conv0
I1203 16:39:44.960111 12164 net.cpp:367] group2_block4_conv0_bn -> group2_block4_conv0 (in-place)
I1203 16:39:44.960111 12164 net.cpp:122] Setting up group2_block4_conv0_bn
I1203 16:39:44.960111 12164 net.cpp:129] Top shape: 100 64 8 8 (409600)
I1203 16:39:44.960111 12164 net.cpp:137] Memory required for data: 647591600
I1203 16:39:44.960111 12164 layer_factory.cpp:58] Creating layer group2_block4_conv0_scale
I1203 16:39:44.960111 12164 net.cpp:84] Creating Layer group2_block4_conv0_scale
I1203 16:39:44.960111 12164 net.cpp:406] group2_block4_conv0_scale <- group2_block4_conv0
I1203 16:39:44.960111 12164 net.cpp:367] group2_block4_conv0_scale -> group2_block4_conv0 (in-place)
I1203 16:39:44.960111 12164 layer_factory.cpp:58] Creating layer group2_block4_conv0_scale
I1203 16:39:44.961127 12164 net.cpp:122] Setting up group2_block4_conv0_scale
I1203 16:39:44.961127 12164 net.cpp:129] Top shape: 100 64 8 8 (409600)
I1203 16:39:44.961127 12164 net.cpp:137] Memory required for data: 649230000
I1203 16:39:44.961127 12164 layer_factory.cpp:58] Creating layer group2_block4_conv0_relu
I1203 16:39:44.961127 12164 net.cpp:84] Creating Layer group2_block4_conv0_relu
I1203 16:39:44.961127 12164 net.cpp:406] group2_block4_conv0_relu <- group2_block4_conv0
I1203 16:39:44.961127 12164 net.cpp:367] group2_block4_conv0_relu -> group2_block4_conv0 (in-place)
I1203 16:39:44.961127 12164 net.cpp:122] Setting up group2_block4_conv0_relu
I1203 16:39:44.961127 12164 net.cpp:129] Top shape: 100 64 8 8 (409600)
I1203 16:39:44.961127 12164 net.cpp:137] Memory required for data: 650868400
I1203 16:39:44.961127 12164 layer_factory.cpp:58] Creating layer group2_block4_conv1
I1203 16:39:44.961127 12164 net.cpp:84] Creating Layer group2_block4_conv1
I1203 16:39:44.961127 12164 net.cpp:406] group2_block4_conv1 <- group2_block4_conv0
I1203 16:39:44.961127 12164 net.cpp:380] group2_block4_conv1 -> group2_block4_conv1
I1203 16:39:44.963116 12164 net.cpp:122] Setting up group2_block4_conv1
I1203 16:39:44.963116 12164 net.cpp:129] Top shape: 100 64 8 8 (409600)
I1203 16:39:44.963116 12164 net.cpp:137] Memory required for data: 652506800
I1203 16:39:44.963116 12164 layer_factory.cpp:58] Creating layer group2_block4_conv1_bn
I1203 16:39:44.963116 12164 net.cpp:84] Creating Layer group2_block4_conv1_bn
I1203 16:39:44.963116 12164 net.cpp:406] group2_block4_conv1_bn <- group2_block4_conv1
I1203 16:39:44.963116 12164 net.cpp:367] group2_block4_conv1_bn -> group2_block4_conv1 (in-place)
I1203 16:39:44.963116 12164 net.cpp:122] Setting up group2_block4_conv1_bn
I1203 16:39:44.963116 12164 net.cpp:129] Top shape: 100 64 8 8 (409600)
I1203 16:39:44.963116 12164 net.cpp:137] Memory required for data: 654145200
I1203 16:39:44.963116 12164 layer_factory.cpp:58] Creating layer group2_block4_conv1_scale
I1203 16:39:44.963116 12164 net.cpp:84] Creating Layer group2_block4_conv1_scale
I1203 16:39:44.963116 12164 net.cpp:406] group2_block4_conv1_scale <- group2_block4_conv1
I1203 16:39:44.963116 12164 net.cpp:367] group2_block4_conv1_scale -> group2_block4_conv1 (in-place)
I1203 16:39:44.963116 12164 layer_factory.cpp:58] Creating layer group2_block4_conv1_scale
I1203 16:39:44.964112 12164 net.cpp:122] Setting up group2_block4_conv1_scale
I1203 16:39:44.964112 12164 net.cpp:129] Top shape: 100 64 8 8 (409600)
I1203 16:39:44.964112 12164 net.cpp:137] Memory required for data: 655783600
I1203 16:39:44.964112 12164 layer_factory.cpp:58] Creating layer group2_block4_sum
I1203 16:39:44.964112 12164 net.cpp:84] Creating Layer group2_block4_sum
I1203 16:39:44.964112 12164 net.cpp:406] group2_block4_sum <- group2_block4_conv1
I1203 16:39:44.964112 12164 net.cpp:406] group2_block4_sum <- group2_block3_sum_group2_block3_sum_0_split_1
I1203 16:39:44.964112 12164 net.cpp:380] group2_block4_sum -> group2_block4_sum
I1203 16:39:44.964112 12164 net.cpp:122] Setting up group2_block4_sum
I1203 16:39:44.964112 12164 net.cpp:129] Top shape: 100 64 8 8 (409600)
I1203 16:39:44.964112 12164 net.cpp:137] Memory required for data: 657422000
I1203 16:39:44.964112 12164 layer_factory.cpp:58] Creating layer global_avg_pool
I1203 16:39:44.964112 12164 net.cpp:84] Creating Layer global_avg_pool
I1203 16:39:44.964112 12164 net.cpp:406] global_avg_pool <- group2_block4_sum
I1203 16:39:44.964112 12164 net.cpp:380] global_avg_pool -> global_avg_pool
I1203 16:39:44.964112 12164 net.cpp:122] Setting up global_avg_pool
I1203 16:39:44.964112 12164 net.cpp:129] Top shape: 100 64 1 1 (6400)
I1203 16:39:44.964112 12164 net.cpp:137] Memory required for data: 657447600
I1203 16:39:44.964112 12164 layer_factory.cpp:58] Creating layer fc
I1203 16:39:44.964112 12164 net.cpp:84] Creating Layer fc
I1203 16:39:44.964112 12164 net.cpp:406] fc <- global_avg_pool
I1203 16:39:44.964112 12164 net.cpp:380] fc -> fc
I1203 16:39:44.964112 12164 net.cpp:122] Setting up fc
I1203 16:39:44.964112 12164 net.cpp:129] Top shape: 100 10 (1000)
I1203 16:39:44.964112 12164 net.cpp:137] Memory required for data: 657451600
I1203 16:39:44.964112 12164 layer_factory.cpp:58] Creating layer fc_fc_0_split
I1203 16:39:44.964112 12164 net.cpp:84] Creating Layer fc_fc_0_split
I1203 16:39:44.964112 12164 net.cpp:406] fc_fc_0_split <- fc
I1203 16:39:44.964112 12164 net.cpp:380] fc_fc_0_split -> fc_fc_0_split_0
I1203 16:39:44.964112 12164 net.cpp:380] fc_fc_0_split -> fc_fc_0_split_1
I1203 16:39:44.964112 12164 net.cpp:122] Setting up fc_fc_0_split
I1203 16:39:44.964112 12164 net.cpp:129] Top shape: 100 10 (1000)
I1203 16:39:44.964112 12164 net.cpp:129] Top shape: 100 10 (1000)
I1203 16:39:44.964112 12164 net.cpp:137] Memory required for data: 657459600
I1203 16:39:44.964112 12164 layer_factory.cpp:58] Creating layer accuracy_training
I1203 16:39:44.964112 12164 net.cpp:84] Creating Layer accuracy_training
I1203 16:39:44.964112 12164 net.cpp:406] accuracy_training <- fc_fc_0_split_0
I1203 16:39:44.964112 12164 net.cpp:406] accuracy_training <- label_cifar_1_split_0
…
