…
I1211 10:21:13.421447 11272 net.cpp:294] The NetState phase (0) differed from the phase (1) specified by a rule in layer accuracy
I1211 10:21:13.421447 11272 net.cpp:51] Initializing net from parameters: 
name: "CIFAR100_SimpleNet_GP_15L_Simple_NoGrpCon_NoDrp_max_360k"
state {
  phase: TRAIN
  level: 0
  stage: ""
}
layer {
  name: "cifar"
  type: "Data"
  top: "data"
  top: "label"
  include {
    phase: TRAIN
  }
  transform_param {
    mirror: true
    crop_size: 32
  }
  data_param {
    source: "examples/cifar100/cifar100_train_leveldb_padding"
    batch_size: 100
    backend: LEVELDB
  }
}
layer {
  name: "conv1"
  type: "Convolution"
  bottom: "data"
  top: "conv1"
  param {
    lr_mult: 1
  }
  convolution_param {
    num_output: 30
    bias_term: true
    pad: 1
    kernel_size: 3
    stride: 1
    weight_filler {
      type: "xavier"
    }
  }
}
layer {
  name: "bn1"
  type: "BatchNorm"
  bottom: "conv1"
  top: "conv1"
  param {
    lr_mult: 0
    decay_mult: 0
  }
  param {
    lr_mult: 0
    decay_mult: 0
  }
  param {
    lr_mult: 0
    decay_mult: 0
  }
  include {
    phase: TRAIN
  }
  batch_norm_param {
    use_global_stats: false
    moving_average_fraction: 0.99
  }
}
layer {
  name: "scale1"
  type: "Scale"
  bottom: "conv1"
  top: "conv1"
  scale_param {
    bias_term: true
  }
}
layer {
  name: "relu1"
  type: "ReLU"
  bottom: "conv1"
  top: "conv1"
}
layer {
  name: "conv1_0"
  type: "Convolution"
  bottom: "conv1"
  top: "conv1_0"
  param {
    lr_mult: 1
  }
  convolution_param {
    num_output: 40
    bias_term: true
    pad: 1
    kernel_size: 3
    stride: 1
    weight_filler {
      type: "xavier"
    }
  }
}
layer {
  name: "bn1_0"
  type: "BatchNorm"
  bottom: "conv1_0"
  top: "conv1_0"
  param {
    lr_mult: 0
    decay_mult: 0
  }
  param {
    lr_mult: 0
    decay_mult: 0
  }
  param {
    lr_mult: 0
    decay_mult: 0
  }
  include {
    phase: TRAIN
  }
  batch_norm_param {
    use_global_stats: false
    moving_average_fraction: 0.99
  }
}
layer {
  name: "scale1_0"
  type: "Scale"
  bottom: "conv1_0"
  top: "conv1_0"
  scale_param {
    bias_term: true
  }
}
layer {
  name: "relu1_0"
  type: "ReLU"
  bottom: "conv1_0"
  top: "conv1_0"
}
layer {
  name: "conv2"
  type: "Convolution"
  bottom: "conv1_0"
  top: "conv2"
  param {
    lr_mult: 1
  }
  convolution_param {
    num_output: 40
    bias_term: true
    pad: 1
    kernel_size: 3
    stride: 1
    weight_filler {
      type: "xavier"
    }
  }
}
layer {
  name: "bn2"
  type: "BatchNorm"
  bottom: "conv2"
  top: "conv2"
  param {
    lr_mult: 0
    decay_mult: 0
  }
  param {
    lr_mult: 0
    decay_mult: 0
  }
  param {
    lr_mult: 0
    decay_mult: 0
  }
  include {
    phase: TRAIN
  }
  batch_norm_param {
    use_global_stats: false
    moving_average_fraction: 0.99
  }
}
layer {
  name: "scale2"
  type: "Scale"
  bottom: "conv2"
  top: "conv2"
  scale_param {
    bias_term: true
  }
}
layer {
  name: "relu2"
  type: "ReLU"
  bottom: "conv2"
  top: "conv2"
}
layer {
  name: "conv2_1"
  type: "Convolution"
  bottom: "conv2"
  top: "conv2_1"
  param {
    lr_mult: 1
  }
  convolution_param {
    num_output: 40
    bias_term: true
    pad: 1
    kernel_size: 3
    stride: 1
    weight_filler {
      type: "xavier"
    }
  }
}
layer {
  name: "bn2_1"
  type: "BatchNorm"
  bottom: "conv2_1"
  top: "conv2_1"
  param {
    lr_mult: 0
    decay_mult: 0
  }
  param {
    lr_mult: 0
    decay_mult: 0
  }
  param {
    lr_mult: 0
    decay_mult: 0
  }
  include {
    phase: TRAIN
  }
  batch_norm_param {
    use_global_stats: false
    moving_average_fraction: 0.99
  }
}
layer {
  name: "scale2_1"
  type: "Scale"
  bottom: "conv2_1"
  top: "conv2_1"
  scale_param {
    bias_term: true
  }
}
layer {
  name: "relu2_1"
  type: "ReLU"
  bottom: "conv2_1"
  top: "conv2_1"
}
layer {
  name: "conv2_2"
  type: "Convolution"
  bottom: "conv2_1"
  top: "conv2_2"
  param {
    lr_mult: 1
  }
  convolution_param {
    num_output: 50
    bias_term: true
    pad: 1
    kernel_size: 3
    stride: 1
    weight_filler {
      type: "xavier"
    }
  }
}
layer {
  name: "bn2_2"
  type: "BatchNorm"
  bottom: "conv2_2"
  top: "conv2_2"
  param {
    lr_mult: 0
    decay_mult: 0
  }
  param {
    lr_mult: 0
    decay_mult: 0
  }
  param {
    lr_mult: 0
    decay_mult: 0
  }
  include {
    phase: TRAIN
  }
  batch_norm_param {
    use_global_stats: false
    moving_average_fraction: 0.99
  }
}
layer {
  name: "scale2_2"
  type: "Scale"
  bottom: "conv2_2"
  top: "conv2_2"
  scale_param {
    bias_term: true
  }
}
layer {
  name: "relu2_2"
  type: "ReLU"
  bottom: "conv2_2"
  top: "conv2_2"
}
layer {
  name: "newconv_added1"
  type: "Convolution"
  bottom: "conv2_2"
  top: "newconv_added1"
  param {
    lr_mult: 1
  }
  convolution_param {
    num_output: 50
    bias_term: true
    pad: 1
    kernel_size: 3
    stride: 1
    weight_filler {
      type: "xavier"
    }
  }
}
layer {
  name: "bn_added1"
  type: "BatchNorm"
  bottom: "newconv_added1"
  top: "newconv_added1"
  param {
    lr_mult: 0
    decay_mult: 0
  }
  param {
    lr_mult: 0
    decay_mult: 0
  }
  param {
    lr_mult: 0
    decay_mult: 0
  }
  include {
    phase: TRAIN
  }
  batch_norm_param {
    use_global_stats: false
    moving_average_fraction: 0.99
  }
}
layer {
  name: "scale_added1"
  type: "Scale"
  bottom: "newconv_added1"
  top: "newconv_added1"
  scale_param {
    bias_term: true
  }
}
layer {
  name: "relu_added1"
  type: "ReLU"
  bottom: "newconv_added1"
  top: "newconv_added1"
}
layer {
  name: "pool2_1"
  type: "Pooling"
  bottom: "newconv_added1"
  top: "pool2_1"
  pooling_param {
    pool: MAX
    kernel_size: 2
    stride: 2
  }
}
layer {
  name: "conv3"
  type: "Convolution"
  bottom: "pool2_1"
  top: "conv3"
  param {
    lr_mult: 1
  }
  convolution_param {
    num_output: 50
    bias_term: true
    pad: 1
    kernel_size: 3
    stride: 1
    weight_filler {
      type: "xavier"
    }
  }
}
layer {
  name: "bn3"
  type: "BatchNorm"
  bottom: "conv3"
  top: "conv3"
  param {
    lr_mult: 0
    decay_mult: 0
  }
  param {
    lr_mult: 0
    decay_mult: 0
  }
  param {
    lr_mult: 0
    decay_mult: 0
  }
  include {
    phase: TRAIN
  }
  batch_norm_param {
    use_global_stats: false
    moving_average_fraction: 0.99
  }
}
layer {
  name: "scale3"
  type: "Scale"
  bottom: "conv3"
  top: "conv3"
  scale_param {
    bias_term: true
  }
}
layer {
  name: "relu3"
  type: "ReLU"
  bottom: "conv3"
  top: "conv3"
}
layer {
  name: "conv3_1"
  type: "Convolution"
  bottom: "conv3"
  top: "conv3_1"
  param {
    lr_mult: 1
  }
  convolution_param {
    num_output: 50
    bias_term: true
    pad: 1
    kernel_size: 3
    stride: 1
    weight_filler {
      type: "xavier"
    }
  }
}
layer {
  name: "bn3_1"
  type: "BatchNorm"
  bottom: "conv3_1"
  top: "conv3_1"
  param {
    lr_mult: 0
    decay_mult: 0
  }
  param {
    lr_mult: 0
    decay_mult: 0
  }
  param {
    lr_mult: 0
    decay_mult: 0
  }
  include {
    phase: TRAIN
  }
  batch_norm_param {
    use_global_stats: false
    moving_average_fraction: 0.99
  }
}
layer {
  name: "scale3_1"
  type: "Scale"
  bottom: "conv3_1"
  top: "conv3_1"
  scale_param {
    bias_term: true
  }
}
layer {
  name: "relu3_1"
  type: "ReLU"
  bottom: "conv3_1"
  top: "conv3_1"
}
layer {
  name: "conv4"
  type: "Convolution"
  bottom: "conv3_1"
  top: "conv4"
  param {
    lr_mult: 1
  }
  convolution_param {
    num_output: 50
    bias_term: true
    pad: 1
    kernel_size: 3
    stride: 1
    weight_filler {
      type: "xavier"
    }
  }
}
layer {
  name: "bn4"
  type: "BatchNorm"
  bottom: "conv4"
  top: "conv4"
  param {
    lr_mult: 0
    decay_mult: 0
  }
  param {
    lr_mult: 0
    decay_mult: 0
  }
  param {
    lr_mult: 0
    decay_mult: 0
  }
  include {
    phase: TRAIN
  }
  batch_norm_param {
    use_global_stats: false
    moving_average_fraction: 0.99
  }
}
layer {
  name: "scale4"
  type: "Scale"
  bottom: "conv4"
  top: "conv4"
  scale_param {
    bias_term: true
  }
}
layer {
  name: "relu4"
  type: "ReLU"
  bottom: "conv4"
  top: "conv4"
}
layer {
  name: "conv4_1"
  type: "Convolution"
  bottom: "conv4"
  top: "conv4_1"
  param {
    lr_mult: 1
  }
  convolution_param {
    num_output: 50
    bias_term: true
    pad: 1
    kernel_size: 3
    stride: 1
    weight_filler {
      type: "xavier"
    }
  }
}
layer {
  name: "bn4_1"
  type: "BatchNorm"
  bottom: "conv4_1"
  top: "conv4_1"
  param {
    lr_mult: 0
    decay_mult: 0
  }
  param {
    lr_mult: 0
    decay_mult: 0
  }
  param {
    lr_mult: 0
    decay_mult: 0
  }
  include {
    phase: TRAIN
  }
  batch_norm_param {
    use_global_stats: false
    moving_average_fraction: 0.99
  }
}
layer {
  name: "scale4_1"
  type: "Scale"
  bottom: "conv4_1"
  top: "conv4_1"
  scale_param {
    bias_term: true
  }
}
layer {
  name: "relu4_1"
  type: "ReLU"
  bottom: "conv4_1"
  top: "conv4_1"
}
layer {
  name: "conv4_2"
  type: "Convolution"
  bottom: "conv4_1"
  top: "conv4_2"
  param {
    lr_mult: 1
  }
  convolution_param {
    num_output: 58
    bias_term: true
    pad: 1
    kernel_size: 3
    stride: 1
    weight_filler {
      type: "xavier"
    }
  }
}
layer {
  name: "bn4_2"
  type: "BatchNorm"
  bottom: "conv4_2"
  top: "conv4_2"
  param {
    lr_mult: 0
    decay_mult: 0
  }
  param {
    lr_mult: 0
    decay_mult: 0
  }
  param {
    lr_mult: 0
    decay_mult: 0
  }
  include {
    phase: TRAIN
  }
  batch_norm_param {
    use_global_stats: false
    moving_average_fraction: 0.99
  }
}
layer {
  name: "scale4_2"
  type: "Scale"
  bottom: "conv4_2"
  top: "conv4_2"
  scale_param {
    bias_term: true
  }
}
layer {
  name: "relu4_2"
  type: "ReLU"
  bottom: "conv4_2"
  top: "conv4_2"
}
layer {
  name: "added_new_conv2"
  type: "Convolution"
  bottom: "conv4_2"
  top: "added_new_conv2"
  param {
    lr_mult: 1
  }
  convolution_param {
    num_output: 58
    bias_term: true
    pad: 1
    kernel_size: 3
    stride: 1
    weight_filler {
      type: "xavier"
    }
  }
}
layer {
  name: "bn_added2"
  type: "BatchNorm"
  bottom: "added_new_conv2"
  top: "added_new_conv2"
  param {
    lr_mult: 0
    decay_mult: 0
  }
  param {
    lr_mult: 0
    decay_mult: 0
  }
  param {
    lr_mult: 0
    decay_mult: 0
  }
  include {
    phase: TRAIN
  }
  batch_norm_param {
    use_global_stats: false
    moving_average_fraction: 0.99
  }
}
layer {
  name: "scale_added2"
  type: "Scale"
  bottom: "added_new_conv2"
  top: "added_new_conv2"
  scale_param {
    bias_term: true
  }
}
layer {
  name: "relu_added2"
  type: "ReLU"
  bottom: "added_new_conv2"
  top: "added_new_conv2"
}
layer {
  name: "pool4_2"
  type: "Pooling"
  bottom: "added_new_conv2"
  top: "pool4_2"
  pooling_param {
    pool: MAX
    kernel_size: 2
    stride: 2
  }
}
layer {
  name: "conv4_0"
  type: "Convolution"
  bottom: "pool4_2"
  top: "conv4_0"
  param {
    lr_mult: 1
  }
  convolution_param {
    num_output: 58
    bias_term: true
    pad: 1
    kernel_size: 3
    stride: 1
    weight_filler {
      type: "xavier"
    }
  }
}
layer {
  name: "bn4_0"
  type: "BatchNorm"
  bottom: "conv4_0"
  top: "conv4_0"
  param {
    lr_mult: 0
    decay_mult: 0
  }
  param {
    lr_mult: 0
    decay_mult: 0
  }
  param {
    lr_mult: 0
    decay_mult: 0
  }
  include {
    phase: TRAIN
  }
  batch_norm_param {
    use_global_stats: false
    moving_average_fraction: 0.99
  }
}
layer {
  name: "scale4_0"
  type: "Scale"
  bottom: "conv4_0"
  top: "conv4_0"
  scale_param {
    bias_term: true
  }
}
layer {
  name: "relu4_0"
  type: "ReLU"
  bottom: "conv4_0"
  top: "conv4_0"
}
layer {
  name: "conv11"
  type: "Convolution"
  bottom: "conv4_0"
  top: "conv11"
  param {
    lr_mult: 1
    decay_mult: 1
  }
  param {
    lr_mult: 2
    decay_mult: 0
  }
  convolution_param {
    num_output: 70
    pad: 1
    kernel_size: 3
    weight_filler {
      type: "xavier"
    }
    bias_filler {
      type: "constant"
      value: 0
    }
  }
}
layer {
  name: "bn_conv11"
  type: "BatchNorm"
  bottom: "conv11"
  top: "conv11"
  param {
    lr_mult: 0
    decay_mult: 0
  }
  param {
    lr_mult: 0
    decay_mult: 0
  }
  param {
    lr_mult: 0
    decay_mult: 0
  }
  include {
    phase: TRAIN
  }
  batch_norm_param {
    use_global_stats: false
    moving_average_fraction: 0.99
  }
}
layer {
  name: "scale_conv11"
  type: "Scale"
  bottom: "conv11"
  top: "conv11"
  scale_param {
    bias_term: true
  }
}
layer {
  name: "relu_conv11"
  type: "ReLU"
  bottom: "conv11"
  top: "conv11"
}
layer {
  name: "conv12"
  type: "Convolution"
  bottom: "conv11"
  top: "conv12"
  param {
    lr_mult: 1
    decay_mult: 1
  }
  param {
    lr_mult: 2
    decay_mult: 0
  }
  convolution_param {
    num_output: 90
    pad: 1
    kernel_size: 3
    weight_filler {
      type: "xavier"
    }
    bias_filler {
      type: "constant"
      value: 0
    }
  }
}
layer {
  name: "bn_conv12"
  type: "BatchNorm"
  bottom: "conv12"
  top: "conv12"
  param {
    lr_mult: 0
    decay_mult: 0
  }
  param {
    lr_mult: 0
    decay_mult: 0
  }
  param {
    lr_mult: 0
    decay_mult: 0
  }
  include {
    phase: TRAIN
  }
  batch_norm_param {
    use_global_stats: false
    moving_average_fraction: 0.99
  }
}
layer {
  name: "scale_conv12"
  type: "Scale"
  bottom: "conv12"
  top: "conv12"
  scale_param {
    bias_term: true
  }
}
layer {
  name: "relu_conv12"
  type: "ReLU"
  bottom: "conv12"
  top: "conv12"
}
layer {
  name: "poolcp6"
  type: "Pooling"
  bottom: "conv12"
  top: "poolcp6"
  pooling_param {
    pool: MAX
    global_pooling: true
  }
}
layer {
  name: "ip1"
  type: "InnerProduct"
  bottom: "poolcp6"
  top: "ip1"
  param {
    lr_mult: 1
    decay_mult: 0
  }
  param {
    lr_mult: 2
    decay_mult: 0
  }
  inner_product_param {
    num_output: 100
    weight_filler {
      type: "xavier"
    }
    bias_filler {
      type: "constant"
    }
  }
}
layer {
  name: "accuracy_training"
  type: "Accuracy"
  bottom: "ip1"
  bottom: "label"
  top: "accuracy_training"
  include {
    phase: TRAIN
  }
}
layer {
  name: "loss"
  type: "SoftmaxWithLoss"
  bottom: "ip1"
  bottom: "label"
  top: "loss"
}
I1211 10:21:13.436448 11272 layer_factory.cpp:58] Creating layer cifar
I1211 10:21:13.443433 11272 db_leveldb.cpp:18] Opened leveldb examples/cifar100/cifar100_train_leveldb_padding
I1211 10:21:13.443433 11272 net.cpp:84] Creating Layer cifar
I1211 10:21:13.443433 11272 net.cpp:380] cifar -> data
I1211 10:21:13.443433 11272 net.cpp:380] cifar -> label
I1211 10:21:13.444429 11272 data_layer.cpp:45] output data size: 100,3,32,32
I1211 10:21:13.449957 11272 net.cpp:122] Setting up cifar
I1211 10:21:13.449957 11272 net.cpp:129] Top shape: 100 3 32 32 (307200)
I1211 10:21:13.449957 11272 net.cpp:129] Top shape: 100 (100)
I1211 10:21:13.449957 11272 net.cpp:137] Memory required for data: 1229200
I1211 10:21:13.449957 11272 layer_factory.cpp:58] Creating layer label_cifar_1_split
I1211 10:21:13.449957 11272 net.cpp:84] Creating Layer label_cifar_1_split
I1211 10:21:13.449957 11272 net.cpp:406] label_cifar_1_split <- label
I1211 10:21:13.449957 11272 net.cpp:380] label_cifar_1_split -> label_cifar_1_split_0
I1211 10:21:13.449957 11272 net.cpp:380] label_cifar_1_split -> label_cifar_1_split_1
I1211 10:21:13.450441 11272 net.cpp:122] Setting up label_cifar_1_split
I1211 10:21:13.450441 11272 net.cpp:129] Top shape: 100 (100)
I1211 10:21:13.450441 11272 net.cpp:129] Top shape: 100 (100)
I1211 10:21:13.450441 11272 net.cpp:137] Memory required for data: 1230000
I1211 10:21:13.450441 11272 layer_factory.cpp:58] Creating layer conv1
I1211 10:21:13.450441 11272 net.cpp:84] Creating Layer conv1
I1211 10:21:13.450441 11272 net.cpp:406] conv1 <- data
I1211 10:21:13.450441 11272 net.cpp:380] conv1 -> conv1
I1211 10:21:13.451442 13688 common.cpp:36] System entropy source not available, using fallback algorithm to generate seed instead.
I1211 10:21:13.695565 11272 net.cpp:122] Setting up conv1
I1211 10:21:13.695565 11272 net.cpp:129] Top shape: 100 30 32 32 (3072000)
I1211 10:21:13.695565 11272 net.cpp:137] Memory required for data: 13518000
I1211 10:21:13.695565 11272 layer_factory.cpp:58] Creating layer bn1
I1211 10:21:13.696566 11272 net.cpp:84] Creating Layer bn1
I1211 10:21:13.696566 11272 net.cpp:406] bn1 <- conv1
I1211 10:21:13.696566 11272 net.cpp:367] bn1 -> conv1 (in-place)
I1211 10:21:13.696566 11272 net.cpp:122] Setting up bn1
I1211 10:21:13.696566 11272 net.cpp:129] Top shape: 100 30 32 32 (3072000)
I1211 10:21:13.696566 11272 net.cpp:137] Memory required for data: 25806000
I1211 10:21:13.696566 11272 layer_factory.cpp:58] Creating layer scale1
I1211 10:21:13.696566 11272 net.cpp:84] Creating Layer scale1
I1211 10:21:13.696566 11272 net.cpp:406] scale1 <- conv1
I1211 10:21:13.696566 11272 net.cpp:367] scale1 -> conv1 (in-place)
I1211 10:21:13.696566 11272 layer_factory.cpp:58] Creating layer scale1
I1211 10:21:13.696566 11272 net.cpp:122] Setting up scale1
I1211 10:21:13.696566 11272 net.cpp:129] Top shape: 100 30 32 32 (3072000)
I1211 10:21:13.696566 11272 net.cpp:137] Memory required for data: 38094000
I1211 10:21:13.696566 11272 layer_factory.cpp:58] Creating layer relu1
I1211 10:21:13.696566 11272 net.cpp:84] Creating Layer relu1
I1211 10:21:13.696566 11272 net.cpp:406] relu1 <- conv1
I1211 10:21:13.696566 11272 net.cpp:367] relu1 -> conv1 (in-place)
I1211 10:21:13.696566 11272 net.cpp:122] Setting up relu1
I1211 10:21:13.696566 11272 net.cpp:129] Top shape: 100 30 32 32 (3072000)
I1211 10:21:13.696566 11272 net.cpp:137] Memory required for data: 50382000
I1211 10:21:13.696566 11272 layer_factory.cpp:58] Creating layer conv1_0
I1211 10:21:13.696566 11272 net.cpp:84] Creating Layer conv1_0
I1211 10:21:13.696566 11272 net.cpp:406] conv1_0 <- conv1
I1211 10:21:13.696566 11272 net.cpp:380] conv1_0 -> conv1_0
I1211 10:21:13.698570 11272 net.cpp:122] Setting up conv1_0
I1211 10:21:13.698570 11272 net.cpp:129] Top shape: 100 40 32 32 (4096000)
I1211 10:21:13.698570 11272 net.cpp:137] Memory required for data: 66766000
I1211 10:21:13.698570 11272 layer_factory.cpp:58] Creating layer bn1_0
I1211 10:21:13.698570 11272 net.cpp:84] Creating Layer bn1_0
I1211 10:21:13.698570 11272 net.cpp:406] bn1_0 <- conv1_0
I1211 10:21:13.698570 11272 net.cpp:367] bn1_0 -> conv1_0 (in-place)
I1211 10:21:13.698570 11272 net.cpp:122] Setting up bn1_0
I1211 10:21:13.698570 11272 net.cpp:129] Top shape: 100 40 32 32 (4096000)
I1211 10:21:13.698570 11272 net.cpp:137] Memory required for data: 83150000
I1211 10:21:13.698570 11272 layer_factory.cpp:58] Creating layer scale1_0
I1211 10:21:13.698570 11272 net.cpp:84] Creating Layer scale1_0
I1211 10:21:13.698570 11272 net.cpp:406] scale1_0 <- conv1_0
I1211 10:21:13.698570 11272 net.cpp:367] scale1_0 -> conv1_0 (in-place)
I1211 10:21:13.698570 11272 layer_factory.cpp:58] Creating layer scale1_0
I1211 10:21:13.698570 11272 net.cpp:122] Setting up scale1_0
I1211 10:21:13.698570 11272 net.cpp:129] Top shape: 100 40 32 32 (4096000)
I1211 10:21:13.698570 11272 net.cpp:137] Memory required for data: 99534000
I1211 10:21:13.698570 11272 layer_factory.cpp:58] Creating layer relu1_0
I1211 10:21:13.698570 11272 net.cpp:84] Creating Layer relu1_0
I1211 10:21:13.698570 11272 net.cpp:406] relu1_0 <- conv1_0
I1211 10:21:13.698570 11272 net.cpp:367] relu1_0 -> conv1_0 (in-place)
I1211 10:21:13.699566 11272 net.cpp:122] Setting up relu1_0
I1211 10:21:13.699566 11272 net.cpp:129] Top shape: 100 40 32 32 (4096000)
I1211 10:21:13.699566 11272 net.cpp:137] Memory required for data: 115918000
I1211 10:21:13.699566 11272 layer_factory.cpp:58] Creating layer conv2
I1211 10:21:13.699566 11272 net.cpp:84] Creating Layer conv2
I1211 10:21:13.699566 11272 net.cpp:406] conv2 <- conv1_0
I1211 10:21:13.699566 11272 net.cpp:380] conv2 -> conv2
I1211 10:21:13.700567 11272 net.cpp:122] Setting up conv2
I1211 10:21:13.700567 11272 net.cpp:129] Top shape: 100 40 32 32 (4096000)
I1211 10:21:13.700567 11272 net.cpp:137] Memory required for data: 132302000
I1211 10:21:13.700567 11272 layer_factory.cpp:58] Creating layer bn2
I1211 10:21:13.700567 11272 net.cpp:84] Creating Layer bn2
I1211 10:21:13.700567 11272 net.cpp:406] bn2 <- conv2
I1211 10:21:13.700567 11272 net.cpp:367] bn2 -> conv2 (in-place)
I1211 10:21:13.700567 11272 net.cpp:122] Setting up bn2
I1211 10:21:13.700567 11272 net.cpp:129] Top shape: 100 40 32 32 (4096000)
I1211 10:21:13.700567 11272 net.cpp:137] Memory required for data: 148686000
I1211 10:21:13.700567 11272 layer_factory.cpp:58] Creating layer scale2
I1211 10:21:13.700567 11272 net.cpp:84] Creating Layer scale2
I1211 10:21:13.700567 11272 net.cpp:406] scale2 <- conv2
I1211 10:21:13.700567 11272 net.cpp:367] scale2 -> conv2 (in-place)
I1211 10:21:13.700567 11272 layer_factory.cpp:58] Creating layer scale2
I1211 10:21:13.700567 11272 net.cpp:122] Setting up scale2
I1211 10:21:13.700567 11272 net.cpp:129] Top shape: 100 40 32 32 (4096000)
I1211 10:21:13.700567 11272 net.cpp:137] Memory required for data: 165070000
I1211 10:21:13.700567 11272 layer_factory.cpp:58] Creating layer relu2
I1211 10:21:13.700567 11272 net.cpp:84] Creating Layer relu2
I1211 10:21:13.700567 11272 net.cpp:406] relu2 <- conv2
I1211 10:21:13.700567 11272 net.cpp:367] relu2 -> conv2 (in-place)
I1211 10:21:13.700567 11272 net.cpp:122] Setting up relu2
I1211 10:21:13.700567 11272 net.cpp:129] Top shape: 100 40 32 32 (4096000)
I1211 10:21:13.700567 11272 net.cpp:137] Memory required for data: 181454000
I1211 10:21:13.700567 11272 layer_factory.cpp:58] Creating layer conv2_1
I1211 10:21:13.700567 11272 net.cpp:84] Creating Layer conv2_1
I1211 10:21:13.700567 11272 net.cpp:406] conv2_1 <- conv2
I1211 10:21:13.700567 11272 net.cpp:380] conv2_1 -> conv2_1
I1211 10:21:13.701565 11272 net.cpp:122] Setting up conv2_1
I1211 10:21:13.701565 11272 net.cpp:129] Top shape: 100 40 32 32 (4096000)
I1211 10:21:13.701565 11272 net.cpp:137] Memory required for data: 197838000
I1211 10:21:13.701565 11272 layer_factory.cpp:58] Creating layer bn2_1
I1211 10:21:13.701565 11272 net.cpp:84] Creating Layer bn2_1
I1211 10:21:13.701565 11272 net.cpp:406] bn2_1 <- conv2_1
I1211 10:21:13.701565 11272 net.cpp:367] bn2_1 -> conv2_1 (in-place)
I1211 10:21:13.701565 11272 net.cpp:122] Setting up bn2_1
I1211 10:21:13.701565 11272 net.cpp:129] Top shape: 100 40 32 32 (4096000)
I1211 10:21:13.701565 11272 net.cpp:137] Memory required for data: 214222000
I1211 10:21:13.701565 11272 layer_factory.cpp:58] Creating layer scale2_1
I1211 10:21:13.701565 11272 net.cpp:84] Creating Layer scale2_1
I1211 10:21:13.702565 11272 net.cpp:406] scale2_1 <- conv2_1
I1211 10:21:13.702565 11272 net.cpp:367] scale2_1 -> conv2_1 (in-place)
I1211 10:21:13.702565 11272 layer_factory.cpp:58] Creating layer scale2_1
I1211 10:21:13.702565 11272 net.cpp:122] Setting up scale2_1
I1211 10:21:13.702565 11272 net.cpp:129] Top shape: 100 40 32 32 (4096000)
I1211 10:21:13.702565 11272 net.cpp:137] Memory required for data: 230606000
I1211 10:21:13.702565 11272 layer_factory.cpp:58] Creating layer relu2_1
I1211 10:21:13.702565 11272 net.cpp:84] Creating Layer relu2_1
I1211 10:21:13.702565 11272 net.cpp:406] relu2_1 <- conv2_1
I1211 10:21:13.702565 11272 net.cpp:367] relu2_1 -> conv2_1 (in-place)
I1211 10:21:13.702565 11272 net.cpp:122] Setting up relu2_1
I1211 10:21:13.702565 11272 net.cpp:129] Top shape: 100 40 32 32 (4096000)
I1211 10:21:13.702565 11272 net.cpp:137] Memory required for data: 246990000
I1211 10:21:13.702565 11272 layer_factory.cpp:58] Creating layer conv2_2
I1211 10:21:13.702565 11272 net.cpp:84] Creating Layer conv2_2
I1211 10:21:13.702565 11272 net.cpp:406] conv2_2 <- conv2_1
I1211 10:21:13.702565 11272 net.cpp:380] conv2_2 -> conv2_2
I1211 10:21:13.704586 11272 net.cpp:122] Setting up conv2_2
I1211 10:21:13.704586 11272 net.cpp:129] Top shape: 100 50 32 32 (5120000)
I1211 10:21:13.704586 11272 net.cpp:137] Memory required for data: 267470000
I1211 10:21:13.704586 11272 layer_factory.cpp:58] Creating layer bn2_2
I1211 10:21:13.704586 11272 net.cpp:84] Creating Layer bn2_2
I1211 10:21:13.704586 11272 net.cpp:406] bn2_2 <- conv2_2
I1211 10:21:13.704586 11272 net.cpp:367] bn2_2 -> conv2_2 (in-place)
I1211 10:21:13.704586 11272 net.cpp:122] Setting up bn2_2
I1211 10:21:13.704586 11272 net.cpp:129] Top shape: 100 50 32 32 (5120000)
I1211 10:21:13.704586 11272 net.cpp:137] Memory required for data: 287950000
I1211 10:21:13.704586 11272 layer_factory.cpp:58] Creating layer scale2_2
I1211 10:21:13.704586 11272 net.cpp:84] Creating Layer scale2_2
I1211 10:21:13.704586 11272 net.cpp:406] scale2_2 <- conv2_2
I1211 10:21:13.704586 11272 net.cpp:367] scale2_2 -> conv2_2 (in-place)
I1211 10:21:13.704586 11272 layer_factory.cpp:58] Creating layer scale2_2
I1211 10:21:13.704586 11272 net.cpp:122] Setting up scale2_2
I1211 10:21:13.704586 11272 net.cpp:129] Top shape: 100 50 32 32 (5120000)
I1211 10:21:13.704586 11272 net.cpp:137] Memory required for data: 308430000
I1211 10:21:13.704586 11272 layer_factory.cpp:58] Creating layer relu2_2
I1211 10:21:13.704586 11272 net.cpp:84] Creating Layer relu2_2
I1211 10:21:13.704586 11272 net.cpp:406] relu2_2 <- conv2_2
I1211 10:21:13.704586 11272 net.cpp:367] relu2_2 -> conv2_2 (in-place)
I1211 10:21:13.705569 11272 net.cpp:122] Setting up relu2_2
I1211 10:21:13.705569 11272 net.cpp:129] Top shape: 100 50 32 32 (5120000)
I1211 10:21:13.705569 11272 net.cpp:137] Memory required for data: 328910000
I1211 10:21:13.705569 11272 layer_factory.cpp:58] Creating layer newconv_added1
I1211 10:21:13.705569 11272 net.cpp:84] Creating Layer newconv_added1
I1211 10:21:13.705569 11272 net.cpp:406] newconv_added1 <- conv2_2
I1211 10:21:13.705569 11272 net.cpp:380] newconv_added1 -> newconv_added1
I1211 10:21:13.706568 11272 net.cpp:122] Setting up newconv_added1
I1211 10:21:13.706568 11272 net.cpp:129] Top shape: 100 50 32 32 (5120000)
I1211 10:21:13.706568 11272 net.cpp:137] Memory required for data: 349390000
I1211 10:21:13.706568 11272 layer_factory.cpp:58] Creating layer bn_added1
I1211 10:21:13.706568 11272 net.cpp:84] Creating Layer bn_added1
I1211 10:21:13.706568 11272 net.cpp:406] bn_added1 <- newconv_added1
I1211 10:21:13.706568 11272 net.cpp:367] bn_added1 -> newconv_added1 (in-place)
I1211 10:21:13.706568 11272 net.cpp:122] Setting up bn_added1
I1211 10:21:13.706568 11272 net.cpp:129] Top shape: 100 50 32 32 (5120000)
I1211 10:21:13.706568 11272 net.cpp:137] Memory required for data: 369870000
I1211 10:21:13.706568 11272 layer_factory.cpp:58] Creating layer scale_added1
I1211 10:21:13.706568 11272 net.cpp:84] Creating Layer scale_added1
I1211 10:21:13.706568 11272 net.cpp:406] scale_added1 <- newconv_added1
I1211 10:21:13.706568 11272 net.cpp:367] scale_added1 -> newconv_added1 (in-place)
I1211 10:21:13.706568 11272 layer_factory.cpp:58] Creating layer scale_added1
I1211 10:21:13.706568 11272 net.cpp:122] Setting up scale_added1
I1211 10:21:13.706568 11272 net.cpp:129] Top shape: 100 50 32 32 (5120000)
I1211 10:21:13.706568 11272 net.cpp:137] Memory required for data: 390350000
I1211 10:21:13.706568 11272 layer_factory.cpp:58] Creating layer relu_added1
I1211 10:21:13.706568 11272 net.cpp:84] Creating Layer relu_added1
I1211 10:21:13.706568 11272 net.cpp:406] relu_added1 <- newconv_added1
I1211 10:21:13.706568 11272 net.cpp:367] relu_added1 -> newconv_added1 (in-place)
I1211 10:21:13.707586 11272 net.cpp:122] Setting up relu_added1
I1211 10:21:13.707586 11272 net.cpp:129] Top shape: 100 50 32 32 (5120000)
I1211 10:21:13.707586 11272 net.cpp:137] Memory required for data: 410830000
I1211 10:21:13.707586 11272 layer_factory.cpp:58] Creating layer pool2_1
I1211 10:21:13.707586 11272 net.cpp:84] Creating Layer pool2_1
I1211 10:21:13.707586 11272 net.cpp:406] pool2_1 <- newconv_added1
I1211 10:21:13.707586 11272 net.cpp:380] pool2_1 -> pool2_1
I1211 10:21:13.707586 11272 net.cpp:122] Setting up pool2_1
I1211 10:21:13.707586 11272 net.cpp:129] Top shape: 100 50 16 16 (1280000)
I1211 10:21:13.707586 11272 net.cpp:137] Memory required for data: 415950000
I1211 10:21:13.707586 11272 layer_factory.cpp:58] Creating layer conv3
I1211 10:21:13.707586 11272 net.cpp:84] Creating Layer conv3
I1211 10:21:13.707586 11272 net.cpp:406] conv3 <- pool2_1
I1211 10:21:13.707586 11272 net.cpp:380] conv3 -> conv3
I1211 10:21:13.708585 11272 net.cpp:122] Setting up conv3
I1211 10:21:13.708585 11272 net.cpp:129] Top shape: 100 50 16 16 (1280000)
I1211 10:21:13.708585 11272 net.cpp:137] Memory required for data: 421070000
I1211 10:21:13.708585 11272 layer_factory.cpp:58] Creating layer bn3
I1211 10:21:13.708585 11272 net.cpp:84] Creating Layer bn3
I1211 10:21:13.708585 11272 net.cpp:406] bn3 <- conv3
I1211 10:21:13.708585 11272 net.cpp:367] bn3 -> conv3 (in-place)
I1211 10:21:13.709581 11272 net.cpp:122] Setting up bn3
I1211 10:21:13.709581 11272 net.cpp:129] Top shape: 100 50 16 16 (1280000)
I1211 10:21:13.709581 11272 net.cpp:137] Memory required for data: 426190000
I1211 10:21:13.709581 11272 layer_factory.cpp:58] Creating layer scale3
I1211 10:21:13.709581 11272 net.cpp:84] Creating Layer scale3
I1211 10:21:13.709581 11272 net.cpp:406] scale3 <- conv3
I1211 10:21:13.709581 11272 net.cpp:367] scale3 -> conv3 (in-place)
I1211 10:21:13.709581 11272 layer_factory.cpp:58] Creating layer scale3
I1211 10:21:13.709581 11272 net.cpp:122] Setting up scale3
I1211 10:21:13.709581 11272 net.cpp:129] Top shape: 100 50 16 16 (1280000)
I1211 10:21:13.709581 11272 net.cpp:137] Memory required for data: 431310000
I1211 10:21:13.709581 11272 layer_factory.cpp:58] Creating layer relu3
I1211 10:21:13.709581 11272 net.cpp:84] Creating Layer relu3
I1211 10:21:13.709581 11272 net.cpp:406] relu3 <- conv3
I1211 10:21:13.709581 11272 net.cpp:367] relu3 -> conv3 (in-place)
I1211 10:21:13.709581 11272 net.cpp:122] Setting up relu3
I1211 10:21:13.709581 11272 net.cpp:129] Top shape: 100 50 16 16 (1280000)
I1211 10:21:13.709581 11272 net.cpp:137] Memory required for data: 436430000
I1211 10:21:13.709581 11272 layer_factory.cpp:58] Creating layer conv3_1
I1211 10:21:13.709581 11272 net.cpp:84] Creating Layer conv3_1
I1211 10:21:13.709581 11272 net.cpp:406] conv3_1 <- conv3
I1211 10:21:13.709581 11272 net.cpp:380] conv3_1 -> conv3_1
I1211 10:21:13.710580 11272 net.cpp:122] Setting up conv3_1
I1211 10:21:13.710580 11272 net.cpp:129] Top shape: 100 50 16 16 (1280000)
I1211 10:21:13.710580 11272 net.cpp:137] Memory required for data: 441550000
I1211 10:21:13.710580 11272 layer_factory.cpp:58] Creating layer bn3_1
I1211 10:21:13.710580 11272 net.cpp:84] Creating Layer bn3_1
I1211 10:21:13.710580 11272 net.cpp:406] bn3_1 <- conv3_1
I1211 10:21:13.710580 11272 net.cpp:367] bn3_1 -> conv3_1 (in-place)
I1211 10:21:13.710580 11272 net.cpp:122] Setting up bn3_1
I1211 10:21:13.710580 11272 net.cpp:129] Top shape: 100 50 16 16 (1280000)
I1211 10:21:13.711580 11272 net.cpp:137] Memory required for data: 446670000
I1211 10:21:13.711580 11272 layer_factory.cpp:58] Creating layer scale3_1
I1211 10:21:13.711580 11272 net.cpp:84] Creating Layer scale3_1
I1211 10:21:13.711580 11272 net.cpp:406] scale3_1 <- conv3_1
I1211 10:21:13.711580 11272 net.cpp:367] scale3_1 -> conv3_1 (in-place)
I1211 10:21:13.711580 11272 layer_factory.cpp:58] Creating layer scale3_1
I1211 10:21:13.711580 11272 net.cpp:122] Setting up scale3_1
I1211 10:21:13.711580 11272 net.cpp:129] Top shape: 100 50 16 16 (1280000)
I1211 10:21:13.711580 11272 net.cpp:137] Memory required for data: 451790000
I1211 10:21:13.711580 11272 layer_factory.cpp:58] Creating layer relu3_1
I1211 10:21:13.711580 11272 net.cpp:84] Creating Layer relu3_1
I1211 10:21:13.711580 11272 net.cpp:406] relu3_1 <- conv3_1
I1211 10:21:13.711580 11272 net.cpp:367] relu3_1 -> conv3_1 (in-place)
I1211 10:21:13.711580 11272 net.cpp:122] Setting up relu3_1
I1211 10:21:13.711580 11272 net.cpp:129] Top shape: 100 50 16 16 (1280000)
I1211 10:21:13.711580 11272 net.cpp:137] Memory required for data: 456910000
I1211 10:21:13.711580 11272 layer_factory.cpp:58] Creating layer conv4
I1211 10:21:13.711580 11272 net.cpp:84] Creating Layer conv4
I1211 10:21:13.711580 11272 net.cpp:406] conv4 <- conv3_1
I1211 10:21:13.711580 11272 net.cpp:380] conv4 -> conv4
I1211 10:21:13.712580 11272 net.cpp:122] Setting up conv4
I1211 10:21:13.712580 11272 net.cpp:129] Top shape: 100 50 16 16 (1280000)
I1211 10:21:13.712580 11272 net.cpp:137] Memory required for data: 462030000
I1211 10:21:13.712580 11272 layer_factory.cpp:58] Creating layer bn4
I1211 10:21:13.712580 11272 net.cpp:84] Creating Layer bn4
I1211 10:21:13.712580 11272 net.cpp:406] bn4 <- conv4
I1211 10:21:13.712580 11272 net.cpp:367] bn4 -> conv4 (in-place)
I1211 10:21:13.712580 11272 net.cpp:122] Setting up bn4
I1211 10:21:13.712580 11272 net.cpp:129] Top shape: 100 50 16 16 (1280000)
I1211 10:21:13.712580 11272 net.cpp:137] Memory required for data: 467150000
I1211 10:21:13.712580 11272 layer_factory.cpp:58] Creating layer scale4
I1211 10:21:13.712580 11272 net.cpp:84] Creating Layer scale4
I1211 10:21:13.712580 11272 net.cpp:406] scale4 <- conv4
I1211 10:21:13.712580 11272 net.cpp:367] scale4 -> conv4 (in-place)
I1211 10:21:13.713582 11272 layer_factory.cpp:58] Creating layer scale4
I1211 10:21:13.713582 11272 net.cpp:122] Setting up scale4
I1211 10:21:13.713582 11272 net.cpp:129] Top shape: 100 50 16 16 (1280000)
I1211 10:21:13.713582 11272 net.cpp:137] Memory required for data: 472270000
I1211 10:21:13.713582 11272 layer_factory.cpp:58] Creating layer relu4
I1211 10:21:13.713582 11272 net.cpp:84] Creating Layer relu4
I1211 10:21:13.713582 11272 net.cpp:406] relu4 <- conv4
I1211 10:21:13.713582 11272 net.cpp:367] relu4 -> conv4 (in-place)
I1211 10:21:13.713582 11272 net.cpp:122] Setting up relu4
I1211 10:21:13.713582 11272 net.cpp:129] Top shape: 100 50 16 16 (1280000)
I1211 10:21:13.713582 11272 net.cpp:137] Memory required for data: 477390000
I1211 10:21:13.713582 11272 layer_factory.cpp:58] Creating layer conv4_1
I1211 10:21:13.713582 11272 net.cpp:84] Creating Layer conv4_1
I1211 10:21:13.713582 11272 net.cpp:406] conv4_1 <- conv4
I1211 10:21:13.713582 11272 net.cpp:380] conv4_1 -> conv4_1
I1211 10:21:13.715567 11272 net.cpp:122] Setting up conv4_1
I1211 10:21:13.715567 11272 net.cpp:129] Top shape: 100 50 16 16 (1280000)
I1211 10:21:13.715567 11272 net.cpp:137] Memory required for data: 482510000
I1211 10:21:13.715567 11272 layer_factory.cpp:58] Creating layer bn4_1
I1211 10:21:13.715567 11272 net.cpp:84] Creating Layer bn4_1
I1211 10:21:13.715567 11272 net.cpp:406] bn4_1 <- conv4_1
I1211 10:21:13.715567 11272 net.cpp:367] bn4_1 -> conv4_1 (in-place)
I1211 10:21:13.715567 11272 net.cpp:122] Setting up bn4_1
I1211 10:21:13.715567 11272 net.cpp:129] Top shape: 100 50 16 16 (1280000)
I1211 10:21:13.715567 11272 net.cpp:137] Memory required for data: 487630000
I1211 10:21:13.715567 11272 layer_factory.cpp:58] Creating layer scale4_1
I1211 10:21:13.715567 11272 net.cpp:84] Creating Layer scale4_1
I1211 10:21:13.715567 11272 net.cpp:406] scale4_1 <- conv4_1
I1211 10:21:13.715567 11272 net.cpp:367] scale4_1 -> conv4_1 (in-place)
I1211 10:21:13.715567 11272 layer_factory.cpp:58] Creating layer scale4_1
I1211 10:21:13.715567 11272 net.cpp:122] Setting up scale4_1
I1211 10:21:13.715567 11272 net.cpp:129] Top shape: 100 50 16 16 (1280000)
I1211 10:21:13.715567 11272 net.cpp:137] Memory required for data: 492750000
I1211 10:21:13.715567 11272 layer_factory.cpp:58] Creating layer relu4_1
I1211 10:21:13.715567 11272 net.cpp:84] Creating Layer relu4_1
I1211 10:21:13.715567 11272 net.cpp:406] relu4_1 <- conv4_1
I1211 10:21:13.715567 11272 net.cpp:367] relu4_1 -> conv4_1 (in-place)
I1211 10:21:13.715567 11272 net.cpp:122] Setting up relu4_1
I1211 10:21:13.715567 11272 net.cpp:129] Top shape: 100 50 16 16 (1280000)
I1211 10:21:13.715567 11272 net.cpp:137] Memory required for data: 497870000
I1211 10:21:13.715567 11272 layer_factory.cpp:58] Creating layer conv4_2
I1211 10:21:13.715567 11272 net.cpp:84] Creating Layer conv4_2
I1211 10:21:13.715567 11272 net.cpp:406] conv4_2 <- conv4_1
I1211 10:21:13.715567 11272 net.cpp:380] conv4_2 -> conv4_2
I1211 10:21:13.717581 11272 net.cpp:122] Setting up conv4_2
I1211 10:21:13.717581 11272 net.cpp:129] Top shape: 100 58 16 16 (1484800)
I1211 10:21:13.717581 11272 net.cpp:137] Memory required for data: 503809200
I1211 10:21:13.717581 11272 layer_factory.cpp:58] Creating layer bn4_2
I1211 10:21:13.717581 11272 net.cpp:84] Creating Layer bn4_2
I1211 10:21:13.717581 11272 net.cpp:406] bn4_2 <- conv4_2
I1211 10:21:13.717581 11272 net.cpp:367] bn4_2 -> conv4_2 (in-place)
I1211 10:21:13.717581 11272 net.cpp:122] Setting up bn4_2
I1211 10:21:13.717581 11272 net.cpp:129] Top shape: 100 58 16 16 (1484800)
I1211 10:21:13.717581 11272 net.cpp:137] Memory required for data: 509748400
I1211 10:21:13.717581 11272 layer_factory.cpp:58] Creating layer scale4_2
I1211 10:21:13.717581 11272 net.cpp:84] Creating Layer scale4_2
I1211 10:21:13.717581 11272 net.cpp:406] scale4_2 <- conv4_2
I1211 10:21:13.717581 11272 net.cpp:367] scale4_2 -> conv4_2 (in-place)
I1211 10:21:13.717581 11272 layer_factory.cpp:58] Creating layer scale4_2
I1211 10:21:13.717581 11272 net.cpp:122] Setting up scale4_2
I1211 10:21:13.717581 11272 net.cpp:129] Top shape: 100 58 16 16 (1484800)
I1211 10:21:13.717581 11272 net.cpp:137] Memory required for data: 515687600
I1211 10:21:13.717581 11272 layer_factory.cpp:58] Creating layer relu4_2
I1211 10:21:13.717581 11272 net.cpp:84] Creating Layer relu4_2
I1211 10:21:13.717581 11272 net.cpp:406] relu4_2 <- conv4_2
I1211 10:21:13.717581 11272 net.cpp:367] relu4_2 -> conv4_2 (in-place)
I1211 10:21:13.718581 11272 net.cpp:122] Setting up relu4_2
I1211 10:21:13.718581 11272 net.cpp:129] Top shape: 100 58 16 16 (1484800)
I1211 10:21:13.718581 11272 net.cpp:137] Memory required for data: 521626800
I1211 10:21:13.718581 11272 layer_factory.cpp:58] Creating layer added_new_conv2
I1211 10:21:13.718581 11272 net.cpp:84] Creating Layer added_new_conv2
I1211 10:21:13.718581 11272 net.cpp:406] added_new_conv2 <- conv4_2
I1211 10:21:13.718581 11272 net.cpp:380] added_new_conv2 -> added_new_conv2
I1211 10:21:13.719575 11272 net.cpp:122] Setting up added_new_conv2
I1211 10:21:13.719575 11272 net.cpp:129] Top shape: 100 58 16 16 (1484800)
I1211 10:21:13.719575 11272 net.cpp:137] Memory required for data: 527566000
I1211 10:21:13.719575 11272 layer_factory.cpp:58] Creating layer bn_added2
I1211 10:21:13.719575 11272 net.cpp:84] Creating Layer bn_added2
I1211 10:21:13.719575 11272 net.cpp:406] bn_added2 <- added_new_conv2
I1211 10:21:13.719575 11272 net.cpp:367] bn_added2 -> added_new_conv2 (in-place)
I1211 10:21:13.720580 11272 net.cpp:122] Setting up bn_added2
I1211 10:21:13.720580 11272 net.cpp:129] Top shape: 100 58 16 16 (1484800)
I1211 10:21:13.720580 11272 net.cpp:137] Memory required for data: 533505200
I1211 10:21:13.720580 11272 layer_factory.cpp:58] Creating layer scale_added2
I1211 10:21:13.720580 11272 net.cpp:84] Creating Layer scale_added2
I1211 10:21:13.720580 11272 net.cpp:406] scale_added2 <- added_new_conv2
I1211 10:21:13.720580 11272 net.cpp:367] scale_added2 -> added_new_conv2 (in-place)
I1211 10:21:13.720580 11272 layer_factory.cpp:58] Creating layer scale_added2
I1211 10:21:13.720580 11272 net.cpp:122] Setting up scale_added2
I1211 10:21:13.720580 11272 net.cpp:129] Top shape: 100 58 16 16 (1484800)
I1211 10:21:13.720580 11272 net.cpp:137] Memory required for data: 539444400
I1211 10:21:13.720580 11272 layer_factory.cpp:58] Creating layer relu_added2
I1211 10:21:13.720580 11272 net.cpp:84] Creating Layer relu_added2
I1211 10:21:13.720580 11272 net.cpp:406] relu_added2 <- added_new_conv2
I1211 10:21:13.720580 11272 net.cpp:367] relu_added2 -> added_new_conv2 (in-place)
I1211 10:21:13.720580 11272 net.cpp:122] Setting up relu_added2
I1211 10:21:13.720580 11272 net.cpp:129] Top shape: 100 58 16 16 (1484800)
I1211 10:21:13.720580 11272 net.cpp:137] Memory required for data: 545383600
I1211 10:21:13.720580 11272 layer_factory.cpp:58] Creating layer pool4_2
I1211 10:21:13.720580 11272 net.cpp:84] Creating Layer pool4_2
I1211 10:21:13.720580 11272 net.cpp:406] pool4_2 <- added_new_conv2
I1211 10:21:13.720580 11272 net.cpp:380] pool4_2 -> pool4_2
I1211 10:21:13.720580 11272 net.cpp:122] Setting up pool4_2
I1211 10:21:13.720580 11272 net.cpp:129] Top shape: 100 58 8 8 (371200)
I1211 10:21:13.720580 11272 net.cpp:137] Memory required for data: 546868400
I1211 10:21:13.720580 11272 layer_factory.cpp:58] Creating layer conv4_0
I1211 10:21:13.720580 11272 net.cpp:84] Creating Layer conv4_0
I1211 10:21:13.720580 11272 net.cpp:406] conv4_0 <- pool4_2
I1211 10:21:13.720580 11272 net.cpp:380] conv4_0 -> conv4_0
I1211 10:21:13.722589 11272 net.cpp:122] Setting up conv4_0
I1211 10:21:13.722589 11272 net.cpp:129] Top shape: 100 58 8 8 (371200)
I1211 10:21:13.722589 11272 net.cpp:137] Memory required for data: 548353200
I1211 10:21:13.722589 11272 layer_factory.cpp:58] Creating layer bn4_0
I1211 10:21:13.722589 11272 net.cpp:84] Creating Layer bn4_0
I1211 10:21:13.722589 11272 net.cpp:406] bn4_0 <- conv4_0
I1211 10:21:13.722589 11272 net.cpp:367] bn4_0 -> conv4_0 (in-place)
I1211 10:21:13.722589 11272 net.cpp:122] Setting up bn4_0
I1211 10:21:13.722589 11272 net.cpp:129] Top shape: 100 58 8 8 (371200)
I1211 10:21:13.722589 11272 net.cpp:137] Memory required for data: 549838000
I1211 10:21:13.722589 11272 layer_factory.cpp:58] Creating layer scale4_0
I1211 10:21:13.722589 11272 net.cpp:84] Creating Layer scale4_0
I1211 10:21:13.722589 11272 net.cpp:406] scale4_0 <- conv4_0
I1211 10:21:13.722589 11272 net.cpp:367] scale4_0 -> conv4_0 (in-place)
I1211 10:21:13.722589 11272 layer_factory.cpp:58] Creating layer scale4_0
I1211 10:21:13.722589 11272 net.cpp:122] Setting up scale4_0
I1211 10:21:13.722589 11272 net.cpp:129] Top shape: 100 58 8 8 (371200)
I1211 10:21:13.722589 11272 net.cpp:137] Memory required for data: 551322800
I1211 10:21:13.722589 11272 layer_factory.cpp:58] Creating layer relu4_0
I1211 10:21:13.722589 11272 net.cpp:84] Creating Layer relu4_0
I1211 10:21:13.722589 11272 net.cpp:406] relu4_0 <- conv4_0
I1211 10:21:13.722589 11272 net.cpp:367] relu4_0 -> conv4_0 (in-place)
I1211 10:21:13.722589 11272 net.cpp:122] Setting up relu4_0
I1211 10:21:13.722589 11272 net.cpp:129] Top shape: 100 58 8 8 (371200)
I1211 10:21:13.722589 11272 net.cpp:137] Memory required for data: 552807600
I1211 10:21:13.722589 11272 layer_factory.cpp:58] Creating layer conv11
I1211 10:21:13.722589 11272 net.cpp:84] Creating Layer conv11
I1211 10:21:13.723582 11272 net.cpp:406] conv11 <- conv4_0
I1211 10:21:13.723582 11272 net.cpp:380] conv11 -> conv11
I1211 10:21:13.724568 11272 net.cpp:122] Setting up conv11
I1211 10:21:13.724568 11272 net.cpp:129] Top shape: 100 70 8 8 (448000)
I1211 10:21:13.724568 11272 net.cpp:137] Memory required for data: 554599600
I1211 10:21:13.724568 11272 layer_factory.cpp:58] Creating layer bn_conv11
I1211 10:21:13.724568 11272 net.cpp:84] Creating Layer bn_conv11
I1211 10:21:13.724568 11272 net.cpp:406] bn_conv11 <- conv11
I1211 10:21:13.724568 11272 net.cpp:367] bn_conv11 -> conv11 (in-place)
I1211 10:21:13.724568 11272 net.cpp:122] Setting up bn_conv11
I1211 10:21:13.724568 11272 net.cpp:129] Top shape: 100 70 8 8 (448000)
I1211 10:21:13.724568 11272 net.cpp:137] Memory required for data: 556391600
I1211 10:21:13.724568 11272 layer_factory.cpp:58] Creating layer scale_conv11
I1211 10:21:13.724568 11272 net.cpp:84] Creating Layer scale_conv11
I1211 10:21:13.724568 11272 net.cpp:406] scale_conv11 <- conv11
I1211 10:21:13.724568 11272 net.cpp:367] scale_conv11 -> conv11 (in-place)
I1211 10:21:13.724568 11272 layer_factory.cpp:58] Creating layer scale_conv11
I1211 10:21:13.725580 11272 net.cpp:122] Setting up scale_conv11
I1211 10:21:13.725580 11272 net.cpp:129] Top shape: 100 70 8 8 (448000)
I1211 10:21:13.725580 11272 net.cpp:137] Memory required for data: 558183600
I1211 10:21:13.725580 11272 layer_factory.cpp:58] Creating layer relu_conv11
I1211 10:21:13.725580 11272 net.cpp:84] Creating Layer relu_conv11
I1211 10:21:13.725580 11272 net.cpp:406] relu_conv11 <- conv11
I1211 10:21:13.725580 11272 net.cpp:367] relu_conv11 -> conv11 (in-place)
I1211 10:21:13.725580 11272 net.cpp:122] Setting up relu_conv11
I1211 10:21:13.725580 11272 net.cpp:129] Top shape: 100 70 8 8 (448000)
I1211 10:21:13.725580 11272 net.cpp:137] Memory required for data: 559975600
I1211 10:21:13.725580 11272 layer_factory.cpp:58] Creating layer conv12
I1211 10:21:13.725580 11272 net.cpp:84] Creating Layer conv12
I1211 10:21:13.725580 11272 net.cpp:406] conv12 <- conv11
I1211 10:21:13.725580 11272 net.cpp:380] conv12 -> conv12
I1211 10:21:13.727567 11272 net.cpp:122] Setting up conv12
I1211 10:21:13.727567 11272 net.cpp:129] Top shape: 100 90 8 8 (576000)
I1211 10:21:13.727567 11272 net.cpp:137] Memory required for data: 562279600
I1211 10:21:13.727567 11272 layer_factory.cpp:58] Creating layer bn_conv12
I1211 10:21:13.727567 11272 net.cpp:84] Creating Layer bn_conv12
I1211 10:21:13.727567 11272 net.cpp:406] bn_conv12 <- conv12
I1211 10:21:13.727567 11272 net.cpp:367] bn_conv12 -> conv12 (in-place)
I1211 10:21:13.727567 11272 net.cpp:122] Setting up bn_conv12
I1211 10:21:13.727567 11272 net.cpp:129] Top shape: 100 90 8 8 (576000)
I1211 10:21:13.727567 11272 net.cpp:137] Memory required for data: 564583600
I1211 10:21:13.727567 11272 layer_factory.cpp:58] Creating layer scale_conv12
I1211 10:21:13.727567 11272 net.cpp:84] Creating Layer scale_conv12
I1211 10:21:13.727567 11272 net.cpp:406] scale_conv12 <- conv12
I1211 10:21:13.727567 11272 net.cpp:367] scale_conv12 -> conv12 (in-place)
I1211 10:21:13.727567 11272 layer_factory.cpp:58] Creating layer scale_conv12
I1211 10:21:13.727567 11272 net.cpp:122] Setting up scale_conv12
I1211 10:21:13.727567 11272 net.cpp:129] Top shape: 100 90 8 8 (576000)
I1211 10:21:13.727567 11272 net.cpp:137] Memory required for data: 566887600
I1211 10:21:13.727567 11272 layer_factory.cpp:58] Creating layer relu_conv12
I1211 10:21:13.727567 11272 net.cpp:84] Creating Layer relu_conv12
I1211 10:21:13.727567 11272 net.cpp:406] relu_conv12 <- conv12
I1211 10:21:13.727567 11272 net.cpp:367] relu_conv12 -> conv12 (in-place)
I1211 10:21:13.727567 11272 net.cpp:122] Setting up relu_conv12
I1211 10:21:13.727567 11272 net.cpp:129] Top shape: 100 90 8 8 (576000)
I1211 10:21:13.727567 11272 net.cpp:137] Memory required for data: 569191600
I1211 10:21:13.727567 11272 layer_factory.cpp:58] Creating layer poolcp6
I1211 10:21:13.727567 11272 net.cpp:84] Creating Layer poolcp6
I1211 10:21:13.727567 11272 net.cpp:406] poolcp6 <- conv12
I1211 10:21:13.727567 11272 net.cpp:380] poolcp6 -> poolcp6
I1211 10:21:13.727567 11272 net.cpp:122] Setting up poolcp6
I1211 10:21:13.727567 11272 net.cpp:129] Top shape: 100 90 1 1 (9000)
I1211 10:21:13.727567 11272 net.cpp:137] Memory required for data: 569227600
I1211 10:21:13.727567 11272 layer_factory.cpp:58] Creating layer ip1
I1211 10:21:13.727567 11272 net.cpp:84] Creating Layer ip1
I1211 10:21:13.727567 11272 net.cpp:406] ip1 <- poolcp6
I1211 10:21:13.727567 11272 net.cpp:380] ip1 -> ip1
I1211 10:21:13.728580 11272 net.cpp:122] Setting up ip1
I1211 10:21:13.728580 11272 net.cpp:129] Top shape: 100 100 (10000)
I1211 10:21:13.728580 11272 net.cpp:137] Memory required for data: 569267600
I1211 10:21:13.728580 11272 layer_factory.cpp:58] Creating layer ip1_ip1_0_split
I1211 10:21:13.728580 11272 net.cpp:84] Creating Layer ip1_ip1_0_split
I1211 10:21:13.728580 11272 net.cpp:406] ip1_ip1_0_split <- ip1
I1211 10:21:13.728580 11272 net.cpp:380] ip1_ip1_0_split -> ip1_ip1_0_split_0
I1211 10:21:13.728580 11272 net.cpp:380] ip1_ip1_0_split -> ip1_ip1_0_split_1
I1211 10:21:13.728580 11272 net.cpp:122] Setting up ip1_ip1_0_split
I1211 10:21:13.728580 11272 net.cpp:129] Top shape: 100 100 (10000)
I1211 10:21:13.728580 11272 net.cpp:129] Top shape: 100 100 (10000)
I1211 10:21:13.728580 11272 net.cpp:137] Memory required for data: 569347600
I1211 10:21:13.728580 11272 layer_factory.cpp:58] Creating layer accuracy_training
I1211 10:21:13.728580 11272 net.cpp:84] Creating Layer accuracy_training
I1211 10:21:13.728580 11272 net.cpp:406] accuracy_training <- ip1_ip1_0_split_0
I1211 10:21:13.728580 11272 net.cpp:406] accuracy_training <- label_cifar_1_split_0
…
