…
I0923 20:28:11.724994 17252 net.cpp:294] The NetState phase (0) differed from the phase (1) specified by a rule in layer accuracy
I0923 20:28:11.724994 17252 net.cpp:51] Initializing net from parameters: 
name: "CIFAR10_SimpleNet_GP_13L_drpall_Simple_NoGroupCon_NoDrp_noaug"
state {
  phase: TRAIN
  level: 0
  stage: ""
}
layer {
  name: "cifar"
  type: "Data"
  top: "data"
  top: "label"
  include {
    phase: TRAIN
  }
  transform_param {
    mirror: true
    mean_file: "examples/cifar10/mean.binaryproto"
  }
  data_param {
    source: "examples/cifar10/cifar10_train_lmdb"
    batch_size: 100
    backend: LMDB
  }
}
layer {
  name: "conv1"
  type: "Convolution"
  bottom: "data"
  top: "conv1"
  param {
    lr_mult: 1
  }
  convolution_param {
    num_output: 6
    bias_term: true
    pad: 1
    kernel_size: 3
    stride: 1
    weight_filler {
      type: "xavier"
    }
  }
}
layer {
  name: "bn1"
  type: "BatchNorm"
  bottom: "conv1"
  top: "conv1"
  param {
    lr_mult: 0
    decay_mult: 0
  }
  param {
    lr_mult: 0
    decay_mult: 0
  }
  param {
    lr_mult: 0
    decay_mult: 0
  }
  include {
    phase: TRAIN
  }
  batch_norm_param {
    use_global_stats: false
    moving_average_fraction: 0.95
  }
}
layer {
  name: "scale1"
  type: "Scale"
  bottom: "conv1"
  top: "conv1"
  scale_param {
    bias_term: true
  }
}
layer {
  name: "relu1"
  type: "ReLU"
  bottom: "conv1"
  top: "conv1"
}
layer {
  name: "conv1_0"
  type: "Convolution"
  bottom: "conv1"
  top: "conv1_0"
  param {
    lr_mult: 1
  }
  convolution_param {
    num_output: 12
    bias_term: true
    pad: 1
    kernel_size: 3
    stride: 1
    weight_filler {
      type: "xavier"
    }
  }
}
layer {
  name: "bn1_0"
  type: "BatchNorm"
  bottom: "conv1_0"
  top: "conv1_0"
  param {
    lr_mult: 0
    decay_mult: 0
  }
  param {
    lr_mult: 0
    decay_mult: 0
  }
  param {
    lr_mult: 0
    decay_mult: 0
  }
  include {
    phase: TRAIN
  }
  batch_norm_param {
    use_global_stats: false
    moving_average_fraction: 0.95
  }
}
layer {
  name: "scale1_0"
  type: "Scale"
  bottom: "conv1_0"
  top: "conv1_0"
  scale_param {
    bias_term: true
  }
}
layer {
  name: "relu1_0"
  type: "ReLU"
  bottom: "conv1_0"
  top: "conv1_0"
}
layer {
  name: "conv2"
  type: "Convolution"
  bottom: "conv1_0"
  top: "conv2"
  param {
    lr_mult: 1
  }
  convolution_param {
    num_output: 12
    bias_term: true
    pad: 1
    kernel_size: 3
    stride: 1
    weight_filler {
      type: "gaussian"
      std: 0.01
    }
  }
}
layer {
  name: "bn2"
  type: "BatchNorm"
  bottom: "conv2"
  top: "conv2"
  param {
    lr_mult: 0
    decay_mult: 0
  }
  param {
    lr_mult: 0
    decay_mult: 0
  }
  param {
    lr_mult: 0
    decay_mult: 0
  }
  include {
    phase: TRAIN
  }
  batch_norm_param {
    use_global_stats: false
    moving_average_fraction: 0.95
  }
}
layer {
  name: "scale2"
  type: "Scale"
  bottom: "conv2"
  top: "conv2"
  scale_param {
    bias_term: true
  }
}
layer {
  name: "relu2"
  type: "ReLU"
  bottom: "conv2"
  top: "conv2"
}
layer {
  name: "conv2_1"
  type: "Convolution"
  bottom: "conv2"
  top: "conv2_1"
  param {
    lr_mult: 1
  }
  convolution_param {
    num_output: 12
    bias_term: true
    pad: 1
    kernel_size: 3
    stride: 1
    weight_filler {
      type: "gaussian"
      std: 0.01
    }
  }
}
layer {
  name: "bn2_1"
  type: "BatchNorm"
  bottom: "conv2_1"
  top: "conv2_1"
  param {
    lr_mult: 0
    decay_mult: 0
  }
  param {
    lr_mult: 0
    decay_mult: 0
  }
  param {
    lr_mult: 0
    decay_mult: 0
  }
  include {
    phase: TRAIN
  }
  batch_norm_param {
    use_global_stats: false
    moving_average_fraction: 0.95
  }
}
layer {
  name: "scale2_1"
  type: "Scale"
  bottom: "conv2_1"
  top: "conv2_1"
  scale_param {
    bias_term: true
  }
}
layer {
  name: "relu2_1"
  type: "ReLU"
  bottom: "conv2_1"
  top: "conv2_1"
}
layer {
  name: "conv2_2"
  type: "Convolution"
  bottom: "conv2_1"
  top: "conv2_2"
  param {
    lr_mult: 1
  }
  convolution_param {
    num_output: 19
    bias_term: true
    pad: 1
    kernel_size: 3
    stride: 1
    weight_filler {
      type: "gaussian"
      std: 0.01
    }
  }
}
layer {
  name: "bn2_2"
  type: "BatchNorm"
  bottom: "conv2_2"
  top: "conv2_2"
  param {
    lr_mult: 0
    decay_mult: 0
  }
  param {
    lr_mult: 0
    decay_mult: 0
  }
  param {
    lr_mult: 0
    decay_mult: 0
  }
  include {
    phase: TRAIN
  }
  batch_norm_param {
    use_global_stats: false
    moving_average_fraction: 0.95
  }
}
layer {
  name: "scale2_2"
  type: "Scale"
  bottom: "conv2_2"
  top: "conv2_2"
  scale_param {
    bias_term: true
  }
}
layer {
  name: "relu2_2"
  type: "ReLU"
  bottom: "conv2_2"
  top: "conv2_2"
}
layer {
  name: "pool2_1"
  type: "Pooling"
  bottom: "conv2_2"
  top: "pool2_1"
  pooling_param {
    pool: MAX
    kernel_size: 2
    stride: 2
  }
}
layer {
  name: "conv3"
  type: "Convolution"
  bottom: "pool2_1"
  top: "conv3"
  param {
    lr_mult: 1
  }
  convolution_param {
    num_output: 19
    bias_term: true
    pad: 1
    kernel_size: 3
    stride: 1
    weight_filler {
      type: "xavier"
    }
  }
}
layer {
  name: "bn3"
  type: "BatchNorm"
  bottom: "conv3"
  top: "conv3"
  param {
    lr_mult: 0
    decay_mult: 0
  }
  param {
    lr_mult: 0
    decay_mult: 0
  }
  param {
    lr_mult: 0
    decay_mult: 0
  }
  include {
    phase: TRAIN
  }
  batch_norm_param {
    use_global_stats: false
    moving_average_fraction: 0.95
  }
}
layer {
  name: "scale3"
  type: "Scale"
  bottom: "conv3"
  top: "conv3"
  scale_param {
    bias_term: true
  }
}
layer {
  name: "relu3"
  type: "ReLU"
  bottom: "conv3"
  top: "conv3"
}
layer {
  name: "conv3_1"
  type: "Convolution"
  bottom: "conv3"
  top: "conv3_1"
  param {
    lr_mult: 1
  }
  convolution_param {
    num_output: 19
    bias_term: true
    pad: 1
    kernel_size: 3
    stride: 1
    weight_filler {
      type: "xavier"
    }
  }
}
layer {
  name: "bn3_1"
  type: "BatchNorm"
  bottom: "conv3_1"
  top: "conv3_1"
  param {
    lr_mult: 0
    decay_mult: 0
  }
  param {
    lr_mult: 0
    decay_mult: 0
  }
  param {
    lr_mult: 0
    decay_mult: 0
  }
  include {
    phase: TRAIN
  }
  batch_norm_param {
    use_global_stats: false
    moving_average_fraction: 0.95
  }
}
layer {
  name: "scale3_1"
  type: "Scale"
  bottom: "conv3_1"
  top: "conv3_1"
  scale_param {
    bias_term: true
  }
}
layer {
  name: "relu3_1"
  type: "ReLU"
  bottom: "conv3_1"
  top: "conv3_1"
}
layer {
  name: "conv4"
  type: "Convolution"
  bottom: "conv3_1"
  top: "conv4"
  param {
    lr_mult: 1
  }
  convolution_param {
    num_output: 19
    bias_term: true
    pad: 1
    kernel_size: 3
    stride: 1
    weight_filler {
      type: "xavier"
    }
  }
}
layer {
  name: "bn4"
  type: "BatchNorm"
  bottom: "conv4"
  top: "conv4"
  param {
    lr_mult: 0
    decay_mult: 0
  }
  param {
    lr_mult: 0
    decay_mult: 0
  }
  param {
    lr_mult: 0
    decay_mult: 0
  }
  include {
    phase: TRAIN
  }
  batch_norm_param {
    use_global_stats: false
    moving_average_fraction: 0.95
  }
}
layer {
  name: "scale4"
  type: "Scale"
  bottom: "conv4"
  top: "conv4"
  scale_param {
    bias_term: true
  }
}
layer {
  name: "relu4"
  type: "ReLU"
  bottom: "conv4"
  top: "conv4"
}
layer {
  name: "conv4_1"
  type: "Convolution"
  bottom: "conv4"
  top: "conv4_1"
  param {
    lr_mult: 1
  }
  convolution_param {
    num_output: 19
    bias_term: true
    pad: 1
    kernel_size: 3
    stride: 1
    weight_filler {
      type: "xavier"
    }
  }
}
layer {
  name: "bn4_1"
  type: "BatchNorm"
  bottom: "conv4_1"
  top: "conv4_1"
  param {
    lr_mult: 0
    decay_mult: 0
  }
  param {
    lr_mult: 0
    decay_mult: 0
  }
  param {
    lr_mult: 0
    decay_mult: 0
  }
  include {
    phase: TRAIN
  }
  batch_norm_param {
    use_global_stats: false
    moving_average_fraction: 0.95
  }
}
layer {
  name: "scale4_1"
  type: "Scale"
  bottom: "conv4_1"
  top: "conv4_1"
  scale_param {
    bias_term: true
  }
}
layer {
  name: "relu4_1"
  type: "ReLU"
  bottom: "conv4_1"
  top: "conv4_1"
}
layer {
  name: "conv4_2"
  type: "Convolution"
  bottom: "conv4_1"
  top: "conv4_2"
  param {
    lr_mult: 1
  }
  convolution_param {
    num_output: 28
    bias_term: true
    pad: 1
    kernel_size: 3
    stride: 1
    weight_filler {
      type: "xavier"
    }
  }
}
layer {
  name: "bn4_2"
  type: "BatchNorm"
  bottom: "conv4_2"
  top: "conv4_2"
  param {
    lr_mult: 0
    decay_mult: 0
  }
  param {
    lr_mult: 0
    decay_mult: 0
  }
  param {
    lr_mult: 0
    decay_mult: 0
  }
  include {
    phase: TRAIN
  }
  batch_norm_param {
    use_global_stats: false
    moving_average_fraction: 0.95
  }
}
layer {
  name: "scale4_2"
  type: "Scale"
  bottom: "conv4_2"
  top: "conv4_2"
  scale_param {
    bias_term: true
  }
}
layer {
  name: "relu4_2"
  type: "ReLU"
  bottom: "conv4_2"
  top: "conv4_2"
}
layer {
  name: "pool4_2"
  type: "Pooling"
  bottom: "conv4_2"
  top: "pool4_2"
  pooling_param {
    pool: MAX
    kernel_size: 2
    stride: 2
  }
}
layer {
  name: "conv4_0"
  type: "Convolution"
  bottom: "pool4_2"
  top: "conv4_0"
  param {
    lr_mult: 1
  }
  convolution_param {
    num_output: 28
    bias_term: true
    pad: 1
    kernel_size: 3
    stride: 1
    weight_filler {
      type: "xavier"
    }
  }
}
layer {
  name: "bn4_0"
  type: "BatchNorm"
  bottom: "conv4_0"
  top: "conv4_0"
  param {
    lr_mult: 0
    decay_mult: 0
  }
  param {
    lr_mult: 0
    decay_mult: 0
  }
  param {
    lr_mult: 0
    decay_mult: 0
  }
  include {
    phase: TRAIN
  }
  batch_norm_param {
    use_global_stats: false
    moving_average_fraction: 0.95
  }
}
layer {
  name: "scale4_0"
  type: "Scale"
  bottom: "conv4_0"
  top: "conv4_0"
  scale_param {
    bias_term: true
  }
}
layer {
  name: "relu4_0"
  type: "ReLU"
  bottom: "conv4_0"
  top: "conv4_0"
}
layer {
  name: "conv11"
  type: "Convolution"
  bottom: "conv4_0"
  top: "conv11"
  param {
    lr_mult: 1
    decay_mult: 1
  }
  param {
    lr_mult: 2
    decay_mult: 0
  }
  convolution_param {
    num_output: 35
    pad: 1
    kernel_size: 3
    weight_filler {
      type: "xavier"
    }
    bias_filler {
      type: "constant"
      value: 0
    }
  }
}
layer {
  name: "bn_conv11"
  type: "BatchNorm"
  bottom: "conv11"
  top: "conv11"
  param {
    lr_mult: 0
    decay_mult: 0
  }
  param {
    lr_mult: 0
    decay_mult: 0
  }
  param {
    lr_mult: 0
    decay_mult: 0
  }
  include {
    phase: TRAIN
  }
  batch_norm_param {
    use_global_stats: false
    moving_average_fraction: 0.95
  }
}
layer {
  name: "scale_conv11"
  type: "Scale"
  bottom: "conv11"
  top: "conv11"
  scale_param {
    bias_term: true
  }
}
layer {
  name: "relu_conv11"
  type: "ReLU"
  bottom: "conv11"
  top: "conv11"
}
layer {
  name: "conv12"
  type: "Convolution"
  bottom: "conv11"
  top: "conv12"
  param {
    lr_mult: 1
    decay_mult: 1
  }
  param {
    lr_mult: 2
    decay_mult: 0
  }
  convolution_param {
    num_output: 43
    pad: 1
    kernel_size: 3
    weight_filler {
      type: "xavier"
    }
    bias_filler {
      type: "constant"
      value: 0
    }
  }
}
layer {
  name: "bn_conv12"
  type: "BatchNorm"
  bottom: "conv12"
  top: "conv12"
  param {
    lr_mult: 0
    decay_mult: 0
  }
  param {
    lr_mult: 0
    decay_mult: 0
  }
  param {
    lr_mult: 0
    decay_mult: 0
  }
  include {
    phase: TRAIN
  }
  batch_norm_param {
    use_global_stats: false
    moving_average_fraction: 0.95
  }
}
layer {
  name: "scale_conv12"
  type: "Scale"
  bottom: "conv12"
  top: "conv12"
  scale_param {
    bias_term: true
  }
}
layer {
  name: "relu_conv12"
  type: "ReLU"
  bottom: "conv12"
  top: "conv12"
}
layer {
  name: "poolcp6"
  type: "Pooling"
  bottom: "conv12"
  top: "poolcp6"
  pooling_param {
    pool: MAX
    global_pooling: true
  }
}
layer {
  name: "ip1"
  type: "InnerProduct"
  bottom: "poolcp6"
  top: "ip1"
  param {
    lr_mult: 1
    decay_mult: 0
  }
  param {
    lr_mult: 2
    decay_mult: 0
  }
  inner_product_param {
    num_output: 10
    weight_filler {
      type: "xavier"
    }
    bias_filler {
      type: "constant"
    }
  }
}
layer {
  name: "accuracy_training"
  type: "Accuracy"
  bottom: "ip1"
  bottom: "label"
  top: "accuracy_training"
  include {
    phase: TRAIN
  }
}
layer {
  name: "loss"
  type: "SoftmaxWithLoss"
  bottom: "ip1"
  bottom: "label"
  top: "loss"
}
I0923 20:28:11.725567 17252 layer_factory.cpp:58] Creating layer cifar
I0923 20:28:11.730022 17252 db_lmdb.cpp:40] Opened lmdb examples/cifar10/cifar10_train_lmdb
I0923 20:28:11.730022 17252 net.cpp:84] Creating Layer cifar
I0923 20:28:11.730022 17252 net.cpp:380] cifar -> data
I0923 20:28:11.730022 17252 net.cpp:380] cifar -> label
I0923 20:28:11.730022 17252 data_transformer.cpp:25] Loading mean file from: examples/cifar10/mean.binaryproto
I0923 20:28:11.732022 17252 common.cpp:36] System entropy source not available, using fallback algorithm to generate seed instead.
I0923 20:28:11.732022 17252 data_layer.cpp:45] output data size: 100,3,32,32
I0923 20:28:11.736830 17252 net.cpp:122] Setting up cifar
I0923 20:28:11.736830 17252 net.cpp:129] Top shape: 100 3 32 32 (307200)
I0923 20:28:11.736830 17252 net.cpp:129] Top shape: 100 (100)
I0923 20:28:11.736830 17252 net.cpp:137] Memory required for data: 1229200
I0923 20:28:11.736830 17252 layer_factory.cpp:58] Creating layer label_cifar_1_split
I0923 20:28:11.736830 17252 net.cpp:84] Creating Layer label_cifar_1_split
I0923 20:28:11.736830 17252 net.cpp:406] label_cifar_1_split <- label
I0923 20:28:11.736830 17252 net.cpp:380] label_cifar_1_split -> label_cifar_1_split_0
I0923 20:28:11.736830 17252 net.cpp:380] label_cifar_1_split -> label_cifar_1_split_1
I0923 20:28:11.736830 17252 net.cpp:122] Setting up label_cifar_1_split
I0923 20:28:11.736830 17252 net.cpp:129] Top shape: 100 (100)
I0923 20:28:11.736830 17252 net.cpp:129] Top shape: 100 (100)
I0923 20:28:11.736830 17252 net.cpp:137] Memory required for data: 1230000
I0923 20:28:11.736830 17252 layer_factory.cpp:58] Creating layer conv1
I0923 20:28:11.736830 17252 net.cpp:84] Creating Layer conv1
I0923 20:28:11.736830 17252 net.cpp:406] conv1 <- data
I0923 20:28:11.736830 17252 net.cpp:380] conv1 -> conv1
I0923 20:28:11.736830 17308 common.cpp:36] System entropy source not available, using fallback algorithm to generate seed instead.
I0923 20:28:11.948642 17252 net.cpp:122] Setting up conv1
I0923 20:28:11.948642 17252 net.cpp:129] Top shape: 100 6 32 32 (614400)
I0923 20:28:11.948642 17252 net.cpp:137] Memory required for data: 3687600
I0923 20:28:11.948642 17252 layer_factory.cpp:58] Creating layer bn1
I0923 20:28:11.948642 17252 net.cpp:84] Creating Layer bn1
I0923 20:28:11.948642 17252 net.cpp:406] bn1 <- conv1
I0923 20:28:11.948642 17252 net.cpp:367] bn1 -> conv1 (in-place)
I0923 20:28:11.948642 17252 net.cpp:122] Setting up bn1
I0923 20:28:11.948642 17252 net.cpp:129] Top shape: 100 6 32 32 (614400)
I0923 20:28:11.948642 17252 net.cpp:137] Memory required for data: 6145200
I0923 20:28:11.948642 17252 layer_factory.cpp:58] Creating layer scale1
I0923 20:28:11.948642 17252 net.cpp:84] Creating Layer scale1
I0923 20:28:11.948642 17252 net.cpp:406] scale1 <- conv1
I0923 20:28:11.948642 17252 net.cpp:367] scale1 -> conv1 (in-place)
I0923 20:28:11.948642 17252 layer_factory.cpp:58] Creating layer scale1
I0923 20:28:11.948642 17252 net.cpp:122] Setting up scale1
I0923 20:28:11.948642 17252 net.cpp:129] Top shape: 100 6 32 32 (614400)
I0923 20:28:11.948642 17252 net.cpp:137] Memory required for data: 8602800
I0923 20:28:11.948642 17252 layer_factory.cpp:58] Creating layer relu1
I0923 20:28:11.948642 17252 net.cpp:84] Creating Layer relu1
I0923 20:28:11.948642 17252 net.cpp:406] relu1 <- conv1
I0923 20:28:11.948642 17252 net.cpp:367] relu1 -> conv1 (in-place)
I0923 20:28:11.949642 17252 net.cpp:122] Setting up relu1
I0923 20:28:11.949642 17252 net.cpp:129] Top shape: 100 6 32 32 (614400)
I0923 20:28:11.949642 17252 net.cpp:137] Memory required for data: 11060400
I0923 20:28:11.949642 17252 layer_factory.cpp:58] Creating layer conv1_0
I0923 20:28:11.949642 17252 net.cpp:84] Creating Layer conv1_0
I0923 20:28:11.949642 17252 net.cpp:406] conv1_0 <- conv1
I0923 20:28:11.949642 17252 net.cpp:380] conv1_0 -> conv1_0
I0923 20:28:11.950207 17252 net.cpp:122] Setting up conv1_0
I0923 20:28:11.950207 17252 net.cpp:129] Top shape: 100 12 32 32 (1228800)
I0923 20:28:11.950207 17252 net.cpp:137] Memory required for data: 15975600
I0923 20:28:11.950207 17252 layer_factory.cpp:58] Creating layer bn1_0
I0923 20:28:11.950207 17252 net.cpp:84] Creating Layer bn1_0
I0923 20:28:11.950207 17252 net.cpp:406] bn1_0 <- conv1_0
I0923 20:28:11.950207 17252 net.cpp:367] bn1_0 -> conv1_0 (in-place)
I0923 20:28:11.950207 17252 net.cpp:122] Setting up bn1_0
I0923 20:28:11.950207 17252 net.cpp:129] Top shape: 100 12 32 32 (1228800)
I0923 20:28:11.950207 17252 net.cpp:137] Memory required for data: 20890800
I0923 20:28:11.950207 17252 layer_factory.cpp:58] Creating layer scale1_0
I0923 20:28:11.950207 17252 net.cpp:84] Creating Layer scale1_0
I0923 20:28:11.950207 17252 net.cpp:406] scale1_0 <- conv1_0
I0923 20:28:11.950207 17252 net.cpp:367] scale1_0 -> conv1_0 (in-place)
I0923 20:28:11.950207 17252 layer_factory.cpp:58] Creating layer scale1_0
I0923 20:28:11.951210 17252 net.cpp:122] Setting up scale1_0
I0923 20:28:11.951210 17252 net.cpp:129] Top shape: 100 12 32 32 (1228800)
I0923 20:28:11.951210 17252 net.cpp:137] Memory required for data: 25806000
I0923 20:28:11.951210 17252 layer_factory.cpp:58] Creating layer relu1_0
I0923 20:28:11.951210 17252 net.cpp:84] Creating Layer relu1_0
I0923 20:28:11.951210 17252 net.cpp:406] relu1_0 <- conv1_0
I0923 20:28:11.951210 17252 net.cpp:367] relu1_0 -> conv1_0 (in-place)
I0923 20:28:11.951210 17252 net.cpp:122] Setting up relu1_0
I0923 20:28:11.951210 17252 net.cpp:129] Top shape: 100 12 32 32 (1228800)
I0923 20:28:11.951210 17252 net.cpp:137] Memory required for data: 30721200
I0923 20:28:11.951210 17252 layer_factory.cpp:58] Creating layer conv2
I0923 20:28:11.951210 17252 net.cpp:84] Creating Layer conv2
I0923 20:28:11.951210 17252 net.cpp:406] conv2 <- conv1_0
I0923 20:28:11.951210 17252 net.cpp:380] conv2 -> conv2
I0923 20:28:11.952210 17252 net.cpp:122] Setting up conv2
I0923 20:28:11.952210 17252 net.cpp:129] Top shape: 100 12 32 32 (1228800)
I0923 20:28:11.952210 17252 net.cpp:137] Memory required for data: 35636400
I0923 20:28:11.952210 17252 layer_factory.cpp:58] Creating layer bn2
I0923 20:28:11.952210 17252 net.cpp:84] Creating Layer bn2
I0923 20:28:11.952210 17252 net.cpp:406] bn2 <- conv2
I0923 20:28:11.952210 17252 net.cpp:367] bn2 -> conv2 (in-place)
I0923 20:28:11.952210 17252 net.cpp:122] Setting up bn2
I0923 20:28:11.952210 17252 net.cpp:129] Top shape: 100 12 32 32 (1228800)
I0923 20:28:11.952210 17252 net.cpp:137] Memory required for data: 40551600
I0923 20:28:11.952210 17252 layer_factory.cpp:58] Creating layer scale2
I0923 20:28:11.952210 17252 net.cpp:84] Creating Layer scale2
I0923 20:28:11.952210 17252 net.cpp:406] scale2 <- conv2
I0923 20:28:11.952210 17252 net.cpp:367] scale2 -> conv2 (in-place)
I0923 20:28:11.952210 17252 layer_factory.cpp:58] Creating layer scale2
I0923 20:28:11.952210 17252 net.cpp:122] Setting up scale2
I0923 20:28:11.952210 17252 net.cpp:129] Top shape: 100 12 32 32 (1228800)
I0923 20:28:11.952210 17252 net.cpp:137] Memory required for data: 45466800
I0923 20:28:11.952210 17252 layer_factory.cpp:58] Creating layer relu2
I0923 20:28:11.952210 17252 net.cpp:84] Creating Layer relu2
I0923 20:28:11.952210 17252 net.cpp:406] relu2 <- conv2
I0923 20:28:11.952210 17252 net.cpp:367] relu2 -> conv2 (in-place)
I0923 20:28:11.953065 17252 net.cpp:122] Setting up relu2
I0923 20:28:11.953065 17252 net.cpp:129] Top shape: 100 12 32 32 (1228800)
I0923 20:28:11.953065 17252 net.cpp:137] Memory required for data: 50382000
I0923 20:28:11.953065 17252 layer_factory.cpp:58] Creating layer conv2_1
I0923 20:28:11.953065 17252 net.cpp:84] Creating Layer conv2_1
I0923 20:28:11.953065 17252 net.cpp:406] conv2_1 <- conv2
I0923 20:28:11.953065 17252 net.cpp:380] conv2_1 -> conv2_1
I0923 20:28:11.953933 17252 net.cpp:122] Setting up conv2_1
I0923 20:28:11.953933 17252 net.cpp:129] Top shape: 100 12 32 32 (1228800)
I0923 20:28:11.953933 17252 net.cpp:137] Memory required for data: 55297200
I0923 20:28:11.953933 17252 layer_factory.cpp:58] Creating layer bn2_1
I0923 20:28:11.953933 17252 net.cpp:84] Creating Layer bn2_1
I0923 20:28:11.953933 17252 net.cpp:406] bn2_1 <- conv2_1
I0923 20:28:11.953933 17252 net.cpp:367] bn2_1 -> conv2_1 (in-place)
I0923 20:28:11.953933 17252 net.cpp:122] Setting up bn2_1
I0923 20:28:11.953933 17252 net.cpp:129] Top shape: 100 12 32 32 (1228800)
I0923 20:28:11.953933 17252 net.cpp:137] Memory required for data: 60212400
I0923 20:28:11.953933 17252 layer_factory.cpp:58] Creating layer scale2_1
I0923 20:28:11.953933 17252 net.cpp:84] Creating Layer scale2_1
I0923 20:28:11.953933 17252 net.cpp:406] scale2_1 <- conv2_1
I0923 20:28:11.953933 17252 net.cpp:367] scale2_1 -> conv2_1 (in-place)
I0923 20:28:11.953933 17252 layer_factory.cpp:58] Creating layer scale2_1
I0923 20:28:11.953933 17252 net.cpp:122] Setting up scale2_1
I0923 20:28:11.953933 17252 net.cpp:129] Top shape: 100 12 32 32 (1228800)
I0923 20:28:11.953933 17252 net.cpp:137] Memory required for data: 65127600
I0923 20:28:11.953933 17252 layer_factory.cpp:58] Creating layer relu2_1
I0923 20:28:11.953933 17252 net.cpp:84] Creating Layer relu2_1
I0923 20:28:11.953933 17252 net.cpp:406] relu2_1 <- conv2_1
I0923 20:28:11.953933 17252 net.cpp:367] relu2_1 -> conv2_1 (in-place)
I0923 20:28:11.953933 17252 net.cpp:122] Setting up relu2_1
I0923 20:28:11.953933 17252 net.cpp:129] Top shape: 100 12 32 32 (1228800)
I0923 20:28:11.953933 17252 net.cpp:137] Memory required for data: 70042800
I0923 20:28:11.953933 17252 layer_factory.cpp:58] Creating layer conv2_2
I0923 20:28:11.953933 17252 net.cpp:84] Creating Layer conv2_2
I0923 20:28:11.953933 17252 net.cpp:406] conv2_2 <- conv2_1
I0923 20:28:11.953933 17252 net.cpp:380] conv2_2 -> conv2_2
I0923 20:28:11.955437 17252 net.cpp:122] Setting up conv2_2
I0923 20:28:11.955437 17252 net.cpp:129] Top shape: 100 19 32 32 (1945600)
I0923 20:28:11.955437 17252 net.cpp:137] Memory required for data: 77825200
I0923 20:28:11.955437 17252 layer_factory.cpp:58] Creating layer bn2_2
I0923 20:28:11.955437 17252 net.cpp:84] Creating Layer bn2_2
I0923 20:28:11.955437 17252 net.cpp:406] bn2_2 <- conv2_2
I0923 20:28:11.955437 17252 net.cpp:367] bn2_2 -> conv2_2 (in-place)
I0923 20:28:11.955437 17252 net.cpp:122] Setting up bn2_2
I0923 20:28:11.955437 17252 net.cpp:129] Top shape: 100 19 32 32 (1945600)
I0923 20:28:11.955437 17252 net.cpp:137] Memory required for data: 85607600
I0923 20:28:11.955437 17252 layer_factory.cpp:58] Creating layer scale2_2
I0923 20:28:11.955437 17252 net.cpp:84] Creating Layer scale2_2
I0923 20:28:11.955437 17252 net.cpp:406] scale2_2 <- conv2_2
I0923 20:28:11.955437 17252 net.cpp:367] scale2_2 -> conv2_2 (in-place)
I0923 20:28:11.955437 17252 layer_factory.cpp:58] Creating layer scale2_2
I0923 20:28:11.955937 17252 net.cpp:122] Setting up scale2_2
I0923 20:28:11.955937 17252 net.cpp:129] Top shape: 100 19 32 32 (1945600)
I0923 20:28:11.955937 17252 net.cpp:137] Memory required for data: 93390000
I0923 20:28:11.955937 17252 layer_factory.cpp:58] Creating layer relu2_2
I0923 20:28:11.955937 17252 net.cpp:84] Creating Layer relu2_2
I0923 20:28:11.955937 17252 net.cpp:406] relu2_2 <- conv2_2
I0923 20:28:11.955937 17252 net.cpp:367] relu2_2 -> conv2_2 (in-place)
I0923 20:28:11.955937 17252 net.cpp:122] Setting up relu2_2
I0923 20:28:11.955937 17252 net.cpp:129] Top shape: 100 19 32 32 (1945600)
I0923 20:28:11.955937 17252 net.cpp:137] Memory required for data: 101172400
I0923 20:28:11.955937 17252 layer_factory.cpp:58] Creating layer pool2_1
I0923 20:28:11.955937 17252 net.cpp:84] Creating Layer pool2_1
I0923 20:28:11.955937 17252 net.cpp:406] pool2_1 <- conv2_2
I0923 20:28:11.955937 17252 net.cpp:380] pool2_1 -> pool2_1
I0923 20:28:11.955937 17252 net.cpp:122] Setting up pool2_1
I0923 20:28:11.955937 17252 net.cpp:129] Top shape: 100 19 16 16 (486400)
I0923 20:28:11.955937 17252 net.cpp:137] Memory required for data: 103118000
I0923 20:28:11.955937 17252 layer_factory.cpp:58] Creating layer conv3
I0923 20:28:11.955937 17252 net.cpp:84] Creating Layer conv3
I0923 20:28:11.955937 17252 net.cpp:406] conv3 <- pool2_1
I0923 20:28:11.955937 17252 net.cpp:380] conv3 -> conv3
I0923 20:28:11.956938 17252 net.cpp:122] Setting up conv3
I0923 20:28:11.956938 17252 net.cpp:129] Top shape: 100 19 16 16 (486400)
I0923 20:28:11.956938 17252 net.cpp:137] Memory required for data: 105063600
I0923 20:28:11.956938 17252 layer_factory.cpp:58] Creating layer bn3
I0923 20:28:11.956938 17252 net.cpp:84] Creating Layer bn3
I0923 20:28:11.956938 17252 net.cpp:406] bn3 <- conv3
I0923 20:28:11.957438 17252 net.cpp:367] bn3 -> conv3 (in-place)
I0923 20:28:11.957438 17252 net.cpp:122] Setting up bn3
I0923 20:28:11.957438 17252 net.cpp:129] Top shape: 100 19 16 16 (486400)
I0923 20:28:11.957438 17252 net.cpp:137] Memory required for data: 107009200
I0923 20:28:11.957438 17252 layer_factory.cpp:58] Creating layer scale3
I0923 20:28:11.957438 17252 net.cpp:84] Creating Layer scale3
I0923 20:28:11.957438 17252 net.cpp:406] scale3 <- conv3
I0923 20:28:11.957438 17252 net.cpp:367] scale3 -> conv3 (in-place)
I0923 20:28:11.957438 17252 layer_factory.cpp:58] Creating layer scale3
I0923 20:28:11.957438 17252 net.cpp:122] Setting up scale3
I0923 20:28:11.957438 17252 net.cpp:129] Top shape: 100 19 16 16 (486400)
I0923 20:28:11.957438 17252 net.cpp:137] Memory required for data: 108954800
I0923 20:28:11.957438 17252 layer_factory.cpp:58] Creating layer relu3
I0923 20:28:11.957438 17252 net.cpp:84] Creating Layer relu3
I0923 20:28:11.957438 17252 net.cpp:406] relu3 <- conv3
I0923 20:28:11.957438 17252 net.cpp:367] relu3 -> conv3 (in-place)
I0923 20:28:11.957939 17252 net.cpp:122] Setting up relu3
I0923 20:28:11.957939 17252 net.cpp:129] Top shape: 100 19 16 16 (486400)
I0923 20:28:11.957939 17252 net.cpp:137] Memory required for data: 110900400
I0923 20:28:11.957939 17252 layer_factory.cpp:58] Creating layer conv3_1
I0923 20:28:11.957939 17252 net.cpp:84] Creating Layer conv3_1
I0923 20:28:11.957939 17252 net.cpp:406] conv3_1 <- conv3
I0923 20:28:11.957939 17252 net.cpp:380] conv3_1 -> conv3_1
I0923 20:28:11.958940 17252 net.cpp:122] Setting up conv3_1
I0923 20:28:11.958940 17252 net.cpp:129] Top shape: 100 19 16 16 (486400)
I0923 20:28:11.958940 17252 net.cpp:137] Memory required for data: 112846000
I0923 20:28:11.958940 17252 layer_factory.cpp:58] Creating layer bn3_1
I0923 20:28:11.958940 17252 net.cpp:84] Creating Layer bn3_1
I0923 20:28:11.958940 17252 net.cpp:406] bn3_1 <- conv3_1
I0923 20:28:11.958940 17252 net.cpp:367] bn3_1 -> conv3_1 (in-place)
I0923 20:28:11.958940 17252 net.cpp:122] Setting up bn3_1
I0923 20:28:11.958940 17252 net.cpp:129] Top shape: 100 19 16 16 (486400)
I0923 20:28:11.958940 17252 net.cpp:137] Memory required for data: 114791600
I0923 20:28:11.958940 17252 layer_factory.cpp:58] Creating layer scale3_1
I0923 20:28:11.958940 17252 net.cpp:84] Creating Layer scale3_1
I0923 20:28:11.958940 17252 net.cpp:406] scale3_1 <- conv3_1
I0923 20:28:11.959439 17252 net.cpp:367] scale3_1 -> conv3_1 (in-place)
I0923 20:28:11.959439 17252 layer_factory.cpp:58] Creating layer scale3_1
I0923 20:28:11.959439 17252 net.cpp:122] Setting up scale3_1
I0923 20:28:11.959439 17252 net.cpp:129] Top shape: 100 19 16 16 (486400)
I0923 20:28:11.959439 17252 net.cpp:137] Memory required for data: 116737200
I0923 20:28:11.959439 17252 layer_factory.cpp:58] Creating layer relu3_1
I0923 20:28:11.959439 17252 net.cpp:84] Creating Layer relu3_1
I0923 20:28:11.959439 17252 net.cpp:406] relu3_1 <- conv3_1
I0923 20:28:11.959439 17252 net.cpp:367] relu3_1 -> conv3_1 (in-place)
I0923 20:28:11.959439 17252 net.cpp:122] Setting up relu3_1
I0923 20:28:11.959439 17252 net.cpp:129] Top shape: 100 19 16 16 (486400)
I0923 20:28:11.959439 17252 net.cpp:137] Memory required for data: 118682800
I0923 20:28:11.959439 17252 layer_factory.cpp:58] Creating layer conv4
I0923 20:28:11.959439 17252 net.cpp:84] Creating Layer conv4
I0923 20:28:11.959439 17252 net.cpp:406] conv4 <- conv3_1
I0923 20:28:11.959439 17252 net.cpp:380] conv4 -> conv4
I0923 20:28:11.960453 17252 net.cpp:122] Setting up conv4
I0923 20:28:11.960453 17252 net.cpp:129] Top shape: 100 19 16 16 (486400)
I0923 20:28:11.960453 17252 net.cpp:137] Memory required for data: 120628400
I0923 20:28:11.960453 17252 layer_factory.cpp:58] Creating layer bn4
I0923 20:28:11.960942 17252 net.cpp:84] Creating Layer bn4
I0923 20:28:11.960942 17252 net.cpp:406] bn4 <- conv4
I0923 20:28:11.960942 17252 net.cpp:367] bn4 -> conv4 (in-place)
I0923 20:28:11.960942 17252 net.cpp:122] Setting up bn4
I0923 20:28:11.960942 17252 net.cpp:129] Top shape: 100 19 16 16 (486400)
I0923 20:28:11.960942 17252 net.cpp:137] Memory required for data: 122574000
I0923 20:28:11.960942 17252 layer_factory.cpp:58] Creating layer scale4
I0923 20:28:11.960942 17252 net.cpp:84] Creating Layer scale4
I0923 20:28:11.960942 17252 net.cpp:406] scale4 <- conv4
I0923 20:28:11.960942 17252 net.cpp:367] scale4 -> conv4 (in-place)
I0923 20:28:11.960942 17252 layer_factory.cpp:58] Creating layer scale4
I0923 20:28:11.960942 17252 net.cpp:122] Setting up scale4
I0923 20:28:11.960942 17252 net.cpp:129] Top shape: 100 19 16 16 (486400)
I0923 20:28:11.960942 17252 net.cpp:137] Memory required for data: 124519600
I0923 20:28:11.960942 17252 layer_factory.cpp:58] Creating layer relu4
I0923 20:28:11.960942 17252 net.cpp:84] Creating Layer relu4
I0923 20:28:11.961441 17252 net.cpp:406] relu4 <- conv4
I0923 20:28:11.961441 17252 net.cpp:367] relu4 -> conv4 (in-place)
I0923 20:28:11.961441 17252 net.cpp:122] Setting up relu4
I0923 20:28:11.961441 17252 net.cpp:129] Top shape: 100 19 16 16 (486400)
I0923 20:28:11.961441 17252 net.cpp:137] Memory required for data: 126465200
I0923 20:28:11.961441 17252 layer_factory.cpp:58] Creating layer conv4_1
I0923 20:28:11.961441 17252 net.cpp:84] Creating Layer conv4_1
I0923 20:28:11.961441 17252 net.cpp:406] conv4_1 <- conv4
I0923 20:28:11.961941 17252 net.cpp:380] conv4_1 -> conv4_1
I0923 20:28:11.962443 17252 net.cpp:122] Setting up conv4_1
I0923 20:28:11.962443 17252 net.cpp:129] Top shape: 100 19 16 16 (486400)
I0923 20:28:11.962443 17252 net.cpp:137] Memory required for data: 128410800
I0923 20:28:11.962443 17252 layer_factory.cpp:58] Creating layer bn4_1
I0923 20:28:11.962443 17252 net.cpp:84] Creating Layer bn4_1
I0923 20:28:11.962443 17252 net.cpp:406] bn4_1 <- conv4_1
I0923 20:28:11.962443 17252 net.cpp:367] bn4_1 -> conv4_1 (in-place)
I0923 20:28:11.962443 17252 net.cpp:122] Setting up bn4_1
I0923 20:28:11.962443 17252 net.cpp:129] Top shape: 100 19 16 16 (486400)
I0923 20:28:11.962443 17252 net.cpp:137] Memory required for data: 130356400
I0923 20:28:11.962443 17252 layer_factory.cpp:58] Creating layer scale4_1
I0923 20:28:11.962942 17252 net.cpp:84] Creating Layer scale4_1
I0923 20:28:11.962942 17252 net.cpp:406] scale4_1 <- conv4_1
I0923 20:28:11.962942 17252 net.cpp:367] scale4_1 -> conv4_1 (in-place)
I0923 20:28:11.962942 17252 layer_factory.cpp:58] Creating layer scale4_1
I0923 20:28:11.962942 17252 net.cpp:122] Setting up scale4_1
I0923 20:28:11.962942 17252 net.cpp:129] Top shape: 100 19 16 16 (486400)
I0923 20:28:11.962942 17252 net.cpp:137] Memory required for data: 132302000
I0923 20:28:11.962942 17252 layer_factory.cpp:58] Creating layer relu4_1
I0923 20:28:11.962942 17252 net.cpp:84] Creating Layer relu4_1
I0923 20:28:11.962942 17252 net.cpp:406] relu4_1 <- conv4_1
I0923 20:28:11.962942 17252 net.cpp:367] relu4_1 -> conv4_1 (in-place)
I0923 20:28:11.963326 17252 net.cpp:122] Setting up relu4_1
I0923 20:28:11.963326 17252 net.cpp:129] Top shape: 100 19 16 16 (486400)
I0923 20:28:11.963326 17252 net.cpp:137] Memory required for data: 134247600
I0923 20:28:11.963326 17252 layer_factory.cpp:58] Creating layer conv4_2
I0923 20:28:11.963326 17252 net.cpp:84] Creating Layer conv4_2
I0923 20:28:11.963326 17252 net.cpp:406] conv4_2 <- conv4_1
I0923 20:28:11.963326 17252 net.cpp:380] conv4_2 -> conv4_2
I0923 20:28:11.964843 17252 net.cpp:122] Setting up conv4_2
I0923 20:28:11.964843 17252 net.cpp:129] Top shape: 100 28 16 16 (716800)
I0923 20:28:11.964843 17252 net.cpp:137] Memory required for data: 137114800
I0923 20:28:11.964843 17252 layer_factory.cpp:58] Creating layer bn4_2
I0923 20:28:11.964843 17252 net.cpp:84] Creating Layer bn4_2
I0923 20:28:11.964843 17252 net.cpp:406] bn4_2 <- conv4_2
I0923 20:28:11.964843 17252 net.cpp:367] bn4_2 -> conv4_2 (in-place)
I0923 20:28:11.964843 17252 net.cpp:122] Setting up bn4_2
I0923 20:28:11.964843 17252 net.cpp:129] Top shape: 100 28 16 16 (716800)
I0923 20:28:11.964843 17252 net.cpp:137] Memory required for data: 139982000
I0923 20:28:11.964843 17252 layer_factory.cpp:58] Creating layer scale4_2
I0923 20:28:11.964843 17252 net.cpp:84] Creating Layer scale4_2
I0923 20:28:11.964843 17252 net.cpp:406] scale4_2 <- conv4_2
I0923 20:28:11.965359 17252 net.cpp:367] scale4_2 -> conv4_2 (in-place)
I0923 20:28:11.965359 17252 layer_factory.cpp:58] Creating layer scale4_2
I0923 20:28:11.965359 17252 net.cpp:122] Setting up scale4_2
I0923 20:28:11.965359 17252 net.cpp:129] Top shape: 100 28 16 16 (716800)
I0923 20:28:11.965359 17252 net.cpp:137] Memory required for data: 142849200
I0923 20:28:11.965359 17252 layer_factory.cpp:58] Creating layer relu4_2
I0923 20:28:11.965359 17252 net.cpp:84] Creating Layer relu4_2
I0923 20:28:11.965359 17252 net.cpp:406] relu4_2 <- conv4_2
I0923 20:28:11.965359 17252 net.cpp:367] relu4_2 -> conv4_2 (in-place)
I0923 20:28:11.965359 17252 net.cpp:122] Setting up relu4_2
I0923 20:28:11.965359 17252 net.cpp:129] Top shape: 100 28 16 16 (716800)
I0923 20:28:11.965359 17252 net.cpp:137] Memory required for data: 145716400
I0923 20:28:11.965359 17252 layer_factory.cpp:58] Creating layer pool4_2
I0923 20:28:11.965359 17252 net.cpp:84] Creating Layer pool4_2
I0923 20:28:11.965359 17252 net.cpp:406] pool4_2 <- conv4_2
I0923 20:28:11.965359 17252 net.cpp:380] pool4_2 -> pool4_2
I0923 20:28:11.965859 17252 net.cpp:122] Setting up pool4_2
I0923 20:28:11.965859 17252 net.cpp:129] Top shape: 100 28 8 8 (179200)
I0923 20:28:11.965859 17252 net.cpp:137] Memory required for data: 146433200
I0923 20:28:11.965859 17252 layer_factory.cpp:58] Creating layer conv4_0
I0923 20:28:11.965859 17252 net.cpp:84] Creating Layer conv4_0
I0923 20:28:11.965859 17252 net.cpp:406] conv4_0 <- pool4_2
I0923 20:28:11.965859 17252 net.cpp:380] conv4_0 -> conv4_0
I0923 20:28:11.966615 17252 net.cpp:122] Setting up conv4_0
I0923 20:28:11.966615 17252 net.cpp:129] Top shape: 100 28 8 8 (179200)
I0923 20:28:11.966615 17252 net.cpp:137] Memory required for data: 147150000
I0923 20:28:11.966615 17252 layer_factory.cpp:58] Creating layer bn4_0
I0923 20:28:11.966615 17252 net.cpp:84] Creating Layer bn4_0
I0923 20:28:11.966615 17252 net.cpp:406] bn4_0 <- conv4_0
I0923 20:28:11.966615 17252 net.cpp:367] bn4_0 -> conv4_0 (in-place)
I0923 20:28:11.966615 17252 net.cpp:122] Setting up bn4_0
I0923 20:28:11.967116 17252 net.cpp:129] Top shape: 100 28 8 8 (179200)
I0923 20:28:11.967116 17252 net.cpp:137] Memory required for data: 147866800
I0923 20:28:11.967116 17252 layer_factory.cpp:58] Creating layer scale4_0
I0923 20:28:11.967116 17252 net.cpp:84] Creating Layer scale4_0
I0923 20:28:11.967116 17252 net.cpp:406] scale4_0 <- conv4_0
I0923 20:28:11.967116 17252 net.cpp:367] scale4_0 -> conv4_0 (in-place)
I0923 20:28:11.967116 17252 layer_factory.cpp:58] Creating layer scale4_0
I0923 20:28:11.967116 17252 net.cpp:122] Setting up scale4_0
I0923 20:28:11.967116 17252 net.cpp:129] Top shape: 100 28 8 8 (179200)
I0923 20:28:11.967116 17252 net.cpp:137] Memory required for data: 148583600
I0923 20:28:11.967116 17252 layer_factory.cpp:58] Creating layer relu4_0
I0923 20:28:11.967116 17252 net.cpp:84] Creating Layer relu4_0
I0923 20:28:11.967116 17252 net.cpp:406] relu4_0 <- conv4_0
I0923 20:28:11.967116 17252 net.cpp:367] relu4_0 -> conv4_0 (in-place)
I0923 20:28:11.967116 17252 net.cpp:122] Setting up relu4_0
I0923 20:28:11.967116 17252 net.cpp:129] Top shape: 100 28 8 8 (179200)
I0923 20:28:11.967116 17252 net.cpp:137] Memory required for data: 149300400
I0923 20:28:11.967116 17252 layer_factory.cpp:58] Creating layer conv11
I0923 20:28:11.967116 17252 net.cpp:84] Creating Layer conv11
I0923 20:28:11.967116 17252 net.cpp:406] conv11 <- conv4_0
I0923 20:28:11.967116 17252 net.cpp:380] conv11 -> conv11
I0923 20:28:11.968117 17252 net.cpp:122] Setting up conv11
I0923 20:28:11.968117 17252 net.cpp:129] Top shape: 100 35 8 8 (224000)
I0923 20:28:11.968117 17252 net.cpp:137] Memory required for data: 150196400
I0923 20:28:11.968117 17252 layer_factory.cpp:58] Creating layer bn_conv11
I0923 20:28:11.968117 17252 net.cpp:84] Creating Layer bn_conv11
I0923 20:28:11.968117 17252 net.cpp:406] bn_conv11 <- conv11
I0923 20:28:11.968117 17252 net.cpp:367] bn_conv11 -> conv11 (in-place)
I0923 20:28:11.968617 17252 net.cpp:122] Setting up bn_conv11
I0923 20:28:11.968617 17252 net.cpp:129] Top shape: 100 35 8 8 (224000)
I0923 20:28:11.968617 17252 net.cpp:137] Memory required for data: 151092400
I0923 20:28:11.968617 17252 layer_factory.cpp:58] Creating layer scale_conv11
I0923 20:28:11.968617 17252 net.cpp:84] Creating Layer scale_conv11
I0923 20:28:11.968617 17252 net.cpp:406] scale_conv11 <- conv11
I0923 20:28:11.968617 17252 net.cpp:367] scale_conv11 -> conv11 (in-place)
I0923 20:28:11.968617 17252 layer_factory.cpp:58] Creating layer scale_conv11
I0923 20:28:11.968617 17252 net.cpp:122] Setting up scale_conv11
I0923 20:28:11.968617 17252 net.cpp:129] Top shape: 100 35 8 8 (224000)
I0923 20:28:11.968617 17252 net.cpp:137] Memory required for data: 151988400
I0923 20:28:11.968617 17252 layer_factory.cpp:58] Creating layer relu_conv11
I0923 20:28:11.968617 17252 net.cpp:84] Creating Layer relu_conv11
I0923 20:28:11.968617 17252 net.cpp:406] relu_conv11 <- conv11
I0923 20:28:11.968617 17252 net.cpp:367] relu_conv11 -> conv11 (in-place)
I0923 20:28:11.969117 17252 net.cpp:122] Setting up relu_conv11
I0923 20:28:11.969117 17252 net.cpp:129] Top shape: 100 35 8 8 (224000)
I0923 20:28:11.969117 17252 net.cpp:137] Memory required for data: 152884400
I0923 20:28:11.969117 17252 layer_factory.cpp:58] Creating layer conv12
I0923 20:28:11.969117 17252 net.cpp:84] Creating Layer conv12
I0923 20:28:11.969117 17252 net.cpp:406] conv12 <- conv11
I0923 20:28:11.969117 17252 net.cpp:380] conv12 -> conv12
I0923 20:28:11.969779 17252 net.cpp:122] Setting up conv12
I0923 20:28:11.969779 17252 net.cpp:129] Top shape: 100 43 8 8 (275200)
I0923 20:28:11.970280 17252 net.cpp:137] Memory required for data: 153985200
I0923 20:28:11.970280 17252 layer_factory.cpp:58] Creating layer bn_conv12
I0923 20:28:11.970280 17252 net.cpp:84] Creating Layer bn_conv12
I0923 20:28:11.970280 17252 net.cpp:406] bn_conv12 <- conv12
I0923 20:28:11.970280 17252 net.cpp:367] bn_conv12 -> conv12 (in-place)
I0923 20:28:11.970280 17252 net.cpp:122] Setting up bn_conv12
I0923 20:28:11.970280 17252 net.cpp:129] Top shape: 100 43 8 8 (275200)
I0923 20:28:11.970280 17252 net.cpp:137] Memory required for data: 155086000
I0923 20:28:11.970280 17252 layer_factory.cpp:58] Creating layer scale_conv12
I0923 20:28:11.970280 17252 net.cpp:84] Creating Layer scale_conv12
I0923 20:28:11.970280 17252 net.cpp:406] scale_conv12 <- conv12
I0923 20:28:11.970280 17252 net.cpp:367] scale_conv12 -> conv12 (in-place)
I0923 20:28:11.970280 17252 layer_factory.cpp:58] Creating layer scale_conv12
I0923 20:28:11.970280 17252 net.cpp:122] Setting up scale_conv12
I0923 20:28:11.970280 17252 net.cpp:129] Top shape: 100 43 8 8 (275200)
I0923 20:28:11.970280 17252 net.cpp:137] Memory required for data: 156186800
I0923 20:28:11.970280 17252 layer_factory.cpp:58] Creating layer relu_conv12
I0923 20:28:11.970280 17252 net.cpp:84] Creating Layer relu_conv12
I0923 20:28:11.970280 17252 net.cpp:406] relu_conv12 <- conv12
I0923 20:28:11.970280 17252 net.cpp:367] relu_conv12 -> conv12 (in-place)
I0923 20:28:11.970782 17252 net.cpp:122] Setting up relu_conv12
I0923 20:28:11.970782 17252 net.cpp:129] Top shape: 100 43 8 8 (275200)
I0923 20:28:11.970782 17252 net.cpp:137] Memory required for data: 157287600
I0923 20:28:11.970782 17252 layer_factory.cpp:58] Creating layer poolcp6
I0923 20:28:11.970782 17252 net.cpp:84] Creating Layer poolcp6
I0923 20:28:11.970782 17252 net.cpp:406] poolcp6 <- conv12
I0923 20:28:11.970782 17252 net.cpp:380] poolcp6 -> poolcp6
I0923 20:28:11.970782 17252 net.cpp:122] Setting up poolcp6
I0923 20:28:11.970782 17252 net.cpp:129] Top shape: 100 43 1 1 (4300)
I0923 20:28:11.970782 17252 net.cpp:137] Memory required for data: 157304800
I0923 20:28:11.970782 17252 layer_factory.cpp:58] Creating layer ip1
I0923 20:28:11.970782 17252 net.cpp:84] Creating Layer ip1
I0923 20:28:11.970782 17252 net.cpp:406] ip1 <- poolcp6
I0923 20:28:11.970782 17252 net.cpp:380] ip1 -> ip1
I0923 20:28:11.970782 17252 net.cpp:122] Setting up ip1
I0923 20:28:11.970782 17252 net.cpp:129] Top shape: 100 10 (1000)
I0923 20:28:11.970782 17252 net.cpp:137] Memory required for data: 157308800
I0923 20:28:11.970782 17252 layer_factory.cpp:58] Creating layer ip1_ip1_0_split
I0923 20:28:11.970782 17252 net.cpp:84] Creating Layer ip1_ip1_0_split
I0923 20:28:11.970782 17252 net.cpp:406] ip1_ip1_0_split <- ip1
I0923 20:28:11.970782 17252 net.cpp:380] ip1_ip1_0_split -> ip1_ip1_0_split_0
I0923 20:28:11.970782 17252 net.cpp:380] ip1_ip1_0_split -> ip1_ip1_0_split_1
I0923 20:28:11.970782 17252 net.cpp:122] Setting up ip1_ip1_0_split
I0923 20:28:11.970782 17252 net.cpp:129] Top shape: 100 10 (1000)
I0923 20:28:11.970782 17252 net.cpp:129] Top shape: 100 10 (1000)
I0923 20:28:11.970782 17252 net.cpp:137] Memory required for data: 157316800
I0923 20:28:11.970782 17252 layer_factory.cpp:58] Creating layer accuracy_training
I0923 20:28:11.970782 17252 net.cpp:84] Creating Layer accuracy_training
I0923 20:28:11.970782 17252 net.cpp:406] accuracy_training <- ip1_ip1_0_split_0
I0923 20:28:11.970782 17252 net.cpp:406] accuracy_training <- label_cifar_1_split_0
…
