…
I1117 21:37:03.433531  8608 net.cpp:294] The NetState phase (0) differed from the phase (1) specified by a rule in layer accuracy
I1117 21:37:03.434530  8608 net.cpp:51] Initializing net from parameters: 
name: "CIFAR10_SimpleNet_GP_13L_drpall_8Mil_66_DRP_After_Pooling"
state {
  phase: TRAIN
  level: 0
  stage: ""
}
layer {
  name: "cifar"
  type: "Data"
  top: "data"
  top: "label"
  include {
    phase: TRAIN
  }
  transform_param {
    mirror: true
    crop_size: 32
  }
  data_param {
    source: "examples/cifar10/cifar10_train_leveldb_padding"
    batch_size: 100
    backend: LEVELDB
  }
}
layer {
  name: "conv1"
  type: "Convolution"
  bottom: "data"
  top: "conv1"
  param {
    lr_mult: 1
  }
  convolution_param {
    num_output: 128
    bias_term: true
    pad: 1
    kernel_size: 3
    stride: 1
    weight_filler {
      type: "xavier"
    }
  }
}
layer {
  name: "bn1"
  type: "BatchNorm"
  bottom: "conv1"
  top: "conv1"
  param {
    lr_mult: 0
    decay_mult: 0
  }
  param {
    lr_mult: 0
    decay_mult: 0
  }
  param {
    lr_mult: 0
    decay_mult: 0
  }
  include {
    phase: TRAIN
  }
  batch_norm_param {
    use_global_stats: false
    moving_average_fraction: 0.95
  }
}
layer {
  name: "scale1"
  type: "Scale"
  bottom: "conv1"
  top: "conv1"
  scale_param {
    bias_term: true
  }
}
layer {
  name: "relu1"
  type: "ReLU"
  bottom: "conv1"
  top: "conv1"
}
layer {
  name: "drop1"
  type: "Dropout"
  bottom: "conv1"
  top: "conv1"
  dropout_param {
    dropout_ratio: 0.2
  }
}
layer {
  name: "conv1_0"
  type: "Convolution"
  bottom: "conv1"
  top: "conv1_0"
  param {
    lr_mult: 1
  }
  convolution_param {
    num_output: 182
    bias_term: true
    pad: 1
    kernel_size: 3
    stride: 1
    weight_filler {
      type: "xavier"
    }
  }
}
layer {
  name: "bn1_0"
  type: "BatchNorm"
  bottom: "conv1_0"
  top: "conv1_0"
  param {
    lr_mult: 0
    decay_mult: 0
  }
  param {
    lr_mult: 0
    decay_mult: 0
  }
  param {
    lr_mult: 0
    decay_mult: 0
  }
  include {
    phase: TRAIN
  }
  batch_norm_param {
    use_global_stats: false
    moving_average_fraction: 0.95
  }
}
layer {
  name: "scale1_0"
  type: "Scale"
  bottom: "conv1_0"
  top: "conv1_0"
  scale_param {
    bias_term: true
  }
}
layer {
  name: "relu1_0"
  type: "ReLU"
  bottom: "conv1_0"
  top: "conv1_0"
}
layer {
  name: "drop2"
  type: "Dropout"
  bottom: "conv1_0"
  top: "conv1_0"
  dropout_param {
    dropout_ratio: 0.2
  }
}
layer {
  name: "conv2"
  type: "Convolution"
  bottom: "conv1_0"
  top: "conv2"
  param {
    lr_mult: 1
  }
  convolution_param {
    num_output: 182
    bias_term: true
    pad: 1
    kernel_size: 3
    stride: 1
    weight_filler {
      type: "gaussian"
      std: 0.01
    }
  }
}
layer {
  name: "bn2"
  type: "BatchNorm"
  bottom: "conv2"
  top: "conv2"
  param {
    lr_mult: 0
    decay_mult: 0
  }
  param {
    lr_mult: 0
    decay_mult: 0
  }
  param {
    lr_mult: 0
    decay_mult: 0
  }
  include {
    phase: TRAIN
  }
  batch_norm_param {
    use_global_stats: false
    moving_average_fraction: 0.95
  }
}
layer {
  name: "scale2"
  type: "Scale"
  bottom: "conv2"
  top: "conv2"
  scale_param {
    bias_term: true
  }
}
layer {
  name: "relu2"
  type: "ReLU"
  bottom: "conv2"
  top: "conv2"
}
layer {
  name: "drop3"
  type: "Dropout"
  bottom: "conv2"
  top: "conv2"
  dropout_param {
    dropout_ratio: 0.2
  }
}
layer {
  name: "conv2_1"
  type: "Convolution"
  bottom: "conv2"
  top: "conv2_1"
  param {
    lr_mult: 1
  }
  convolution_param {
    num_output: 182
    bias_term: true
    pad: 1
    kernel_size: 3
    stride: 1
    weight_filler {
      type: "gaussian"
      std: 0.01
    }
  }
}
layer {
  name: "bn2_1"
  type: "BatchNorm"
  bottom: "conv2_1"
  top: "conv2_1"
  param {
    lr_mult: 0
    decay_mult: 0
  }
  param {
    lr_mult: 0
    decay_mult: 0
  }
  param {
    lr_mult: 0
    decay_mult: 0
  }
  include {
    phase: TRAIN
  }
  batch_norm_param {
    use_global_stats: false
    moving_average_fraction: 0.95
  }
}
layer {
  name: "scale2_1"
  type: "Scale"
  bottom: "conv2_1"
  top: "conv2_1"
  scale_param {
    bias_term: true
  }
}
layer {
  name: "relu2_1"
  type: "ReLU"
  bottom: "conv2_1"
  top: "conv2_1"
}
layer {
  name: "drop4"
  type: "Dropout"
  bottom: "conv2_1"
  top: "conv2_1"
  dropout_param {
    dropout_ratio: 0.2
  }
}
layer {
  name: "conv2_2"
  type: "Convolution"
  bottom: "conv2_1"
  top: "conv2_2"
  param {
    lr_mult: 1
  }
  convolution_param {
    num_output: 182
    bias_term: true
    pad: 1
    kernel_size: 3
    stride: 1
    weight_filler {
      type: "gaussian"
      std: 0.01
    }
  }
}
layer {
  name: "bn2_2"
  type: "BatchNorm"
  bottom: "conv2_2"
  top: "conv2_2"
  param {
    lr_mult: 0
    decay_mult: 0
  }
  param {
    lr_mult: 0
    decay_mult: 0
  }
  param {
    lr_mult: 0
    decay_mult: 0
  }
  include {
    phase: TRAIN
  }
  batch_norm_param {
    use_global_stats: false
    moving_average_fraction: 0.95
  }
}
layer {
  name: "scale2_2"
  type: "Scale"
  bottom: "conv2_2"
  top: "conv2_2"
  scale_param {
    bias_term: true
  }
}
layer {
  name: "relu2_2"
  type: "ReLU"
  bottom: "conv2_2"
  top: "conv2_2"
}
layer {
  name: "pool2_1"
  type: "Pooling"
  bottom: "conv2_2"
  top: "pool2_1"
  pooling_param {
    pool: MAX
    kernel_size: 2
    stride: 2
  }
}
layer {
  name: "drop5"
  type: "Dropout"
  bottom: "pool2_1"
  top: "pool2_1"
  dropout_param {
    dropout_ratio: 0.2
  }
}
layer {
  name: "conv3"
  type: "Convolution"
  bottom: "pool2_1"
  top: "conv3"
  param {
    lr_mult: 1
  }
  convolution_param {
    num_output: 182
    bias_term: true
    pad: 1
    kernel_size: 3
    stride: 1
    weight_filler {
      type: "xavier"
    }
  }
}
layer {
  name: "bn3"
  type: "BatchNorm"
  bottom: "conv3"
  top: "conv3"
  param {
    lr_mult: 0
    decay_mult: 0
  }
  param {
    lr_mult: 0
    decay_mult: 0
  }
  param {
    lr_mult: 0
    decay_mult: 0
  }
  include {
    phase: TRAIN
  }
  batch_norm_param {
    use_global_stats: false
    moving_average_fraction: 0.95
  }
}
layer {
  name: "scale3"
  type: "Scale"
  bottom: "conv3"
  top: "conv3"
  scale_param {
    bias_term: true
  }
}
layer {
  name: "relu3"
  type: "ReLU"
  bottom: "conv3"
  top: "conv3"
}
layer {
  name: "drop6"
  type: "Dropout"
  bottom: "conv3"
  top: "conv3"
  dropout_param {
    dropout_ratio: 0.2
  }
}
layer {
  name: "conv3_1"
  type: "Convolution"
  bottom: "conv3"
  top: "conv3_1"
  param {
    lr_mult: 1
  }
  convolution_param {
    num_output: 182
    bias_term: true
    pad: 1
    kernel_size: 3
    stride: 1
    weight_filler {
      type: "xavier"
    }
  }
}
layer {
  name: "bn3_1"
  type: "BatchNorm"
  bottom: "conv3_1"
  top: "conv3_1"
  param {
    lr_mult: 0
    decay_mult: 0
  }
  param {
    lr_mult: 0
    decay_mult: 0
  }
  param {
    lr_mult: 0
    decay_mult: 0
  }
  include {
    phase: TRAIN
  }
  batch_norm_param {
    use_global_stats: false
    moving_average_fraction: 0.95
  }
}
layer {
  name: "scale3_1"
  type: "Scale"
  bottom: "conv3_1"
  top: "conv3_1"
  scale_param {
    bias_term: true
  }
}
layer {
  name: "relu3_1"
  type: "ReLU"
  bottom: "conv3_1"
  top: "conv3_1"
}
layer {
  name: "drop6_1"
  type: "Dropout"
  bottom: "conv3_1"
  top: "conv3_1"
  dropout_param {
    dropout_ratio: 0.2
  }
}
layer {
  name: "conv4"
  type: "Convolution"
  bottom: "conv3_1"
  top: "conv4"
  param {
    lr_mult: 1
  }
  convolution_param {
    num_output: 182
    bias_term: true
    pad: 1
    kernel_size: 3
    stride: 1
    weight_filler {
      type: "xavier"
    }
  }
}
layer {
  name: "bn4"
  type: "BatchNorm"
  bottom: "conv4"
  top: "conv4"
  param {
    lr_mult: 0
    decay_mult: 0
  }
  param {
    lr_mult: 0
    decay_mult: 0
  }
  param {
    lr_mult: 0
    decay_mult: 0
  }
  include {
    phase: TRAIN
  }
  batch_norm_param {
    use_global_stats: false
    moving_average_fraction: 0.95
  }
}
layer {
  name: "scale4"
  type: "Scale"
  bottom: "conv4"
  top: "conv4"
  scale_param {
    bias_term: true
  }
}
layer {
  name: "relu4"
  type: "ReLU"
  bottom: "conv4"
  top: "conv4"
}
layer {
  name: "drop7"
  type: "Dropout"
  bottom: "conv4"
  top: "conv4"
  dropout_param {
    dropout_ratio: 0.2
  }
}
layer {
  name: "conv4_1"
  type: "Convolution"
  bottom: "conv4"
  top: "conv4_1"
  param {
    lr_mult: 1
  }
  convolution_param {
    num_output: 182
    bias_term: true
    pad: 1
    kernel_size: 3
    stride: 1
    weight_filler {
      type: "xavier"
    }
  }
}
layer {
  name: "bn4_1"
  type: "BatchNorm"
  bottom: "conv4_1"
  top: "conv4_1"
  param {
    lr_mult: 0
    decay_mult: 0
  }
  param {
    lr_mult: 0
    decay_mult: 0
  }
  param {
    lr_mult: 0
    decay_mult: 0
  }
  include {
    phase: TRAIN
  }
  batch_norm_param {
    use_global_stats: false
    moving_average_fraction: 0.95
  }
}
layer {
  name: "scale4_1"
  type: "Scale"
  bottom: "conv4_1"
  top: "conv4_1"
  scale_param {
    bias_term: true
  }
}
layer {
  name: "relu4_1"
  type: "ReLU"
  bottom: "conv4_1"
  top: "conv4_1"
}
layer {
  name: "drop8"
  type: "Dropout"
  bottom: "conv4_1"
  top: "conv4_1"
  dropout_param {
    dropout_ratio: 0.2
  }
}
layer {
  name: "conv4_2"
  type: "Convolution"
  bottom: "conv4_1"
  top: "conv4_2"
  param {
    lr_mult: 1
  }
  convolution_param {
    num_output: 430
    bias_term: true
    pad: 1
    kernel_size: 3
    stride: 1
    weight_filler {
      type: "xavier"
    }
  }
}
layer {
  name: "bn4_2"
  type: "BatchNorm"
  bottom: "conv4_2"
  top: "conv4_2"
  param {
    lr_mult: 0
    decay_mult: 0
  }
  param {
    lr_mult: 0
    decay_mult: 0
  }
  param {
    lr_mult: 0
    decay_mult: 0
  }
  include {
    phase: TRAIN
  }
  batch_norm_param {
    use_global_stats: false
    moving_average_fraction: 0.95
  }
}
layer {
  name: "scale4_2"
  type: "Scale"
  bottom: "conv4_2"
  top: "conv4_2"
  scale_param {
    bias_term: true
  }
}
layer {
  name: "relu4_2"
  type: "ReLU"
  bottom: "conv4_2"
  top: "conv4_2"
}
layer {
  name: "pool4_2"
  type: "Pooling"
  bottom: "conv4_2"
  top: "pool4_2"
  pooling_param {
    pool: MAX
    kernel_size: 2
    stride: 2
  }
}
layer {
  name: "drop9"
  type: "Dropout"
  bottom: "pool4_2"
  top: "pool4_2"
  dropout_param {
    dropout_ratio: 0.2
  }
}
layer {
  name: "conv4_0"
  type: "Convolution"
  bottom: "pool4_2"
  top: "conv4_0"
  param {
    lr_mult: 1
  }
  convolution_param {
    num_output: 430
    bias_term: true
    pad: 1
    kernel_size: 3
    stride: 1
    weight_filler {
      type: "xavier"
    }
  }
}
layer {
  name: "bn4_0"
  type: "BatchNorm"
  bottom: "conv4_0"
  top: "conv4_0"
  param {
    lr_mult: 0
    decay_mult: 0
  }
  param {
    lr_mult: 0
    decay_mult: 0
  }
  param {
    lr_mult: 0
    decay_mult: 0
  }
  include {
    phase: TRAIN
  }
  batch_norm_param {
    use_global_stats: false
    moving_average_fraction: 0.95
  }
}
layer {
  name: "scale4_0"
  type: "Scale"
  bottom: "conv4_0"
  top: "conv4_0"
  scale_param {
    bias_term: true
  }
}
layer {
  name: "relu4_0"
  type: "ReLU"
  bottom: "conv4_0"
  top: "conv4_0"
}
layer {
  name: "drop10"
  type: "Dropout"
  bottom: "conv4_0"
  top: "conv4_0"
  dropout_param {
    dropout_ratio: 0.2
  }
}
layer {
  name: "conv11"
  type: "Convolution"
  bottom: "conv4_0"
  top: "conv11"
  param {
    lr_mult: 1
    decay_mult: 1
  }
  param {
    lr_mult: 2
    decay_mult: 0
  }
  convolution_param {
    num_output: 455
    pad: 1
    kernel_size: 3
    weight_filler {
      type: "xavier"
    }
    bias_filler {
      type: "constant"
      value: 0
    }
  }
}
layer {
  name: "bn_conv11"
  type: "BatchNorm"
  bottom: "conv11"
  top: "conv11"
  param {
    lr_mult: 0
    decay_mult: 0
  }
  param {
    lr_mult: 0
    decay_mult: 0
  }
  param {
    lr_mult: 0
    decay_mult: 0
  }
  include {
    phase: TRAIN
  }
  batch_norm_param {
    use_global_stats: false
    moving_average_fraction: 0.95
  }
}
layer {
  name: "scale_conv11"
  type: "Scale"
  bottom: "conv11"
  top: "conv11"
  scale_param {
    bias_term: true
  }
}
layer {
  name: "relu_conv11"
  type: "ReLU"
  bottom: "conv11"
  top: "conv11"
}
layer {
  name: "drop11"
  type: "Dropout"
  bottom: "conv11"
  top: "conv11"
  dropout_param {
    dropout_ratio: 0.2
  }
}
layer {
  name: "conv12"
  type: "Convolution"
  bottom: "conv11"
  top: "conv12"
  param {
    lr_mult: 1
    decay_mult: 1
  }
  param {
    lr_mult: 2
    decay_mult: 0
  }
  convolution_param {
    num_output: 600
    pad: 1
    kernel_size: 3
    weight_filler {
      type: "xavier"
    }
    bias_filler {
      type: "constant"
      value: 0
    }
  }
}
layer {
  name: "bn_conv12"
  type: "BatchNorm"
  bottom: "conv12"
  top: "conv12"
  param {
    lr_mult: 0
    decay_mult: 0
  }
  param {
    lr_mult: 0
    decay_mult: 0
  }
  param {
    lr_mult: 0
    decay_mult: 0
  }
  include {
    phase: TRAIN
  }
  batch_norm_param {
    use_global_stats: false
    moving_average_fraction: 0.95
  }
}
layer {
  name: "scale_conv12"
  type: "Scale"
  bottom: "conv12"
  top: "conv12"
  scale_param {
    bias_term: true
  }
}
layer {
  name: "relu_conv12"
  type: "ReLU"
  bottom: "conv12"
  top: "conv12"
}
layer {
  name: "poolcp6"
  type: "Pooling"
  bottom: "conv12"
  top: "poolcp6"
  pooling_param {
    pool: MAX
    global_pooling: true
  }
}
layer {
  name: "drop12"
  type: "Dropout"
  bottom: "poolcp6"
  top: "poolcp6"
  dropout_param {
    dropout_ratio: 0.2
  }
}
layer {
  name: "ip1"
  type: "InnerProduct"
  bottom: "poolcp6"
  top: "ip1"
  param {
    lr_mult: 1
    decay_mult: 0
  }
  param {
    lr_mult: 2
    decay_mult: 0
  }
  inner_product_param {
    num_output: 10
    weight_filler {
      type: "xavier"
    }
    bias_filler {
      type: "constant"
    }
  }
}
layer {
  name: "accuracy_training"
  type: "Accuracy"
  bottom: "ip1"
  bottom: "label"
  top: "accuracy_training"
  include {
    phase: TRAIN
  }
}
layer {
  name: "loss"
  type: "SoftmaxWithLoss"
  bottom: "ip1"
  bottom: "label"
  top: "loss"
}
I1117 21:37:06.398174  8608 layer_factory.cpp:58] Creating layer cifar
I1117 21:37:06.403172  8608 db_leveldb.cpp:18] Opened leveldb examples/cifar10/cifar10_train_leveldb_padding
I1117 21:37:06.404178  8608 net.cpp:84] Creating Layer cifar
I1117 21:37:06.404178  8608 net.cpp:380] cifar -> data
I1117 21:37:06.404178  8608 net.cpp:380] cifar -> label
I1117 21:37:06.405174  8608 data_layer.cpp:45] output data size: 100,3,32,32
I1117 21:37:06.415171  8608 net.cpp:122] Setting up cifar
I1117 21:37:06.415171  8608 net.cpp:129] Top shape: 100 3 32 32 (307200)
I1117 21:37:06.415171  8608 net.cpp:129] Top shape: 100 (100)
I1117 21:37:06.415171  8608 net.cpp:137] Memory required for data: 1229200
I1117 21:37:06.415171  8608 layer_factory.cpp:58] Creating layer label_cifar_1_split
I1117 21:37:06.415171  8608 net.cpp:84] Creating Layer label_cifar_1_split
I1117 21:37:06.415171  8608 net.cpp:406] label_cifar_1_split <- label
I1117 21:37:06.415171  8608 net.cpp:380] label_cifar_1_split -> label_cifar_1_split_0
I1117 21:37:06.415171  8608 net.cpp:380] label_cifar_1_split -> label_cifar_1_split_1
I1117 21:37:06.415171  8608 net.cpp:122] Setting up label_cifar_1_split
I1117 21:37:06.415171  8608 net.cpp:129] Top shape: 100 (100)
I1117 21:37:06.415171  8608 net.cpp:129] Top shape: 100 (100)
I1117 21:37:06.415171  8608 net.cpp:137] Memory required for data: 1230000
I1117 21:37:06.415171  8608 layer_factory.cpp:58] Creating layer conv1
I1117 21:37:06.415171  8608 net.cpp:84] Creating Layer conv1
I1117 21:37:06.415171  8608 net.cpp:406] conv1 <- data
I1117 21:37:06.415171  8608 net.cpp:380] conv1 -> conv1
I1117 21:37:06.416172 15624 common.cpp:36] System entropy source not available, using fallback algorithm to generate seed instead.
I1117 21:37:06.726196  8608 net.cpp:122] Setting up conv1
I1117 21:37:06.726196  8608 net.cpp:129] Top shape: 100 128 32 32 (13107200)
I1117 21:37:06.726196  8608 net.cpp:137] Memory required for data: 53658800
I1117 21:37:06.726196  8608 layer_factory.cpp:58] Creating layer bn1
I1117 21:37:06.726196  8608 net.cpp:84] Creating Layer bn1
I1117 21:37:06.726196  8608 net.cpp:406] bn1 <- conv1
I1117 21:37:06.726696  8608 net.cpp:367] bn1 -> conv1 (in-place)
I1117 21:37:06.726696  8608 net.cpp:122] Setting up bn1
I1117 21:37:06.726696  8608 net.cpp:129] Top shape: 100 128 32 32 (13107200)
I1117 21:37:06.726696  8608 net.cpp:137] Memory required for data: 106087600
I1117 21:37:06.726696  8608 layer_factory.cpp:58] Creating layer scale1
I1117 21:37:06.726696  8608 net.cpp:84] Creating Layer scale1
I1117 21:37:06.726696  8608 net.cpp:406] scale1 <- conv1
I1117 21:37:06.726696  8608 net.cpp:367] scale1 -> conv1 (in-place)
I1117 21:37:06.726696  8608 layer_factory.cpp:58] Creating layer scale1
I1117 21:37:06.726696  8608 net.cpp:122] Setting up scale1
I1117 21:37:06.726696  8608 net.cpp:129] Top shape: 100 128 32 32 (13107200)
I1117 21:37:06.726696  8608 net.cpp:137] Memory required for data: 158516400
I1117 21:37:06.726696  8608 layer_factory.cpp:58] Creating layer relu1
I1117 21:37:06.726696  8608 net.cpp:84] Creating Layer relu1
I1117 21:37:06.726696  8608 net.cpp:406] relu1 <- conv1
I1117 21:37:06.726696  8608 net.cpp:367] relu1 -> conv1 (in-place)
I1117 21:37:06.727198  8608 net.cpp:122] Setting up relu1
I1117 21:37:06.727198  8608 net.cpp:129] Top shape: 100 128 32 32 (13107200)
I1117 21:37:06.727198  8608 net.cpp:137] Memory required for data: 210945200
I1117 21:37:06.727198  8608 layer_factory.cpp:58] Creating layer drop1
I1117 21:37:06.727198  8608 net.cpp:84] Creating Layer drop1
I1117 21:37:06.727198  8608 net.cpp:406] drop1 <- conv1
I1117 21:37:06.727198  8608 net.cpp:367] drop1 -> conv1 (in-place)
I1117 21:37:06.727198  8608 net.cpp:122] Setting up drop1
I1117 21:37:06.727198  8608 net.cpp:129] Top shape: 100 128 32 32 (13107200)
I1117 21:37:06.727198  8608 net.cpp:137] Memory required for data: 263374000
I1117 21:37:06.727198  8608 layer_factory.cpp:58] Creating layer conv1_0
I1117 21:37:06.727198  8608 net.cpp:84] Creating Layer conv1_0
I1117 21:37:06.727198  8608 net.cpp:406] conv1_0 <- conv1
I1117 21:37:06.727198  8608 net.cpp:380] conv1_0 -> conv1_0
I1117 21:37:06.730195  8608 net.cpp:122] Setting up conv1_0
I1117 21:37:06.730195  8608 net.cpp:129] Top shape: 100 182 32 32 (18636800)
I1117 21:37:06.730695  8608 net.cpp:137] Memory required for data: 337921200
I1117 21:37:06.730695  8608 layer_factory.cpp:58] Creating layer bn1_0
I1117 21:37:06.730695  8608 net.cpp:84] Creating Layer bn1_0
I1117 21:37:06.730695  8608 net.cpp:406] bn1_0 <- conv1_0
I1117 21:37:06.730695  8608 net.cpp:367] bn1_0 -> conv1_0 (in-place)
I1117 21:37:06.730695  8608 net.cpp:122] Setting up bn1_0
I1117 21:37:06.730695  8608 net.cpp:129] Top shape: 100 182 32 32 (18636800)
I1117 21:37:06.730695  8608 net.cpp:137] Memory required for data: 412468400
I1117 21:37:06.730695  8608 layer_factory.cpp:58] Creating layer scale1_0
I1117 21:37:06.730695  8608 net.cpp:84] Creating Layer scale1_0
I1117 21:37:06.730695  8608 net.cpp:406] scale1_0 <- conv1_0
I1117 21:37:06.730695  8608 net.cpp:367] scale1_0 -> conv1_0 (in-place)
I1117 21:37:06.730695  8608 layer_factory.cpp:58] Creating layer scale1_0
I1117 21:37:06.731194  8608 net.cpp:122] Setting up scale1_0
I1117 21:37:06.731194  8608 net.cpp:129] Top shape: 100 182 32 32 (18636800)
I1117 21:37:06.731194  8608 net.cpp:137] Memory required for data: 487015600
I1117 21:37:06.731194  8608 layer_factory.cpp:58] Creating layer relu1_0
I1117 21:37:06.731194  8608 net.cpp:84] Creating Layer relu1_0
I1117 21:37:06.731194  8608 net.cpp:406] relu1_0 <- conv1_0
I1117 21:37:06.731194  8608 net.cpp:367] relu1_0 -> conv1_0 (in-place)
I1117 21:37:06.731695  8608 net.cpp:122] Setting up relu1_0
I1117 21:37:06.731695  8608 net.cpp:129] Top shape: 100 182 32 32 (18636800)
I1117 21:37:06.731695  8608 net.cpp:137] Memory required for data: 561562800
I1117 21:37:06.731695  8608 layer_factory.cpp:58] Creating layer drop2
I1117 21:37:06.731695  8608 net.cpp:84] Creating Layer drop2
I1117 21:37:06.731695  8608 net.cpp:406] drop2 <- conv1_0
I1117 21:37:06.731695  8608 net.cpp:367] drop2 -> conv1_0 (in-place)
I1117 21:37:06.731695  8608 net.cpp:122] Setting up drop2
I1117 21:37:06.731695  8608 net.cpp:129] Top shape: 100 182 32 32 (18636800)
I1117 21:37:06.731695  8608 net.cpp:137] Memory required for data: 636110000
I1117 21:37:06.731695  8608 layer_factory.cpp:58] Creating layer conv2
I1117 21:37:06.731695  8608 net.cpp:84] Creating Layer conv2
I1117 21:37:06.731695  8608 net.cpp:406] conv2 <- conv1_0
I1117 21:37:06.731695  8608 net.cpp:380] conv2 -> conv2
I1117 21:37:06.737694  8608 net.cpp:122] Setting up conv2
I1117 21:37:06.737694  8608 net.cpp:129] Top shape: 100 182 32 32 (18636800)
I1117 21:37:06.737694  8608 net.cpp:137] Memory required for data: 710657200
I1117 21:37:06.737694  8608 layer_factory.cpp:58] Creating layer bn2
I1117 21:37:06.737694  8608 net.cpp:84] Creating Layer bn2
I1117 21:37:06.737694  8608 net.cpp:406] bn2 <- conv2
I1117 21:37:06.737694  8608 net.cpp:367] bn2 -> conv2 (in-place)
I1117 21:37:06.738195  8608 net.cpp:122] Setting up bn2
I1117 21:37:06.738195  8608 net.cpp:129] Top shape: 100 182 32 32 (18636800)
I1117 21:37:06.738195  8608 net.cpp:137] Memory required for data: 785204400
I1117 21:37:06.738195  8608 layer_factory.cpp:58] Creating layer scale2
I1117 21:37:06.738195  8608 net.cpp:84] Creating Layer scale2
I1117 21:37:06.738195  8608 net.cpp:406] scale2 <- conv2
I1117 21:37:06.738195  8608 net.cpp:367] scale2 -> conv2 (in-place)
I1117 21:37:06.738195  8608 layer_factory.cpp:58] Creating layer scale2
I1117 21:37:06.738694  8608 net.cpp:122] Setting up scale2
I1117 21:37:06.738694  8608 net.cpp:129] Top shape: 100 182 32 32 (18636800)
I1117 21:37:06.738694  8608 net.cpp:137] Memory required for data: 859751600
I1117 21:37:06.738694  8608 layer_factory.cpp:58] Creating layer relu2
I1117 21:37:06.738694  8608 net.cpp:84] Creating Layer relu2
I1117 21:37:06.738694  8608 net.cpp:406] relu2 <- conv2
I1117 21:37:06.738694  8608 net.cpp:367] relu2 -> conv2 (in-place)
I1117 21:37:06.740198  8608 net.cpp:122] Setting up relu2
I1117 21:37:06.740198  8608 net.cpp:129] Top shape: 100 182 32 32 (18636800)
I1117 21:37:06.740198  8608 net.cpp:137] Memory required for data: 934298800
I1117 21:37:06.740198  8608 layer_factory.cpp:58] Creating layer drop3
I1117 21:37:06.740198  8608 net.cpp:84] Creating Layer drop3
I1117 21:37:06.740198  8608 net.cpp:406] drop3 <- conv2
I1117 21:37:06.740198  8608 net.cpp:367] drop3 -> conv2 (in-place)
I1117 21:37:06.740198  8608 net.cpp:122] Setting up drop3
I1117 21:37:06.740198  8608 net.cpp:129] Top shape: 100 182 32 32 (18636800)
I1117 21:37:06.740198  8608 net.cpp:137] Memory required for data: 1008846000
I1117 21:37:06.740198  8608 layer_factory.cpp:58] Creating layer conv2_1
I1117 21:37:06.740198  8608 net.cpp:84] Creating Layer conv2_1
I1117 21:37:06.740198  8608 net.cpp:406] conv2_1 <- conv2
I1117 21:37:06.740198  8608 net.cpp:380] conv2_1 -> conv2_1
I1117 21:37:06.745694  8608 net.cpp:122] Setting up conv2_1
I1117 21:37:06.745694  8608 net.cpp:129] Top shape: 100 182 32 32 (18636800)
I1117 21:37:06.745694  8608 net.cpp:137] Memory required for data: 1083393200
I1117 21:37:06.745694  8608 layer_factory.cpp:58] Creating layer bn2_1
I1117 21:37:06.745694  8608 net.cpp:84] Creating Layer bn2_1
I1117 21:37:06.745694  8608 net.cpp:406] bn2_1 <- conv2_1
I1117 21:37:06.745694  8608 net.cpp:367] bn2_1 -> conv2_1 (in-place)
I1117 21:37:06.746196  8608 net.cpp:122] Setting up bn2_1
I1117 21:37:06.746196  8608 net.cpp:129] Top shape: 100 182 32 32 (18636800)
I1117 21:37:06.746196  8608 net.cpp:137] Memory required for data: 1157940400
I1117 21:37:06.746196  8608 layer_factory.cpp:58] Creating layer scale2_1
I1117 21:37:06.746196  8608 net.cpp:84] Creating Layer scale2_1
I1117 21:37:06.746196  8608 net.cpp:406] scale2_1 <- conv2_1
I1117 21:37:06.746196  8608 net.cpp:367] scale2_1 -> conv2_1 (in-place)
I1117 21:37:06.746196  8608 layer_factory.cpp:58] Creating layer scale2_1
I1117 21:37:06.746695  8608 net.cpp:122] Setting up scale2_1
I1117 21:37:06.746695  8608 net.cpp:129] Top shape: 100 182 32 32 (18636800)
I1117 21:37:06.746695  8608 net.cpp:137] Memory required for data: 1232487600
I1117 21:37:06.746695  8608 layer_factory.cpp:58] Creating layer relu2_1
I1117 21:37:06.746695  8608 net.cpp:84] Creating Layer relu2_1
I1117 21:37:06.746695  8608 net.cpp:406] relu2_1 <- conv2_1
I1117 21:37:06.746695  8608 net.cpp:367] relu2_1 -> conv2_1 (in-place)
I1117 21:37:06.747195  8608 net.cpp:122] Setting up relu2_1
I1117 21:37:06.747195  8608 net.cpp:129] Top shape: 100 182 32 32 (18636800)
I1117 21:37:06.747195  8608 net.cpp:137] Memory required for data: 1307034800
I1117 21:37:06.747195  8608 layer_factory.cpp:58] Creating layer drop4
I1117 21:37:06.747195  8608 net.cpp:84] Creating Layer drop4
I1117 21:37:06.747195  8608 net.cpp:406] drop4 <- conv2_1
I1117 21:37:06.747195  8608 net.cpp:367] drop4 -> conv2_1 (in-place)
I1117 21:37:06.747195  8608 net.cpp:122] Setting up drop4
I1117 21:37:06.747694  8608 net.cpp:129] Top shape: 100 182 32 32 (18636800)
I1117 21:37:06.747694  8608 net.cpp:137] Memory required for data: 1381582000
I1117 21:37:06.747694  8608 layer_factory.cpp:58] Creating layer conv2_2
I1117 21:37:06.747694  8608 net.cpp:84] Creating Layer conv2_2
I1117 21:37:06.747694  8608 net.cpp:406] conv2_2 <- conv2_1
I1117 21:37:06.747694  8608 net.cpp:380] conv2_2 -> conv2_2
I1117 21:37:06.754695  8608 net.cpp:122] Setting up conv2_2
I1117 21:37:06.754695  8608 net.cpp:129] Top shape: 100 182 32 32 (18636800)
I1117 21:37:06.754695  8608 net.cpp:137] Memory required for data: 1456129200
I1117 21:37:06.754695  8608 layer_factory.cpp:58] Creating layer bn2_2
I1117 21:37:06.754695  8608 net.cpp:84] Creating Layer bn2_2
I1117 21:37:06.754695  8608 net.cpp:406] bn2_2 <- conv2_2
I1117 21:37:06.754695  8608 net.cpp:367] bn2_2 -> conv2_2 (in-place)
I1117 21:37:06.754695  8608 net.cpp:122] Setting up bn2_2
I1117 21:37:06.754695  8608 net.cpp:129] Top shape: 100 182 32 32 (18636800)
I1117 21:37:06.754695  8608 net.cpp:137] Memory required for data: 1530676400
I1117 21:37:06.754695  8608 layer_factory.cpp:58] Creating layer scale2_2
I1117 21:37:06.754695  8608 net.cpp:84] Creating Layer scale2_2
I1117 21:37:06.755197  8608 net.cpp:406] scale2_2 <- conv2_2
I1117 21:37:06.755197  8608 net.cpp:367] scale2_2 -> conv2_2 (in-place)
I1117 21:37:06.755197  8608 layer_factory.cpp:58] Creating layer scale2_2
I1117 21:37:06.755197  8608 net.cpp:122] Setting up scale2_2
I1117 21:37:06.755197  8608 net.cpp:129] Top shape: 100 182 32 32 (18636800)
I1117 21:37:06.755197  8608 net.cpp:137] Memory required for data: 1605223600
I1117 21:37:06.755197  8608 layer_factory.cpp:58] Creating layer relu2_2
I1117 21:37:06.755197  8608 net.cpp:84] Creating Layer relu2_2
I1117 21:37:06.755197  8608 net.cpp:406] relu2_2 <- conv2_2
I1117 21:37:06.755197  8608 net.cpp:367] relu2_2 -> conv2_2 (in-place)
I1117 21:37:06.755197  8608 net.cpp:122] Setting up relu2_2
I1117 21:37:06.755197  8608 net.cpp:129] Top shape: 100 182 32 32 (18636800)
I1117 21:37:06.755197  8608 net.cpp:137] Memory required for data: 1679770800
I1117 21:37:06.755197  8608 layer_factory.cpp:58] Creating layer pool2_1
I1117 21:37:06.755697  8608 net.cpp:84] Creating Layer pool2_1
I1117 21:37:06.755697  8608 net.cpp:406] pool2_1 <- conv2_2
I1117 21:37:06.755697  8608 net.cpp:380] pool2_1 -> pool2_1
I1117 21:37:06.755697  8608 net.cpp:122] Setting up pool2_1
I1117 21:37:06.755697  8608 net.cpp:129] Top shape: 100 182 16 16 (4659200)
I1117 21:37:06.755697  8608 net.cpp:137] Memory required for data: 1698407600
I1117 21:37:06.755697  8608 layer_factory.cpp:58] Creating layer drop5
I1117 21:37:06.755697  8608 net.cpp:84] Creating Layer drop5
I1117 21:37:06.755697  8608 net.cpp:406] drop5 <- pool2_1
I1117 21:37:06.755697  8608 net.cpp:367] drop5 -> pool2_1 (in-place)
I1117 21:37:06.755697  8608 net.cpp:122] Setting up drop5
I1117 21:37:06.755697  8608 net.cpp:129] Top shape: 100 182 16 16 (4659200)
I1117 21:37:06.755697  8608 net.cpp:137] Memory required for data: 1717044400
I1117 21:37:06.755697  8608 layer_factory.cpp:58] Creating layer conv3
I1117 21:37:06.755697  8608 net.cpp:84] Creating Layer conv3
I1117 21:37:06.755697  8608 net.cpp:406] conv3 <- pool2_1
I1117 21:37:06.755697  8608 net.cpp:380] conv3 -> conv3
I1117 21:37:06.759196  8608 net.cpp:122] Setting up conv3
I1117 21:37:06.759196  8608 net.cpp:129] Top shape: 100 182 16 16 (4659200)
I1117 21:37:06.759196  8608 net.cpp:137] Memory required for data: 1735681200
I1117 21:37:06.759696  8608 layer_factory.cpp:58] Creating layer bn3
I1117 21:37:06.759696  8608 net.cpp:84] Creating Layer bn3
I1117 21:37:06.759696  8608 net.cpp:406] bn3 <- conv3
I1117 21:37:06.759696  8608 net.cpp:367] bn3 -> conv3 (in-place)
I1117 21:37:06.759696  8608 net.cpp:122] Setting up bn3
I1117 21:37:06.759696  8608 net.cpp:129] Top shape: 100 182 16 16 (4659200)
I1117 21:37:06.759696  8608 net.cpp:137] Memory required for data: 1754318000
I1117 21:37:06.759696  8608 layer_factory.cpp:58] Creating layer scale3
I1117 21:37:06.759696  8608 net.cpp:84] Creating Layer scale3
I1117 21:37:06.759696  8608 net.cpp:406] scale3 <- conv3
I1117 21:37:06.759696  8608 net.cpp:367] scale3 -> conv3 (in-place)
I1117 21:37:06.759696  8608 layer_factory.cpp:58] Creating layer scale3
I1117 21:37:06.759696  8608 net.cpp:122] Setting up scale3
I1117 21:37:06.759696  8608 net.cpp:129] Top shape: 100 182 16 16 (4659200)
I1117 21:37:06.759696  8608 net.cpp:137] Memory required for data: 1772954800
I1117 21:37:06.759696  8608 layer_factory.cpp:58] Creating layer relu3
I1117 21:37:06.759696  8608 net.cpp:84] Creating Layer relu3
I1117 21:37:06.760195  8608 net.cpp:406] relu3 <- conv3
I1117 21:37:06.760195  8608 net.cpp:367] relu3 -> conv3 (in-place)
I1117 21:37:06.760195  8608 net.cpp:122] Setting up relu3
I1117 21:37:06.760195  8608 net.cpp:129] Top shape: 100 182 16 16 (4659200)
I1117 21:37:06.760195  8608 net.cpp:137] Memory required for data: 1791591600
I1117 21:37:06.760195  8608 layer_factory.cpp:58] Creating layer drop6
I1117 21:37:06.760195  8608 net.cpp:84] Creating Layer drop6
I1117 21:37:06.760195  8608 net.cpp:406] drop6 <- conv3
I1117 21:37:06.760195  8608 net.cpp:367] drop6 -> conv3 (in-place)
I1117 21:37:06.760195  8608 net.cpp:122] Setting up drop6
I1117 21:37:06.760195  8608 net.cpp:129] Top shape: 100 182 16 16 (4659200)
I1117 21:37:06.760195  8608 net.cpp:137] Memory required for data: 1810228400
I1117 21:37:06.760195  8608 layer_factory.cpp:58] Creating layer conv3_1
I1117 21:37:06.760195  8608 net.cpp:84] Creating Layer conv3_1
I1117 21:37:06.760696  8608 net.cpp:406] conv3_1 <- conv3
I1117 21:37:06.760696  8608 net.cpp:380] conv3_1 -> conv3_1
I1117 21:37:06.766196  8608 net.cpp:122] Setting up conv3_1
I1117 21:37:06.766695  8608 net.cpp:129] Top shape: 100 182 16 16 (4659200)
I1117 21:37:06.766695  8608 net.cpp:137] Memory required for data: 1828865200
I1117 21:37:06.766695  8608 layer_factory.cpp:58] Creating layer bn3_1
I1117 21:37:06.766695  8608 net.cpp:84] Creating Layer bn3_1
I1117 21:37:06.766695  8608 net.cpp:406] bn3_1 <- conv3_1
I1117 21:37:06.766695  8608 net.cpp:367] bn3_1 -> conv3_1 (in-place)
I1117 21:37:06.766695  8608 net.cpp:122] Setting up bn3_1
I1117 21:37:06.766695  8608 net.cpp:129] Top shape: 100 182 16 16 (4659200)
I1117 21:37:06.766695  8608 net.cpp:137] Memory required for data: 1847502000
I1117 21:37:06.766695  8608 layer_factory.cpp:58] Creating layer scale3_1
I1117 21:37:06.766695  8608 net.cpp:84] Creating Layer scale3_1
I1117 21:37:06.766695  8608 net.cpp:406] scale3_1 <- conv3_1
I1117 21:37:06.766695  8608 net.cpp:367] scale3_1 -> conv3_1 (in-place)
I1117 21:37:06.766695  8608 layer_factory.cpp:58] Creating layer scale3_1
I1117 21:37:06.767197  8608 net.cpp:122] Setting up scale3_1
I1117 21:37:06.767197  8608 net.cpp:129] Top shape: 100 182 16 16 (4659200)
I1117 21:37:06.767197  8608 net.cpp:137] Memory required for data: 1866138800
I1117 21:37:06.767197  8608 layer_factory.cpp:58] Creating layer relu3_1
I1117 21:37:06.767197  8608 net.cpp:84] Creating Layer relu3_1
I1117 21:37:06.767197  8608 net.cpp:406] relu3_1 <- conv3_1
I1117 21:37:06.767197  8608 net.cpp:367] relu3_1 -> conv3_1 (in-place)
I1117 21:37:06.767197  8608 net.cpp:122] Setting up relu3_1
I1117 21:37:06.767197  8608 net.cpp:129] Top shape: 100 182 16 16 (4659200)
I1117 21:37:06.767197  8608 net.cpp:137] Memory required for data: 1884775600
I1117 21:37:06.767197  8608 layer_factory.cpp:58] Creating layer drop6_1
I1117 21:37:06.767197  8608 net.cpp:84] Creating Layer drop6_1
I1117 21:37:06.767197  8608 net.cpp:406] drop6_1 <- conv3_1
I1117 21:37:06.767197  8608 net.cpp:367] drop6_1 -> conv3_1 (in-place)
I1117 21:37:06.767197  8608 net.cpp:122] Setting up drop6_1
I1117 21:37:06.767197  8608 net.cpp:129] Top shape: 100 182 16 16 (4659200)
I1117 21:37:06.767197  8608 net.cpp:137] Memory required for data: 1903412400
I1117 21:37:06.767197  8608 layer_factory.cpp:58] Creating layer conv4
I1117 21:37:06.767197  8608 net.cpp:84] Creating Layer conv4
I1117 21:37:06.767197  8608 net.cpp:406] conv4 <- conv3_1
I1117 21:37:06.767696  8608 net.cpp:380] conv4 -> conv4
I1117 21:37:06.771195  8608 net.cpp:122] Setting up conv4
I1117 21:37:06.771195  8608 net.cpp:129] Top shape: 100 182 16 16 (4659200)
I1117 21:37:06.771195  8608 net.cpp:137] Memory required for data: 1922049200
I1117 21:37:06.771195  8608 layer_factory.cpp:58] Creating layer bn4
I1117 21:37:06.771195  8608 net.cpp:84] Creating Layer bn4
I1117 21:37:06.771195  8608 net.cpp:406] bn4 <- conv4
I1117 21:37:06.771195  8608 net.cpp:367] bn4 -> conv4 (in-place)
I1117 21:37:06.771695  8608 net.cpp:122] Setting up bn4
I1117 21:37:06.771695  8608 net.cpp:129] Top shape: 100 182 16 16 (4659200)
I1117 21:37:06.771695  8608 net.cpp:137] Memory required for data: 1940686000
I1117 21:37:06.771695  8608 layer_factory.cpp:58] Creating layer scale4
I1117 21:37:06.771695  8608 net.cpp:84] Creating Layer scale4
I1117 21:37:06.771695  8608 net.cpp:406] scale4 <- conv4
I1117 21:37:06.771695  8608 net.cpp:367] scale4 -> conv4 (in-place)
I1117 21:37:06.771695  8608 layer_factory.cpp:58] Creating layer scale4
I1117 21:37:06.771695  8608 net.cpp:122] Setting up scale4
I1117 21:37:06.771695  8608 net.cpp:129] Top shape: 100 182 16 16 (4659200)
I1117 21:37:06.771695  8608 net.cpp:137] Memory required for data: 1959322800
I1117 21:37:06.771695  8608 layer_factory.cpp:58] Creating layer relu4
I1117 21:37:06.771695  8608 net.cpp:84] Creating Layer relu4
I1117 21:37:06.771695  8608 net.cpp:406] relu4 <- conv4
I1117 21:37:06.771695  8608 net.cpp:367] relu4 -> conv4 (in-place)
I1117 21:37:06.772195  8608 net.cpp:122] Setting up relu4
I1117 21:37:06.772696  8608 net.cpp:129] Top shape: 100 182 16 16 (4659200)
I1117 21:37:06.772696  8608 net.cpp:137] Memory required for data: 1977959600
I1117 21:37:06.772696  8608 layer_factory.cpp:58] Creating layer drop7
I1117 21:37:06.772696  8608 net.cpp:84] Creating Layer drop7
I1117 21:37:06.772696  8608 net.cpp:406] drop7 <- conv4
I1117 21:37:06.772696  8608 net.cpp:367] drop7 -> conv4 (in-place)
I1117 21:37:06.772696  8608 net.cpp:122] Setting up drop7
I1117 21:37:06.772696  8608 net.cpp:129] Top shape: 100 182 16 16 (4659200)
I1117 21:37:06.772696  8608 net.cpp:137] Memory required for data: 1996596400
I1117 21:37:06.772696  8608 layer_factory.cpp:58] Creating layer conv4_1
I1117 21:37:06.772696  8608 net.cpp:84] Creating Layer conv4_1
I1117 21:37:06.772696  8608 net.cpp:406] conv4_1 <- conv4
I1117 21:37:06.772696  8608 net.cpp:380] conv4_1 -> conv4_1
I1117 21:37:06.775696  8608 net.cpp:122] Setting up conv4_1
I1117 21:37:06.775696  8608 net.cpp:129] Top shape: 100 182 16 16 (4659200)
I1117 21:37:06.775696  8608 net.cpp:137] Memory required for data: 2015233200
I1117 21:37:06.775696  8608 layer_factory.cpp:58] Creating layer bn4_1
I1117 21:37:06.776196  8608 net.cpp:84] Creating Layer bn4_1
I1117 21:37:06.776196  8608 net.cpp:406] bn4_1 <- conv4_1
I1117 21:37:06.776196  8608 net.cpp:367] bn4_1 -> conv4_1 (in-place)
I1117 21:37:06.776196  8608 net.cpp:122] Setting up bn4_1
I1117 21:37:06.776196  8608 net.cpp:129] Top shape: 100 182 16 16 (4659200)
I1117 21:37:06.776196  8608 net.cpp:137] Memory required for data: 2033870000
I1117 21:37:06.776196  8608 layer_factory.cpp:58] Creating layer scale4_1
I1117 21:37:06.776196  8608 net.cpp:84] Creating Layer scale4_1
I1117 21:37:06.776196  8608 net.cpp:406] scale4_1 <- conv4_1
I1117 21:37:06.776196  8608 net.cpp:367] scale4_1 -> conv4_1 (in-place)
I1117 21:37:06.776196  8608 layer_factory.cpp:58] Creating layer scale4_1
I1117 21:37:06.776196  8608 net.cpp:122] Setting up scale4_1
I1117 21:37:06.776196  8608 net.cpp:129] Top shape: 100 182 16 16 (4659200)
I1117 21:37:06.776196  8608 net.cpp:137] Memory required for data: 2052506800
I1117 21:37:06.776196  8608 layer_factory.cpp:58] Creating layer relu4_1
I1117 21:37:06.776196  8608 net.cpp:84] Creating Layer relu4_1
I1117 21:37:06.776196  8608 net.cpp:406] relu4_1 <- conv4_1
I1117 21:37:06.776196  8608 net.cpp:367] relu4_1 -> conv4_1 (in-place)
I1117 21:37:06.777195  8608 net.cpp:122] Setting up relu4_1
I1117 21:37:06.777195  8608 net.cpp:129] Top shape: 100 182 16 16 (4659200)
I1117 21:37:06.777195  8608 net.cpp:137] Memory required for data: 2071143600
I1117 21:37:06.777195  8608 layer_factory.cpp:58] Creating layer drop8
I1117 21:37:06.777195  8608 net.cpp:84] Creating Layer drop8
I1117 21:37:06.777195  8608 net.cpp:406] drop8 <- conv4_1
I1117 21:37:06.777195  8608 net.cpp:367] drop8 -> conv4_1 (in-place)
I1117 21:37:06.777195  8608 net.cpp:122] Setting up drop8
I1117 21:37:06.777195  8608 net.cpp:129] Top shape: 100 182 16 16 (4659200)
I1117 21:37:06.777195  8608 net.cpp:137] Memory required for data: 2089780400
I1117 21:37:06.777195  8608 layer_factory.cpp:58] Creating layer conv4_2
I1117 21:37:06.777195  8608 net.cpp:84] Creating Layer conv4_2
I1117 21:37:06.777195  8608 net.cpp:406] conv4_2 <- conv4_1
I1117 21:37:06.777195  8608 net.cpp:380] conv4_2 -> conv4_2
I1117 21:37:06.784696  8608 net.cpp:122] Setting up conv4_2
I1117 21:37:06.784696  8608 net.cpp:129] Top shape: 100 430 16 16 (11008000)
I1117 21:37:06.784696  8608 net.cpp:137] Memory required for data: 2133812400
I1117 21:37:06.784696  8608 layer_factory.cpp:58] Creating layer bn4_2
I1117 21:37:06.784696  8608 net.cpp:84] Creating Layer bn4_2
I1117 21:37:06.784696  8608 net.cpp:406] bn4_2 <- conv4_2
I1117 21:37:06.784696  8608 net.cpp:367] bn4_2 -> conv4_2 (in-place)
I1117 21:37:06.784696  8608 net.cpp:122] Setting up bn4_2
I1117 21:37:06.785195  8608 net.cpp:129] Top shape: 100 430 16 16 (11008000)
I1117 21:37:06.785195  8608 net.cpp:137] Memory required for data: 2177844400
I1117 21:37:06.785195  8608 layer_factory.cpp:58] Creating layer scale4_2
I1117 21:37:06.785195  8608 net.cpp:84] Creating Layer scale4_2
I1117 21:37:06.785195  8608 net.cpp:406] scale4_2 <- conv4_2
I1117 21:37:06.785195  8608 net.cpp:367] scale4_2 -> conv4_2 (in-place)
I1117 21:37:06.785195  8608 layer_factory.cpp:58] Creating layer scale4_2
I1117 21:37:06.785195  8608 net.cpp:122] Setting up scale4_2
I1117 21:37:06.785195  8608 net.cpp:129] Top shape: 100 430 16 16 (11008000)
I1117 21:37:06.785195  8608 net.cpp:137] Memory required for data: 2221876400
I1117 21:37:06.785195  8608 layer_factory.cpp:58] Creating layer relu4_2
I1117 21:37:06.785195  8608 net.cpp:84] Creating Layer relu4_2
I1117 21:37:06.785195  8608 net.cpp:406] relu4_2 <- conv4_2
I1117 21:37:06.785195  8608 net.cpp:367] relu4_2 -> conv4_2 (in-place)
I1117 21:37:06.785696  8608 net.cpp:122] Setting up relu4_2
I1117 21:37:06.785696  8608 net.cpp:129] Top shape: 100 430 16 16 (11008000)
I1117 21:37:06.785696  8608 net.cpp:137] Memory required for data: 2265908400
I1117 21:37:06.785696  8608 layer_factory.cpp:58] Creating layer pool4_2
I1117 21:37:06.785696  8608 net.cpp:84] Creating Layer pool4_2
I1117 21:37:06.785696  8608 net.cpp:406] pool4_2 <- conv4_2
I1117 21:37:06.785696  8608 net.cpp:380] pool4_2 -> pool4_2
I1117 21:37:06.785696  8608 net.cpp:122] Setting up pool4_2
I1117 21:37:06.785696  8608 net.cpp:129] Top shape: 100 430 8 8 (2752000)
I1117 21:37:06.785696  8608 net.cpp:137] Memory required for data: 2276916400
I1117 21:37:06.785696  8608 layer_factory.cpp:58] Creating layer drop9
I1117 21:37:06.785696  8608 net.cpp:84] Creating Layer drop9
I1117 21:37:06.785696  8608 net.cpp:406] drop9 <- pool4_2
I1117 21:37:06.785696  8608 net.cpp:367] drop9 -> pool4_2 (in-place)
I1117 21:37:06.785696  8608 net.cpp:122] Setting up drop9
I1117 21:37:06.785696  8608 net.cpp:129] Top shape: 100 430 8 8 (2752000)
I1117 21:37:06.785696  8608 net.cpp:137] Memory required for data: 2287924400
I1117 21:37:06.785696  8608 layer_factory.cpp:58] Creating layer conv4_0
I1117 21:37:06.785696  8608 net.cpp:84] Creating Layer conv4_0
I1117 21:37:06.785696  8608 net.cpp:406] conv4_0 <- pool4_2
I1117 21:37:06.785696  8608 net.cpp:380] conv4_0 -> conv4_0
I1117 21:37:06.798696  8608 net.cpp:122] Setting up conv4_0
I1117 21:37:06.798696  8608 net.cpp:129] Top shape: 100 430 8 8 (2752000)
I1117 21:37:06.798696  8608 net.cpp:137] Memory required for data: 2298932400
I1117 21:37:06.798696  8608 layer_factory.cpp:58] Creating layer bn4_0
I1117 21:37:06.798696  8608 net.cpp:84] Creating Layer bn4_0
I1117 21:37:06.798696  8608 net.cpp:406] bn4_0 <- conv4_0
I1117 21:37:06.798696  8608 net.cpp:367] bn4_0 -> conv4_0 (in-place)
I1117 21:37:06.798696  8608 net.cpp:122] Setting up bn4_0
I1117 21:37:06.798696  8608 net.cpp:129] Top shape: 100 430 8 8 (2752000)
I1117 21:37:06.798696  8608 net.cpp:137] Memory required for data: 2309940400
I1117 21:37:06.798696  8608 layer_factory.cpp:58] Creating layer scale4_0
I1117 21:37:06.798696  8608 net.cpp:84] Creating Layer scale4_0
I1117 21:37:06.798696  8608 net.cpp:406] scale4_0 <- conv4_0
I1117 21:37:06.798696  8608 net.cpp:367] scale4_0 -> conv4_0 (in-place)
I1117 21:37:06.798696  8608 layer_factory.cpp:58] Creating layer scale4_0
I1117 21:37:06.799196  8608 net.cpp:122] Setting up scale4_0
I1117 21:37:06.799196  8608 net.cpp:129] Top shape: 100 430 8 8 (2752000)
I1117 21:37:06.799196  8608 net.cpp:137] Memory required for data: 2320948400
I1117 21:37:06.799196  8608 layer_factory.cpp:58] Creating layer relu4_0
I1117 21:37:06.799196  8608 net.cpp:84] Creating Layer relu4_0
I1117 21:37:06.799196  8608 net.cpp:406] relu4_0 <- conv4_0
I1117 21:37:06.799196  8608 net.cpp:367] relu4_0 -> conv4_0 (in-place)
I1117 21:37:06.799196  8608 net.cpp:122] Setting up relu4_0
I1117 21:37:06.799196  8608 net.cpp:129] Top shape: 100 430 8 8 (2752000)
I1117 21:37:06.799196  8608 net.cpp:137] Memory required for data: 2331956400
I1117 21:37:06.799196  8608 layer_factory.cpp:58] Creating layer drop10
I1117 21:37:06.799196  8608 net.cpp:84] Creating Layer drop10
I1117 21:37:06.799196  8608 net.cpp:406] drop10 <- conv4_0
I1117 21:37:06.799196  8608 net.cpp:367] drop10 -> conv4_0 (in-place)
I1117 21:37:06.799196  8608 net.cpp:122] Setting up drop10
I1117 21:37:06.799196  8608 net.cpp:129] Top shape: 100 430 8 8 (2752000)
I1117 21:37:06.799696  8608 net.cpp:137] Memory required for data: 2342964400
I1117 21:37:06.799696  8608 layer_factory.cpp:58] Creating layer conv11
I1117 21:37:06.799696  8608 net.cpp:84] Creating Layer conv11
I1117 21:37:06.799696  8608 net.cpp:406] conv11 <- conv4_0
I1117 21:37:06.799696  8608 net.cpp:380] conv11 -> conv11
I1117 21:37:06.812196  8608 net.cpp:122] Setting up conv11
I1117 21:37:06.812196  8608 net.cpp:129] Top shape: 100 455 8 8 (2912000)
I1117 21:37:06.812196  8608 net.cpp:137] Memory required for data: 2354612400
I1117 21:37:06.812196  8608 layer_factory.cpp:58] Creating layer bn_conv11
I1117 21:37:06.812196  8608 net.cpp:84] Creating Layer bn_conv11
I1117 21:37:06.812196  8608 net.cpp:406] bn_conv11 <- conv11
I1117 21:37:06.812196  8608 net.cpp:367] bn_conv11 -> conv11 (in-place)
I1117 21:37:06.812196  8608 net.cpp:122] Setting up bn_conv11
I1117 21:37:06.812196  8608 net.cpp:129] Top shape: 100 455 8 8 (2912000)
I1117 21:37:06.812196  8608 net.cpp:137] Memory required for data: 2366260400
I1117 21:37:06.812696  8608 layer_factory.cpp:58] Creating layer scale_conv11
I1117 21:37:06.812696  8608 net.cpp:84] Creating Layer scale_conv11
I1117 21:37:06.812696  8608 net.cpp:406] scale_conv11 <- conv11
I1117 21:37:06.812696  8608 net.cpp:367] scale_conv11 -> conv11 (in-place)
I1117 21:37:06.812696  8608 layer_factory.cpp:58] Creating layer scale_conv11
I1117 21:37:06.812696  8608 net.cpp:122] Setting up scale_conv11
I1117 21:37:06.812696  8608 net.cpp:129] Top shape: 100 455 8 8 (2912000)
I1117 21:37:06.812696  8608 net.cpp:137] Memory required for data: 2377908400
I1117 21:37:06.812696  8608 layer_factory.cpp:58] Creating layer relu_conv11
I1117 21:37:06.812696  8608 net.cpp:84] Creating Layer relu_conv11
I1117 21:37:06.812696  8608 net.cpp:406] relu_conv11 <- conv11
I1117 21:37:06.812696  8608 net.cpp:367] relu_conv11 -> conv11 (in-place)
I1117 21:37:06.813196  8608 net.cpp:122] Setting up relu_conv11
I1117 21:37:06.813196  8608 net.cpp:129] Top shape: 100 455 8 8 (2912000)
I1117 21:37:06.813196  8608 net.cpp:137] Memory required for data: 2389556400
I1117 21:37:06.813196  8608 layer_factory.cpp:58] Creating layer drop11
I1117 21:37:06.813196  8608 net.cpp:84] Creating Layer drop11
I1117 21:37:06.813196  8608 net.cpp:406] drop11 <- conv11
I1117 21:37:06.813196  8608 net.cpp:367] drop11 -> conv11 (in-place)
I1117 21:37:06.813196  8608 net.cpp:122] Setting up drop11
I1117 21:37:06.813196  8608 net.cpp:129] Top shape: 100 455 8 8 (2912000)
I1117 21:37:06.813196  8608 net.cpp:137] Memory required for data: 2401204400
I1117 21:37:06.813196  8608 layer_factory.cpp:58] Creating layer conv12
I1117 21:37:06.813196  8608 net.cpp:84] Creating Layer conv12
I1117 21:37:06.813196  8608 net.cpp:406] conv12 <- conv11
I1117 21:37:06.813196  8608 net.cpp:380] conv12 -> conv12
I1117 21:37:06.829696  8608 net.cpp:122] Setting up conv12
I1117 21:37:06.829696  8608 net.cpp:129] Top shape: 100 600 8 8 (3840000)
I1117 21:37:06.829696  8608 net.cpp:137] Memory required for data: 2416564400
I1117 21:37:06.829696  8608 layer_factory.cpp:58] Creating layer bn_conv12
I1117 21:37:06.829696  8608 net.cpp:84] Creating Layer bn_conv12
I1117 21:37:06.829696  8608 net.cpp:406] bn_conv12 <- conv12
I1117 21:37:06.829696  8608 net.cpp:367] bn_conv12 -> conv12 (in-place)
I1117 21:37:06.830196  8608 net.cpp:122] Setting up bn_conv12
I1117 21:37:06.830196  8608 net.cpp:129] Top shape: 100 600 8 8 (3840000)
I1117 21:37:06.830196  8608 net.cpp:137] Memory required for data: 2431924400
I1117 21:37:06.830196  8608 layer_factory.cpp:58] Creating layer scale_conv12
I1117 21:37:06.830196  8608 net.cpp:84] Creating Layer scale_conv12
I1117 21:37:06.830196  8608 net.cpp:406] scale_conv12 <- conv12
I1117 21:37:06.830196  8608 net.cpp:367] scale_conv12 -> conv12 (in-place)
I1117 21:37:06.830196  8608 layer_factory.cpp:58] Creating layer scale_conv12
I1117 21:37:06.830696  8608 net.cpp:122] Setting up scale_conv12
I1117 21:37:06.830696  8608 net.cpp:129] Top shape: 100 600 8 8 (3840000)
I1117 21:37:06.830696  8608 net.cpp:137] Memory required for data: 2447284400
I1117 21:37:06.830696  8608 layer_factory.cpp:58] Creating layer relu_conv12
I1117 21:37:06.830696  8608 net.cpp:84] Creating Layer relu_conv12
I1117 21:37:06.830696  8608 net.cpp:406] relu_conv12 <- conv12
I1117 21:37:06.830696  8608 net.cpp:367] relu_conv12 -> conv12 (in-place)
I1117 21:37:06.830696  8608 net.cpp:122] Setting up relu_conv12
I1117 21:37:06.830696  8608 net.cpp:129] Top shape: 100 600 8 8 (3840000)
I1117 21:37:06.830696  8608 net.cpp:137] Memory required for data: 2462644400
I1117 21:37:06.830696  8608 layer_factory.cpp:58] Creating layer poolcp6
I1117 21:37:06.830696  8608 net.cpp:84] Creating Layer poolcp6
I1117 21:37:06.830696  8608 net.cpp:406] poolcp6 <- conv12
I1117 21:37:06.830696  8608 net.cpp:380] poolcp6 -> poolcp6
I1117 21:37:06.830696  8608 net.cpp:122] Setting up poolcp6
I1117 21:37:06.830696  8608 net.cpp:129] Top shape: 100 600 1 1 (60000)
I1117 21:37:06.830696  8608 net.cpp:137] Memory required for data: 2462884400
I1117 21:37:06.831197  8608 layer_factory.cpp:58] Creating layer drop12
I1117 21:37:06.831197  8608 net.cpp:84] Creating Layer drop12
I1117 21:37:06.831197  8608 net.cpp:406] drop12 <- poolcp6
I1117 21:37:06.831197  8608 net.cpp:367] drop12 -> poolcp6 (in-place)
I1117 21:37:06.831197  8608 net.cpp:122] Setting up drop12
I1117 21:37:06.831197  8608 net.cpp:129] Top shape: 100 600 1 1 (60000)
I1117 21:37:06.831197  8608 net.cpp:137] Memory required for data: 2463124400
I1117 21:37:06.831197  8608 layer_factory.cpp:58] Creating layer ip1
I1117 21:37:06.831197  8608 net.cpp:84] Creating Layer ip1
I1117 21:37:06.831197  8608 net.cpp:406] ip1 <- poolcp6
I1117 21:37:06.831197  8608 net.cpp:380] ip1 -> ip1
I1117 21:37:06.831696  8608 net.cpp:122] Setting up ip1
I1117 21:37:06.831696  8608 net.cpp:129] Top shape: 100 10 (1000)
I1117 21:37:06.831696  8608 net.cpp:137] Memory required for data: 2463128400
I1117 21:37:06.831696  8608 layer_factory.cpp:58] Creating layer ip1_ip1_0_split
I1117 21:37:06.831696  8608 net.cpp:84] Creating Layer ip1_ip1_0_split
I1117 21:37:06.831696  8608 net.cpp:406] ip1_ip1_0_split <- ip1
I1117 21:37:06.831696  8608 net.cpp:380] ip1_ip1_0_split -> ip1_ip1_0_split_0
I1117 21:37:06.832196  8608 net.cpp:380] ip1_ip1_0_split -> ip1_ip1_0_split_1
I1117 21:37:06.832196  8608 net.cpp:122] Setting up ip1_ip1_0_split
I1117 21:37:06.832196  8608 net.cpp:129] Top shape: 100 10 (1000)
I1117 21:37:06.832196  8608 net.cpp:129] Top shape: 100 10 (1000)
I1117 21:37:06.832196  8608 net.cpp:137] Memory required for data: 2463136400
I1117 21:37:06.832196  8608 layer_factory.cpp:58] Creating layer accuracy_training
I1117 21:37:06.832196  8608 net.cpp:84] Creating Layer accuracy_training
I1117 21:37:06.832196  8608 net.cpp:406] accuracy_training <- ip1_ip1_0_split_0
I1117 21:37:06.832196  8608 net.cpp:406] accuracy_training <- label_cifar_1_split_0
…
